FarconVAE/model_adult/farcon_2023_05_01_16_45_38_662602_ours.pth (torch, 82153 bytes, 21 tensors)

encoder.fc.weight f4 [64, 97]
0	0x3c7d3692	0.015454905
1	0xbe2aa44a	-0.16664234
2	0xbc011c70	-0.007880315
3	0xbd8600a9	-0.06543095
4	0xbdb64885	-0.08900551
5	0xbdd6de68	-0.104916394
6	0x3d1fc43a	0.039005496
7	0xbdb8ce04	-0.09023669
8	0xbd41841b	-0.047245126
9	0xbd25cfab	-0.04048125
10	0x3b664e75	0.003514198
11	0xb9a72171	-0.00031877638
12	0xbd892fe4	-0.066985875
13	0xbd247f8e	-0.040160708
14	0xbc9634ff	-0.018335817
15	0xbcea56b3	-0.028605795
16	0xbc686561	-0.014184327
17	0xbd3c1076	-0.045914136
18	0xbb6691d4	-0.0035182135
19	0x3c902f3d	0.01760065
20	0xbe45fe83	-0.1933537
21	0x3c17128f	0.009220733
22	0xbd892093	-0.06695666
23	0x3ba08e76	0.004899795
24	0x38b5b818	8.665043e-05
25	0x3cc34ea6	0.023841213
26	0x3d7a142c	0.061054394
27	0xbc722994	-0.014780421
28	0x3a7d875c	0.0009671354
29	0xbc851d16	-0.01624922
30	0xbdc414ed	-0.09574304
31	0xbc6e73e8	-0.014554001
32	0x3d344cc3	0.04401852
33	0xbaae59e2	-0.0013301934
34	0x39149d75	0.00014173037
35	0xbd4d2bfa	-0.050090767
36	0xbcca13d6	-0.024667662
37	0xbd7eee90	-0.06223923
38	0xbd7dba68	-0.06194535
39	0x3d7d1081	0.061783317
40	0xbb604e09	-0.00342262
41	0x3d2ecd7e	0.04267644
42	0x3cacf71c	0.021113925
43	0xbe19b101	-0.15008928
44	0x3cad0f6d	0.02112552
45	0xbd86dd5f	-0.06585192
46	0xbe1b5549	-0.15169252
47	0xbd21f201	-0.039537434
48	0xbd789398	-0.06068763
49	0x3d64493d	0.055733908
50	0xbc3bd1f9	-0.011463636
51	0xbdcecdfc	-0.10097882
52	0xbe09161a	-0.13387337
53	0xbd7444e5	-0.059636015
54	0xbd2d5b51	-0.042323414
55	0xbd0562d4	-0.032564953
56	0xbd10ad4f	-0.03532153
57	0xbabedbe2	-0.001456138
58	0xbd153b09	-0.036433253
59	0xbafc4a06	-0.0019248135
60	0xbc6e658d	-0.014550579
61	0xbc96b9f2	-0.018399213
62	0xbd068b6a	-0.0328478
63	0xbc7fdeda	-0.015617097
64	0xbd0109e7	-0.031503584
65	0xbbea131f	-0.0071433927
66	0xbc0b1a7c	-0.008490201
67	0xbc51dfde	-0.012809722
68	0x3a6dce6d	0.00090715924
69	0xbb5fe859	-0.003416559
70	0xbc4ed250	-0.012623385
71	0x3b8c001f	0.0042724754
72	0xbd087384	-0.03331329
73	0xbcdbd926	-0.026836943
74	0xbbe6a0be	-0.007038205
75	0xbc856f33	-0.016288375
76	0xbd002cc2	-0.031292684
77	0xbcee8d7b	-0.029120198
78	0xbb9c9713	-0.0047787516
79	0xbd42a8a3	-0.047524106
80	0xbb4ddd56	-0.0031412444
81	0x3b269fa8	0.0025424752
82	0xbb025dbd	-0.0019892298
83	0xbd2428a2	-0.040077813
84	0xbca0fec8	-0.01965274
85	0xbc0e5639	-0.008687549
86	0xbc8ff635	-0.017573455
87	0xba41a33d	-0.000738669
88	0xbc8b63f9	-0.017015444
89	0xbcbbca00	-0.02292347
90	0xbc0ba045	-0.008522098
91	0xbc798af5	-0.015230884
92	0xbdc6e184	-0.097109824
93	0xbc17fc47	-0.009276456
94	0xbc4cd507	-0.012501962
95	0xbcf2967c	-0.029612772
96	0x3f33010b	0.69923466
97	0x3d1844fd	0.037175167
98	0x3e16e3a4	0.14735276
99	0x3e15977c	0.14608568
100	0x3c4287b5	0.011873175
101	0x398b27aa	0.00026541698
102	0x3dfb0d01	0.1225834
103	0x3d97290d	0.07380877
104	0x3dc3aeb2	0.09554805
105	0x3ddf78e7	0.10911732
106	0x3d0d4150	0.034486115
107	0x3d312219	0.04324541
108	0xbc414a0a	-0.011797437
109	0xbd739e0e	-0.059476905
110	0xbcf2212c	-0.029556833
111	0xbdb78e6d	-0.089627124
112	0xbdb733e2	-0.08945443
113	0xbd5b0f59	-0.053481434
114	0xbd99530d	-0.07486544
115	0x3dbce65a	0.092236236
116	0x3db0dcef	0.0863589
117	0x3e1ac6e1	0.15114929
118	0xbce8c188	-0.028412595
119	0x3e080a03	0.13285069
120	0x3d92a526	0.07160406
121	0xbd2ae14d	-0.04171877
122	0x3d12b796	0.035819612
123	0x3e6bd921	0.23032047
124	0xbd14c42f	-0.036319908
125	0xbcc44af2	-0.023961518
126	0xbde82a05	-0.113361396
127	0x3e53a66c	0.20668954
128	0xbd809436	-0.06278269
129	0x3d0601b7	0.03271648
130	0xbc748250	-0.014923647
131	0xbca2178c	-0.019786619
132	0x3e3b9399	0.18318023
133	0x3d41adb3	0.047284793
134	0xbca6e552	-0.02037302
135	0xbdb55937	-0.08854907
136	0x3e13b640	0.14424992
137	0xbd8fe16f	-0.0702542
138	0x3e138127	0.14404736
139	0x3c9c5e38	0.019087896
140	0x3db236d4	0.08701864
141	0x3bd4b794	0.006491611
142	0x3d36e926	0.04465594
143	0x3db97390	0.09055245
144	0xbe0744c3	-0.13209824
145	0x3e04bf2d	0.12963553
146	0x3c70bb7c	0.014693137
147	0x3cf04e3b	0.029334178
148	0xbd9cfab1	-0.07665003
149	0xbd2a208e	-0.041534953
150	0xbe1adf26	-0.15124187
151	0x3e085f03	0.13317494
152	0xbd417dff	-0.0472393
153	0xbd04160b	-0.032247584
154	0xbd4e000f	-0.050293025
155	0xbd888ebd	-0.0666785
156	0xbd46f2d9	-0.04857144
157	0xbd348bab	-0.04407851
158	0xbd9a3721	-0.07530046
159	0xbd2b3fb6	-0.041808806
160	0xbcafb22e	-0.021447267
161	0xbd5e9c5c	-0.054348335
162	0xbcb18a6e	-0.021672454
163	0xbd17b70e	-0.03703981
164	0xbd039c19	-0.03213129
165	0xbba53917	-0.005042206
166	0xbc37c09e	-0.011215357
167	0xbc03c3bc	-0.008042272
168	0xbcdd2056	-0.026992958
169	0xbd232598	-0.039830774
170	0xbccb99d5	-0.024853626
171	0xbca35cba	-0.019941676
172	0xbd0d8af8	-0.03455636
173	0xbd3147bf	-0.043281313
174	0xbcd70060	-0.026245296
175	0xbc7ebcf9	-0.015547984
176	0xbde00ad8	-0.10939568
177	0xbd0b5198	-0.03401336
178	0xbcb1be50	-0.021697193
179	0xbd260703	-0.04053403
180	0xbd8f330f	-0.069921605
181	0xbd402080	-0.046905994
182	0xbc9e010d	-0.01928761
183	0xbd893fdd	-0.06701634
184	0xbcb2dd11	-0.021833928
185	0xbd0abf47	-0.033873823
186	0xbb824449	-0.0039754254
187	0xbc08fe34	-0.008361388
188	0xbbcaa9eb	-0.0061848066
189	0x3e5f341c	0.21797222
190	0xbd1ebddf	-0.038755294
191	0xbce57fd5	-0.028015057
192	0xbd73de65	-0.059538264
193	0xbe894343	-0.2680913
194	0xbdc73ad2	-0.09728016
195	0xbd75b7bc	-0.059989676
196	0xbdd249d6	-0.10267989
197	0xbd8507be	-0.06495617
198	0xbc97b0a3	-0.018516844
199	0xbe143a22	-0.14475301
200	0x3ceca016	0.028884929
201	0xbe49276f	-0.19643949
202	0x3dad9ff9	0.08477778
203	0x3c7ad610	0.015309826
204	0x3d56b715	0.052420694
205	0x3b660689	0.003509911
206	0xbc7a378a	-0.015272031
207	0x3cb22ef8	0.021750912
208	0x3cd064ea	0.025438745
209	0x3d01f567	0.031728175
210	0x3d184b86	0.0371814
211	0x3cb7103a	0.022346605
212	0x3bea5765	0.0071515315
213	0xbc159de4	-0.009131882
214	0xbdd16b60	-0.10225558
215	0x3a8c46e5	0.001070228
216	0xbe48f8fa	-0.19626227
217	0x3d6e0f8f	0.058120307
218	0x3bd9a70e	0.006642229
219	0xbbde0774	-0.006775791
220	0xbcd2b5a3	-0.025721377
221	0x3bacba75	0.005271251
222	0xbea136d0	-0.3148713
223	0x3d11a098	0.035553545
224	0xbc5d5fa9	-0.013511577
225	0x3c3cb8ed	0.011518699
226	0x3d7ba369	0.061435137
227	0x3b366b1b	0.0027834836
228	0xbe290340	-0.16505146
229	0xbd584a2f	-0.052805122
230	0xbca75919	-0.020428227
231	0xbbaf8199	-0.0053560254
232	0xbd1267bb	-0.035743456
233	0x3df78ffa	0.12088008
234	0x3c7f1193	0.015568155
235	0xbd9c587c	-0.076340646
236	0x3c851df0	0.016249627
237	0xbdc005ef	-0.09376132
238	0xbc45fe42	-0.012084546
239	0xbc46e2ac	-0.012139004
240	0x3c0b610e	0.008507026
241	0x3d037298	0.032091707
242	0xbd6cffff	-0.057861324
243	0x3bad32bc	0.005285589
244	0xbd00ec6b	-0.031475466
245	0x3df4ecc1	0.1195922
246	0x3e21602c	0.15759343
247	0x3d17c01f	0.037048455
248	0xbe7c99d6	-0.24668059
249	0x3c2aca62	0.010424228
250	0x3c9813dd	0.018564159
251	0x3bc520de	0.006015881
252	0x3c36f34b	0.011166404
253	0x3be31bf4	0.0069308225
254	0x3bbaac59	0.005696815
255	0x3c7fb5a6	0.015607273

encoder.fc.bias f4 [64]
0	0xbdf3118f	-0.118685834
1	0x3e1e118d	0.15436383
2	0xbe460eb2	-0.19341543
3	0x3e8896a8	0.26677442
4	0x3e2efb7e	0.17088124
5	0x3d10039a	0.035159685
6	0xbd03e624	-0.0322019
7	0xbe98ac78	-0.29819083
8	0x3dc837e3	0.097762845
9	0xbdb0fc2c	-0.08641848
10	0x3d98d932	0.07463302
11	0xbdaf130e	-0.08548556
12	0x3e27e4fa	0.16395941
13	0xbdc73e45	-0.09728674
14	0x3db6f0e6	0.089326665
15	0x3da50db0	0.08059251
16	0x3e1e2688	0.15444386
17	0x3de9609b	0.11395379
18	0x3dd7b694	0.10532871
19	0xbe646c9d	-0.22307058
20	0x3e574580	0.21022606
21	0x3e2f15cb	0.17098157
22	0xbea11717	-0.3146293
23	0x3db1e650	0.08686507
24	0xbe2ab11c	-0.16669124
25	0x3d113ca8	0.035458237
26	0x3da0c335	0.07849733
27	0xbe85db0f	-0.2614369
28	0xbd3aa24b	-0.04556493
29	0x3e7f3b0f	0.24924873
30	0x3d41a1f7	0.047273602
31	0xbe3182ee	-0.17335102
32	0x3d10c4e6	0.035344027
33	0x3dcb90f6	0.099397585
34	0xbe916254	-0.2839533
35	0x3d84401b	0.0645754
36	0xbbde387d	-0.0067816363
37	0xbe27cdcc	-0.16387099
38	0xbe25b5bd	-0.16182609
39	0xbe09afe5	-0.13446005
40	0x3e0bf899	0.13669051
41	0xbe8f8452	-0.2803064
42	0x3dc7ab51	0.09749473
43	0x3d6564a1	0.05600417
44	0xbe78bb02	-0.24290088
45	0xbdc1a5ca	-0.0945545
46	0xbd8de1ad	-0.0692781
47	0x3e468ef1	0.19390465
48	0x3e235e2b	0.15953891
49	0xbe73364b	-0.2375118
50	0xbca0df54	-0.019637741
51	0x3d99c1e6	0.07507686
52	0xbc333453	-0.010937768
53	0x3dcd93af	0.10037934
54	0x3e41fec9	0.18944849
55	0x3ceddad7	0.029035015
56	0x3e1f32b0	0.1554668
57	0xbe80cc27	-0.25155756
58	0x3e06b6eb	0.13155715
59	0x3ce88918	0.028385684
60	0x3e0b73e7	0.13618432
61	0xbe5b25b0	-0.21401095
62	0x3dbcfefb	0.09228321
63	0xbdcde99f	-0.10054325

encoder.bn.weight f4 [64]
0	0x3f800000	1.0
1	0x3f800000	1.0
2	0x3f800000	1.0
3	0x3f800000	1.0
4	0x3f800000	1.0
5	0x3f800000	1.0
6	0x3f800000	1.0
7	0x3f800000	1.0
8	0x3f800000	1.0
9	0x3f800000	1.0
10	0x3f800000	1.0
11	0x3f800000	1.0
12	0x3f800000	1.0
13	0x3f800000	1.0
14	0x3f800000	1.0
15	0x3f800000	1.0
16	0x3f800000	1.0
17	0x3f800000	1.0
18	0x3f800000	1.0
19	0x3f800000	1.0
20	0x3f800000	1.0
21	0x3f800000	1.0
22	0x3f800000	1.0
23	0x3f800000	1.0
24	0x3f800000	1.0
25	0x3f800000	1.0
26	0x3f800000	1.0
27	0x3f800000	1.0
28	0x3f800000	1.0
29	0x3f800000	1.0
30	0x3f800000	1.0
31	0x3f800000	1.0
32	0x3f800000	1.0
33	0x3f800000	1.0
34	0x3f800000	1.0
35	0x3f800000	1.0
36	0x3f800000	1.0
37	0x3f800000	1.0
38	0x3f800000	1.0
39	0x3f800000	1.0
40	0x3f800000	1.0
41	0x3f800000	1.0
42	0x3f800000	1.0
43	0x3f800000	1.0
44	0x3f800000	1.0
45	0x3f800000	1.0
46	0x3f800000	1.0
47	0x3f800000	1.0
48	0x3f800000	1.0
49	0x3f800000	1.0
50	0x3f800000	1.0
51	0x3f800000	1.0
52	0x3f800000	1.0
53	0x3f800000	1.0
54	0x3f800000	1.0
55	0x3f800000	1.0
56	0x3f800000	1.0
57	0x3f800000	1.0
58	0x3f800000	1.0
59	0x3f800000	1.0
60	0x3f800000	1.0
61	0x3f800000	1.0
62	0x3f800000	1.0
63	0x3f800000	1.0

encoder.bn.bias f4 [64]
0	0x00000000	0.0
1	0x00000000	0.0
2	0x00000000	0.0
3	0x00000000	0.0
4	0x00000000	0.0
5	0x00000000	0.0
6	0x00000000	0.0
7	0x00000000	0.0
8	0x00000000	0.0
9	0x00000000	0.0
10	0x00000000	0.0
11	0x00000000	0.0
12	0x00000000	0.0
13	0x00000000	0.0
14	0x00000000	0.0
15	0x00000000	0.0
16	0x00000000	0.0
17	0x00000000	0.0
18	0x00000000	0.0
19	0x00000000	0.0
20	0x00000000	0.0
21	0x00000000	0.0
22	0x00000000	0.0
23	0x00000000	0.0
24	0x00000000	0.0
25	0x00000000	0.0
26	0x00000000	0.0
27	0x00000000	0.0
28	0x00000000	0.0
29	0x00000000	0.0
30	0x00000000	0.0
31	0x00000000	0.0
32	0x00000000	0.0
33	0x00000000	0.0
34	0x00000000	0.0
35	0x00000000	0.0
36	0x00000000	0.0
37	0x00000000	0.0
38	0x00000000	0.0
39	0x00000000	0.0
40	0x00000000	0.0
41	0x00000000	0.0
42	0x00000000	0.0
43	0x00000000	0.0
44	0x00000000	0.0
45	0x00000000	0.0
46	0x00000000	0.0
47	0x00000000	0.0
48	0x00000000	0.0
49	0x00000000	0.0
50	0x00000000	0.0
51	0x00000000	0.0
52	0x00000000	0.0
53	0x00000000	0.0
54	0x00000000	0.0
55	0x00000000	0.0
56	0x00000000	0.0
57	0x00000000	0.0
58	0x00000000	0.0
59	0x00000000	0.0
60	0x00000000	0.0
61	0x00000000	0.0
62	0x00000000	0.0
63	0x00000000	0.0

encoder.bn.running_mean f4 [64]
0	0x00000000	0.0
1	0x00000000	0.0
2	0x00000000	0.0
3	0x00000000	0.0
4	0x00000000	0.0
5	0x00000000	0.0
6	0x00000000	0.0
7	0x00000000	0.0
8	0x00000000	0.0
9	0x00000000	0.0
10	0x00000000	0.0
11	0x00000000	0.0
12	0x00000000	0.0
13	0x00000000	0.0
14	0x00000000	0.0
15	0x00000000	0.0
16	0x00000000	0.0
17	0x00000000	0.0
18	0x00000000	0.0
19	0x00000000	0.0
20	0x00000000	0.0
21	0x00000000	0.0
22	0x00000000	0.0
23	0x00000000	0.0
24	0x00000000	0.0
25	0x00000000	0.0
26	0x00000000	0.0
27	0x00000000	0.0
28	0x00000000	0.0
29	0x00000000	0.0
30	0x00000000	0.0
31	0x00000000	0.0
32	0x00000000	0.0
33	0x00000000	0.0
34	0x00000000	0.0
35	0x00000000	0.0
36	0x00000000	0.0
37	0x00000000	0.0
38	0x00000000	0.0
39	0x00000000	0.0
40	0x00000000	0.0
41	0x00000000	0.0
42	0x00000000	0.0
43	0x00000000	0.0
44	0x00000000	0.0
45	0x00000000	0.0
46	0x00000000	0.0
47	0x00000000	0.0
48	0x00000000	0.0
49	0x00000000	0.0
50	0x00000000	0.0
51	0x00000000	0.0
52	0x00000000	0.0
53	0x00000000	0.0
54	0x00000000	0.0
55	0x00000000	0.0
56	0x00000000	0.0
57	0x00000000	0.0
58	0x00000000	0.0
59	0x00000000	0.0
60	0x00000000	0.0
61	0x00000000	0.0
62	0x00000000	0.0
63	0x00000000	0.0

encoder.bn.running_var f4 [64]
0	0x3f800000	1.0
1	0x3f800000	1.0
2	0x3f800000	1.0
3	0x3f800000	1.0
4	0x3f800000	1.0
5	0x3f800000	1.0
6	0x3f800000	1.0
7	0x3f800000	1.0
8	0x3f800000	1.0
9	0x3f800000	1.0
10	0x3f800000	1.0
11	0x3f800000	1.0
12	0x3f800000	1.0
13	0x3f800000	1.0
14	0x3f800000	1.0
15	0x3f800000	1.0
16	0x3f800000	1.0
17	0x3f800000	1.0
18	0x3f800000	1.0
19	0x3f800000	1.0
20	0x3f800000	1.0
21	0x3f800000	1.0
22	0x3f800000	1.0
23	0x3f800000	1.0
24	0x3f800000	1.0
25	0x3f800000	1.0
26	0x3f800000	1.0
27	0x3f800000	1.0
28	0x3f800000	1.0
29	0x3f800000	1.0
30	0x3f800000	1.0
31	0x3f800000	1.0
32	0x3f800000	1.0
33	0x3f800000	1.0
34	0x3f800000	1.0
35	0x3f800000	1.0
36	0x3f800000	1.0
37	0x3f800000	1.0
38	0x3f800000	1.0
39	0x3f800000	1.0
40	0x3f800000	1.0
41	0x3f800000	1.0
42	0x3f800000	1.0
43	0x3f800000	1.0
44	0x3f800000	1.0
45	0x3f800000	1.0
46	0x3f800000	1.0
47	0x3f800000	1.0
48	0x3f800000	1.0
49	0x3f800000	1.0
50	0x3f800000	1.0
51	0x3f800000	1.0
52	0x3f800000	1.0
53	0x3f800000	1.0
54	0x3f800000	1.0
55	0x3f800000	1.0
56	0x3f800000	1.0
57	0x3f800000	1.0
58	0x3f800000	1.0
59	0x3f800000	1.0
60	0x3f800000	1.0
61	0x3f800000	1.0
62	0x3f800000	1.0
63	0x3f800000	1.0

encoder.out.weight f4 [60, 64]
0	0xbdf758a5	-0.120774545
1	0xbb1db8ed	-0.0024066523
2	0xbe0711be	-0.13190362
3	0xbd081930	-0.033227146
4	0x3e3f09b8	0.18656051
5	0x3b093f20	0.0020942166
6	0xbd781e19	-0.06057558
7	0xbda7974e	-0.08183156
8	0xbe4df4d0	-0.2011292
9	0xbde4aace	-0.11165391
10	0xbd3f0cd2	-0.046643086
11	0xbe7f4f2b	-0.24932544
12	0x3d567219	0.052354906
13	0xbd966c07	-0.07344823
14	0x3cdb6fdd	0.026786739
15	0xbc82a7eb	-0.01594921
16	0xbb995e72	-0.004680448
17	0xbb9b6617	-0.0047423947
18	0xbe097fe7	-0.13427697
19	0xbb90af75	-0.0044154474
20	0xbdf9e219	-0.12201328
21	0x3d97bbd6	0.07408874
22	0xbbcd33a1	-0.006262258
23	0x3c225246	0.009907311
24	0x3d3cab27	0.04606166
25	0x3d2745fc	0.040838227
26	0x3ddb71ff	0.107151024
27	0xbdd09c11	-0.10186017
28	0x3c88204a	0.01661696
29	0x3decabd8	0.11556214
30	0xbe3b00cb	-0.18262021
31	0xbe08b082	-0.13348582
32	0xbe04fd3a	-0.12987223
33	0xbe2caa88	-0.16861928
34	0x3d13834c	0.036013886
35	0x3d94010c	0.07226762
36	0x3de232fc	0.11044881
37	0x3da068c6	0.07832484
38	0x3d6e95d9	0.058248375
39	0xbc13a6f3	-0.009011972
40	0x3d7454c1	0.05965114
41	0xbd345d2e	-0.044034176
42	0x3cdcc98e	0.026951578
43	0x3df4bccd	0.119500734
44	0x3d86183b	0.0654759
45	0xbd9ad747	-0.07560592
46	0xbc9c3ee3	-0.019072955
47	0x3db72d89	0.08944232
48	0x3d827501	0.06369973
49	0xbd855a9d	-0.06511424
50	0xbdbfa96e	-0.09358488
51	0xbd1c8f78	-0.03822276
52	0xbdda71e7	-0.106662564
53	0x3bd3aebd	0.0064600394
54	0xbd0f69e9	-0.035013113
55	0x3e5dc261	0.21656181
56	0x3db6f908	0.08934218
57	0xbcc61439	-0.024179565
58	0x3e2cde8c	0.1688177
59	0x3d3cfd50	0.046140015
60	0xbe924a03	-0.2857209
61	0xbd2851c7	-0.041093614
62	0xbcd36572	-0.025805209
63	0xbdcf4f73	-0.101225756
64	0x3eb0c926	0.34528464
65	0xbd127788	-0.035758525
66	0xbd99d554	-0.07511392
67	0xbd6bdcbd	-0.05758356
68	0xbe09ee8d	-0.13469906
69	0xbd6a8dee	-0.05726426
70	0x3d333e64	0.043760672
71	0x3e533b1d	0.20628019
72	0x3dadc9fe	0.084857926
73	0x3dabde5f	0.08392023
74	0x3a327ca2	0.0006808733
75	0x3eb58900	0.35456085
76	0xbd69de3f	-0.057096716
77	0x3e25ca1d	0.16190381
78	0x3d17cdc6	0.037061475
79	0xbe0bf1a8	-0.13666403
80	0xbd1b9816	-0.037986837
81	0xbdc662d2	-0.09686817
82	0xbc125ff3	-0.008934009
83	0x3d815d97	0.06316679
84	0x3dd439ed	0.10362611
85	0x3b096846	0.0020966693
86	0x3e3d47b5	0.18484385
87	0xbd4e87c1	-0.050422434
88	0x3d3e54d6	0.046467625
89	0xbd826908	-0.06367689
90	0xbe0def49	-0.13860811
91	0x3e01672b	0.12637012
92	0x3d8c0163	0.06836202
93	0xbe592e35	-0.21209033
94	0x3e113ee5	0.14184149
95	0x3e756fc3	0.23968415
96	0xbdea5059	-0.11441106
97	0xbde0b26b	-0.109715305
98	0x3e5b4adb	0.21415274
99	0xbd1cf485	-0.03831913
100	0xbdcc41bb	-0.099734746
101	0x3e083f6f	0.13305448
102	0x3e5833ed	0.21113558
103	0x3e7516df	0.23934506
104	0xbda133e2	-0.07871224
105	0x3bca9334	0.0061820988
106	0xbd1dbf47	-0.038512494
107	0xbe1d165c	-0.1534056
108	0x3de6f510	0.11277211
109	0x3e379358	0.17927301
110	0xbd5f5e10	-0.054533064
111	0x3e900b0f	0.28133437
112	0xbd9953cc	-0.07486686
113	0x3e6d2c02	0.23161319
114	0x3d409a5b	0.047022205
115	0xbd500a49	-0.05079106
116	0xbd30daef	-0.04317754
117	0xbdff563c	-0.1246762
118	0x3cd0c940	0.025486588
119	0x3dc332aa	0.09531148
120	0x3e58633d	0.21131606
121	0x3e5affdf	0.2138667
122	0xbdc83b26	-0.09776907
123	0xbe2e9271	-0.1704805
124	0x3d241a5d	0.040064204
125	0x3e751133	0.23932342
126	0xbcecb345	-0.028894076
127	0x3e8d317a	0.2757681
128	0xbe8207fb	-0.25396714
129	0x3dbad182	0.09121992
130	0x3dbc607c	0.091980904
131	0x3dc7e812	0.09761061
132	0x3e3b7121	0.18304874
133	0x3e3c1a62	0.18369439
134	0xbd47a461	-0.04874075
135	0xbdbbfeec	-0.09179482
136	0xbda65c12	-0.0812303
137	0x3bec189c	0.007205082
138	0xbd02bd44	-0.03191878
139	0xbecf18bf	-0.40448567
140	0x3e8cd2b0	0.27504492
141	0xbdf6c3b9	-0.1204905
142	0x3dc4f90e	0.09617816
143	0xbda02a0e	-0.07820521
144	0x3d777523	0.060414445
145	0x3df01884	0.11723426
146	0xbe7afd16	-0.24510607
147	0xbe0c3e53	-0.1369565
148	0xbd274447	-0.0408366
149	0x3d27ab06	0.040934585
150	0xbe23fcfd	-0.16014476
151	0x3de95d97	0.11394804
152	0xbd9ecd46	-0.077539966
153	0x3d7383ca	0.059451856
154	0x3d83aa01	0.0642891
155	0xbd90c944	-0.07069638
156	0xbe989c1f	-0.2980661
157	0x3e62cf97	0.22149502
158	0xbe60447f	-0.21901129
159	0xbe3edb47	-0.18638335
160	0xbcd9995d	-0.026562387
161	0x3e022b97	0.1271194
162	0xbde90f8e	-0.1137992
163	0x3dbd68e8	0.09248525
164	0x3e649797	0.22323452
165	0xbe3026b1	-0.1720226
166	0xbd8eae87	-0.06966882
167	0xbe4fbf97	-0.2028793
168	0x3e311d05	0.17296226
169	0xbe29ce30	-0.1658256
170	0x3d3d7da8	0.046262413
171	0x3df8ae4b	0.12142619
172	0xbd923fa9	-0.071410485
173	0xbe438e22	-0.19097188
174	0xbd983134	-0.0743126
175	0xbe86c38b	-0.26321062
176	0x3ca67a5d	0.02032202
177	0xbe1e6883	-0.15469556
178	0x3de43a6c	0.111439556
179	0x3d438516	0.047734343
180	0x3c6dad24	0.014506612
181	0x3d329522	0.043599255
182	0xbdcde9b6	-0.100543424
183	0xbdbe5816	-0.09294145
184	0xbdd05d69	-0.101740666
185	0xbe2bbbf7	-0.16770922
186	0x3d0cad5f	0.034345027
187	0x3de43da1	0.11144567
188	0xbe555376	-0.20832619
189	0xbdefb8ca	-0.117051676
190	0x3dd4b6b5	0.10386411
191	0xbe4b64f5	-0.19862731
192	0xbeafb97c	-0.343212
193	0x3e797bd7	0.24363647
194	0x3da5c78d	0.08094702
195	0xbc0c1a87	-0.0085512465
196	0x3e377f99	0.17919768
197	0x3e3534aa	0.17695871
198	0x3d5f091b	0.054452043
199	0xbe79404f	-0.24340938
200	0xbe1a37f4	-0.15060407
201	0xbe0b1f8c	-0.13586253
202	0x3d0a5dee	0.033780985
203	0xbe849bf9	-0.25900248
204	0x3e738136	0.23779759
205	0xbe144975	-0.14481147
206	0x3e214858	0.15750253
207	0xbc0cbdbd	-0.008590159
208	0xba80d95e	-0.0009830405
209	0x3e233c61	0.15941001
210	0xbe49293d	-0.19644637
211	0xbe4783ba	-0.19483843
212	0xbd478ece	-0.048720174
213	0x3dc0b7ca	0.09410055
214	0xbe6ddaa2	-0.23227933
215	0x3d9a5258	0.07535237
216	0x3dad8892	0.08473314
217	0xbbdd34c3	-0.0067506745
218	0x3dfa3a13	0.12218108
219	0xbe7b4be3	-0.24540667
220	0xbe613859	-0.21994151
221	0x3e7cd793	0.2469161
222	0xbe4e40b3	-0.20141868
223	0xbe195955	-0.14975484
224	0x3e319d7f	0.17345236
225	0x3df9c3f1	0.12195576
226	0xbe4e7552	-0.20161942
227	0x3e5dbf92	0.2165511
228	0x3e5b11fa	0.21393576
229	0xbe05955c	-0.13045257
230	0xbe7031c6	-0.23456487
231	0xbe508be4	-0.20365864
232	0x3dbdedeb	0.09273895
233	0xbe634dc7	-0.22197638
234	0x3d8bc5f7	0.06824868
235	0x3dcf18c4	0.101121455
236	0xbe1ad0ef	-0.15118764
237	0xbd8ec055	-0.06970278
238	0xbd8fdcde	-0.07024549
239	0xbe9ac65f	-0.3022947
240	0x3e38514b	0.17999761
241	0xbe7ef604	-0.24898535
242	0x3d46778d	0.048453856
243	0xbd7d1280	-0.06178522
244	0x3cca0b0a	0.024663467
245	0x3e423d50	0.18968701
246	0xbe67af88	-0.22625554
247	0xbe1ddff6	-0.15417466
248	0xbe4ffdf4	-0.20311719
249	0xbe7b1be9	-0.24522366
250	0x3d121e36	0.035673343
251	0x3e2ca66b	0.16860358
252	0xbe3df579	-0.18550672
253	0xbe99d154	-0.30042517
254	0x3dc1ea20	0.09468484
255	0xbead6828	-0.33868527

encoder.out.bias f4 [60]
0	0x3d7fced7	0.062453117
1	0xbd24af0b	-0.040205996
2	0x3e43a63a	0.19106379
3	0x3e866e31	0.26255944
4	0x3e959406	0.29214495
5	0x3e523b05	0.20530327
6	0x3e2794ba	0.16365328
7	0x3e0f1263	0.13971858
8	0x3c93d02c	0.0180436
9	0x3e59a24d	0.21253319
10	0xbdff1985	-0.12456039
11	0xbd5151cf	-0.05110341
12	0xbdeb235a	-0.11481352
13	0xbe1a6e44	-0.15081125
14	0xbe8f9b5c	-0.28048217
15	0x3d84452c	0.06458506
16	0x39afe7ad	0.00033551213
17	0x3b281331	0.0025646205
18	0xbd8cc142	-0.068727985
19	0xbc9b4aa8	-0.018956497
20	0xbe513c84	-0.20433241
21	0xbe697332	-0.2279785
22	0x3c512f0b	0.012767564
23	0x3d9abf08	0.075559676
24	0xbd7c6414	-0.06161888
25	0x3d8cc688	0.06873804
26	0x3c07e503	0.008294347
27	0x3e52a121	0.20569278
28	0xbe84f99e	-0.25971693
29	0x3c444dda	0.011981452
30	0xbe1d8ef7	-0.15386568
31	0xbe3c2c8b	-0.18376367
32	0xbd34ba58	-0.044123024
33	0xbd7dd54e	-0.061971
34	0xbe4ac759	-0.19802608
35	0xbe0fc266	-0.14039001
36	0xbe8a7b30	-0.2704711
37	0xbb7ca395	-0.003854965
38	0xbcb103c7	-0.021608246
39	0xbe2204dc	-0.15822166
40	0xbde4d7fd	-0.11174009
41	0x3c827970	0.015927047
42	0xbe621c4b	-0.22081105
43	0xbda02162	-0.07818867
44	0xbe0769dd	-0.13223977
45	0xbd2cd63c	-0.042196497
46	0xbc0d1bd4	-0.008612592
47	0x3dbcf25e	0.09225915
48	0xbd105e86	-0.035246395
49	0x3d60d0a5	0.05488648
50	0x3de7d13b	0.113192044
51	0xbeb31ca0	-0.34982777
52	0x3d78582c	0.060630962
53	0xbd973ac6	-0.07384257
54	0xbe8bbef4	-0.27294123
55	0xbe4144e5	-0.18873937
56	0xbe5c866a	-0.2153565
57	0x3c59e004	0.013298038
58	0xbee76b13	-0.4519888
59	0xbd957abc	-0.072988

encoder.net.0.weight f4 [64, 97]
0	0x3c7d3692	0.015454905
1	0xbe2aa44a	-0.16664234
2	0xbc011c70	-0.007880315
3	0xbd8600a9	-0.06543095
4	0xbdb64885	-0.08900551
5	0xbdd6de68	-0.104916394
6	0x3d1fc43a	0.039005496
7	0xbdb8ce04	-0.09023669
8	0xbd41841b	-0.047245126
9	0xbd25cfab	-0.04048125
10	0x3b664e75	0.003514198
11	0xb9a72171	-0.00031877638
12	0xbd892fe4	-0.066985875
13	0xbd247f8e	-0.040160708
14	0xbc9634ff	-0.018335817
15	0xbcea56b3	-0.028605795
16	0xbc686561	-0.014184327
17	0xbd3c1076	-0.045914136
18	0xbb6691d4	-0.0035182135
19	0x3c902f3d	0.01760065
20	0xbe45fe83	-0.1933537
21	0x3c17128f	0.009220733
22	0xbd892093	-0.06695666
23	0x3ba08e76	0.004899795
24	0x38b5b818	8.665043e-05
25	0x3cc34ea6	0.023841213
26	0x3d7a142c	0.061054394
27	0xbc722994	-0.014780421
28	0x3a7d875c	0.0009671354
29	0xbc851d16	-0.01624922
30	0xbdc414ed	-0.09574304
31	0xbc6e73e8	-0.014554001
32	0x3d344cc3	0.04401852
33	0xbaae59e2	-0.0013301934
34	0x39149d75	0.00014173037
35	0xbd4d2bfa	-0.050090767
36	0xbcca13d6	-0.024667662
37	0xbd7eee90	-0.06223923
38	0xbd7dba68	-0.06194535
39	0x3d7d1081	0.061783317
40	0xbb604e09	-0.00342262
41	0x3d2ecd7e	0.04267644
42	0x3cacf71c	0.021113925
43	0xbe19b101	-0.15008928
44	0x3cad0f6d	0.02112552
45	0xbd86dd5f	-0.06585192
46	0xbe1b5549	-0.15169252
47	0xbd21f201	-0.039537434
48	0xbd789398	-0.06068763
49	0x3d64493d	0.055733908
50	0xbc3bd1f9	-0.011463636
51	0xbdcecdfc	-0.10097882
52	0xbe09161a	-0.13387337
53	0xbd7444e5	-0.059636015
54	0xbd2d5b51	-0.042323414
55	0xbd0562d4	-0.032564953
56	0xbd10ad4f	-0.03532153
57	0xbabedbe2	-0.001456138
58	0xbd153b09	-0.036433253
59	0xbafc4a06	-0.0019248135
60	0xbc6e658d	-0.014550579
61	0xbc96b9f2	-0.018399213
62	0xbd068b6a	-0.0328478
63	0xbc7fdeda	-0.015617097
64	0xbd0109e7	-0.031503584
65	0xbbea131f	-0.0071433927
66	0xbc0b1a7c	-0.008490201
67	0xbc51dfde	-0.012809722
68	0x3a6dce6d	0.00090715924
69	0xbb5fe859	-0.003416559
70	0xbc4ed250	-0.012623385
71	0x3b8c001f	0.0042724754
72	0xbd087384	-0.03331329
73	0xbcdbd926	-0.026836943
74	0xbbe6a0be	-0.007038205
75	0xbc856f33	-0.016288375
76	0xbd002cc2	-0.031292684
77	0xbcee8d7b	-0.029120198
78	0xbb9c9713	-0.0047787516
79	0xbd42a8a3	-0.047524106
80	0xbb4ddd56	-0.0031412444
81	0x3b269fa8	0.0025424752
82	0xbb025dbd	-0.0019892298
83	0xbd2428a2	-0.040077813
84	0xbca0fec8	-0.01965274
85	0xbc0e5639	-0.008687549
86	0xbc8ff635	-0.017573455
87	0xba41a33d	-0.000738669
88	0xbc8b63f9	-0.017015444
89	0xbcbbca00	-0.02292347
90	0xbc0ba045	-0.008522098
91	0xbc798af5	-0.015230884
92	0xbdc6e184	-0.097109824
93	0xbc17fc47	-0.009276456
94	0xbc4cd507	-0.012501962
95	0xbcf2967c	-0.029612772
96	0x3f33010b	0.69923466
97	0x3d1844fd	0.037175167
98	0x3e16e3a4	0.14735276
99	0x3e15977c	0.14608568
100	0x3c4287b5	0.011873175
101	0x398b27aa	0.00026541698
102	0x3dfb0d01	0.1225834
103	0x3d97290d	0.07380877
104	0x3dc3aeb2	0.09554805
105	0x3ddf78e7	0.10911732
106	0x3d0d4150	0.034486115
107	0x3d312219	0.04324541
108	0xbc414a0a	-0.011797437
109	0xbd739e0e	-0.059476905
110	0xbcf2212c	-0.029556833
111	0xbdb78e6d	-0.089627124
112	0xbdb733e2	-0.08945443
113	0xbd5b0f59	-0.053481434
114	0xbd99530d	-0.07486544
115	0x3dbce65a	0.092236236
116	0x3db0dcef	0.0863589
117	0x3e1ac6e1	0.15114929
118	0xbce8c188	-0.028412595
119	0x3e080a03	0.13285069
120	0x3d92a526	0.07160406
121	0xbd2ae14d	-0.04171877
122	0x3d12b796	0.035819612
123	0x3e6bd921	0.23032047
124	0xbd14c42f	-0.036319908
125	0xbcc44af2	-0.023961518
126	0xbde82a05	-0.113361396
127	0x3e53a66c	0.20668954
128	0xbd809436	-0.06278269
129	0x3d0601b7	0.03271648
130	0xbc748250	-0.014923647
131	0xbca2178c	-0.019786619
132	0x3e3b9399	0.18318023
133	0x3d41adb3	0.047284793
134	0xbca6e552	-0.02037302
135	0xbdb55937	-0.08854907
136	0x3e13b640	0.14424992
137	0xbd8fe16f	-0.0702542
138	0x3e138127	0.14404736
139	0x3c9c5e38	0.019087896
140	0x3db236d4	0.08701864
141	0x3bd4b794	0.006491611
142	0x3d36e926	0.04465594
143	0x3db97390	0.09055245
144	0xbe0744c3	-0.13209824
145	0x3e04bf2d	0.12963553
146	0x3c70bb7c	0.014693137
147	0x3cf04e3b	0.029334178
148	0xbd9cfab1	-0.07665003
149	0xbd2a208e	-0.041534953
150	0xbe1adf26	-0.15124187
151	0x3e085f03	0.13317494
152	0xbd417dff	-0.0472393
153	0xbd04160b	-0.032247584
154	0xbd4e000f	-0.050293025
155	0xbd888ebd	-0.0666785
156	0xbd46f2d9	-0.04857144
157	0xbd348bab	-0.04407851
158	0xbd9a3721	-0.07530046
159	0xbd2b3fb6	-0.041808806
160	0xbcafb22e	-0.021447267
161	0xbd5e9c5c	-0.054348335
162	0xbcb18a6e	-0.021672454
163	0xbd17b70e	-0.03703981
164	0xbd039c19	-0.03213129
165	0xbba53917	-0.005042206
166	0xbc37c09e	-0.011215357
167	0xbc03c3bc	-0.008042272
168	0xbcdd2056	-0.026992958
169	0xbd232598	-0.039830774
170	0xbccb99d5	-0.024853626
171	0xbca35cba	-0.019941676
172	0xbd0d8af8	-0.03455636
173	0xbd3147bf	-0.043281313
174	0xbcd70060	-0.026245296
175	0xbc7ebcf9	-0.015547984
176	0xbde00ad8	-0.10939568
177	0xbd0b5198	-0.03401336
178	0xbcb1be50	-0.021697193
179	0xbd260703	-0.04053403
180	0xbd8f330f	-0.069921605
181	0xbd402080	-0.046905994
182	0xbc9e010d	-0.01928761
183	0xbd893fdd	-0.06701634
184	0xbcb2dd11	-0.021833928
185	0xbd0abf47	-0.033873823
186	0xbb824449	-0.0039754254
187	0xbc08fe34	-0.008361388
188	0xbbcaa9eb	-0.0061848066
189	0x3e5f341c	0.21797222
190	0xbd1ebddf	-0.038755294
191	0xbce57fd5	-0.028015057
192	0xbd73de65	-0.059538264
193	0xbe894343	-0.2680913
194	0xbdc73ad2	-0.09728016
195	0xbd75b7bc	-0.059989676
196	0xbdd249d6	-0.10267989
197	0xbd8507be	-0.06495617
198	0xbc97b0a3	-0.018516844
199	0xbe143a22	-0.14475301
200	0x3ceca016	0.028884929
201	0xbe49276f	-0.19643949
202	0x3dad9ff9	0.08477778
203	0x3c7ad610	0.015309826
204	0x3d56b715	0.052420694
205	0x3b660689	0.003509911
206	0xbc7a378a	-0.015272031
207	0x3cb22ef8	0.021750912
208	0x3cd064ea	0.025438745
209	0x3d01f567	0.031728175
210	0x3d184b86	0.0371814
211	0x3cb7103a	0.022346605
212	0x3bea5765	0.0071515315
213	0xbc159de4	-0.009131882
214	0xbdd16b60	-0.10225558
215	0x3a8c46e5	0.001070228
216	0xbe48f8fa	-0.19626227
217	0x3d6e0f8f	0.058120307
218	0x3bd9a70e	0.006642229
219	0xbbde0774	-0.006775791
220	0xbcd2b5a3	-0.025721377
221	0x3bacba75	0.005271251
222	0xbea136d0	-0.3148713
223	0x3d11a098	0.035553545
224	0xbc5d5fa9	-0.013511577
225	0x3c3cb8ed	0.011518699
226	0x3d7ba369	0.061435137
227	0x3b366b1b	0.0027834836
228	0xbe290340	-0.16505146
229	0xbd584a2f	-0.052805122
230	0xbca75919	-0.020428227
231	0xbbaf8199	-0.0053560254
232	0xbd1267bb	-0.035743456
233	0x3df78ffa	0.12088008
234	0x3c7f1193	0.015568155
235	0xbd9c587c	-0.076340646
236	0x3c851df0	0.016249627
237	0xbdc005ef	-0.09376132
238	0xbc45fe42	-0.012084546
239	0xbc46e2ac	-0.012139004
240	0x3c0b610e	0.008507026
241	0x3d037298	0.032091707
242	0xbd6cffff	-0.057861324
243	0x3bad32bc	0.005285589
244	0xbd00ec6b	-0.031475466
245	0x3df4ecc1	0.1195922
246	0x3e21602c	0.15759343
247	0x3d17c01f	0.037048455
248	0xbe7c99d6	-0.24668059
249	0x3c2aca62	0.010424228
250	0x3c9813dd	0.018564159
251	0x3bc520de	0.006015881
252	0x3c36f34b	0.011166404
253	0x3be31bf4	0.0069308225
254	0x3bbaac59	0.005696815
255	0x3c7fb5a6	0.015607273

encoder.net.0.bias f4 [64]
0	0xbdf3118f	-0.118685834
1	0x3e1e118d	0.15436383
2	0xbe460eb2	-0.19341543
3	0x3e8896a8	0.26677442
4	0x3e2efb7e	0.17088124
5	0x3d10039a	0.035159685
6	0xbd03e624	-0.0322019
7	0xbe98ac78	-0.29819083
8	0x3dc837e3	0.097762845
9	0xbdb0fc2c	-0.08641848
10	0x3d98d932	0.07463302
11	0xbdaf130e	-0.08548556
12	0x3e27e4fa	0.16395941
13	0xbdc73e45	-0.09728674
14	0x3db6f0e6	0.089326665
15	0x3da50db0	0.08059251
16	0x3e1e2688	0.15444386
17	0x3de9609b	0.11395379
18	0x3dd7b694	0.10532871
19	0xbe646c9d	-0.22307058
20	0x3e574580	0.21022606
21	0x3e2f15cb	0.17098157
22	0xbea11717	-0.3146293
23	0x3db1e650	0.08686507
24	0xbe2ab11c	-0.16669124
25	0x3d113ca8	0.035458237
26	0x3da0c335	0.07849733
27	0xbe85db0f	-0.2614369
28	0xbd3aa24b	-0.04556493
29	0x3e7f3b0f	0.24924873
30	0x3d41a1f7	0.047273602
31	0xbe3182ee	-0.17335102
32	0x3d10c4e6	0.035344027
33	0x3dcb90f6	0.099397585
34	0xbe916254	-0.2839533
35	0x3d84401b	0.0645754
36	0xbbde387d	-0.0067816363
37	0xbe27cdcc	-0.16387099
38	0xbe25b5bd	-0.16182609
39	0xbe09afe5	-0.13446005
40	0x3e0bf899	0.13669051
41	0xbe8f8452	-0.2803064
42	0x3dc7ab51	0.09749473
43	0x3d6564a1	0.05600417
44	0xbe78bb02	-0.24290088
45	0xbdc1a5ca	-0.0945545
46	0xbd8de1ad	-0.0692781
47	0x3e468ef1	0.19390465
48	0x3e235e2b	0.15953891
49	0xbe73364b	-0.2375118
50	0xbca0df54	-0.019637741
51	0x3d99c1e6	0.07507686
52	0xbc333453	-0.010937768
53	0x3dcd93af	0.10037934
54	0x3e41fec9	0.18944849
55	0x3ceddad7	0.029035015
56	0x3e1f32b0	0.1554668
57	0xbe80cc27	-0.25155756
58	0x3e06b6eb	0.13155715
59	0x3ce88918	0.028385684
60	0x3e0b73e7	0.13618432
61	0xbe5b25b0	-0.21401095
62	0x3dbcfefb	0.09228321
63	0xbdcde99f	-0.10054325

decoder.fc.weight f4 [64, 30]
0	0xbd061070	-0.03273052
1	0x3d76b7ba	0.06023381
2	0xbd269430	-0.040668666
3	0xbd472669	-0.048620615
4	0xbd752f62	-0.05985964
5	0xbce40e87	-0.027838958
6	0xbf4356a8	-0.763041
7	0xbd2069c2	-0.03916336
8	0xbadb9e07	-0.001675547
9	0xbd856df4	-0.065151125
10	0x3d211692	0.039328165
11	0xbd0c3882	-0.034233578
12	0x3e4c4201	0.19947053
13	0xbd4e7c36	-0.050411426
14	0x3db4a4b6	0.088204786
15	0x3d3a5236	0.04548856
16	0x3ce21de6	0.027602147
17	0xbd4fecf0	-0.05076307
18	0x3b569e5a	0.0032748193
19	0x3af86b59	0.001895289
20	0x3d4cc24a	0.049989976
21	0x3fabf841	1.3435136
22	0xbb7123f1	-0.0036795104
23	0xbd3afb8b	-0.045650046
24	0xbebc9603	-0.368332
25	0x3e9de4ba	0.30838567
26	0x3cc3edf0	0.023917168
27	0x3d5089a5	0.050912518
28	0xbf0d6d93	-0.5524532
29	0x3d54fddf	0.051999923
30	0xbe9dda81	-0.30830768
31	0x3e804973	0.25056037
32	0xbdd7ea82	-0.10542776
33	0xbe1ae00a	-0.15124527
34	0x3ce5ea28	0.028065756
35	0xbe165383	-0.14680295
36	0x3f3f54ac	0.74738574
37	0xbe3f3b5e	-0.1867499
38	0xbdda4f6b	-0.10659679
39	0xbe416c86	-0.18889055
40	0x3e0c94f5	0.13728698
41	0x3e2e4db2	0.17021826
42	0x3d9ed2a0	0.07755017
43	0x3e28d6e4	0.16488224
44	0x3eaad40b	0.333649
45	0xbe0ef5ce	-0.13960955
46	0xbcab2fbf	-0.02089679
47	0xbe341fde	-0.17590281
48	0xbd6b6442	-0.05746866
49	0x3d0383e3	0.0321082
50	0xbe223ade	-0.15842769
51	0xbf4dde6f	-0.8041753
52	0x3dcd7700	0.10032463
53	0x3e3bde00	0.18346405
54	0x3e02d1a4	0.12775284
55	0x3e7d8cea	0.24760786
56	0x3e1f3ba1	0.1555009
57	0x3dc910a9	0.09817631
58	0xbd2c8bce	-0.042125516
59	0xbe49a941	-0.19693471
60	0xbe01e99e	-0.12686774
61	0xbc402574	-0.0117276795
62	0xbe8982d9	-0.2685764
63	0xbc2eb6ac	-0.01066367
64	0xbd4a62e6	-0.049410723
65	0xbddb91a3	-0.107211374
66	0x3fbba7a1	1.4660531
67	0xbe24f3d1	-0.16108634
68	0xbddeada7	-0.10872965
69	0xbdfc40c9	-0.12317044
70	0xbde4bb1f	-0.11168503
71	0xbbc8430e	-0.006111509
72	0xbda53e69	-0.080685444
73	0x3e5bd872	0.21469286
74	0x3e134aaa	0.14383951
75	0x3e44819c	0.19190067
76	0x3e02fa0c	0.12790698
77	0xbda55740	-0.08073282
78	0x3d75b9d1	0.05999166
79	0x3cf14654	0.02945248
80	0xbe11c659	-0.1423582
81	0xbf22c23b	-0.6357762
82	0xbd452304	-0.048129097
83	0x3dd5c966	0.10438804
84	0x3b8c1ddb	0.00427602
85	0xbec8b907	-0.39203665
86	0x3e08ce26	0.1335989
87	0x3e2a5b7e	0.16636464
88	0x3f1cc676	0.6124033
89	0x3e17f0a2	0.14837888
90	0x3dd596df	0.10429167
91	0x3e14879b	0.14504854
92	0x3d3ce63a	0.046118
93	0x3c17c3c4	0.009262983
94	0x3e288c15	0.16459687
95	0xbd61da9c	-0.055140123
96	0x3e3495ae	0.17635223
97	0xbd73e5fb	-0.0595455
98	0xbcdef911	-0.027218373
99	0xbd8c6be5	-0.06856517
100	0xbc3602d8	-0.011109076
101	0xbe24cda6	-0.16094074
102	0xbeb991e3	-0.36244115
103	0xbe4375f0	-0.19087958
104	0x3d6f4176	0.058412038
105	0x3d8bf57b	0.06833931
106	0x3d9bb1c5	0.07602266
107	0x3bdaa68b	0.0066726855
108	0xbdf6e37d	-0.12055109
109	0xbc6e70f0	-0.014553294
110	0xbc137a28	-0.009001292
111	0xbe4652be	-0.19367501
112	0x3e751a19	0.23935737
113	0x3cc7257c	0.024309866
114	0xbe07bff0	-0.13256812
115	0x3e3a8fde	0.18218943
116	0x3c95acf2	0.018270943
117	0x3d609cd4	0.054837063
118	0xbe400d02	-0.18754962
119	0xbe74e572	-0.23915651
120	0x3dd8963e	0.105755314
121	0xbdceba59	-0.10094137
122	0x3dbffe01	0.09374619
123	0xbde041c3	-0.10950043
124	0x3ce679f9	0.028134333
125	0xbdd42439	-0.103584714
126	0x3e154213	0.14575987
127	0x3e0aa39d	0.13538976
128	0x3d0da810	0.034584105
129	0x3e1a88fc	0.15091318
130	0xbe13d78e	-0.14437696
131	0x3debef1a	0.115202144
132	0x3e73a8f8	0.23794925
133	0xbd78d860	-0.060753226
134	0x3e396109	0.18103422
135	0x3e1c1376	0.15241799
136	0x3e18b8e6	0.14914283
137	0x3e39ae6d	0.18132944
138	0x3ea2f98b	0.3183101
139	0x3e937918	0.28803325
140	0xbde61f57	-0.11236446
141	0xbee060eb	-0.43823943
142	0xbd39c7b2	-0.04535646
143	0xbccc4502	-0.02493525
144	0x3e64c4cb	0.22340696
145	0x3ec8e028	0.39233518
146	0x3dea2132	0.11432113
147	0x3cfd9a4a	0.03095736
148	0xbee04cae	-0.43808502
149	0x3ddcd8b8	0.10783523
150	0x3c9125ad	0.01771816
151	0xbc8908fe	-0.01672792
152	0xbcde816e	-0.027161326
153	0x3d8c5c30	0.06853521
154	0xbc11ab44	-0.008890931
155	0xbcce19e5	-0.025158832
156	0x3f973944	1.1814351
157	0xbc32db85	-0.010916595
158	0x3b493b21	0.003070541
159	0xbccdfd93	-0.025145328
160	0x3c237ce3	0.009978506
161	0x3936fe3b	0.00017451581
162	0x3ebbd2a9	0.36684158
163	0x3d49a3bb	0.04922841
164	0x39bfd24b	0.0003658704
165	0x3cd9c9d6	0.0265855
166	0xbbfad081	-0.00765425
167	0xbccbb684	-0.024867304
168	0x3b86a4a1	0.0041089808
169	0xbc05e40c	-0.008172046
170	0xbad2479c	-0.001604307
171	0x3fa37c0a	1.2772229
172	0x3b9c386d	0.0047674687
173	0xbca26d74	-0.019827582
174	0x3f8c382b	1.0954641
175	0xbec20d97	-0.37900993
176	0x3cf05ff3	0.029342627
177	0x3c9cdcb8	0.019148216
178	0xbfd4eb01	-1.6634218
179	0xbb42ceba	-0.002972527
180	0xbe5331e8	-0.20624506
181	0x3e6d74f5	0.23189147
182	0xbd914d62	-0.07094838
183	0xbe3756c1	-0.17904188
184	0x3e110aef	0.14164327
185	0xbdbd388d	-0.09239302
186	0x3e9e0490	0.30862856
187	0xbdfe26b7	-0.12409728
188	0xbe1e865d	-0.15480943
189	0x3e14b793	0.14523153
190	0x3d6e8e4e	0.05824118
191	0xbcde744a	-0.02715506
192	0x3e5cf7f3	0.2157896
193	0x3e8ae8b6	0.2713067
194	0xbe1e3e2a	-0.15453401
195	0x3e3fe695	0.18740304
196	0x3df23988	0.118273795
197	0xbea1cedf	-0.31603143
198	0xbe48aedc	-0.19597954
199	0xbe19fa5a	-0.15036908
200	0xbe140a0b	-0.14456956
201	0xbed5b5a2	-0.41740137
202	0x3d78f7a8	0.06078306
203	0x3e08ecb0	0.13371539
204	0xbe717b69	-0.23582233
205	0x3ed6b8e6	0.4193794
206	0x3e1fd1dd	0.156074
207	0x3e0c8b81	0.13725092
208	0xbed9b99a	-0.42524415
209	0xbe935153	-0.28772983
210	0x3e288dac	0.16460294
211	0xbdd5f09f	-0.104462855
212	0x3d21700b	0.039413493
213	0x3cb2e4ff	0.02183771
214	0xbb3c446d	-0.0028727308
215	0x3d609a3c	0.05483459
216	0x3eed450b	0.46341738
217	0xbd264177	-0.040589776
218	0xbd48e35c	-0.04904495
219	0x3e03e133	0.12878875
220	0x3c03a980	0.008036017
221	0x3d7c72c8	0.0616329
222	0xbe102e7d	-0.14080234
223	0xbdf3504f	-0.11880552
224	0x3e87284c	0.26397932
225	0xbd9572e7	-0.072973065
226	0xbe14e2a3	-0.1453958
227	0x3e3e7d9e	0.18602607
228	0xbd72d9b7	-0.05928966
229	0x3ddb017d	0.10693643
230	0xbe011b75	-0.1260813
231	0xbebec7d4	-0.37261832
232	0x3e22b004	0.15887457
233	0x3e3fb6ab	0.18722026
234	0xbdb8ee0c	-0.09029779
235	0x3d893171	0.06698883
236	0x3e1c76e1	0.15279724
237	0xbbb8b4a8	-0.0056367703
238	0xbebfeffc	-0.3748778
239	0x3e3d5cbe	0.1849241
240	0x3c10fc27	0.00884918
241	0x3e35ed49	0.17766298
242	0x3d6fc910	0.058541358
243	0x3c82f503	0.015985971
244	0xbe55b8cc	-0.20871276
245	0xbe461f74	-0.19347936
246	0xbe16aabe	-0.1471357
247	0xbdd72fe9	-0.10507185
248	0x3dade695	0.08491246
249	0x3dbbd60a	0.09171684
250	0x3c2dd7aa	0.0106105
251	0xbdf8ec06	-0.12154393
252	0x3e99f715	0.3007132
253	0x3d769b5e	0.060206763
254	0xbdb2ec6c	-0.087365
255	0xbe4b879a	-0.19875947

decoder.fc.bias f4 [64]
0	0x3ee56480	0.44803238
1	0x3ee7bc02	0.45260626
2	0x3f83dd18	1.0301847
3	0x3ede83fb	0.43460068
4	0x3ecd8d32	0.40146786
5	0x3e224474	0.15846425
6	0x3e53aff6	0.20672593
7	0x3e4ef61f	0.20211075
8	0x3e9af87a	0.30267698
9	0x3f28dce7	0.6596207
10	0x3ce0be9e	0.027434643
11	0x3ec3882f	0.38189837
12	0x3f13a89b	0.57679147
13	0x3e368b49	0.1782657
14	0x3f0a9e36	0.5414766
15	0x3f0322ab	0.51224774
16	0x3f8a8947	1.0823144
17	0x3f10c176	0.565452
18	0x3ed101e2	0.4082175
19	0x3ef2b317	0.4740226
20	0x3e0fcb81	0.14042474
21	0x3ecb1c91	0.39670232
22	0x3f223d7b	0.6337506
23	0x3d6af018	0.057357877
24	0x3e4cc9e2	0.19998887
25	0x3ef2fd77	0.47459003
26	0x3fb4b2ec	1.4117103
27	0x3ee3bf51	0.444819
28	0x3e4d0f3a	0.2002534
29	0x3ed1d870	0.4098544
30	0x3e857892	0.2606855
31	0x3f15416f	0.5830297
32	0x3ef0ea30	0.4705367
33	0x3ee3ca94	0.44490492
34	0x3f13a394	0.57671475
35	0xbe403f35	-0.18774112
36	0x3ecd997e	0.40156168
37	0xbdc65780	-0.09684658
38	0x3eba0973	0.36335334
39	0x3eeadea4	0.45872986
40	0x3ee95a95	0.4557692
41	0x3eaa7905	0.33295456
42	0x3f8f696b	1.1204046
43	0x3e918a85	0.28425995
44	0x3edab8b7	0.4271905
45	0x3e92c5ce	0.28666538
46	0x3f101796	0.5628599
47	0x3e6fa264	0.23401791
48	0x3ecfe1e1	0.4060202
49	0x3e0605fd	0.13088222
50	0x3e8accd1	0.27109388
51	0x3ed34c0f	0.41268966
52	0x3e6917aa	0.22762933
53	0x3f802115	1.0010096
54	0x3e4b4ee5	0.19854315
55	0x3ef04f80	0.46935654
56	0x3eadf3f1	0.33975175
57	0x3e441e87	0.1915227
58	0x3ec6f633	0.3885971
59	0x3e035314	0.1282466
60	0x3e49f088	0.19720662
61	0x3de9ca87	0.11415582
62	0xbddd3a5a	-0.10802145
63	0x3f0bb560	0.5457363

decoder.out.weight f4 [96, 64]
0	0xbf1d6a7f	-0.61490625
1	0x3d9afa4d	0.07567272
2	0xbd2c1ed6	-0.042021595
3	0x3d1745c0	0.036931753
4	0xbcae52e0	-0.021279752
5	0x3d4d110d	0.05006509
6	0xbd51a1bd	-0.051179636
7	0xbd83162a	-0.06400712
8	0xbd626008	-0.055267364
9	0xbc915b39	-0.017743694
10	0xbd4de6b4	-0.050268844
11	0xbc69ce01	-0.014270307
12	0xbd979c04	-0.074028045
13	0x3dc99c50	0.09844267
14	0x3dad1c8b	0.0845271
15	0xbd41ddde	-0.04733073
16	0xbeb440a4	-0.35205567
17	0x3ccd76e2	0.025081102
18	0x3e1c4852	0.15261963
19	0x3e474de5	0.19463308
20	0xbd79933f	-0.06093144
21	0x3e5a5724	0.21322304
22	0xbd8b7a12	-0.068103924
23	0x3ca3900b	0.019966146
24	0x3d8960ff	0.06707954
25	0x3d93318a	0.07187183
26	0x3c84cb50	0.016210228
27	0x3dabafd8	0.08383149
28	0x3cac46ce	0.021029856
29	0x3dd603d6	0.104499504
30	0xbd15938d	-0.03651767
31	0x3d63543f	0.055500265
32	0xbcbd2e4e	-0.023093369
33	0xbdae6dc9	-0.085170336
34	0x3d8e0ccd	0.06936035
35	0xbeb5819e	-0.35450453
36	0x3d6a70ab	0.057236355
37	0xbea5ed62	-0.3240767
38	0x3d7d30ec	0.061814234
39	0xbc762845	-0.015024249
40	0xbe0a5938	-0.13510597
41	0xbdd9f26d	-0.10641942
42	0xbe5e5afa	-0.21714392
43	0x3edb85fc	0.4287566
44	0x3da02b7c	0.07820794
45	0x3c3c0f5b	0.01147827
46	0x3e5ebfc8	0.21752846
47	0x3df6138b	0.12015446
48	0xbd7f4763	-0.06232394
49	0x3b354f05	0.0027665508
50	0xbb92d90b	-0.00448144
51	0x3c1ad8e0	0.009451121
52	0xbe09e654	-0.1346677
53	0x3e7e6cf0	0.24846244
54	0xbbc1b360	-0.0059112757
55	0xbd966802	-0.07344057
56	0xbda66d34	-0.081262976
57	0xbdcea450	-0.10089934
58	0x3dd5c55f	0.10438036
59	0xbdaa59b9	-0.083178945
60	0x3d087da5	0.03332295
61	0x3d766417	0.060154047
62	0x3d17ff52	0.037108727
63	0xbda0e45d	-0.07856057
64	0xbd990a77	-0.07472699
65	0x3d0f1b65	0.034938235
66	0xbc84c92b	-0.016209206
67	0x3c9182a2	0.017762486
68	0x3d4af3bd	0.049548853
69	0xbe0ce765	-0.13760145
70	0xbd0da0a8	-0.034577042
71	0x3c51f615	0.012815018
72	0x3d2e5483	0.042561065
73	0xbc61c590	-0.013780013
74	0x3ce67193	0.028130328
75	0x3aaa1daf	0.0012978817
76	0x3db8e971	0.090289004
77	0x3e59e1aa	0.2127749
78	0x3e092c6f	0.13395856
79	0xbd4834ac	-0.048878357
80	0x3e23041b	0.15919535
81	0xbbd34ee6	-0.0064486144
82	0x3cf30e39	0.029669868
83	0x3c9b20a5	0.018936465
84	0xbd1142b4	-0.035464004
85	0x3e599803	0.21249394
86	0x3df17feb	0.117919765
87	0x3e0fcbb3	0.14042549
88	0x3dc4c494	0.09607807
89	0xbdb853dd	-0.09000371
90	0x3c004157	0.007828078
91	0xbc35be67	-0.011092759
92	0x3d69c910	0.057076514
93	0xbdc6b86b	-0.09703144
94	0xbb58511c	-0.003300733
95	0x3d94df66	0.07269172
96	0x3d5e3e8c	0.054258868
97	0xbe249033	-0.16070633
98	0xbdc677c2	-0.09690811
99	0xbd6f2ed8	-0.058394283
100	0x3d24a506	0.04019644
101	0x3cb78ebe	0.022406932
102	0xbdc16d6f	-0.09444701
103	0x3de16b36	0.11006777
104	0xbda55519	-0.08072872
105	0xbe1ab597	-0.15108334
106	0x3dd665d2	0.104686394
107	0xbd8d44e7	-0.06897908
108	0x3cd34491	0.025789531
109	0x3e8ad18c	0.27112997
110	0x3dcdd6d5	0.100507416
111	0xbdaf7e27	-0.085689835
112	0x3ce25067	0.02762623
113	0xbc6619df	-0.014044254
114	0xbc60336a	-0.013684133
115	0xbd421592	-0.047383852
116	0x3c208250	0.009796694
117	0xbe3a2f0f	-0.18182014
118	0xbd152095	-0.036408026
119	0x3dbcc2f0	0.09216869
120	0xbceba0be	-0.028763171
121	0xbe5075a1	-0.20357372
122	0x3e02fba3	0.12791304
123	0x3e7cd6c7	0.24691306
124	0xbe39d1e6	-0.18146476
125	0x3e8be193	0.27320537
126	0x3c2ef6de	0.010678975
127	0xbd4bf10a	-0.04979042
128	0x3cbcf284	0.02306486
129	0xbca15bd0	-0.0196971
130	0xbc95bfd1	-0.018279942
131	0xbdf58d14	-0.11989799
132	0x3dc2279f	0.094802134
133	0x3f9d177b	1.2272791
134	0xbdbab6e1	-0.09116913
135	0x3d81d676	0.06339733
136	0xbd03d8c4	-0.032189146
137	0xb842cdcd	-4.644487e-05
138	0x3d7f0a78	0.062265843
139	0xbe44d079	-0.19220151
140	0xbe3aa659	-0.18227519
141	0xbde0bed4	-0.109738976
142	0xbdafab7e	-0.085776314
143	0x3d8ec8bc	0.06971881
144	0x3e6bed7a	0.23039809
145	0xbcdb14d0	-0.026743323
146	0xbe7b93c5	-0.24568088
147	0xbe0a9ac1	-0.13535596
148	0xbe8726e6	-0.26396865
149	0xbd0e20ab	-0.034699123
150	0x3dafbf4c	0.08581409
151	0xbe074d6d	-0.1321313
152	0xbe363e0e	-0.1779711
153	0xbd8466fd	-0.06464956
154	0xbf827fe9	-1.0195285
155	0x3b4eafce	0.0031537893
156	0xbdfa5a62	-0.122242704
157	0xbca391e9	-0.019967036
158	0xbd0d4849	-0.034492765
159	0xbe56e455	-0.2098554
160	0xbdf3b2f4	-0.11899367
161	0xbe514723	-0.20437293
162	0xbdb72e69	-0.08944399
163	0xbe64a670	-0.22329116
164	0x3dc2c2de	0.09509824
165	0x3e293368	0.16523516
166	0x3d839ff4	0.06426993
167	0xbd9a3e6d	-0.07531438
168	0xbe011e93	-0.1260932
169	0xbdc8a6fe	-0.09797476
170	0x3e2c150f	0.16804908
171	0xbe587141	-0.21136953
172	0xbe79e467	-0.24403535
173	0x3da6ebf2	0.08150472
174	0xbd532f44	-0.051558748
175	0xbe47a612	-0.19496945
176	0xbd8af14b	-0.06784304
177	0x3d880a7a	0.06642623
178	0xbe3ab5ac	-0.18233365
179	0xbd07833e	-0.033084147
180	0xbdfcba13	-0.12340178
181	0x3e78feb3	0.2431591
182	0x3eb3a900	0.35089874
183	0xbdfd6c10	-0.12374127
184	0xbdb33614	-0.08750549
185	0xbdeabd85	-0.11461929
186	0xbce367b5	-0.027759412
187	0x3c51bc1d	0.012801197
188	0xbe1153a3	-0.14192061
189	0x3f00e1ff	0.5034484
190	0xbda4f7a1	-0.08055044
191	0x3d9291f5	0.07156745
192	0xbd02a4cb	-0.03189544
193	0x3c37c615	0.01121666
194	0x3cdcd46b	0.026956758
195	0xbd8146d8	-0.063123405
196	0xbdda74b9	-0.10666794
197	0x3db304eb	0.087411724
198	0xbd8d9ab7	-0.06914275
199	0xbd4e1d74	-0.050321057
200	0xbd6f330a	-0.058398284
201	0xbce8bf51	-0.02841154
202	0xbd50097c	-0.050790295
203	0xbe036543	-0.12831597
204	0x3c1247d5	0.008928259
205	0x3da1018f	0.078616254
206	0xbde78ab2	-0.11305751
207	0xbd7fa95d	-0.062417377
208	0xbe88465a	-0.26616174
209	0xbd389aff	-0.04506969
210	0xbda5da32	-0.08098258
211	0xbdce599c	-0.100756854
212	0xbcc1ff8c	-0.023681425
213	0xbd83dbc3	-0.064384006
214	0xbda99729	-0.08280785
215	0x3da84484	0.08216193
216	0x3c648643	0.013948026
217	0x3d5c0556	0.053716026
218	0xbcd32d94	-0.02577857
219	0xbc166236	-0.009178689
220	0xbd87bd39	-0.06627888
221	0xbc2c1c3f	-0.010504781
222	0xbd6cd098	-0.057816118
223	0xbd50ba5a	-0.05095897
224	0xbe2c49fc	-0.16825098
225	0xbe3ebb11	-0.18626048
226	0xbdb3f8e4	-0.087877065
227	0xbd9d7beb	-0.07689651
228	0x3cf30fd0	0.029670626
229	0x3d92d13c	0.071688145
230	0x3cd98303	0.026551729
231	0xbdcf6eea	-0.10128577
232	0x3da2730d	0.079321004
233	0xbddd70aa	-0.108125046
234	0xbd34eaa9	-0.044169102
235	0x3d857758	0.06516904
236	0xbd97c2a9	-0.07410175
237	0xbcf8b18e	-0.030358102
238	0xbca24e04	-0.019812591
239	0xbd0a71a6	-0.03379979
240	0x3cef6310	0.029222041
241	0xbc9c1cf8	-0.019056782
242	0xbd80f4d1	-0.06296695
243	0xbd950352	-0.07276024
244	0xbcbf836a	-0.023378093
245	0xbd9fdcb8	-0.07805771
246	0x3cc489f3	0.02399156
247	0xbdd17e72	-0.10229196
248	0x3a9ad9cb	0.0011814175
249	0x3ca31f61	0.019912424
250	0xbc6e21f3	-0.014534461
251	0xbd258650	-0.040411294
252	0xbba7231a	-0.00510062
253	0xbdbf2fa1	-0.09335256
254	0x3e07eb0b	0.13273256
255	0x3bd8c60f	0.0066154073

decoder.out.bias f4 [96]
0	0x3dfd8243	0.12378361
1	0xbee83eb0	-0.45360327
2	0xbdb106b0	-0.08643854
3	0xbeae8482	-0.3408547
4	0xbe9249b3	-0.28571853
5	0xbe472ae3	-0.19449954
6	0xbe3bf8a6	-0.1835657
7	0x3d63e024	0.05563368
8	0xbe963cce	-0.29343265
9	0xbe7dd3c1	-0.24787809
10	0xbe865057	-0.2623317
11	0xbe1ecf53	-0.15508775
12	0xbe8761ac	-0.26441705
13	0xbe8c2f3e	-0.27379793
14	0xbda87425	-0.08225278
15	0xbd879c02	-0.06621553
16	0xbe64a411	-0.22328211
17	0xbe702a58	-0.23453653
18	0xbe884578	-0.266155
19	0xbe02cb41	-0.12772848
20	0xbed4076f	-0.4141192
21	0xbde69205	-0.1125832
22	0xbeee2b59	-0.46517447
23	0xbe72d959	-0.23715724
24	0xbdf1e7fc	-0.11811826
25	0xbe92f0e2	-0.28699404
26	0xbde03fb1	-0.10949648
27	0xbe1e17fb	-0.15438835
28	0x3ea25b82	0.3171044
29	0xbe0785f4	-0.13234693
30	0xbee53e93	-0.44774303
31	0xbe3adfc2	-0.1824942
32	0xbe5d50c7	-0.21612845
33	0xbdbe8fc8	-0.09304768
34	0xbecd2fea	-0.40075618
35	0xbe6e7cb3	-0.23289756
36	0xbe422c45	-0.189622
37	0xbe6088ae	-0.21927139
38	0xbec6ed4a	-0.38852912
39	0xbefb22da	-0.49050027
40	0xbdbbcda3	-0.091700815
41	0xbe505af6	-0.20347199
42	0xbde4c158	-0.1116969
43	0xbe8baebf	-0.27281758
44	0xbe8a9e2c	-0.270738
45	0xbeaec310	-0.34133196
46	0xbe8c5d59	-0.2741497
47	0xbe6eec64	-0.23332363
48	0xbec595fd	-0.38590994
49	0xbe1358c5	-0.14389332
50	0xbe61a2bd	-0.22034736
51	0xbe0cf64f	-0.13765834
52	0xbea2294e	-0.31672138
53	0xbd98d525	-0.07462529
54	0x3dc9a045	0.09845022
55	0xbe6e7d4a	-0.23289981
56	0xbdea00ff	-0.11425971
57	0xbdf057a2	-0.11735465
58	0xbe0c994a	-0.1373035
59	0xbdec7599	-0.115458675
60	0xbe01dc6d	-0.12681742
61	0xbdcb3ada	-0.099233344
62	0xbe2c5e1f	-0.1683278
63	0xbe63cebc	-0.22246832
64	0xbe28ff28	-0.16503584
65	0xbe3d3e87	-0.18480884
66	0xbe67ce15	-0.22637208
67	0xbdc54e0d	-0.09634028
68	0xbddec4c8	-0.10877377
69	0xbdca1366	-0.09866981
70	0xbe7dbbc8	-0.24778664
71	0xbe1dbc41	-0.15403844
72	0xbe1af734	-0.15133363
73	0xbe38500a	-0.17999282
74	0xbe1d6eb1	-0.15374257
75	0xbe3eaad3	-0.18619852
76	0xbe382240	-0.17981815
77	0xbe27ca05	-0.16385658
78	0xbe709cc6	-0.23497304
79	0xbe884d5c	-0.2662152
80	0xbe885948	-0.26630616
81	0xbe825291	-0.25453618
82	0xbda31c5a	-0.07964392
83	0xbdc22e4f	-0.09481489
84	0xbe65e2d6	-0.22449812
85	0xbda58440	-0.08081865
86	0xbe2fa570	-0.17152953
87	0xbe718925	-0.23587473
88	0xbe2ebe6a	-0.17064825
89	0xbe7ac09b	-0.24487536
90	0xbe0a3033	-0.13494949
91	0xbdca9cc0	-0.09893179
92	0x3cd2edb1	0.025748106
93	0xbdb76685	-0.08955101
94	0xbe72099b	-0.23636477
95	0x3d0480cb	0.03234939

decoder.bn.weight f4 [64]
0	0x3f800000	1.0
1	0x3f800000	1.0
2	0x3f800000	1.0
3	0x3f800000	1.0
4	0x3f800000	1.0
5	0x3f800000	1.0
6	0x3f800000	1.0
7	0x3f800000	1.0
8	0x3f800000	1.0
9	0x3f800000	1.0
10	0x3f800000	1.0
11	0x3f800000	1.0
12	0x3f800000	1.0
13	0x3f800000	1.0
14	0x3f800000	1.0
15	0x3f800000	1.0
16	0x3f800000	1.0
17	0x3f800000	1.0
18	0x3f800000	1.0
19	0x3f800000	1.0
20	0x3f800000	1.0
21	0x3f800000	1.0
22	0x3f800000	1.0
23	0x3f800000	1.0
24	0x3f800000	1.0
25	0x3f800000	1.0
26	0x3f800000	1.0
27	0x3f800000	1.0
28	0x3f800000	1.0
29	0x3f800000	1.0
30	0x3f800000	1.0
31	0x3f800000	1.0
32	0x3f800000	1.0
33	0x3f800000	1.0
34	0x3f800000	1.0
35	0x3f800000	1.0
36	0x3f800000	1.0
37	0x3f800000	1.0
38	0x3f800000	1.0
39	0x3f800000	1.0
40	0x3f800000	1.0
41	0x3f800000	1.0
42	0x3f800000	1.0
43	0x3f800000	1.0
44	0x3f800000	1.0
45	0x3f800000	1.0
46	0x3f800000	1.0
47	0x3f800000	1.0
48	0x3f800000	1.0
49	0x3f800000	1.0
50	0x3f800000	1.0
51	0x3f800000	1.0
52	0x3f800000	1.0
53	0x3f800000	1.0
54	0x3f800000	1.0
55	0x3f800000	1.0
56	0x3f800000	1.0
57	0x3f800000	1.0
58	0x3f800000	1.0
59	0x3f800000	1.0
60	0x3f800000	1.0
61	0x3f800000	1.0
62	0x3f800000	1.0
63	0x3f800000	1.0

decoder.bn.bias f4 [64]
0	0x00000000	0.0
1	0x00000000	0.0
2	0x00000000	0.0
3	0x00000000	0.0
4	0x00000000	0.0
5	0x00000000	0.0
6	0x00000000	0.0
7	0x00000000	0.0
8	0x00000000	0.0
9	0x00000000	0.0
10	0x00000000	0.0
11	0x00000000	0.0
12	0x00000000	0.0
13	0x00000000	0.0
14	0x00000000	0.0
15	0x00000000	0.0
16	0x00000000	0.0
17	0x00000000	0.0
18	0x00000000	0.0
19	0x00000000	0.0
20	0x00000000	0.0
21	0x00000000	0.0
22	0x00000000	0.0
23	0x00000000	0.0
24	0x00000000	0.0
25	0x00000000	0.0
26	0x00000000	0.0
27	0x00000000	0.0
28	0x00000000	0.0
29	0x00000000	0.0
30	0x00000000	0.0
31	0x00000000	0.0
32	0x00000000	0.0
33	0x00000000	0.0
34	0x00000000	0.0
35	0x00000000	0.0
36	0x00000000	0.0
37	0x00000000	0.0
38	0x00000000	0.0
39	0x00000000	0.0
40	0x00000000	0.0
41	0x00000000	0.0
42	0x00000000	0.0
43	0x00000000	0.0
44	0x00000000	0.0
45	0x00000000	0.0
46	0x00000000	0.0
47	0x00000000	0.0
48	0x00000000	0.0
49	0x00000000	0.0
50	0x00000000	0.0
51	0x00000000	0.0
52	0x00000000	0.0
53	0x00000000	0.0
54	0x00000000	0.0
55	0x00000000	0.0
56	0x00000000	0.0
57	0x00000000	0.0
58	0x00000000	0.0
59	0x00000000	0.0
60	0x00000000	0.0
61	0x00000000	0.0
62	0x00000000	0.0
63	0x00000000	0.0
