FarconVAE/model_adult/farcon_2023_05_02_01_12_23_476710_ours.pth (torch, 82153 bytes, 21 tensors)

encoder.fc.weight f4 [64, 97]
000000 cc 0a 01 3e 10 34 8d 3e 09 46 5f 3e 5a 27 2c bd
       0.12601775 0.27578783 0.2180406 -0.042029716
000010 f7 0d 9b 3d e1 b4 2d 3e 98 4c 03 3e 57 ee 83 3e
       0.07571023 0.16963531 0.12822187 0.25767776
000020 7f ea 17 bd e9 61 fd 3d 74 c5 39 3e 44 cf b5 3b
       -0.037088867 0.123721905 0.18141729 0.0055483896
000030 9d d0 89 3e a5 b4 1f 3e c0 32 e4 bb 2e ff 6c 3c
       0.26916972 0.15596254 -0.0069640577 0.014465136
000040 60 02 cc 3d 74 b3 14 3e 32 5f 3f 3e f1 8a 26 3e
       0.099613905 0.14521581 0.18688658 0.1626394
000050 c5 52 3f 3e 17 7d 8a bd 44 ec 07 3e 2b 26 85 3d
       0.18683918 -0.0676214 0.13273722 0.065014206
000060 27 e9 05 bc 82 ab d9 bd ae 67 a7 3e 4c 83 2a 3c
       -0.008173264 -0.10628416 0.3269629 0.01040728
000070 2b 2d fd 3b 27 b0 4b 3d 80 fc 8a 3e 57 5a 1d 3e
       0.0077263317 0.04972854 0.27145767 0.15366493
000080 d4 45 df 3d 3e 62 3f 3c d7 af 08 3e 71 d9 c5 3d
       0.109019905 0.011681138 0.13348328 0.09660614
000090 8c d1 e2 3d 94 9b 89 3e 54 98 62 3e 1e f3 8b 3e
       0.11075124 0.2687651 0.22128421 0.2733392
0000a0 bb 1c 91 3c 7a fd a8 3d fb 4d 33 3e 62 86 66 3e
       0.017713895 0.08251472 0.17510216 0.225122
0000b0 14 ae 2c 3e 49 3d 35 3e 8c 8d 25 3e fe ff 03 3e
       0.1686328 0.1769916 0.16167277 0.12890622
0000c0 58 5c 85 3e 74 71 49 3e a6 be 0b bd 6a 89 9e bb
       0.26047015 0.19672185 -0.034117363 -0.0048381584
0000d0 07 7d 2c 3e d3 e1 29 3b b3 bd 75 3e 59 11 25 bd
       0.16844569 0.0025921955 0.23998146 -0.040299747
0000e0 b4 a2 33 bd 50 32 97 bc e2 13 bd bc c6 cc 14 bd
       -0.043856338 -0.018456608 -0.02308077 -0.0363281
0000f0 de 06 18 bc 1f 8c 19 bd a3 3d 34 bd 63 e8 69 bb
       -0.009278981 -0.037487146 -0.044004094 -0.0035691492
000100 3d 1d 39 bd c4 47 03 bd bf ed be bc 00 2a 52 bd
       -0.0451939 -0.032050863 -0.023306726 -0.051309586
000110 d5 53 dd ba dc 01 5a bc 31 36 99 bb cf 4f 29 bc
       -0.0016885946 -0.013306107 -0.0046756496 -0.010333969
000120 0f ff 44 bd 98 d4 cf bc 15 4c e9 bc 76 00 0e bd
       -0.048094805 -0.025369927 -0.028478662 -0.03466841
000130 87 69 58 bd 9c c0 d7 bb cf c4 bc bc 7c ff 92 3d
       -0.052835014 -0.00658424 -0.023043064 0.07177636
000140 8d 64 98 bc 3b d4 84 bc e5 62 89 bc 4b 1a a3 bd
       -0.018602634 -0.01621448 -0.01677079 -0.07963999
000150 8a 5e 88 bc d3 a1 40 bc eb 78 4b bd 7b 9d 65 bc
       -0.016646642 -0.011757332 -0.049675863 -0.014014597
000160 f8 bd 8a bd c7 ab a6 bc 17 da a5 bc f0 bf c5 3c
       -0.06774515 -0.020345582 -0.020245595 0.024139374
000170 99 b6 35 3e 25 27 32 bc 44 63 a0 3b 07 57 d0 3e
       0.17745437 -0.010873591 0.004894646 0.40691397
000180 86 98 02 3f 39 2f d5 3c 6f a3 ed bd 52 fa 4b be
       0.5101398 0.026023494 -0.11603438 -0.19919708
000190 ab e7 1c be 0d 22 6e be ed d6 49 be 78 d4 67 be
       -0.1532275 -0.23255177 -0.19710894 -0.22639644
0001a0 ae ed 0b be 69 73 37 be 7a 24 3b be 8b ad 7d be
       -0.13664886 -0.17915119 -0.18275633 -0.24773233
0001b0 67 1f ed bc 6a 38 03 be c7 2b 2f be 2b f3 da bd
       -0.028945638 -0.12814489 -0.17106543 -0.10690912
0001c0 46 7a 23 be 15 cb 56 be d8 da 34 be 61 e8 50 be
       -0.15964612 -0.20975907 -0.17661607 -0.20401146
0001d0 61 92 62 be ec b8 1c be ac 09 36 be 8e 67 1c 3e
       -0.22126152 -0.15304917 -0.17777127 0.15273878
0001e0 7d 71 43 be 86 49 09 bd 5a d3 60 be 81 1c 5a 3d
       -0.19086261 -0.033517383 -0.21955624 0.05324984
0001f0 e8 8d 0d bd 8d 09 4d 3c a2 ce 28 be 00 d2 81 bd
       -0.03455916 0.012514484 -0.16485074 -0.063388824
000200 5c 5a c8 bd 28 61 dc bd e3 db 56 bc f3 c4 5e 3d
       -0.0978286 -0.107607186 -0.0131139485 0.054387044
000210 b1 02 b6 bd 9b 55 f4 bd a3 0c 8e bd e4 95 2e bd
       -0.08887232 -0.119303904 -0.06936004 -0.042623416
000220 8b ad 02 bc f6 13 b2 bd b6 68 35 be 55 cc 04 be
       -0.007975946 -0.086952135 -0.17715725 -0.12968571
000230 63 ca 0f bd e1 06 f4 bd e1 c0 99 bd ed cb a3 bd
       -0.03510512 -0.119153745 -0.07507492 -0.0799788
000240 bc e9 70 be b1 64 49 be c0 4a ec bd 92 19 e4 bd
       -0.23526663 -0.19667317 -0.11537695 -0.1113769
000250 14 12 c8 be 0f 2f 88 be 1b cc 1e be 75 4c 1a bd
       -0.39076293 -0.26598403 -0.15507548 -0.03767057
000260 40 a1 93 bd 51 43 dc bb 7e e7 3b bd 0f 85 9d bd
       -0.0720849 -0.006721892 -0.045875065 -0.076913945
000270 1d 46 2b bd 41 cb d8 bc a2 01 8f bd ac 60 50 bd
       -0.041814912 -0.026464107 -0.06982733 -0.050873443
000280 83 6b 2b ba 13 a4 a9 bd 54 41 10 bd c0 43 1a bd
       -0.0006539153 -0.08283248 -0.03521855 -0.037662268
000290 63 73 cf bc 53 ae 2b bb 97 9a 3d bc 5f a4 23 bc
       -0.025323575 -0.0026196435 -0.011572502 -0.00998792
0002a0 1a d1 5c bc 79 bc ea bc e4 0d 18 bd e3 76 e0 bc
       -0.013477588 -0.028654324 -0.037122622 -0.02740044
0002b0 7b 52 6c bd bf d0 01 bd 98 06 09 bd 87 54 11 bc
       -0.057695847 -0.031693216 -0.033453554 -0.008870251
0002c0 a8 fd 73 be 15 6d 2f bd 3a 05 7f bc 82 03 13 bd
       -0.23827231 -0.042828638 -0.015565211 -0.035892017
0002d0 eb 70 46 bd 54 15 63 bd dc 8c 15 bd 36 8b 97 bd
       -0.04844753 -0.055440262 -0.036511287 -0.07399599
0002e0 ec 6c 25 bc 7f 39 8f bc 57 81 04 3b 33 6a c3 bb
       -0.01009677 -0.017483471 0.0020218694 -0.0059635877
0002f0 88 5d c6 3b 47 cf 8b bd 36 f4 50 bc e6 61 99 bc
       0.0060536303 -0.068266444 -0.012753537 -0.01872344
000300 b1 80 dc 3e 85 58 95 3e 92 bc 83 be 38 9f 37 be
       0.43066934 0.29169098 -0.25729805 -0.17931831
000310 1f a5 34 be 35 f0 a7 bd 8b 7c a8 bd 2e 18 69 be
       -0.17641114 -0.08200113 -0.0822688 -0.2276313
000320 81 58 32 be 93 58 9d be ff f6 85 3a b1 83 af bd
       -0.17416574 -0.3073164 0.0010220705 -0.0857004
000330 e9 4e bd bd 76 08 86 bb 48 18 e1 bd b6 4a b1 bc
       -0.092435665 -0.004090364 -0.109909594 -0.02164207
000340 09 23 78 bc c7 59 69 bc d6 52 6b bd df dd ec bc
       -0.015145072 -0.014242596 -0.057452045 -0.02891439
000350 51 96 a9 bd ea 1f e4 bd 3b a5 5e be b8 ab 1c bd
       -0.08280624 -0.111388996 -0.21742718 -0.0382497
000360 16 a6 47 be cb 3d 52 bd 4b 20 9b bb b1 c1 d9 bc
       -0.1949695 -0.05132846 -0.004734074 -0.026581617
000370 64 e8 1f be be e1 98 bb 40 29 06 be c1 10 31 bd
       -0.15615994 -0.0046655824 -0.13101673 -0.04322887
000380 e6 b2 aa be 1d 2b b3 bd 59 14 77 bd ee 69 22 bb
       -0.33339614 -0.087484576 -0.06032214 -0.0024782377
000390 30 13 3d be 56 c7 13 be 0a b6 b1 bd 0a 64 ed bd
       -0.1846435 -0.1443151 -0.08677299 -0.115913466
0003a0 c7 f7 01 be b4 12 50 be 45 ed 36 bc ca bc 8d bd
       -0.12692176 -0.20319635 -0.011164968 -0.06920774
0003b0 f4 59 39 bd 83 82 ef bd f9 69 83 bd 2f 4f e9 bd
       -0.0452518 -0.11694815 -0.06416697 -0.11392056
0003c0 95 62 6e be 57 c8 db bd f2 8a 4b be 9e 6c f0 bd
       -0.23279794 -0.10731571 -0.19877222 -0.11739467
0003d0 66 31 7e bd 47 8d a0 bd 86 c1 3b be 10 8c 58 bc
       -0.06205883 -0.078394465 -0.18335542 -0.013216987
0003e0 4e 0e f9 bd 0d ce 3c bc 9e ef a4 3b 35 d2 ea bb
       -0.121609315 -0.011523736 0.0050334474 -0.007166172
0003f0 63 16 f0 bb 00 d7 96 bb 44 f6 6a bb 77 14 7e bb
       -0.0073268875 -0.0046032667 -0.0035852352 -0.0038769522

encoder.fc.bias f4 [64]
000000 54 d5 f3 3d 54 bf 43 be 67 f6 89 be 28 d0 31 be
       0.119059235 -0.19115955 -0.26945803 -0.17364562
000010 ad 6e 3c 3e 8f 79 f7 3d 66 13 39 3d 8e aa c8 3c
       0.18401594 0.12083732 0.045184515 0.02449539
000020 59 79 2c 3e 1e 1b b5 bd 62 ba 86 be 98 46 03 3e
       0.16843165 -0.08843063 -0.26314074 0.12819898
000030 e1 fa 10 3e 15 25 02 3e 46 02 d0 bd 5b 7b 96 3d
       0.14158203 0.12709458 -0.101566836 0.07347747
000040 4a 23 42 3d 1b 54 a3 3d 51 72 b9 3d 78 7e be bd
       0.047396936 0.07975026 0.09055007 -0.09301466
000050 77 6f 4e be 6f 4a f3 3b a7 6e 13 3e b7 12 87 be
       -0.20159708 0.0074246447 0.1439768 -0.26381466
000060 73 b5 4b be 18 95 16 be 23 9c 0a 3d 6e b8 46 3e
       -0.19893436 -0.14705312 0.03384031 0.19406292
000070 51 c3 46 be c1 87 85 3d ad 6a 33 be 3a 80 54 3e
       -0.19410445 0.06520034 -0.17521162 0.2075204
000080 02 b6 e7 bd b9 75 3b be 1d 6b b7 3d c2 91 9b 3d
       -0.11314012 -0.18306626 0.08955977 0.075961605
000090 36 b8 c0 3d 59 01 7a be 7f 1d e9 3d af ea ac 3d
       0.094101354 -0.24414577 0.11382579 0.084432
0000a0 a0 ad 01 3e 3c 4c 84 be 5e 3d 89 3e cf a6 08 be
       0.12663889 -0.25839412 0.26804632 -0.13344882
0000b0 9f b6 b7 3d d6 16 ac 3d 25 1c 18 be ee ac b3 bc
       0.08970379 0.08402793 -0.14854486 -0.021933045
0000c0 da 1b c9 3c 65 5b 2e bd 08 1a d9 3d 21 32 c0 3d
       0.024549413 -0.04256763 0.10600668 0.09384561
0000d0 be 87 2e 3e 21 a5 e6 3d cb df 85 3c c9 67 1a 3e
       0.17043969 0.112619646 0.016342064 0.15078653
0000e0 73 9c 9b be dc 68 45 be f3 94 b7 bc 57 ae 02 bd
       -0.303928 -0.19278282 -0.022409892 -0.031904545
0000f0 17 73 0b bc 85 d8 a4 bc 09 33 96 3e 2c 9b 39 3e
       -0.008511326 -0.020122776 0.29335812 0.181256

encoder.bn.weight f4 [64]
000000 00 00 80 3f 00 00 80 3f 00 00 80 3f 00 00 80 3f
       1.0 1.0 1.0 1.0
000010 00 00 80 3f 00 00 80 3f 00 00 80 3f 00 00 80 3f
       1.0 1.0 1.0 1.0
000020 00 00 80 3f 00 00 80 3f 00 00 80 3f 00 00 80 3f
       1.0 1.0 1.0 1.0
000030 00 00 80 3f 00 00 80 3f 00 00 80 3f 00 00 80 3f
       1.0 1.0 1.0 1.0
000040 00 00 80 3f 00 00 80 3f 00 00 80 3f 00 00 80 3f
       1.0 1.0 1.0 1.0
000050 00 00 80 3f 00 00 80 3f 00 00 80 3f 00 00 80 3f
       1.0 1.0 1.0 1.0
000060 00 00 80 3f 00 00 80 3f 00 00 80 3f 00 00 80 3f
       1.0 1.0 1.0 1.0
000070 00 00 80 3f 00 00 80 3f 00 00 80 3f 00 00 80 3f
       1.0 1.0 1.0 1.0
000080 00 00 80 3f 00 00 80 3f 00 00 80 3f 00 00 80 3f
       1.0 1.0 1.0 1.0
000090 00 00 80 3f 00 00 80 3f 00 00 80 3f 00 00 80 3f
       1.0 1.0 1.0 1.0
0000a0 00 00 80 3f 00 00 80 3f 00 00 80 3f 00 00 80 3f
       1.0 1.0 1.0 1.0
0000b0 00 00 80 3f 00 00 80 3f 00 00 80 3f 00 00 80 3f
       1.0 1.0 1.0 1.0
0000c0 00 00 80 3f 00 00 80 3f 00 00 80 3f 00 00 80 3f
       1.0 1.0 1.0 1.0
0000d0 00 00 80 3f 00 00 80 3f 00 00 80 3f 00 00 80 3f
       1.0 1.0 1.0 1.0
0000e0 00 00 80 3f 00 00 80 3f 00 00 80 3f 00 00 80 3f
       1.0 1.0 1.0 1.0
0000f0 00 00 80 3f 00 00 80 3f 00 00 80 3f 00 00 80 3f
       1.0 1.0 1.0 1.0

encoder.bn.bias f4 [64]
000000 00 00 00 00 00 00 00 00 00 00 00 00 00 00 00 00
       0.0 0.0 0.0 0.0
000010 00 00 00 00 00 00 00 00 00 00 00 00 00 00 00 00
       0.0 0.0 0.0 0.0
000020 00 00 00 00 00 00 00 00 00 00 00 00 00 00 00 00
       0.0 0.0 0.0 0.0
000030 00 00 00 00 00 00 00 00 00 00 00 00 00 00 00 00
       0.0 0.0 0.0 0.0
000040 00 00 00 00 00 00 00 00 00 00 00 00 00 00 00 00
       0.0 0.0 0.0 0.0
000050 00 00 00 00 00 00 00 00 00 00 00 00 00 00 00 00
       0.0 0.0 0.0 0.0
000060 00 00 00 00 00 00 00 00 00 00 00 00 00 00 00 00
       0.0 0.0 0.0 0.0
000070 00 00 00 00 00 00 00 00 00 00 00 00 00 00 00 00
       0.0 0.0 0.0 0.0
000080 00 00 00 00 00 00 00 00 00 00 00 00 00 00 00 00
       0.0 0.0 0.0 0.0
000090 00 00 00 00 00 00 00 00 00 00 00 00 00 00 00 00
       0.0 0.0 0.0 0.0
0000a0 00 00 00 00 00 00 00 00 00 00 00 00 00 00 00 00
       0.0 0.0 0.0 0.0
0000b0 00 00 00 00 00 00 00 00 00 00 00 00 00 00 00 00
       0.0 0.0 0.0 0.0
0000c0 00 00 00 00 00 00 00 00 00 00 00 00 00 00 00 00
       0.0 0.0 0.0 0.0
0000d0 00 00 00 00 00 00 00 00 00 00 00 00 00 00 00 00
       0.0 0.0 0.0 0.0
0000e0 00 00 00 00 00 00 00 00 00 00 00 00 00 00 00 00
       0.0 0.0 0.0 0.0
0000f0 00 00 00 00 00 00 00 00 00 00 00 00 00 00 00 00
       0.0 0.0 0.0 0.0

encoder.bn.running_mean f4 [64]
000000 00 00 00 00 00 00 00 00 00 00 00 00 00 00 00 00
       0.0 0.0 0.0 0.0
000010 00 00 00 00 00 00 00 00 00 00 00 00 00 00 00 00
       0.0 0.0 0.0 0.0
000020 00 00 00 00 00 00 00 00 00 00 00 00 00 00 00 00
       0.0 0.0 0.0 0.0
000030 00 00 00 00 00 00 00 00 00 00 00 00 00 00 00 00
       0.0 0.0 0.0 0.0
000040 00 00 00 00 00 00 00 00 00 00 00 00 00 00 00 00
       0.0 0.0 0.0 0.0
000050 00 00 00 00 00 00 00 00 00 00 00 00 00 00 00 00
       0.0 0.0 0.0 0.0
000060 00 00 00 00 00 00 00 00 00 00 00 00 00 00 00 00
       0.0 0.0 0.0 0.0
000070 00 00 00 00 00 00 00 00 00 00 00 00 00 00 00 00
       0.0 0.0 0.0 0.0
000080 00 00 00 00 00 00 00 00 00 00 00 00 00 00 00 00
       0.0 0.0 0.0 0.0
000090 00 00 00 00 00 00 00 00 00 00 00 00 00 00 00 00
       0.0 0.0 0.0 0.0
0000a0 00 00 00 00 00 00 00 00 00 00 00 00 00 00 00 00
       0.0 0.0 0.0 0.0
0000b0 00 00 00 00 00 00 00 00 00 00 00 00 00 00 00 00
       0.0 0.0 0.0 0.0
0000c0 00 00 00 00 00 00 00 00 00 00 00 00 00 00 00 00
       0.0 0.0 0.0 0.0
0000d0 00 00 00 00 00 00 00 00 00 00 00 00 00 00 00 00
       0.0 0.0 0.0 0.0
0000e0 00 00 00 00 00 00 00 00 00 00 00 00 00 00 00 00
       0.0 0.0 0.0 0.0
0000f0 00 00 00 00 00 00 00 00 00 00 00 00 00 00 00 00
       0.0 0.0 0.0 0.0

encoder.bn.running_var f4 [64]
000000 00 00 80 3f 00 00 80 3f 00 00 80 3f 00 00 80 3f
       1.0 1.0 1.0 1.0
000010 00 00 80 3f 00 00 80 3f 00 00 80 3f 00 00 80 3f
       1.0 1.0 1.0 1.0
000020 00 00 80 3f 00 00 80 3f 00 00 80 3f 00 00 80 3f
       1.0 1.0 1.0 1.0
000030 00 00 80 3f 00 00 80 3f 00 00 80 3f 00 00 80 3f
       1.0 1.0 1.0 1.0
000040 00 00 80 3f 00 00 80 3f 00 00 80 3f 00 00 80 3f
       1.0 1.0 1.0 1.0
000050 00 00 80 3f 00 00 80 3f 00 00 80 3f 00 00 80 3f
       1.0 1.0 1.0 1.0
000060 00 00 80 3f 00 00 80 3f 00 00 80 3f 00 00 80 3f
       1.0 1.0 1.0 1.0
000070 00 00 80 3f 00 00 80 3f 00 00 80 3f 00 00 80 3f
       1.0 1.0 1.0 1.0
000080 00 00 80 3f 00 00 80 3f 00 00 80 3f 00 00 80 3f
       1.0 1.0 1.0 1.0
000090 00 00 80 3f 00 00 80 3f 00 00 80 3f 00 00 80 3f
       1.0 1.0 1.0 1.0
0000a0 00 00 80 3f 00 00 80 3f 00 00 80 3f 00 00 80 3f
       1.0 1.0 1.0 1.0
0000b0 00 00 80 3f 00 00 80 3f 00 00 80 3f 00 00 80 3f
       1.0 1.0 1.0 1.0
0000c0 00 00 80 3f 00 00 80 3f 00 00 80 3f 00 00 80 3f
       1.0 1.0 1.0 1.0
0000d0 00 00 80 3f 00 00 80 3f 00 00 80 3f 00 00 80 3f
       1.0 1.0 1.0 1.0
0000e0 00 00 80 3f 00 00 80 3f 00 00 80 3f 00 00 80 3f
       1.0 1.0 1.0 1.0
0000f0 00 00 80 3f 00 00 80 3f 00 00 80 3f 00 00 80 3f
       1.0 1.0 1.0 1.0

encoder.out.weight f4 [60, 64]
000000 9f 4a 30 be 34 2f ef bd 87 d6 c6 bd 9c 4f 12 3d
       -0.17215966 -0.11678925 -0.097088866 0.035720453
000010 87 ff 6b 3d 1a 6f 94 3e 66 ca cc 3d d1 66 51 be
       0.057616737 0.28991014 0.09999542 -0.20449378
000020 b2 7f 85 3d 32 d3 84 bc 69 e2 10 3c 4c 54 4c 3e
       0.065184966 -0.016213987 0.008843043 0.19954032
000030 b6 cf 2b 3e 7a 3c b9 bc 80 99 d2 bc 64 17 89 bd
       0.16778454 -0.022611845 -0.02570796 -0.066939145
000040 64 07 fb 3d 81 b8 99 bd 62 fe 00 3e 22 0b 41 be
       0.12257269 -0.075058945 0.1259704 -0.18851903
000050 33 38 0c bd 86 6b 9b be 80 a9 3d 3e 61 76 0f be
       -0.034233283 -0.3035547 0.1852169 -0.14010002
000060 84 a1 10 be 67 da ed bd 34 8e 02 be 97 5b 59 3e
       -0.14124113 -0.116139226 -0.12749559 0.21226345
000070 36 6d 47 be fb f3 1d 3c e4 a6 25 bd 72 36 75 3e
       -0.19475254 0.009640689 -0.040442362 0.2394655
000080 1a 41 28 be 1b c8 4c be f6 ba a2 3e 5c 26 d0 3d
       -0.16431084 -0.19998209 0.31783265 0.101635665
000090 b0 da 45 be 27 05 27 bd ea c4 38 3e 85 4b 05 3e
       -0.19321704 -0.040776398 0.18043867 0.1301709
0000a0 bb a4 91 be 1f 88 2f be 5c b3 34 be 9e 98 bf bd
       -0.28445992 -0.1714177 -0.17646545 -0.09355281
0000b0 f8 1f c3 be 01 a5 21 bd 57 e1 07 be 07 50 51 3d
       -0.38110328 -0.039464 -0.13269554 0.05110171
0000c0 ce 7a b3 3d b5 6e fe bd ad 11 09 3e d4 53 24 3e
       0.087636575 -0.124234594 0.13385649 0.16047603
0000d0 42 7b de 3d 16 52 d2 3c 2d 27 e8 3d b1 83 65 3e
       0.10863353 0.025673907 0.11335597 0.22413518
0000e0 a4 c4 7f bd 65 06 40 be d2 70 a8 bd af 69 b3 3d
       -0.06244339 -0.1875244 -0.08224644 0.08760392
0000f0 b7 e0 8c 3e 4c 5b 80 3e 59 d0 f0 3d 45 44 e2 3d
       0.27515194 0.25069654 0.11758489 0.11048178
000100 48 12 5d 3e 17 6b d9 3d 2f 76 17 3e d2 b4 03 3e
       0.21589005 0.10616129 0.14791177 0.12861946
000110 02 92 78 be 46 8a 91 be 66 fa a2 bd a4 58 19 3e
       -0.24274448 -0.28425807 -0.07957916 0.1497522
000120 83 98 52 be eb 67 df 3d 98 80 93 3d fb 45 7a bd
       -0.20565991 0.10908493 0.07202262 -0.061101895
000130 80 39 06 be 60 2d 3d be 7c a7 d4 3d 80 98 ef 3d
       -0.13107872 -0.1847434 0.103835076 0.11699009
000140 c9 82 cd bd 15 fa 2b 3e c7 06 31 be 21 18 3f 3e
       -0.10034711 0.16794617 -0.17287742 0.18661548
000150 3d bc 06 3e fe 4f 77 3e 85 ef da bb 67 ec b4 3d
       0.13157745 0.24151608 -0.006681385 0.08834153
000160 43 4b 33 3e 4d 67 4d 3d 97 20 f1 3d 70 37 0d 3c
       0.17509179 0.050147343 0.11773794 0.008619174
000170 79 e3 3c 3e 73 3e 8e bd 58 7d 08 3e 73 6f d1 bd
       0.18446149 -0.06945505 0.13329065 -0.102263354
000180 33 04 24 3e ce 89 05 3e d5 39 9b be 00 81 9b bd
       0.16017227 0.1304085 -0.3031756 -0.07592964
000190 63 53 88 3d 45 72 97 3d 10 00 87 be 3c 05 9e bd
       0.0665653 0.07394842 -0.26367235 -0.07715842
0001a0 af b3 04 bd 50 b0 09 3e 30 6c 68 3d a2 fd 44 3d
       -0.032397922 0.13446164 0.0567438 0.048093446
0001b0 31 1a a9 3e d1 a8 11 be 71 42 5c 3e 22 f9 f2 bd
       0.33027795 -0.14224555 0.2150972 -0.118639246
0001c0 a4 9d 05 be 1b d5 9e 3e 4b bd f0 bc 34 e1 80 bd
       -0.13048416 0.31021962 -0.029387137 -0.06292954
0001d0 3d 7f 8e be bc 39 82 3d 8c 40 b6 bd f5 4c ac bb
       -0.2783145 0.06358668 -0.0889903 -0.0052581974
0001e0 0e 3e 5f 3e 2c 63 7d 3e fd bd b6 bd e3 36 a6 bd
       0.21801016 0.24744862 -0.08922956 -0.081159376
0001f0 99 7f c2 bd 0a 04 d0 bc 85 c1 0b 3e d1 dc 2a be
       -0.094969936 -0.025392551 0.1364804 -0.16685797
000200 fb 76 3d be 59 10 44 be 5b 86 82 bd aa f5 26 be
       -0.18502419 -0.19146861 -0.063732825 -0.16304651
000210 24 f2 1f 3e a2 db 87 3e 1c 4e 69 3d 9e 4e 16 be
       0.15619713 0.26534754 0.056959257 -0.14678428
000220 33 c6 c0 3d 36 01 b2 bd 9f 74 1d be 69 cf 11 3e
       0.094128035 -0.08691637 -0.15376519 0.14239277
000230 0a 9b 1f 3d 95 d7 69 3e 82 e6 0d be 99 00 1d 3c
       0.038966216 0.22836144 -0.13857463 0.009582662
000240 9d 06 8c 3d 04 f9 4d be 80 c7 b9 3d e7 ba e2 bd
       0.06837199 -0.20114523 0.09071255 -0.11070805
000250 fd ac a6 bd 81 39 c0 be e7 a0 a1 3d b8 e4 b5 bd
       -0.08138464 -0.37543872 0.07892018 -0.08881515
000260 b1 87 a7 bc 44 5b 90 bd 4c f3 1e be 9c f4 97 3d
       -0.020450445 -0.070486575 -0.15522498 0.074197024
000270 d5 7b 39 be 9c 34 83 3e 05 a1 b7 bd 39 f5 5b 3e
       -0.18113644 0.25626075 -0.08966259 0.21480264
000280 0e 94 31 be 9f e4 1a be b0 bd bb 3e e2 03 51 3c
       -0.17341635 -0.15126275 0.36668158 0.012757273
000290 2f 27 6d be da fb 39 be 54 2d 6e 3e a8 e3 29 3e
       -0.23159479 -0.1816248 0.23259479 0.1659075
0002a0 9d d3 a0 be 0e b0 84 bb fd 02 4c bd f6 bc 5e be
       -0.31411448 -0.0040493077 -0.049807537 -0.2175177
0002b0 9f b5 b3 be 1c 7f f2 bc 64 3e 65 be cb 34 3b 3e
       -0.35099503 -0.029601626 -0.22387081 0.18281858
0002c0 5f e9 d9 bc 0e c8 9a be e9 cb f4 3d 96 90 59 3e
       -0.026600538 -0.30230755 0.11952955 0.21246561
0002d0 33 57 7e 3e 75 51 13 3d f9 06 c3 bc 24 93 bc 3d
       0.24837951 0.035966355 -0.023807036 0.09207752
0002e0 00 d8 94 bd 6f 7e 88 bc a4 b3 d1 bd 74 ab f9 3c
       -0.07267761 -0.01666185 -0.10239342 0.030477263
0002f0 35 24 bb 3e ac b5 7b 3e b1 88 4f 3d 69 80 0b 3e
       0.3655106 0.24581021 0.05066747 0.13623203
000300 6d 21 3a be 4f a6 d3 bc 68 d5 d1 bc 1b b8 c9 bc
       -0.18176813 -0.025836138 -0.025614455 -0.024623921
000310 c4 7c db bc a7 36 4e 3d 6d 00 54 be 07 80 ac be
       -0.026792891 0.05034509 -0.20703287 -0.33691427
000320 49 81 ac ba 46 5c cc ba 63 95 91 bd c3 a3 aa bc
       -0.0013161089 -0.0015591464 -0.071085714 -0.02083004
000330 59 22 17 3d 33 de 86 3c 34 c6 b1 3d 28 5c 7f be
       0.03689799 0.016463375 0.08680382 -0.24937499
000340 2a 43 48 bd 5b c2 11 3e 67 02 39 be c4 14 9b 3d
       -0.048892178 0.14234297 -0.18067323 0.0757232
000350 d3 e5 d0 bc 66 c4 cf 3d e7 3d 6a bd 71 8a 02 3c
       -0.025500214 0.10144882 -0.05718794 0.007967577
000360 da 61 d1 bb 33 45 19 bb 61 6a 13 3e a8 e2 92 bd
       -0.0063898386 -0.0023387193 0.14396049 -0.071721375
000370 76 71 75 bd 6d 7a 06 3d fb d1 08 3e 4b 20 76 3d
       -0.059922658 0.032831598 0.13361351 0.06008939
000380 e1 10 0a be 5f 1f 82 bd 98 41 66 3b 37 14 31 be
       -0.13483001 -0.0635364 0.0035134312 -0.17292868
000390 82 51 3f be 4d df 1e 3d e5 1e aa 3c b3 f2 79 bd
       -0.18683437 0.038787175 0.020766685 -0.06102247
0003a0 6b 8f 16 be 9a 21 46 bd c3 60 d1 3d c9 8c d4 bd
       -0.14703147 -0.04837189 0.10223534 -0.10378415
0003b0 63 84 aa be d9 85 66 be a9 1f 46 3b 35 da 3d be
       -0.33304128 -0.22511996 0.0030231273 -0.1854027
0003c0 9b e7 a4 bd 02 84 2b bc b8 5f b3 3e 2a 21 32 be
       -0.08051988 -0.010468485 0.35033965 -0.17395464
0003d0 1d 30 a0 3c 63 89 a0 bd 0e 9f fe bd b0 eb 34 ba
       0.019554192 -0.078387044 -0.12432681 -0.0006901575
0003e0 19 58 a1 bd 24 01 7f bd 05 47 18 be f2 bd 89 bd
       -0.078781314 -0.062256947 -0.14870842 -0.06725682
0003f0 2c c5 9b 3d fe 26 a6 bd 72 61 8a 3e f1 8a 96 3d
       0.07605967 -0.08112906 0.2702747 0.0735072

encoder.out.bias f4 [60]
000000 76 df 16 3e 75 f1 87 be 96 10 08 3e 1d 45 60 3d
       0.14733681 -0.26551405 0.13287577 0.05475341
000010 fb 20 9a bd 7e e7 22 3d 55 ff 2f 3d f5 1d 3f 3e
       -0.07525822 0.03977155 0.042968113 0.18663771
000020 a9 b7 50 be 17 d4 b0 bd f3 72 54 3e 30 fc cb bd
       -0.20382561 -0.08634203 0.20746975 -0.0996021
000030 22 33 3e bb 7d 6b 1d 3e 4f 58 5c 3c d3 dc 9a 3d
       -0.0029022177 0.15373035 0.013448789 0.0756165
000040 4d d6 14 3e 66 e6 e1 bc 5b 5b 58 be 9d 95 12 3e
       0.14534874 -0.027575683 -0.211286 0.14314885
000050 94 1a 01 be 04 1b 81 be 17 30 4c 3d 81 df 0e 3d
       -0.12607795 -0.25215924 0.04985055 0.03488112
000060 61 a6 a6 3d 82 1c 49 be e8 0d 32 bc d4 07 03 3e
       0.08137203 -0.19639781 -0.010867573 0.12795955
000070 cc 7d f4 bd 7f 5e 85 bd a9 d2 5e be 9a 97 78 be
       -0.11938056 -0.06512164 -0.21760048 -0.24276581
000080 37 da 67 be bb d6 4f 3b 47 8f 98 bd 56 74 d3 bd
       -0.22641836 0.0031713683 -0.07449203 -0.10324924
000090 24 4c 92 bd 7c 52 12 3d 9e a5 08 bd e8 5e 3c bd
       -0.07143429 0.035723194 -0.03336107 -0.045988947
0000a0 82 63 67 3c fd eb c4 bd cb ad 66 be 47 f0 42 be
       0.014122846 -0.09615324 -0.22527234 -0.19036971
0000b0 b0 a2 82 bd d9 7f 17 3d 33 de c6 3d b9 b3 17 bd
       -0.063786864 0.03698716 0.0971035 -0.03703663
0000c0 cb 90 8f be 73 bb d3 3d 29 8a 4b bc 78 a1 70 be
       -0.28040156 0.103384875 -0.012423077 -0.23499095
0000d0 a5 c4 76 bd 86 92 0e bd 8e cf d3 bd 0a 61 97 bb
       -0.06024613 -0.034807704 -0.10342322 -0.0046197223
0000e0 c7 f1 1b be f4 c1 af bc 66 fe 39 3d 4f d7 61 be
       -0.1522895 -0.021454789 0.04540863 -0.2205479

encoder.net.0.weight f4 [64, 97]
000000 cc 0a 01 3e 10 34 8d 3e 09 46 5f 3e 5a 27 2c bd
       0.12601775 0.27578783 0.2180406 -0.042029716
000010 f7 0d 9b 3d e1 b4 2d 3e 98 4c 03 3e 57 ee 83 3e
       0.07571023 0.16963531 0.12822187 0.25767776
000020 7f ea 17 bd e9 61 fd 3d 74 c5 39 3e 44 cf b5 3b
       -0.037088867 0.123721905 0.18141729 0.0055483896
000030 9d d0 89 3e a5 b4 1f 3e c0 32 e4 bb 2e ff 6c 3c
       0.26916972 0.15596254 -0.0069640577 0.014465136
000040 60 02 cc 3d 74 b3 14 3e 32 5f 3f 3e f1 8a 26 3e
       0.099613905 0.14521581 0.18688658 0.1626394
000050 c5 52 3f 3e 17 7d 8a bd 44 ec 07 3e 2b 26 85 3d
       0.18683918 -0.0676214 0.13273722 0.065014206
000060 27 e9 05 bc 82 ab d9 bd ae 67 a7 3e 4c 83 2a 3c
       -0.008173264 -0.10628416 0.3269629 0.01040728
000070 2b 2d fd 3b 27 b0 4b 3d 80 fc 8a 3e 57 5a 1d 3e
       0.0077263317 0.04972854 0.27145767 0.15366493
000080 d4 45 df 3d 3e 62 3f 3c d7 af 08 3e 71 d9 c5 3d
       0.109019905 0.011681138 0.13348328 0.09660614
000090 8c d1 e2 3d 94 9b 89 3e 54 98 62 3e 1e f3 8b 3e
       0.11075124 0.2687651 0.22128421 0.2733392
0000a0 bb 1c 91 3c 7a fd a8 3d fb 4d 33 3e 62 86 66 3e
       0.017713895 0.08251472 0.17510216 0.225122
0000b0 14 ae 2c 3e 49 3d 35 3e 8c 8d 25 3e fe ff 03 3e
       0.1686328 0.1769916 0.16167277 0.12890622
0000c0 58 5c 85 3e 74 71 49 3e a6 be 0b bd 6a 89 9e bb
       0.26047015 0.19672185 -0.034117363 -0.0048381584
0000d0 07 7d 2c 3e d3 e1 29 3b b3 bd 75 3e 59 11 25 bd
       0.16844569 0.0025921955 0.23998146 -0.040299747
0000e0 b4 a2 33 bd 50 32 97 bc e2 13 bd bc c6 cc 14 bd
       -0.043856338 -0.018456608 -0.02308077 -0.0363281
0000f0 de 06 18 bc 1f 8c 19 bd a3 3d 34 bd 63 e8 69 bb
       -0.009278981 -0.037487146 -0.044004094 -0.0035691492
000100 3d 1d 39 bd c4 47 03 bd bf ed be bc 00 2a 52 bd
       -0.0451939 -0.032050863 -0.023306726 -0.051309586
000110 d5 53 dd ba dc 01 5a bc 31 36 99 bb cf 4f 29 bc
       -0.0016885946 -0.013306107 -0.0046756496 -0.010333969
000120 0f ff 44 bd 98 d4 cf bc 15 4c e9 bc 76 00 0e bd
       -0.048094805 -0.025369927 -0.028478662 -0.03466841
000130 87 69 58 bd 9c c0 d7 bb cf c4 bc bc 7c ff 92 3d
       -0.052835014 -0.00658424 -0.023043064 0.07177636
000140 8d 64 98 bc 3b d4 84 bc e5 62 89 bc 4b 1a a3 bd
       -0.018602634 -0.01621448 -0.01677079 -0.07963999
000150 8a 5e 88 bc d3 a1 40 bc eb 78 4b bd 7b 9d 65 bc
       -0.016646642 -0.011757332 -0.049675863 -0.014014597
000160 f8 bd 8a bd c7 ab a6 bc 17 da a5 bc f0 bf c5 3c
       -0.06774515 -0.020345582 -0.020245595 0.024139374
000170 99 b6 35 3e 25 27 32 bc 44 63 a0 3b 07 57 d0 3e
       0.17745437 -0.010873591 0.004894646 0.40691397
000180 86 98 02 3f 39 2f d5 3c 6f a3 ed bd 52 fa 4b be
       0.5101398 0.026023494 -0.11603438 -0.19919708
000190 ab e7 1c be 0d 22 6e be ed d6 49 be 78 d4 67 be
       -0.1532275 -0.23255177 -0.19710894 -0.22639644
0001a0 ae ed 0b be 69 73 37 be 7a 24 3b be 8b ad 7d be
       -0.13664886 -0.17915119 -0.18275633 -0.24773233
0001b0 67 1f ed bc 6a 38 03 be c7 2b 2f be 2b f3 da bd
       -0.028945638 -0.12814489 -0.17106543 -0.10690912
0001c0 46 7a 23 be 15 cb 56 be d8 da 34 be 61 e8 50 be
       -0.15964612 -0.20975907 -0.17661607 -0.20401146
0001d0 61 92 62 be ec b8 1c be ac 09 36 be 8e 67 1c 3e
       -0.22126152 -0.15304917 -0.17777127 0.15273878
0001e0 7d 71 43 be 86 49 09 bd 5a d3 60 be 81 1c 5a 3d
       -0.19086261 -0.033517383 -0.21955624 0.05324984
0001f0 e8 8d 0d bd 8d 09 4d 3c a2 ce 28 be 00 d2 81 bd
       -0.03455916 0.012514484 -0.16485074 -0.063388824
000200 5c 5a c8 bd 28 61 dc bd e3 db 56 bc f3 c4 5e 3d
       -0.0978286 -0.107607186 -0.0131139485 0.054387044
000210 b1 02 b6 bd 9b 55 f4 bd a3 0c 8e bd e4 95 2e bd
       -0.08887232 -0.119303904 -0.06936004 -0.042623416
000220 8b ad 02 bc f6 13 b2 bd b6 68 35 be 55 cc 04 be
       -0.007975946 -0.086952135 -0.17715725 -0.12968571
000230 63 ca 0f bd e1 06 f4 bd e1 c0 99 bd ed cb a3 bd
       -0.03510512 -0.119153745 -0.07507492 -0.0799788
000240 bc e9 70 be b1 64 49 be c0 4a ec bd 92 19 e4 bd
       -0.23526663 -0.19667317 -0.11537695 -0.1113769
000250 14 12 c8 be 0f 2f 88 be 1b cc 1e be 75 4c 1a bd
       -0.39076293 -0.26598403 -0.15507548 -0.03767057
000260 40 a1 93 bd 51 43 dc bb 7e e7 3b bd 0f 85 9d bd
       -0.0720849 -0.006721892 -0.045875065 -0.076913945
000270 1d 46 2b bd 41 cb d8 bc a2 01 8f bd ac 60 50 bd
       -0.041814912 -0.026464107 -0.06982733 -0.050873443
000280 83 6b 2b ba 13 a4 a9 bd 54 41 10 bd c0 43 1a bd
       -0.0006539153 -0.08283248 -0.03521855 -0.037662268
000290 63 73 cf bc 53 ae 2b bb 97 9a 3d bc 5f a4 23 bc
       -0.025323575 -0.0026196435 -0.011572502 -0.00998792
0002a0 1a d1 5c bc 79 bc ea bc e4 0d 18 bd e3 76 e0 bc
       -0.013477588 -0.028654324 -0.037122622 -0.02740044
0002b0 7b 52 6c bd bf d0 01 bd 98 06 09 bd 87 54 11 bc
       -0.057695847 -0.031693216 -0.033453554 -0.008870251
0002c0 a8 fd 73 be 15 6d 2f bd 3a 05 7f bc 82 03 13 bd
       -0.23827231 -0.042828638 -0.015565211 -0.035892017
0002d0 eb 70 46 bd 54 15 63 bd dc 8c 15 bd 36 8b 97 bd
       -0.04844753 -0.055440262 -0.036511287 -0.07399599
0002e0 ec 6c 25 bc 7f 39 8f bc 57 81 04 3b 33 6a c3 bb
       -0.01009677 -0.017483471 0.0020218694 -0.0059635877
0002f0 88 5d c6 3b 47 cf 8b bd 36 f4 50 bc e6 61 99 bc
       0.0060536303 -0.068266444 -0.012753537 -0.01872344
000300 b1 80 dc 3e 85 58 95 3e 92 bc 83 be 38 9f 37 be
       0.43066934 0.29169098 -0.25729805 -0.17931831
000310 1f a5 34 be 35 f0 a7 bd 8b 7c a8 bd 2e 18 69 be
       -0.17641114 -0.08200113 -0.0822688 -0.2276313
000320 81 58 32 be 93 58 9d be ff f6 85 3a b1 83 af bd
       -0.17416574 -0.3073164 0.0010220705 -0.0857004
000330 e9 4e bd bd 76 08 86 bb 48 18 e1 bd b6 4a b1 bc
       -0.092435665 -0.004090364 -0.109909594 -0.02164207
000340 09 23 78 bc c7 59 69 bc d6 52 6b bd df dd ec bc
       -0.015145072 -0.014242596 -0.057452045 -0.02891439
000350 51 96 a9 bd ea 1f e4 bd 3b a5 5e be b8 ab 1c bd
       -0.08280624 -0.111388996 -0.21742718 -0.0382497
000360 16 a6 47 be cb 3d 52 bd 4b 20 9b bb b1 c1 d9 bc
       -0.1949695 -0.05132846 -0.004734074 -0.026581617
000370 64 e8 1f be be e1 98 bb 40 29 06 be c1 10 31 bd
       -0.15615994 -0.0046655824 -0.13101673 -0.04322887
000380 e6 b2 aa be 1d 2b b3 bd 59 14 77 bd ee 69 22 bb
       -0.33339614 -0.087484576 -0.06032214 -0.0024782377
000390 30 13 3d be 56 c7 13 be 0a b6 b1 bd 0a 64 ed bd
       -0.1846435 -0.1443151 -0.08677299 -0.115913466
0003a0 c7 f7 01 be b4 12 50 be 45 ed 36 bc ca bc 8d bd
       -0.12692176 -0.20319635 -0.011164968 -0.06920774
0003b0 f4 59 39 bd 83 82 ef bd f9 69 83 bd 2f 4f e9 bd
       -0.0452518 -0.11694815 -0.06416697 -0.11392056
0003c0 95 62 6e be 57 c8 db bd f2 8a 4b be 9e 6c f0 bd
       -0.23279794 -0.10731571 -0.19877222 -0.11739467
0003d0 66 31 7e bd 47 8d a0 bd 86 c1 3b be 10 8c 58 bc
       -0.06205883 -0.078394465 -0.18335542 -0.013216987
0003e0 4e 0e f9 bd 0d ce 3c bc 9e ef a4 3b 35 d2 ea bb
       -0.121609315 -0.011523736 0.0050334474 -0.007166172
0003f0 63 16 f0 bb 00 d7 96 bb 44 f6 6a bb 77 14 7e bb
       -0.0073268875 -0.0046032667 -0.0035852352 -0.0038769522

encoder.net.0.bias f4 [64]
000000 54 d5 f3 3d 54 bf 43 be 67 f6 89 be 28 d0 31 be
       0.119059235 -0.19115955 -0.26945803 -0.17364562
000010 ad 6e 3c 3e 8f 79 f7 3d 66 13 39 3d 8e aa c8 3c
       0.18401594 0.12083732 0.045184515 0.02449539
000020 59 79 2c 3e 1e 1b b5 bd 62 ba 86 be 98 46 03 3e
       0.16843165 -0.08843063 -0.26314074 0.12819898
000030 e1 fa 10 3e 15 25 02 3e 46 02 d0 bd 5b 7b 96 3d
       0.14158203 0.12709458 -0.101566836 0.07347747
000040 4a 23 42 3d 1b 54 a3 3d 51 72 b9 3d 78 7e be bd
       0.047396936 0.07975026 0.09055007 -0.09301466
000050 77 6f 4e be 6f 4a f3 3b a7 6e 13 3e b7 12 87 be
       -0.20159708 0.0074246447 0.1439768 -0.26381466
000060 73 b5 4b be 18 95 16 be 23 9c 0a 3d 6e b8 46 3e
       -0.19893436 -0.14705312 0.03384031 0.19406292
000070 51 c3 46 be c1 87 85 3d ad 6a 33 be 3a 80 54 3e
       -0.19410445 0.06520034 -0.17521162 0.2075204
000080 02 b6 e7 bd b9 75 3b be 1d 6b b7 3d c2 91 9b 3d
       -0.11314012 -0.18306626 0.08955977 0.075961605
000090 36 b8 c0 3d 59 01 7a be 7f 1d e9 3d af ea ac 3d
       0.094101354 -0.24414577 0.11382579 0.084432
0000a0 a0 ad 01 3e 3c 4c 84 be 5e 3d 89 3e cf a6 08 be
       0.12663889 -0.25839412 0.26804632 -0.13344882
0000b0 9f b6 b7 3d d6 16 ac 3d 25 1c 18 be ee ac b3 bc
       0.08970379 0.08402793 -0.14854486 -0.021933045
0000c0 da 1b c9 3c 65 5b 2e bd 08 1a d9 3d 21 32 c0 3d
       0.024549413 -0.04256763 0.10600668 0.09384561
0000d0 be 87 2e 3e 21 a5 e6 3d cb df 85 3c c9 67 1a 3e
       0.17043969 0.112619646 0.016342064 0.15078653
0000e0 73 9c 9b be dc 68 45 be f3 94 b7 bc 57 ae 02 bd
       -0.303928 -0.19278282 -0.022409892 -0.031904545
0000f0 17 73 0b bc 85 d8 a4 bc 09 33 96 3e 2c 9b 39 3e
       -0.008511326 -0.020122776 0.29335812 0.181256

decoder.fc.weight f4 [64, 30]
000000 10 bd ed bd 4b e6 85 be 49 d8 52 be ea b9 88 3e
       -0.116083264 -0.26152262 -0.20590319 0.2670434
000010 10 9a ac 3d 6d 54 fd 3d b3 e2 70 3e 0e 36 57 3e
       0.084278226 0.123696186 0.23523979 0.21016714
000020 a2 6d 1a 3e 88 b9 11 be 6a c2 b7 3e 01 f1 ee bd
       0.15080884 -0.14230931 0.35890514 -0.116670616
000030 92 33 19 bd 9f b4 93 3d a2 ef ec 3c c8 aa 0e be
       -0.037402697 0.07212185 0.02892286 -0.13932335
000040 ee f7 fb 3d c6 59 40 3e 1e 40 1c bf 58 98 37 3e
       0.12303148 0.18784246 -0.61035335 0.17929208
000050 58 6b fc bd 1b 56 06 bf f1 f2 89 bc 19 bc aa 3e
       -0.12325162 -0.52475137 -0.016839476 0.33346632
000060 8a c0 72 3e 14 a0 85 bd a8 af ec be 21 e1 f8 3c
       0.2370626 -0.06524673 -0.46227765 0.030380787
000070 bc 66 d7 bd e7 4e 2e be 3b 91 f8 bc 25 82 b4 be
       -0.10517642 -0.17022286 -0.030342689 -0.35255542
000080 91 ab bb 3d 2f d9 9d bd 18 e2 7a 3c 8a 56 9b 3d
       0.09163583 -0.0770744 0.015312694 0.075848654
000090 39 f8 f9 3b 4f d2 ac 3d ee b6 31 bd 98 90 58 3e
       0.0076284674 0.08438551 -0.043387346 0.21148908
0000a0 44 6e bd 3e 32 6c 44 3e e2 e7 91 be e3 80 bc bd
       0.36998188 0.19181898 -0.28497225 -0.09204271
0000b0 8e 27 0e 3e 52 ca 10 bd 6f d2 56 3e 60 c0 b7 3e
       0.13882276 -0.035349198 0.20978712 0.35888958
0000c0 42 c1 38 bf 52 fc bf 3e fb 48 88 be 5f 97 25 bf
       -0.7216989 0.37497193 -0.2661818 -0.646841
0000d0 42 ee f4 3d b5 e6 a4 3d f5 41 f2 bb 8e e6 83 be
       0.119595066 0.080518164 -0.0073931166 -0.25761837
0000e0 e1 8a 7f be da 58 c8 3d 7f d8 55 bd 58 e0 09 be
       -0.24955322 0.09782572 -0.05220842 -0.13464487
0000f0 13 98 13 be bd 62 e1 bd 04 fc d3 bc f0 01 e3 bd
       -0.1441348 -0.11005161 -0.025877006 -0.11084354
000100 ea 51 80 bb f8 bf 0f bd a3 42 92 3d a3 f8 6e be
       -0.003916015 -0.035095185 0.07141616 -0.23337035
000110 54 fc 4f 3e 3f e2 a4 bd bf 0d 77 bc b0 c6 ee 3d
       0.203111 -0.080509655 -0.015078961 0.116589904
000120 aa a5 b2 3d fa e4 1b 3e c3 44 c6 bd 4b 01 d3 bd
       0.08723004 0.15224066 -0.09681084 -0.10302981
000130 76 52 3f 3c e4 ba 47 bd 52 a1 74 be ee 7b 28 3e
       0.011677375 -0.048762217 -0.23889664 0.16453525
000140 de 36 6e be 46 a7 c2 be 16 38 07 be 66 a0 b2 bd
       -0.23263118 -0.38018245 -0.13204989 -0.08722
000150 1b 91 23 3e d9 15 65 3e 82 bf 6e be a3 67 5d 3e
       0.15973322 0.22371615 -0.23315242 0.21621566
000160 7b 2b d6 3d bc 33 48 be 7e fd a8 bd 26 8a ac 3c
       0.10457512 -0.19550985 -0.08251475 0.021061968
000170 5c d1 cc bd 78 7f 8e bb 3f b7 cf 3d 7d 65 e0 bd
       -0.1000087 -0.0043486916 0.10142373 -0.10956857
000180 b2 a9 d5 3d 4c 5f de 3d 46 67 08 be ca 29 31 3e
       0.104327574 0.1085802 -0.13320646 0.17301098
000190 6a 4e 7b be 7b 79 df bc 5f b9 38 3d da 0e a6 bd
       -0.24541631 -0.027279606 0.04509866 -0.081083015
0001a0 49 93 f6 3c 60 ed 68 3e 3c 20 a6 be 36 80 67 bd
       0.030099528 0.22746801 -0.32446468 -0.056518756
0001b0 f1 9d 8b 3d 29 94 d8 bc 20 5f 46 bd 56 b3 a3 3e
       0.06817234 -0.026437836 -0.048430562 0.3197276
0001c0 14 74 17 3e 23 4a ad be 52 a3 f8 3c 56 42 34 bb
       0.14790374 -0.33845624 0.030351315 -0.002750536
0001d0 de ae c7 3d 5d 2f 31 bc c2 34 93 3d a9 08 5e 3d
       0.0975015 -0.010814515 0.07187797 0.054207478
0001e0 96 dc 22 be 40 1b eb bd 31 10 67 3d 6a 07 b3 3c
       -0.1590446 -0.11479807 0.056411926 0.021854121
0001f0 7f b6 5e be 55 33 6d 3e ea 71 af 3c 41 ce 7b 3d
       -0.21749304 0.23164113 0.021416623 0.061475996
000200 9a 75 9f bc f4 5d c0 3d 83 8c 8e 3d bf 5a d6 3c
       -0.019465256 0.0939292 0.06960394 0.026166318
000210 60 69 01 3e 53 c1 e3 bd 7e 2f 5c bc 73 2b 5c bd
       0.12637854 -0.11120858 -0.013439057 -0.053752374
000220 72 6d 92 bd 85 67 d6 bd c7 03 06 3f 88 bc 26 3d
       -0.07149781 -0.104689635 0.52349514 0.04070714
000230 44 73 5d 3b e5 73 a6 3e 3f b3 48 be 6a 38 13 bf
       0.0033790627 0.32510296 -0.19599627 -0.57507956
000240 ba cb 19 be 4f c4 23 3e 77 b9 79 3e ca b4 e4 3e
       -0.15019122 0.15992855 0.24387155 0.4466918
000250 c0 b6 9e 3c 20 81 31 bd 89 24 a3 bc c1 04 18 be
       0.019374251 -0.043336034 -0.019914882 -0.14845563
000260 99 11 ad bd c9 2d 9b bd 0a 33 2e 3d 61 60 88 bd
       -0.08450622 -0.07577092 0.042529143 -0.06659008
000270 73 64 47 be 0a ed b0 3d 44 8f de bd 17 af 23 3e
       -0.19471912 0.086389616 -0.108671695 0.1598476
000280 2c 2b 0c 3e d4 69 80 bd 21 b3 49 3e 75 fa 96 3d
       0.13688344 -0.06270185 0.19697239 0.0737199
000290 27 6c 46 3c 5a c6 b2 be 61 dd 27 be ff 29 dc 3e
       0.012110746 -0.34916955 -0.16393043 0.4300079
0002a0 0b e2 26 be ff 09 52 3d df 70 77 bd 44 b4 55 3d
       -0.16297166 0.051279064 -0.060410377 0.052173868
0002b0 37 42 85 be 0b e1 99 be 73 c9 26 be 00 f7 e1 3d
       -0.2602708 -0.30054507 -0.16287784 0.1103344
0002c0 d5 76 b6 bd 46 ac d3 3d 4a b6 a5 3e c0 17 37 3e
       -0.08909384 0.10335593 0.32365638 0.17880154
0002d0 bc ed 05 3d 11 4a b3 3d ab 8f 41 be 4f 44 29 be
       0.032697424 0.087543614 -0.18902461 -0.16529964
0002e0 ac 12 b6 3d 1e f9 9e bd e5 f5 fd 3b 0c 5e c1 3d
       0.0889028 -0.07762359 0.00775026 0.09441766
0002f0 a9 70 35 3e dd 77 f1 bd 0e dd b4 bd 98 43 10 bd
       0.17718758 -0.1179044 -0.08831225 -0.035220712
000300 37 5f 88 be 54 ab 4f 3d 04 c5 9a 3d 16 df 09 bd
       -0.26635143 0.0507005 0.07557109 -0.033660017
000310 93 6c f8 bd 64 7e ec 3d 74 b0 9b 3e ba 2a a4 3c
       -0.12130084 0.115475446 0.3040806 0.020039905
000320 52 ac 6c ba a9 8f fa 3e 9a 04 2b be 6a f2 0b 3e
       -0.0009028363 0.4893773 -0.16700974 0.13666692
000330 88 0e c6 bd 3d e7 8b bd c6 47 0d 3d fe ec 04 be
       -0.0967074 -0.068312146 0.034492277 -0.1298103
000340 c6 1f 63 bd 4d 4a e3 bd eb cd 8c bd 92 54 3e bd
       -0.055450223 -0.11098156 -0.06875213 -0.04646737
000350 00 37 87 3e 20 20 bb be 25 14 69 3d bf 3a 25 be
       0.2640915 -0.36547947 0.056903977 -0.16135691
000360 ec d5 7d bd bc f8 01 be ee a1 92 bb 40 66 a2 3e
       -0.06197159 -0.12692541 -0.00447487 0.31718636
000370 70 d2 11 be a1 83 f5 3d a8 4b 35 be 72 b1 d6 3c
       -0.14240432 0.11987997 -0.17704642 0.02620766
000380 dc ed 05 3e d7 7b 91 bc 23 af 64 3d 8f 49 95 3d
       0.13079017 -0.017759247 0.055831086 0.07289421
000390 1f 9c 5d 3d 26 66 0d 3d 9f 0f 34 bc 01 64 fa bd
       0.054103967 0.034521244 -0.0109900525 -0.122261055
0003a0 ec aa cf 3d 54 0f c2 3c c9 80 1f bc 04 ca 95 3d
       0.10140023 0.02368895 -0.009735295 0.07313922
0003b0 db f6 f6 bd d5 de 00 be 27 91 52 bd cb 36 82 bd
       -0.12058803 -0.12585004 -0.05140796 -0.06358107
0003c0 ad 59 08 3e 7f 07 cf bd cf ec 76 be 8d 4f e2 3d
       0.13315459 -0.10108852 -0.24113773 0.11050329
0003d0 c6 9c b7 3d 19 3a 4a be 43 7b 0b 3e 45 f6 43 3e
       0.08965449 -0.19748725 0.1362124 0.19136913
0003e0 38 a2 b9 3c c5 4c 44 be ff f3 f3 3d 47 79 d1 3d
       0.02266036 -0.1916991 0.11911773 0.1022821
0003f0 ef 64 a6 be b2 2c 30 be c5 c2 ba bb d9 32 3e 3c
       -0.3249888 -0.1720455 -0.005699488 0.011608803

decoder.fc.bias f4 [64]
000000 12 8a c0 3e 6f 8a 13 3f b7 a8 9b 3e 7e 66 f7 3c
       0.3760534 0.5763311 0.30402157 0.03020024
000010 52 45 75 bd 95 48 8b 3d b8 81 70 bc 24 13 b0 3d
       -0.059880562 0.06800953 -0.014679365 0.08597401
000020 af 0d c0 3e 10 6d 9a 3e 22 e1 c8 3c 1d fe 90 3d
       0.3751044 0.30161333 0.024521414 0.07079718
000030 d8 43 08 3d 1e d0 5b 3e 5b 7c 5d be ac 11 13 3e
       0.033267826 0.21466109 -0.21629469 0.1436221
000040 41 05 fe 3d 61 49 51 3e 4a 98 f8 bd 82 ae a4 3e
       0.12403346 0.20438148 -0.12138422 0.3216439
000050 ea ba a3 3e b8 46 c6 3d a3 bc 9d 3e 05 03 85 3e
       0.31978542 0.09681457 0.3080798 0.25978866
000060 80 dd dd 3d 81 cd 5f 3e 06 66 6c 3d d5 ae c3 3d
       0.108332634 0.21855737 0.057714485 0.09554831
000070 10 34 6c bc 2f ea f0 3d 58 54 7a 3e a0 5c aa 3d
       -0.01441671 0.11763417 0.24446237 0.08318448
000080 ff ab 70 3e 50 32 c6 3d e9 77 4c 3e 29 9f b3 3e
       0.23503111 0.09677565 0.19967617 0.35082367
000090 2d a8 68 3e f2 f4 9a 3e 8a 11 e2 3d f1 59 46 3d
       0.22720404 0.30265003 0.110385016 0.04842562
0000a0 4f 2f a4 3e 57 41 cc 3e 46 ef 85 3e b6 c3 89 3e
       0.32067344 0.398936 0.26159114 0.26907128
0000b0 f3 07 56 3e 2c 10 95 3e 86 0b a9 3e b9 ef 62 3d
       0.2090147 0.291139 0.33016604 0.0554044
0000c0 fc 63 42 3e 8e e5 07 be ed fb 95 3e b3 e8 12 3e
       0.18983454 -0.13271162 0.29293767 0.1434658
0000d0 2d fc 90 3e 28 b3 84 3e 68 9b 13 3e fb 3a 99 3e
       0.28317395 0.25917935 0.14414752 0.2992781
0000e0 5b ae 45 3e 55 0a 99 3e 37 f0 e6 3c 48 7b 6d 3d
       0.19304793 0.29890695 0.028190715 0.0579789
0000f0 18 d4 26 3e 24 e8 94 3e be 5a 83 3e c0 ff 39 3e
       0.16291845 0.2908336 0.25655168 0.18163967

decoder.out.weight f4 [96, 64]
000000 44 4b 3f bd 55 a4 98 3d 96 af 34 3d 67 40 05 3e
       -0.04670264 0.07453219 0.044112764 0.13012849
000010 f5 38 a5 3d d5 7c d9 3c 8a d4 22 3e 0d a3 cf 3b
       0.08067504 0.026548782 0.1590139 0.006336576
000020 59 8d 75 3d ee 71 32 3c 9f 6b 0d be 01 eb df bd
       0.059949253 0.010891421 -0.13810585 -0.10933495
000030 e0 56 0b be d1 a7 98 bc a4 42 d0 3d 4e 3a 13 be
       -0.13607359 -0.018634709 0.10168961 -0.1437771
000040 f6 9e 0b be 25 7a 7a 3d 1e 5b f1 bd 6b ab 09 3e
       -0.13634858 0.061151642 -0.11784957 0.13444297
000050 78 07 3c 3d ed 00 6f 3d 57 ca 2b bd 8d 9b 3b be
       0.04590556 0.058350492 -0.041941013 -0.18321057
000060 01 2e 90 3d 36 1c fb bd b0 0c 11 bd fb f7 dd bc
       0.070400245 -0.1226124 -0.03541249 -0.027095785
000070 9f 9f 10 be 05 29 b7 bd 78 c3 76 bd 23 7a ae bd
       -0.1412339 -0.08943371 -0.060245007 -0.085193895
000080 f2 40 c7 3d d8 9d 79 be 03 e1 e8 bd 0b cc b9 3d
       0.09729184 -0.24376619 -0.113710426 0.09072121
000090 84 04 ab bc 9d 96 d0 3d 0d df 34 be c0 50 79 3d
       -0.020876177 0.10184977 -0.17663212 0.060868025
0000a0 21 e8 5b 3c be a4 d4 3d fe 29 27 3e a4 f0 09 3e
       0.013422043 0.103829846 0.16324612 0.13470703
0000b0 90 75 8b 3c cf 90 1d be f0 39 68 3c 16 61 37 3d
       0.017023832 -0.15387271 0.01417397 0.044770323
0000c0 72 e2 d8 3c 54 16 2f be e4 f6 51 3d dd a5 3e bc
       0.026475165 -0.17098361 0.051260844 -0.011636225
0000d0 b5 49 04 3d c2 bf bc bb 0f ed 91 be 86 fe 32 be
       0.032296855 -0.005760164 -0.28501174 -0.17479905
0000e0 bc 1e 6f 3e 81 3e a2 bd e4 d8 9b bc 39 68 a8 3d
       0.23351568 -0.07922078 -0.01902432 0.08223004
0000f0 1d 5d ae 3b d4 93 19 be 1c 0b b0 3c c6 e6 33 bd
       0.0053211586 -0.14997798 0.021489672 -0.043921255
000100 cf 14 cb bd 85 8b e6 bb f4 32 df bd a6 55 99 3d
       -0.09916078 -0.007035675 -0.108983904 0.07487039
000110 37 74 41 bd 65 db a9 bb 09 72 49 3e 1e c0 44 3e
       -0.04722997 -0.0051836246 0.19672407 0.19213912
000120 ee 9e b0 3d a0 0b 47 bd 6a 42 00 3e 8e 21 15 bd
       0.086240634 -0.04859507 0.12525335 -0.036408953
000130 3e ad 06 bd 30 dd cb bc f5 e8 27 3e fa 79 24 3c
       -0.03288006 -0.024885744 0.1639746 0.010038847
000140 5b cb 5c be 8c ee c7 bd c9 63 7b bd b1 36 81 3c
       -0.21561949 -0.09762296 -0.06137446 0.01577315
000150 75 cd c1 3b d1 8a 38 bd 7e 18 f9 bd 7d 71 1c bd
       0.005914385 -0.04505426 -0.12162875 -0.03819417
000160 9c 02 de 39 fb 41 c1 bc 6d 7c eb 3d 32 56 7e 3d
       0.00042345084 -0.023591032 0.11498342 0.06209392
000170 bb 43 7e bd c5 f7 47 3e 88 cf 85 3d f1 44 5c 3d
       -0.06207631 0.1952811 0.06533724 0.053776685
000180 ff ca 49 bd 9a 0d 4c bd 34 29 46 bd 7b 30 4f 3d
       -0.049265858 -0.04981766 -0.048379138 0.050583344
000190 78 a7 e1 bc ca 3b 5e 3e 01 10 62 3d 9f c5 8a bc
       -0.027545676 0.21702495 0.055191044 -0.016939936
0001a0 02 15 a9 3c a2 ac ae bc ce a3 34 bd 53 ea 4e bd
       0.0206399 -0.021322552 -0.04410153 -0.050516438
0001b0 d1 6b fd 3b 32 1e cf bd c7 94 51 bc 64 50 13 3d
       0.0077338 -0.10113181 -0.012791819 0.03596534
0001c0 aa 6b 82 bd 12 33 82 3d 96 2a ed bc bc 1c de 3d
       -0.063681915 0.06357397 -0.02895097 0.108453244
0001d0 1d 9f c7 3e 13 2c 43 3e 0a d0 64 bd fc 64 2e bd
       0.3898858 0.19059782 -0.055862464 -0.042576775
0001e0 34 83 82 3e 5d 8e 9f bd ea 54 2b 3e 69 f7 19 bb
       0.25490725 -0.077908255 0.16731611 -0.0023493415
0001f0 40 3c e7 3a 53 f3 0e be c2 fc f6 bd 22 2c 34 3e
       0.0017641857 -0.13960008 -0.120599285 0.1759496
000200 1d be 00 be c3 70 a3 bd f1 17 0c bd e5 47 4a 3e
       -0.12572522 -0.07980492 -0.03420252 0.19753988
000210 69 f5 96 3d ba 03 5e 3e bf 6c 1a be cb 1e 29 bb
       0.07371027 0.21681109 -0.15080546 -0.0025805708
000220 61 a1 64 be 44 0d 06 3d c4 a4 bb be 5c ee 0d be
       -0.22327186 0.032727495 -0.36649144 -0.13860458
000230 f3 2d 1c bd b3 cf ef bd 1a d8 9d 3d de 58 89 bd
       -0.038129758 -0.11709537 0.07707234 -0.06706403
000240 67 5a 46 3f 93 ae 20 3d fe 9b c9 bc 6b fc 45 bd
       0.77481693 0.039228987 -0.024610516 -0.048336428
000250 35 9b 37 3d 05 97 a2 bd a0 17 25 bb 78 2a 83 be
       0.04482575 -0.07938961 -0.0025191084 -0.2561834
000260 34 99 4b bc d3 63 36 bc 14 6a 28 3e 5e ee f7 be
       -0.012426663 -0.011132198 0.16446716 -0.48424047
000270 4b c7 1d 3e da 87 5a 3e 58 af b3 bd 2e 70 98 bd
       0.15408055 0.21340886 -0.087736785 -0.074432716
000280 e5 8b 2f be a0 a8 92 3e 32 36 55 be 17 49 23 3b
       -0.1714321 0.28644276 -0.20821455 0.002491539
000290 e3 75 01 3c 08 55 3f 3e d7 7b 17 bd 3a 35 3d 3d
       0.007901642 0.1868478 -0.036983337 0.04619334
0002a0 06 06 be bd f9 1f 15 be fb 3b 18 bd 54 05 92 3d
       -0.09278493 -0.14562978 -0.037166577 0.071299225
0002b0 4c 49 71 bd 95 56 3b be 66 7d c6 be 92 10 a9 bd
       -0.058907792 -0.18294747 -0.38767546 -0.08255114
0002c0 11 e9 dc bc 99 18 a5 bd f5 9a f2 bd 4f ad 03 3e
       -0.026966603 -0.08061332 -0.11845962 0.1285908
0002d0 2a c3 3d bd 24 2e 4d be fc 84 37 3e 89 51 1b be
       -0.0463287 -0.20037133 0.17921823 -0.15167822
0002e0 cb 2a 30 3f 63 66 3e be 9f 54 8f 3d 7c e7 c4 3d
       0.68815297 -0.18593745 0.06998562 0.09614465
0002f0 7f fe fe bd 86 59 59 3e 9c ea 1c bc 8f b3 32 be
       -0.12450885 0.21225557 -0.00957742 -0.17451309
000300 d1 7b 76 bd ee 88 f1 bd 62 05 e2 bd e3 32 aa 3d
       -0.060176674 -0.117936954 -0.11036183 0.08310487
000310 19 57 1e bc 5d 2b 33 bc e3 8d e1 3b fe 02 56 bd
       -0.00966432 -0.010935632 0.0068833693 -0.052248947
000320 0d fc 85 bb 8b 84 90 3d c0 e1 21 bd 99 59 e6 bd
       -0.0040888847 0.070565306 -0.039521933 -0.11247558
000330 f9 f8 cb bd 76 01 64 bd 6e 6c 7e ba 89 b9 ff 3d
       -0.09959597 -0.055665456 -0.00097054883 0.1248656
000340 98 37 b3 bd 57 c4 47 bd 51 a9 56 bd 19 f3 c2 bb
       -0.08750838 -0.04877123 -0.052407566 -0.0059493897
000350 da ee 17 bd ff 25 57 3c 59 fa fd bc bd d8 f9 bd
       -0.03709302 0.013131618 -0.031003164 -0.12199543
000360 1c 0f 80 bd 23 75 11 3d bd 56 bc 3c 42 58 92 3a
       -0.06252882 0.0355121 0.022990579 0.0011165219
000370 82 7e b7 3d 71 4a 0e 3d 0a ee 0b 3d ac 0d 49 3b
       0.08959676 0.03473896 0.03416256 0.0030678315
000380 ad 27 2c bd 6b 0a 86 3d 9f fc 18 be 11 66 ce 3d
       -0.042030025 0.06544956 -0.14940117 0.10078061
000390 ff 81 af bd ab c8 55 bd f3 b5 58 bd 17 4a 9a bd
       -0.08569717 -0.052193325 -0.052907895 -0.07533663
0003a0 6d b0 8f bd 17 2a 72 bd 76 0c 9b 3b 73 9a 8c 3d
       -0.070160724 -0.05912217 0.00473171 0.06865396
0003b0 93 72 e3 bd ac d8 23 be b9 d0 da 3d 2c ce 88 3d
       -0.11105838 -0.16000623 0.10684342 0.06679949
0003c0 08 01 47 bd 4b 0d 2c 3d 31 d1 4c be d3 3d 0e be
       -0.048584968 0.042004865 -0.20001675 -0.13890772
0003d0 9f 02 02 bd 17 37 c6 bc 07 4d f4 3a 6f 41 f3 bd
       -0.03174078 -0.02419619 0.0018638679 -0.11877715
0003e0 eb fa 85 bd 4e a0 07 bd 7f 24 a3 3c 4e 73 39 be
       -0.065419994 -0.033111863 0.019914864 -0.18110391
0003f0 ba 09 d7 bd 73 7e cd 39 9d f9 7b 3d 3e 99 1d 3e
       -0.10499902 0.0003919486 0.061517347 0.15390489

decoder.out.bias f4 [96]
000000 b0 fb 10 3e 56 6f ee be f5 bf 8f bd 94 f5 8a be
       0.14158511 -0.46569318 -0.07019035 -0.27140486
000010 fb 42 2f be 36 5a 7e be fa 82 56 be 92 f1 9f 3d
       -0.17115395 -0.248391 -0.20948401 0.07809748
000020 1b 0d bb bd 1f b7 af be c3 5c d2 bd 4d 69 25 be
       -0.09133359 -0.34319398 -0.10271599 -0.1615345
000030 87 2d 48 be 6e 6f 10 be f9 8f 0d be 44 b9 33 be
       -0.19548617 -0.14105007 -0.13824452 -0.17551142
000040 bf 13 14 be b7 00 81 be 63 d9 81 be b1 fe b4 bd
       -0.14460658 -0.25195858 -0.25361165 -0.08837641
000050 01 77 95 be 2e 14 f8 bd b6 e4 88 be 4b 77 ad bd
       -0.29192355 -0.12113224 -0.26736993 -0.08470019
000060 f0 1c d7 bd ed 71 ac bd 22 85 32 be a0 88 85 be
       -0.10503566 -0.08420167 -0.17433599 -0.260808
000070 66 95 a7 3e b2 f0 52 be 02 00 87 be 5c 0a 94 be
       0.3273117 -0.2059963 -0.26367193 -0.28914154
000080 3d a4 4e be ac d0 b7 bd fd 08 4f be ca 6c 13 be
       -0.2017984 -0.08975348 -0.20218273 -0.14396968
000090 36 8e 01 be b8 c4 ae be 69 73 6c be 8f d3 94 be
       -0.12651905 -0.3413446 -0.230909 -0.29067656
0000a0 81 c9 7a be d9 20 a1 be 7b 6f 82 be 9a ae 82 be
       -0.2449093 -0.31470373 -0.25475678 -0.25523835
0000b0 29 55 96 be 91 fe f4 bd a5 76 42 be 55 bd 33 be
       -0.29361847 -0.11962617 -0.18990572 -0.17552693
0000c0 06 41 b2 be 9f d3 07 be 59 d6 4c be 5d b8 20 bd
       -0.34815234 -0.13264321 -0.20003642 -0.039238323
0000d0 21 f4 a2 be 4e 40 80 be fa 6d 97 3d 1c 05 8e be
       -0.3182688 -0.2504906 0.07394023 -0.27738273
0000e0 2d ed 0f be 6b 62 76 be ec 27 c7 bd 8c 23 bf bd
       -0.14055319 -0.24060981 -0.09724411 -0.09332952
0000f0 4c f9 77 be ee ae 62 be 8c 82 83 be e8 1e 24 be
       -0.24216193 -0.22137043 -0.25685537 -0.16027415
000100 34 48 e1 bd f4 fe 00 be 14 33 77 be 82 db 26 be
       -0.110001 -0.12597257 -0.24140579 -0.16294673
000110 ea 87 2b be 93 e5 66 be 57 7a 0b be bb 1c 38 be
       -0.16751066 -0.22548513 -0.13620888 -0.1797971
000120 60 25 3d be c5 84 2c be 6e 27 d8 bd 97 d7 63 be
       -0.18471289 -0.16847523 -0.105543956 -0.2225021
000130 48 b8 e2 bd 62 b9 67 be c7 cd 40 be 93 95 06 be
       -0.11070305 -0.22629312 -0.18828498 -0.13142996
000140 0e b7 c5 bd 95 6a 20 be 42 ea d3 bd c8 55 69 bd
       -0.096540555 -0.15665658 -0.103474155 -0.056966573
000150 eb 87 75 be 03 cc 88 be e8 15 e7 bd 5a e8 85 be
       -0.2397763 -0.2671815 -0.11283475 -0.26153833
000160 10 4e 8d be 43 2c 7d be ac ab 9e bd 5d 25 bd bd
       -0.2759862 -0.24723916 -0.077475876 -0.09235642
000170 ec 0c a8 3d 40 7b 84 be 7c 49 11 be d8 a5 58 be
       0.0820559 -0.25875282 -0.14188188 -0.21157014
