FarconVAE/model_adult/farcon_2023_05_01_22_03_31_157354_ours.pth (torch, 82153 bytes, 21 tensors)

encoder.fc.weight f4 [64, 97]
0	0x3e00dd6c	0.12584466
1	0x3e0b1e6a	0.13585821
2	0x3daf8c10	0.08571637
3	0xbd53fd76	-0.05175539
4	0xbd7d6f6b	-0.061873835
5	0x3d8912af	0.06693017
6	0x3da99814	0.0828096
7	0xbcff1adf	-0.031140743
8	0x3c822529	0.01588686
9	0x3dc198d4	0.09452978
10	0x3d894add	0.06703732
11	0xbb975b56	-0.0046190424
12	0x3e1c7496	0.15278849
13	0xbcc94032	-0.024566744
14	0xbbbe248b	-0.005802696
15	0xbc4830f3	-0.012218702
16	0x3d87f32d	0.06638179
17	0xbb8468c9	-0.0040408117
18	0xbdb1ae6b	-0.08675846
19	0xbccd684f	-0.025074152
20	0x3d0fc35f	0.03509843
21	0xbc9baf98	-0.019004628
22	0x3d9187b6	0.07105963
23	0xbd290a67	-0.041269686
24	0xbc8a5ce6	-0.01689
25	0xbd0dc2e3	-0.034609687
26	0x3a8374f1	0.0010029358
27	0xbd3296d6	-0.04360088
28	0x3dd26599	0.102732845
29	0xbd100f58	-0.035170883
30	0x3bf8cbe8	0.007592667
31	0xbc0f3ca8	-0.008742489
32	0xbdac7d17	-0.084222965
33	0xbc39d8db	-0.011343206
34	0x3d9f62d6	0.07782523
35	0xbd47614a	-0.048676766
36	0x3df9febf	0.12206792
37	0x3d61d798	0.055137247
38	0x3c79f4e9	0.015256145
39	0x3e316067	0.17321931
40	0xbd13311f	-0.035935517
41	0xba891fb1	-0.0010461715
42	0x3d1d02f2	0.038332887
43	0xbb8b159b	-0.004244519
44	0xbcaf7aaf	-0.021420805
45	0x3cb92dc2	0.022604827
46	0xbdfe0e31	-0.124050505
47	0xbdf1d1be	-0.11807583
48	0x3e4b2156	0.19836935
49	0x3d3591e3	0.04432858
50	0x3d4cb86a	0.04998056
51	0x3c2632bd	0.010143933
52	0xbd6dab3b	-0.058024626
53	0xbd4077e4	-0.046989337
54	0x3e11f5de	0.14253947
55	0xbc8ebd83	-0.01742435
56	0x3ca9a456	0.020708244
57	0xbd113751	-0.035453144
58	0xbca67ab0	-0.020322174
59	0xbce6a736	-0.028155904
60	0xbc5f21f4	-0.013618935
61	0xbd0740b6	-0.033020698
62	0xbcb06f8f	-0.02153757
63	0xbc4586a2	-0.012056025
64	0xbc7d3237	-0.015453867
65	0xbcd694ff	-0.026194094
66	0xbd0af72c	-0.033927128
67	0xbbf36f98	-0.0074290745
68	0xbabdc259	-0.0014477476
69	0xbc9ca2c4	-0.019120581
70	0x3b90672b	0.00440683
71	0xbc4f4b62	-0.01265225
72	0x3ce43dca	0.027861495
73	0xbc8ff88f	-0.017574577
74	0xbcd4cd53	-0.025976812
75	0xbc8d561e	-0.017252978
76	0xbccc459b	-0.024935534
77	0xbb93845f	-0.004501864
78	0x3b198657	0.002342602
79	0x3c85e205	0.016343126
80	0xbcd252a9	-0.025674181
81	0xbc99f8f7	-0.018795474
82	0xbccda662	-0.025103752
83	0x3cdb4c25	0.026769707
84	0xbcb5ff6f	-0.022216527
85	0xbc3f5f52	-0.011680441
86	0xbca0989b	-0.019604018
87	0xbc74bdc1	-0.014937819
88	0x3b2ea6f6	0.002664981
89	0x3c2db544	0.010602299
90	0xbc64a12a	-0.01395444
91	0xbb9cada2	-0.004781441
92	0xbcb30103	-0.021851068
93	0x3aff0828	0.0019457387
94	0xbce0d1f2	-0.02744386
95	0x3e7f05d7	0.24904571
96	0xbe72fb2b	-0.23728625
97	0xbe888cd2	-0.26669937
98	0xbe4c57e0	-0.19955397
99	0xbe2e06c3	-0.16994767
100	0xbab31d7e	-0.0013665406
101	0xba0a3973	-0.0005272843
102	0xbe3d125b	-0.18464033
103	0xbcd42dd1	-0.025900753
104	0xbe459076	-0.19293389
105	0x3ccabac1	0.024747254
106	0xbd168990	-0.036752284
107	0x3ba39222	0.0049917856
108	0xb900d668	-0.00012286904
109	0xbd8923c1	-0.06696273
110	0xbb80fcb1	-0.003936373
111	0x398d9c95	0.00027010278
112	0x3a2f2f12	0.0006682734
113	0xbc6e1bf8	-0.014533035
114	0xbc831936	-0.016003232
115	0xbcafb625	-0.021449158
116	0xbd57552d	-0.052571464
117	0xbdceea45	-0.10103277
118	0xbbcd95ca	-0.0062739598
119	0xbe94055e	-0.28910345
120	0xbbef9bd8	-0.007312279
121	0xbb345b28	-0.0027520154
122	0xbae72424	-0.0017634672
123	0xbe6d0da7	-0.23149739
124	0x3ae71f0c	0.0017633154
125	0xbe767f8e	-0.24072096
126	0x3c27be87	0.010238296
127	0xbe7d647e	-0.24745366
128	0xbd5d9e7f	-0.05410623
129	0xbcee9b9c	-0.029126935
130	0xb942fc5e	-0.00018595296
131	0xbe0f6055	-0.14001592
132	0xbd012c16	-0.031536184
133	0x3c456f31	0.012050436
134	0xbd8da0f7	-0.06915467
135	0xbdbfd5e8	-0.09366971
136	0xbe299e1a	-0.16564217
137	0x3899579e	7.3119285e-05
138	0xbdb0f5c0	-0.08640623
139	0x3c4f6417	0.012658141
140	0xbe18a29d	-0.14905782
141	0xbc4e955f	-0.012608855
142	0xbcb97c89	-0.02264239
143	0xbe7f0840	-0.24905491
144	0xbd19e133	-0.037568282
145	0xbe2d03f1	-0.16896035
146	0xbe109575	-0.14119513
147	0xbbe5d10b	-0.0070134453
148	0x3da58e1c	0.08083746
149	0xbda7f222	-0.0820048
150	0x3c7406ed	0.014894229
151	0xbe93e949	-0.2888892
152	0x3b7ddc7d	0.0038736158
153	0x3bbeb72f	0.005820177
154	0xb9fd7247	-0.00048341064
155	0x3b0d2bd0	0.0021541007
156	0x3b2eebe3	0.0026690892
157	0xbac32483	-0.0014888201
158	0xbabbd1c0	-0.0014329478
159	0x3b8db7b7	0.004324879
160	0xbb59043a	-0.0033114091
161	0x3b83f3a5	0.0040268474
162	0x3abb2856	0.0014278989
163	0x3a712c36	0.00092000084
164	0x3a93d895	0.0011279756
165	0xb9f5c06a	-0.000468734
166	0xbb0384cd	-0.002006817
167	0x3b12fd12	0.0022428674
168	0x39b1ae07	0.0003388973
169	0x3bdd80a5	0.0067597204
170	0x3a736828	0.0009285235
171	0x3b1517cc	0.002274978
172	0x3b9afba8	0.004729707
173	0x3b975997	0.0046188342
174	0x3ba6a527	0.0050856057
175	0x39ac82db	0.0003290389
176	0xbcd1ed98	-0.025625989
177	0xbaeae060	-0.0017919652
178	0xba98d891	-0.0011661222
179	0xba6eaf3b	-0.0009105091
180	0x3c8b7fe8	0.017028764
181	0x3a6235db	0.0008629241
182	0x3b1ce8bf	0.0023942438
183	0x3bb41464	0.005495595
184	0xb98345b2	-0.00025038194
185	0x3c4f53a8	0.012654223
186	0x3b5e6c4c	0.0033939062
187	0xbaafd380	-0.0013414472
188	0xba4f42d7	-0.0007906383
189	0xbe2e582a	-0.1702582
190	0x3bc17318	0.005903613
191	0xbb161044	-0.0022897879
192	0xbe22eeaf	-0.15911363
193	0x3cbbcb91	0.022924216
194	0x3c0433a2	0.008068951
195	0x3dd4ed0f	0.10396778
196	0x3e2224e9	0.15834393
197	0xbd672480	-0.056431293
198	0xbd47951e	-0.048726194
199	0x3e29a2fe	0.16566083
200	0x3e0a5d9d	0.13512273
201	0x3de1defe	0.110288605
202	0x3d6eb953	0.058282208
203	0x3e53f4cc	0.20698851
204	0x3dd8548a	0.105629995
205	0xbc13d305	-0.009022479
206	0x3dd887b1	0.10572756
207	0x3d31ce0c	0.043409392
208	0xbce15212	-0.027504954
209	0xbcb34297	-0.021882338
210	0xbb77876f	-0.0037769934
211	0xbd1bb5d0	-0.038015187
212	0x3db35353	0.08756127
213	0x3e153627	0.14571439
214	0x3c002b07	0.0078227585
215	0x3d75a668	0.05997315
216	0x3da71a35	0.081592955
217	0x3d806d50	0.0627085
218	0xbcd6b72f	-0.026210396
219	0x3da66bea	0.08126052
220	0x3e31d4b4	0.17366296
221	0x3b6baad7	0.0035959983
222	0xbd334eba	-0.04377625
223	0xbd6e4fce	-0.058181576
224	0x3e2efc2c	0.17088383
225	0x3d3c1d9a	0.045926668
226	0x3c8a4428	0.016878203
227	0xbc0c73b4	-0.008572508
228	0x3e3fbbac	0.18723935
229	0xbd2ef20f	-0.042711314
230	0x3d6ee181	0.058320526
231	0x3d5a55a5	0.053304333
232	0x3d8f0756	0.06983821
233	0x3e6f336d	0.23359461
234	0xbca51de9	-0.020155864
235	0x3e3157ea	0.17318693
236	0x3ba0fb43	0.004912765
237	0x3dce4556	0.100718185
238	0x3cd0da58	0.02549474
239	0xbd0ecef7	-0.034865346
240	0x3e1eba90	0.15500855
241	0xbc846e40	-0.016165853
242	0x3e6fe1a5	0.2342592
243	0xbd40e3d3	-0.04709227
244	0xbe2101ec	-0.1572339
245	0xbd899546	-0.06717925
246	0x3d807886	0.06272988
247	0xbdc43a08	-0.09581381
248	0x3e62cd79	0.22148694
249	0xbd250f02	-0.040297516
250	0xbbfee520	-0.0077787787
251	0xbd109f02	-0.03530789
252	0xbd54cbf4	-0.051952317
253	0xbd21c294	-0.039492205
254	0xbcc54bdf	-0.02408403
255	0xbd3f8d3f	-0.046765562

encoder.fc.bias f4 [64]
0	0x3d38e618	0.04514131
1	0xbea57673	-0.32316932
2	0x3dd9e8b8	0.10640091
3	0xbd38a792	-0.045081683
4	0x3d1f0045	0.038818616
5	0x3e3f18c6	0.18661794
6	0x3d40f71f	0.047110673
7	0xbc5ae5c5	-0.013360445
8	0xbca8bfea	-0.020599324
9	0x3cbfced2	0.02341405
10	0xbe199513	-0.14998274
11	0x3e206914	0.15665084
12	0xbe00ebd9	-0.12589969
13	0x3cd159f8	0.025555596
14	0x3db68a8a	0.08913143
15	0x3e30d518	0.17268789
16	0xbe44cf38	-0.19219673
17	0x3b610943	0.0034337796
18	0xbe9296a6	-0.2863056
19	0xbe8fcf7f	-0.28087994
20	0x3e1b0c55	0.15141423
21	0x3e4d6e21	0.20061542
22	0xbd799e89	-0.060942207
23	0x3dcc1971	0.0996579
24	0xbcc3957c	-0.02387499
25	0xbeaf8b3d	-0.34285918
26	0xbdfcd2a0	-0.12344861
27	0xbed1ccbf	-0.4097652
28	0xbe01b690	-0.12667298
29	0x3dc885fc	0.097911805
30	0xbe89deda	-0.26927835
31	0xbdad2d5d	-0.08455918
32	0x3dc2c4d5	0.09510199
33	0xbd9aad54	-0.07552591
34	0x3db75aef	0.08952891
35	0x3d93f200	0.07223892
36	0x3e628eb4	0.2212475
37	0x3ca7c943	0.020481711
38	0x3db1e6a8	0.08686572
39	0x3e6dc2a7	0.23218785
40	0xbdea51d6	-0.1144139
41	0xbe834ac6	-0.25642985
42	0x3db53c22	0.0884936
43	0x3dc111c6	0.09427218
44	0xbe5d3ca8	-0.2160517
45	0xbc903208	-0.017601982
46	0xbe294b7e	-0.16532704
47	0x3d89e9d7	0.067340545
48	0x3e146114	0.14490157
49	0xbdc01b6b	-0.093802296
50	0xbe1fc65e	-0.15603015
51	0xbe77de89	-0.24205984
52	0x3de37ecf	0.11108171
53	0x3d32789b	0.04357205
54	0x3e2de919	0.16983451
55	0xbe61566f	-0.22005628
56	0xbdfeee31	-0.12447775
57	0xbe5a2992	-0.2130492
58	0xbec2d84c	-0.38055646
59	0x3dc2e0ad	0.0951551
60	0x3da84c08	0.08217627
61	0x3def39cf	0.11680948
62	0x3e2a1539	0.16609658
63	0x3c97d663	0.018534845

encoder.bn.weight f4 [64]
0	0x3f800000	1.0
1	0x3f800000	1.0
2	0x3f800000	1.0
3	0x3f800000	1.0
4	0x3f800000	1.0
5	0x3f800000	1.0
6	0x3f800000	1.0
7	0x3f800000	1.0
8	0x3f800000	1.0
9	0x3f800000	1.0
10	0x3f800000	1.0
11	0x3f800000	1.0
12	0x3f800000	1.0
13	0x3f800000	1.0
14	0x3f800000	1.0
15	0x3f800000	1.0
16	0x3f800000	1.0
17	0x3f800000	1.0
18	0x3f800000	1.0
19	0x3f800000	1.0
20	0x3f800000	1.0
21	0x3f800000	1.0
22	0x3f800000	1.0
23	0x3f800000	1.0
24	0x3f800000	1.0
25	0x3f800000	1.0
26	0x3f800000	1.0
27	0x3f800000	1.0
28	0x3f800000	1.0
29	0x3f800000	1.0
30	0x3f800000	1.0
31	0x3f800000	1.0
32	0x3f800000	1.0
33	0x3f800000	1.0
34	0x3f800000	1.0
35	0x3f800000	1.0
36	0x3f800000	1.0
37	0x3f800000	1.0
38	0x3f800000	1.0
39	0x3f800000	1.0
40	0x3f800000	1.0
41	0x3f800000	1.0
42	0x3f800000	1.0
43	0x3f800000	1.0
44	0x3f800000	1.0
45	0x3f800000	1.0
46	0x3f800000	1.0
47	0x3f800000	1.0
48	0x3f800000	1.0
49	0x3f800000	1.0
50	0x3f800000	1.0
51	0x3f800000	1.0
52	0x3f800000	1.0
53	0x3f800000	1.0
54	0x3f800000	1.0
55	0x3f800000	1.0
56	0x3f800000	1.0
57	0x3f800000	1.0
58	0x3f800000	1.0
59	0x3f800000	1.0
60	0x3f800000	1.0
61	0x3f800000	1.0
62	0x3f800000	1.0
63	0x3f800000	1.0

encoder.bn.bias f4 [64]
0	0x00000000	0.0
1	0x00000000	0.0
2	0x00000000	0.0
3	0x00000000	0.0
4	0x00000000	0.0
5	0x00000000	0.0
6	0x00000000	0.0
7	0x00000000	0.0
8	0x00000000	0.0
9	0x00000000	0.0
10	0x00000000	0.0
11	0x00000000	0.0
12	0x00000000	0.0
13	0x00000000	0.0
14	0x00000000	0.0
15	0x00000000	0.0
16	0x00000000	0.0
17	0x00000000	0.0
18	0x00000000	0.0
19	0x00000000	0.0
20	0x00000000	0.0
21	0x00000000	0.0
22	0x00000000	0.0
23	0x00000000	0.0
24	0x00000000	0.0
25	0x00000000	0.0
26	0x00000000	0.0
27	0x00000000	0.0
28	0x00000000	0.0
29	0x00000000	0.0
30	0x00000000	0.0
31	0x00000000	0.0
32	0x00000000	0.0
33	0x00000000	0.0
34	0x00000000	0.0
35	0x00000000	0.0
36	0x00000000	0.0
37	0x00000000	0.0
38	0x00000000	0.0
39	0x00000000	0.0
40	0x00000000	0.0
41	0x00000000	0.0
42	0x00000000	0.0
43	0x00000000	0.0
44	0x00000000	0.0
45	0x00000000	0.0
46	0x00000000	0.0
47	0x00000000	0.0
48	0x00000000	0.0
49	0x00000000	0.0
50	0x00000000	0.0
51	0x00000000	0.0
52	0x00000000	0.0
53	0x00000000	0.0
54	0x00000000	0.0
55	0x00000000	0.0
56	0x00000000	0.0
57	0x00000000	0.0
58	0x00000000	0.0
59	0x00000000	0.0
60	0x00000000	0.0
61	0x00000000	0.0
62	0x00000000	0.0
63	0x00000000	0.0

encoder.bn.running_mean f4 [64]
0	0x00000000	0.0
1	0x00000000	0.0
2	0x00000000	0.0
3	0x00000000	0.0
4	0x00000000	0.0
5	0x00000000	0.0
6	0x00000000	0.0
7	0x00000000	0.0
8	0x00000000	0.0
9	0x00000000	0.0
10	0x00000000	0.0
11	0x00000000	0.0
12	0x00000000	0.0
13	0x00000000	0.0
14	0x00000000	0.0
15	0x00000000	0.0
16	0x00000000	0.0
17	0x00000000	0.0
18	0x00000000	0.0
19	0x00000000	0.0
20	0x00000000	0.0
21	0x00000000	0.0
22	0x00000000	0.0
23	0x00000000	0.0
24	0x00000000	0.0
25	0x00000000	0.0
26	0x00000000	0.0
27	0x00000000	0.0
28	0x00000000	0.0
29	0x00000000	0.0
30	0x00000000	0.0
31	0x00000000	0.0
32	0x00000000	0.0
33	0x00000000	0.0
34	0x00000000	0.0
35	0x00000000	0.0
36	0x00000000	0.0
37	0x00000000	0.0
38	0x00000000	0.0
39	0x00000000	0.0
40	0x00000000	0.0
41	0x00000000	0.0
42	0x00000000	0.0
43	0x00000000	0.0
44	0x00000000	0.0
45	0x00000000	0.0
46	0x00000000	0.0
47	0x00000000	0.0
48	0x00000000	0.0
49	0x00000000	0.0
50	0x00000000	0.0
51	0x00000000	0.0
52	0x00000000	0.0
53	0x00000000	0.0
54	0x00000000	0.0
55	0x00000000	0.0
56	0x00000000	0.0
57	0x00000000	0.0
58	0x00000000	0.0
59	0x00000000	0.0
60	0x00000000	0.0
61	0x00000000	0.0
62	0x00000000	0.0
63	0x00000000	0.0

encoder.bn.running_var f4 [64]
0	0x3f800000	1.0
1	0x3f800000	1.0
2	0x3f800000	1.0
3	0x3f800000	1.0
4	0x3f800000	1.0
5	0x3f800000	1.0
6	0x3f800000	1.0
7	0x3f800000	1.0
8	0x3f800000	1.0
9	0x3f800000	1.0
10	0x3f800000	1.0
11	0x3f800000	1.0
12	0x3f800000	1.0
13	0x3f800000	1.0
14	0x3f800000	1.0
15	0x3f800000	1.0
16	0x3f800000	1.0
17	0x3f800000	1.0
18	0x3f800000	1.0
19	0x3f800000	1.0
20	0x3f800000	1.0
21	0x3f800000	1.0
22	0x3f800000	1.0
23	0x3f800000	1.0
24	0x3f800000	1.0
25	0x3f800000	1.0
26	0x3f800000	1.0
27	0x3f800000	1.0
28	0x3f800000	1.0
29	0x3f800000	1.0
30	0x3f800000	1.0
31	0x3f800000	1.0
32	0x3f800000	1.0
33	0x3f800000	1.0
34	0x3f800000	1.0
35	0x3f800000	1.0
36	0x3f800000	1.0
37	0x3f800000	1.0
38	0x3f800000	1.0
39	0x3f800000	1.0
40	0x3f800000	1.0
41	0x3f800000	1.0
42	0x3f800000	1.0
43	0x3f800000	1.0
44	0x3f800000	1.0
45	0x3f800000	1.0
46	0x3f800000	1.0
47	0x3f800000	1.0
48	0x3f800000	1.0
49	0x3f800000	1.0
50	0x3f800000	1.0
51	0x3f800000	1.0
52	0x3f800000	1.0
53	0x3f800000	1.0
54	0x3f800000	1.0
55	0x3f800000	1.0
56	0x3f800000	1.0
57	0x3f800000	1.0
58	0x3f800000	1.0
59	0x3f800000	1.0
60	0x3f800000	1.0
61	0x3f800000	1.0
62	0x3f800000	1.0
63	0x3f800000	1.0

encoder.out.weight f4 [60, 64]
0	0xbdcfcc8b	-0.10146435
1	0x3e1b127c	0.1514377
2	0xbe60f390	-0.21967912
3	0x3e0e092f	0.13870691
4	0xbb80c1f3	-0.0039293705
5	0xbe1850cf	-0.14874576
6	0x3eb66762	0.3562575
7	0x3ea63858	0.32464862
8	0xbda0535d	-0.078284
9	0x3dc4bae8	0.09605962
10	0x3e3306d4	0.17483073
11	0xbd13ad38	-0.036053866
12	0x3e225307	0.15851985
13	0x3e8b2436	0.27176064
14	0x3e46e42a	0.19422975
15	0xbd9d1e40	-0.07671785
16	0x3e48e055	0.19616826
17	0xbd06a540	-0.03287244
18	0x3e1e6a9c	0.15470356
19	0x3dc1cb29	0.09462578
20	0xbd1c4d71	-0.03815979
21	0xbdfd0511	-0.12354482
22	0x3e47b920	0.19504213
23	0xbd59a950	-0.053139985
24	0xbd467e50	-0.048460305
25	0x3e653f67	0.22387467
26	0x3e31867e	0.17336461
27	0x3e04fe98	0.12987745
28	0xbba09303	-0.0049003377
29	0xbdcb0f4d	-0.09915028
30	0x3e6bc8b9	0.23025788
31	0x3c8c9f9a	0.017165948
32	0xbdf8684f	-0.1212927
33	0x3e46df00	0.19421005
34	0xbda0b32f	-0.078466766
35	0xbdd79266	-0.1052597
36	0x3cf41ce1	0.029798927
37	0xbd81ab54	-0.06331506
38	0x3d72e00e	0.059295706
39	0xbd260b6c	-0.040538236
40	0x3c73f19f	0.01488915
41	0x3cd9cadf	0.026585994
42	0xbd3a9854	-0.045555428
43	0xbdda72db	-0.10666438
44	0x3ce6989d	0.028148944
45	0x3e1fe969	0.15616383
46	0x3e3a45e8	0.1819073
47	0xbd9c719a	-0.07638855
48	0x3d9dbc3a	0.07701917
49	0xb98c8c00	-0.0002680719
50	0x3ddcb18f	0.10776054
51	0x3dbf49cf	0.0934025
52	0x3d49a87b	0.04923294
53	0xbe89a281	-0.26881793
54	0x3d0a7f25	0.03381266
55	0x3d58ae19	0.052900407
56	0x3de56b97	0.11202162
57	0x3dd5eac5	0.10445169
58	0x3e315411	0.17317225
59	0xbd698cb1	-0.05701894
60	0x3d96fdf5	0.07372657
61	0xbc0d3032	-0.008617448
62	0xbb4b19be	-0.0030990685
63	0x3d8da358	0.06915921
64	0x3d401f80	0.04690504
65	0xbd1b516a	-0.03791944
66	0xbd690d84	-0.056897655
67	0xbe2057bd	-0.1565847
68	0x3d657154	0.05601628
69	0xbd3c1beb	-0.045925062
70	0x3debc45c	0.11512062
71	0x3e0b77c0	0.136199
72	0xbdc02772	-0.093825236
73	0x3d9d6efe	0.07687186
74	0xbdd219c2	-0.10258819
75	0xbdd3655e	-0.10322069
76	0x3d069ec0	0.03286624
77	0x3dae5398	0.08512038
78	0xbc6facde	-0.014628617
79	0xbdd31495	-0.1030666
80	0xbd41ad2d	-0.047284294
81	0xbdd2d147	-0.10293823
82	0xbd9e4a06	-0.077289626
83	0xbd7a8aea	-0.061167635
84	0x3db6a9e5	0.089191236
85	0xbe2e32dc	-0.17011589
86	0x3d3cb4ab	0.046070736
87	0x3de538c0	0.11192465
88	0xbd967c7e	-0.07347964
89	0xbc7d4731	-0.015458868
90	0x3cea3366	0.028588962
91	0xbdce1413	-0.100624226
92	0x3d1a4a54	0.03766854
93	0xbd0445e9	-0.032293234
94	0xbdad232e	-0.084539756
95	0x3d9a158e	0.075236425
96	0xbc4a3feb	-0.012344341
97	0x3dbf8cd4	0.09353033
98	0x3d453168	0.04814282
99	0xbd8bd08e	-0.06826888
100	0x3dcb2a21	0.09920145
101	0xbdaaf8f4	-0.08348265
102	0xbde8da8d	-0.1136981
103	0xbdb90c6d	-0.09035573
104	0xbc99123d	-0.018685455
105	0xbd9460b0	-0.07245004
106	0xbcd8b9a9	-0.026455717
107	0xbdcbe58a	-0.099558905
108	0xbd330c42	-0.04371286
109	0x3b130b9b	0.0022437337
110	0xbd4b32f1	-0.04960913
111	0xbdeb78e5	-0.11497668
112	0x3d361091	0.044449393
113	0xbd2e92c1	-0.042620424
114	0x3d1847c0	0.0371778
115	0xbc98f3b3	-0.018670892
116	0x3cde9f52	0.02717558
117	0xbe593d38	-0.2121476
118	0x3d96e7ed	0.07368455
119	0xbd0cce70	-0.03437656
120	0xbd1d1ba1	-0.038356427
121	0xbdf0ea50	-0.117634416
122	0xbe17d028	-0.14825499
123	0x3ddcdaef	0.10783946
124	0x3d4261d3	0.047456574
125	0xbde0ac27	-0.109703355
126	0xbe05bf68	-0.13061297
127	0x3b93b1ad	0.0045072646
128	0xbcf49612	-0.029856715
129	0x3e38eab6	0.18058285
130	0xbc297bf7	-0.010344497
131	0x3ca8a793	0.020587718
132	0xbc091f67	-0.008369303
133	0xbc96c283	-0.018403297
134	0x3da8520e	0.08218776
135	0x3db51928	0.08842689
136	0x3d9cf8fe	0.07664679
137	0x3e17e4e1	0.14833404
138	0x3dba6588	0.09101397
139	0x3b8e67ed	0.004345885
140	0x3ca9a10b	0.020706674
141	0x3e2b2049	0.16711535
142	0x3da7f5aa	0.082011536
143	0xbd75a0f7	-0.05996796
144	0x3e1f8a7c	0.15580171
145	0xbda5853a	-0.080820516
146	0x3d0cab7f	0.03434324
147	0x3e49e53c	0.19716352
148	0xbbbe4998	-0.005807113
149	0xbe155434	-0.14582902
150	0x3df875b8	0.12131828
151	0x3dcc58a1	0.09977842
152	0x3df39f8e	0.11895667
153	0x3d065a05	0.032800693
154	0x3dffaa18	0.12483615
155	0x3dc437c4	0.09580949
156	0xbd701e10	-0.05862242
157	0xbcf6210d	-0.030045057
158	0x3e28d090	0.1648581
159	0x3df0dd7b	0.11760994
160	0x3b64933e	0.0034877802
161	0x3e2ed87f	0.17074774
162	0x3de05520	0.10953736
163	0x3c27119a	0.010197068
164	0x3d76ebb2	0.06028337
165	0x3def71cb	0.11691626
166	0xbe10f514	-0.1415599
167	0xbd943930	-0.0723747
168	0xbcc4312f	-0.023949234
169	0x3d5aa1ae	0.053376846
170	0xbdb751ac	-0.089511245
171	0x3d72f2da	0.059313633
172	0xbc88816e	-0.01666328
173	0x3e246532	0.16054228
174	0x3e1fc986	0.15604219
175	0xbe01ef44	-0.12688929
176	0x3d074e4a	0.033033647
177	0xbd12427a	-0.03570793
178	0xbc6381d4	-0.013885934
179	0x3e16582f	0.14682077
180	0xbcd333d0	-0.025781542
181	0xbda42f0e	-0.080167875
182	0xbdf05111	-0.11734212
183	0x3d98ae7d	0.07455156
184	0x3e40d438	0.18830955
185	0x3e47e8d2	0.19522408
186	0x3dedb2b5	0.11606351
187	0xbc84667c	-0.01616215
188	0x3c59bc97	0.013289592
189	0x3d449f82	0.04800368
190	0xbd56d66f	-0.052450594
191	0x3d854fcf	0.06509363
192	0x3e1efd2f	0.1552627
193	0xbd8d2d75	-0.06893436
194	0x3e45f4b1	0.19331624
195	0xbe14d245	-0.14533336
196	0xbda36d8c	-0.07979879
197	0x3de33550	0.11094153
198	0xbe3274a7	-0.17427312
199	0xbe2dded3	-0.16979532
200	0xbe2cc787	-0.16872989
201	0xbea9e9fd	-0.3318633
202	0xbda323c5	-0.07965807
203	0xbd58b7cb	-0.052909654
204	0xbe302dd4	-0.17204982
205	0xbe27a044	-0.1636973
206	0xbe7c07e4	-0.24612385
207	0xbce74ec3	-0.028235799
208	0xbe504d59	-0.20342006
209	0x3decb3b6	0.11557715
210	0xbe171145	-0.14752682
211	0xbe3f6151	-0.18689467
212	0x3cad138d	0.021127487
213	0x3e8bc82d	0.2730116
214	0xbdc0324a	-0.09384592
215	0x3ce22ce5	0.027609298
216	0xbd371851	-0.044700924
217	0xbdf5795f	-0.1198604
218	0xbe08495d	-0.13309236
219	0xbe42bf96	-0.19018397
220	0xbe04c387	-0.12965213
221	0x3d459c1e	0.048244588
222	0xbe1979b3	-0.14987831
223	0xbc880b33	-0.016606903
224	0x3e369432	0.1782997
225	0xbdb0291a	-0.086015895
226	0x3d2f64bd	0.04282068
227	0xbd44c189	-0.048036132
228	0xbd98d892	-0.074631825
229	0xbd21edb0	-0.039533317
230	0x3d8e8b82	0.06960203
231	0x3bbe396f	0.0058051865
232	0xbd40ed91	-0.04710156
233	0xbe51bf86	-0.20483217
234	0x3de2ebe6	0.1108015
235	0x3d882b9a	0.06648941
236	0xbdd6b411	-0.10483564
237	0xbe19fff2	-0.15039042
238	0xbd35785a	-0.04430423
239	0x3d9058f3	0.07048216
240	0xbe2dbeb9	-0.16967286
241	0xbd44dadf	-0.048060294
242	0xbc7ec1dc	-0.015549149
243	0xbe50bb50	-0.20383954
244	0x3dfccdb0	0.12343919
245	0x3e66b36c	0.22529382
246	0x3e58a01d	0.21154828
247	0xbe0ed6ca	-0.13949123
248	0xbe5e28a6	-0.21695194
249	0xbd7cd48e	-0.061726145
250	0xbe565883	-0.20932202
251	0x3aae1dd4	0.0013284036
252	0x3d9fcc08	0.07802588
253	0xbd1ffdd5	-0.039060432
254	0xbcc2542c	-0.023721777
255	0xbdfa14f0	-0.12211025

encoder.out.bias f4 [60]
0	0xbe05ddbe	-0.13072869
1	0x3cfbc4e4	0.030733533
2	0xbdf25587	-0.11832719
3	0x3e7c1148	0.24615967
4	0x3d8c6612	0.06855406
5	0x3e6e2274	0.2325533
6	0x3d7c4bc2	0.061595686
7	0xbde42e07	-0.111415915
8	0x3e04aaad	0.12955733
9	0x3e55fb38	0.20896614
10	0xbe737664	-0.23775631
11	0xbdf5d6e4	-0.12003878
12	0xbe28b641	-0.16475774
13	0xbe787729	-0.24264206
14	0x3b973182	0.004614056
15	0x3e1653a6	0.14680347
16	0xbdde83c2	-0.108649746
17	0x3e1a3fe0	0.15063429
18	0xbe16c82a	-0.14724794
19	0xbd31877b	-0.043342095
20	0xbda02a30	-0.078205466
21	0xbe5aefab	-0.21380489
22	0x3dfd2834	0.12361184
23	0xbd15a5a1	-0.03653491
24	0xbd42a950	-0.04752475
25	0x3e586d95	0.21135552
26	0x3e824a28	0.25447202
27	0xbd500448	-0.050785333
28	0xbc0db5a7	-0.008649266
29	0x3e903f70	0.281734
30	0xbe400e28	-0.187554
31	0xbda4d7dc	-0.080489844
32	0xbdb770b2	-0.08957042
33	0xbe7a1b68	-0.24424517
34	0xbcf73fa3	-0.030181712
35	0xbca34ea2	-0.019934956
36	0xbe2d7594	-0.16939384
37	0xbe304ca7	-0.1721674
38	0xbda7ccb0	-0.08193338
39	0xbe51c77b	-0.20486252
40	0xbe85457a	-0.2602957
41	0xbe2a88b6	-0.16653714
42	0xbb8f9ed1	-0.004382946
43	0xbe35a278	-0.17737758
44	0xbd459750	-0.048240006
45	0xbd4a2ef6	-0.04936119
46	0x3d1c0f21	0.038100366
47	0xbd444038	-0.047912806
48	0x3c8d1f1c	0.017226748
49	0xbd131080	-0.035904408
50	0x3b962f50	0.004583277
51	0xbe6d863f	-0.23195742
52	0xb7b2486d	-2.125298e-05
53	0xbeeac3c7	-0.4585249
54	0xbd8f2482	-0.06989385
55	0x3d40ef95	0.047103483
56	0xbdbd792e	-0.09251629
57	0xbe74d646	-0.23909864
58	0x3d481417	0.048847284
59	0xbe934357	-0.28762314

encoder.net.0.weight f4 [64, 97]
0	0x3e00dd6c	0.12584466
1	0x3e0b1e6a	0.13585821
2	0x3daf8c10	0.08571637
3	0xbd53fd76	-0.05175539
4	0xbd7d6f6b	-0.061873835
5	0x3d8912af	0.06693017
6	0x3da99814	0.0828096
7	0xbcff1adf	-0.031140743
8	0x3c822529	0.01588686
9	0x3dc198d4	0.09452978
10	0x3d894add	0.06703732
11	0xbb975b56	-0.0046190424
12	0x3e1c7496	0.15278849
13	0xbcc94032	-0.024566744
14	0xbbbe248b	-0.005802696
15	0xbc4830f3	-0.012218702
16	0x3d87f32d	0.06638179
17	0xbb8468c9	-0.0040408117
18	0xbdb1ae6b	-0.08675846
19	0xbccd684f	-0.025074152
20	0x3d0fc35f	0.03509843
21	0xbc9baf98	-0.019004628
22	0x3d9187b6	0.07105963
23	0xbd290a67	-0.041269686
24	0xbc8a5ce6	-0.01689
25	0xbd0dc2e3	-0.034609687
26	0x3a8374f1	0.0010029358
27	0xbd3296d6	-0.04360088
28	0x3dd26599	0.102732845
29	0xbd100f58	-0.035170883
30	0x3bf8cbe8	0.007592667
31	0xbc0f3ca8	-0.008742489
32	0xbdac7d17	-0.084222965
33	0xbc39d8db	-0.011343206
34	0x3d9f62d6	0.07782523
35	0xbd47614a	-0.048676766
36	0x3df9febf	0.12206792
37	0x3d61d798	0.055137247
38	0x3c79f4e9	0.015256145
39	0x3e316067	0.17321931
40	0xbd13311f	-0.035935517
41	0xba891fb1	-0.0010461715
42	0x3d1d02f2	0.038332887
43	0xbb8b159b	-0.004244519
44	0xbcaf7aaf	-0.021420805
45	0x3cb92dc2	0.022604827
46	0xbdfe0e31	-0.124050505
47	0xbdf1d1be	-0.11807583
48	0x3e4b2156	0.19836935
49	0x3d3591e3	0.04432858
50	0x3d4cb86a	0.04998056
51	0x3c2632bd	0.010143933
52	0xbd6dab3b	-0.058024626
53	0xbd4077e4	-0.046989337
54	0x3e11f5de	0.14253947
55	0xbc8ebd83	-0.01742435
56	0x3ca9a456	0.020708244
57	0xbd113751	-0.035453144
58	0xbca67ab0	-0.020322174
59	0xbce6a736	-0.028155904
60	0xbc5f21f4	-0.013618935
61	0xbd0740b6	-0.033020698
62	0xbcb06f8f	-0.02153757
63	0xbc4586a2	-0.012056025
64	0xbc7d3237	-0.015453867
65	0xbcd694ff	-0.026194094
66	0xbd0af72c	-0.033927128
67	0xbbf36f98	-0.0074290745
68	0xbabdc259	-0.0014477476
69	0xbc9ca2c4	-0.019120581
70	0x3b90672b	0.00440683
71	0xbc4f4b62	-0.01265225
72	0x3ce43dca	0.027861495
73	0xbc8ff88f	-0.017574577
74	0xbcd4cd53	-0.025976812
75	0xbc8d561e	-0.017252978
76	0xbccc459b	-0.024935534
77	0xbb93845f	-0.004501864
78	0x3b198657	0.002342602
79	0x3c85e205	0.016343126
80	0xbcd252a9	-0.025674181
81	0xbc99f8f7	-0.018795474
82	0xbccda662	-0.025103752
83	0x3cdb4c25	0.026769707
84	0xbcb5ff6f	-0.022216527
85	0xbc3f5f52	-0.011680441
86	0xbca0989b	-0.019604018
87	0xbc74bdc1	-0.014937819
88	0x3b2ea6f6	0.002664981
89	0x3c2db544	0.010602299
90	0xbc64a12a	-0.01395444
91	0xbb9cada2	-0.004781441
92	0xbcb30103	-0.021851068
93	0x3aff0828	0.0019457387
94	0xbce0d1f2	-0.02744386
95	0x3e7f05d7	0.24904571
96	0xbe72fb2b	-0.23728625
97	0xbe888cd2	-0.26669937
98	0xbe4c57e0	-0.19955397
99	0xbe2e06c3	-0.16994767
100	0xbab31d7e	-0.0013665406
101	0xba0a3973	-0.0005272843
102	0xbe3d125b	-0.18464033
103	0xbcd42dd1	-0.025900753
104	0xbe459076	-0.19293389
105	0x3ccabac1	0.024747254
106	0xbd168990	-0.036752284
107	0x3ba39222	0.0049917856
108	0xb900d668	-0.00012286904
109	0xbd8923c1	-0.06696273
110	0xbb80fcb1	-0.003936373
111	0x398d9c95	0.00027010278
112	0x3a2f2f12	0.0006682734
113	0xbc6e1bf8	-0.014533035
114	0xbc831936	-0.016003232
115	0xbcafb625	-0.021449158
116	0xbd57552d	-0.052571464
117	0xbdceea45	-0.10103277
118	0xbbcd95ca	-0.0062739598
119	0xbe94055e	-0.28910345
120	0xbbef9bd8	-0.007312279
121	0xbb345b28	-0.0027520154
122	0xbae72424	-0.0017634672
123	0xbe6d0da7	-0.23149739
124	0x3ae71f0c	0.0017633154
125	0xbe767f8e	-0.24072096
126	0x3c27be87	0.010238296
127	0xbe7d647e	-0.24745366
128	0xbd5d9e7f	-0.05410623
129	0xbcee9b9c	-0.029126935
130	0xb942fc5e	-0.00018595296
131	0xbe0f6055	-0.14001592
132	0xbd012c16	-0.031536184
133	0x3c456f31	0.012050436
134	0xbd8da0f7	-0.06915467
135	0xbdbfd5e8	-0.09366971
136	0xbe299e1a	-0.16564217
137	0x3899579e	7.3119285e-05
138	0xbdb0f5c0	-0.08640623
139	0x3c4f6417	0.012658141
140	0xbe18a29d	-0.14905782
141	0xbc4e955f	-0.012608855
142	0xbcb97c89	-0.02264239
143	0xbe7f0840	-0.24905491
144	0xbd19e133	-0.037568282
145	0xbe2d03f1	-0.16896035
146	0xbe109575	-0.14119513
147	0xbbe5d10b	-0.0070134453
148	0x3da58e1c	0.08083746
149	0xbda7f222	-0.0820048
150	0x3c7406ed	0.014894229
151	0xbe93e949	-0.2888892
152	0x3b7ddc7d	0.0038736158
153	0x3bbeb72f	0.005820177
154	0xb9fd7247	-0.00048341064
155	0x3b0d2bd0	0.0021541007
156	0x3b2eebe3	0.0026690892
157	0xbac32483	-0.0014888201
158	0xbabbd1c0	-0.0014329478
159	0x3b8db7b7	0.004324879
160	0xbb59043a	-0.0033114091
161	0x3b83f3a5	0.0040268474
162	0x3abb2856	0.0014278989
163	0x3a712c36	0.00092000084
164	0x3a93d895	0.0011279756
165	0xb9f5c06a	-0.000468734
166	0xbb0384cd	-0.002006817
167	0x3b12fd12	0.0022428674
168	0x39b1ae07	0.0003388973
169	0x3bdd80a5	0.0067597204
170	0x3a736828	0.0009285235
171	0x3b1517cc	0.002274978
172	0x3b9afba8	0.004729707
173	0x3b975997	0.0046188342
174	0x3ba6a527	0.0050856057
175	0x39ac82db	0.0003290389
176	0xbcd1ed98	-0.025625989
177	0xbaeae060	-0.0017919652
178	0xba98d891	-0.0011661222
179	0xba6eaf3b	-0.0009105091
180	0x3c8b7fe8	0.017028764
181	0x3a6235db	0.0008629241
182	0x3b1ce8bf	0.0023942438
183	0x3bb41464	0.005495595
184	0xb98345b2	-0.00025038194
185	0x3c4f53a8	0.012654223
186	0x3b5e6c4c	0.0033939062
187	0xbaafd380	-0.0013414472
188	0xba4f42d7	-0.0007906383
189	0xbe2e582a	-0.1702582
190	0x3bc17318	0.005903613
191	0xbb161044	-0.0022897879
192	0xbe22eeaf	-0.15911363
193	0x3cbbcb91	0.022924216
194	0x3c0433a2	0.008068951
195	0x3dd4ed0f	0.10396778
196	0x3e2224e9	0.15834393
197	0xbd672480	-0.056431293
198	0xbd47951e	-0.048726194
199	0x3e29a2fe	0.16566083
200	0x3e0a5d9d	0.13512273
201	0x3de1defe	0.110288605
202	0x3d6eb953	0.058282208
203	0x3e53f4cc	0.20698851
204	0x3dd8548a	0.105629995
205	0xbc13d305	-0.009022479
206	0x3dd887b1	0.10572756
207	0x3d31ce0c	0.043409392
208	0xbce15212	-0.027504954
209	0xbcb34297	-0.021882338
210	0xbb77876f	-0.0037769934
211	0xbd1bb5d0	-0.038015187
212	0x3db35353	0.08756127
213	0x3e153627	0.14571439
214	0x3c002b07	0.0078227585
215	0x3d75a668	0.05997315
216	0x3da71a35	0.081592955
217	0x3d806d50	0.0627085
218	0xbcd6b72f	-0.026210396
219	0x3da66bea	0.08126052
220	0x3e31d4b4	0.17366296
221	0x3b6baad7	0.0035959983
222	0xbd334eba	-0.04377625
223	0xbd6e4fce	-0.058181576
224	0x3e2efc2c	0.17088383
225	0x3d3c1d9a	0.045926668
226	0x3c8a4428	0.016878203
227	0xbc0c73b4	-0.008572508
228	0x3e3fbbac	0.18723935
229	0xbd2ef20f	-0.042711314
230	0x3d6ee181	0.058320526
231	0x3d5a55a5	0.053304333
232	0x3d8f0756	0.06983821
233	0x3e6f336d	0.23359461
234	0xbca51de9	-0.020155864
235	0x3e3157ea	0.17318693
236	0x3ba0fb43	0.004912765
237	0x3dce4556	0.100718185
238	0x3cd0da58	0.02549474
239	0xbd0ecef7	-0.034865346
240	0x3e1eba90	0.15500855
241	0xbc846e40	-0.016165853
242	0x3e6fe1a5	0.2342592
243	0xbd40e3d3	-0.04709227
244	0xbe2101ec	-0.1572339
245	0xbd899546	-0.06717925
246	0x3d807886	0.06272988
247	0xbdc43a08	-0.09581381
248	0x3e62cd79	0.22148694
249	0xbd250f02	-0.040297516
250	0xbbfee520	-0.0077787787
251	0xbd109f02	-0.03530789
252	0xbd54cbf4	-0.051952317
253	0xbd21c294	-0.039492205
254	0xbcc54bdf	-0.02408403
255	0xbd3f8d3f	-0.046765562

encoder.net.0.bias f4 [64]
0	0x3d38e618	0.04514131
1	0xbea57673	-0.32316932
2	0x3dd9e8b8	0.10640091
3	0xbd38a792	-0.045081683
4	0x3d1f0045	0.038818616
5	0x3e3f18c6	0.18661794
6	0x3d40f71f	0.047110673
7	0xbc5ae5c5	-0.013360445
8	0xbca8bfea	-0.020599324
9	0x3cbfced2	0.02341405
10	0xbe199513	-0.14998274
11	0x3e206914	0.15665084
12	0xbe00ebd9	-0.12589969
13	0x3cd159f8	0.025555596
14	0x3db68a8a	0.08913143
15	0x3e30d518	0.17268789
16	0xbe44cf38	-0.19219673
17	0x3b610943	0.0034337796
18	0xbe9296a6	-0.2863056
19	0xbe8fcf7f	-0.28087994
20	0x3e1b0c55	0.15141423
21	0x3e4d6e21	0.20061542
22	0xbd799e89	-0.060942207
23	0x3dcc1971	0.0996579
24	0xbcc3957c	-0.02387499
25	0xbeaf8b3d	-0.34285918
26	0xbdfcd2a0	-0.12344861
27	0xbed1ccbf	-0.4097652
28	0xbe01b690	-0.12667298
29	0x3dc885fc	0.097911805
30	0xbe89deda	-0.26927835
31	0xbdad2d5d	-0.08455918
32	0x3dc2c4d5	0.09510199
33	0xbd9aad54	-0.07552591
34	0x3db75aef	0.08952891
35	0x3d93f200	0.07223892
36	0x3e628eb4	0.2212475
37	0x3ca7c943	0.020481711
38	0x3db1e6a8	0.08686572
39	0x3e6dc2a7	0.23218785
40	0xbdea51d6	-0.1144139
41	0xbe834ac6	-0.25642985
42	0x3db53c22	0.0884936
43	0x3dc111c6	0.09427218
44	0xbe5d3ca8	-0.2160517
45	0xbc903208	-0.017601982
46	0xbe294b7e	-0.16532704
47	0x3d89e9d7	0.067340545
48	0x3e146114	0.14490157
49	0xbdc01b6b	-0.093802296
50	0xbe1fc65e	-0.15603015
51	0xbe77de89	-0.24205984
52	0x3de37ecf	0.11108171
53	0x3d32789b	0.04357205
54	0x3e2de919	0.16983451
55	0xbe61566f	-0.22005628
56	0xbdfeee31	-0.12447775
57	0xbe5a2992	-0.2130492
58	0xbec2d84c	-0.38055646
59	0x3dc2e0ad	0.0951551
60	0x3da84c08	0.08217627
61	0x3def39cf	0.11680948
62	0x3e2a1539	0.16609658
63	0x3c97d663	0.018534845

decoder.fc.weight f4 [64, 30]
0	0xbd952bde	-0.072837576
1	0xbdc08117	-0.09399622
2	0x3d7c9f10	0.06167513
3	0xbd23db81	-0.040004257
4	0xbb8dcd2d	-0.0043274374
5	0x3d9b32fd	0.075780846
6	0x3d15d336	0.03657838
7	0xbd2fa0ab	-0.042877834
8	0x3c678e56	0.014133057
9	0x3dbfbd23	0.09362247
10	0x3c817244	0.015801556
11	0xbd2beccc	-0.041973874
12	0xbd347730	-0.04405898
13	0xbcc58305	-0.024110327
14	0x3d92ea32	0.071735755
15	0xbba73a39	-0.005103376
16	0x3dbbcdee	0.09170137
17	0xbd322f85	-0.04350235
18	0x3d8296a1	0.063763864
19	0xbd1c0f62	-0.038100608
20	0x3c3d9015	0.011569996
21	0x3da00947	0.078142695
22	0xbd7f16e6	-0.062277697
23	0x3e1ffbad	0.1562335
24	0x3c1fb0a9	0.009746709
25	0xbd40d610	-0.047079146
26	0xbeade833	-0.33966216
27	0xbd6f1df1	-0.058378164
28	0xbd3d3b5c	-0.046199188
29	0x3d07a7ef	0.03311914
30	0xbceab745	-0.028651843
31	0xbc2a1699	-0.010381364
32	0x3cfe1b0e	0.03101876
33	0x3da6f0d4	0.08151403
34	0x3dd57fc6	0.104247615
35	0x3ddb50da	0.107087806
36	0x3da472f2	0.080297366
37	0x3abceb5e	0.0014413407
38	0x3d65f3a5	0.05614056
39	0x3c1e2e2e	0.009654565
40	0xbdb95034	-0.09048501
41	0xbdb563d1	-0.08856929
42	0x3de5016c	0.11181912
43	0xbe25dd44	-0.16197687
44	0xbe135ab1	-0.14390065
45	0xbe48a1af	-0.19592927
46	0xbd7b7fd6	-0.06140121
47	0xbcdbb33a	-0.02681886
48	0x3d2b21b9	0.041780207
49	0xbe17024d	-0.14746971
50	0x3d435963	0.047692668
51	0x3e02e127	0.12781201
52	0xbe0733e6	-0.13203391
53	0x3d044700	0.032294273
54	0xbd36d6c7	-0.04463842
55	0x3d104118	0.03521833
56	0xbddb26fe	-0.107007965
57	0x3ea95a0c	0.33076513
58	0x3db984c6	0.09058528
59	0xbc266cdd	-0.010157791
60	0x3d86e3e7	0.06586438
61	0x3ddc068f	0.107434385
62	0xbda1ef50	-0.07906973
63	0x3d9e790e	0.07737933
64	0x3e20e844	0.15713602
65	0x3df4c88c	0.11952314
66	0x3d14599b	0.036218267
67	0xbe10e067	-0.14148103
68	0x3db35b8d	0.08757696
69	0x3d5bf89d	0.053703893
70	0x3cf1b443	0.0295049
71	0x3d887bc9	0.06664235
72	0xbc3286b7	-0.010896376
73	0xbb5a1e6b	-0.003328229
74	0xbde793a0	-0.11307454
75	0xbcbe4110	-0.023224384
76	0xbda1cbfd	-0.07900236
77	0xbe063414	-0.13105804
78	0xbd076bb6	-0.033061706
79	0x3cf6f0ac	0.030144058
80	0x3dfdf04f	0.12399351
81	0xbad72ccf	-0.0016416552
82	0xbe505645	-0.20345409
83	0xbd6bf61b	-0.05760775
84	0x3d78a94e	0.060708337
85	0xbd1cf97c	-0.038323864
86	0x3e4f514f	0.2024586
87	0x3d9700bd	0.07373188
88	0x3db81f7c	0.0899038
89	0xbe6e931d	-0.23298307
90	0xbd9b52ec	-0.075841755
91	0xbe4fcde8	-0.20293391
92	0xbda27ff8	-0.07934564
93	0x3b146bc9	0.0022647253
94	0x3e024a85	0.1272374
95	0x3d9eccae	0.07753883
96	0x3dba17bf	0.090865605
97	0xbd73647f	-0.059422012
98	0xbdece3a8	-0.115668595
99	0x3d8435af	0.06455552
100	0x3d35a088	0.044342548
101	0xbd6cb2c6	-0.05778768
102	0xbb616d8d	-0.0034397573
103	0xbda9f6c2	-0.082990184
104	0x3e4e3347	0.20136748
105	0xbd6ee098	-0.058319658
106	0x3c5b30d5	0.013378342
107	0xbdda6ad9	-0.10664911
108	0x3d0e1ac0	0.03469348
109	0x3d9930f7	0.074800424
110	0x3dd2ee4f	0.1029936
111	0xbe1bfe8d	-0.15233822
112	0xbe316886	-0.17325029
113	0x3f42833e	0.7598151
114	0x3b677be8	0.0035321657
115	0xbe1946f5	-0.14968474
116	0xbe1684ec	-0.14699143
117	0xbf104b70	-0.5636511
118	0xbe2b374a	-0.1672031
119	0xbecddfcc	-0.40209806
120	0xbe842ee4	-0.25817025
121	0xbbe44de6	-0.006967294
122	0x3d8184a6	0.06324129
123	0x3e390cc9	0.18071283
124	0x3e1db475	0.1540087
125	0x3e5c821d	0.2153401
126	0x3e4fca69	0.20292057
127	0xbea67b1f	-0.3251581
128	0x3d7221d2	0.059114285
129	0x3ebb045c	0.36526763
130	0xbd70c0a7	-0.058777478
131	0xbe598715	-0.21242936
132	0xbd8c16c1	-0.068402775
133	0xbe43c962	-0.1911979
134	0x3e0adc0a	0.135605
135	0x3df5c826	0.12001066
136	0xbd00ed17	-0.031476106
137	0xbd9ff2ff	-0.0781002
138	0x3b5f2d41	0.0034054073
139	0x3d74f402	0.059803016
140	0x3d890939	0.06691212
141	0xbe397372	-0.18110445
142	0x3da17cb9	0.07885117
143	0xbf1709f4	-0.5899956
144	0xbe3818bb	-0.17978184
145	0x3d5263f7	0.051364865
146	0x3e672dfc	0.22576135
147	0x3dc81194	0.09768978
148	0x3d5cb0d4	0.053879574
149	0xbeb0093b	-0.34382042
150	0x3c7078a9	0.014677205
151	0x3cb725d5	0.022356907
152	0x3e093271	0.13398148
153	0xbdf43fce	-0.11926232
154	0xbdf1f9cb	-0.11815222
155	0xbddecbea	-0.10878737
156	0x3ca74bc3	0.020421868
157	0x3e29d4a2	0.16585019
158	0xbced5782	-0.028972391
159	0xbca246bf	-0.019809125
160	0x3e0e3ed9	0.13891162
161	0x3db1679e	0.086623415
162	0x3ddfa494	0.10920063
163	0x3e132d12	0.14372662
164	0x3cd13c99	0.02554159
165	0x3e297f35	0.16552432
166	0xbcbc2aa6	-0.022969555
167	0x3d8dc524	0.06922367
168	0x3a5a7e15	0.0008334828
169	0x3a30384f	0.0006722258
170	0xbbe70da9	-0.007051189
171	0x3dfbb27e	0.12289904
172	0xbe17cff9	-0.14825429
173	0xbf253acb	-0.64542836
174	0xbbcfcd60	-0.0063416213
175	0xbd08ae2a	-0.03336922
176	0x3e32743e	0.17427155
177	0xbea520e0	-0.32251644
178	0x3c0b984c	0.008520197
179	0x3da2d2df	0.07950377
180	0xbda429b7	-0.08015769
181	0x3dcfa126	0.101381585
182	0xbdcc488b	-0.09974774
183	0x3e1aee55	0.15129979
184	0xbd15b36b	-0.03654806
185	0x3d658dd2	0.056043454
186	0x3d785f20	0.060637593
187	0xbe14def3	-0.14538173
188	0x3d151e83	0.03640605
189	0x3e3650ae	0.17804214
190	0xbd654657	-0.055975284
191	0xbe05ef06	-0.13079461
192	0xbe11bbd4	-0.14231807
193	0xbe0d9663	-0.13826899
194	0x3e00b8f6	0.12570557
195	0xbe0b1b2f	-0.13584588
196	0xbe32fcb2	-0.17479208
197	0xbd7ce623	-0.061742913
198	0x3e39d9e6	0.18149528
199	0xbdb412cd	-0.087926485
200	0x3e12c970	0.14334655
201	0xbd8b0255	-0.06787554
202	0x3e5716d0	0.21004796
203	0x3ec733a4	0.38906586
204	0x3b89a1a3	0.004200177
205	0xbde0ec73	-0.10982599
206	0xbe958ba1	-0.2920809
207	0xbc7d57cf	-0.01546283
208	0xbdfd0d97	-0.12356108
209	0x3d82c484	0.06385139
210	0x3d230061	0.039795283
211	0xbda3cd04	-0.07998088
212	0x3d18389d	0.037163366
213	0x3c229784	0.009923819
214	0x3b88c7fb	0.00417423
215	0x3dccc283	0.09998038
216	0x3dab184f	0.08354246
217	0xbc917655	-0.01775662
218	0xbda13ffb	-0.078735314
219	0x3de7f273	0.113255404
220	0xbde78854	-0.113052994
221	0x3db08be1	0.0862043
222	0x3d9b337f	0.075781815
223	0x3debc6a5	0.11512498
224	0x3d378dbb	0.0448129
225	0xbe5815fd	-0.21102138
226	0x3e046724	0.1292997
227	0xbc2b1c40	-0.010443747
228	0x3d83af97	0.064299755
229	0xbcb46a6e	-0.022023406
230	0x3cf7d6a5	0.030253718
231	0xbe5f50d7	-0.21808182
232	0xbea2b84d	-0.31781235
233	0x3e0ebcd4	0.1393922
234	0x3dade901	0.084917076
235	0xbd18946e	-0.03725093
236	0xbc8c90e7	-0.017158939
237	0xbfe0254b	-1.7511381
238	0xbd997e5c	-0.07494804
239	0xbcf05f4c	-0.029342316
240	0x3dce4b9b	0.10073014
241	0xbdba0ec8	-0.090848505
242	0x3b072b72	0.002062526
243	0x3e0839b6	0.13303265
244	0xbdca0324	-0.0986388
245	0x3c049a36	0.008093407
246	0x3d88022b	0.066410385
247	0xbda44b97	-0.0802223
248	0xbe267490	-0.16255403
249	0x3e1d49f3	0.1536024
250	0xbdf135e5	-0.11777858
251	0x3cb78696	0.022403043
252	0xbd2da08f	-0.04238945
253	0xbd9b403c	-0.07580611
254	0x3df0350c	0.11728868
255	0xbcbf5c81	-0.023359539

decoder.fc.bias f4 [64]
0	0xbeb3d9db	-0.35127148
1	0x3e0211bb	0.12702076
2	0x3e46ccfa	0.1941413
3	0x3f220dba	0.63302195
4	0x3f0ecf8e	0.55785453
5	0x3ea67e66	0.3251831
6	0x3d9f6037	0.077820234
7	0x3efd8066	0.49512023
8	0x3e7ffe42	0.24999335
9	0x3efe47f9	0.49664286
10	0x3ea12136	0.3147065
11	0x3ed1793d	0.4091281
12	0x3eead65c	0.45866668
13	0x3ee47493	0.4462019
14	0x3f168852	0.5880176
15	0x3e86dc38	0.2633989
16	0x3eea6059	0.45776632
17	0x3e78f7ea	0.24313322
18	0xbcca8e97	-0.024726195
19	0x3ec2e2b8	0.38063598
20	0x3f0ae932	0.5426208
21	0x3f5a714e	0.8532914
22	0x3f0dfc36	0.5546297
23	0x3e0719a1	0.1319337
24	0xbd8fb749	-0.07017381
25	0x3ed7438c	0.42043722
26	0x3e7e012e	0.24805138
27	0x3f2816e9	0.6565996
28	0x3e956c1e	0.2918405
29	0x3e2d327c	0.1691379
30	0x3e53965e	0.2066283
31	0x3e51ce65	0.2048889
32	0x3ec35697	0.38152
33	0xbf029c94	-0.5102017
34	0x3f00a07f	0.502449
35	0x3e7e337f	0.24824332
36	0x3f0b84c2	0.5449945
37	0x3f1f3d28	0.6220269
38	0x3f62570a	0.8841406
39	0x3ef5c44f	0.48001334
40	0x3dd18aed	0.10231576
41	0x3f355dcd	0.70846254
42	0x3f3ed80f	0.7454843
43	0x3e76882e	0.24075386
44	0x3e901ec7	0.2814848
45	0x3e525444	0.20539957
46	0x3eee14b0	0.46500158
47	0x3ecc2b86	0.39876956
48	0x3ec2d37e	0.3805198
49	0x3f26a625	0.65097266
50	0x3e874e97	0.26427147
51	0x3ecfc1dc	0.4057759
52	0x3f255cd5	0.64594775
53	0x3e432894	0.19058448
54	0x3f1760ac	0.59131885
55	0x3eaddf99	0.33959654
56	0x3ee8fab5	0.45503774
57	0x3d883274	0.06650248
58	0x3ed27593	0.41105327
59	0x3f4198e4	0.7562392
60	0x3f056756	0.52110803
61	0x3f018c71	0.5060492
62	0x3e34a3dc	0.17640632
63	0x3f30bcee	0.69038284

decoder.out.weight f4 [96, 64]
0	0xbd754a01	-0.05988503
1	0xbd5a700a	-0.053329505
2	0xbd999783	-0.07499602
3	0xbdbd9090	-0.09256089
4	0xbd5a2945	-0.053262014
5	0xbcd7f363	-0.026361173
6	0xbd6cdc4e	-0.057827286
7	0xbe1ee7b6	-0.15518078
8	0xbd66cfb0	-0.05635041
9	0x3dd1ffb8	0.102538526
10	0x3dd29274	0.1028184
11	0x3e06a9cf	0.13150714
12	0xbe0bf11b	-0.13666193
13	0x3cc76158	0.02433841
14	0x3d42c57d	0.04755162
15	0xbd808bb1	-0.06276644
16	0xbcc72cc3	-0.024313336
17	0x3a828805	0.000995875
18	0xbd410547	-0.047124173
19	0xbd722026	-0.05911269
20	0xbd27fc30	-0.04101199
21	0x3cda6063	0.026657289
22	0x3eadb745	0.33928886
23	0xbdd3b77e	-0.10337733
24	0xbf23bf7d	-0.6396406
25	0x3df2b422	0.11850764
26	0x3cd82b35	0.02638779
27	0x3d9c8655	0.07642809
28	0xbc658ea0	-0.014011055
29	0xbd3cf492	-0.046131678
30	0x3c856ac7	0.016286267
31	0xbcbf2914	-0.023335017
32	0xbc620150	-0.013794258
33	0x3e4b7260	0.1986785
34	0x3dfc5a44	0.12321904
35	0x3da1f0ac	0.07907233
36	0x3dc98b30	0.09841001
37	0xbde24e50	-0.11050093
38	0xbc811cd1	-0.015760811
39	0xbb881ea2	-0.0041540423
40	0xbc88f38f	-0.0167177
41	0x3bbd4642	0.0057761976
42	0xbda69c2a	-0.08135255
43	0x3d630ad0	0.055430233
44	0xbd6766ab	-0.056494396
45	0xbd9b0931	-0.075701125
46	0xbbe71380	-0.007051885
47	0xbd7f8fda	-0.062393047
48	0x3c5b097b	0.01336896
49	0x3da1946a	0.07889636
50	0xbe7f1014	-0.24908477
51	0x3d7b2c24	0.061321393
52	0xbd4bcaf4	-0.049754098
53	0xbda846a8	-0.082166016
54	0x3d41d52c	0.047322437
55	0x3c74bdfe	0.014937876
56	0x3df5efd0	0.12008631
57	0xbc072d9e	-0.008250622
58	0xbd702a76	-0.058634244
59	0xbd79b9be	-0.060968153
60	0xbd338373	-0.04382653
61	0xbe891dd1	-0.2678056
62	0x3e163a9b	0.14670794
63	0x3e32af35	0.17449649
64	0x3dd2f75d	0.10301087
65	0xbe22ed60	-0.15910864
66	0xbe1d5bdd	-0.15367074
67	0x3db05017	0.08609026
68	0x3c97a243	0.01850999
69	0x3e14f390	0.14546037
70	0x3bd8e583	0.006619157
71	0x3dabd20f	0.08389675
72	0x3d9243ad	0.071418144
73	0xbd32ba78	-0.04363486
74	0xbd41c84c	-0.04731016
75	0x3c04cffc	0.008106228
76	0xbe11ea14	-0.1424945
77	0xbcbe51d7	-0.023232384
78	0x3df981e6	0.12182979
79	0x3d7c1944	0.061547533
80	0xbcae03f7	-0.021242125
81	0x3e05c0f8	0.13061893
82	0x3e25a315	0.16175492
83	0x3d9dc647	0.07703834
84	0xbd5f5f8d	-0.054534484
85	0xbda74c9c	-0.08168909
86	0x3bbfa076	0.005847986
87	0x3d153f49	0.036437307
88	0xbc286873	-0.010278809
89	0x3e190d45	0.14946468
90	0x3b505518	0.0031789
91	0x3d2a0fff	0.04151916
92	0x3d040241	0.032228712
93	0x3cf934de	0.030420717
94	0x3d2d07ef	0.042243894
95	0x3d6274f9	0.055287335
96	0xbba77951	-0.0051108976
97	0xbd6dd5be	-0.05806517
98	0x3e286b14	0.16447097
99	0x3ccb7434	0.024835683
100	0x3c9f97d1	0.019481571
101	0x3cb5b2a0	0.022179902
102	0xbda153c8	-0.07877308
103	0xbe54e1ef	-0.20789312
104	0xbcb5438b	-0.022126934
105	0x3cc88322	0.024476591
106	0x3d8635a6	0.065532014
107	0xbda2a2ec	-0.07941231
108	0xbce12bb6	-0.027486663
109	0xbc35fe8b	-0.011108051
110	0x3d0bd8d0	0.034142315
111	0x3ca2c306	0.019868385
112	0xbd911b21	-0.070852526
113	0xbc743bdd	-0.014906851
114	0xbd0d6fde	-0.034530513
115	0xbab96612	-0.0014144799
116	0xbbb802d7	-0.005615573
117	0x3d89112c	0.066927284
118	0xbd140429	-0.03613678
119	0xbe1fa756	-0.15591177
120	0xbc83ecc2	-0.016104106
121	0x3ceeb262	0.029137794
122	0x3e10705f	0.14105366
123	0xbd14d41b	-0.036335092
124	0x3d5732b5	0.052538592
125	0x3d9ac655	0.0755736
126	0x3cf783cd	0.030214215
127	0xbd445271	-0.047930185
128	0x3d83cd4f	0.06435644
129	0xbd55059b	-0.0520073
130	0xbcd49dc0	-0.025954127
131	0x3e89fcbe	0.2695064
132	0xbe179990	-0.14804673
133	0xbcd445e6	-0.025912236
134	0xbcc476ba	-0.023982394
135	0x3f104534	0.56355596
136	0xbc8f5ae0	-0.017499387
137	0xbdab5dd3	-0.08367505
138	0x3e265c00	0.16246033
139	0x3d7aef14	0.06126316
140	0x3de57720	0.11204362
141	0xbd35fb68	-0.044429213
142	0xbe56eb57	-0.20988213
143	0x3e013c49	0.12620653
144	0xbeb1dbbb	-0.34737954
145	0xbe1e959d	-0.1548676
146	0x3dc36240	0.09540224
147	0xbe179a23	-0.14804892
148	0xbe75c048	-0.2399913
149	0x3dcb6289	0.099309035
150	0xbecf28b9	-0.40460756
151	0x3e4763a4	0.19471604
152	0xbe01b461	-0.12666465
153	0xbe3fc912	-0.18729046
154	0xbe476649	-0.19472612
155	0xbeb07c56	-0.3446986
156	0xbe2e8344	-0.17042261
157	0x3ed249f8	0.4107206
158	0x3cc8d7d5	0.02451698
159	0xbdc2fd9e	-0.0952103
160	0x3d2b691f	0.0418483
161	0x3fbd2fb0	1.4780178
162	0xbcc2c8e4	-0.023777433
163	0x3bbd58e8	0.0057784207
164	0xbe9393c3	-0.2882367
165	0xbe18f1e3	-0.14936022
166	0xbcf933e1	-0.030420246
167	0xbde5a169	-0.11212427
168	0xbd86e3ef	-0.06586444
169	0xbe6edc72	-0.2332628
170	0xbe140657	-0.14455543
171	0xbe802c4b	-0.25033793
172	0xbea5e952	-0.32404572
173	0x3deb4c24	0.11489132
174	0xbdae377d	-0.08506677
175	0xbe1319fe	-0.14365384
176	0x3d94b017	0.07260149
177	0xbe4420d5	-0.1915315
178	0x3e472e48	0.19451249
179	0xbd1f7394	-0.038928583
180	0xbdcaf88a	-0.09910686
181	0x3e267cef	0.16258596
182	0x3b60e34a	0.0034315162
183	0x3cf0c0d0	0.029388815
184	0xbe14437d	-0.1447887
185	0x3d9cd4ec	0.07657799
186	0xbde170b1	-0.11007822
187	0xbe0debce	-0.13859484
188	0xbe825ac1	-0.25459865
189	0x3c2f32d6	0.010693273
190	0x3cdaae82	0.02669454
191	0xbd6df42e	-0.058094196
192	0x3da131f9	0.0787086
193	0xbe419673	-0.18905048
194	0x3d87e0d4	0.066346794
195	0xbda1362c	-0.078716606
196	0xbe1cd3f4	-0.15315229
197	0xbdef88e8	-0.11696035
198	0xbd5fa5b7	-0.054601397
199	0xbdb5d425	-0.08878354
200	0xbd1f74d7	-0.038929787
201	0xbc81087f	-0.015751122
202	0xbdcc5f31	-0.09979094
203	0x3db3257e	0.087473854
204	0x3a7289fb	0.0009252128
205	0x3b9794a7	0.004625875
206	0xbe1669a1	-0.14688732
207	0xbdc02bd3	-0.09383359
208	0x3d6524e9	0.055943403
209	0xbd222c67	-0.039593127
210	0x3e009cbb	0.12559788
211	0xbd17ec05	-0.03709032
212	0x3d08b54d	0.033376027
213	0xba32b23c	-0.000681672
214	0x3cb3d3df	0.021951614
215	0xbd7643a0	-0.060123086
216	0xbd4af18e	-0.04954677
217	0xbde7d16c	-0.11319241
218	0x3b9b57f0	0.0047407076
219	0xbdfef505	-0.124490775
220	0xbd549df9	-0.051908467
221	0xbcad324c	-0.021142147
222	0x3d303fdd	0.043029655
223	0xbc0f4ede	-0.008746831
224	0xbda393fd	-0.07987211
225	0x3db6353f	0.08896875
226	0xbe02966f	-0.12752698
227	0x3b1315f1	0.0022443498
228	0xbd7184db	-0.05896459
229	0xbd903b56	-0.070425674
230	0xbce95f1a	-0.02848773
231	0xbd1b4b4f	-0.037913617
232	0xbc375702	-0.011190178
233	0xbd9bb96b	-0.07603725
234	0xbd92ecad	-0.071740486
235	0x3d9c7975	0.076403536
236	0x3cb027aa	0.021503288
237	0x3cc1084b	0.023563525
238	0xbc867e2e	-0.016417589
239	0xbdb71ee1	-0.089414366
240	0xbd0773b9	-0.033069346
241	0xba9442c9	-0.0011311407
242	0xbccfd2e4	-0.025369115
243	0xbd19712a	-0.037461437
244	0x3c290b8c	0.010317694
245	0xbdb50548	-0.08838898
246	0x3b9fff3d	0.0048827217
247	0xbdb12f7c	-0.08651635
248	0xbc80fdba	-0.015745986
249	0x3d7a53d0	0.061115086
250	0xbe271086	-0.16314897
251	0xbd84c634	-0.06483117
252	0xbda7f7f0	-0.08201587
253	0xbddeb9a2	-0.108752504
254	0xbdc4b75e	-0.09605287
255	0x3d0cd4cb	0.034382623

decoder.out.bias f4 [96]
0	0x3e395416	0.18098482
1	0xbeb9052f	-0.36136767
2	0xbe75ec41	-0.24015905
3	0xbe949e18	-0.29026866
4	0xbe7fdb17	-0.2498592
5	0xbe5cb568	-0.21553576
6	0xbeb3b902	-0.35102087
7	0x3d7e2e40	0.062055826
8	0xbe6469e7	-0.22306024
9	0xbe6ab7a2	-0.22921613
10	0xbeaed1cf	-0.34144446
11	0xbde47ec0	-0.11156988
12	0xbe5609ae	-0.2090213
13	0xbe1ca47b	-0.1529712
14	0xbe55dffa	-0.20886222
15	0xbdd204d0	-0.10254824
16	0xbddeb1c5	-0.108737506
17	0xbe79d20b	-0.24396531
18	0xbe94af12	-0.29039818
19	0xbea62ccf	-0.3245606
20	0xbed89bee	-0.42306465
21	0xbe52de8f	-0.20592712
22	0xbe6909b5	-0.22757609
23	0xbe8f0d26	-0.2793972
24	0xbe0a0462	-0.13478234
25	0xbe8027de	-0.25030416
26	0xbe2cace8	-0.16862833
27	0xbe6fd488	-0.23420918
28	0x3e13a81e	0.144196
29	0xbe35a44b	-0.17738454
30	0xbec42a7f	-0.38313672
31	0xbe6e7887	-0.23288165
32	0xbe217373	-0.15766697
33	0xbe05800e	-0.1303713
34	0xbe91b777	-0.28460285
35	0xbebbebdc	-0.36703384
36	0xbe7f4174	-0.24927312
37	0xbeb2ea77	-0.34944507
38	0xbea1ad3c	-0.3157748
39	0xbed4b443	-0.4154378
40	0xbe1118eb	-0.14169662
41	0xbea25477	-0.31705067
42	0xbe7a546a	-0.24446264
43	0xbeb15ad8	-0.3463962
44	0xbe80edde	-0.25181478
45	0xbeaea241	-0.34108165
46	0xbe4f62ba	-0.20252505
47	0xbe9926b9	-0.29912356
48	0xbefacb0c	-0.48983037
49	0xbe46f2f0	-0.19428611
50	0xbe9dd2d5	-0.30824915
51	0xbe6d5166	-0.23175582
52	0xbe9e22d3	-0.30885944
53	0xbe19751f	-0.14986084
54	0x3e513531	0.20430447
55	0xbdf17eb8	-0.11791748
56	0xbdcb7351	-0.09934104
57	0xbe28baac	-0.1647746
58	0xbe6f3350	-0.23359418
59	0xbe510956	-0.20413718
60	0xbe1cafba	-0.1530141
61	0xbe088698	-0.13332593
62	0xbe0c4823	-0.13699393
63	0xbdc3e322	-0.095648065
64	0xbd9766e5	-0.073926724
65	0xbe121d58	-0.14269006
66	0xbddec36f	-0.1087712
67	0xbe4dc70e	-0.20095465
68	0xbe506182	-0.20349696
69	0xbe7224b9	-0.23646821
70	0xbe3dd019	-0.18536414
71	0xbe22765f	-0.15865467
72	0xbe4146f8	-0.18874729
73	0xbda791d9	-0.08182115
74	0xbe6c54bd	-0.230792
75	0xbe887fbc	-0.26659954
76	0xbd9bb5de	-0.07603048
77	0xbdecb884	-0.11558631
78	0xbd95fdb7	-0.07323783
79	0xbe881d8c	-0.26585042
80	0xbddecbbe	-0.108787045
81	0xbe18518b	-0.14874856
82	0xbe566c92	-0.20939854
83	0xbd8ce3c5	-0.06879381
84	0xbe54f1b5	-0.20795329
85	0xbdd2c7f3	-0.102920435
86	0xbe0ad3f7	-0.1355742
87	0xbe865519	-0.262368
88	0xbe5afc4d	-0.21385308
89	0xbe7ed450	-0.24885678
90	0xbdb77268	-0.08957368
91	0xbdbf9b1b	-0.09355756
92	0x3e0b3b6c	0.13596886
93	0xbe398b42	-0.18119529
94	0xbd9af298	-0.07565802
95	0xbd7237aa	-0.059135117

decoder.bn.weight f4 [64]
0	0x3f800000	1.0
1	0x3f800000	1.0
2	0x3f800000	1.0
3	0x3f800000	1.0
4	0x3f800000	1.0
5	0x3f800000	1.0
6	0x3f800000	1.0
7	0x3f800000	1.0
8	0x3f800000	1.0
9	0x3f800000	1.0
10	0x3f800000	1.0
11	0x3f800000	1.0
12	0x3f800000	1.0
13	0x3f800000	1.0
14	0x3f800000	1.0
15	0x3f800000	1.0
16	0x3f800000	1.0
17	0x3f800000	1.0
18	0x3f800000	1.0
19	0x3f800000	1.0
20	0x3f800000	1.0
21	0x3f800000	1.0
22	0x3f800000	1.0
23	0x3f800000	1.0
24	0x3f800000	1.0
25	0x3f800000	1.0
26	0x3f800000	1.0
27	0x3f800000	1.0
28	0x3f800000	1.0
29	0x3f800000	1.0
30	0x3f800000	1.0
31	0x3f800000	1.0
32	0x3f800000	1.0
33	0x3f800000	1.0
34	0x3f800000	1.0
35	0x3f800000	1.0
36	0x3f800000	1.0
37	0x3f800000	1.0
38	0x3f800000	1.0
39	0x3f800000	1.0
40	0x3f800000	1.0
41	0x3f800000	1.0
42	0x3f800000	1.0
43	0x3f800000	1.0
44	0x3f800000	1.0
45	0x3f800000	1.0
46	0x3f800000	1.0
47	0x3f800000	1.0
48	0x3f800000	1.0
49	0x3f800000	1.0
50	0x3f800000	1.0
51	0x3f800000	1.0
52	0x3f800000	1.0
53	0x3f800000	1.0
54	0x3f800000	1.0
55	0x3f800000	1.0
56	0x3f800000	1.0
57	0x3f800000	1.0
58	0x3f800000	1.0
59	0x3f800000	1.0
60	0x3f800000	1.0
61	0x3f800000	1.0
62	0x3f800000	1.0
63	0x3f800000	1.0

decoder.bn.bias f4 [64]
0	0x00000000	0.0
1	0x00000000	0.0
2	0x00000000	0.0
3	0x00000000	0.0
4	0x00000000	0.0
5	0x00000000	0.0
6	0x00000000	0.0
7	0x00000000	0.0
8	0x00000000	0.0
9	0x00000000	0.0
10	0x00000000	0.0
11	0x00000000	0.0
12	0x00000000	0.0
13	0x00000000	0.0
14	0x00000000	0.0
15	0x00000000	0.0
16	0x00000000	0.0
17	0x00000000	0.0
18	0x00000000	0.0
19	0x00000000	0.0
20	0x00000000	0.0
21	0x00000000	0.0
22	0x00000000	0.0
23	0x00000000	0.0
24	0x00000000	0.0
25	0x00000000	0.0
26	0x00000000	0.0
27	0x00000000	0.0
28	0x00000000	0.0
29	0x00000000	0.0
30	0x00000000	0.0
31	0x00000000	0.0
32	0x00000000	0.0
33	0x00000000	0.0
34	0x00000000	0.0
35	0x00000000	0.0
36	0x00000000	0.0
37	0x00000000	0.0
38	0x00000000	0.0
39	0x00000000	0.0
40	0x00000000	0.0
41	0x00000000	0.0
42	0x00000000	0.0
43	0x00000000	0.0
44	0x00000000	0.0
45	0x00000000	0.0
46	0x00000000	0.0
47	0x00000000	0.0
48	0x00000000	0.0
49	0x00000000	0.0
50	0x00000000	0.0
51	0x00000000	0.0
52	0x00000000	0.0
53	0x00000000	0.0
54	0x00000000	0.0
55	0x00000000	0.0
56	0x00000000	0.0
57	0x00000000	0.0
58	0x00000000	0.0
59	0x00000000	0.0
60	0x00000000	0.0
61	0x00000000	0.0
62	0x00000000	0.0
63	0x00000000	0.0
