FarconVAE/model_adult/farcon_2023_05_02_01_58_57_007225_ours.pth (torch, 82153 bytes, 21 tensors)

encoder.fc.weight f4 [64, 97]
-0.010022949 0.19672988 0.060477864 -0.07794274 -0.02183748 0.20070662 0.2338643 0.22861351
0.100984134 0.18145385 0.16082515 0.0122060655 0.18944582 0.08447997 0.0026679402 -0.028082918
0.12490732 0.10414934 0.045675587 0.16941066 0.1198367 -0.1166988 0.15083541 0.11228811
0.022286521 -0.048163526 0.09192918 -0.015799325 0.21303485 -0.0039778864 0.20469931 0.1693402
0.09566645 0.022055687 0.16143483 0.106174886 0.18633284 0.24813895 0.18763055 0.26618624
0.002399312 0.093298756 0.011542554 0.048505425 0.0646877 0.16997245 0.124914214 0.08287178
0.2770121 0.18147796 0.13411365 -0.03995488 0.20623133 0.00934725 0.14596468 -0.0010822627
-0.0055555273 0.048940543 0.022669422 0.018994266 0.045419738 0.027637258 -0.06467519 0.004929465
-0.023541914 0.0017045282 -0.027089488 -0.01804454 0.0087173665 0.019461352 -0.038081788 0.0064163026
-0.108087435 0.0032356782 0.03825479 0.016841596 -0.07763101 -0.0070548886 0.016171072 0.16944969
0.02740064 0.034077853 0.04315313 -0.16094051 0.021249963 0.045455966 0.012451124 0.020997405
-0.009721787 -0.046755463 0.011087154 -0.005659962 0.240615 -0.020795928 0.045743383 -0.24861754
-0.28686237 0.06391387 0.13820747 0.1830055 -0.0477298 0.048245788 -0.0021285366 0.15393604
0.07520753 0.042466618 0.14330903 0.03979451 -0.0076159406 0.07125492 0.05591841 0.0095107155
0.060509898 0.13123995 0.08654037 0.10972894 0.041933604 0.09733191 0.010542183 -0.024988996
0.059568144 -0.010828793 0.08955714 0.087964654 -0.018324405 -0.04382691 0.0070065223 0.03270907
0.11450542 0.119202234 -0.00556012 0.12335741 0.08664468 0.1492538 0.05803111 0.14651181
0.14851087 -0.0014847906 0.09074638 0.061182223 -0.010426207 -0.025030194 -0.015832586 0.15726882
0.072279215 0.10588944 0.1169742 0.060796417 0.0009861307 -0.022623286 0.0052362243 0.13781527
0.0009721339 -0.02126242 -0.015879847 -0.009158337 -0.013907641 -0.02601528 -0.012258731 0.014106322
-0.015052753 -0.009885245 -0.026038684 0.011944524 -0.019812683 -0.006848997 -0.013151293 -0.0076256096
-0.020159274 0.013756247 -0.009220398 -0.010894624 -0.006849031 -0.020316923 -0.0015447563 -0.020937469
0.092861906 -0.0065761805 -0.01543611 -0.010517166 0.03708137 -0.012266661 -0.0067263874 -0.014431768
-0.012155257 -0.035089023 0.0070093223 -0.02565622 -0.026869277 0.1450596 -0.026220372 -0.02558895
0.36692843 -0.20546696 -0.0538864 0.1260922 -0.10449666 -0.1473197 -0.044049963 -0.10411123
0.17834505 0.09947716 0.06207409 0.034631044 0.15459107 -0.0024339193 0.047868293 -0.0017641868
0.0023484437 0.06667136 0.015380592 0.030397607 -0.010641845 -0.06993641 0.022579065 -0.07577963
0.17149685 0.02783229 -0.006459457 -0.089611955 0.088114984 0.022146825 -0.06911317 -0.02796304
0.15609793 0.048036404 0.010756436 -0.0036913082 0.1349282 0.07640314 -0.02541438 0.19163722
-0.03075347 0.029826077 0.017616155 0.053650085 -0.00631465 0.015322853 0.04643306 0.00067568896
0.08846424 0.07830282 0.19001642 0.16279593 0.018085845 -0.0032957254 0.20631984 0.026797557
0.1747346 -0.02165345 0.025524573 -0.018337373 -0.0070800874 0.0058064903 0.0035026951 -0.013277002
00000000: 4c37 24bc 8f73 493e a3b7 773d 71a0 9fbd
00000010: 84e4 b2bc 0986 4d3e 207a 6f3e a919 6a3e
00000020: c5d0 ce3d 0acf 393e 59af 243e f3fb 473c
00000030: 16fe 413e d603 ad3d 9cd8 2e3b 260e e6bc
00000040: 69cf ff3d 404c d53d 5316 3b3d fd79 2d3e
00000050: f26c f53d c8ff eebd 9974 1a3e 4ff7 e53d
00000060: 3992 b63c 1e47 45bd 5e45 bc3d 966d 81bc
00000070: cf25 5a3e ee58 82bb b29c 513e 8467 2d3e
00000080: c6ec c33d 21ae b43c 2c4f 253e 3872 d93d
00000090: 09ce 3e3e 2318 7e3e 3922 403e 9049 883e
000000a0: c73d 1d3b 6b13 bf3d fb1c 3d3c a0ad 463d
000000b0: fc7a 843d 420d 2e3e 06d3 ff3d aeb8 a93d
000000c0: 88d4 8d3e 5cd5 393e 1755 093e baa7 23bd
000000d0: 4e2e 533e 3525 193c c477 153e b6da 8dba
000000e0: 240b b6bb e175 483d 39b5 b93c dd99 9b3c
000000f0: 0c0a 3a3d 8867 e23c 6d74 84bd 5987 a13b
00000100: f9da c0bc 7a6a df3a c6ea ddbc 25d2 93bc
00000110: 49d3 0e3c 6a6d 9f3c a6fb 1bbd d93f d23b
00000120: f25c ddbd ac0d 543b 0eb1 1c3d 63f7 893c
00000130: 02fd 9ebd b22c e7bb 3279 843c 3884 2d3e
00000140: 4f77 e03c 3895 0b3d 56c1 303d 97cd 24be
00000150: 6714 ae3c 0930 3a3d cdff 4b3c c002 ac3c
00000160: 2148 1fbc a882 3fbd e5a6 353c 3477 b9bb
00000170: c763 763e 395c aabc 6a5d 3b3d 9995 7ebe
00000180: a0df 92be 46e5 823d 4286 0d3e cb65 3b3e
00000190: 5380 43bd 609d 453d eb7e 0bbb 69a1 1d3e
000001a0: 6806 9a3d 7af1 2d3d 9abf 123e 91ff 223d
000001b0: 248f f9bb 19ee 913d b40a 653d d5d2 1b3c
000001c0: 3ad9 773d c463 063e 143c b13d 91b9 e03d
000001d0: 92c2 2b3d f455 c73d 1fb9 2c3c b9b5 ccbc
000001e0: bafd 733d 406b 31bc bc69 b73d d026 b43d
000001f0: 101d 96bc d983 33bd f896 e53b f2f9 053d
00000200: d181 ea3d 4d20 f43d ab31 b6bb cfa2 fc3d
00000210: c472 b13d fdd5 183e 07b2 6d3d 3107 163e
00000220: 3c13 183e 4e9d c2ba 3dd9 b93d 369a 7a3d
00000230: afd2 2abc 1f0c cdbc 57b3 81bc 140b 213e
00000240: 2007 943d 90dc d83d 2b90 ef3d aa05 793d
00000250: 0e41 813a 7854 b9bc a294 ab3b 721f 0d3e
00000260: cdd6 7e3a 872e aebc 7416 82bc d90c 16bc
00000270: e0dc 63bc ff1d d5bc d8d8 48bc 341e 673c
00000280: d29f 76bc b9f5 21bc 144f d5bc f7b2 433c
00000290: 354e a2bc 8d6d e0bb 8578 57bc 40e0 f9bb
000002a0: 1025 a5bc e261 613c 2711 17bc 5d7f 32bc
000002b0: d66d e0bb ad6f a6bc 6c79 caba 0e85 abbc
000002c0: 622e be3d 007d d7bb bde7 7cbc 3150 2cbc
000002d0: a2e2 173d 1bfa 48bc 0769 dcbb 3973 6cbc
000002e0: d826 47bc 82b9 0fbd 75ae e53b fe2c d2bc
000002f0: f51c dcbc 818a 143e 1bcc d6bc eb9f d1bc
00000300: 0bde bb3e ee65 52be fcb7 5cbd 501e 013e
00000310: 5802 d6bd fada 16be bc6d 34bd 4538 d5bd
00000320: 16a0 363e aeba cb3d 6741 7e3d 48d9 0d3d
00000330: 1f4d 1e3e 6482 1fbb 8b11 443d 493c e7ba
00000340: 59e8 193b fe8a 883d e1fe 7b3c 6704 f93c
00000350: 225b 2ebc d23a 8fbd bbf7 b83c 5a32 9bbd
00000360: df9c 2f3e 8b00 e43c daa9 d3bb 7986 b7bd
00000370: a175 b43d 426d b53c 358b 8dbd bf12 e5bc
00000380: 23d8 1f3e d2c1 443d c33b 303c e0e9 71bb
00000390: 9e2a 0a3e 4079 9c3d d131 d0bc 8c3c 443e
000003a0: b3ee fbbc d155 f43c c14f 903c 31c0 5b3d
000003b0: 20eb cebb b40c 7b3c 9830 3e3d b820 313a
000003c0: bd2c b53d 3b5d a03d aa93 423e fab3 263e
000003d0: c428 943c 19fd 57bb 8245 533e 8d86 db3c
000003e0: a1ed 323e 9362 b1bc e918 d13c 4238 96bc
000003f0: 1400 e8bb 5f44 be3b 798d 653b c887 59bc

encoder.fc.bias f4 [64]
0.16181861 0.0032324991 0.14535505 -0.2726527 0.015632443 0.025156278 0.18122785 -0.082169205
0.08172981 0.07032077 -0.08996195 0.2745887 -0.25142235 0.022505334 0.1160167 0.120801285
0.015541912 -0.017044617 0.110235706 0.18162239 -0.00734366 0.22059633 0.09843784 0.22655512
0.024619654 -0.23284338 -0.22724481 0.1526327 -0.2547228 0.12489503 -0.16280104 -0.18805656
-0.19629364 -0.100497924 0.15872297 0.15245381 -0.29099256 -0.023179771 0.05082156 -0.038221437
0.09536483 0.06587985 0.047709003 0.11541212 0.18621382 0.009178462 0.07542886 0.053706333
0.10800818 -0.12367016 0.15543747 0.16475849 -0.16690862 0.022302086 0.052883763 0.031034136
-0.03300934 0.09138838 0.17694871 0.23739013 -0.19562079 -0.067790315 0.12573521 -0.029814212
00000000: c7b3 253e 56d8 533b f4d7 143e 2299 8bbe
00000010: 9c0f 803c 8a14 ce3c cb93 393e 5448 a8bd
00000020: f561 a73d 5604 903d f93d b8bd e496 8c3e
00000030: 6eba 80be 1b5d b83c 2a9a ed3d aa66 f73d
00000040: 81a3 7e3c 27a1 8bbc 42c3 e13d 38fb 393e
00000050: 16a3 f0bb 01e4 613e c799 c93d 11fe 673e
00000060: 28af c93c 7f6e 6ebe ddb2 68be bf4b 1c3e
00000070: 076b 82be f7c8 ff3d 51b5 26be e691 40be
00000080: 3301 49be dbd1 cdbd 4688 223e da1c 1c3e
00000090: fafc 94be 81e3 bdbc 452a 503d 158e 1cbd
000000a0: a34e c33d 04ec 863d 846a 433d 315d ec3d
000000b0: d6ae 3e3e 4361 163c 727a 9a3d 2cfb 5b3d
000000c0: 6533 dd3d c846 fdbd 002b 1f3e 73b6 283e
000000d0: 18ea 2abe ddb2 b63c a59c 583d 4d3b fe3c
000000e0: cd34 07bd d529 bb3d 0b32 353e 6616 733e
000000f0: d150 48be a6d5 8abd bbc0 003e ef3c f4bc

encoder.bn.weight f4 [64]
1.0 1.0 1.0 1.0 1.0 1.0 1.0 1.0
1.0 1.0 1.0 1.0 1.0 1.0 1.0 1.0
1.0 1.0 1.0 1.0 1.0 1.0 1.0 1.0
1.0 1.0 1.0 1.0 1.0 1.0 1.0 1.0
1.0 1.0 1.0 1.0 1.0 1.0 1.0 1.0
1.0 1.0 1.0 1.0 1.0 1.0 1.0 1.0
1.0 1.0 1.0 1.0 1.0 1.0 1.0 1.0
1.0 1.0 1.0 1.0 1.0 1.0 1.0 1.0
00000000: 0000 803f 0000 803f 0000 803f 0000 803f
00000010: 0000 803f 0000 803f 0000 803f 0000 803f
00000020: 0000 803f 0000 803f 0000 803f 0000 803f
00000030: 0000 803f 0000 803f 0000 803f 0000 803f
00000040: 0000 803f 0000 803f 0000 803f 0000 803f
00000050: 0000 803f 0000 803f 0000 803f 0000 803f
00000060: 0000 803f 0000 803f 0000 803f 0000 803f
00000070: 0000 803f 0000 803f 0000 803f 0000 803f
00000080: 0000 803f 0000 803f 0000 803f 0000 803f
00000090: 0000 803f 0000 803f 0000 803f 0000 803f
000000a0: 0000 803f 0000 803f 0000 803f 0000 803f
000000b0: 0000 803f 0000 803f 0000 803f 0000 803f
000000c0: 0000 803f 0000 803f 0000 803f 0000 803f
000000d0: 0000 803f 0000 803f 0000 803f 0000 803f
000000e0: 0000 803f 0000 803f 0000 803f 0000 803f
000000f0: 0000 803f 0000 803f 0000 803f 0000 803f

encoder.bn.bias f4 [64]
0.0 0.0 0.0 0.0 0.0 0.0 0.0 0.0
0.0 0.0 0.0 0.0 0.0 0.0 0.0 0.0
0.0 0.0 0.0 0.0 0.0 0.0 0.0 0.0
0.0 0.0 0.0 0.0 0.0 0.0 0.0 0.0
0.0 0.0 0.0 0.0 0.0 0.0 0.0 0.0
0.0 0.0 0.0 0.0 0.0 0.0 0.0 0.0
0.0 0.0 0.0 0.0 0.0 0.0 0.0 0.0
0.0 0.0 0.0 0.0 0.0 0.0 0.0 0.0
00000000: 0000 0000 0000 0000 0000 0000 0000 0000
00000010: 0000 0000 0000 0000 0000 0000 0000 0000
00000020: 0000 0000 0000 0000 0000 0000 0000 0000
00000030: 0000 0000 0000 0000 0000 0000 0000 0000
00000040: 0000 0000 0000 0000 0000 0000 0000 0000
00000050: 0000 0000 0000 0000 0000 0000 0000 0000
00000060: 0000 0000 0000 0000 0000 0000 0000 0000
00000070: 0000 0000 0000 0000 0000 0000 0000 0000
00000080: 0000 0000 0000 0000 0000 0000 0000 0000
00000090: 0000 0000 0000 0000 0000 0000 0000 0000
000000a0: 0000 0000 0000 0000 0000 0000 0000 0000
000000b0: 0000 0000 0000 0000 0000 0000 0000 0000
000000c0: 0000 0000 0000 0000 0000 0000 0000 0000
000000d0: 0000 0000 0000 0000 0000 0000 0000 0000
000000e0: 0000 0000 0000 0000 0000 0000 0000 0000
000000f0: 0000 0000 0000 0000 0000 0000 0000 0000

encoder.bn.running_mean f4 [64]
0.0 0.0 0.0 0.0 0.0 0.0 0.0 0.0
0.0 0.0 0.0 0.0 0.0 0.0 0.0 0.0
0.0 0.0 0.0 0.0 0.0 0.0 0.0 0.0
0.0 0.0 0.0 0.0 0.0 0.0 0.0 0.0
0.0 0.0 0.0 0.0 0.0 0.0 0.0 0.0
0.0 0.0 0.0 0.0 0.0 0.0 0.0 0.0
0.0 0.0 0.0 0.0 0.0 0.0 0.0 0.0
0.0 0.0 0.0 0.0 0.0 0.0 0.0 0.0
00000000: 0000 0000 0000 0000 0000 0000 0000 0000
00000010: 0000 0000 0000 0000 0000 0000 0000 0000
00000020: 0000 0000 0000 0000 0000 0000 0000 0000
00000030: 0000 0000 0000 0000 0000 0000 0000 0000
00000040: 0000 0000 0000 0000 0000 0000 0000 0000
00000050: 0000 0000 0000 0000 0000 0000 0000 0000
00000060: 0000 0000 0000 0000 0000 0000 0000 0000
00000070: 0000 0000 0000 0000 0000 0000 0000 0000
00000080: 0000 0000 0000 0000 0000 0000 0000 0000
00000090: 0000 0000 0000 0000 0000 0000 0000 0000
000000a0: 0000 0000 0000 0000 0000 0000 0000 0000
000000b0: 0000 0000 0000 0000 0000 0000 0000 0000
000000c0: 0000 0000 0000 0000 0000 0000 0000 0000
000000d0: 0000 0000 0000 0000 0000 0000 0000 0000
000000e0: 0000 0000 0000 0000 0000 0000 0000 0000
000000f0: 0000 0000 0000 0000 0000 0000 0000 0000

encoder.bn.running_var f4 [64]
1.0 1.0 1.0 1.0 1.0 1.0 1.0 1.0
1.0 1.0 1.0 1.0 1.0 1.0 1.0 1.0
1.0 1.0 1.0 1.0 1.0 1.0 1.0 1.0
1.0 1.0 1.0 1.0 1.0 1.0 1.0 1.0
1.0 1.0 1.0 1.0 1.0 1.0 1.0 1.0
1.0 1.0 1.0 1.0 1.0 1.0 1.0 1.0
1.0 1.0 1.0 1.0 1.0 1.0 1.0 1.0
1.0 1.0 1.0 1.0 1.0 1.0 1.0 1.0
00000000: 0000 803f 0000 803f 0000 803f 0000 803f
00000010: 0000 803f 0000 803f 0000 803f 0000 803f
00000020: 0000 803f 0000 803f 0000 803f 0000 803f
00000030: 0000 803f 0000 803f 0000 803f 0000 803f
00000040: 0000 803f 0000 803f 0000 803f 0000 803f
00000050: 0000 803f 0000 803f 0000 803f 0000 803f
00000060: 0000 803f 0000 803f 0000 803f 0000 803f
00000070: 0000 803f 0000 803f 0000 803f 0000 803f
00000080: 0000 803f 0000 803f 0000 803f 0000 803f
00000090: 0000 803f 0000 803f 0000 803f 0000 803f
000000a0: 0000 803f 0000 803f 0000 803f 0000 803f
000000b0: 0000 803f 0000 803f 0000 803f 0000 803f
000000c0: 0000 803f 0000 803f 0000 803f 0000 803f
000000d0: 0000 803f 0000 803f 0000 803f 0000 803f
000000e0: 0000 803f 0000 803f 0000 803f 0000 803f
000000f0: 0000 803f 0000 803f 0000 803f 0000 803f

encoder.out.weight f4 [60, 64]
0.022427024 -0.11442196 0.047116846 -0.1326072 0.12156759 0.1379883 -0.23988771 -0.024937473
-0.0072291736 0.020906635 -0.059843652 0.35219637 -0.095240265 0.055660658 -0.04121759 0.03550441
-0.20793378 0.08927483 0.25244313 0.025930487 0.17141883 -0.11313087 -0.09279366 -0.40746415
0.09902803 -0.20027417 -0.070710495 0.16296284 -0.2263725 0.020851562 -0.029208595 -0.0704147
-0.06265404 -0.008219462 0.106524445 0.07754513 -0.015594356 0.08387014 0.21150975 0.04029792
-0.12742774 0.19191392 0.0009707728 0.12850986 -0.03683982 -0.14722206 0.07867699 -0.09378523
-0.030111903 -0.19810347 0.055653363 0.039758537 -0.07679658 0.0082295 0.2567509 -0.082643315
0.029520076 0.1714606 -0.08342857 0.10582265 -0.0665845 -0.088446565 0.18541168 0.12140953
-0.008695597 -0.043636773 0.07092106 0.044140894 -0.09916464 -0.030236356 0.14985561 0.07499481
0.04888635 -0.04068145 0.0655817 0.07982821 0.042926982 -0.083926044 -0.0814526 -0.06423098
0.10191364 0.09815316 -0.09395862 0.19959214 -0.12905112 -0.035548657 -0.18890637 -0.007586044
-0.037198067 -0.0066774613 -0.045620672 0.049321827 -0.072606 0.07540505 -0.0410443 -0.12614053
0.12531339 -0.015901962 0.022290425 0.07365494 -0.05556045 0.00432233 0.0057158815 0.048916794
0.106016286 -0.07345664 -0.035653494 0.025160858 -0.04949444 0.17531554 -0.09275583 -0.0254803
-0.0146364905 -0.09277694 -0.0013811339 -0.07034605 -0.03136579 -0.035989277 -0.07805547 -0.110993125
0.060317352 -0.15222137 -0.10253407 -0.11011278 -0.002798264 -0.19078797 -0.0020870296 0.10440603
0.029964488 0.101862684 0.1765654 -0.17645463 0.29080638 -0.009634155 -0.29992598 -0.24253616
0.20104754 -0.016109228 -0.14494687 0.18308802 -0.1902968 0.16654165 0.01009721 0.23312823
-0.33072814 0.030615205 0.32651505 0.17935272 0.09795868 -0.175722 -0.075363524 -0.14957641
0.121170856 -0.1584545 -0.16092959 0.22482567 -0.24453169 -0.012747628 -0.10719581 -0.18333672
-0.14541297 -0.05299431 0.29572836 0.23631093 -0.20920089 -0.07008941 0.25428772 -0.039891906
-0.17615119 0.2039851 0.02683679 0.06529431 0.21781829 -0.22639123 0.19020995 -0.21450852
-0.107326396 -0.19521855 0.10250053 0.08369188 -0.11450902 0.24351901 0.23587847 0.062401872
0.043631632 0.090996005 -0.18957783 -0.07815006 -0.044570837 -0.15608053 0.32031697 0.117344536
0.037308987 -0.044418007 0.23714878 -0.24201347 0.26156393 -0.04913763 -0.38528147 -0.31014797
0.033587325 -0.036264494 -0.03035923 0.4003157 -0.22704302 0.26603904 0.027077872 0.2618741
-0.25942528 0.113982975 0.20677479 0.18928388 0.22886363 -0.40763488 -0.11101876 -0.35661298
0.022604771 -0.105849825 -0.08527386 0.21661414 -0.08638971 0.19241565 -0.033642843 -0.038881168
-0.1933742 -0.018430598 0.30161607 0.19224589 -0.12605064 -0.0062831948 0.12446606 -0.16883698
-0.11944067 0.31530282 0.16964297 -0.082381606 0.009337118 -0.12522306 0.23514794 -0.15455343
-0.101988815 -0.037414033 0.04316763 0.24469513 -0.19524066 0.13392359 0.21622464 -0.04074327
-0.023363095 0.19462231 -0.109829046 0.08668421 -0.2510467 -0.15397409 0.16739076 -0.074739635
00000000: e1b8 b73c 1056 eabd 98fd 403d 2fca 07be
00000010: 6ef8 f83d ce4c 0d3e 20a5 75be ac49 ccbc
00000020: b4e2 ecbb 6444 ab3c 9e1e 75bd 1553 b43e
00000030: 540d c3bd 6efc 633d c7d3 28bd 126d 113d
00000040: 98ec 54be b9d5 b63d 3a40 813e 2c6c d43c
00000050: 6b88 2f3e 28b1 e7bd 9a0a bebd 249f d0be
00000060: 35cf ca3d ac14 4dbe aad0 90bd bbdf 263e
00000070: 31ce 67be e5d0 aa3c dd46 efbc 9535 90bd
00000080: c350 80bd ecaa 06bc 7d29 da3d fbcf 9e3d
00000090: 787f 7fbc 1cc4 ab3d 0396 583e 6f0f 253d
000000a0: 6b7c 02be 1585 443e 767b 7e3a 1798 033e
000000b0: 5ae5 16bd 61c1 16be 6721 a13d 7812 c0bd
000000c0: 3dad f6bc a3db 4abe c8f4 633d d9d9 223d
000000d0: 8647 9dbd 06d5 063c db74 833e e640 a9bd
000000e0: 16d4 f13c 5e93 2f3e 99dc aabd 8cb9 d83d
000000f0: 745d 88bd 7923 b5bd 8fdc 3d3e 8fa5 f83d
00000100: fa77 0ebc 79bc 32bd 103f 913d 15cd 343d
00000110: d516 cbbd 3cb2 f7bc c073 193e e196 993d
00000120: 0e3d 483d 98a1 26bd b34f 863d f97c a33d
00000130: 34d4 2f3d 6be1 abbd 9fd0 a6bd 888b 83bd
00000140: 19b8 d03d 8604 c93d 616d c0bd e261 4c3e
00000150: fa25 04be 789b 11bd ac70 41be 5994 f8bb
00000160: 005d 18bd 9bce dabb bedc 3abd af05 4a3d
00000170: 74b2 94bd f66d 9a3d 111e 28bd fc2a 01be
00000180: 2752 003e d544 82bc 699a b63c 67d8 963d
00000190: 5b93 63bd 55a2 8d3b 4a4c bb3b fa5c 483d
000001a0: 111f d93d 6f70 96bd 6609 12bd 251e ce3c
000001b0: afba 4abd eb85 333e c5f6 bdbd 10bc d0bc
000001c0: e4cd 6fbc d601 bebd 2a07 b5ba 9711 90bd
000001d0: 6a79 00bd 7e69 13bd 8cdb 9fbd 5d50 e3bd
000001e0: 540f 773d ebdf 1bbe 62fd d1bd cf82 e1bd
000001f0: 1463 37bb ec5d 43be 8cc6 08bb d4d2 d53d
00000200: 1678 f53c 629d d03d 8fcd 343e 86b0 34be
00000210: 93e4 943e 93d8 1dbc e68f 99be 665b 78be
00000220: 68df 4d3e 80f7 83bc f46c 14be 6d7b 3b3e
00000230: 2add 42be e589 2a3e c56e 253c 2bb9 6e3e
00000240: 3355 a9be bdcc fa3c fb2c a73e 3da8 373e
00000250: 8f9e c83d 78f0 33be 3158 9abd 8f2a 19be
00000260: 6d28 f83d e541 22be baca 24be b338 663e
00000270: 8466 7abe 6ddb 50bc 7a89 dbbd 9fbc 3bbe
00000280: 23e7 14be 9010 59bd b569 973e 7efb 713e
00000290: c238 56be 098b 8fbd 0032 823e b265 23bd
000002a0: fa60 34be 78e1 503e d4d8 db3c 06b9 853d
000002b0: c20b 5f3e 1ad3 67be 66c6 423e 1fa8 5bbe
000002c0: f1cd dbbd 5fe7 47be cceb d13d a666 ab3d
000002d0: b483 eabd 0c5d 793e 208a 713e 1b99 7f3d
000002e0: 15b7 323d 1d5c ba3d b120 42be 230d a0bd
000002f0: e98f 36bd 93d3 1fbe 9600 a43e 5552 f03d
00000300: 4fd1 183d a8ef 35bd 21d7 723e 61d2 77be
00000310: b5eb 853e 8a44 49bd 9d43 c5be b7cb 9ebe
00000320: dd92 093d 148a 14bd ebb3 f8bc 2ef6 cc3e
00000330: f77d 68be 4536 883e 6ad2 dd3c 5d14 863e
00000340: 64d3 84be e86f e93d c5bc 533e a2d3 413e
00000350: 3a5b 6a3e 85b5 d0be ce5d e3bd fa95 b6be
00000360: a42d b93c cbc7 d8bd 10a4 aebd 19d0 5d3e
00000370: 17ed b0bd 9c08 453e 14cd 09bd dc41 1fbd
00000380: e303 46be c4fb 96bc 6c6d 9a3e 1bdc 443e
00000390: 6b13 01be 42e3 cdbb 10e8 fe3d 9ae3 2cbe
000003a0: 4f9d f4bd 5f6f a13e e3b6 2d3e b0b7 a8bd
000003b0: b6fa 183c 793a 00be 9fca 703e 4143 1ebe
000003c0: 83df d0bd 753f 19bd 8ad0 303d 5c91 7a3e
000003d0: 2bed 47be 4423 093e fe69 5d3e 6ae2 26bd
000003e0: f663 bfbc 124b 473e 0dee e0bd 7e87 b13d
000003f0: 3189 80be 62ab 1dbe 7c68 2b3e 1811 99bd

encoder.out.bias f4 [60]
0.17211726 -0.095285654 0.16317375 0.26847515 -0.18594618 -0.13460945 -0.19585127 0.08854968
0.14276482 0.035046253 0.1766336 0.08083536 -0.11552368 -0.05231816 -0.009770608 -0.23639862
-0.20442903 -0.23894958 -0.045565553 -0.07109993 0.10871856 0.01899057 0.043788437 -0.04290246
-0.07217798 -0.032220114 -0.10652357 -0.11941599 -0.09498685 0.17429815 0.01827063 0.0142923985
-0.2550388 -0.16901623 -0.009517969 -0.118726626 -0.10792892 -0.22548762 -0.16127768 -0.028989784
-0.0317104 -0.19071639 -0.25790846 -0.19034426 -0.058408834 -0.09887337 -0.08214659 0.006145128
-0.119526416 -0.33693668 0.043351293 -0.34718114 -0.03583841 -0.13356091 0.109660864 0.017945355
0.17488162 0.13329436 0.070410535 0.08841526
00000000: 823f 303e 2025 c3bd 0517 273e 9375 893e
00000010: ad68 3ebe 0fd7 09be 3c8d 48be 8959 b53d
00000020: f130 123e a98c 0f3d 70df 343e 028d a53d
00000030: ae97 ecbd 914b 56bd e614 20bc 7b12 72be
00000040: d855 51be 33af 74be f2a2 3abd d79c 91bd
00000050: d6a7 de3d 1d92 9b3c 815b 333d 7dba 2fbd
00000060: 0cd2 93bd 3df9 03bd 0829 dabd 5f90 f4bd
00000070: 7788 c2bd 377b 323e 4aac 953c aa2a 6a3c
00000080: 7294 82be 9712 2dbe 41f1 1bbc f226 f3bd
00000090: d609 ddbd 3ae6 66be fa25 25be fc7b edbc
000000a0: c4e2 01bd 284b 43be 940c 84be 9be9 42be
000000b0: 1a3e 6fbd 1f7e cabd 793c a8bd 125d c93b
000000c0: 44ca f4bd f782 acbe 2091 313d bac1 b1be
000000d0: 4ccb 12bd 31c4 08be e095 e03d 2302 933c
000000e0: 2b14 333e 517e 083e 6633 903d 0f13 b53d

encoder.net.0.weight f4 [64, 97]
-0.010022949 0.19672988 0.060477864 -0.07794274 -0.02183748 0.20070662 0.2338643 0.22861351
0.100984134 0.18145385 0.16082515 0.0122060655 0.18944582 0.08447997 0.0026679402 -0.028082918
0.12490732 0.10414934 0.045675587 0.16941066 0.1198367 -0.1166988 0.15083541 0.11228811
0.022286521 -0.048163526 0.09192918 -0.015799325 0.21303485 -0.0039778864 0.20469931 0.1693402
0.09566645 0.022055687 0.16143483 0.106174886 0.18633284 0.24813895 0.18763055 0.26618624
0.002399312 0.093298756 0.011542554 0.048505425 0.0646877 0.16997245 0.124914214 0.08287178
0.2770121 0.18147796 0.13411365 -0.03995488 0.20623133 0.00934725 0.14596468 -0.0010822627
-0.0055555273 0.048940543 0.022669422 0.018994266 0.045419738 0.027637258 -0.06467519 0.004929465
-0.023541914 0.0017045282 -0.027089488 -0.01804454 0.0087173665 0.019461352 -0.038081788 0.0064163026
-0.108087435 0.0032356782 0.03825479 0.016841596 -0.07763101 -0.0070548886 0.016171072 0.16944969
0.02740064 0.034077853 0.04315313 -0.16094051 0.021249963 0.045455966 0.012451124 0.020997405
-0.009721787 -0.046755463 0.011087154 -0.005659962 0.240615 -0.020795928 0.045743383 -0.24861754
-0.28686237 0.06391387 0.13820747 0.1830055 -0.0477298 0.048245788 -0.0021285366 0.15393604
0.07520753 0.042466618 0.14330903 0.03979451 -0.0076159406 0.07125492 0.05591841 0.0095107155
0.060509898 0.13123995 0.08654037 0.10972894 0.041933604 0.09733191 0.010542183 -0.024988996
0.059568144 -0.010828793 0.08955714 0.087964654 -0.018324405 -0.04382691 0.0070065223 0.03270907
0.11450542 0.119202234 -0.00556012 0.12335741 0.08664468 0.1492538 0.05803111 0.14651181
0.14851087 -0.0014847906 0.09074638 0.061182223 -0.010426207 -0.025030194 -0.015832586 0.15726882
0.072279215 0.10588944 0.1169742 0.060796417 0.0009861307 -0.022623286 0.0052362243 0.13781527
0.0009721339 -0.02126242 -0.015879847 -0.009158337 -0.013907641 -0.02601528 -0.012258731 0.014106322
-0.015052753 -0.009885245 -0.026038684 0.011944524 -0.019812683 -0.006848997 -0.013151293 -0.0076256096
-0.020159274 0.013756247 -0.009220398 -0.010894624 -0.006849031 -0.020316923 -0.0015447563 -0.020937469
0.092861906 -0.0065761805 -0.01543611 -0.010517166 0.03708137 -0.012266661 -0.0067263874 -0.014431768
-0.012155257 -0.035089023 0.0070093223 -0.02565622 -0.026869277 0.1450596 -0.026220372 -0.02558895
0.36692843 -0.20546696 -0.0538864 0.1260922 -0.10449666 -0.1473197 -0.044049963 -0.10411123
0.17834505 0.09947716 0.06207409 0.034631044 0.15459107 -0.0024339193 0.047868293 -0.0017641868
0.0023484437 0.06667136 0.015380592 0.030397607 -0.010641845 -0.06993641 0.022579065 -0.07577963
0.17149685 0.02783229 -0.006459457 -0.089611955 0.088114984 0.022146825 -0.06911317 -0.02796304
0.15609793 0.048036404 0.010756436 -0.0036913082 0.1349282 0.07640314 -0.02541438 0.19163722
-0.03075347 0.029826077 0.017616155 0.053650085 -0.00631465 0.015322853 0.04643306 0.00067568896
0.08846424 0.07830282 0.19001642 0.16279593 0.018085845 -0.0032957254 0.20631984 0.026797557
0.1747346 -0.02165345 0.025524573 -0.018337373 -0.0070800874 0.0058064903 0.0035026951 -0.013277002
00000000: 4c37 24bc 8f73 493e a3b7 773d 71a0 9fbd
00000010: 84e4 b2bc 0986 4d3e 207a 6f3e a919 6a3e
00000020: c5d0 ce3d 0acf 393e 59af 243e f3fb 473c
00000030: 16fe 413e d603 ad3d 9cd8 2e3b 260e e6bc
00000040: 69cf ff3d 404c d53d 5316 3b3d fd79 2d3e
00000050: f26c f53d c8ff eebd 9974 1a3e 4ff7 e53d
00000060: 3992 b63c 1e47 45bd 5e45 bc3d 966d 81bc
00000070: cf25 5a3e ee58 82bb b29c 513e 8467 2d3e
00000080: c6ec c33d 21ae b43c 2c4f 253e 3872 d93d
00000090: 09ce 3e3e 2318 7e3e 3922 403e 9049 883e
000000a0: c73d 1d3b 6b13 bf3d fb1c 3d3c a0ad 463d
000000b0: fc7a 843d 420d 2e3e 06d3 ff3d aeb8 a93d
000000c0: 88d4 8d3e 5cd5 393e 1755 093e baa7 23bd
000000d0: 4e2e 533e 3525 193c c477 153e b6da 8dba
000000e0: 240b b6bb e175 483d 39b5 b93c dd99 9b3c
000000f0: 0c0a 3a3d 8867 e23c 6d74 84bd 5987 a13b
00000100: f9da c0bc 7a6a df3a c6ea ddbc 25d2 93bc
00000110: 49d3 0e3c 6a6d 9f3c a6fb 1bbd d93f d23b
00000120: f25c ddbd ac0d 543b 0eb1 1c3d 63f7 893c
00000130: 02fd 9ebd b22c e7bb 3279 843c 3884 2d3e
00000140: 4f77 e03c 3895 0b3d 56c1 303d 97cd 24be
00000150: 6714 ae3c 0930 3a3d cdff 4b3c c002 ac3c
00000160: 2148 1fbc a882 3fbd e5a6 353c 3477 b9bb
00000170: c763 763e 395c aabc 6a5d 3b3d 9995 7ebe
00000180: a0df 92be 46e5 823d 4286 0d3e cb65 3b3e
00000190: 5380 43bd 609d 453d eb7e 0bbb 69a1 1d3e
000001a0: 6806 9a3d 7af1 2d3d 9abf 123e 91ff 223d
000001b0: 248f f9bb 19ee 913d b40a 653d d5d2 1b3c
000001c0: 3ad9 773d c463 063e 143c b13d 91b9 e03d
000001d0: 92c2 2b3d f455 c73d 1fb9 2c3c b9b5 ccbc
000001e0: bafd 733d 406b 31bc bc69 b73d d026 b43d
000001f0: 101d 96bc d983 33bd f896 e53b f2f9 053d
00000200: d181 ea3d 4d20 f43d ab31 b6bb cfa2 fc3d
00000210: c472 b13d fdd5 183e 07b2 6d3d 3107 163e
00000220: 3c13 183e 4e9d c2ba 3dd9 b93d 369a 7a3d
00000230: afd2 2abc 1f0c cdbc 57b3 81bc 140b 213e
00000240: 2007 943d 90dc d83d 2b90 ef3d aa05 793d
00000250: 0e41 813a 7854 b9bc a294 ab3b 721f 0d3e
00000260: cdd6 7e3a 872e aebc 7416 82bc d90c 16bc
00000270: e0dc 63bc ff1d d5bc d8d8 48bc 341e 673c
00000280: d29f 76bc b9f5 21bc 144f d5bc f7b2 433c
00000290: 354e a2bc 8d6d e0bb 8578 57bc 40e0 f9bb
000002a0: 1025 a5bc e261 613c 2711 17bc 5d7f 32bc
000002b0: d66d e0bb ad6f a6bc 6c79 caba 0e85 abbc
000002c0: 622e be3d 007d d7bb bde7 7cbc 3150 2cbc
000002d0: a2e2 173d 1bfa 48bc 0769 dcbb 3973 6cbc
000002e0: d826 47bc 82b9 0fbd 75ae e53b fe2c d2bc
000002f0: f51c dcbc 818a 143e 1bcc d6bc eb9f d1bc
00000300: 0bde bb3e ee65 52be fcb7 5cbd 501e 013e
00000310: 5802 d6bd fada 16be bc6d 34bd 4538 d5bd
00000320: 16a0 363e aeba cb3d 6741 7e3d 48d9 0d3d
00000330: 1f4d 1e3e 6482 1fbb 8b11 443d 493c e7ba
00000340: 59e8 193b fe8a 883d e1fe 7b3c 6704 f93c
00000350: 225b 2ebc d23a 8fbd bbf7 b83c 5a32 9bbd
00000360: df9c 2f3e 8b00 e43c daa9 d3bb 7986 b7bd
00000370: a175 b43d 426d b53c 358b 8dbd bf12 e5bc
00000380: 23d8 1f3e d2c1 443d c33b 303c e0e9 71bb
00000390: 9e2a 0a3e 4079 9c3d d131 d0bc 8c3c 443e
000003a0: b3ee fbbc d155 f43c c14f 903c 31c0 5b3d
000003b0: 20eb cebb b40c 7b3c 9830 3e3d b820 313a
000003c0: bd2c b53d 3b5d a03d aa93 423e fab3 263e
000003d0: c428 943c 19fd 57bb 8245 533e 8d86 db3c
000003e0: a1ed 323e 9362 b1bc e918 d13c 4238 96bc
000003f0: 1400 e8bb 5f44 be3b 798d 653b c887 59bc

encoder.net.0.bias f4 [64]
0.16181861 0.0032324991 0.14535505 -0.2726527 0.015632443 0.025156278 0.18122785 -0.082169205
0.08172981 0.07032077 -0.08996195 0.2745887 -0.25142235 0.022505334 0.1160167 0.120801285
0.015541912 -0.017044617 0.110235706 0.18162239 -0.00734366 0.22059633 0.09843784 0.22655512
0.024619654 -0.23284338 -0.22724481 0.1526327 -0.2547228 0.12489503 -0.16280104 -0.18805656
-0.19629364 -0.100497924 0.15872297 0.15245381 -0.29099256 -0.023179771 0.05082156 -0.038221437
0.09536483 0.06587985 0.047709003 0.11541212 0.18621382 0.009178462 0.07542886 0.053706333
0.10800818 -0.12367016 0.15543747 0.16475849 -0.16690862 0.022302086 0.052883763 0.031034136
-0.03300934 0.09138838 0.17694871 0.23739013 -0.19562079 -0.067790315 0.12573521 -0.029814212
00000000: c7b3 253e 56d8 533b f4d7 143e 2299 8bbe
00000010: 9c0f 803c 8a14 ce3c cb93 393e 5448 a8bd
00000020: f561 a73d 5604 903d f93d b8bd e496 8c3e
00000030: 6eba 80be 1b5d b83c 2a9a ed3d aa66 f73d
00000040: 81a3 7e3c 27a1 8bbc 42c3 e13d 38fb 393e
00000050: 16a3 f0bb 01e4 613e c799 c93d 11fe 673e
00000060: 28af c93c 7f6e 6ebe ddb2 68be bf4b 1c3e
00000070: 076b 82be f7c8 ff3d 51b5 26be e691 40be
00000080: 3301 49be dbd1 cdbd 4688 223e da1c 1c3e
00000090: fafc 94be 81e3 bdbc 452a 503d 158e 1cbd
000000a0: a34e c33d 04ec 863d 846a 433d 315d ec3d
000000b0: d6ae 3e3e 4361 163c 727a 9a3d 2cfb 5b3d
000000c0: 6533 dd3d c846 fdbd 002b 1f3e 73b6 283e
000000d0: 18ea 2abe ddb2 b63c a59c 583d 4d3b fe3c
000000e0: cd34 07bd d529 bb3d 0b32 353e 6616 733e
000000f0: d150 48be a6d5 8abd bbc0 003e ef3c f4bc

decoder.fc.weight f4 [64, 30]
-0.08436852 0.028678287 -0.23235697 -0.23905048 -0.28019124 0.21345995 -0.21542749 -0.17662682
-0.124125294 0.042176254 -0.13746093 -0.16979982 -0.19544806 -0.08638772 0.18353136 0.32369202
-0.17605045 0.04360934 -0.22921857 0.08457386 -0.07656871 -0.32470137 0.24184862 -0.17623065
-0.2003237 -0.19872491 0.14748733 0.0712342 -0.26442096 -0.065243505 0.057665616 -0.050396506
0.019016217 0.17896257 0.10615901 -0.012305069 -0.06258943 -0.11106433 0.07726655 0.0033159174
-0.13685307 -0.10237716 -0.2787482 -0.100084275 0.11528687 0.23134303 0.17652811 0.09006415
-0.08058435 0.054821834 0.17898543 -0.118761346 0.17422086 -0.030305402 -0.088630944 -0.034975022
0.05615218 0.083333 0.20184937 -0.21657905 -0.24199526 0.05440673 -0.067408636 0.074368834
0.14739393 -0.11389676 0.11569264 0.054359812 0.18910934 0.123465106 -0.13777189 -0.0081867855
-0.093833886 0.19465894 0.11012215 -0.13531686 -0.15644696 0.0052820384 -0.17192455 -0.46329418
0.062209506 -0.250919 -0.19390339 -0.31305134 -0.08480042 -0.24204223 -0.13137272 0.09575329
-0.15761033 0.16514699 -0.20327821 -0.05167624 -0.024070181 -0.24999532 -0.050974976 -0.0035872196
0.11537215 -0.005194629 -0.083056286 -0.19430201 -0.20536965 -0.059408195 0.13692278 -0.08651941
0.08869349 -0.118481606 0.37615356 -0.19289628 0.12491375 -0.04262864 -0.2603434 0.16812086
0.20904328 0.2874476 -0.18442729 0.13046774 0.16716939 -0.20487693 0.16851972 0.11502662
-0.06975803 0.342924 -0.19776995 -0.226452 -0.28178757 0.052046552 -0.14334428 -0.24650162
0.08439041 -0.10631657 -0.1746023 0.31045246 -0.064221285 0.12252385 0.034286644 -0.23559235
-0.22994082 -0.3511642 0.15409325 0.2890091 -0.1438852 0.42981085 0.16208318 -0.17957169
0.28939602 -0.15970759 0.20688008 0.234033 -0.4461714 0.018805921 0.081361 -0.06484302
0.066399336 -0.1158679 0.15543887 -0.13813916 0.1288464 0.08048525 -0.046632044 0.19439897
0.011198853 0.13698603 0.11664336 -0.09901514 0.0021870204 0.26489848 0.1621151 -0.12180203
0.09395224 0.36634362 -0.044182256 0.15469469 -0.16205709 -0.08844141 0.31206408 0.15034118
0.14380427 0.31012726 0.13644966 -0.080414295 0.07735928 -0.0853665 0.026873175 0.21830878
-0.0223521 0.012439768 -0.075055055 0.0029568707 -0.10242991 0.10000829 0.04850857 0.018608991
-0.37682295 -0.27713844 0.2429648 0.20056267 0.26450175 -0.14176524 0.015486413 0.2612851
0.17379084 0.33633178 -0.0036864844 -0.17650303 -0.19857703 -0.061990783 -0.03596907 -0.011066655
0.0242048 0.13419439 -0.10643089 0.063468955 0.28639874 0.12605998 0.118911564 0.032169703
-0.0874003 0.1565434 0.08824653 -0.031218847 0.060335156 -0.06541753 -0.006863188 0.06814758
-0.057003453 -0.16391024 -0.10805241 -0.0758733 0.12706365 -0.43321803 0.122702226 -0.32285678
0.19717115 -0.2000031 0.06879123 0.09053706 -0.21112446 0.20186788 0.06277453 0.05142591
-0.048195925 0.077838585 -0.18775846 -0.12514168 -0.12517168 0.12680458 -0.016666383 0.06698891
-0.013536195 0.16533728 -0.18017578 0.0935319 0.13319618 -0.10284352 -0.110769704 0.008608993
00000000: 67c9 acbd baee ea3c fcee 6dbe a6c9 74be
00000010: 3a75 8fbe 3f95 5a3e 0699 5cbe a9dd 34be
00000020: 6735 febd 02c1 2c3d 8fc2 0cbe 01e0 2dbe
00000030: 8923 48be 0cec b0bd a5ef 3b3e f6ba a53e
00000040: 9246 34be b59f 323d 46b8 6abe 0f35 ad3d
00000050: 0ed0 9cbd 423f a6be 2aa7 773e cf75 34be
00000060: a821 4dbe 8b7e 4bbe eb06 173e 3ce3 913d
00000070: 2f62 87be 639e 85bd c832 6c3d 916c 4ebd
00000080: e6c7 9b3c f741 373e e569 d93d 339b 49bc
00000090: e32e 80bd b275 e3bd ed3d 9e3d dd4f 593b
000000a0: 3623 0cbe 1eab d1bd 16b8 8ebe fcf8 ccbd
000000b0: 861b ec3d 30e5 6c3e c9c3 343e 8e73 b83d
000000c0: 6809 a5bd dc8c 603d f547 373e 2639 f3bd
000000d0: f466 323e 0943 f8bc 2484 b5bd f841 0fbd
000000e0: d4ff 653d 7eaa aa3d 9ab1 4e3e e6c6 5dbe
000000f0: 9bcd 77be 97d9 5e3d 8a0d 8abd b04e 983d
00000100: 6fee 163e b442 e9bd 43f0 ec3d 65a8 5e3d
00000110: e1a5 413e 46db fc3d 1314 0dbe de21 06bc
00000120: fb2b c0bd ac54 473e b987 e13d 8190 0abe
00000130: a233 20be f314 ad3b fd0c 30be e534 edbe
00000140: 65cf 7e3d 7578 80be 9c8e 46be 4448 a0be
00000150: d8ab adbd ebd9 77be 9286 06be 4d1a c43d
00000160: 9a64 21be 4b1c 293e 2a28 50be 77aa 53bd
00000170: d42e c5bc c6fe 7fbe 23cb 50bd 8f17 6bbb
00000180: 3c48 ec3d b537 aabb 6a19 aabd 1bf7 46be
00000190: 6c4c 52be 0256 73bd 7c35 0c3e 1731 b1bd
000001a0: efa4 b53d 7ca6 f2bd 3397 c03e 9a86 45be
000001b0: c8d2 ff3d 5e9b 2ebd bb4b 85be e027 2c3e
000001c0: 710f 563e 552c 933e 82da 3cbe 5699 053e
000001d0: 742e 2b3e 42cb 51be 6f90 2c3e 1493 eb3d
000001e0: 4cdd 8ebd bc93 af3e 3584 4abe 08e3 67be
000001f0: 7646 90be c42e 553d d8c8 12be ec6a 7cbe
00000200: e1d4 ac3d 80bc d9bd f2ca 32be a0f3 9e3e
00000210: 7386 83bd c9ed fa3d 2770 0c3d 1f3f 71be
00000220: 9b75 6bbe cbcb b3be 9fca 1d3e 00f9 933e
00000230: a456 13be 2b10 dc3e 22f9 253e a4e1 37be
00000240: b72b 943e 638a 23be 5fd8 533e 59a6 6f3e
00000250: 9470 e4be e00e 9a3c 99a0 a63d 6bcc 84bd
00000260: 60fc 873d 264c edbd 5e2b 1f3e 5a74 0dbe
00000270: 50f0 033e 73d5 a43d 3e01 3fbd 8610 473e
00000280: 657b 373c 1146 0c3e b7e2 ee3d 73c8 cabd
00000290: 1d54 0f3b c6a0 873e 8001 263e 5873 f9bd
000002a0: 086a c03d 6491 bb3e 74f8 34bd 4968 1e3e
000002b0: 4bf2 25be c520 b5bd ddc6 9f3e 0af3 193e
000002c0: 6d41 133e 00c9 9e3e 76b9 0b3e 40b0 a4bd
000002d0: 8b6e 9e3d a2d4 aebd 2225 dc3c 568c 5f3e
000002e0: c01b b7bc 2bd0 4b3c 77b6 99bd 0fc8 413b
000002f0: c6c6 d1bd 25d1 cc3d ecb0 463d e271 983c
00000300: f0ee c0be 17e5 8dbe c4cb 783e 4d60 4d3e
00000310: c66c 873e e82a 11be b9ba 7d3c 29c7 853e
00000320: 3af6 313e ae33 ac3e f298 71bb 36bd 34be
00000330: c757 4bbe 0cea 7dbd 4e54 13bd ea50 35bc
00000340: 2549 c63c 416a 093e 70f8 d9bd 03fc 813d
00000350: dba2 923e de15 013e e887 f33d 61c4 033d
00000360: eefe b2bd ea4c 203e 99ba b43d abbe ffbc
00000370: ff21 773d a0f9 85bd 98e4 e0bb f590 8b3d
00000380: 747c 69bd 16d8 27be 954a ddbd 7663 9bbd
00000390: f91c 023e c1ce ddbe 4e4b fb3d 7c4d a5be
000003a0: 3ce7 493e 9dcd 4cbe 6be2 8c3d 7e6b b93d
000003b0: 0331 58be 74b6 4e3e ef8f 803d faa3 523d
000003c0: 1769 45bd d669 9f3d c143 40be 2425 00be
000003d0: 012d 00be 0fd9 013e f087 88bc 7b31 893d
000003e0: ebc6 5dbc 2d4e 293e 0080 38be a78d bf3d
000003f0: 9464 083e a09f d2bd 3adb e2bd bc0c 0d3c

decoder.fc.bias f4 [64]
0.23674168 -0.11146579 0.2564734 0.08743028 0.32550463 0.1158376 0.05017272 0.43522456
0.3497844 0.15649359 0.03349643 0.23631391 0.18504666 0.34121028 -0.09796199 0.2531051
0.31243306 0.2802067 0.097200945 0.0069231926 0.004871434 0.08709919 0.15893872 0.39700565
0.088015676 0.049451787 0.5340468 0.26338696 -0.09633808 0.365534 0.25280395 -0.039858017
0.34258914 0.043224122 0.01664095 0.36357298 0.3630061 0.26631868 0.38421187 0.21537264
0.22238347 0.22095358 0.43559322 -0.07697159 0.16210261 0.20086096 0.015563784 0.058587532
0.36161432 0.3450149 0.3943085 0.2850249 0.35158655 0.43784505 0.39011484 0.07682826
0.10146497 0.048319615 0.31710604 0.16427381 -0.116768375 0.46790543 0.430926 0.086664476
00000000: 696c 723e 2d48 e4bd 7b50 833e a60e b33d
00000010: 8ba8 a63e 433c ed3d e981 4d3d c1d5 de3e
00000020: f116 b33e db3f 203e 8d33 093d 46fc 713e
00000030: df7c 3d3e 1db3 ae3e 4ca0 c8bd fe96 813e
00000040: 3af7 9f3e 4177 8f3e 4a11 c73d f3db e23b
00000050: 8da0 9f3b 0f61 b23d d5c0 223e 5344 cb3e
00000060: 9041 b43d f58d 4a3d 4bb7 083f a8da 863e
00000070: e64c c5bd 4627 bb3e 856f 813e 2942 23bd
00000080: d867 af3e c70b 313d 9a52 883c 3d26 ba3e
00000090: efdb b93e ec5a 883e 6bb7 c43e a58a 5c3e
000000a0: 7eb8 633e a841 623e 1306 df3e 48a3 9dbd
000000b0: 3afe 253e 7fae 4d3e 3eff 7e3c 7bf9 6f3d
000000c0: 8325 b93e cba5 b03e cee2 c93e c9ee 913e
000000d0: 2703 b43e 3a2d e03e 22bd c73e 2358 9d3d
000000e0: decc cf3d caea 453d b95b a23e 6537 283e
000000f0: 4224 efbd 4d91 ef3e 55a2 dc3e 257d b13d

decoder.out.weight f4 [96, 64]
-0.11387518 -0.20917366 -0.27385783 -0.09527678 0.13286743 0.229816 -0.13957408 -0.10405105
0.119189024 -0.05511666 0.032353878 -0.071955435 0.013148555 0.07450399 -0.12667423 -0.06345126
-0.1567922 0.24748382 -0.059732765 0.13349412 -0.058290344 0.005202437 0.100473344 0.024457654
-0.0171961 -0.13961929 -0.002356869 0.083201066 -0.3756964 -0.10135245 -0.024567176 -0.06828227
0.049512044 -0.04179063 -0.00036796628 -0.0048446036 -0.0026451566 0.066358134 0.036730237 0.14876987
-0.15310493 0.12125883 0.038847953 0.075322434 -0.02580336 0.082676336 -0.13448541 0.07989826
0.13291316 -0.060840767 0.069727875 -0.12764078 -0.24139543 0.14984365 -0.018305184 -0.09493708
0.18315312 0.10696339 0.14755504 0.08942998 -0.15784599 0.06930542 0.02684243 -0.027889391
0.019200686 0.19192445 0.1371246 0.02297444 -0.10995595 -0.005293064 0.01745088 0.000994415
0.016772205 0.07042462 -0.018794391 -0.026220134 -0.11824024 -0.048532587 0.064515986 0.06524197
0.046770047 0.0076950905 -0.12972371 0.1059625 0.078402415 0.054986965 0.08442821 -0.034160078
0.031355754 -0.056567345 0.020208107 -0.06759941 0.05252138 0.0028549111 -0.03788923 0.09410918
-0.08540045 0.081982665 0.02719576 -0.037692204 0.06113826 -0.0018119484 -0.07478681 0.06277312
0.0018738138 0.04503045 -0.027767643 0.13442205 0.0296857 -0.13533272 -0.09111147 0.22627364
0.06186236 -0.034439683 -0.07519398 -0.004958305 -0.080325216 0.035447516 -0.10211314 0.097048156
0.07968403 0.11651196 -0.01760002 -0.034593854 0.014417508 0.03129974 -0.05840548 0.06895055
0.31703457 0.10012663 0.022680381 0.12172492 0.21386999 0.0033615276 -0.010895714 -0.08772271
0.06477368 -0.07997199 0.13110456 -0.30552095 -0.10218969 -0.074734226 -0.12707071 -0.02772964
0.05639779 0.006082613 0.0030854568 0.1880499 -0.15764767 0.11466634 -0.15160945 0.121305995
0.20000295 -0.29376736 -0.23914865 -0.15762667 0.01854103 0.03218419 0.22039726 -0.07802213
-0.07204169 0.023315296 0.18905926 0.20738171 -0.08455471 -0.0042109527 0.0029638137 -0.17288612
-0.050657902 0.09591457 0.11672571 -0.045895103 0.43595794 -0.14516173 -0.042777516 0.038965326
-0.2510078 -0.20128253 0.086980164 -0.81172025 -0.07003443 0.074443 -0.092896566 -0.12752983
-0.21733712 0.12925406 0.12910005 0.027012542 0.07960131 -0.016022133 -0.052339755 -0.099465996
-0.06520031 -0.019445203 -0.14385797 0.08323654 0.020812912 0.01722486 -0.1528845 -0.051658466
-0.08464142 -0.058497366 0.00872747 0.030659141 0.005922641 -0.049754485 -0.063534796 -0.046621595
-0.060118366 -0.081491835 0.02788084 0.04633352 0.13843809 -0.027630081 0.013493678 -0.040043812
0.031655516 -0.07975779 0.08602327 -0.06665591 -0.0350576 -0.031695597 -0.03279321 -0.025253084
-0.050779544 -0.018479621 -0.015922235 -0.16373041 -0.100695804 0.034530062 -0.14102185 -0.08983478
-0.1425744 0.020766001 0.054925658 -0.020540003 0.0019199299 -0.021488683 0.0004936255 0.07203585
-0.07297796 -0.027301064 -0.024404798 -0.024832712 -0.21976633 -0.08030688 -0.04063793 -0.08207091
-0.020364879 -0.05506801 -0.064309165 -0.109820314 -0.1153856 0.0039466913 -0.06927248 0.0044282973
00000000: 6437 e9bd 9f31 56be 1837 8cbe 7920 c3bd
00000010: 660e 083e e354 6b3e 82ec 0ebe b818 d5bd
00000020: 6019 f43d 02c2 61bd 8085 043d 5f5d 93bd
00000030: 096d 573c 8c95 983d e4b6 01be bcf2 81bd
00000040: 228e 20be 666c 7d3e 58aa 74bd afb2 083e
00000050: dbc1 6ebd 3479 aa3b f8c4 cd3d 6b5b c83c
00000060: d6de 8cbc 5cf8 0ebe b375 1abb 5265 aa3d
00000070: 475b c0be e091 cfbd 1a41 c9bc 93d7 8bbd
00000080: 24cd 4a3d a72c 2bbd 99eb c0b9 7bbf 9ebb
00000090: 5d5a 2dbb c6e6 873d 7272 163d 2157 183e
000000a0: 8ac7 1cbe 8d56 f83d 081f 1f3d a642 9a3d
000000b0: 9161 d3bc 3652 a93d 8bb6 09be b3a1 a33d
000000c0: 631a 083e 2b34 79bd 7dcd 8e3d 44b4 02be
000000d0: 5d30 77be 9d70 193e c1f4 95bc 5f6e c2bd
000000e0: 7e8c 3b3e 9f0f db3d ab18 173e 1127 b73d
000000f0: 61a2 21be 00f0 8d3d a8e4 db3c 4b78 e4bc
00000100: c24a 9d3c d887 443e 646a 0c3e e534 bc3c
00000110: 9630 e1bd 7071 adbb 26f5 8e3c 0857 823a
00000120: dd65 893c c83a 903d b2f6 99bc 9bcb d6bc
00000130: f027 f2bd 1bca 46bd f520 843d 959d 853d
00000140: f391 3f3d 1927 fc3b 4bd6 04be de02 d93d
00000150: 7291 a03d 033a 613d b3e8 ac3d 70eb 0bbd
00000160: e46e 003d 29b3 67bd 798b a53c 8f71 8abd
00000170: a920 573d 7619 3b3b bd31 1bbd 50bc c03d
00000180: 6ee6 aebd 87e6 a73d a4c9 de3c 2463 1abd
00000190: 1d6c 7a3d e67e edba d429 99bd 328f 803d
000001a0: c29a f53a d971 383d f878 e3bc efa5 093e
000001b0: 6d2f f33c a994 0abe a698 babd 47b4 673e
000001c0: 6363 7d3d a010 0dbd 4dff 99bd 4779 a2bb
000001d0: 8c81 a4bd 6a31 113d b220 d1bd 2fc1 c63d
000001e0: 6131 a33d d39d ee3d eb2d 90bc 49b2 0dbd
000001f0: 6937 6c3c 2834 003d 963a 6fbd f235 8d3d
00000200: 5b52 a23e 310f cd3d 35cc b93c ea4a f93d
00000210: bc00 5b3e 134d 5c3b f083 32bc f7a7 b3bd
00000220: 10a8 843d 5bc8 a3bd 4640 063e 3e6d 9cbe
00000230: d448 d1bd 420e 99bd d31e 02be 4529 e3bc
00000240: 5e01 673d a850 c73b 6035 4a3b 2790 403e
00000250: 646e 21be 30d6 ea3d 823f 1bbe 476f f83d
00000260: 93cd 4c3e ad68 96be 62e3 74be e368 21be
00000270: 5ce3 973c 92d3 033d d2af 613e 11ca 9fbd
00000280: 988a 93bd b8ff be3c c098 413e df5b 543e
00000290: 052b adbd 08fc 89bb 8b3c 423b 0f09 31be
000002a0: a97e 4fbd dc6e c43d e40d ef3d 81fc 3bbd
000002b0: e135 df3e 47a5 14be 7a37 2fbd 1b9a 1f3d
000002c0: 1884 80be 021d 4ebe a822 b23d e6cc 4fbf
000002d0: 366e 8fbd 9275 983d 8e40 bebd 2e97 02be
000002e0: 9f8d 5ebe 2d5b 043e ce32 043e 6849 dd3c
000002f0: 0306 a33d d940 83bc 3662 56bd d4b4 cbbd
00000300: bd87 85bd 8c4b 9fbc 814f 13be eb77 aa3d
00000310: d77f aa3c 261b 8d3c c18d 1cbe d497 53bd
00000320: 7b58 adbd ef9a 6fbd aafd 0e3c e128 fb3c
00000330: b712 c23b 5ccb 4bbd 881e 82bd 49f6 3ebd
00000340: ad3e 76bd 31e5 a6bd 5c66 e43c 38c8 3d3d
00000350: b7c2 0d3e 7b58 e2bc 9614 5d3c fb04 24bd
00000360: 37a9 013d 0d58 a3bd f82c b03d e582 88bd
00000370: 8f98 0fbd 3ed3 01bd 2c52 06bd 8edf cebc
00000380: 36fe 4fbd 9362 97bc 596f 82bc f2a8 27be
00000390: 9a39 cebd 656f 0d3d 0868 10be 4cfb b7bd
000003a0: 06ff 11be 761d aa3c baf9 603d 8243 a8bc
000003b0: 28a6 fb3a 0909 b0bc a666 013a 8887 933d
000003c0: 7875 95bd 7ba6 dfbc 92ec c7bc f96d cbbc
000003d0: 6d0a 61be ef77 a4bd f573 26bd cb14 a8bd
000003e0: 3fd4 a6bc fe8e 61bd 86b4 83bd 79e9 e0bd
000003f0: 494f ecbd 3f53 813b bbde 8dbd 401b 913b

decoder.out.bias f4 [96]
0.23287576 -0.38004056 0.081841685 -0.120751716 -0.24988101 -0.19781192 -0.28208533 0.115518406
-0.15556349 -0.15942934 -0.229785 -0.1630507 -0.24552898 -0.09091711 -0.12319862 -0.16440153
-0.22669446 -0.092929445 -0.18331237 -0.15520401 -0.12736514 -0.23537105 -0.2748072 -0.16393436
-0.22603866 -0.0971952 -0.2857642 -0.24000257 0.31429082 -0.20184262 -0.3425092 -0.30421403
-0.18242636 -0.17690696 -0.22913544 -0.20139495 -0.110010765 -0.29647702 -0.23118766 -0.2614657
-0.10965891 -0.07183778 -0.2321052 -0.23279788 -0.24889503 -0.2723891 -0.23598427 -0.17979613
-0.2882379 -0.35792124 -0.2744067 -0.22994539 -0.24130519 -0.15565245 0.21337809 -0.235491
-0.2748103 -0.19879909 -0.12145635 -0.061334025 -0.2660315 -0.08995455 -0.2643023 -0.18469793
-0.2585577 -0.13113703 -0.052402783 -0.24736317 -0.26178893 -0.11563571 -0.13008402 -0.23683274
-0.11901943 -0.0793735 -0.08902666 -0.25725 -0.26166448 -0.26138675 -0.05480056 -0.2822632
-0.18360208 -0.20970687 -0.23197605 -0.25195318 -0.17882355 -0.14284396 -0.090385154 -0.18468441
-0.054142818 -0.21541381 -0.0818321 -0.26609895 0.25944507 -0.13522886 -0.2611065 -0.14249673
00000000: fc76 6e3e ad94 c2be 9d9c a73d ad4c f7bd
00000010: cfe0 7fbe 358f 4abe 7d6d 90be ea94 ec3d
00000020: 094c 1fbe 7241 23be c24c 6bbe c3f6 26be
00000030: f36b 7bbe c032 babd 8f4f fcbd e058 28be
00000040: 9822 68be cb51 bebd 3db6 3bbe cded 1ebe
00000050: 026c 02be 1c05 71be 88b3 8cbe 69de 27be
00000060: ae76 67be 470e c7bd af4f 92be 3cc3 75be
00000070: baea a03e d5af 4ebe 5e5d afbe f1c1 9bbe
00000080: facd 3abe 1927 35be 7ba2 6abe 7a3a 4ebe
00000090: 534d e1bd d6cb 97be 75bc 6cbe d5de 85be
000000a0: da94 e0bd b01f 93bd fcac 6dbe 9162 6ebe
000000b0: 57de 7ebe 9676 8bbe dca5 71be 7a1c 38be
000000c0: eb93 93be 7441 b7be 097f 8cbe ce76 6bbe
000000d0: b518 77be 5b63 1fbe c97f 5a3e 8d24 71be
000000e0: f0b3 8cbe fd91 4bbe 1bbe f8bd 6339 7bbd
000000f0: 4835 88be 173a b8bd a252 87be 7421 3dbe
00000100: ad61 84be c948 06be 4da4 56bd c54c 7dbe
00000110: 3309 86be 6ad2 ecbd bf34 05be 4884 72be
00000120: 75c0 f3bd 938e a2bd 9c53 b6bd 46b6 83be
00000130: e3f8 85be 7cd4 85be 8d76 60bd cd84 90be
00000140: 2f02 3cbe 66bd 56be 218b 6dbe 0200 81be
00000150: 851d 37be b045 12be da1b b9bd e91d 3dbe
00000160: dcc4 5dbd 7095 5cbe 9797 a7bd 1f3e 88be
00000170: fcd5 843e 6f79 0abe c0af 85be aaea 11be

decoder.bn.weight f4 [64]
1.0 1.0 1.0 1.0 1.0 1.0 1.0 1.0
1.0 1.0 1.0 1.0 1.0 1.0 1.0 1.0
1.0 1.0 1.0 1.0 1.0 1.0 1.0 1.0
1.0 1.0 1.0 1.0 1.0 1.0 1.0 1.0
1.0 1.0 1.0 1.0 1.0 1.0 1.0 1.0
1.0 1.0 1.0 1.0 1.0 1.0 1.0 1.0
1.0 1.0 1.0 1.0 1.0 1.0 1.0 1.0
1.0 1.0 1.0 1.0 1.0 1.0 1.0 1.0
00000000: 0000 803f 0000 803f 0000 803f 0000 803f
00000010: 0000 803f 0000 803f 0000 803f 0000 803f
00000020: 0000 803f 0000 803f 0000 803f 0000 803f
00000030: 0000 803f 0000 803f 0000 803f 0000 803f
00000040: 0000 803f 0000 803f 0000 803f 0000 803f
00000050: 0000 803f 0000 803f 0000 803f 0000 803f
00000060: 0000 803f 0000 803f 0000 803f 0000 803f
00000070: 0000 803f 0000 803f 0000 803f 0000 803f
00000080: 0000 803f 0000 803f 0000 803f 0000 803f
00000090: 0000 803f 0000 803f 0000 803f 0000 803f
000000a0: 0000 803f 0000 803f 0000 803f 0000 803f
000000b0: 0000 803f 0000 803f 0000 803f 0000 803f
000000c0: 0000 803f 0000 803f 0000 803f 0000 803f
000000d0: 0000 803f 0000 803f 0000 803f 0000 803f
000000e0: 0000 803f 0000 803f 0000 803f 0000 803f
000000f0: 0000 803f 0000 803f 0000 803f 0000 803f

decoder.bn.bias f4 [64]
0.0 0.0 0.0 0.0 0.0 0.0 0.0 0.0
0.0 0.0 0.0 0.0 0.0 0.0 0.0 0.0
0.0 0.0 0.0 0.0 0.0 0.0 0.0 0.0
0.0 0.0 0.0 0.0 0.0 0.0 0.0 0.0
0.0 0.0 0.0 0.0 0.0 0.0 0.0 0.0
0.0 0.0 0.0 0.0 0.0 0.0 0.0 0.0
0.0 0.0 0.0 0.0 0.0 0.0 0.0 0.0
0.0 0.0 0.0 0.0 0.0 0.0 0.0 0.0
00000000: 0000 0000 0000 0000 0000 0000 0000 0000
00000010: 0000 0000 0000 0000 0000 0000 0000 0000
00000020: 0000 0000 0000 0000 0000 0000 0000 0000
00000030: 0000 0000 0000 0000 0000 0000 0000 0000
00000040: 0000 0000 0000 0000 0000 0000 0000 0000
00000050: 0000 0000 0000 0000 0000 0000 0000 0000
00000060: 0000 0000 0000 0000 0000 0000 0000 0000
00000070: 0000 0000 0000 0000 0000 0000 0000 0000
00000080: 0000 0000 0000 0000 0000 0000 0000 0000
00000090: 0000 0000 0000 0000 0000 0000 0000 0000
000000a0: 0000 0000 0000 0000 0000 0000 0000 0000
000000b0: 0000 0000 0000 0000 0000 0000 0000 0000
000000c0: 0000 0000 0000 0000 0000 0000 0000 0000
000000d0: 0000 0000 0000 0000 0000 0000 0000 0000
000000e0: 0000 0000 0000 0000 0000 0000 0000 0000
000000f0: 0000 0000 0000 0000 0000 0000 0000 0000

decoder.bn.running_mean f4 [64]
0.0 0.0 0.0 0.0 0.0 0.0 0.0 0.0
0.0 0.0 0.0 0.0 0.0 0.0 0.0 0.0
0.0 0.0 0.0 0.0 0.0 0.0 0.0 0.0
0.0 0.0 0.0 0.0 0.0 0.0 0.0 0.0
0.0 0.0 0.0 0.0 0.0 0.0 0.0 0.0
0.0 0.0 0.0 0.0 0.0 0.0 0.0 0.0
0.0 0.0 0.0 0.0 0.0 0.0 0.0 0.0
0.0 0.0 0.0 0.0 0.0 0.0 0.0 0.0
00000000: 0000 0000 0000 0000 0000 0000 0000 0000
00000010: 0000 0000 0000 0000 0000 0000 0000 0000
00000020: 0000 0000 0000 0000 0000 0000 0000 0000
00000030: 0000 0000 0000 0000 0000 0000 0000 0000
00000040: 0000 0000 0000 0000 0000 0000 0000 0000
00000050: 0000 0000 0000 0000 0000 0000 0000 0000
00000060: 0000 0000 0000 0000 0000 0000 0000 0000
00000070: 0000 0000 0000 0000 0000 0000 0000 0000
00000080: 0000 0000 0000 0000 0000 0000 0000 0000
00000090: 0000 0000 0000 0000 0000 0000 0000 0000
000000a0: 0000 0000 0000 0000 0000 0000 0000 0000
000000b0: 0000 0000 0000 0000 0000 0000 0000 0000
000000c0: 0000 0000 0000 0000 0000 0000 0000 0000
000000d0: 0000 0000 0000 0000 0000 0000 0000 0000
000000e0: 0000 0000 0000 0000 0000 0000 0000 0000
000000f0: 0000 0000 0000 0000 0000 0000 0000 0000

decoder.bn.running_var f4 [64]
1.0 1.0 1.0 1.0 1.0 1.0 1.0 1.0
1.0 1.0 1.0 1.0 1.0 1.0 1.0 1.0
1.0 1.0 1.0 1.0 1.0 1.0 1.0 1.0
1.0 1.0 1.0 1.0 1.0 1.0 1.0 1.0
1.0 1.0 1.0 1.0 1.0 1.0 1.0 1.0
1.0 1.0 1.0 1.0 1.0 1.0 1.0 1.0
1.0 1.0 1.0 1.0 1.0 1.0 1.0 1.0
1.0 1.0 1.0 1.0 1.0 1.0 1.0 1.0
00000000: 0000 803f 0000 803f 0000 803f 0000 803f
00000010: 0000 803f 0000 803f 0000 803f 0000 803f
00000020: 0000 803f 0000 803f 0000 803f 0000 803f
00000030: 0000 803f 0000 803f 0000 803f 0000 803f
00000040: 0000 803f 0000 803f 0000 803f 0000 803f
00000050: 0000 803f 0000 803f 0000 803f 0000 803f
00000060: 0000 803f 0000 803f 0000 803f 0000 803f
00000070: 0000 803f 0000 803f 0000 803f 0000 803f
00000080: 0000 803f 0000 803f 0000 803f 0000 803f
00000090: 0000 803f 0000 803f 0000 803f 0000 803f
000000a0: 0000 803f 0000 803f 0000 803f 0000 803f
000000b0: 0000 803f 0000 803f 0000 803f 0000 803f
000000c0: 0000 803f 0000 803f 0000 803f 0000 803f
000000d0: 0000 803f 0000 803f 0000 803f 0000 803f
000000e0: 0000 803f 0000 803f 0000 803f 0000 803f
000000f0: 0000 803f 0000 803f 0000 803f 0000 803f
