FarconVAE/model_adult/farcon_2023_05_01_23_39_31_306609_ours.pth (torch, 82153 bytes, 21 tensors)

encoder.fc.weight f4 [64, 97]
0.064523615 0.19365962 0.15320797 -0.03719858 0.01133685 0.060409702 0.1925333 -0.09237463
0.058512468 0.16254662 0.05212822 0.0019149901 -0.005137985 -0.022967953 -0.0012712659 -0.015672715
0.04304145 0.030679012 0.030790763 -0.0062950016 0.15018377 -0.04753282 0.0037311548 -0.094094135
0.0013275703 -0.01678794 -0.09640096 -0.03107819 -0.015123878 -0.034451853 0.06117127 0.008401903
0.036859248 -0.005627977 -0.11456135 -0.09601847 0.12373566 -0.053979598 -0.05849901 0.10972151
-0.023462653 0.26676655 0.051662832 0.056613844 -0.025682515 0.09570735 0.11766793 -0.11471801
-0.10748381 0.062331084 0.07090393 -0.088027135 -0.0023607807 -0.034770653 0.13569625 -0.012338859
-0.017048938 -0.021000708 0.0082403375 -0.013601951 -0.01310136 -0.0119752465 0.0067816256 -0.004785506
-0.022932777 -0.016007256 -0.011741185 -0.0056999316 0.0012129012 -0.009683835 -0.0010409188 -0.0035970125
-0.057242855 -0.021657515 -0.0056410762 -0.016803602 -0.0012704957 -0.03128516 0.006244409 -0.03408991
-0.007683318 -0.00042932687 -0.012191994 -0.08384536 -0.00060059497 -0.005592489 -0.027582252 -0.0086801
-0.03672612 -0.008001818 -0.020073226 0.0028413637 0.13149482 -0.017647954 -0.013397856 0.1415911
-0.068245 0.002898779 -0.081629045 -0.10216422 -0.146653 -0.05194512 0.0017263802 0.006801694
-0.06660944 -0.099737965 -0.09668932 -0.07419481 -0.002894555 -0.010687537 -0.03628877 -0.022008847
-0.050035175 -0.056027744 -0.03721412 0.016431998 -0.03213033 0.08321972 -0.03677895 -0.058255285
-0.0661154 -0.00755439 -0.06329368 -0.108113326 -0.0027196298 -0.23773786 -0.030452171 0.064674914
-0.054361183 0.08324876 -0.0051361327 -0.0025583575 -0.00899729 -0.05574012 -0.10628172 -0.027900588
-0.10778316 -0.015294476 0.013251255 -0.07012128 -0.07054706 -0.029194174 -0.014544081 -0.008323443
-0.06927523 -0.07742473 -0.09379884 -0.08657092 -0.060145512 -0.12197674 -0.0332763 -0.0396503
-0.006109228 -0.013141384 -0.005589418 -0.008513937 -0.0063326512 -0.005323076 -0.014105864 -0.0033485754
0.00035469895 -0.013744911 -0.005998065 -0.010242611 -0.0096263075 0.00058802095 -0.002832853 -0.00084482395
-0.0030941134 -0.016247379 -0.008007887 -0.0018958893 -0.0113531025 -0.008101073 -0.0073221438 -0.0030131335
-0.11098779 -0.0060302946 -0.0028649163 -0.0044460665 -0.031702746 -0.002910452 -0.0054795877 -0.014956011
-0.0024951654 -0.01370883 -0.0071706483 -0.0053182305 -0.0022669537 -0.02077451 -0.012975184 -0.0034053933
0.16655514 -0.29753426 -0.18484005 -0.08557314 -0.0585064 -0.039996833 -0.08646291 -0.15685095
-0.09234275 -0.07459326 -0.09595095 -0.08953149 -0.041926894 0.0010998659 -0.03629411 -0.014781703
-0.0059790104 -0.013975313 -0.0063613164 -0.018921599 -0.019898212 0.00047276443 -0.012745602 -0.007950505
-0.1586263 0.009153262 -0.0009722796 -0.0057719806 -0.09489002 -0.0036212348 -0.0771236 -0.0090057505
-0.15018483 -0.026717478 0.015668094 -0.001620559 -0.038990438 -0.0044947052 -0.048735794 -0.08405834
-0.09061394 -0.13106903 -0.0030055244 -0.0062077297 -0.026845356 -0.08164604 -0.026559094 -0.071463734
-0.069840714 -0.03661612 -0.1395818 -0.046602156 -0.12388255 -0.1024235 -0.07715584 -0.030068213
-0.114873454 -0.014332565 -0.019254077 -0.00030220672 -0.01162503 -0.0021531591 -0.0056999363 -0.005426058
00000000: f524 843d b54e 463e 8de2 1c3e 8a5d 18bd
00000010: 32be 393c 2a70 773d 7327 453e e92e bdbd
00000020: c5aa 6f3d 9f72 263e 6784 553d 6800 fb3a
00000030: 8b5c a8bb 4a27 bcbc 9ba0 a6ba 1164 80bc
00000040: 3b4c 303d 8d52 fb3c e93c fc3c 4d46 cebb
00000050: c6c9 193e c6b1 42bd 6486 743b 6db4 c0bd
00000060: de01 ae3a dd86 89bc de6d c5bd b097 febc
00000070: 24ca 77bc 631d 0dbd ba8e 7a3d 23a8 093c
00000080: b9f9 163d e56a b8bb 249f eabd 55a5 c4bd
00000090: 1f69 fd3d b619 5dbd a89c 6fbd acb5 e03d
000000a0: c034 c0bc a095 883e 689c 533d ebe3 673d
000000b0: 2364 d2bc 3702 c43d e2fb f03d 47f1 eabd
000000c0: 7920 dcbd e14e 7f3d 1436 913d 9247 b4bd
000000d0: 54b7 1abb ac6b 0ebd f5f3 0a3e ed28 4abc
000000e0: 37aa 8bbc ad09 acbc 7b02 073c b8da 5ebc
000000f0: 16a7 56bc d333 44bc 6638 de3b bccf 9cbb
00000100: 85dd bbbc a621 83bc 195e 40bc 7ec6 babb
00000110: 36fa 9e3a f3a8 1ebc 706f 88ba dbbb 6bbb
00000120: 7c77 6abd 1a6b b1bc c7d8 b8bb b5a7 89bc
00000130: c386 a6ba de24 00bd e69d cc3b dda1 0bbd
00000140: 58c4 fbbb 4717 e1b9 eec0 47bc 1eb7 abbd
00000150: 3f71 1dba 3341 b7bb 2df4 e1bc fa36 0ebc
00000160: 216e 16bd 0f1a 03bc 9b70 a4bc 2c36 3a3b
00000170: 94a6 063e 7192 90bc ae82 5bbc 42fd 103e
00000180: 09c4 8bbd 71f9 3d3b 212d a7bd 793b d1bd
00000190: 342c 16be 68c4 54bd b547 e23a bfe0 de3b
000001a0: 886a 88bd 6b43 ccbd 0d05 c6bd 73f3 97bd
000001b0: 93b2 3dbb c71a 2fbc 89a3 14bd e64b b4bc
000001c0: aff1 4cbd 597d 65bd d56d 18bd 669c 863c
000001d0: 189b 03bd 1a6f aa3d 86a5 16bd 189d 6ebd
000001e0: 8367 87bd d18a f7bb 1ea0 81bd 856a ddbd
000001f0: d13b 32bb 8e71 73be d576 f9bc 4874 843d
00000200: d5a9 5ebd 537e aa3d 014d a8bb 1eaa 27bb
00000210: 5f69 13bc c14f 64bd 3baa d9bd c68f e4bc
00000220: 6bbd dcbd af95 7abc cb1b 593c bf9b 8fbd
00000230: fa7a 90bd 9f28 efbc 4c4a 6ebc 0d5f 08bc
00000240: 2ce0 8dbd db90 9ebd 9b19 c0bd 184c b1bd
00000250: 245b 76bd f1ce f9bd bb4c 08bd 5a68 22bd
00000260: eb2f c8bb f64e 57bc 7027 b7bb 0a7e 0bbc
00000270: 2182 cfbb 336d aebb 481c 67bc c673 5bbb
00000280: e3f6 b939 5632 61bc 6b8b c4bb a0d0 27bc
00000290: a9b7 1dbc 6b25 1a3a 63a7 39bb 2d77 5dba
000002a0: 9cc6 4abb 3919 85bc 8333 03bc 7d7f f8ba
000002b0: 5d02 3abc 5dba 04bc 98ee efbb fe77 45bb
000002c0: 914d e3bd c799 c5bb 52c1 3bbb 4fb0 91bb
000002d0: bdda 01bd 48bd 3ebb 1d8e b3bb 0f0a 75bc
000002e0: ee85 23bb 009b 60bc c2f7 eabb 8d44 aebb
000002f0: 2c91 14bb 4e2f aabc de95 54bc 052d 5fbb
00000300: 6e8d 2a3e 6956 98be b646 3dbe f840 afbd
00000310: 68a4 6fbd b8d3 23bd 7713 b1bd 899d 20be
00000320: 321e bdbd 5ac4 98bd ef81 c4bd 495c b7bd
00000330: 89bb 2bbd 6029 903a 22a9 14bd f52e 72bc
00000340: 93eb c3bb b6f8 64bc 9772 d0bb 7801 9bbc
00000350: 9301 a3bc 5edd f739 eed2 50bc d642 02bc
00000360: ef6e 22be 90f7 153c 94e0 7eba e222 bdbb
00000370: b355 c2bd 3d52 6dbb faf2 9dbd db8c 13bc
00000380: 0dca 19be 9dde dabc 605a 803c f068 d4ba
00000390: 70b4 1fbd 5248 93bb 2f9f 47bd c726 acbd
000003a0: cd93 b9bd f636 06be 55f8 44bb 366a cbbb
000003b0: cbea dbbc 0a36 a7bd 7592 d9bc 945b 92bd
000003c0: a608 8fbd c9fa 15bd 88ee 0ebe e7e1 3ebd
000003d0: 22b6 fdbd 69c3 d1bd e203 9ebd 9d51 f6bc
000003e0: c642 ebbd 22d3 6abc baba 9dbc 8071 9eb9
000003f0: e976 3ebc 041c 0dbb 88c6 babb 13cd b1bb

encoder.fc.bias f4 [64]
-0.021129644 -0.0093084965 -0.2413316 -0.0015537749 -0.22167066 -0.20554565 -0.25520694 -0.15644686
-0.020623425 0.057248756 0.0629276 -0.05116743 -0.2486573 -0.16859072 -0.066268854 -0.27591994
0.043275144 0.110313 -0.26748988 0.15360776 0.04296896 -0.21065888 0.28091666 0.12529112
-0.20862995 0.16799305 0.1374 0.12713926 0.12687941 -0.2653156 -0.25125593 -0.038449343
-0.025296882 -0.18240964 0.022862386 -0.29703194 -0.07157072 0.08405474 0.074301824 0.117963254
-0.02037844 0.1488539 0.18820842 0.15504137 0.081197694 0.38666564 0.13781305 -0.003622065
0.03445954 -0.105497964 0.07655323 -0.04881154 0.08131216 0.15260828 -0.043947987 0.09787905
0.050226737 -0.15008223 0.14180678 0.19781327 -0.02174426 0.034741472 -0.018140642 0.15631008
00000000: 1318 adbc aa82 18bc a21f 77be 09a8 cbba
00000010: a2fd 62be 8f7a 52be 7caa 82be 9b33 20be
00000020: 75f2 a8bc ac7d 6a3d 30e0 803d f094 51bd
00000030: 05a0 7ebe 0ca3 2cbe f7b7 87bd 6145 8dbe
00000040: 4741 313d c8eb e13d 6ff4 88be 5a4b 1d3e
00000050: 3800 303d f6b6 57be 4fd4 8f3e 514c 003e
00000060: 17a3 55be 5f06 2c3e 96b2 0c3e cb30 023e
00000070: adec 013e 72d7 87be 9ea4 80be 0f7d 1dbd
00000080: 683b cfbc 98c9 3abe e649 bb3c 9214 98be
00000090: ab93 92bd e424 ac3d 8e2b 983d b896 f13d
000000a0: b0f0 a6bc 286d 183e b5b9 403e 2ac3 1e3e
000000b0: fa4a a63d 0af9 c53e dd1e 0d3e 2b60 6dbb
000000c0: 7225 0d3d 510f d8bd f1c7 9c3d 9cee 47bd
000000d0: fd86 a63d 5845 1c3e ce02 34bd d074 c83d
000000e0: 8dba 4d3d 28af 19be cc35 113e 908f 4a3e
000000f0: 0521 b2bc 134d 0e3d af9b 94bc c00f 203e

encoder.bn.weight f4 [64]
1.0 1.0 1.0 1.0 1.0 1.0 1.0 1.0
1.0 1.0 1.0 1.0 1.0 1.0 1.0 1.0
1.0 1.0 1.0 1.0 1.0 1.0 1.0 1.0
1.0 1.0 1.0 1.0 1.0 1.0 1.0 1.0
1.0 1.0 1.0 1.0 1.0 1.0 1.0 1.0
1.0 1.0 1.0 1.0 1.0 1.0 1.0 1.0
1.0 1.0 1.0 1.0 1.0 1.0 1.0 1.0
1.0 1.0 1.0 1.0 1.0 1.0 1.0 1.0
00000000: 0000 803f 0000 803f 0000 803f 0000 803f
00000010: 0000 803f 0000 803f 0000 803f 0000 803f
00000020: 0000 803f 0000 803f 0000 803f 0000 803f
00000030: 0000 803f 0000 803f 0000 803f 0000 803f
00000040: 0000 803f 0000 803f 0000 803f 0000 803f
00000050: 0000 803f 0000 803f 0000 803f 0000 803f
00000060: 0000 803f 0000 803f 0000 803f 0000 803f
00000070: 0000 803f 0000 803f 0000 803f 0000 803f
00000080: 0000 803f 0000 803f 0000 803f 0000 803f
00000090: 0000 803f 0000 803f 0000 803f 0000 803f
000000a0: 0000 803f 0000 803f 0000 803f 0000 803f
000000b0: 0000 803f 0000 803f 0000 803f 0000 803f
000000c0: 0000 803f 0000 803f 0000 803f 0000 803f
000000d0: 0000 803f 0000 803f 0000 803f 0000 803f
000000e0: 0000 803f 0000 803f 0000 803f 0000 803f
000000f0: 0000 803f 0000 803f 0000 803f 0000 803f

encoder.bn.bias f4 [64]
0.0 0.0 0.0 0.0 0.0 0.0 0.0 0.0
0.0 0.0 0.0 0.0 0.0 0.0 0.0 0.0
0.0 0.0 0.0 0.0 0.0 0.0 0.0 0.0
0.0 0.0 0.0 0.0 0.0 0.0 0.0 0.0
0.0 0.0 0.0 0.0 0.0 0.0 0.0 0.0
0.0 0.0 0.0 0.0 0.0 0.0 0.0 0.0
0.0 0.0 0.0 0.0 0.0 0.0 0.0 0.0
0.0 0.0 0.0 0.0 0.0 0.0 0.0 0.0
00000000: 0000 0000 0000 0000 0000 0000 0000 0000
00000010: 0000 0000 0000 0000 0000 0000 0000 0000
00000020: 0000 0000 0000 0000 0000 0000 0000 0000
00000030: 0000 0000 0000 0000 0000 0000 0000 0000
00000040: 0000 0000 0000 0000 0000 0000 0000 0000
00000050: 0000 0000 0000 0000 0000 0000 0000 0000
00000060: 0000 0000 0000 0000 0000 0000 0000 0000
00000070: 0000 0000 0000 0000 0000 0000 0000 0000
00000080: 0000 0000 0000 0000 0000 0000 0000 0000
00000090: 0000 0000 0000 0000 0000 0000 0000 0000
000000a0: 0000 0000 0000 0000 0000 0000 0000 0000
000000b0: 0000 0000 0000 0000 0000 0000 0000 0000
000000c0: 0000 0000 0000 0000 0000 0000 0000 0000
000000d0: 0000 0000 0000 0000 0000 0000 0000 0000
000000e0: 0000 0000 0000 0000 0000 0000 0000 0000
000000f0: 0000 0000 0000 0000 0000 0000 0000 0000

encoder.bn.running_mean f4 [64]
0.0 0.0 0.0 0.0 0.0 0.0 0.0 0.0
0.0 0.0 0.0 0.0 0.0 0.0 0.0 0.0
0.0 0.0 0.0 0.0 0.0 0.0 0.0 0.0
0.0 0.0 0.0 0.0 0.0 0.0 0.0 0.0
0.0 0.0 0.0 0.0 0.0 0.0 0.0 0.0
0.0 0.0 0.0 0.0 0.0 0.0 0.0 0.0
0.0 0.0 0.0 0.0 0.0 0.0 0.0 0.0
0.0 0.0 0.0 0.0 0.0 0.0 0.0 0.0
00000000: 0000 0000 0000 0000 0000 0000 0000 0000
00000010: 0000 0000 0000 0000 0000 0000 0000 0000
00000020: 0000 0000 0000 0000 0000 0000 0000 0000
00000030: 0000 0000 0000 0000 0000 0000 0000 0000
00000040: 0000 0000 0000 0000 0000 0000 0000 0000
00000050: 0000 0000 0000 0000 0000 0000 0000 0000
00000060: 0000 0000 0000 0000 0000 0000 0000 0000
00000070: 0000 0000 0000 0000 0000 0000 0000 0000
00000080: 0000 0000 0000 0000 0000 0000 0000 0000
00000090: 0000 0000 0000 0000 0000 0000 0000 0000
000000a0: 0000 0000 0000 0000 0000 0000 0000 0000
000000b0: 0000 0000 0000 0000 0000 0000 0000 0000
000000c0: 0000 0000 0000 0000 0000 0000 0000 0000
000000d0: 0000 0000 0000 0000 0000 0000 0000 0000
000000e0: 0000 0000 0000 0000 0000 0000 0000 0000
000000f0: 0000 0000 0000 0000 0000 0000 0000 0000

encoder.bn.running_var f4 [64]
1.0 1.0 1.0 1.0 1.0 1.0 1.0 1.0
1.0 1.0 1.0 1.0 1.0 1.0 1.0 1.0
1.0 1.0 1.0 1.0 1.0 1.0 1.0 1.0
1.0 1.0 1.0 1.0 1.0 1.0 1.0 1.0
1.0 1.0 1.0 1.0 1.0 1.0 1.0 1.0
1.0 1.0 1.0 1.0 1.0 1.0 1.0 1.0
1.0 1.0 1.0 1.0 1.0 1.0 1.0 1.0
1.0 1.0 1.0 1.0 1.0 1.0 1.0 1.0
00000000: 0000 803f 0000 803f 0000 803f 0000 803f
00000010: 0000 803f 0000 803f 0000 803f 0000 803f
00000020: 0000 803f 0000 803f 0000 803f 0000 803f
00000030: 0000 803f 0000 803f 0000 803f 0000 803f
00000040: 0000 803f 0000 803f 0000 803f 0000 803f
00000050: 0000 803f 0000 803f 0000 803f 0000 803f
00000060: 0000 803f 0000 803f 0000 803f 0000 803f
00000070: 0000 803f 0000 803f 0000 803f 0000 803f
00000080: 0000 803f 0000 803f 0000 803f 0000 803f
00000090: 0000 803f 0000 803f 0000 803f 0000 803f
000000a0: 0000 803f 0000 803f 0000 803f 0000 803f
000000b0: 0000 803f 0000 803f 0000 803f 0000 803f
000000c0: 0000 803f 0000 803f 0000 803f 0000 803f
000000d0: 0000 803f 0000 803f 0000 803f 0000 803f
000000e0: 0000 803f 0000 803f 0000 803f 0000 803f
000000f0: 0000 803f 0000 803f 0000 803f 0000 803f

encoder.out.weight f4 [60, 64]
-0.017991884 -0.037352968 -0.0066763423 0.016841235 0.051508076 -0.11531205 -0.11180346 -0.073810086
0.07840829 -0.084056996 0.011477312 0.15879957 0.10037899 0.042488977 0.01171768 -0.14207932
0.043477893 0.06196964 -0.026569895 -0.25347257 0.07708306 -0.13164409 -0.13614148 -0.0041906466
0.025998132 0.1733377 0.12661201 0.22269091 0.08159875 -0.08463023 -0.094622545 -0.102175444
-0.07228853 0.044835545 0.0011446286 -0.18732634 0.048219707 -0.07278516 0.04608458 -0.06660445
-0.016195377 0.18949293 -0.022098472 0.07677143 0.13005424 -0.21584587 -0.20656545 0.076591365
-0.07634116 -0.1456064 -0.077825315 0.13687237 -0.2680438 0.0341186 0.04737259 0.14652345
0.023654642 0.008619464 0.28013155 0.15860508 -0.04014542 -0.21139163 0.080154814 0.120756455
-0.07006392 -0.0750139 0.13591464 -0.01785004 0.19156913 0.1703059 0.033026822 -0.0084575545
-0.004111164 0.2565548 -0.09161342 -0.024431547 0.20796193 0.027487075 0.06049355 0.10991313
0.077443756 -0.11825538 0.20286049 0.07744173 -0.0023304806 0.13719152 -0.10901445 -0.06788851
0.108973585 -0.0711909 -0.14491975 0.033037 0.015194251 0.045472737 0.17052795 0.13568194
0.07540407 0.10403817 -0.083381034 0.19006564 -0.11006898 0.1470486 0.12521347 -0.12401294
0.14509349 -0.182588 -0.05229269 -0.017366817 -0.10134309 -0.10289848 0.12556182 0.18554753
0.0017188367 0.18285139 -0.024622094 -0.0031510333 0.20180246 0.08780711 0.040400337 -0.08428837
0.0064483597 0.019163663 0.27660897 -0.020189302 -0.082114756 0.016382499 -0.08267686 -0.12256463
-0.0609032 -0.19269317 0.33897278 -0.07712723 0.038568456 -0.022839176 0.0119980285 0.11446033
0.030944262 0.2225639 -0.05929299 -0.08684241 0.079412416 0.10984379 -0.14211921 0.057064798
-0.1623786 -0.22189502 -0.09944144 0.0673648 -0.09742339 0.33570915 -0.49573708 -0.040078692
0.096592225 -0.15376449 -0.20479874 -0.010895481 0.003144618 -0.05110296 0.1726097 0.22819175
0.032656375 0.16090883 -0.12412843 0.043344207 -0.12775567 0.21168421 0.07643459 -0.23984428
0.6994092 -0.0037393102 -0.04940407 0.104384 0.03376634 -0.3172128 0.050253067 0.7604147
0.17875344 -0.013036252 -0.22843064 0.1388297 0.023180284 0.06398143 -0.12048546 0.16249172
-0.10920869 0.3183391 0.17836662 -0.38594234 -0.29544452 0.7485232 -0.113477126 -0.22212313
0.17873697 0.039070923 0.021852743 0.008534366 0.08060291 0.05611449 0.060630027 0.025674378
0.07943082 0.10977067 -0.15027882 -0.066496894 -0.121133156 -0.031192033 0.023667298 0.02666746
0.018267052 0.043958146 0.043420512 0.0010833339 -0.0599976 0.11170514 0.12970702 0.12163805
0.061030447 0.08234077 -0.036815178 0.032864142 -0.08654632 0.036631346 0.10540419 0.06306675
-0.008918119 -0.14331423 0.035269786 -0.02335039 0.06509098 0.10418402 -0.0681285 -0.09202338
0.14500125 -0.06717877 0.030192465 -0.049950562 0.027726047 -0.09049392 0.14263317 0.05224997
-0.08577249 -0.031836327 -0.04771986 0.06816037 0.13258688 -0.0663777 0.1063182 -0.088658884
-0.0782091 0.033374142 -0.132594 -0.064493574 -0.0319028 -0.062058754 -0.17397963 -0.007706486
00000000: b763 93bc 6dff 18bd 38c5 dabb a1f6 893c
00000010: 22fa 523d b928 ecbd 36f9 e4bd be29 97bd
00000020: 8794 a03d 1326 acbd 560b 3c3c 5b9c 223e
00000030: 8093 cd3d ec08 2e3d 83fb 3f3c 3e7d 11be
00000040: e015 323d e1d3 7d3d 1ca9 d9bc 28c7 81be
00000050: b9dd 9d3d b5cd 06be ac68 0bbe b151 89bb
00000060: 09fa d43c 707f 313e 94a6 013e 1609 643e
00000070: 3f1d a73d 9d52 adbd 77c9 c1bd 5c41 d1bd
00000080: 020c 94bd 7aa5 373d 5d07 963a 7ad2 3fbe
00000090: 0782 453d 6310 95bd 2fc3 3c3d ea67 88bd
000000a0: 2bac 84bc 6f0a 423e db07 b5bc 573a 9d3d
000000b0: f02c 053e b306 5dbe e585 53be efdb 9c3d
000000c0: c158 9cbd d819 15be e162 9fbd 4528 0c3e
000000d0: 093d 89be f2bf 0b3d c309 423d 3e0a 163e
000000e0: 61c7 c13c a738 0d3c 676d 8f3e 5f69 223e
000000f0: 866f 24bd 0c77 58be 3528 a43d 294f f73d
00000100: ac7d 8fbd e3a0 99bd 352d 0b3e 3f3a 92bc
00000110: b32a 443e ab64 2e3e 2247 073d 8e91 0abc
00000120: f1b6 86bb 275b 833e d19f bbbd ab24 c8bc
00000130: f9f3 543e 932c e13c 16c8 773d 231a e13d
00000140: d59a 9e3d e02f f2bd a9ba 4f3e c599 9e3d
00000150: faba 18bb ef7b 0c3e f842 dfbd 2209 8bbd
00000160: 8b2d df3d 89cc 91bd d865 14be ce51 073d
00000170: 4ff1 783c 9f41 3a3d e19e 2e3e 35f0 0a3e
00000180: 736d 9a3d f711 d53d adc3 aabd 91a0 423e
00000190: d86b e1bd e893 163e f637 003e 7ffa fdbd
000001a0: 6393 143e 59f8 3abe dc30 56bd db44 8ebc
000001b0: f78c cfbd 70bc d2bd 4793 003e 2c00 3e3e
000001c0: 974a e13a 653d 3b3e 46b4 c9bc 9181 4ebb
000001d0: 4ea5 4e3e 37d4 b33d d37a 253d 629f acbd
000001e0: c34c d33b 1dfd 9c3c b19f 8d3e 0964 a5bc
000001f0: c82b a8bd 9734 863c 7c52 a9bd 2a03 fbbd
00000200: a275 79bd 5c51 45be d78d ad3e e2f4 9dbd
00000210: f5f9 1d3d 3919 bbbc 6193 443c 2d6a ea3d
00000220: d27e fd3c cae7 633e 35dd 72bd 6fda b1bd
00000230: faa2 a23d c8f5 e03d b387 11be c7bc 693d
00000240: 9346 26be 7338 63be f4a7 cbbd 8ef6 893d
00000250: ea85 c7bd 12e2 ab3e 40d1 fdbe 8e29 24bd
00000260: 25d2 c53d 7074 1dbe c3b6 51be f682 32bc
00000270: ef15 4e3b 5651 51bd 99c0 303e 19ab 693e
00000280: b1c2 053d 49c5 243e 0c37 febd b289 313d
00000290: 62d2 02be bfc3 583e bd89 9c3d bd99 75be
000002a0: 7b0c 333f 370f 75bb ec5b 4abd 47c7 d53d
000002b0: 934e 0a3d b769 a2be 29d6 4d3d 8aaa 423f
000002c0: 240b 373e 0196 55bc b9e9 69be 5f29 0e3e
000002d0: 94e4 bd3c b208 833d 15c1 f6bd 3b64 263e
000002e0: cea8 dfbd 58fd a23e bda5 363e 3c9a c5be
000002f0: 8144 97be 379f 3f3f b266 e8bd 3f74 63be
00000300: d306 373e d508 203d 8604 b33c bad3 0b3c
00000310: 2313 a53d 4fd8 653d 3157 783d 1353 d23c
00000320: a0ac a23d 72cf e03d b1e2 19be 862f 88bd
00000330: a914 f8bd 6f86 ffbc ece1 c13c b875 da3c
00000340: c9a4 953c 750d 343d b5d9 313d a7fe 8d3a
00000350: 0bc0 75bd aac5 e43d ebd1 043e 5f1d f93d
00000360: 10fb 793d 47a2 a83d 83cb 16bd 8d9c 063d
00000370: 323f b1bd c00a 163d 27de d73d 2429 813d
00000380: 4d1d 12bc f7c0 12be 0d77 103d 5149 bfbc
00000390: 6b4e 853d 6e5e d53d f486 8bbd c176 bcbd
000003a0: 357b 143e 0695 89bd 3056 f73c f698 4cbd
000003b0: bc21 e33c e054 b9bd 6e0e 123e 1104 563d
000003c0: 7da9 afbd cf66 02bd e675 43bd aa97 8b3d
000003d0: dbc4 073e 08f1 87bd 5bbd d93d ca92 b5bd
000003e0: 182c a0bd 53b3 083d b9c6 07be 3515 84bd
000003f0: 83ac 02bd 5231 7ebd b727 32be b186 fcbb

encoder.out.bias f4 [60]
0.18935885 -0.20151214 -0.1647767 0.00018581786 -0.21096823 0.05544743 -0.19075343 0.24860905
-0.18741284 0.20530193 -0.22260131 -0.027973225 0.025855668 0.04120387 0.20924915 -0.00977977
0.07380815 0.09487559 -0.1432017 -0.029837608 -0.10862808 0.07492772 -0.13428897 0.09501229
0.037281737 0.04521299 -0.036329854 0.09522235 -0.10128118 -0.13932602 -0.0724816 -0.04770183
-0.20422348 -0.10280642 -0.057989955 -0.20933595 -0.1317513 -0.06070805 -0.04171205 -0.06266388
-0.23760365 -0.15995748 -0.071579605 -0.1406075 -0.07114809 -0.26198778 -0.07499002 -0.16321033
-0.21323846 0.10345012 0.051000576 0.11408981 -0.0331416 0.06846348 -0.28275484 -0.0635544
-0.045044113 -0.059990272 -0.0072179483 -0.0005910734
00000000: 49e7 413e 3359 4ebe 39bb 28be 1ad8 4239
00000010: 0e08 58be d81c 633d de54 43be 5f93 7e3e
00000020: 27e9 3fbe ab3a 523e 99f1 63be 1b28 e5bc
00000030: 44cf d33c 64c5 283d 6945 563e 543b 20bc
00000040: ba28 973d 224e c23d 77a3 12be 006e f4bc
00000050: 6678 debd b473 993d 0c83 09be ce95 c23d
00000060: bcb4 183d 4231 393d 9dce 14bd ef03 c33d
00000070: 826c cfbd 7bab 0ebe 3c71 94bd fe62 43bd
00000080: f61f 51be 2c8c d2bd e086 6dbd 2a5c 56be
00000090: d0e9 06be 01a9 78bd 41da 2abd ec55 80bd
000000a0: 5f4e 73be e5cb 23be 5498 92bd 6afb 0fbe
000000b0: 17b6 91bd 4323 86be 5e94 99bd 9c20 27be
000000c0: 2f5b 5abe a8dd d33d fbe5 503d eba7 e93d
000000d0: 7dbf 07bd 9536 8c3d 3ec5 90be cf28 82bd
000000e0: 2d80 38bd 5cb8 75bd 8a84 ecbb 44f2 1aba

encoder.net.0.weight f4 [64, 97]
0.064523615 0.19365962 0.15320797 -0.03719858 0.01133685 0.060409702 0.1925333 -0.09237463
0.058512468 0.16254662 0.05212822 0.0019149901 -0.005137985 -0.022967953 -0.0012712659 -0.015672715
0.04304145 0.030679012 0.030790763 -0.0062950016 0.15018377 -0.04753282 0.0037311548 -0.094094135
0.0013275703 -0.01678794 -0.09640096 -0.03107819 -0.015123878 -0.034451853 0.06117127 0.008401903
0.036859248 -0.005627977 -0.11456135 -0.09601847 0.12373566 -0.053979598 -0.05849901 0.10972151
-0.023462653 0.26676655 0.051662832 0.056613844 -0.025682515 0.09570735 0.11766793 -0.11471801
-0.10748381 0.062331084 0.07090393 -0.088027135 -0.0023607807 -0.034770653 0.13569625 -0.012338859
-0.017048938 -0.021000708 0.0082403375 -0.013601951 -0.01310136 -0.0119752465 0.0067816256 -0.004785506
-0.022932777 -0.016007256 -0.011741185 -0.0056999316 0.0012129012 -0.009683835 -0.0010409188 -0.0035970125
-0.057242855 -0.021657515 -0.0056410762 -0.016803602 -0.0012704957 -0.03128516 0.006244409 -0.03408991
-0.007683318 -0.00042932687 -0.012191994 -0.08384536 -0.00060059497 -0.005592489 -0.027582252 -0.0086801
-0.03672612 -0.008001818 -0.020073226 0.0028413637 0.13149482 -0.017647954 -0.013397856 0.1415911
-0.068245 0.002898779 -0.081629045 -0.10216422 -0.146653 -0.05194512 0.0017263802 0.006801694
-0.06660944 -0.099737965 -0.09668932 -0.07419481 -0.002894555 -0.010687537 -0.03628877 -0.022008847
-0.050035175 -0.056027744 -0.03721412 0.016431998 -0.03213033 0.08321972 -0.03677895 -0.058255285
-0.0661154 -0.00755439 -0.06329368 -0.108113326 -0.0027196298 -0.23773786 -0.030452171 0.064674914
-0.054361183 0.08324876 -0.0051361327 -0.0025583575 -0.00899729 -0.05574012 -0.10628172 -0.027900588
-0.10778316 -0.015294476 0.013251255 -0.07012128 -0.07054706 -0.029194174 -0.014544081 -0.008323443
-0.06927523 -0.07742473 -0.09379884 -0.08657092 -0.060145512 -0.12197674 -0.0332763 -0.0396503
-0.006109228 -0.013141384 -0.005589418 -0.008513937 -0.0063326512 -0.005323076 -0.014105864 -0.0033485754
0.00035469895 -0.013744911 -0.005998065 -0.010242611 -0.0096263075 0.00058802095 -0.002832853 -0.00084482395
-0.0030941134 -0.016247379 -0.008007887 -0.0018958893 -0.0113531025 -0.008101073 -0.0073221438 -0.0030131335
-0.11098779 -0.0060302946 -0.0028649163 -0.0044460665 -0.031702746 -0.002910452 -0.0054795877 -0.014956011
-0.0024951654 -0.01370883 -0.0071706483 -0.0053182305 -0.0022669537 -0.02077451 -0.012975184 -0.0034053933
0.16655514 -0.29753426 -0.18484005 -0.08557314 -0.0585064 -0.039996833 -0.08646291 -0.15685095
-0.09234275 -0.07459326 -0.09595095 -0.08953149 -0.041926894 0.0010998659 -0.03629411 -0.014781703
-0.0059790104 -0.013975313 -0.0063613164 -0.018921599 -0.019898212 0.00047276443 -0.012745602 -0.007950505
-0.1586263 0.009153262 -0.0009722796 -0.0057719806 -0.09489002 -0.0036212348 -0.0771236 -0.0090057505
-0.15018483 -0.026717478 0.015668094 -0.001620559 -0.038990438 -0.0044947052 -0.048735794 -0.08405834
-0.09061394 -0.13106903 -0.0030055244 -0.0062077297 -0.026845356 -0.08164604 -0.026559094 -0.071463734
-0.069840714 -0.03661612 -0.1395818 -0.046602156 -0.12388255 -0.1024235 -0.07715584 -0.030068213
-0.114873454 -0.014332565 -0.019254077 -0.00030220672 -0.01162503 -0.0021531591 -0.0056999363 -0.005426058
00000000: f524 843d b54e 463e 8de2 1c3e 8a5d 18bd
00000010: 32be 393c 2a70 773d 7327 453e e92e bdbd
00000020: c5aa 6f3d 9f72 263e 6784 553d 6800 fb3a
00000030: 8b5c a8bb 4a27 bcbc 9ba0 a6ba 1164 80bc
00000040: 3b4c 303d 8d52 fb3c e93c fc3c 4d46 cebb
00000050: c6c9 193e c6b1 42bd 6486 743b 6db4 c0bd
00000060: de01 ae3a dd86 89bc de6d c5bd b097 febc
00000070: 24ca 77bc 631d 0dbd ba8e 7a3d 23a8 093c
00000080: b9f9 163d e56a b8bb 249f eabd 55a5 c4bd
00000090: 1f69 fd3d b619 5dbd a89c 6fbd acb5 e03d
000000a0: c034 c0bc a095 883e 689c 533d ebe3 673d
000000b0: 2364 d2bc 3702 c43d e2fb f03d 47f1 eabd
000000c0: 7920 dcbd e14e 7f3d 1436 913d 9247 b4bd
000000d0: 54b7 1abb ac6b 0ebd f5f3 0a3e ed28 4abc
000000e0: 37aa 8bbc ad09 acbc 7b02 073c b8da 5ebc
000000f0: 16a7 56bc d333 44bc 6638 de3b bccf 9cbb
00000100: 85dd bbbc a621 83bc 195e 40bc 7ec6 babb
00000110: 36fa 9e3a f3a8 1ebc 706f 88ba dbbb 6bbb
00000120: 7c77 6abd 1a6b b1bc c7d8 b8bb b5a7 89bc
00000130: c386 a6ba de24 00bd e69d cc3b dda1 0bbd
00000140: 58c4 fbbb 4717 e1b9 eec0 47bc 1eb7 abbd
00000150: 3f71 1dba 3341 b7bb 2df4 e1bc fa36 0ebc
00000160: 216e 16bd 0f1a 03bc 9b70 a4bc 2c36 3a3b
00000170: 94a6 063e 7192 90bc ae82 5bbc 42fd 103e
00000180: 09c4 8bbd 71f9 3d3b 212d a7bd 793b d1bd
00000190: 342c 16be 68c4 54bd b547 e23a bfe0 de3b
000001a0: 886a 88bd 6b43 ccbd 0d05 c6bd 73f3 97bd
000001b0: 93b2 3dbb c71a 2fbc 89a3 14bd e64b b4bc
000001c0: aff1 4cbd 597d 65bd d56d 18bd 669c 863c
000001d0: 189b 03bd 1a6f aa3d 86a5 16bd 189d 6ebd
000001e0: 8367 87bd d18a f7bb 1ea0 81bd 856a ddbd
000001f0: d13b 32bb 8e71 73be d576 f9bc 4874 843d
00000200: d5a9 5ebd 537e aa3d 014d a8bb 1eaa 27bb
00000210: 5f69 13bc c14f 64bd 3baa d9bd c68f e4bc
00000220: 6bbd dcbd af95 7abc cb1b 593c bf9b 8fbd
00000230: fa7a 90bd 9f28 efbc 4c4a 6ebc 0d5f 08bc
00000240: 2ce0 8dbd db90 9ebd 9b19 c0bd 184c b1bd
00000250: 245b 76bd f1ce f9bd bb4c 08bd 5a68 22bd
00000260: eb2f c8bb f64e 57bc 7027 b7bb 0a7e 0bbc
00000270: 2182 cfbb 336d aebb 481c 67bc c673 5bbb
00000280: e3f6 b939 5632 61bc 6b8b c4bb a0d0 27bc
00000290: a9b7 1dbc 6b25 1a3a 63a7 39bb 2d77 5dba
000002a0: 9cc6 4abb 3919 85bc 8333 03bc 7d7f f8ba
000002b0: 5d02 3abc 5dba 04bc 98ee efbb fe77 45bb
000002c0: 914d e3bd c799 c5bb 52c1 3bbb 4fb0 91bb
000002d0: bdda 01bd 48bd 3ebb 1d8e b3bb 0f0a 75bc
000002e0: ee85 23bb 009b 60bc c2f7 eabb 8d44 aebb
000002f0: 2c91 14bb 4e2f aabc de95 54bc 052d 5fbb
00000300: 6e8d 2a3e 6956 98be b646 3dbe f840 afbd
00000310: 68a4 6fbd b8d3 23bd 7713 b1bd 899d 20be
00000320: 321e bdbd 5ac4 98bd ef81 c4bd 495c b7bd
00000330: 89bb 2bbd 6029 903a 22a9 14bd f52e 72bc
00000340: 93eb c3bb b6f8 64bc 9772 d0bb 7801 9bbc
00000350: 9301 a3bc 5edd f739 eed2 50bc d642 02bc
00000360: ef6e 22be 90f7 153c 94e0 7eba e222 bdbb
00000370: b355 c2bd 3d52 6dbb faf2 9dbd db8c 13bc
00000380: 0dca 19be 9dde dabc 605a 803c f068 d4ba
00000390: 70b4 1fbd 5248 93bb 2f9f 47bd c726 acbd
000003a0: cd93 b9bd f636 06be 55f8 44bb 366a cbbb
000003b0: cbea dbbc 0a36 a7bd 7592 d9bc 945b 92bd
000003c0: a608 8fbd c9fa 15bd 88ee 0ebe e7e1 3ebd
000003d0: 22b6 fdbd 69c3 d1bd e203 9ebd 9d51 f6bc
000003e0: c642 ebbd 22d3 6abc baba 9dbc 8071 9eb9
000003f0: e976 3ebc 041c 0dbb 88c6 babb 13cd b1bb

encoder.net.0.bias f4 [64]
-0.021129644 -0.0093084965 -0.2413316 -0.0015537749 -0.22167066 -0.20554565 -0.25520694 -0.15644686
-0.020623425 0.057248756 0.0629276 -0.05116743 -0.2486573 -0.16859072 -0.066268854 -0.27591994
0.043275144 0.110313 -0.26748988 0.15360776 0.04296896 -0.21065888 0.28091666 0.12529112
-0.20862995 0.16799305 0.1374 0.12713926 0.12687941 -0.2653156 -0.25125593 -0.038449343
-0.025296882 -0.18240964 0.022862386 -0.29703194 -0.07157072 0.08405474 0.074301824 0.117963254
-0.02037844 0.1488539 0.18820842 0.15504137 0.081197694 0.38666564 0.13781305 -0.003622065
0.03445954 -0.105497964 0.07655323 -0.04881154 0.08131216 0.15260828 -0.043947987 0.09787905
0.050226737 -0.15008223 0.14180678 0.19781327 -0.02174426 0.034741472 -0.018140642 0.15631008
00000000: 1318 adbc aa82 18bc a21f 77be 09a8 cbba
00000010: a2fd 62be 8f7a 52be 7caa 82be 9b33 20be
00000020: 75f2 a8bc ac7d 6a3d 30e0 803d f094 51bd
00000030: 05a0 7ebe 0ca3 2cbe f7b7 87bd 6145 8dbe
00000040: 4741 313d c8eb e13d 6ff4 88be 5a4b 1d3e
00000050: 3800 303d f6b6 57be 4fd4 8f3e 514c 003e
00000060: 17a3 55be 5f06 2c3e 96b2 0c3e cb30 023e
00000070: adec 013e 72d7 87be 9ea4 80be 0f7d 1dbd
00000080: 683b cfbc 98c9 3abe e649 bb3c 9214 98be
00000090: ab93 92bd e424 ac3d 8e2b 983d b896 f13d
000000a0: b0f0 a6bc 286d 183e b5b9 403e 2ac3 1e3e
000000b0: fa4a a63d 0af9 c53e dd1e 0d3e 2b60 6dbb
000000c0: 7225 0d3d 510f d8bd f1c7 9c3d 9cee 47bd
000000d0: fd86 a63d 5845 1c3e ce02 34bd d074 c83d
000000e0: 8dba 4d3d 28af 19be cc35 113e 908f 4a3e
000000f0: 0521 b2bc 134d 0e3d af9b 94bc c00f 203e

decoder.fc.weight f4 [64, 30]
0.18513963 -0.17678691 -0.04277031 0.23205529 0.1818801 0.15106821 -0.057388414 0.16677569
-0.16804312 0.11922216 0.060169358 -0.16775893 -0.06890304 0.009910774 -0.036746576 0.45745847
0.13566358 -0.11112965 -0.04840049 -0.2644028 0.24339853 0.14264354 -0.16277997 0.13168752
0.2745359 -0.1693014 -0.008690959 0.163886 0.15158793 0.1829536 -0.14379953 -0.04332151
-0.28518412 0.17117415 -0.03080377 -0.0036143276 0.08055509 -0.029942956 0.027363317 0.14433892
-0.07186888 -0.18765664 -0.016461328 0.10724142 -0.15310754 -0.6547319 -0.0849326 -0.56379557
-0.011304953 0.11000543 -0.06563475 -0.08690272 0.2748201 -0.026522273 -0.5749815 0.16663678
0.29908386 0.19760436 0.2526116 -0.05859934 0.019598236 -0.033624966 0.39259243 -0.064285636
-0.024041148 -0.01904029 0.13473152 -0.028511161 -0.06861024 0.060352214 0.0129362745 0.03883396
0.004653541 -0.016621336 0.027359163 -1.0428201 0.03226963 1.1009662 -0.48297298 0.030104987
-0.018067012 0.020601612 -0.0667626 0.02948744 0.47089425 0.052032515 0.33332944 -0.031926643
1.5670401 -0.03648358 0.06081632 0.1889041 0.12102453 -0.09973867 -0.044673454 -0.010234369
-0.11129044 0.055916667 0.013642235 -0.02283953 -0.113730215 0.053317156 -0.08272851 -0.097611934
-0.10880004 0.48156312 0.12251651 0.5053935 -0.49165067 -0.16447279 0.03853974 0.016006546
0.103809714 0.2809576 0.3268781 0.1686396 -0.24251437 0.1304686 -0.08831366 0.2929059
0.12832206 0.0803137 0.328618 -0.042090215 0.0124175325 -0.05101777 0.109028034 0.024935344
0.059062988 -0.07817018 -0.036004588 0.048054583 -0.082429715 0.087620795 -0.072620705 0.31002307
-0.15076514 0.20634978 -0.56576616 -0.16683038 0.18163215 0.30716628 0.22851655 0.20451505
0.07095201 0.1410183 -0.34401292 0.056474037 -0.054743774 0.074926615 0.10832992 0.12629838
-0.39103577 -0.12392747 0.12991473 0.015393113 0.09716917 -0.12714587 0.15122671 -0.12897408
-0.06397949 0.13512431 0.036845654 -0.0052459487 -0.24133459 -0.48731515 -0.16491638 -0.48902982
-0.3546526 -0.16818394 0.101917125 0.013987955 0.09736524 -0.046544094 0.0617769 -0.04705345
0.2908844 0.008996648 -0.4389905 0.11471437 -0.059140526 0.031362444 -0.19828403 0.039372705
0.021969559 0.029824 -0.08968702 -0.012963194 0.06465857 -0.039610457 0.026240235 0.006386592
-0.052072085 -0.06397247 -0.020245973 0.98148024 0.02170767 -1.1990998 -0.6608667 0.16558795
-0.07866225 -0.03575267 -0.07567742 0.045623258 -0.15684827 0.15822397 0.07264495 0.024861287
0.32549396 -0.16194019 -0.08493274 0.044652168 -0.18023796 -0.13273205 -0.026124086 0.06846618
-0.119393066 0.17047991 -0.030631885 0.13015638 -0.007881862 0.10524373 0.054447576 0.08853554
-0.061128557 -0.6877281 0.09195834 -0.4320792 0.49861217 -0.023163421 -0.21322185 -0.14871696
-0.06419409 0.1612111 -0.5856036 0.097413525 0.17528926 0.12704913 0.12104399 0.07800884
-0.22674634 0.13614371 0.32883242 -0.065346114 0.12167583 -0.044628263 0.28145683 0.005380157
0.12961619 0.0032400768 -0.13778526 -0.08133089 -0.018422578 -0.09882076 -0.2672406 -0.13403852
00000000: 3e95 3d3e a107 35be ec2f 2fbd e79f 6d3e
00000010: c73e 3a3e a0b1 1a3e 1d10 6bbd 3fc7 2a3e
00000020: 7f13 2cbe bf2a f43d 2574 763d ffc8 2bbe
00000030: 091d 8dbd cd60 223c 9483 16bd ff37 ea3e
00000040: 65eb 0a3e f197 e3bd 983f 46bd ce5f 87be
00000050: 773d 793e 2611 123e cbaf 26be 18d9 063e
00000060: f88f 8c3e 595d 2dbe 8664 0ebc bbd1 273e
00000070: de39 1b3e 3058 3b3e 2f40 13be e571 31bd
00000080: a703 92be 4748 2f3e 3058 fcbc 5bde 6cbb
00000090: 11fa a43d ee4a f5bc 0929 e03c 95cd 133e
000000a0: fe2f 93bd 1029 40be e8d9 86bc 64a1 db3d
000000b0: 39c8 1cbe 839c 27bf 25f1 adbd e854 10bf
000000c0: 6938 39bc 874a e13d 836b 86bd 0efa b1bd
000000d0: 38b5 8c3e 3d45 d9bc fd31 13bf d5a2 2a3e
000000e0: 8521 993e cc58 4a3e 4f56 813e dd05 70bd
000000f0: 7b8c a03c 55ba 09bd e001 c93e 30a8 83bd
00000100: f1f1 c4bc 62fa 9bbc 0ff7 093e 3d90 e9bc
00000110: 8783 8cbd e233 773d abf2 533c 5c10 1f3d
00000120: bb7c 983b 7829 88bc 5320 e03c 217b 85bf
00000130: 292d 043d 76ec 8c3f 3c48 f7be bc9e f63c
00000140: 4501 94bc b6c4 a83c d4ba 88bd a58f f13c
00000150: 0d19 f13e 0c20 553d 28aa aa3e 83c5 02bd
00000160: c594 c83f ce6f 15bd 891a 793d 1470 413e
00000170: b5db f73d ca43 ccbd 83fb 36bd 0eae 27bc
00000180: 3eec e3bd e008 653d ae83 5f3c f719 bbbc
00000190: 63eb e8bd 1763 5a3d 916d a9bd c4e8 c7bd
000001a0: 8ed2 debd 718f f63e f0e9 fa3d 7861 013f
000001b0: a3b9 fbbe 8e6b 28be d9db 1d3d 2920 833c
000001c0: 309a d43d add9 8f3e 915c a73e dcaf 2c3e
000001d0: b055 78be 9099 053e cbdd b4bd c3f7 953e
000001e0: dc66 033e 827b a43d 9e40 a83e ca66 2cbd
000001f0: e872 4b3c 02f8 50bd 174a df3d 3545 cc3c
00000200: 08ec 713d b017 a0bd 8c79 13bd e2d4 443d
00000210: e9d0 a8bd 8872 b33d 2aba 94bd 58bb 9e3e
00000220: 2d62 1abe 5b4d 533e 0dd6 10bf 95d5 2abe
00000230: c7fd 393e e644 9d3e 3e00 6a3e 656c 513e
00000240: 4a4f 913d 1a67 103e 7622 b0be 5251 673d
00000250: 023b 60bd 2073 993d 14dc dd3d 5d54 013e
00000260: d735 c8be afcd fdbd 5e08 053e 6533 7c3c
00000270: a100 c73d 8732 02be 2ddb 1a3e c811 04be
00000280: ae07 83bd 075e 0a3e 78eb 163d 35e6 abbb
00000290: 6a20 77be 5f81 f9be d7df 28be 1e62 fabe
000002a0: 0795 b5be 6938 2cbe edb9 d03d bc2d 653c
000002b0: 6d67 c73d 05a5 3ebd c609 7d3d 1ebb 40bd
000002c0: cdee 943e ad66 133c 5dc3 e0be 5eef ea3d
000002d0: 563d 72bd e875 003d f80a 4bbe 4645 213d
000002e0: 81f9 b33c 7651 f43c d4ad b7bd 9463 54bc
000002f0: b66b 843d 933e 22bd c3f5 d63c 9e46 d13b
00000300: 8a49 55bd 0004 83bd e2da a5bc 4a42 7b3f
00000310: 49d4 b13c 1a7c 99bf 8f2e 29bf e38f 293e
00000320: ac19 a1bd 6471 12bd c3fc 9abd 74df 3a3d
00000330: d59c 20be 7705 223e e0c6 943d e6a9 cb3c
00000340: 25a7 a63e a6d3 25be 37f1 adbd 31e5 363d
00000350: 4d90 38be e9ea 07be 2e02 d6bc ff37 8c3d
00000360: 5a84 f4bd 4992 2e3e b8ef fabc b747 053e
00000370: ed22 01bc 068a d73d 6c04 5f3d 1f52 b53d
00000380: f061 7abd f30e 30bf a754 bc3d 7c39 ddbe
00000390: 184a ff3e 37c1 bdbc d456 5abe 4249 18be
000003a0: 3178 83bd 8614 253e 1eea 15bf be80 c73d
000003b0: 077f 333e 2b19 023e e9e5 f73d 19c3 9f3d
000003c0: 3130 68be 4269 0b3e b95c a83e 2fd4 85bd
000003d0: 2d31 f93d 20cc 36bd 1c1b 903e 074c b03b
000003e0: 1bba 043e 7857 543b 9417 0dbe cf90 a6bd
000003f0: f2ea 96bc 8a62 cabd c3d3 88be 6541 09be

decoder.fc.bias f4 [64]
0.45457187 0.45549497 0.5015823 0.7014895 0.26060238 0.25209922 1.0548081 0.51777285
0.56807667 0.55052346 0.17450857 0.14857492 0.51251686 0.29752773 0.34561855 0.5271024
0.36821735 0.5777226 0.1632377 0.5681079 0.1774639 0.30049577 0.38020518 0.5329359
0.16372547 0.6488329 0.0364341 0.106052384 0.31772187 0.68439114 0.28525847 1.0720359
0.11944653 0.1887629 0.42062503 0.24353606 0.58583593 0.3364918 0.4846154 -0.075004354
0.20723145 0.19951756 0.94490844 1.0242698 0.67493236 0.37295222 0.5690354 -0.0041929157
0.31585234 0.61404794 0.32575122 0.03780873 0.016886624 0.38846308 0.24231541 0.4899899
0.98837674 -0.10215288 0.36183426 0.86339545 0.14530091 0.4907885 0.5586029 0.5025437
00000000: a5bd e83e a336 e93e b367 003f d194 333f
00000010: ad6d 853e 2613 813e f403 873f c38c 043f
00000020: 796d 113f 1bef 0c3f 60b2 323e 0624 183e
00000030: 4e34 033f 8e55 983e eaf4 b03e 2ff0 063f
00000040: fc86 bc3e a1e5 133f c927 273e 856f 113f
00000050: 19b9 353e 95da 993e 41aa c23e 7d6e 083f
00000060: a6a7 273e ea19 263f ec3b 153d fe31 d93d
00000070: 71ac a23e 4234 2f3f 660d 923e 7938 893f
00000080: 62a0 f43d 104b 413e 2a5c d73e 8461 793e
00000090: 58f9 153f a748 ac3e 821f f83e e29b 99bd
000000a0: 7b34 543e 554e 4c3e 85e5 713f 461b 833f
000000b0: 5ec8 2c3f 98f3 be3e 4eac 113f ba64 89bb
000000c0: 66b7 a13e 3f32 1d3f ddc8 a63e 54dd 1a3d
000000d0: d155 8a3c a2e4 c63e 8821 783e f5df fa3e
000000e0: 4206 7d3f 8735 d1bd 5742 b93e 7c07 5d3f
000000f0: c3c9 143e a148 fb3e 9a00 0f3f b4a6 003f

decoder.out.weight f4 [96, 64]
-0.037524197 0.05621621 -0.16348128 -0.028882142 -0.13958463 0.26191154 -0.3044126 0.00087196927
0.14118601 0.1660308 0.053750914 -0.049793698 0.14070185 -0.06257748 -0.14102101 0.10662341
0.03574421 0.21173868 -0.05123708 0.061676115 -0.033716176 -0.09249456 0.0269412 0.27283683
0.10497705 -0.058657374 -0.012326471 -0.06959767 -0.12724614 -0.10033425 -0.16171986 -0.15058671
0.0058617257 0.10883352 -0.021769714 -0.14579596 0.037722327 0.016002271 0.0048138034 0.0075381435
-0.053154036 0.04361331 -0.10894138 -0.045237552 0.5086712 -0.09425047 -0.057500567 -0.15746729
0.018440772 -0.005349947 0.08146788 -0.12532407 0.017371755 0.10702636 -0.09730928 -0.33193758
0.00056547223 -0.40735534 -0.13337545 0.14034827 -0.0019559753 0.17926678 0.12440896 -0.028569575
-0.05158967 -0.11064037 -0.24969904 0.015338829 -0.030819234 0.11186566 0.0026958254 -0.039722618
0.021640949 -0.023142861 0.01168435 -0.049895503 -0.08390284 0.030118536 0.15899915 -0.21162866
0.19654599 0.052989468 0.12875189 0.086259015 0.04390572 -0.038402542 -0.035546068 0.39135113
0.05962974 -0.023732448 0.023988962 -0.09159344 0.08385462 0.0037866498 0.101672165 0.026341178
0.06300844 -0.07160429 0.016427465 0.1342462 -0.00324127 0.07565126 -0.15913413 0.12625957
0.045248687 -0.019765295 -0.01746227 -0.05425415 -0.10533005 -0.07573619 -0.17210391 0.11264514
0.02271436 0.09475969 0.14041199 -0.048721816 0.15989622 -0.04379925 0.05799794 0.17623329
-0.006353037 -0.006178392 0.029288309 -0.09474898 0.10004458 -0.009957971 0.044796694 -0.11124108
-0.026543524 -0.024832642 0.8652546 -0.04200415 -0.012193655 0.060179073 -0.60375446 -0.12380422
-0.08217126 -0.10146386 -0.007169744 -0.028628258 0.020958103 0.53722566 -0.18906678 -0.108888716
-0.108892314 -0.04992206 -0.06502971 -0.12355587 -0.11042461 0.00828387 -0.14351268 0.88393444
0.1808094 -0.15366139 0.11647271 0.16261478 0.055012055 -0.054460414 -0.051441047 -0.14136747
0.14462146 0.012949923 0.00024451697 0.057911787 -0.17964643 -0.098053105 0.1983541 0.12203379
0.49634612 0.115173206 -0.5225954 -0.71317345 -0.01286441 -0.13236177 -0.08099016 0.05433211
0.06940083 -0.23840494 0.18205035 0.39415678 0.115084045 -0.011393683 -0.07089847 0.078050464
-0.26509777 -0.0357376 0.09776888 -0.2002763 -0.12097201 0.112477705 -0.10797449 -0.1548774
-0.083246514 -0.018620294 -0.03730725 -0.043144733 0.007636508 0.08673983 -0.098770626 -0.153552
-0.04526275 -0.055712737 0.0366789 -0.10653111 -0.07991361 -0.045048945 -0.12254216 0.032507036
-0.07151496 -0.058069568 -0.0023336746 -0.06728604 -0.068522535 -0.14469983 -0.011388007 -0.04131958
-0.028850595 -0.0850295 -0.08883638 0.056939173 -0.084846266 -0.04004165 -0.09526456 -0.049357824
0.0046439325 -0.023970064 -0.045286465 0.03119842 -0.045770723 -0.041682355 -0.053905755 0.09802378
0.042925317 0.07017036 -0.04609376 -0.03100711 0.031136744 -0.092925705 -0.0007824767 0.020319114
0.034974653 -0.087493904 0.061306 0.049515758 0.052470133 -0.03465014 -0.060337238 -0.054077625
-0.120807566 -0.052388713 -0.031537507 -0.17922565 0.012830238 -0.018901566 -0.03060002 0.07429085
00000000: f9b2 19bd f842 663d a367 27be 3e9a ecbc
00000010: 46ef 0ebe 4519 863e f8db 9bbe de94 643a
00000020: 1193 103e fa03 2a3e eb29 5c3d 7af4 4bbd
00000030: 2514 103e 9f28 80bd d067 10be 605d da3d
00000040: 8568 123d 06d2 583e f9dd 51bd 18a0 7c3d
00000050: f919 0abd ca6d bdbd cbb3 dc3c 45b1 8b3e
00000060: 35fe d63d b742 70bd f7f4 49bc 3989 8ebd
00000070: d04c 02be 0b7c cdbd e499 25be 6733 1abe
00000080: b813 c03b 1ce4 de3d 6656 b2bc 894b 15be
00000090: ba82 1a3d 3217 833c 1cbd 9d3b 8802 f73b
000000a0: 0cb8 59bd dfa3 323d a91c dfbd 034b 39bd
000000b0: 4738 023f 6406 c1bd b785 6bbd 1b3f 21be
000000c0: 1a11 973c 9c4e afbb a2d8 a63d f454 00be
000000d0: 364f 8e3c a330 db3d 164a c7bd b9f3 a9be
000000e0: 333c 143a e190 d0be 9393 08be 75b7 0f3e
000000f0: d22f 00bb b691 373e 20ca fe3d be0a eabc
00000100: b14f 53bd 6b97 e2bd 1bb1 7fbe b64f 7b3c
00000110: 9e78 fcbc d319 e53d 72ac 303b 2fb4 22bd
00000120: 5c48 b13c 1996 bdbc b76f 3f3c 3a5f 4cbd
00000130: 41d5 abbd 26bb f63c acd0 223e 2fb5 58be
00000140: 5a43 493e 7c0b 593d 89d7 033e 91a8 b03d
00000150: 7cd6 333d fc4b 1dbd c198 11bd 2d5f c83e
00000160: 503e 743d 8d6a c2bc 8084 c43c 5795 bbbd
00000170: f9bb ab3d 7129 783b 7f39 d03d 74c9 d73c
00000180: 920a 813d 45a5 92bd e492 863c d677 093e
00000190: 7d6b 54bb 0cef 9a3d 0ff4 22be 304a 013e
000001a0: b056 393d d4ea a1bc 090d 8fbc 9939 5ebd
000001b0: 48b7 d7bd 931b 9bbd 023c 30be 7fb2 e63d
000001c0: 7713 ba3c 5e11 c23d 29c8 0f3e 8790 47bd
000001d0: d6bb 233e d866 33bd 3f8f 6d3d 8076 343e
000001e0: 232d d0bb 1c74 cabb 09ee ef3c c10b c2bd
000001f0: 2ce4 cc3d c226 23bc bd7c 373d 5dd2 e3bd
00000200: ce71 d9bc d36d cbbc 5381 5d3f 8b0c 2cbd
00000210: e5c7 47bc 557e 763d a78f 1abf 118d fdbd
00000220: 6849 a8bd 49cc cfbd 2cf0 eabb cf85 eabc
00000230: 54b0 ab3c 9f87 093f b99a 41be 0c01 dfbd
00000240: ef02 dfbd 137b 4cbd 4c2e 85bd dc0a fdbd
00000250: 4c26 e2bd 12b9 073c fdf4 12be 8749 623f
00000260: 1926 393e 6959 1dbe 3f89 ee3d 7d84 263e
00000270: 5254 613d e211 5fbd d9b3 52bd a2c2 10be
00000280: a617 143e ea2b 543c 8332 8039 e934 6d3d
00000290: 3cf5 37be 11d0 c8bd 561d 4b3e daec f93d
000002a0: 1421 fe3e eedf eb3d d0c8 05bf 8992 36bf
000002b0: 3fc5 52bc d889 07be 2bde a5bd 598b 5e3d
000002c0: 0622 8e3d 6d20 74be 686b 3a3e ebce c93e
000002d0: 2fb1 eb3d 92ac 3abc 3833 91bd ecd8 9f3d
000002e0: e5ba 87be 9761 12bd 0d3b c83d 3b15 4dbe
000002f0: 2cc0 f7bd b65a e63d bb21 ddbd 2e98 1ebe
00000300: 267d aabd 9689 98bc 7dcf 18bd 88b8 30bd
00000310: ac3b fa3b a7a4 b13d 4148 cabd bc3c 1dbe
00000320: 6f65 39bd 0a33 64bd 9d3c 163d fc2c dabd
00000330: bfa9 a3bd 3e85 38bd 62f7 fabd 1926 053d
00000340: 6f76 92bd 5bda 6dbd 90f0 18bb 43cd 89bd
00000350: 8b55 8cbd 312c 14be c394 3abc b83e 29bd
00000360: 1558 ecbc f223 aebd d9ef b5bd 0d39 693d
00000370: e1c3 adbd b702 24bd 111a c3bd 6e2b 4abd
00000380: 212c 983b de5c c4bc 4d7e 39bd d493 ff3c
00000390: 157a 3bbd 1ebb 2abd 48cc 5cbd b1c0 c83d
000003a0: 75d2 2f3d 7ab5 8f3d cfcc 3cbd 9f02 febc
000003b0: 7c12 ff3c d54f bebd 1f1f 4dba 4574 a63c
000003c0: 9541 0f3d 0130 b3bd 001c 7b3d 09d1 4a3d
000003d0: ecea 563d 4eed 0dbd 2e24 77bd 8080 5dbd
000003e0: f569 f7bd 8c95 56bd 792d 01bd ee86 37be
000003f0: eb35 523c 75d7 9abc e5ac fabc cd25 983d

decoder.out.bias f4 [96]
0.086258724 -0.2103188 -0.18956783 -0.18241559 -0.23676695 -0.2741171 -0.19487162 0.22783983
-0.32740083 -0.23092407 -0.27638108 -0.1331704 -0.19293575 -0.18708886 -0.2602237 -0.13209896
-0.1630777 -0.14299233 -0.25494263 -0.22682701 -0.40319142 -0.17313546 -0.33107516 -0.25191516
-0.13715275 -0.13468406 -0.1719192 -0.109284155 0.12006142 -0.25243205 -0.20854643 -0.2540917
-0.25354776 -0.25548574 -0.3871503 -0.26975322 -0.24314475 -0.26284507 -0.32368195 -0.37995252
-0.14120764 -0.35240483 -0.18050112 -0.38575998 -0.202628 -0.25189617 -0.20317629 -0.17175817
-0.29573554 -0.24949554 -0.26607075 -0.19965655 -0.27018318 -0.10308715 0.15894218 -0.15376776
-0.21309398 -0.22967783 -0.16410953 -0.24025033 -0.24361704 -0.14966746 -0.08516031 -0.21774535
-0.16071779 -0.16450928 -0.24748364 -0.14994654 -0.11585691 -0.21279784 -0.1618117 -0.24547906
-0.23581922 -0.13643508 -0.087597124 -0.19996645 -0.13730556 -0.1901688 -0.20827559 -0.20009936
-0.19139437 -0.07792198 -0.12682238 -0.24268533 -0.2576918 -0.13059561 -0.19920911 -0.14443775
-0.14161049 -0.25256133 -0.18576302 -0.1931118 0.056424335 -0.1982171 -0.13417125 -0.07660062
00000000: 6aa8 b03d d05d 57be 121e 42be 27cb 3abe
00000010: 0973 72be 1459 8cbe 6d8c 47be d84e 693e
00000020: 15a1 a7be 5c77 6cbe d281 8dbe d25d 08be
00000030: f390 45be 3994 3fbe 0a3c 85be f344 07be
00000040: d7fd 26be 956c 12be d787 82be 5745 68be
00000050: 1b6f cebe 6c4a 31be af82 a9be 06fb 80be
00000060: c571 0cbe 9eea 09be 960b 30be 5fd0 dfbd
00000070: c3e2 f53d c63e 81be 328d 55be 4f18 82be
00000080: 03d1 81be 07cf 82be 9038 c6be 181d 8abe
00000090: f0fa 78be a193 86be a4b9 a5be 2389 c2be
000000a0: bc98 10be 686e b4be 49d5 38be 5582 c5be
000000b0: b77d 4fbe 89f8 80be 720d 50be 60e1 2fbe
000000c0: a66a 97be c27b 7fbe 6d3a 88be c472 4cbe
000000d0: 7355 8abe 5b1f d3bd bdc1 223e 4c75 1dbe
000000e0: 4f35 5abe aa30 6bbe 540c 28be 2f04 76be
000000f0: bf76 79be 6d42 19be 8768 aebd a3f8 5ebe
00000100: 3493 24be 1f75 28be 5a6c 7dbe 968b 19be
00000110: 6346 edbd ade7 59be f7b1 25be dd5e 7bbe
00000120: 987a 71be a3b5 0bbe 1f66 b3bd 01c4 4cbe
00000130: d499 0cbe 9cbb 42be 3246 55be d9e6 4cbe
00000140: e3fc 43be 8f95 9fbd badd 01be 8182 78be
00000150: 2ef0 83be dbba 05be 79fd 4bbe 7de7 13be
00000160: 5702 11be b84f 81be a938 3ebe 1abf 45be
00000170: 341d 673d 6cf9 4abe 3064 09be c9e0 9cbd

decoder.bn.weight f4 [64]
1.0 1.0 1.0 1.0 1.0 1.0 1.0 1.0
1.0 1.0 1.0 1.0 1.0 1.0 1.0 1.0
1.0 1.0 1.0 1.0 1.0 1.0 1.0 1.0
1.0 1.0 1.0 1.0 1.0 1.0 1.0 1.0
1.0 1.0 1.0 1.0 1.0 1.0 1.0 1.0
1.0 1.0 1.0 1.0 1.0 1.0 1.0 1.0
1.0 1.0 1.0 1.0 1.0 1.0 1.0 1.0
1.0 1.0 1.0 1.0 1.0 1.0 1.0 1.0
00000000: 0000 803f 0000 803f 0000 803f 0000 803f
00000010: 0000 803f 0000 803f 0000 803f 0000 803f
00000020: 0000 803f 0000 803f 0000 803f 0000 803f
00000030: 0000 803f 0000 803f 0000 803f 0000 803f
00000040: 0000 803f 0000 803f 0000 803f 0000 803f
00000050: 0000 803f 0000 803f 0000 803f 0000 803f
00000060: 0000 803f 0000 803f 0000 803f 0000 803f
00000070: 0000 803f 0000 803f 0000 803f 0000 803f
00000080: 0000 803f 0000 803f 0000 803f 0000 803f
00000090: 0000 803f 0000 803f 0000 803f 0000 803f
000000a0: 0000 803f 0000 803f 0000 803f 0000 803f
000000b0: 0000 803f 0000 803f 0000 803f 0000 803f
000000c0: 0000 803f 0000 803f 0000 803f 0000 803f
000000d0: 0000 803f 0000 803f 0000 803f 0000 803f
000000e0: 0000 803f 0000 803f 0000 803f 0000 803f
000000f0: 0000 803f 0000 803f 0000 803f 0000 803f

decoder.bn.bias f4 [64]
0.0 0.0 0.0 0.0 0.0 0.0 0.0 0.0
0.0 0.0 0.0 0.0 0.0 0.0 0.0 0.0
0.0 0.0 0.0 0.0 0.0 0.0 0.0 0.0
0.0 0.0 0.0 0.0 0.0 0.0 0.0 0.0
0.0 0.0 0.0 0.0 0.0 0.0 0.0 0.0
0.0 0.0 0.0 0.0 0.0 0.0 0.0 0.0
0.0 0.0 0.0 0.0 0.0 0.0 0.0 0.0
0.0 0.0 0.0 0.0 0.0 0.0 0.0 0.0
00000000: 0000 0000 0000 0000 0000 0000 0000 0000
00000010: 0000 0000 0000 0000 0000 0000 0000 0000
00000020: 0000 0000 0000 0000 0000 0000 0000 0000
00000030: 0000 0000 0000 0000 0000 0000 0000 0000
00000040: 0000 0000 0000 0000 0000 0000 0000 0000
00000050: 0000 0000 0000 0000 0000 0000 0000 0000
00000060: 0000 0000 0000 0000 0000 0000 0000 0000
00000070: 0000 0000 0000 0000 0000 0000 0000 0000
00000080: 0000 0000 0000 0000 0000 0000 0000 0000
00000090: 0000 0000 0000 0000 0000 0000 0000 0000
000000a0: 0000 0000 0000 0000 0000 0000 0000 0000
000000b0: 0000 0000 0000 0000 0000 0000 0000 0000
000000c0: 0000 0000 0000 0000 0000 0000 0000 0000
000000d0: 0000 0000 0000 0000 0000 0000 0000 0000
000000e0: 0000 0000 0000 0000 0000 0000 0000 0000
000000f0: 0000 0000 0000 0000 0000 0000 0000 0000

decoder.bn.running_mean f4 [64]
0.0 0.0 0.0 0.0 0.0 0.0 0.0 0.0
0.0 0.0 0.0 0.0 0.0 0.0 0.0 0.0
0.0 0.0 0.0 0.0 0.0 0.0 0.0 0.0
0.0 0.0 0.0 0.0 0.0 0.0 0.0 0.0
0.0 0.0 0.0 0.0 0.0 0.0 0.0 0.0
0.0 0.0 0.0 0.0 0.0 0.0 0.0 0.0
0.0 0.0 0.0 0.0 0.0 0.0 0.0 0.0
0.0 0.0 0.0 0.0 0.0 0.0 0.0 0.0
00000000: 0000 0000 0000 0000 0000 0000 0000 0000
00000010: 0000 0000 0000 0000 0000 0000 0000 0000
00000020: 0000 0000 0000 0000 0000 0000 0000 0000
00000030: 0000 0000 0000 0000 0000 0000 0000 0000
00000040: 0000 0000 0000 0000 0000 0000 0000 0000
00000050: 0000 0000 0000 0000 0000 0000 0000 0000
00000060: 0000 0000 0000 0000 0000 0000 0000 0000
00000070: 0000 0000 0000 0000 0000 0000 0000 0000
00000080: 0000 0000 0000 0000 0000 0000 0000 0000
00000090: 0000 0000 0000 0000 0000 0000 0000 0000
000000a0: 0000 0000 0000 0000 0000 0000 0000 0000
000000b0: 0000 0000 0000 0000 0000 0000 0000 0000
000000c0: 0000 0000 0000 0000 0000 0000 0000 0000
000000d0: 0000 0000 0000 0000 0000 0000 0000 0000
000000e0: 0000 0000 0000 0000 0000 0000 0000 0000
000000f0: 0000 0000 0000 0000 0000 0000 0000 0000

decoder.bn.running_var f4 [64]
1.0 1.0 1.0 1.0 1.0 1.0 1.0 1.0
1.0 1.0 1.0 1.0 1.0 1.0 1.0 1.0
1.0 1.0 1.0 1.0 1.0 1.0 1.0 1.0
1.0 1.0 1.0 1.0 1.0 1.0 1.0 1.0
1.0 1.0 1.0 1.0 1.0 1.0 1.0 1.0
1.0 1.0 1.0 1.0 1.0 1.0 1.0 1.0
1.0 1.0 1.0 1.0 1.0 1.0 1.0 1.0
1.0 1.0 1.0 1.0 1.0 1.0 1.0 1.0
00000000: 0000 803f 0000 803f 0000 803f 0000 803f
00000010: 0000 803f 0000 803f 0000 803f 0000 803f
00000020: 0000 803f 0000 803f 0000 803f 0000 803f
00000030: 0000 803f 0000 803f 0000 803f 0000 803f
00000040: 0000 803f 0000 803f 0000 803f 0000 803f
00000050: 0000 803f 0000 803f 0000 803f 0000 803f
00000060: 0000 803f 0000 803f 0000 803f 0000 803f
00000070: 0000 803f 0000 803f 0000 803f 0000 803f
00000080: 0000 803f 0000 803f 0000 803f 0000 803f
00000090: 0000 803f 0000 803f 0000 803f 0000 803f
000000a0: 0000 803f 0000 803f 0000 803f 0000 803f
000000b0: 0000 803f 0000 803f 0000 803f 0000 803f
000000c0: 0000 803f 0000 803f 0000 803f 0000 803f
000000d0: 0000 803f 0000 803f 0000 803f 0000 803f
000000e0: 0000 803f 0000 803f 0000 803f 0000 803f
000000f0: 0000 803f 0000 803f 0000 803f 0000 803f
