FarconVAE/model_adult/farcon_2023_05_01_22_07_13_890636_ours.pth (torch, 82153 bytes, 21 tensors)

encoder.fc.weight f4 [64, 97]
0	0x3e1448de	0.14480922
1	0xbd1c58f5	-0.038170774
2	0xbc728b94	-0.014803786
3	0x3db3c107	0.087770514
4	0xbab00bee	-0.001343129
5	0x3ce9798f	0.028500346
6	0x3e125816	0.14291415
7	0xbc96d1fb	-0.018410673
8	0x3d3a7d47	0.04552963
9	0x3e4fc6fc	0.2029075
10	0x3e093cc3	0.13402085
11	0x3d1c25a4	0.038121834
12	0x3d760b17	0.06006917
13	0x3d828be0	0.06374335
14	0x3db17926	0.08665685
15	0x3d99403e	0.07482956
16	0x3dc0c7c8	0.09413105
17	0x3d8653af	0.0655893
18	0x3c23b3b2	0.009991573
19	0x3c0279ea	0.007963637
20	0xbd9189bd	-0.071063496
21	0x3db3ae7d	0.087735154
22	0x3e649e70	0.22326064
23	0x3e1b1519	0.15144767
24	0x3d8366f9	0.06416125
25	0x3dbe2a30	0.092853904
26	0xbd2bede2	-0.04197491
27	0x3dd26579	0.102732606
28	0xbe516580	-0.20448875
29	0x3e054425	0.13014276
30	0x3e41895a	0.18900052
31	0x3e0c4add	0.13700433
32	0x3e1b57bc	0.15170187
33	0x3ca47464	0.02007503
34	0x3de2cd6f	0.110743396
35	0x3d6cf4e8	0.05785075
36	0x3dd28a70	0.10280311
37	0x3da700d8	0.08154458
38	0x3d9c2624	0.07624462
39	0x3e462e3e	0.19353577
40	0x3d6bc19b	0.057557683
41	0x3df2ad44	0.11849454
42	0x3dd2776d	0.10276685
43	0xbd87a445	-0.06623129
44	0xbb76ebdf	-0.0037677211
45	0x3d874468	0.06604844
46	0x3ecbc0d7	0.39795563
47	0x3e6477c1	0.22311307
48	0xbcffd93c	-0.031231515
49	0x3e9508fa	0.2910841
50	0xbeb8e126	-0.36109275
51	0x3e81eaef	0.25374553
52	0x3eae96e9	0.3409951
53	0x3e30fea5	0.17284639
54	0xbc835968	-0.016033843
55	0x3d591165	0.052995104
56	0x3ca3cc43	0.01999486
57	0x3d4e3f4a	0.050353326
58	0x3d88deb0	0.06683099
59	0x3d76832f	0.0601837
60	0x3d05e9b3	0.032693576
61	0x3d4052f7	0.04695412
62	0x3d8469e3	0.06465509
63	0x3d1fe684	0.039038196
64	0x3d8f005f	0.06982493
65	0x3d28b95f	0.04119241
66	0x3d5f7a10	0.054559767
67	0x3b80f5f4	0.00393557
68	0x3b5fba67	0.0034138204
69	0x3cfe4811	0.031040223
70	0x3c4f2d96	0.012645146
71	0x3d34abb9	0.04410908
72	0x3cab60e6	0.020920228
73	0x3d2ac8a3	0.04169525
74	0x3d0c65f7	0.03427693
75	0x3d0e86df	0.03479659
76	0x3d64fdae	0.05590599
77	0x3d5ca75b	0.05387054
78	0x3d201b0d	0.039088298
79	0x3d90c6c0	0.070691586
80	0x3d0bd1d5	0.03413566
81	0x3cd9f343	0.026605254
82	0x3d4b22fa	0.049593903
83	0x3da7f029	0.08200104
84	0x3d715e45	0.058927793
85	0x3d0f812f	0.03503531
86	0x3d5506ae	0.052008323
87	0x3ce332d3	0.027734196
88	0x3d4692f3	0.048479985
89	0x3c5064ba	0.012719328
90	0x3cf1333a	0.029443372
91	0x3b30c706	0.0026974096
92	0xbca1ddaa	-0.019759018
93	0x3cb1ea09	0.021718042
94	0x3ceaabe3	0.028646415
95	0xbd4084aa	-0.04700152
96	0x3f5303a7	0.8242745
97	0xbd1a7c7e	-0.03771638
98	0x3dae2067	0.08502274
99	0xbd6b613f	-0.057465788
100	0xbdec9e15	-0.11553589
101	0xbdcb9999	-0.09941406
102	0xbcaab49c	-0.020838074
103	0xbdaa7cd6	-0.08324592
104	0x3c94ccca	0.018164057
105	0xbdb506dd	-0.088392
106	0xbdfdaa59	-0.12386007
107	0xbda48ac9	-0.08034284
108	0xbc7e38a5	-0.015516435
109	0x3e85c221	0.2612467
110	0x3df454ad	0.11930213
111	0xbd3670de	-0.044541232
112	0xbdb27edb	-0.08715602
113	0xbdc5282a	-0.09626801
114	0xbd8dd6a9	-0.06925709
115	0xbe161421	-0.14656116
116	0xbe0f698f	-0.14005111
117	0xbdcb0cb4	-0.09914532
118	0xbcf82203	-0.030289656
119	0x3dcfc92a	0.10145791
120	0xbdf95114	-0.121736676
121	0xbcb2cd46	-0.021826398
122	0xbd28339d	-0.041064847
123	0x3e1129c4	0.14176089
124	0x3be226ea	0.0069016116
125	0xbe78cdcf	-0.2429726
126	0xbde68105	-0.11255077
127	0x3ea1f2af	0.31630465
128	0xbd58990b	-0.05288033
129	0xbcca2319	-0.024674939
130	0xbc2803c6	-0.010254806
131	0xbddd9059	-0.10818548
132	0xbd1beb17	-0.038065996
133	0xbd3a2e2b	-0.045454185
134	0x3ea61ac6	0.32442302
135	0xbd9ad2cb	-0.07559737
136	0x3dfec22a	0.124393776
137	0xbd2c6657	-0.042089786
138	0xbdf89ac4	-0.12138894
139	0xbd6fbaf3	-0.058527898
140	0xbc5614d3	-0.013066488
141	0xbd5a979a	-0.053367235
142	0xbd7ff4b9	-0.062489245
143	0x3e22aa98	0.15885389
144	0xbdb2b340	-0.087255955
145	0x3e8f6c25	0.28012195
146	0xbde82f65	-0.11337165
147	0xbe592bdf	-0.21208142
148	0xbddf65ed	-0.10908113
149	0x3b805bc5	0.00391719
150	0xbd86ab83	-0.06575682
151	0x3dfdf720	0.12400651
152	0xbc80fb69	-0.015744882
153	0xbbc029b1	-0.005864345
154	0xbcfc628c	-0.03080871
155	0xbd07cc78	-0.03315398
156	0xbd00b51e	-0.031422727
157	0xbc7894cc	-0.015172195
158	0xbd8fcffc	-0.07022092
159	0xbc815be7	-0.015790893
160	0xbbba5287	-0.0056861076
161	0xbcf9057f	-0.030398129
162	0xbc4e6935	-0.0125983255
163	0xbd4ac281	-0.0495019
164	0xbc99cf85	-0.01877571
165	0xbbae7d43	-0.005324991
166	0xbc93b8e0	-0.018032491
167	0xbc16b263	-0.009197804
168	0x37d09b09	2.4867726e-05
169	0xbcd4ad80	-0.025961637
170	0xbc156f2e	-0.009120746
171	0xbce4ec5f	-0.027944742
172	0xbcbf9728	-0.023387507
173	0xbcc15314	-0.023599185
174	0xbcba7104	-0.022758968
175	0xbc26c9c2	-0.010179939
176	0xbe01c42f	-0.12672494
177	0xbce619db	-0.0280885
178	0xbc5ed900	-0.0136015415
179	0xbcc2f3b9	-0.023797857
180	0xbd20c1ab	-0.039247196
181	0xbcbeb5db	-0.023280075
182	0xbcc676b3	-0.024226522
183	0xbd43a4d8	-0.04776463
184	0xbc293bc5	-0.010329192
185	0xbcb12008	-0.021621719
186	0xbc3be073	-0.011467087
187	0xbc08366a	-0.008313755
188	0xbb642c9d	-0.003481663
189	0x3da3444d	0.07972012
190	0xbc6c8b14	-0.014437456
191	0xbc01293e	-0.007883368
192	0xbe0a9894	-0.13534766
193	0xbda2dfb2	-0.07952823
194	0x3d99bcf9	0.07506747
195	0x3e0d2189	0.13782324
196	0x3d733bdb	0.059383254
197	0x3d1e2483	0.03860904
198	0x3d889012	0.06668104
199	0xbd3657d6	-0.04451736
200	0x3cb57b60	0.022153556
201	0x3de3d298	0.11124152
202	0xbd612408	-0.054966003
203	0xbdbaf229	-0.0912822
204	0xbdb40dad	-0.08791671
205	0xbc98f2dd	-0.018670494
206	0x3dea7540	0.11448145
207	0x3d6a6b1b	0.05723105
208	0xbc1f2675	-0.009713759
209	0x3c36ae3d	0.01114994
210	0x3cf062e7	0.029344035
211	0xbcdeaa1e	-0.027180728
212	0xbd0411ac	-0.032243416
213	0xbd3dc128	-0.046326786
214	0xbdb3c52a	-0.087778404
215	0x3c9cb327	0.019128395
216	0xbc587595	-0.0132116275
217	0xbc91abeb	-0.017782172
218	0xbc49324d	-0.012280059
219	0xbb1377bb	-0.0022501785
220	0x3cc9e4fa	0.024645317
221	0xbcbe3c32	-0.023222063
222	0x3dfbf808	0.123031676
223	0x3caf7d89	0.021422165
224	0x3db9b11f	0.09066986
225	0x3d5e98eb	0.054345053
226	0xbb78c3b4	-0.0037958445
227	0xbc86ca53	-0.016453898
228	0x3c954a3c	0.018223874
229	0xbda84d53	-0.082178734
230	0x3d24833b	0.040164214
231	0x3e1babbb	0.15202229
232	0x3d0280e7	0.031861212
233	0x3d369ed7	0.044585075
234	0xbcd6bb26	-0.026212286
235	0xbdcf2394	-0.10114208
236	0xbd136140	-0.035981417
237	0xbd7de6a2	-0.061987527
238	0x3d8b66bd	0.06806705
239	0x3d878072	0.06616296
240	0x3cddf02e	0.027092066
241	0xbd215092	-0.03938348
242	0x3d8e4ddf	0.069484465
243	0xbdb310ec	-0.08743462
244	0xbcdb6b88	-0.026784673
245	0xbcb27163	-0.021782583
246	0xbe0e0d6b	-0.13872306
247	0xbd5d4aca	-0.054026403
248	0x3d549181	0.051896576
249	0x3c512327	0.012764729
250	0xbbb4ac5a	-0.00551371
251	0xba2789a1	-0.0006391053
252	0x3c161839	0.009161049
253	0xba7d5337	-0.0009663584
254	0x3b4b109d	0.0030985244
255	0x3add7387	0.0016895392

encoder.fc.bias f4 [64]
0	0x3db9e59c	0.09076998
1	0xbd0ccd08	-0.03437522
2	0x3d8e4eab	0.069485985
3	0x3dd76b44	0.10518506
4	0x3d4d34d0	0.050099194
5	0xbe654d4b	-0.22392766
6	0xbe43bd40	-0.19115162
7	0x3d66cab2	0.05634565
8	0xbea406df	-0.32036492
9	0xbd40a63f	-0.047033545
10	0xbe6b6a47	-0.2298976
11	0xbe146bf1	-0.14494301
12	0x3e05c370	0.13062835
13	0x3d09d967	0.033654597
14	0xbe50cb00	-0.20389938
15	0xbe9101ba	-0.2832163
16	0xbe39b7f6	-0.18136582
17	0x3c9a3887	0.018825782
18	0xbe8bae8c	-0.27281606
19	0x3d1deb2e	0.038554363
20	0xbd2191b3	-0.03944559
21	0xbd250928	-0.040291935
22	0x3d754ec2	0.059889562
23	0xbc83b773	-0.016078686
24	0xbd447eac	-0.047972366
25	0x3e388568	0.1801964
26	0x3dfe1c66	0.1240776
27	0x3d3ad4c1	0.045613054
28	0xbd8e00cb	-0.06933745
29	0x3ca694ca	0.02033462
30	0x3cababcf	0.020955948
31	0x3e32ab95	0.17448266
32	0xbd7861fe	-0.060640328
33	0xbe04f5d2	-0.12984398
34	0x3e181700	0.14852524
35	0xbe53c175	-0.20679267
36	0x3e99342e	0.29922622
37	0x3e510148	0.20410645
38	0xbe4d22d3	-0.20032816
39	0xbe8d4265	-0.27589718
40	0x3dc782ad	0.09741721
41	0xbe2c4cdf	-0.16826199
42	0x3dc95edc	0.09832546
43	0x3ca70e65	0.020392606
44	0xbdd159d0	-0.102222085
45	0x3e12fd01	0.14354326
46	0x3beede8b	0.007289713
47	0x3c677a7c	0.014128324
48	0x3e0678e6	0.13132057
49	0xbea97b5e	-0.33101934
50	0xbe8e6597	-0.27811882
51	0x3d3c264e	0.045934968
52	0xbe950bff	-0.29110715
53	0x3e3c1bf1	0.18370034
54	0xbe3adb44	-0.18247706
55	0x3cd1e764	0.025623031
56	0xbe3b2a0f	-0.18277763
57	0xbda6ae13	-0.08138671
58	0x3d7e8614	0.062139586
59	0x3d0efc8e	0.034908824
60	0x3b9ef352	0.0048507834
61	0xbe70fd09	-0.23534025
62	0x3dbe10a9	0.092805214
63	0x3b9e2f6f	0.004827432

encoder.bn.weight f4 [64]
0	0x3f800000	1.0
1	0x3f800000	1.0
2	0x3f800000	1.0
3	0x3f800000	1.0
4	0x3f800000	1.0
5	0x3f800000	1.0
6	0x3f800000	1.0
7	0x3f800000	1.0
8	0x3f800000	1.0
9	0x3f800000	1.0
10	0x3f800000	1.0
11	0x3f800000	1.0
12	0x3f800000	1.0
13	0x3f800000	1.0
14	0x3f800000	1.0
15	0x3f800000	1.0
16	0x3f800000	1.0
17	0x3f800000	1.0
18	0x3f800000	1.0
19	0x3f800000	1.0
20	0x3f800000	1.0
21	0x3f800000	1.0
22	0x3f800000	1.0
23	0x3f800000	1.0
24	0x3f800000	1.0
25	0x3f800000	1.0
26	0x3f800000	1.0
27	0x3f800000	1.0
28	0x3f800000	1.0
29	0x3f800000	1.0
30	0x3f800000	1.0
31	0x3f800000	1.0
32	0x3f800000	1.0
33	0x3f800000	1.0
34	0x3f800000	1.0
35	0x3f800000	1.0
36	0x3f800000	1.0
37	0x3f800000	1.0
38	0x3f800000	1.0
39	0x3f800000	1.0
40	0x3f800000	1.0
41	0x3f800000	1.0
42	0x3f800000	1.0
43	0x3f800000	1.0
44	0x3f800000	1.0
45	0x3f800000	1.0
46	0x3f800000	1.0
47	0x3f800000	1.0
48	0x3f800000	1.0
49	0x3f800000	1.0
50	0x3f800000	1.0
51	0x3f800000	1.0
52	0x3f800000	1.0
53	0x3f800000	1.0
54	0x3f800000	1.0
55	0x3f800000	1.0
56	0x3f800000	1.0
57	0x3f800000	1.0
58	0x3f800000	1.0
59	0x3f800000	1.0
60	0x3f800000	1.0
61	0x3f800000	1.0
62	0x3f800000	1.0
63	0x3f800000	1.0

encoder.bn.bias f4 [64]
0	0x00000000	0.0
1	0x00000000	0.0
2	0x00000000	0.0
3	0x00000000	0.0
4	0x00000000	0.0
5	0x00000000	0.0
6	0x00000000	0.0
7	0x00000000	0.0
8	0x00000000	0.0
9	0x00000000	0.0
10	0x00000000	0.0
11	0x00000000	0.0
12	0x00000000	0.0
13	0x00000000	0.0
14	0x00000000	0.0
15	0x00000000	0.0
16	0x00000000	0.0
17	0x00000000	0.0
18	0x00000000	0.0
19	0x00000000	0.0
20	0x00000000	0.0
21	0x00000000	0.0
22	0x00000000	0.0
23	0x00000000	0.0
24	0x00000000	0.0
25	0x00000000	0.0
26	0x00000000	0.0
27	0x00000000	0.0
28	0x00000000	0.0
29	0x00000000	0.0
30	0x00000000	0.0
31	0x00000000	0.0
32	0x00000000	0.0
33	0x00000000	0.0
34	0x00000000	0.0
35	0x00000000	0.0
36	0x00000000	0.0
37	0x00000000	0.0
38	0x00000000	0.0
39	0x00000000	0.0
40	0x00000000	0.0
41	0x00000000	0.0
42	0x00000000	0.0
43	0x00000000	0.0
44	0x00000000	0.0
45	0x00000000	0.0
46	0x00000000	0.0
47	0x00000000	0.0
48	0x00000000	0.0
49	0x00000000	0.0
50	0x00000000	0.0
51	0x00000000	0.0
52	0x00000000	0.0
53	0x00000000	0.0
54	0x00000000	0.0
55	0x00000000	0.0
56	0x00000000	0.0
57	0x00000000	0.0
58	0x00000000	0.0
59	0x00000000	0.0
60	0x00000000	0.0
61	0x00000000	0.0
62	0x00000000	0.0
63	0x00000000	0.0

encoder.bn.running_mean f4 [64]
0	0x00000000	0.0
1	0x00000000	0.0
2	0x00000000	0.0
3	0x00000000	0.0
4	0x00000000	0.0
5	0x00000000	0.0
6	0x00000000	0.0
7	0x00000000	0.0
8	0x00000000	0.0
9	0x00000000	0.0
10	0x00000000	0.0
11	0x00000000	0.0
12	0x00000000	0.0
13	0x00000000	0.0
14	0x00000000	0.0
15	0x00000000	0.0
16	0x00000000	0.0
17	0x00000000	0.0
18	0x00000000	0.0
19	0x00000000	0.0
20	0x00000000	0.0
21	0x00000000	0.0
22	0x00000000	0.0
23	0x00000000	0.0
24	0x00000000	0.0
25	0x00000000	0.0
26	0x00000000	0.0
27	0x00000000	0.0
28	0x00000000	0.0
29	0x00000000	0.0
30	0x00000000	0.0
31	0x00000000	0.0
32	0x00000000	0.0
33	0x00000000	0.0
34	0x00000000	0.0
35	0x00000000	0.0
36	0x00000000	0.0
37	0x00000000	0.0
38	0x00000000	0.0
39	0x00000000	0.0
40	0x00000000	0.0
41	0x00000000	0.0
42	0x00000000	0.0
43	0x00000000	0.0
44	0x00000000	0.0
45	0x00000000	0.0
46	0x00000000	0.0
47	0x00000000	0.0
48	0x00000000	0.0
49	0x00000000	0.0
50	0x00000000	0.0
51	0x00000000	0.0
52	0x00000000	0.0
53	0x00000000	0.0
54	0x00000000	0.0
55	0x00000000	0.0
56	0x00000000	0.0
57	0x00000000	0.0
58	0x00000000	0.0
59	0x00000000	0.0
60	0x00000000	0.0
61	0x00000000	0.0
62	0x00000000	0.0
63	0x00000000	0.0

encoder.bn.running_var f4 [64]
0	0x3f800000	1.0
1	0x3f800000	1.0
2	0x3f800000	1.0
3	0x3f800000	1.0
4	0x3f800000	1.0
5	0x3f800000	1.0
6	0x3f800000	1.0
7	0x3f800000	1.0
8	0x3f800000	1.0
9	0x3f800000	1.0
10	0x3f800000	1.0
11	0x3f800000	1.0
12	0x3f800000	1.0
13	0x3f800000	1.0
14	0x3f800000	1.0
15	0x3f800000	1.0
16	0x3f800000	1.0
17	0x3f800000	1.0
18	0x3f800000	1.0
19	0x3f800000	1.0
20	0x3f800000	1.0
21	0x3f800000	1.0
22	0x3f800000	1.0
23	0x3f800000	1.0
24	0x3f800000	1.0
25	0x3f800000	1.0
26	0x3f800000	1.0
27	0x3f800000	1.0
28	0x3f800000	1.0
29	0x3f800000	1.0
30	0x3f800000	1.0
31	0x3f800000	1.0
32	0x3f800000	1.0
33	0x3f800000	1.0
34	0x3f800000	1.0
35	0x3f800000	1.0
36	0x3f800000	1.0
37	0x3f800000	1.0
38	0x3f800000	1.0
39	0x3f800000	1.0
40	0x3f800000	1.0
41	0x3f800000	1.0
42	0x3f800000	1.0
43	0x3f800000	1.0
44	0x3f800000	1.0
45	0x3f800000	1.0
46	0x3f800000	1.0
47	0x3f800000	1.0
48	0x3f800000	1.0
49	0x3f800000	1.0
50	0x3f800000	1.0
51	0x3f800000	1.0
52	0x3f800000	1.0
53	0x3f800000	1.0
54	0x3f800000	1.0
55	0x3f800000	1.0
56	0x3f800000	1.0
57	0x3f800000	1.0
58	0x3f800000	1.0
59	0x3f800000	1.0
60	0x3f800000	1.0
61	0x3f800000	1.0
62	0x3f800000	1.0
63	0x3f800000	1.0

encoder.out.weight f4 [60, 64]
0	0xbe4f2a7c	-0.2023105
1	0x3d847335	0.064672865
2	0x3b0f21cd	0.0021840215
3	0xbcbacb9b	-0.022802165
4	0xbd8413c0	-0.064490795
5	0x3bb1bd45	0.005424174
6	0xbdf90908	-0.12159926
7	0x3d2395ae	0.039937668
8	0xbc8dbf70	-0.017303199
9	0x3d5c6888	0.053810626
10	0x3c618eb7	0.013766936
11	0x39ab294f	0.0003264644
12	0x3e14b4ff	0.1452217
13	0x3d0282ae	0.031862907
14	0xbe04bd29	-0.12962784
15	0xbce9f92b	-0.028561195
16	0x3d9c681f	0.07637047
17	0xbbba381a	-0.0056829574
18	0xbe102ad6	-0.1407884
19	0xbe317304	-0.17329031
20	0x3d8d414a	0.068972185
21	0x3dfecc12	0.12441267
22	0x3e0846ed	0.13308306
23	0xbdf73eec	-0.12072548
24	0xbdc89657	-0.097943
25	0xbc8ffe1f	-0.017577229
26	0xbded8196	-0.11596982
27	0x3da087b4	0.07838383
28	0xbdb12e92	-0.08651461
29	0xbe114d78	-0.14189708
30	0x3dbc6575	0.09199039
31	0xbc89249d	-0.016741091
32	0x3de98ce7	0.11403828
33	0x3d2fed64	0.042951003
34	0x3e09a807	0.13443004
35	0xbcc6b37e	-0.02425551
36	0xbe0ed485	-0.13948257
37	0x3d5891b9	0.052873347
38	0xbe180336	-0.14844975
39	0x3d9eeafd	0.07759664
40	0xbcd8f37c	-0.02648329
41	0xbe0e9553	-0.1392415
42	0x3d549ff7	0.051910367
43	0xbdc183bd	-0.09448955
44	0xbe108712	-0.14114025
45	0xbd75450f	-0.059880313
46	0xbe4eefda	-0.20208684
47	0x3bf151b5	0.0073644766
48	0x3e3b64de	0.18300197
49	0x3c3de34b	0.011589835
50	0xbd96a7e8	-0.07356244
51	0x3dd51ca1	0.10405851
52	0x3c4528db	0.0120336665
53	0xbc4a4bf3	-0.012347209
54	0xbe2383e3	-0.1596828
55	0xbd6d5701	-0.0579443
56	0xbe236404	-0.15956122
57	0x3c8bed14	0.017080821
58	0xbd59ef3a	-0.05320666
59	0x3e282a09	0.16422285
60	0xba511781	-0.00079762196
61	0xbdd7c0bb	-0.10534807
62	0x3ded0c95	0.115746655
63	0xbd843926	-0.06456213
64	0xbe1f25a7	-0.15541707
65	0xbd59b7a3	-0.053153645
66	0x3d6229e4	0.05521573
67	0x3dfe542a	0.12418397
68	0xbd0c1538	-0.034199923
69	0xbdc44326	-0.0958312
70	0xbe192950	-0.14957166
71	0x3d2cfd7f	0.04223394
72	0xbda123e3	-0.07868173
73	0xbdf3aaaa	-0.11897786
74	0xbcc292e2	-0.02375168
75	0xbd950d82	-0.07277967
76	0x3e07ea06	0.13272867
77	0x3b62c627	0.0034602971
78	0xbe199dcd	-0.15001602
79	0xbdad49fb	-0.08461376
80	0x3da22d8e	0.07918845
81	0x3dc90c63	0.09816816
82	0xbd76acd3	-0.06022341
83	0xbe521747	-0.20516692
84	0xbca6f77a	-0.020381678
85	0x3ded3804	0.1158295
86	0xbc897178	-0.016777739
87	0xbc662288	-0.014046319
88	0xb6f79de7	-7.379556e-06
89	0xbc4d2426	-0.0125208255
90	0xbdb8c903	-0.09022715
91	0x3c14581c	0.00905421
92	0xbd810d0f	-0.06301319
93	0xbdda34d8	-0.106546104
94	0x3ccfd7f7	0.025371535
95	0xbd8976ad	-0.06712089
96	0xbd874bfd	-0.066062905
97	0xbbab501b	-0.005228055
98	0x3d2a74c7	0.041615274
99	0xbd30575d	-0.043052066
100	0xbd502567	-0.05081692
101	0x3d3be986	0.045877002
102	0x3cf073d2	0.029352102
103	0x3c1e36c4	0.009656612
104	0x3d835a60	0.06413722
105	0xbdc69c33	-0.096977614
106	0x3e146146	0.14490232
107	0x3d87458e	0.066050634
108	0xbb824a92	-0.0039761746
109	0xbdcd0f73	-0.10012712
110	0xbdf82b8a	-0.121176794
111	0xbd8678a5	-0.0656598
112	0x3d8e38e3	0.06944444
113	0x3b812321	0.0039409553
114	0xbe2f7d1a	-0.17137566
115	0xbc9cd104	-0.019142635
116	0xbe0e33f8	-0.13887012
117	0x3cc70315	0.024293462
118	0xbcf502b8	-0.029908523
119	0x3d956dd4	0.07296339
120	0xbcd40819	-0.025882768
121	0x3d063f10	0.032774985
122	0x3dbf635f	0.093451254
123	0x3d937878	0.07200712
124	0x3cd6ab86	0.026204836
125	0xbca9651c	-0.020678096
126	0xbc99c4b5	-0.018770555
127	0xbcac01e4	-0.020996995
128	0xbe874112	-0.26416832
129	0xbe191c3a	-0.14952174
130	0x3d9308e5	0.07179431
131	0x3e1d87ca	0.1538383
132	0xbd8b05db	-0.06788226
133	0xbdee01e9	-0.11621458
134	0xbdcb458c	-0.099253744
135	0xbe07b595	-0.13252862
136	0xbd6e7830	-0.05822009
137	0x3d20506b	0.039139193
138	0xbe16f75e	-0.147428
139	0xbd6fd4b0	-0.058552444
140	0xbd61655a	-0.055028297
141	0x3d5aaf60	0.053389907
142	0xbe242675	-0.16030295
143	0xbdc61739	-0.09672398
144	0x3d3d7bc0	0.046260595
145	0x3ce37bcf	0.027768997
146	0xbdbf717c	-0.09347817
147	0x3da85123	0.082186006
148	0x3d144c96	0.03620585
149	0x3d139355	0.03602918
150	0xba6ba4cc	-0.0008989095
151	0xbe13c66e	-0.14431164
152	0x3df42a5a	0.119221404
153	0x3c5db41f	0.013531714
154	0xbdcbcdd0	-0.09951365
155	0xbd1bbb08	-0.038020164
156	0xbdd8c5ab	-0.10584577
157	0xbc94f5c9	-0.018183606
158	0xbdfa651c	-0.12226316
159	0xbc11bcd9	-0.008895122
160	0x3d702772	0.058631368
161	0xbb23e34d	-0.0025007308
162	0xbd609f9d	-0.05483972
163	0x3c7b5701	0.015340568
164	0xbd5d71fa	-0.054063775
165	0x3c2dee38	0.010615878
166	0xbe13d5eb	-0.14437072
167	0xbd9722c7	-0.0737968
168	0xbd9e2a93	-0.07722964
169	0xbdfe7d3f	-0.124262325
170	0xbcb51ff9	-0.022109972
171	0x3df25d39	0.11834187
172	0xbd076f12	-0.03306491
173	0x3dc6d39e	0.097083315
174	0xbd959042	-0.073029056
175	0x3db29403	0.08719637
176	0x3defc43d	0.11707351
177	0xbe10d434	-0.14143449
178	0xbc52f08b	-0.012874733
179	0x3c983c5c	0.01858347
180	0x3c838b26	0.016057562
181	0x3dc64522	0.09681155
182	0x3c929474	0.017893054
183	0xbd2128d5	-0.03934558
184	0xbe1bce39	-0.15215386
185	0x3d2f3b31	0.04278106
186	0x3e17cc97	0.14824139
187	0x3d29f5ce	0.041494183
188	0x3de6127c	0.11233994
189	0x3d20462c	0.03912942
190	0xbd5fc450	-0.054630578
191	0xbbb0013d	-0.0053712414
192	0x3d851676	0.06498425
193	0x3c4eec63	0.012629601
194	0xbdc1a3f2	-0.09455098
195	0x3d7ffdc1	0.062497858
196	0xbcdcce54	-0.026953854
197	0xbdb8d430	-0.090248466
198	0xbda9312e	-0.082613334
199	0x3d5f21d5	0.054475624
200	0xbc9b1788	-0.018932119
201	0xbd448e8a	-0.0479875
202	0xbd897c45	-0.06713156
203	0x3d6656df	0.05623519
204	0xbc5d638b	-0.013512502
205	0xbd5020f5	-0.05081268
206	0x3d8a9881	0.06767369
207	0xbddfa5e9	-0.10920317
208	0x3e04b231	0.129586
209	0xbdcc679c	-0.099806994
210	0xbdceba3b	-0.100941144
211	0xbe08ab38	-0.13346565
212	0xbe07baff	-0.13254927
213	0xbd256b92	-0.04038579
214	0xbb8c53c4	-0.0042824466
215	0x3d81669f	0.063184015
216	0xbc661ecb	-0.014045428
217	0x3d6bfc5f	0.057613727
218	0xbd646dec	-0.055768892
219	0xbd5e0fa8	-0.05421415
220	0x3d05a6d3	0.0326298
221	0xbd062e33	-0.032758903
222	0xbd76d05f	-0.060257312
223	0xbda1a61d	-0.07893012
224	0xbd97bffb	-0.07409664
225	0xbe11f5d5	-0.14253934
226	0xbda7d3dd	-0.081947066
227	0xbd942fc4	-0.07235673
228	0x3e39bb48	0.18137848
229	0x3d0e7b99	0.03478584
230	0x3daa2142	0.08307125
231	0x3d94b20c	0.07260522
232	0xbd46368f	-0.048391875
233	0xbd4e0745	-0.0502999
234	0x3e1c7d29	0.1528212
235	0x3cf856a3	0.03031475
236	0x3da7ba3f	0.081898205
237	0x3c746dbb	0.01491874
238	0xbd423471	-0.047413293
239	0xbd2688a6	-0.04065766
240	0x3c5491e6	0.012974238
241	0x3c8a9e6b	0.016921243
242	0x3d9d956f	0.07694518
243	0xbd0e2e51	-0.03471214
244	0x3d911fad	0.0708612
245	0xbe027e30	-0.12743449
246	0x3d25a3f5	0.040439565
247	0x3e2074ab	0.15669505
248	0xbd020b27	-0.031748917
249	0xbd4c52cd	-0.049883652
250	0x3df753e7	0.1207655
251	0xbcd10fbd	-0.0255202
252	0x3de8794a	0.11351259
253	0x3d23044e	0.039799027
254	0xbd59ce49	-0.053175244
255	0x3d22401e	0.03961193

encoder.out.bias f4 [60]
0	0x3e2a17d3	0.1661065
1	0x3bd0d6b7	0.0063732523
2	0x3d91e89a	0.07124443
3	0xbd74b5b4	-0.059743598
4	0x3e1d7899	0.15378036
5	0x3dc1dbd9	0.09465761
6	0xbce18593	-0.027529513
7	0x3d7dc591	0.061955992
8	0xbe0a0398	-0.13477933
9	0xbe0ef887	-0.13961993
10	0xbe17f66b	-0.14840095
11	0xbe992845	-0.29913536
12	0x3e543f55	0.20727284
13	0xbe0f0d0e	-0.13969824
14	0x3d9b1357	0.07572048
15	0xbe2f3d21	-0.17113163
16	0xbe3a3f7d	-0.18188281
17	0xbe7811fc	-0.2422561
18	0x3e5cbf75	0.2155741
19	0xbda32ca7	-0.07967501
20	0xbd3cd99e	-0.046105973
21	0xbc6026a3	-0.013681087
22	0xbe9630cf	-0.29334113
23	0x3e5005e2	0.20314744
24	0x3e80fdd6	0.2519366
25	0x3e2036d6	0.15645918
26	0x3da52d05	0.080652274
27	0xbda7342a	-0.081642464
28	0x3d9bafd1	0.07601894
29	0x3d9e066d	0.07716069
30	0xbe362dab	-0.17790858
31	0xbdb55d18	-0.08855647
32	0xbdcf729a	-0.101292804
33	0xbd9245b9	-0.07142205
34	0xbe66039f	-0.22462319
35	0xbe635b0b	-0.22202699
36	0xbe4ef0e8	-0.20209086
37	0xbec08a38	-0.37605453
38	0xbd93ce35	-0.07217065
39	0xbe80a0c8	-0.25122666
40	0x3bfaeed7	0.0076578665
41	0xbe82fd0a	-0.25583678
42	0xbe10defa	-0.14147559
43	0xbcdc5f9c	-0.026901059
44	0xbe18291c	-0.14859432
45	0x3d79e570	0.061009824
46	0xbde6cdc8	-0.112697184
47	0xbec864c9	-0.39139393
48	0x3c1e98a7	0.00967995
49	0xbd2e012d	-0.04248159
50	0xbde2b1b9	-0.11069054
51	0x3c87a2be	0.016557094
52	0xbedd56bd	-0.4323024
53	0xbd97461c	-0.07386419
54	0xbc8cc046	-0.017181527
55	0xbe1b8534	-0.15187532
56	0xbdf83142	-0.1211877
57	0xbda4b5ce	-0.08042489
58	0x3a9d1cf4	0.0011986778
59	0x3d4af3e3	0.049548995

encoder.net.0.weight f4 [64, 97]
0	0x3e1448de	0.14480922
1	0xbd1c58f5	-0.038170774
2	0xbc728b94	-0.014803786
3	0x3db3c107	0.087770514
4	0xbab00bee	-0.001343129
5	0x3ce9798f	0.028500346
6	0x3e125816	0.14291415
7	0xbc96d1fb	-0.018410673
8	0x3d3a7d47	0.04552963
9	0x3e4fc6fc	0.2029075
10	0x3e093cc3	0.13402085
11	0x3d1c25a4	0.038121834
12	0x3d760b17	0.06006917
13	0x3d828be0	0.06374335
14	0x3db17926	0.08665685
15	0x3d99403e	0.07482956
16	0x3dc0c7c8	0.09413105
17	0x3d8653af	0.0655893
18	0x3c23b3b2	0.009991573
19	0x3c0279ea	0.007963637
20	0xbd9189bd	-0.071063496
21	0x3db3ae7d	0.087735154
22	0x3e649e70	0.22326064
23	0x3e1b1519	0.15144767
24	0x3d8366f9	0.06416125
25	0x3dbe2a30	0.092853904
26	0xbd2bede2	-0.04197491
27	0x3dd26579	0.102732606
28	0xbe516580	-0.20448875
29	0x3e054425	0.13014276
30	0x3e41895a	0.18900052
31	0x3e0c4add	0.13700433
32	0x3e1b57bc	0.15170187
33	0x3ca47464	0.02007503
34	0x3de2cd6f	0.110743396
35	0x3d6cf4e8	0.05785075
36	0x3dd28a70	0.10280311
37	0x3da700d8	0.08154458
38	0x3d9c2624	0.07624462
39	0x3e462e3e	0.19353577
40	0x3d6bc19b	0.057557683
41	0x3df2ad44	0.11849454
42	0x3dd2776d	0.10276685
43	0xbd87a445	-0.06623129
44	0xbb76ebdf	-0.0037677211
45	0x3d874468	0.06604844
46	0x3ecbc0d7	0.39795563
47	0x3e6477c1	0.22311307
48	0xbcffd93c	-0.031231515
49	0x3e9508fa	0.2910841
50	0xbeb8e126	-0.36109275
51	0x3e81eaef	0.25374553
52	0x3eae96e9	0.3409951
53	0x3e30fea5	0.17284639
54	0xbc835968	-0.016033843
55	0x3d591165	0.052995104
56	0x3ca3cc43	0.01999486
57	0x3d4e3f4a	0.050353326
58	0x3d88deb0	0.06683099
59	0x3d76832f	0.0601837
60	0x3d05e9b3	0.032693576
61	0x3d4052f7	0.04695412
62	0x3d8469e3	0.06465509
63	0x3d1fe684	0.039038196
64	0x3d8f005f	0.06982493
65	0x3d28b95f	0.04119241
66	0x3d5f7a10	0.054559767
67	0x3b80f5f4	0.00393557
68	0x3b5fba67	0.0034138204
69	0x3cfe4811	0.031040223
70	0x3c4f2d96	0.012645146
71	0x3d34abb9	0.04410908
72	0x3cab60e6	0.020920228
73	0x3d2ac8a3	0.04169525
74	0x3d0c65f7	0.03427693
75	0x3d0e86df	0.03479659
76	0x3d64fdae	0.05590599
77	0x3d5ca75b	0.05387054
78	0x3d201b0d	0.039088298
79	0x3d90c6c0	0.070691586
80	0x3d0bd1d5	0.03413566
81	0x3cd9f343	0.026605254
82	0x3d4b22fa	0.049593903
83	0x3da7f029	0.08200104
84	0x3d715e45	0.058927793
85	0x3d0f812f	0.03503531
86	0x3d5506ae	0.052008323
87	0x3ce332d3	0.027734196
88	0x3d4692f3	0.048479985
89	0x3c5064ba	0.012719328
90	0x3cf1333a	0.029443372
91	0x3b30c706	0.0026974096
92	0xbca1ddaa	-0.019759018
93	0x3cb1ea09	0.021718042
94	0x3ceaabe3	0.028646415
95	0xbd4084aa	-0.04700152
96	0x3f5303a7	0.8242745
97	0xbd1a7c7e	-0.03771638
98	0x3dae2067	0.08502274
99	0xbd6b613f	-0.057465788
100	0xbdec9e15	-0.11553589
101	0xbdcb9999	-0.09941406
102	0xbcaab49c	-0.020838074
103	0xbdaa7cd6	-0.08324592
104	0x3c94ccca	0.018164057
105	0xbdb506dd	-0.088392
106	0xbdfdaa59	-0.12386007
107	0xbda48ac9	-0.08034284
108	0xbc7e38a5	-0.015516435
109	0x3e85c221	0.2612467
110	0x3df454ad	0.11930213
111	0xbd3670de	-0.044541232
112	0xbdb27edb	-0.08715602
113	0xbdc5282a	-0.09626801
114	0xbd8dd6a9	-0.06925709
115	0xbe161421	-0.14656116
116	0xbe0f698f	-0.14005111
117	0xbdcb0cb4	-0.09914532
118	0xbcf82203	-0.030289656
119	0x3dcfc92a	0.10145791
120	0xbdf95114	-0.121736676
121	0xbcb2cd46	-0.021826398
122	0xbd28339d	-0.041064847
123	0x3e1129c4	0.14176089
124	0x3be226ea	0.0069016116
125	0xbe78cdcf	-0.2429726
126	0xbde68105	-0.11255077
127	0x3ea1f2af	0.31630465
128	0xbd58990b	-0.05288033
129	0xbcca2319	-0.024674939
130	0xbc2803c6	-0.010254806
131	0xbddd9059	-0.10818548
132	0xbd1beb17	-0.038065996
133	0xbd3a2e2b	-0.045454185
134	0x3ea61ac6	0.32442302
135	0xbd9ad2cb	-0.07559737
136	0x3dfec22a	0.124393776
137	0xbd2c6657	-0.042089786
138	0xbdf89ac4	-0.12138894
139	0xbd6fbaf3	-0.058527898
140	0xbc5614d3	-0.013066488
141	0xbd5a979a	-0.053367235
142	0xbd7ff4b9	-0.062489245
143	0x3e22aa98	0.15885389
144	0xbdb2b340	-0.087255955
145	0x3e8f6c25	0.28012195
146	0xbde82f65	-0.11337165
147	0xbe592bdf	-0.21208142
148	0xbddf65ed	-0.10908113
149	0x3b805bc5	0.00391719
150	0xbd86ab83	-0.06575682
151	0x3dfdf720	0.12400651
152	0xbc80fb69	-0.015744882
153	0xbbc029b1	-0.005864345
154	0xbcfc628c	-0.03080871
155	0xbd07cc78	-0.03315398
156	0xbd00b51e	-0.031422727
157	0xbc7894cc	-0.015172195
158	0xbd8fcffc	-0.07022092
159	0xbc815be7	-0.015790893
160	0xbbba5287	-0.0056861076
161	0xbcf9057f	-0.030398129
162	0xbc4e6935	-0.0125983255
163	0xbd4ac281	-0.0495019
164	0xbc99cf85	-0.01877571
165	0xbbae7d43	-0.005324991
166	0xbc93b8e0	-0.018032491
167	0xbc16b263	-0.009197804
168	0x37d09b09	2.4867726e-05
169	0xbcd4ad80	-0.025961637
170	0xbc156f2e	-0.009120746
171	0xbce4ec5f	-0.027944742
172	0xbcbf9728	-0.023387507
173	0xbcc15314	-0.023599185
174	0xbcba7104	-0.022758968
175	0xbc26c9c2	-0.010179939
176	0xbe01c42f	-0.12672494
177	0xbce619db	-0.0280885
178	0xbc5ed900	-0.0136015415
179	0xbcc2f3b9	-0.023797857
180	0xbd20c1ab	-0.039247196
181	0xbcbeb5db	-0.023280075
182	0xbcc676b3	-0.024226522
183	0xbd43a4d8	-0.04776463
184	0xbc293bc5	-0.010329192
185	0xbcb12008	-0.021621719
186	0xbc3be073	-0.011467087
187	0xbc08366a	-0.008313755
188	0xbb642c9d	-0.003481663
189	0x3da3444d	0.07972012
190	0xbc6c8b14	-0.014437456
191	0xbc01293e	-0.007883368
192	0xbe0a9894	-0.13534766
193	0xbda2dfb2	-0.07952823
194	0x3d99bcf9	0.07506747
195	0x3e0d2189	0.13782324
196	0x3d733bdb	0.059383254
197	0x3d1e2483	0.03860904
198	0x3d889012	0.06668104
199	0xbd3657d6	-0.04451736
200	0x3cb57b60	0.022153556
201	0x3de3d298	0.11124152
202	0xbd612408	-0.054966003
203	0xbdbaf229	-0.0912822
204	0xbdb40dad	-0.08791671
205	0xbc98f2dd	-0.018670494
206	0x3dea7540	0.11448145
207	0x3d6a6b1b	0.05723105
208	0xbc1f2675	-0.009713759
209	0x3c36ae3d	0.01114994
210	0x3cf062e7	0.029344035
211	0xbcdeaa1e	-0.027180728
212	0xbd0411ac	-0.032243416
213	0xbd3dc128	-0.046326786
214	0xbdb3c52a	-0.087778404
215	0x3c9cb327	0.019128395
216	0xbc587595	-0.0132116275
217	0xbc91abeb	-0.017782172
218	0xbc49324d	-0.012280059
219	0xbb1377bb	-0.0022501785
220	0x3cc9e4fa	0.024645317
221	0xbcbe3c32	-0.023222063
222	0x3dfbf808	0.123031676
223	0x3caf7d89	0.021422165
224	0x3db9b11f	0.09066986
225	0x3d5e98eb	0.054345053
226	0xbb78c3b4	-0.0037958445
227	0xbc86ca53	-0.016453898
228	0x3c954a3c	0.018223874
229	0xbda84d53	-0.082178734
230	0x3d24833b	0.040164214
231	0x3e1babbb	0.15202229
232	0x3d0280e7	0.031861212
233	0x3d369ed7	0.044585075
234	0xbcd6bb26	-0.026212286
235	0xbdcf2394	-0.10114208
236	0xbd136140	-0.035981417
237	0xbd7de6a2	-0.061987527
238	0x3d8b66bd	0.06806705
239	0x3d878072	0.06616296
240	0x3cddf02e	0.027092066
241	0xbd215092	-0.03938348
242	0x3d8e4ddf	0.069484465
243	0xbdb310ec	-0.08743462
244	0xbcdb6b88	-0.026784673
245	0xbcb27163	-0.021782583
246	0xbe0e0d6b	-0.13872306
247	0xbd5d4aca	-0.054026403
248	0x3d549181	0.051896576
249	0x3c512327	0.012764729
250	0xbbb4ac5a	-0.00551371
251	0xba2789a1	-0.0006391053
252	0x3c161839	0.009161049
253	0xba7d5337	-0.0009663584
254	0x3b4b109d	0.0030985244
255	0x3add7387	0.0016895392

encoder.net.0.bias f4 [64]
0	0x3db9e59c	0.09076998
1	0xbd0ccd08	-0.03437522
2	0x3d8e4eab	0.069485985
3	0x3dd76b44	0.10518506
4	0x3d4d34d0	0.050099194
5	0xbe654d4b	-0.22392766
6	0xbe43bd40	-0.19115162
7	0x3d66cab2	0.05634565
8	0xbea406df	-0.32036492
9	0xbd40a63f	-0.047033545
10	0xbe6b6a47	-0.2298976
11	0xbe146bf1	-0.14494301
12	0x3e05c370	0.13062835
13	0x3d09d967	0.033654597
14	0xbe50cb00	-0.20389938
15	0xbe9101ba	-0.2832163
16	0xbe39b7f6	-0.18136582
17	0x3c9a3887	0.018825782
18	0xbe8bae8c	-0.27281606
19	0x3d1deb2e	0.038554363
20	0xbd2191b3	-0.03944559
21	0xbd250928	-0.040291935
22	0x3d754ec2	0.059889562
23	0xbc83b773	-0.016078686
24	0xbd447eac	-0.047972366
25	0x3e388568	0.1801964
26	0x3dfe1c66	0.1240776
27	0x3d3ad4c1	0.045613054
28	0xbd8e00cb	-0.06933745
29	0x3ca694ca	0.02033462
30	0x3cababcf	0.020955948
31	0x3e32ab95	0.17448266
32	0xbd7861fe	-0.060640328
33	0xbe04f5d2	-0.12984398
34	0x3e181700	0.14852524
35	0xbe53c175	-0.20679267
36	0x3e99342e	0.29922622
37	0x3e510148	0.20410645
38	0xbe4d22d3	-0.20032816
39	0xbe8d4265	-0.27589718
40	0x3dc782ad	0.09741721
41	0xbe2c4cdf	-0.16826199
42	0x3dc95edc	0.09832546
43	0x3ca70e65	0.020392606
44	0xbdd159d0	-0.102222085
45	0x3e12fd01	0.14354326
46	0x3beede8b	0.007289713
47	0x3c677a7c	0.014128324
48	0x3e0678e6	0.13132057
49	0xbea97b5e	-0.33101934
50	0xbe8e6597	-0.27811882
51	0x3d3c264e	0.045934968
52	0xbe950bff	-0.29110715
53	0x3e3c1bf1	0.18370034
54	0xbe3adb44	-0.18247706
55	0x3cd1e764	0.025623031
56	0xbe3b2a0f	-0.18277763
57	0xbda6ae13	-0.08138671
58	0x3d7e8614	0.062139586
59	0x3d0efc8e	0.034908824
60	0x3b9ef352	0.0048507834
61	0xbe70fd09	-0.23534025
62	0x3dbe10a9	0.092805214
63	0x3b9e2f6f	0.004827432

decoder.fc.weight f4 [64, 30]
0	0xbe2f6328	-0.17127669
1	0x3e1290c8	0.14313042
2	0x3c28e408	0.010308273
3	0xbd80e4d0	-0.062936425
4	0x3af57754	0.0018727579
5	0xbe264c8f	-0.16240142
6	0x3e2cceb9	0.16875733
7	0xbed4a505	-0.4153215
8	0x3d7684dc	0.0601853
9	0x3dfb758c	0.1227828
10	0xbda9a1d3	-0.08282819
11	0xbf2fbe71	-0.68649966
12	0xbda27797	-0.07932966
13	0x3dce90df	0.10086226
14	0xbd2c597a	-0.04207752
15	0x3e3623c3	0.1778708
16	0xbda7442a	-0.08167298
17	0xbe471a71	-0.1944368
18	0x3df7a307	0.12091642
19	0xbe184ec9	-0.14873804
20	0xbe4b5fc1	-0.19860746
21	0x3d745ab7	0.059656825
22	0x3f318ad8	0.69352484
23	0x3e71723b	0.23578732
24	0x3da526b3	0.08064022
25	0xbe81a04f	-0.25317618
26	0xbe7a394e	-0.24435923
27	0xbe8702ae	-0.26369232
28	0xbda69355	-0.0813357
29	0x3d9f3a1b	0.077747546
30	0x3e168127	0.14697705
31	0xbe215fd5	-0.15759213
32	0xbd4655c2	-0.04842163
33	0x3dfdd9f5	0.12395088
34	0xbd987614	-0.074443966
35	0x3d0245f2	0.031804986
36	0xbdbb65b5	-0.091502585
37	0xbe60476d	-0.21902247
38	0x3d28a54f	0.041173276
39	0xbda50677	-0.08057874
40	0x3c433f61	0.011916966
41	0xbdb39045	-0.087677516
42	0xbd95bfbc	-0.07311961
43	0xbda03b8b	-0.07823857
44	0xbc4e28d0	-0.012582973
45	0xbd9b24e3	-0.07575395
46	0x3c51e02c	0.012809794
47	0x3e90795f	0.282176
48	0xbe656b3b	-0.22404186
49	0xbe2397b1	-0.15975834
50	0xbd9f7ce3	-0.07787492
51	0x3daa165a	0.083050445
52	0x3f5e0662	0.8672849
53	0xbe58dbab	-0.21177547
54	0x3dbf5761	0.09342838
55	0xbcdc2060	-0.026870906
56	0x3d06acb1	0.032879535
57	0xbe6e0dca	-0.23247448
58	0x3cc60695	0.02417306
59	0xbd6f7b1f	-0.058467027
60	0x3d76d389	0.06026033
61	0x3e6c28d6	0.23062453
62	0x3e30fbf2	0.1728361
63	0x3e022583	0.12709622
64	0x3e23fa7e	0.16013524
65	0x3e632cd7	0.22185074
66	0xbe1a7e7a	-0.1508731
67	0xbe4aa81a	-0.19790688
68	0xbd938a3b	-0.072041
69	0xbe830203	-0.25587472
70	0x3db6b0ba	0.08920427
71	0xbf04277c	-0.5162275
72	0x3e73050a	0.23732391
73	0xbe32cde5	-0.17461355
74	0x3e0ea293	0.13929205
75	0xbded1cbd	-0.11577747
76	0xbe15ceed	-0.14629717
77	0xbe2fa56c	-0.17152947
78	0x3d968964	0.07350424
79	0xbe1ef29c	-0.15522236
80	0xbe81f24c	-0.2538017
81	0x3d712e7f	0.058882233
82	0x3e3c212c	0.18372029
83	0x3e07b717	0.13253437
84	0x3d18ace4	0.037274256
85	0xbe270752	-0.16311386
86	0xbe2ed770	-0.1707437
87	0x3d8cef82	0.0688162
88	0x3da283d1	0.07935298
89	0x3c08dfbc	0.008354124
90	0x3dfc0d67	0.12307244
91	0x3d1cf786	0.038321994
92	0x3e29561a	0.16536751
93	0x3c1b7a76	0.009489646
94	0x3d02ae49	0.031904493
95	0xbd248dc3	-0.040174257
96	0xbdd5f9b4	-0.10448018
97	0x3e649d86	0.22325715
98	0xbd81b19a	-0.06332703
99	0xbe1d94f7	-0.15388857
100	0x3cc2578e	0.02372339
101	0x3d8fe9f2	0.070270434
102	0x3e3d550f	0.18489479
103	0x3dfcf630	0.12351644
104	0x3d78de13	0.06075866
105	0xbe147678	-0.14498317
106	0xbe3846ce	-0.1799576
107	0x3c64ccd4	0.01396485
108	0xbcc1f9d4	-0.023678698
109	0xbe8e42f9	-0.2778547
110	0xbe6ec56a	-0.23317495
111	0x3d063778	0.032767743
112	0x3f8f2233	1.1182312
113	0x3d84bcaa	0.06481297
114	0x3e083a7c	0.1330356
115	0x3d54f09f	0.051987287
116	0xbe9b2add	-0.3030614
117	0xbeca5dfd	-0.39524832
118	0xbd5182c5	-0.051150102
119	0xbad7a756	-0.0016453068
120	0x3e0e7fa7	0.13915883
121	0x3d9f158e	0.07767783
122	0xbe88a15c	-0.26685607
123	0xbbe769b7	-0.0070621627
124	0xbd1d71fa	-0.038438775
125	0xbe1ee44e	-0.15516779
126	0xbdec5425	-0.11539487
127	0xbefa6e4b	-0.48912272
128	0x3d5edd23	0.05441011
129	0x3e1d3f60	0.15356207
130	0x3de41905	0.111375846
131	0xbe70ea58	-0.23526895
132	0x3d8a672e	0.06757961
133	0xbd3f21bb	-0.046663027
134	0x3d878cdf	0.06618666
135	0x3c6fc604	0.014634613
136	0xbe9e72ed	-0.30947056
137	0xbea023f9	-0.31277445
138	0xbe4294fe	-0.19002149
139	0xbe7dacc3	-0.24772935
140	0x3e8c0f82	0.27355582
141	0xbd523e0b	-0.0513287
142	0x3e0d0952	0.13773087
143	0x3e3a6196	0.18201289
144	0x3e12cbe8	0.14335597
145	0xbbcf0640	-0.0063178837
146	0xbe35f7eb	-0.17770354
147	0x3ca5559d	0.020182425
148	0xbe52334d	-0.20527382
149	0x3e224c10	0.15849328
150	0xbd1797a8	-0.037009865
151	0xbb2efd8d	-0.002670142
152	0xbdecbeb0	-0.11559808
153	0x3c0d0a10	0.008608356
154	0xbe2918e1	-0.16513397
155	0xbde9a12a	-0.11407693
156	0x3e205b2c	0.1565978
157	0xbd50d0a0	-0.05098021
158	0x3cde705a	0.027153183
159	0x3e0d4cc6	0.13798818
160	0x3e478d67	0.19487534
161	0xbef58d85	-0.47959533
162	0x3da33f5e	0.07971071
163	0x3d85e226	0.06537275
164	0x3da527c3	0.080642246
165	0x3cf765b6	0.030199867
166	0xbe6e5e05	-0.23278053
167	0xbec7afd0	-0.39001322
168	0x3de855bd	0.11344478
169	0x3dc76ff9	0.09738154
170	0x3e424012	0.18969753
171	0xbda036d6	-0.07822959
172	0xbf3a92ae	-0.72880065
173	0x3e56a989	0.2096311
174	0x3de0a891	0.109696515
175	0x3dc90aea	0.09816535
176	0x3f07c51c	0.5303514
177	0xbdb98185	-0.09057907
178	0xbc1b773b	-0.009488876
179	0xbd54ba14	-0.05193527
180	0xbd1d9885	-0.038475532
181	0xbcc9188e	-0.024547841
182	0x3d1b7bd1	0.037959877
183	0x3e42da6d	0.19028635
184	0xbddcd703	-0.10783198
185	0xbcecc4c8	-0.028902426
186	0xbcc01898	-0.023449227
187	0x3edc8bda	0.43075448
188	0xbcfe9144	-0.031075127
189	0x3a57d293	0.0008232977
190	0x3dfb4856	0.12269656
191	0xbde9a26d	-0.114079334
192	0xbd9c534d	-0.07633076
193	0x3e0b2df4	0.13591748
194	0xbcfdb48d	-0.030969882
195	0xbcc444b5	-0.023958543
196	0x3e1ce5fd	0.15322109
197	0x3e588a38	0.21146476
198	0x3cb78adf	0.022405086
199	0x3e119f7d	0.14220996
200	0xbcfc5f83	-0.030807262
201	0xbe11eda7	-0.14250813
202	0xbf7fa57b	-0.9986188
203	0xbda84d69	-0.0821789
204	0xbd359b22	-0.0443374
205	0xbe7169a5	-0.23575456
206	0xbdd8cc50	-0.105858445
207	0x3e3ce9e7	0.18448602
208	0xbe1d3c7a	-0.15355101
209	0x3d045953	0.03231175
210	0xbcb6330e	-0.022241142
211	0xbd3f90d4	-0.04676898
212	0x3dac84b7	0.08423751
213	0x3d956e13	0.072963856
214	0x3cc3ca7d	0.023900265
215	0xbd06862e	-0.032842807
216	0xbd4a18d5	-0.049340088
217	0xbc9190c2	-0.017769221
218	0x3d2a3411	0.04155356
219	0x3ca15fe7	0.01969905
220	0xbd7c7867	-0.061638262
221	0xbe671ddf	-0.22569989
222	0xbc4e3443	-0.012585702
223	0x3a90129b	0.0010991873
224	0x3cf2986e	0.0296137
225	0xbcf0358f	-0.029322414
226	0x3db37dd5	0.08764235
227	0x3ed79d41	0.42112163
228	0x3aa0221a	0.0012217194
229	0xbd93675d	-0.07197449
230	0xbe5469e6	-0.20743522
231	0x3e3a4a92	0.18192509
232	0x3f571846	0.84021413
233	0xbeb155c4	-0.34635746
234	0xbd4604ac	-0.0483443
235	0xbee4f5fa	-0.44718915
236	0xbe3cb5f5	-0.18428786
237	0xbe9aa959	-0.30207327
238	0x3ca5f25d	0.02025717
239	0xbe7c89b4	-0.24661905
240	0x3d8c8483	0.06861212
241	0xbdec9076	-0.11550991
242	0x3e25b446	0.1618205
243	0xbd4d3498	-0.050098985
244	0x3e30e533	0.17274933
245	0xbde83311	-0.11337865
246	0x3cb8410a	0.02249195
247	0x3f0fc18d	0.5615471
248	0x3d451e63	0.048124682
249	0xbe29540c	-0.16535968
250	0x3c32872e	0.010896487
251	0xbe9ed523	-0.31021985
252	0x3e663499	0.22481002
253	0xbbf323e9	-0.0074200523
254	0x3e44ba26	0.19211635
255	0xbe52be87	-0.20580493

decoder.fc.bias f4 [64]
0	0x3ea8db16	0.3297965
1	0x3eff68af	0.49884555
2	0x3f0f8e11	0.5607615
3	0x3f0b2023	0.5434591
4	0x3ece4da9	0.40293625
5	0x3f56741a	0.83770907
6	0xbceb15e9	-0.028696971
7	0x3e5b855e	0.21437594
8	0x3e737e16	0.23778567
9	0xbde44e52	-0.11147751
10	0xbd0ba6ca	-0.03409461
11	0x3ed95dfa	0.4245451
12	0x3e8698de	0.26288503
13	0x3f44dfc4	0.7690394
14	0x3f010f7e	0.50414264
15	0x3f0e0f12	0.55491745
16	0x3e5823ca	0.21107402
17	0x3c87f8d1	0.016598137
18	0x3e91d031	0.2847915
19	0x3e01482c	0.12625188
20	0xba75564c	-0.00093588675
21	0x3eef14c7	0.4669554
22	0x3df2eb48	0.118612826
23	0xbe655810	-0.22396874
24	0x3ee9a111	0.45630696
25	0x3ed492e6	0.41518325
26	0x3eea237f	0.45730206
27	0x3eafdea5	0.34349552
28	0x3e097c91	0.13426425
29	0x3f8844ab	1.0645956
30	0x3f12bde9	0.5732103
31	0x3ee42c01	0.44564822
32	0x3f26b8eb	0.6512591
33	0x3ea5e29b	0.3239945
34	0x3edf7da6	0.4365055
35	0x3e8b6f58	0.27233386
36	0x3eac8929	0.33698395
37	0x3ef46391	0.47732213
38	0xbebdb93a	-0.3705538
39	0x3e8c8745	0.27446952
40	0x3ec1da26	0.37861747
41	0x3d81e0b0	0.06341684
42	0xbf57740b	-0.8416144
43	0x3f4a3fc3	0.7900354
44	0x3efdb112	0.49549156
45	0x3f19a845	0.60022384
46	0xbd8b5753	-0.06803765
47	0xbd8ad248	-0.06778389
48	0x3f00dd50	0.50337696
49	0x3eb02682	0.3440438
50	0x3b11700f	0.0022192036
51	0x3e2dc7ec	0.16970795
52	0x3cf17baf	0.029477922
53	0x3eec2090	0.46118593
54	0x3ecb4742	0.39702803
55	0x3ec2f554	0.38077796
56	0x3eb8ee06	0.36119097
57	0x3eb83c4e	0.3598351
58	0x3ec4e4eb	0.384559
59	0x3f14b3d7	0.58086914
60	0x3e73ee3d	0.2382135
61	0x3edc7283	0.43056116
62	0x3d3cc1a2	0.0460831
63	0x3ea50f0a	0.32238036

decoder.out.weight f4 [96, 64]
0	0x3e153051	0.14569212
1	0xbd23d114	-0.039994314
2	0x3dbc75eb	0.092021786
3	0xbe1110be	-0.14166543
4	0x3e64ef63	0.22356944
5	0x3d1e9362	0.038714774
6	0xbe593af7	-0.212139
7	0x3db97c7a	0.09056945
8	0xbd5e55b2	-0.054280944
9	0xbdb9f9ab	-0.090808235
10	0xbdf5f0a3	-0.120087884
11	0xbbc22f10	-0.0059260204
12	0xbeb7c98f	-0.35895965
13	0x3e781bd8	0.24229372
14	0x3d1bec8a	0.038067378
15	0x3db6e0fd	0.08929632
16	0xbde80b44	-0.11330274
17	0xbd229eab	-0.0397021
18	0xbd33aa8a	-0.04386381
19	0x3e0388af	0.1284511
20	0xbc64f339	-0.013974004
21	0xbec02f2c	-0.3753599
22	0x3df53596	0.11973111
23	0xbeba67d9	-0.36407354
24	0xbd68d28d	-0.056841422
25	0x3e534bcb	0.20634381
26	0xbd4fe4aa	-0.05075518
27	0x3c71c895	0.014757295
28	0x3e53c5a3	0.20680861
29	0xbe7fe6fe	-0.2499046
30	0xbd7ff34a	-0.062487878
31	0xbd59816a	-0.053101934
32	0x3c4161c9	0.011803099
33	0x3e108a38	0.14115226
34	0xbdbd55b0	-0.09244859
35	0x3e8eeedc	0.2791661
36	0x3dad11f4	0.0845069
37	0xbe627829	-0.2211615
38	0xbe93a705	-0.28838363
39	0xbd15406f	-0.0364384
40	0xbcc3fc55	-0.023924032
41	0xbe3cb34a	-0.18427768
42	0xbebedffa	-0.37280256
43	0x3e9ba523	0.30399427
44	0x3cb153cd	0.021646405
45	0x3e04dec1	0.12975599
46	0x3e318b3e	0.17338273
47	0xbcda8d79	-0.026678788
48	0x3e363bf3	0.17796306
49	0xbdfee0e9	-0.12445242
50	0x3dc0b443	0.09409382
51	0xbd3cb6d4	-0.046072796
52	0x3d126280	0.03573847
53	0x3ccfabfb	0.025350561
54	0xbd6cf3fd	-0.057849873
55	0xbde903c0	-0.113776684
56	0xbe14caff	-0.14530562
57	0xbddeff43	-0.10888531
58	0xbe4050af	-0.18780778
59	0x3e7abeeb	0.24486892
60	0x3d9665d4	0.07343641
61	0xbdf4118f	-0.119174115
62	0xbd910bc6	-0.07082324
63	0xbe2df2a5	-0.16987093
64	0x3d031798	0.032004923
65	0xbe806618	-0.2507789
66	0xbace6408	-0.0015746364
67	0x3d15e79d	0.036597837
68	0x3cac9bc9	0.021070378
69	0xbd3a3091	-0.045456473
70	0xbdf5f7af	-0.120101325
71	0xbcabad4b	-0.020956656
72	0x3d224f8b	0.03962664
73	0xbde3394d	-0.11094914
74	0xbda9645f	-0.082710974
75	0xbd93b322	-0.07211901
76	0xbde30105	-0.11084179
77	0x3e0f77a7	0.14010487
78	0x3d9aeab2	0.07564296
79	0x3dccc733	0.09998932
80	0x3def436e	0.11682783
81	0xbd2691b7	-0.04066631
82	0xbd5470e5	-0.051865477
83	0x3ce00751	0.027347239
84	0xbe1f69bd	-0.1556768
85	0xbd763bfc	-0.0601158
86	0x3d429d10	0.047513068
87	0x3cd9ad36	0.026571851
88	0xbcc1b161	-0.023644151
89	0x3d83d06e	0.06436239
90	0xbe42e293	-0.19031744
91	0x3db763a9	0.089545555
92	0x3ce3cfd8	0.027809069
93	0x3dadd2c6	0.084874675
94	0x3bcdb236	0.006277348
95	0xbd0f7021	-0.035019044
96	0x3cf17efb	0.029479494
97	0x3e0e0dd5	0.13872464
98	0xbe0366f0	-0.12832236
99	0x3ddcfaa2	0.10789992
100	0xbdc03313	-0.09384742
101	0xbde5850a	-0.11207016
102	0x3dd6c532	0.10486831
103	0x3cfa2a94	0.030537881
104	0xbdc75e96	-0.09734838
105	0xbddb283e	-0.10701035
106	0x3e659bb9	0.22422685
107	0x3db7d56d	0.089762546
108	0xbae4a59e	-0.0017444377
109	0xbcd69702	-0.026195053
110	0x3e6d694e	0.23184702
111	0xbd348f60	-0.044082046
112	0x3dcf8574	0.10132876
113	0xbd9ec671	-0.077526934
114	0x3d47e8ab	0.048805874
115	0xbd8ea1ea	-0.069644764
116	0x3c9f818e	0.019470956
117	0xbda2c598	-0.07947844
118	0x3b7eedb0	0.0038898997
119	0xbdcd7ecf	-0.100339524
120	0xbdc79c6d	-0.09746633
121	0xbd5f3866	-0.054497145
122	0xbd704df1	-0.05866808
123	0x3e0c5cd2	0.13707283
124	0x3de153c5	0.11002306
125	0xbe174a43	-0.14774422
126	0xbe05f401	-0.13081361
127	0x3c71d9d5	0.014761408
128	0xbe05f7db	-0.1308283
129	0xbd2e3f7f	-0.042541023
130	0xbbe86c53	-0.0070929914
131	0xbe65e60e	-0.2245104
132	0xbd16ce39	-0.036817763
133	0x3d222d88	0.039594203
134	0xbe8af069	-0.27136543
135	0xbdbc7373	-0.09201708
136	0xbe44ef1a	-0.19231835
137	0x3da103ab	0.07862028
138	0x3e154b53	0.14579515
139	0xbdb4f465	-0.08835677
140	0xbe4691c5	-0.19391544
141	0xbe592ea0	-0.21209192
142	0xbe1643c7	-0.14674293
143	0xbec6dabb	-0.38838753
144	0x3e741c05	0.23838814
145	0xbe023f9d	-0.12719579
146	0xbde01435	-0.10941354
147	0xbe3000cc	-0.17187804
148	0x3d96c91c	0.07362577
149	0x3e0bae21	0.13640644
150	0x3e1ca989	0.15299048
151	0x3e94eec7	0.29088423
152	0xbdb3f7ed	-0.087875225
153	0xbc68df08	-0.014213331
154	0x3ab782ea	0.0014000807
155	0x3d65fddd	0.056150306
156	0x3e434717	0.19070087
157	0xbe40f250	-0.18842435
158	0xbe1fdbf4	-0.15611249
159	0xbd9c56ae	-0.0763372
160	0xbf0f7073	-0.5603096
161	0x3dab0f96	0.08352582
162	0xbd11f66f	-0.035635408
163	0xbe2a0b95	-0.1660598
164	0xbe0cea8d	-0.13761349
165	0xbe1e55bd	-0.15462394
166	0x3e2b9f7f	0.16760062
167	0x3cdae067	0.026718332
168	0xbdbde411	-0.09272016
169	0xbe93305f	-0.28747842
170	0x3db0e98a	0.08638294
171	0x3dfbddae	0.122981414
172	0xbe64dfaa	-0.22350946
173	0xbda04e59	-0.07827444
174	0x3d0f2a07	0.03495219
175	0xbde7c44c	-0.113167375
176	0x3e7fe3bd	0.24989219
177	0xbdda26ef	-0.10651957
178	0xbd7441f3	-0.059633207
179	0xbd0dfdad	-0.034665752
180	0x3dfca052	0.12335266
181	0xbd149d02	-0.036282547
182	0xbe103244	-0.14081675
183	0x3feb047e	1.8360746
184	0xbd806f5e	-0.062712416
185	0xbe7db4de	-0.24776027
186	0xbe763505	-0.24043663
187	0x3d126de9	0.03574935
188	0x3ce1d465	0.027567098
189	0xbe1c516d	-0.15265436
190	0x3cb5d041	0.02219403
191	0xbd244aa6	-0.040110253
192	0xbdb8d432	-0.09024848
193	0xbc214e65	-0.009845351
194	0xbd19f9de	-0.037591808
195	0xbde248a2	-0.1104901
196	0xbd31c1f2	-0.04339785
197	0xbd40890f	-0.04700571
198	0xbdc2710d	-0.09494219
199	0x3d816d73	0.06319704
200	0xbd987d25	-0.074457444
201	0x3ca1aa5c	0.019734554
202	0x3d9b194e	0.07573186
203	0xbdade61d	-0.08491156
204	0xbd2ba8b1	-0.041908924
205	0xbe27904f	-0.16363643
206	0xbc2ec523	-0.010667118
207	0x3cfe2994	0.031025685
208	0xbd82a640	-0.06379366
209	0xbc0ee42e	-0.008721394
210	0xbdf00909	-0.11720473
211	0xbda8271b	-0.08210584
212	0x3d97dcf8	0.07415193
213	0xbe0aa37c	-0.13538927
214	0xbd961777	-0.07328694
215	0xbbaaa40c	-0.005207544
216	0xbe01b7d9	-0.12667789
217	0xbb0503cc	-0.0020296453
218	0x3c1f769c	0.0097328685
219	0xbc38c49c	-0.011277344
220	0x3d1052c6	0.03523519
221	0xbc8a9099	-0.016914653
222	0xbd79eaea	-0.061015047
223	0xbd4973bb	-0.049182635
224	0xbe38eac1	-0.18058302
225	0x3c3fdbf1	0.011710153
226	0xb99802dd	-0.00028993833
227	0x3cc485ee	0.023989644
228	0xbd914a96	-0.07094304
229	0xbe467040	-0.19378757
230	0x3cff3977	0.031155331
231	0xbd283b49	-0.041072164
232	0x3d6315e7	0.05544081
233	0xbd3589cf	-0.044320878
234	0xbd3aa835	-0.04557057
235	0xbd208e60	-0.03919828
236	0xbda9e166	-0.082949445
237	0xbca0882b	-0.01959618
238	0x3d5635d5	0.052297432
239	0x3d3c53bd	0.045978297
240	0x3d949fe2	0.07257058
241	0xbd810436	-0.06299631
242	0x3def0ed0	0.11672747
243	0xbc5ce0e6	-0.013481354
244	0x3d12ba69	0.035822306
245	0x3cb43d83	0.022001987
246	0xbd059edb	-0.0326222
247	0xbd4c5827	-0.049888756
248	0xbddf9b5b	-0.109183036
249	0x3d32043c	0.04346107
250	0xbe117001	-0.14202882
251	0x3d7fb4f1	0.06242842
252	0x3cb88879	0.022526013
253	0xbd159207	-0.036516216
254	0xbaee614b	-0.0018186955
255	0x3c26c4c2	0.010178747

decoder.out.bias f4 [96]
0	0x3e99d68a	0.30046493
1	0xbecc2c66	-0.39877623
2	0xbe2f2c5f	-0.1710677
3	0xbe4aec4f	-0.19816707
4	0xbe74cf47	-0.23907195
5	0xbe147f9d	-0.14501806
6	0xbe6c1470	-0.23054671
7	0xbd91a834	-0.0711216
8	0xbe492e41	-0.1964655
9	0xbe3a4213	-0.18189268
10	0xbe526370	-0.20545745
11	0xbe7d281b	-0.2472233
12	0xbe82942f	-0.2550368
13	0xbe85d731	-0.2614074
14	0xbe576c8a	-0.21037498
15	0xbdabbfad	-0.08386169
16	0xbe13d0fb	-0.14435188
17	0xbe66b495	-0.22529824
18	0xbe23a24c	-0.1597988
19	0xbe9b493a	-0.30329305
20	0xbed1c6cf	-0.4097199
21	0xbe3e732c	-0.18598622
22	0xbe80c618	-0.25151134
23	0xbdfb6868	-0.12275773
24	0xbe3ec2e0	-0.18629026
25	0xbe66b87a	-0.2253131
26	0xbe27d6f3	-0.1639059
27	0xbe1752ab	-0.14777629
28	0x3ea2db1b	0.3180779
29	0xbe1e8017	-0.1547855
30	0xbed2a711	-0.41143087
31	0xbe0255fb	-0.12728111
32	0xbe1ed9ea	-0.15512815
33	0xbdb5133c	-0.08841559
34	0xbe97e590	-0.2966733
35	0xbe58a684	-0.2115727
36	0xbe14a030	-0.14514232
37	0xbeb0ebba	-0.34554845
38	0xbeb197b2	-0.34686047
39	0xbecaf07f	-0.3963661
40	0xbda09e51	-0.078426965
41	0xbea4b422	-0.3216868
42	0xbe1183a6	-0.14210376
43	0xbec60693	-0.3867689
44	0xbe05841f	-0.13038681
45	0xbe3a79f9	-0.18210591
46	0xbe245552	-0.16048172
47	0xbe76ebe2	-0.2411342
48	0xbef5d77d	-0.48015967
49	0xbe70590b	-0.23471467
50	0xbe49f8a9	-0.19723763
51	0xbe44d412	-0.19221523
52	0xbec5e1a4	-0.38648713
53	0xbe6652c3	-0.22492509
54	0x3e81627a	0.25270444
55	0xbd9c75ca	-0.07639654
56	0xbe1d44f9	-0.15358342
57	0xbe0ca921	-0.13736393
58	0xbde0da52	-0.10979141
59	0xbe83aa35	-0.25715795
60	0xbe849c5b	-0.2590054
61	0xbe80bed4	-0.2514559
62	0xbe2f4dac	-0.17119473
63	0xbe1540a2	-0.14575437
64	0xbe3a9dee	-0.18224308
65	0xbda683df	-0.08130621
66	0xbe7c3ced	-0.24632616
67	0xbe0d923b	-0.13825314
68	0xbe540122	-0.20703557
69	0xbdccb26a	-0.09994967
70	0xbe6c90b6	-0.23102078
71	0xbe1b974d	-0.15194435
72	0xbe827930	-0.25483084
73	0xbdcf0594	-0.10108486
74	0xbe3fda51	-0.18735625
75	0xbe77364d	-0.24141808
76	0xbe551aa2	-0.20810941
77	0xbe560b0e	-0.20902655
78	0xbdf4edcc	-0.11959419
79	0xbe5e2c8c	-0.21696681
80	0xbe66f0f0	-0.22552848
81	0xbdba767a	-0.09104629
82	0xbe17f193	-0.14838247
83	0xbe53ab82	-0.20670894
84	0xbdca5274	-0.09879008
85	0xbe827171	-0.25477174
86	0xbe478a2a	-0.19486299
87	0xbdc2ae93	-0.09505954
88	0xbe5d55c8	-0.21614754
89	0xbe0b3beb	-0.13597076
90	0xbe69c91d	-0.22830625
91	0xbe63c693	-0.22243719
92	0x3e3a26a0	0.18178797
93	0xbe74c2eb	-0.2390248
94	0xbdf51f64	-0.11968878
95	0xbe44a69e	-0.19204184

decoder.bn.weight f4 [64]
0	0x3f800000	1.0
1	0x3f800000	1.0
2	0x3f800000	1.0
3	0x3f800000	1.0
4	0x3f800000	1.0
5	0x3f800000	1.0
6	0x3f800000	1.0
7	0x3f800000	1.0
8	0x3f800000	1.0
9	0x3f800000	1.0
10	0x3f800000	1.0
11	0x3f800000	1.0
12	0x3f800000	1.0
13	0x3f800000	1.0
14	0x3f800000	1.0
15	0x3f800000	1.0
16	0x3f800000	1.0
17	0x3f800000	1.0
18	0x3f800000	1.0
19	0x3f800000	1.0
20	0x3f800000	1.0
21	0x3f800000	1.0
22	0x3f800000	1.0
23	0x3f800000	1.0
24	0x3f800000	1.0
25	0x3f800000	1.0
26	0x3f800000	1.0
27	0x3f800000	1.0
28	0x3f800000	1.0
29	0x3f800000	1.0
30	0x3f800000	1.0
31	0x3f800000	1.0
32	0x3f800000	1.0
33	0x3f800000	1.0
34	0x3f800000	1.0
35	0x3f800000	1.0
36	0x3f800000	1.0
37	0x3f800000	1.0
38	0x3f800000	1.0
39	0x3f800000	1.0
40	0x3f800000	1.0
41	0x3f800000	1.0
42	0x3f800000	1.0
43	0x3f800000	1.0
44	0x3f800000	1.0
45	0x3f800000	1.0
46	0x3f800000	1.0
47	0x3f800000	1.0
48	0x3f800000	1.0
49	0x3f800000	1.0
50	0x3f800000	1.0
51	0x3f800000	1.0
52	0x3f800000	1.0
53	0x3f800000	1.0
54	0x3f800000	1.0
55	0x3f800000	1.0
56	0x3f800000	1.0
57	0x3f800000	1.0
58	0x3f800000	1.0
59	0x3f800000	1.0
60	0x3f800000	1.0
61	0x3f800000	1.0
62	0x3f800000	1.0
63	0x3f800000	1.0

decoder.bn.bias f4 [64]
0	0x00000000	0.0
1	0x00000000	0.0
2	0x00000000	0.0
3	0x00000000	0.0
4	0x00000000	0.0
5	0x00000000	0.0
6	0x00000000	0.0
7	0x00000000	0.0
8	0x00000000	0.0
9	0x00000000	0.0
10	0x00000000	0.0
11	0x00000000	0.0
12	0x00000000	0.0
13	0x00000000	0.0
14	0x00000000	0.0
15	0x00000000	0.0
16	0x00000000	0.0
17	0x00000000	0.0
18	0x00000000	0.0
19	0x00000000	0.0
20	0x00000000	0.0
21	0x00000000	0.0
22	0x00000000	0.0
23	0x00000000	0.0
24	0x00000000	0.0
25	0x00000000	0.0
26	0x00000000	0.0
27	0x00000000	0.0
28	0x00000000	0.0
29	0x00000000	0.0
30	0x00000000	0.0
31	0x00000000	0.0
32	0x00000000	0.0
33	0x00000000	0.0
34	0x00000000	0.0
35	0x00000000	0.0
36	0x00000000	0.0
37	0x00000000	0.0
38	0x00000000	0.0
39	0x00000000	0.0
40	0x00000000	0.0
41	0x00000000	0.0
42	0x00000000	0.0
43	0x00000000	0.0
44	0x00000000	0.0
45	0x00000000	0.0
46	0x00000000	0.0
47	0x00000000	0.0
48	0x00000000	0.0
49	0x00000000	0.0
50	0x00000000	0.0
51	0x00000000	0.0
52	0x00000000	0.0
53	0x00000000	0.0
54	0x00000000	0.0
55	0x00000000	0.0
56	0x00000000	0.0
57	0x00000000	0.0
58	0x00000000	0.0
59	0x00000000	0.0
60	0x00000000	0.0
61	0x00000000	0.0
62	0x00000000	0.0
63	0x00000000	0.0
