FarconVAE/model_german/farcon_2023_05_01_17_06_22_973681_ours.pth (torch, 41699 bytes, 21 tensors)

encoder.fc.weight f4 [64, 47]
0	0x3da913de	0.082557425
1	0xbd64159a	-0.055684663
2	0xbcbbeaba	-0.022939075
3	0x3e2124c6	0.15736684
4	0xbd926f61	-0.0715015
5	0xb9d1c27e	-0.00040008494
6	0x3e1d5c50	0.15367246
7	0xbbeb425d	-0.007179542
8	0x3d38ac82	0.04508639
9	0x3d4d2a7c	0.050089344
10	0xbbe4344b	-0.0069642416
11	0xbca47f42	-0.020080213
12	0x3ddcd2a7	0.10782366
13	0x3b413cbf	0.002948567
14	0x3d5229aa	0.051309265
15	0xbd9800dc	-0.07422039
16	0x3ce2b741	0.027675273
17	0x3e1267e8	0.1429745
18	0xbc328722	-0.010896476
19	0xbd4c2a58	-0.04984507
20	0x3d826b29	0.063680954
21	0x3d470317	0.04858693
22	0x3e0314ac	0.12800854
23	0x3e03e8e7	0.12881814
24	0xbd1f8b8e	-0.03895145
25	0x3da7a867	0.08186417
26	0xbd9ef595	-0.07761685
27	0x3e17e255	0.14832433
28	0xbdde2a0a	-0.10847862
29	0x3da89e23	0.08233287
30	0x3d09be95	0.03362902
31	0x3de08de2	0.10964562
32	0xbd6e0386	-0.05810883
33	0xbd375aa4	-0.044764176
34	0xbcf48dba	-0.029852737
35	0xbd9fd7b2	-0.078048125
36	0x3e251414	0.1612094
37	0xbdc673ed	-0.0969008
38	0x3d584781	0.052802566
39	0xbe03dbf9	-0.12876882
40	0x3dec11cb	0.11526831
41	0x3c0a3044	0.008434359
42	0xbd990373	-0.07471361
43	0x3e1fe1fd	0.15613551
44	0x3cef4733	0.029208755
45	0xbe5c8ff4	-0.21539289
46	0x3e98c632	0.2983871
47	0xbc83f497	-0.01610784
48	0x3c220b37	0.009890369
49	0x3d5fa1d2	0.054597683
50	0x3e8335df	0.25627038
51	0x3cde7126	0.027153563
52	0x3da0a8be	0.07844685
53	0xbb7865a3	-0.0037902377
54	0x3d0a20dd	0.033722747
55	0x3e300384	0.17188841
56	0x3e33b972	0.1755121
57	0x3db3a178	0.08771032
58	0xbd650587	-0.055913474
59	0x3e1a0f13	0.15044813
60	0xbd6bfe73	-0.05761571
61	0x3dd5ec50	0.10445464
62	0x3d594858	0.053047508
63	0x3de2efb7	0.11080878
64	0x3e3503db	0.17677252
65	0x3d23a81a	0.039955236
66	0xbd4d9eca	-0.05020026
67	0x3dd67e75	0.104733385
68	0x3e2a576b	0.1663491
69	0xbcb0f394	-0.021600522
70	0xbd40feb5	-0.047117908
71	0x3dc85fcf	0.09783899
72	0x3e3cb64f	0.1842892
73	0x3e0c4289	0.13697256
74	0x3e4b15ea	0.19832578
75	0x3e1990e4	0.14996678
76	0x3df1d1fb	0.11807629
77	0xbc459e25	-0.01206163
78	0xbc04c046	-0.008102482
79	0xbd4c16a0	-0.049826264
80	0x3e89cb76	0.2691304
81	0x3ce39935	0.027783016
82	0x3e1cfdc6	0.15331182
83	0x3e47fa3c	0.1952905
84	0x3ded5f05	0.11590389
85	0x3c781bc2	0.015143337
86	0x3dc52e2d	0.09627948
87	0x3e00cc75	0.12577994
88	0x3e2e7414	0.17036468
89	0x3b5ac534	0.0033381702
90	0x3c9d22a6	0.01918156
91	0x3df8dd6b	0.12151607
92	0xbebb22f8	-0.36550117
93	0xbebda2c1	-0.37038234
94	0xbc14e97f	-0.009088873
95	0x3e31119a	0.1729187
96	0xbd9afc81	-0.075676925
97	0x3d04436c	0.03229086
98	0xbce23d22	-0.027617041
99	0xbc9abee5	-0.018889854
100	0x3d83ff93	0.06445231
101	0xbb9c54e7	-0.0047708633
102	0xbbd3df9a	-0.0064658644
103	0x3c710c68	0.014712431
104	0xbd04d58e	-0.032430224
105	0xbda94057	-0.08264225
106	0xbd24b45d	-0.04021107
107	0x3dae25dd	0.085033156
108	0xbd5cfa84	-0.053949848
109	0x3d4e68aa	0.050392784
110	0xbc78d607	-0.015187747
111	0x3e2bcfca	0.16778484
112	0x3d0bf858	0.034172386
113	0x3e2a3600	0.16622162
114	0x3e006648	0.12539017
115	0x3db4baa3	0.08824661
116	0xbd3c3293	-0.04594667
117	0xbd06b382	-0.032886036
118	0x3a692470	0.0008893674
119	0x3e3b749a	0.18306199
120	0x3c22690d	0.009912741
121	0x3e042fb6	0.12908825
122	0x3c701b60	0.014654964
123	0xbd2acafe	-0.041697495
124	0x3de3e7ab	0.111281715
125	0xbdb7cf58	-0.089750946
126	0x3e0c08db	0.13675253
127	0xba8b174f	-0.0010611805
128	0xbd968f5a	-0.07351561
129	0xbccc8dd0	-0.024969965
130	0xbdc89d23	-0.097955965
131	0x3dca708a	0.098847464
132	0x3e09b1b2	0.13446692
133	0x3e518ead	0.20464583
134	0x3e1797b4	0.14803964
135	0x3db4fb14	0.08836952
136	0xbe0200fd	-0.1269569
137	0x3e53caf0	0.20682883
138	0x3dfae594	0.1225082
139	0xbe38db61	-0.18052436
140	0xbe80a807	-0.25128195
141	0x3dfcc995	0.12343136
142	0x3d4ec1e2	0.05047787
143	0x3d872a15	0.065998234
144	0x3d836eb7	0.064176016
145	0x3c730f17	0.014835141
146	0x3d3adc27	0.04562011
147	0x3d8e47df	0.06947302
148	0x3d68fec7	0.0568836
149	0x3d154eeb	0.036452215
150	0xba8af9ae	-0.0010602975
151	0xbd80220c	-0.06256494
152	0x3d83f9d0	0.06444132
153	0x3dc4fd68	0.09618646
154	0x3e613529	0.21992935
155	0xbd63445b	-0.05548511
156	0xbd487dbe	-0.048948042
157	0x3a2a6f41	0.00065015635
158	0x3e0f23ee	0.1397855
159	0xbd0c5514	-0.034260824
160	0x3d938d09	0.07204635
161	0x3e0b1696	0.13582835
162	0xbd2e2c0e	-0.042522483
163	0xbc539002	-0.012912752
164	0x3e730562	0.23732522
165	0x3e04cbad	0.12968321
166	0x3d36614b	0.04452638
167	0xbcc89a5f	-0.024487672
168	0xbd49a47a	-0.049229123
169	0xbd8f675c	-0.07002136
170	0xbc443bd9	-0.011977159
171	0xbd2ef030	-0.04270953
172	0x3ddb432c	0.107061714
173	0x3e31b1f3	0.17353038
174	0xbb78b3ec	-0.0037949039
175	0x3d05f914	0.032708243
176	0x3e06ae67	0.13152467
177	0x3d750ed2	0.059828587
178	0xbc242826	-0.010019338
179	0xbc409235	-0.0117536085
180	0x3b83b279	0.0040190783
181	0xbcb1297a	-0.021626223
182	0x3d5ab07b	0.05339096
183	0xbc34ec5e	-0.011042682
184	0x3d68512e	0.056718044
185	0x3c5d6c63	0.013514611
186	0xbe8c758e	-0.27433437
187	0x3ed2f110	0.4119954
188	0xbdf9ddf9	-0.12200541
189	0xbd9870c2	-0.07443382
190	0xbd892175	-0.066958345
191	0x3e1fb4ec	0.1559636
192	0x3e0c0438	0.13673484
193	0x3ddc6b21	0.10762621
194	0xbd591cb4	-0.05300589
195	0x3d2be091	0.04196221
196	0x3df0a8a6	0.11750917
197	0xbdb38f31	-0.08767546
198	0x3e37b9aa	0.17941919
199	0x3d1286c6	0.03577306
200	0x3e0d8751	0.1382115
201	0x3c0ffc08	0.008788116
202	0x3d63db41	0.05562902
203	0x3dc6a429	0.0969928
204	0x3bda5d10	0.006663926
205	0xbd8c2b71	-0.06844223
206	0x3d2ffea7	0.042967465
207	0x3c654383	0.013993147
208	0xbbb0e5b3	-0.005398476
209	0x3d56a905	0.052407283
210	0x3e2f43b6	0.17115673
211	0x3dd4b8ad	0.103867866
212	0xbd997ff9	-0.07495112
213	0x3d88a3a8	0.0667184
214	0xbdd356db	-0.10319301
215	0x3e3388a6	0.17532596
216	0x3da1ca98	0.0789997
217	0x3e34cb6c	0.17655724
218	0xbd77b515	-0.060475428
219	0x3da67773	0.08128252
220	0x3e2f3fdf	0.17114209
221	0x3dc80ab6	0.09767668
222	0xbd3c1862	-0.04592169
223	0x3e1a25c0	0.15053463
224	0x3c80e477	0.01573394
225	0xbd0ce6ce	-0.0343998
226	0xbda8837d	-0.082282044
227	0x3e1db9ef	0.1540296
228	0x3e2811b8	0.16413009
229	0xbc957519	-0.018244313
230	0xbdf1685a	-0.117874816
231	0x3e30714a	0.17230716
232	0x3da3220a	0.07965477
233	0xbcd1367b	-0.025538674
234	0x3cd29dba	0.025709976
235	0x3ccd9945	0.025097499
236	0x3e1f7f4f	0.15575908
237	0x3e334e4e	0.1751034
238	0xbb91e656	-0.004452507
239	0xbd046bd3	-0.03232939
240	0xbde2d34e	-0.110754594
241	0xbd91049a	-0.07080956
242	0x3bc66260	0.0060542077
243	0x3e06334a	0.13105503
244	0x3db6614e	0.08905278
245	0x3dfa2ea8	0.1221593
246	0xbcfb0e6c	-0.030646525
247	0xbdb0a47c	-0.08625123
248	0xbd6b1f13	-0.05740268
249	0xbd1f9dde	-0.038968913
250	0x3d94e679	0.07270522
251	0xbd75febb	-0.060057383
252	0x3e1e62dd	0.15467401
253	0x3d89a86a	0.067215756
254	0x3d6c6522	0.057713635
255	0xbe114c1f	-0.14189194

encoder.fc.bias f4 [64]
0	0xbd5f4ee1	-0.054518584
1	0x3de64591	0.112437375
2	0x3e0de208	0.13855755
3	0x3d9e711e	0.07736419
4	0x3de91b4b	0.11382159
5	0xbca1e28e	-0.01976135
6	0x3d90e56e	0.0707501
7	0x3e2aba92	0.16672733
8	0x3c388d11	0.011264102
9	0x3cb7a1a4	0.022415943
10	0x3e14be57	0.14525734
11	0xbd3ef250	-0.046617806
12	0xbde63400	-0.11240387
13	0x3c502d25	0.012706076
14	0xbd38f21b	-0.045152765
15	0x3e07ec12	0.13273647
16	0x3e119519	0.14217032
17	0x3cefd165	0.029274652
18	0xb9b7686f	-0.0003498229
19	0x3dda6729	0.106642075
20	0x3ddbdbd1	0.10735286
21	0xbde63e2c	-0.11242327
22	0x3e32acc1	0.17448713
23	0x3dd75c93	0.10515704
24	0xbe048921	-0.12942936
25	0x3b870ba9	0.004121263
26	0xbbcca979	-0.0062457887
27	0x3d463596	0.048390947
28	0xbd9700df	-0.07373213
29	0x3d167a1c	0.036737546
30	0x3c8b2f16	0.016990226
31	0x3e375831	0.17904736
32	0x3d9e6fa4	0.077361375
33	0xbbf150d5	-0.0073643723
34	0x3e3fc058	0.18725717
35	0xbd6d3793	-0.057914328
36	0xbd4702a2	-0.048586495
37	0xba670ea2	-0.0008814131
38	0x3dd98401	0.10620881
39	0xbdd77a2f	-0.105213515
40	0x3e33974f	0.17538188
41	0x3d829b0c	0.06377229
42	0x3d22d973	0.039758157
43	0xbda0174f	-0.07816946
44	0x3e13b2eb	0.1442372
45	0x3b15a5d3	0.0022834435
46	0xbd8b45a1	-0.0680039
47	0xbda55779	-0.08073325
48	0x3e0fbe25	0.14037378
49	0x3def12e4	0.11673525
50	0x3daad602	0.083416
51	0x3c0022fa	0.007820839
52	0xbd536826	-0.051612996
53	0xbd3f21b9	-0.04666302
54	0xbd28d8d2	-0.0412224
55	0xba9d9c39	-0.0012024707
56	0x3dab74d5	0.08371893
57	0x3e52a94b	0.20572393
58	0xbd6a1af1	-0.0571546
59	0x3dd2e18e	0.102969274
60	0x3e2b20bc	0.16711706
61	0x3d7137d8	0.058891147
62	0x3da06a67	0.07832795
63	0x3de13754	0.10996881

encoder.bn.weight f4 [64]
0	0x3f800000	1.0
1	0x3f800000	1.0
2	0x3f800000	1.0
3	0x3f800000	1.0
4	0x3f800000	1.0
5	0x3f800000	1.0
6	0x3f800000	1.0
7	0x3f800000	1.0
8	0x3f800000	1.0
9	0x3f800000	1.0
10	0x3f800000	1.0
11	0x3f800000	1.0
12	0x3f800000	1.0
13	0x3f800000	1.0
14	0x3f800000	1.0
15	0x3f800000	1.0
16	0x3f800000	1.0
17	0x3f800000	1.0
18	0x3f800000	1.0
19	0x3f800000	1.0
20	0x3f800000	1.0
21	0x3f800000	1.0
22	0x3f800000	1.0
23	0x3f800000	1.0
24	0x3f800000	1.0
25	0x3f800000	1.0
26	0x3f800000	1.0
27	0x3f800000	1.0
28	0x3f800000	1.0
29	0x3f800000	1.0
30	0x3f800000	1.0
31	0x3f800000	1.0
32	0x3f800000	1.0
33	0x3f800000	1.0
34	0x3f800000	1.0
35	0x3f800000	1.0
36	0x3f800000	1.0
37	0x3f800000	1.0
38	0x3f800000	1.0
39	0x3f800000	1.0
40	0x3f800000	1.0
41	0x3f800000	1.0
42	0x3f800000	1.0
43	0x3f800000	1.0
44	0x3f800000	1.0
45	0x3f800000	1.0
46	0x3f800000	1.0
47	0x3f800000	1.0
48	0x3f800000	1.0
49	0x3f800000	1.0
50	0x3f800000	1.0
51	0x3f800000	1.0
52	0x3f800000	1.0
53	0x3f800000	1.0
54	0x3f800000	1.0
55	0x3f800000	1.0
56	0x3f800000	1.0
57	0x3f800000	1.0
58	0x3f800000	1.0
59	0x3f800000	1.0
60	0x3f800000	1.0
61	0x3f800000	1.0
62	0x3f800000	1.0
63	0x3f800000	1.0

encoder.bn.bias f4 [64]
0	0x00000000	0.0
1	0x00000000	0.0
2	0x00000000	0.0
3	0x00000000	0.0
4	0x00000000	0.0
5	0x00000000	0.0
6	0x00000000	0.0
7	0x00000000	0.0
8	0x00000000	0.0
9	0x00000000	0.0
10	0x00000000	0.0
11	0x00000000	0.0
12	0x00000000	0.0
13	0x00000000	0.0
14	0x00000000	0.0
15	0x00000000	0.0
16	0x00000000	0.0
17	0x00000000	0.0
18	0x00000000	0.0
19	0x00000000	0.0
20	0x00000000	0.0
21	0x00000000	0.0
22	0x00000000	0.0
23	0x00000000	0.0
24	0x00000000	0.0
25	0x00000000	0.0
26	0x00000000	0.0
27	0x00000000	0.0
28	0x00000000	0.0
29	0x00000000	0.0
30	0x00000000	0.0
31	0x00000000	0.0
32	0x00000000	0.0
33	0x00000000	0.0
34	0x00000000	0.0
35	0x00000000	0.0
36	0x00000000	0.0
37	0x00000000	0.0
38	0x00000000	0.0
39	0x00000000	0.0
40	0x00000000	0.0
41	0x00000000	0.0
42	0x00000000	0.0
43	0x00000000	0.0
44	0x00000000	0.0
45	0x00000000	0.0
46	0x00000000	0.0
47	0x00000000	0.0
48	0x00000000	0.0
49	0x00000000	0.0
50	0x00000000	0.0
51	0x00000000	0.0
52	0x00000000	0.0
53	0x00000000	0.0
54	0x00000000	0.0
55	0x00000000	0.0
56	0x00000000	0.0
57	0x00000000	0.0
58	0x00000000	0.0
59	0x00000000	0.0
60	0x00000000	0.0
61	0x00000000	0.0
62	0x00000000	0.0
63	0x00000000	0.0

encoder.bn.running_mean f4 [64]
0	0x00000000	0.0
1	0x00000000	0.0
2	0x00000000	0.0
3	0x00000000	0.0
4	0x00000000	0.0
5	0x00000000	0.0
6	0x00000000	0.0
7	0x00000000	0.0
8	0x00000000	0.0
9	0x00000000	0.0
10	0x00000000	0.0
11	0x00000000	0.0
12	0x00000000	0.0
13	0x00000000	0.0
14	0x00000000	0.0
15	0x00000000	0.0
16	0x00000000	0.0
17	0x00000000	0.0
18	0x00000000	0.0
19	0x00000000	0.0
20	0x00000000	0.0
21	0x00000000	0.0
22	0x00000000	0.0
23	0x00000000	0.0
24	0x00000000	0.0
25	0x00000000	0.0
26	0x00000000	0.0
27	0x00000000	0.0
28	0x00000000	0.0
29	0x00000000	0.0
30	0x00000000	0.0
31	0x00000000	0.0
32	0x00000000	0.0
33	0x00000000	0.0
34	0x00000000	0.0
35	0x00000000	0.0
36	0x00000000	0.0
37	0x00000000	0.0
38	0x00000000	0.0
39	0x00000000	0.0
40	0x00000000	0.0
41	0x00000000	0.0
42	0x00000000	0.0
43	0x00000000	0.0
44	0x00000000	0.0
45	0x00000000	0.0
46	0x00000000	0.0
47	0x00000000	0.0
48	0x00000000	0.0
49	0x00000000	0.0
50	0x00000000	0.0
51	0x00000000	0.0
52	0x00000000	0.0
53	0x00000000	0.0
54	0x00000000	0.0
55	0x00000000	0.0
56	0x00000000	0.0
57	0x00000000	0.0
58	0x00000000	0.0
59	0x00000000	0.0
60	0x00000000	0.0
61	0x00000000	0.0
62	0x00000000	0.0
63	0x00000000	0.0

encoder.bn.running_var f4 [64]
0	0x3f800000	1.0
1	0x3f800000	1.0
2	0x3f800000	1.0
3	0x3f800000	1.0
4	0x3f800000	1.0
5	0x3f800000	1.0
6	0x3f800000	1.0
7	0x3f800000	1.0
8	0x3f800000	1.0
9	0x3f800000	1.0
10	0x3f800000	1.0
11	0x3f800000	1.0
12	0x3f800000	1.0
13	0x3f800000	1.0
14	0x3f800000	1.0
15	0x3f800000	1.0
16	0x3f800000	1.0
17	0x3f800000	1.0
18	0x3f800000	1.0
19	0x3f800000	1.0
20	0x3f800000	1.0
21	0x3f800000	1.0
22	0x3f800000	1.0
23	0x3f800000	1.0
24	0x3f800000	1.0
25	0x3f800000	1.0
26	0x3f800000	1.0
27	0x3f800000	1.0
28	0x3f800000	1.0
29	0x3f800000	1.0
30	0x3f800000	1.0
31	0x3f800000	1.0
32	0x3f800000	1.0
33	0x3f800000	1.0
34	0x3f800000	1.0
35	0x3f800000	1.0
36	0x3f800000	1.0
37	0x3f800000	1.0
38	0x3f800000	1.0
39	0x3f800000	1.0
40	0x3f800000	1.0
41	0x3f800000	1.0
42	0x3f800000	1.0
43	0x3f800000	1.0
44	0x3f800000	1.0
45	0x3f800000	1.0
46	0x3f800000	1.0
47	0x3f800000	1.0
48	0x3f800000	1.0
49	0x3f800000	1.0
50	0x3f800000	1.0
51	0x3f800000	1.0
52	0x3f800000	1.0
53	0x3f800000	1.0
54	0x3f800000	1.0
55	0x3f800000	1.0
56	0x3f800000	1.0
57	0x3f800000	1.0
58	0x3f800000	1.0
59	0x3f800000	1.0
60	0x3f800000	1.0
61	0x3f800000	1.0
62	0x3f800000	1.0
63	0x3f800000	1.0

encoder.out.weight f4 [20, 64]
0	0xbdcd816e	-0.100344524
1	0xbcecc44f	-0.028902201
2	0xbdd0cf13	-0.10195746
3	0xbd80c2d3	-0.0628716
4	0x3dd3f373	0.10349169
5	0x3d35ca5a	0.04438243
6	0x3c8e293a	0.017353643
7	0xbdcf10ff	-0.101106636
8	0x3d8e069d	0.06934855
9	0x3d340200	0.04394722
10	0x3d33a97b	0.0438628
11	0xbdf6dc64	-0.12053755
12	0xbd8c7319	-0.06857891
13	0xbdeb3fa7	-0.1148675
14	0x3e01c3bf	0.12672327
15	0x3c8478ee	0.016170945
16	0xbcefd4c1	-0.029276254
17	0x3c2f34f2	0.0106937755
18	0xbd225293	-0.03962953
19	0xbd56b10f	-0.05241495
20	0x3e049956	0.12949118
21	0xbe016bf4	-0.12638837
22	0xbc78042f	-0.015137716
23	0x3da972a8	0.08273822
24	0x3d2475e1	0.04015148
25	0x3d77a4a3	0.060459744
26	0xbdb64e3b	-0.0890164
27	0xbe0492cd	-0.12946625
28	0x3d468e60	0.048475623
29	0x3c619703	0.013768914
30	0x3dc54808	0.096328795
31	0xbd42c3d5	-0.04755004
32	0x3b038772	0.0020069745
33	0x3dcb3885	0.099228896
34	0x3e1a2df2	0.15056589
35	0xbdf711c8	-0.120639384
36	0xbd8866a2	-0.06660201
37	0x3cf5e53b	0.030016532
38	0x3da12d5d	0.078699805
39	0xbd86a362	-0.065741315
40	0xbdcb2712	-0.099195614
41	0xbdab4aa0	-0.08363843
42	0x3d1133e9	0.035449896
43	0xbc8bb554	-0.017054237
44	0xbde17063	-0.11007764
45	0x3c28926e	0.010288818
46	0xbc2e99cf	-0.010656788
47	0xbd851053	-0.06497254
48	0xbddacfb3	-0.10684147
49	0x3c8e2d7c	0.017355673
50	0xbdaaa60b	-0.083324514
51	0x3cbdf8d6	0.023189943
52	0xbdcc23c6	-0.09967761
53	0xbcaa30cb	-0.02077522
54	0xbdcf34c5	-0.10117487
55	0x3dbc1fdd	0.09185765
56	0x3dc7463d	0.09730194
57	0xbdfe6458	-0.12421483
58	0xbd994e6d	-0.07485662
59	0x3de8ae79	0.11361403
60	0x3e1526e7	0.14565621
61	0x3de50879	0.11183257
62	0x3e13a05a	0.14416638
63	0x3c763276	0.015026679
64	0xbe4d0e99	-0.200251
65	0x3e447f92	0.19189289
66	0x3e56203d	0.20910735
67	0xbea786e9	-0.32720116
68	0x3d0d2176	0.03445574
69	0xbd8d9c9a	-0.06914635
70	0xbe361f2f	-0.17785333
71	0x3e530a79	0.20609464
72	0xbde748cd	-0.112931825
73	0x3e90ea91	0.2830396
74	0x3d039989	0.032128844
75	0x3ddbbcf3	0.107293986
76	0xbe39f1de	-0.18158671
77	0x3d866a85	0.06563286
78	0x3d8562f5	0.06513015
79	0xbde43ac2	-0.1114402
80	0xbe6e0dca	-0.23247448
81	0xbdba99ac	-0.09111342
82	0xbea1e019	-0.31616285
83	0xbd90289b	-0.07038995
84	0xbd9329f0	-0.07185733
85	0xbd8d04ad	-0.068856575
86	0x3df9a896	0.12190358
87	0x3e8bb453	0.27286014
88	0xbc8009ee	-0.015629735
89	0xbd385ac7	-0.045008447
90	0xbdb397b3	-0.08769169
91	0xbe109317	-0.1411861
92	0xbe7b96c9	-0.24569239
93	0xbe4ebb50	-0.20188642
94	0x3d9f9c22	0.07793452
95	0xbc6c99b1	-0.01444094
96	0x3eb0f2e2	0.34560305
97	0xbcad419a	-0.021149445
98	0x3dc516d9	0.096234985
99	0xbbcc0462	-0.0062261084
100	0xbe2dc7d8	-0.16970766
101	0xbe24dd5d	-0.16100068
102	0x3e44b005	0.19207771
103	0x3e184167	0.14868699
104	0x3c8bb4d4	0.017053999
105	0x3e3eac69	0.18620457
106	0x3e721977	0.23642527
107	0xbe1c27e5	-0.15249594
108	0xbe7bdc8b	-0.24595849
109	0x3de0b68d	0.10972319
110	0xbe34d471	-0.17659165
111	0xbda16f24	-0.078825265
112	0x3e876e78	0.26451468
113	0xbddaba6f	-0.10680091
114	0x3d564bdb	0.052318435
115	0x3d4d4dab	0.050122898
116	0xbe23f6c8	-0.16012108
117	0x3e8c4168	0.2739365
118	0x3d57ac59	0.052654598
119	0x3e4ad598	0.19808042
120	0x3da13c4b	0.07872828
121	0x3e85d153	0.26136264
122	0x3e780873	0.24221973
123	0x3e41b411	0.18916346
124	0xbd7f23d5	-0.06229003
125	0x3de6de8c	0.11272916
126	0x3e0c0b4f	0.13676189
127	0x3e802a18	0.25032115
128	0xbd5c24bd	-0.053745974
129	0x3d7d628a	0.061861552
130	0x3d9c15a3	0.076213144
131	0xbe86abf2	-0.2630306
132	0x3d0ccc07	0.034374263
133	0xbd15c40a	-0.03656391
134	0xbd1a0b90	-0.037608683
135	0x3aeb1df9	0.001793801
136	0xbe0fa4c5	-0.14027698
137	0x3e02b040	0.12762547
138	0x3e03c5b6	0.1286839
139	0xbdbe076d	-0.0927876
140	0xbd5b9741	-0.053611044
141	0xbd6f9ce6	-0.05849924
142	0x3e0cc79d	0.13748021
143	0x3c3674c3	0.011136237
144	0xbdcdc4cc	-0.10047302
145	0xbe100a00	-0.14066315
146	0xbe287acb	-0.16453092
147	0xbe06803b	-0.13134854
148	0x3e06547b	0.13118164
149	0x3c296853	0.010339814
150	0x3d909125	0.07058934
151	0xbbc91565	-0.0061365836
152	0xbd856e3e	-0.06515168
153	0xbde48d05	-0.1115971
154	0xbe1fc605	-0.15602882
155	0xbe0e9280	-0.13923073
156	0xbdbb8f10	-0.091581464
157	0xbe03a345	-0.12855251
158	0xbd15828c	-0.036501452
159	0x3cfcecdd	0.030874664
160	0x3e5b4356	0.21412405
161	0x3d74ceab	0.059767406
162	0x3df122e8	0.11774236
163	0xbe0b63b3	-0.13612251
164	0xbdb1284a	-0.08650263
165	0xbd88d66d	-0.066815235
166	0xbcf7fe83	-0.030272728
167	0x3dc992f3	0.098424815
168	0x3d6d6a10	0.057962477
169	0x3dfc09b7	0.123065405
170	0x3dd3834e	0.10327779
171	0x3d41e7a8	0.047340065
172	0xbca49e81	-0.020095112
173	0xbcd0c0a6	-0.025482487
174	0xbda907e8	-0.08253461
175	0xbd819ee6	-0.063291356
176	0xbd222351	-0.03958446
177	0x3cfc7e7c	0.030822031
178	0x3ddc122b	0.10745653
179	0x3d06fa1d	0.03295337
180	0xbe2f4a2e	-0.17118141
181	0x3e2662c1	0.16248609
182	0xbd86180a	-0.06547554
183	0x3d2f9e1d	0.042875398
184	0x3dfd6a26	0.12373762
185	0x3d8d6c72	0.0690545
186	0x3e376cab	0.17912547
187	0xbd3a8bf0	-0.04554361
188	0xbde87b5b	-0.11351653
189	0x3d27e86a	0.04099313
190	0xbdb1abde	-0.08675359
191	0x3d5bec88	0.05369237
192	0x3e4359ed	0.19077273
193	0xbe2d2376	-0.16908059
194	0x3d2634fd	0.040577877
195	0x3d588733	0.05286331
196	0x3e03a4db	0.12855856
197	0x3e3101fe	0.17285916
198	0xbc3cf884	-0.01153386
199	0x3cb842d1	0.022492798
200	0xbd985173	-0.0743741
201	0xbbdf6e66	-0.0068185804
202	0x3e0036d3	0.12520914
203	0xbd6849ea	-0.056711115
204	0x3ce10cde	0.027471956
205	0xbe0044cc	-0.12526244
206	0x3c11b779	0.008893841
207	0xbd7eab75	-0.062175233
208	0x3cf02ebd	0.029319162
209	0x3e137264	0.14399105
210	0x3e08f645	0.13375194
211	0x3d926510	0.071481824
212	0x3e105afd	0.1409721
213	0xbad7bd5d	-0.0016459633
214	0x3dc4a633	0.096020125
215	0xbcb4a53d	-0.022051448
216	0x3dac4c16	0.0841295
217	0x3e15e41d	0.146378
218	0x3ddf0b3b	0.10890814
219	0x3daa6d8a	0.08321674
220	0x3dc1fee1	0.094724424
221	0xbca2834c	-0.019837998
222	0xbdd27e4c	-0.102779955
223	0xbcf6869b	-0.030093482
224	0xbe01e0ab	-0.1268336
225	0xbd22e0f8	-0.03976533
226	0x3ce01ce9	0.027357535
227	0xbc279734	-0.010228921
228	0x3d6c230f	0.057650622
229	0x3e205488	0.15657246
230	0xbd4d6983	-0.050149452
231	0xbbaa3962	-0.005194829
232	0xbac58274	-0.0015068785
233	0x3dcb1276	0.099156305
234	0xbd04acbe	-0.032391302
235	0x3d841ea4	0.06451157
236	0xbc8ebd58	-0.01742427
237	0x3d445532	0.04793281
238	0x3e29a8f6	0.1656836
239	0x3cbeb798	0.023280904
240	0xbe2ec6c8	-0.17068017
241	0x3ddef102	0.10885812
242	0x3dc9255e	0.0982158
243	0x3c153940	0.009107888
244	0xbdb89c45	-0.09014181
245	0xbe5d2ca1	-0.21599056
246	0xbb6b8d58	-0.0035942402
247	0x3d8b3c49	0.06798608
248	0x3d9a8a48	0.07545906
249	0xbe8dffc1	-0.27734187
250	0xbe773bb8	-0.24143875
251	0x3d081ba9	0.033229504
252	0x3e011800	0.12606812
253	0x3d448818	0.04798135
254	0xbdab3805	-0.08360294
255	0xbe200015	-0.15625031

encoder.out.bias f4 [20]
0	0x3df4065e	0.11915277
1	0xbce73fe2	-0.028228704
2	0x3e071f23	0.13195471
3	0x3e200a9d	0.15629049
4	0xbc958638	-0.018252477
5	0xbc1366ee	-0.008996708
6	0xbd0deef4	-0.03465171
7	0x3dad23ad	0.0845407
8	0xbd5c3f9d	-0.053771604
9	0xbe1051a0	-0.14093637
10	0xbd3782d4	-0.0448025
11	0xbe06cf7d	-0.13165088
12	0x3cbfe039	0.023422347
13	0xbdc227f7	-0.09480279
14	0xbd793929	-0.060845528
15	0xbdfc8e10	-0.12331784
16	0xbd2575c2	-0.040395506
17	0xbe0f9ce9	-0.140247
18	0xbd1875e2	-0.037221797
19	0xbe30eba5	-0.17277391

encoder.net.0.weight f4 [64, 47]
0	0x3da913de	0.082557425
1	0xbd64159a	-0.055684663
2	0xbcbbeaba	-0.022939075
3	0x3e2124c6	0.15736684
4	0xbd926f61	-0.0715015
5	0xb9d1c27e	-0.00040008494
6	0x3e1d5c50	0.15367246
7	0xbbeb425d	-0.007179542
8	0x3d38ac82	0.04508639
9	0x3d4d2a7c	0.050089344
10	0xbbe4344b	-0.0069642416
11	0xbca47f42	-0.020080213
12	0x3ddcd2a7	0.10782366
13	0x3b413cbf	0.002948567
14	0x3d5229aa	0.051309265
15	0xbd9800dc	-0.07422039
16	0x3ce2b741	0.027675273
17	0x3e1267e8	0.1429745
18	0xbc328722	-0.010896476
19	0xbd4c2a58	-0.04984507
20	0x3d826b29	0.063680954
21	0x3d470317	0.04858693
22	0x3e0314ac	0.12800854
23	0x3e03e8e7	0.12881814
24	0xbd1f8b8e	-0.03895145
25	0x3da7a867	0.08186417
26	0xbd9ef595	-0.07761685
27	0x3e17e255	0.14832433
28	0xbdde2a0a	-0.10847862
29	0x3da89e23	0.08233287
30	0x3d09be95	0.03362902
31	0x3de08de2	0.10964562
32	0xbd6e0386	-0.05810883
33	0xbd375aa4	-0.044764176
34	0xbcf48dba	-0.029852737
35	0xbd9fd7b2	-0.078048125
36	0x3e251414	0.1612094
37	0xbdc673ed	-0.0969008
38	0x3d584781	0.052802566
39	0xbe03dbf9	-0.12876882
40	0x3dec11cb	0.11526831
41	0x3c0a3044	0.008434359
42	0xbd990373	-0.07471361
43	0x3e1fe1fd	0.15613551
44	0x3cef4733	0.029208755
45	0xbe5c8ff4	-0.21539289
46	0x3e98c632	0.2983871
47	0xbc83f497	-0.01610784
48	0x3c220b37	0.009890369
49	0x3d5fa1d2	0.054597683
50	0x3e8335df	0.25627038
51	0x3cde7126	0.027153563
52	0x3da0a8be	0.07844685
53	0xbb7865a3	-0.0037902377
54	0x3d0a20dd	0.033722747
55	0x3e300384	0.17188841
56	0x3e33b972	0.1755121
57	0x3db3a178	0.08771032
58	0xbd650587	-0.055913474
59	0x3e1a0f13	0.15044813
60	0xbd6bfe73	-0.05761571
61	0x3dd5ec50	0.10445464
62	0x3d594858	0.053047508
63	0x3de2efb7	0.11080878
64	0x3e3503db	0.17677252
65	0x3d23a81a	0.039955236
66	0xbd4d9eca	-0.05020026
67	0x3dd67e75	0.104733385
68	0x3e2a576b	0.1663491
69	0xbcb0f394	-0.021600522
70	0xbd40feb5	-0.047117908
71	0x3dc85fcf	0.09783899
72	0x3e3cb64f	0.1842892
73	0x3e0c4289	0.13697256
74	0x3e4b15ea	0.19832578
75	0x3e1990e4	0.14996678
76	0x3df1d1fb	0.11807629
77	0xbc459e25	-0.01206163
78	0xbc04c046	-0.008102482
79	0xbd4c16a0	-0.049826264
80	0x3e89cb76	0.2691304
81	0x3ce39935	0.027783016
82	0x3e1cfdc6	0.15331182
83	0x3e47fa3c	0.1952905
84	0x3ded5f05	0.11590389
85	0x3c781bc2	0.015143337
86	0x3dc52e2d	0.09627948
87	0x3e00cc75	0.12577994
88	0x3e2e7414	0.17036468
89	0x3b5ac534	0.0033381702
90	0x3c9d22a6	0.01918156
91	0x3df8dd6b	0.12151607
92	0xbebb22f8	-0.36550117
93	0xbebda2c1	-0.37038234
94	0xbc14e97f	-0.009088873
95	0x3e31119a	0.1729187
96	0xbd9afc81	-0.075676925
97	0x3d04436c	0.03229086
98	0xbce23d22	-0.027617041
99	0xbc9abee5	-0.018889854
100	0x3d83ff93	0.06445231
101	0xbb9c54e7	-0.0047708633
102	0xbbd3df9a	-0.0064658644
103	0x3c710c68	0.014712431
104	0xbd04d58e	-0.032430224
105	0xbda94057	-0.08264225
106	0xbd24b45d	-0.04021107
107	0x3dae25dd	0.085033156
108	0xbd5cfa84	-0.053949848
109	0x3d4e68aa	0.050392784
110	0xbc78d607	-0.015187747
111	0x3e2bcfca	0.16778484
112	0x3d0bf858	0.034172386
113	0x3e2a3600	0.16622162
114	0x3e006648	0.12539017
115	0x3db4baa3	0.08824661
116	0xbd3c3293	-0.04594667
117	0xbd06b382	-0.032886036
118	0x3a692470	0.0008893674
119	0x3e3b749a	0.18306199
120	0x3c22690d	0.009912741
121	0x3e042fb6	0.12908825
122	0x3c701b60	0.014654964
123	0xbd2acafe	-0.041697495
124	0x3de3e7ab	0.111281715
125	0xbdb7cf58	-0.089750946
126	0x3e0c08db	0.13675253
127	0xba8b174f	-0.0010611805
128	0xbd968f5a	-0.07351561
129	0xbccc8dd0	-0.024969965
130	0xbdc89d23	-0.097955965
131	0x3dca708a	0.098847464
132	0x3e09b1b2	0.13446692
133	0x3e518ead	0.20464583
134	0x3e1797b4	0.14803964
135	0x3db4fb14	0.08836952
136	0xbe0200fd	-0.1269569
137	0x3e53caf0	0.20682883
138	0x3dfae594	0.1225082
139	0xbe38db61	-0.18052436
140	0xbe80a807	-0.25128195
141	0x3dfcc995	0.12343136
142	0x3d4ec1e2	0.05047787
143	0x3d872a15	0.065998234
144	0x3d836eb7	0.064176016
145	0x3c730f17	0.014835141
146	0x3d3adc27	0.04562011
147	0x3d8e47df	0.06947302
148	0x3d68fec7	0.0568836
149	0x3d154eeb	0.036452215
150	0xba8af9ae	-0.0010602975
151	0xbd80220c	-0.06256494
152	0x3d83f9d0	0.06444132
153	0x3dc4fd68	0.09618646
154	0x3e613529	0.21992935
155	0xbd63445b	-0.05548511
156	0xbd487dbe	-0.048948042
157	0x3a2a6f41	0.00065015635
158	0x3e0f23ee	0.1397855
159	0xbd0c5514	-0.034260824
160	0x3d938d09	0.07204635
161	0x3e0b1696	0.13582835
162	0xbd2e2c0e	-0.042522483
163	0xbc539002	-0.012912752
164	0x3e730562	0.23732522
165	0x3e04cbad	0.12968321
166	0x3d36614b	0.04452638
167	0xbcc89a5f	-0.024487672
168	0xbd49a47a	-0.049229123
169	0xbd8f675c	-0.07002136
170	0xbc443bd9	-0.011977159
171	0xbd2ef030	-0.04270953
172	0x3ddb432c	0.107061714
173	0x3e31b1f3	0.17353038
174	0xbb78b3ec	-0.0037949039
175	0x3d05f914	0.032708243
176	0x3e06ae67	0.13152467
177	0x3d750ed2	0.059828587
178	0xbc242826	-0.010019338
179	0xbc409235	-0.0117536085
180	0x3b83b279	0.0040190783
181	0xbcb1297a	-0.021626223
182	0x3d5ab07b	0.05339096
183	0xbc34ec5e	-0.011042682
184	0x3d68512e	0.056718044
185	0x3c5d6c63	0.013514611
186	0xbe8c758e	-0.27433437
187	0x3ed2f110	0.4119954
188	0xbdf9ddf9	-0.12200541
189	0xbd9870c2	-0.07443382
190	0xbd892175	-0.066958345
191	0x3e1fb4ec	0.1559636
192	0x3e0c0438	0.13673484
193	0x3ddc6b21	0.10762621
194	0xbd591cb4	-0.05300589
195	0x3d2be091	0.04196221
196	0x3df0a8a6	0.11750917
197	0xbdb38f31	-0.08767546
198	0x3e37b9aa	0.17941919
199	0x3d1286c6	0.03577306
200	0x3e0d8751	0.1382115
201	0x3c0ffc08	0.008788116
202	0x3d63db41	0.05562902
203	0x3dc6a429	0.0969928
204	0x3bda5d10	0.006663926
205	0xbd8c2b71	-0.06844223
206	0x3d2ffea7	0.042967465
207	0x3c654383	0.013993147
208	0xbbb0e5b3	-0.005398476
209	0x3d56a905	0.052407283
210	0x3e2f43b6	0.17115673
211	0x3dd4b8ad	0.103867866
212	0xbd997ff9	-0.07495112
213	0x3d88a3a8	0.0667184
214	0xbdd356db	-0.10319301
215	0x3e3388a6	0.17532596
216	0x3da1ca98	0.0789997
217	0x3e34cb6c	0.17655724
218	0xbd77b515	-0.060475428
219	0x3da67773	0.08128252
220	0x3e2f3fdf	0.17114209
221	0x3dc80ab6	0.09767668
222	0xbd3c1862	-0.04592169
223	0x3e1a25c0	0.15053463
224	0x3c80e477	0.01573394
225	0xbd0ce6ce	-0.0343998
226	0xbda8837d	-0.082282044
227	0x3e1db9ef	0.1540296
228	0x3e2811b8	0.16413009
229	0xbc957519	-0.018244313
230	0xbdf1685a	-0.117874816
231	0x3e30714a	0.17230716
232	0x3da3220a	0.07965477
233	0xbcd1367b	-0.025538674
234	0x3cd29dba	0.025709976
235	0x3ccd9945	0.025097499
236	0x3e1f7f4f	0.15575908
237	0x3e334e4e	0.1751034
238	0xbb91e656	-0.004452507
239	0xbd046bd3	-0.03232939
240	0xbde2d34e	-0.110754594
241	0xbd91049a	-0.07080956
242	0x3bc66260	0.0060542077
243	0x3e06334a	0.13105503
244	0x3db6614e	0.08905278
245	0x3dfa2ea8	0.1221593
246	0xbcfb0e6c	-0.030646525
247	0xbdb0a47c	-0.08625123
248	0xbd6b1f13	-0.05740268
249	0xbd1f9dde	-0.038968913
250	0x3d94e679	0.07270522
251	0xbd75febb	-0.060057383
252	0x3e1e62dd	0.15467401
253	0x3d89a86a	0.067215756
254	0x3d6c6522	0.057713635
255	0xbe114c1f	-0.14189194

encoder.net.0.bias f4 [64]
0	0xbd5f4ee1	-0.054518584
1	0x3de64591	0.112437375
2	0x3e0de208	0.13855755
3	0x3d9e711e	0.07736419
4	0x3de91b4b	0.11382159
5	0xbca1e28e	-0.01976135
6	0x3d90e56e	0.0707501
7	0x3e2aba92	0.16672733
8	0x3c388d11	0.011264102
9	0x3cb7a1a4	0.022415943
10	0x3e14be57	0.14525734
11	0xbd3ef250	-0.046617806
12	0xbde63400	-0.11240387
13	0x3c502d25	0.012706076
14	0xbd38f21b	-0.045152765
15	0x3e07ec12	0.13273647
16	0x3e119519	0.14217032
17	0x3cefd165	0.029274652
18	0xb9b7686f	-0.0003498229
19	0x3dda6729	0.106642075
20	0x3ddbdbd1	0.10735286
21	0xbde63e2c	-0.11242327
22	0x3e32acc1	0.17448713
23	0x3dd75c93	0.10515704
24	0xbe048921	-0.12942936
25	0x3b870ba9	0.004121263
26	0xbbcca979	-0.0062457887
27	0x3d463596	0.048390947
28	0xbd9700df	-0.07373213
29	0x3d167a1c	0.036737546
30	0x3c8b2f16	0.016990226
31	0x3e375831	0.17904736
32	0x3d9e6fa4	0.077361375
33	0xbbf150d5	-0.0073643723
34	0x3e3fc058	0.18725717
35	0xbd6d3793	-0.057914328
36	0xbd4702a2	-0.048586495
37	0xba670ea2	-0.0008814131
38	0x3dd98401	0.10620881
39	0xbdd77a2f	-0.105213515
40	0x3e33974f	0.17538188
41	0x3d829b0c	0.06377229
42	0x3d22d973	0.039758157
43	0xbda0174f	-0.07816946
44	0x3e13b2eb	0.1442372
45	0x3b15a5d3	0.0022834435
46	0xbd8b45a1	-0.0680039
47	0xbda55779	-0.08073325
48	0x3e0fbe25	0.14037378
49	0x3def12e4	0.11673525
50	0x3daad602	0.083416
51	0x3c0022fa	0.007820839
52	0xbd536826	-0.051612996
53	0xbd3f21b9	-0.04666302
54	0xbd28d8d2	-0.0412224
55	0xba9d9c39	-0.0012024707
56	0x3dab74d5	0.08371893
57	0x3e52a94b	0.20572393
58	0xbd6a1af1	-0.0571546
59	0x3dd2e18e	0.102969274
60	0x3e2b20bc	0.16711706
61	0x3d7137d8	0.058891147
62	0x3da06a67	0.07832795
63	0x3de13754	0.10996881

decoder.fc.weight f4 [64, 10]
0	0xbe16b004	-0.14715582
1	0xbe5d7551	-0.21626784
2	0xbe71f20d	-0.23627491
3	0x3d9f3a66	0.077748105
4	0x3d359eff	0.044341084
5	0x3e604e54	0.2190488
6	0x3e568eaa	0.2095286
7	0xbe4b2b1b	-0.19840662
8	0xbec99a0a	-0.39375335
9	0xbe2a8afd	-0.16654582
10	0x3e864c82	0.26230246
11	0x3e09e0a7	0.13464604
12	0xbe49ca73	-0.19706134
13	0x3db27b98	0.0871498
14	0xbe640e49	-0.22271074
15	0xbe92d071	-0.28674653
16	0xbdb131f6	-0.086521074
17	0xbea58a19	-0.32331923
18	0x3e4dd5ae	0.20101044
19	0x3ea10907	0.314522
20	0x3e5589f9	0.20853414
21	0xbe02354d	-0.12715645
22	0x3e80476b	0.25054488
23	0x3ec73fe1	0.38915923
24	0xbe7f7480	-0.24946785
25	0xbe20cb22	-0.15702489
26	0xbd2bfafb	-0.0419874
27	0x3dbab1c2	0.09115936
28	0xbd94044c	-0.07227382
29	0xbea84cd3	-0.32871112
30	0x3e9775e6	0.29582137
31	0x3e7519fd	0.23935695
32	0xbca86ac7	-0.020558728
33	0x3e12f7c6	0.1435233
34	0x3df8cf17	0.12148874
35	0x3cdb1007	0.02674104
36	0xbe89508e	-0.2681927
37	0xbe0b5dde	-0.13610026
38	0x3c3551a1	0.011066825
39	0xbee639c2	-0.4496594
40	0xbe6f8a24	-0.2339254
41	0x3ebc3f02	0.3676682
42	0x3dd2b78b	0.10288914
43	0x3c415f71	0.01180254
44	0xbdc113f0	-0.09427631
45	0x3e3901c1	0.18067075
46	0x3e1e45b4	0.15456277
47	0xbe35facd	-0.17771454
48	0xbe047bce	-0.12937853
49	0xbe58de37	-0.21178518
50	0xbe3c653d	-0.18397994
51	0xbe97f47b	-0.2967871
52	0x3d2d61b8	0.04232952
53	0x3ec2972f	0.3800597
54	0xbec7f208	-0.39051843
55	0x3e93f13d	0.28894988
56	0x3cfb015c	0.030640297
57	0xbe34a317	-0.17640339
58	0xbeb52061	-0.35376266
59	0xbe720568	-0.23634875
60	0x3e8853d5	0.2662646
61	0xbe1f869e	-0.15578696
62	0x3dc1e59d	0.094676234
63	0x3edae80c	0.42755163
64	0xbeb7cfef	-0.35900828
65	0x3ec17574	0.37784922
66	0xbe2fa4b6	-0.17152676
67	0xbe50e5a1	-0.20400096
68	0x3e47fb49	0.19529451
69	0xbecd6f53	-0.40123996
70	0xbdb131a6	-0.08652048
71	0x3e881742	0.26580244
72	0xbd2146e7	-0.03937426
73	0x3e0aae31	0.13543011
74	0x3d829ac4	0.063771755
75	0xbf0560c4	-0.5210078
76	0xbe7c769d	-0.24654622
77	0x3d835e29	0.06414444
78	0xbe001286	-0.12507066
79	0x3f06c2e4	0.5264113
80	0x3e649b7d	0.22324939
81	0xbe36e323	-0.17860083
82	0xbe8b30ff	-0.2718582
83	0x3d09d386	0.03364899
84	0x3e7b62f0	0.2454946
85	0x3e9bddad	0.30442563
86	0xbda2700d	-0.07931528
87	0x3cd6090d	0.026127363
88	0x3d3c7bea	0.04601661
89	0xbdb984ca	-0.09058531
90	0xbe56f87f	-0.20993231
91	0x3d85c12f	0.065309875
92	0x3c681e12	0.014167326
93	0x3edb3d62	0.4282027
94	0x3e2f456d	0.17116328
95	0xbe6510d2	-0.22369698
96	0x3d9cd942	0.07658626
97	0x3e4481c5	0.19190128
98	0x3e812607	0.25224325
99	0x3d88b566	0.06675224
100	0x3ea28875	0.31744733
101	0x3dac6fbb	0.084197484
102	0xbd54ed83	-0.05198432
103	0x3e67ba22	0.22629598
104	0xbecaca7b	-0.39607605
105	0xbd58f905	-0.05297186
106	0x3e8306df	0.2559118
107	0x3d8fa331	0.07013548
108	0xbebe8e0b	-0.37217745
109	0xbd3a8ad7	-0.045542564
110	0xbe569785	-0.20956238
111	0xbd438d41	-0.047742132
112	0x3e4b2258	0.1983732
113	0x3edbd642	0.42936903
114	0xbe6f0477	-0.23341547
115	0x3ea1f405	0.31631485
116	0xbe4dc558	-0.20094812
117	0xbe42f687	-0.19039355
118	0x3e539e13	0.2066577
119	0xbe6883c8	-0.2270652
120	0x3e26f223	0.16303305
121	0x3d351e99	0.044218633
122	0xbc80d957	-0.015728636
123	0xbdf3ab8f	-0.118979566
124	0xbcca036c	-0.024659835
125	0xbe51d476	-0.20491204
126	0x3d81f2e3	0.06345155
127	0xbe2426d5	-0.16030438
128	0xbe815d1d	-0.25266352
129	0x3ebc3b00	0.36763763
130	0x3cb33c22	0.02187926
131	0x3ee4646c	0.44607866
132	0x3eab3b46	0.3344366
133	0xbe198848	-0.14993393
134	0x3e1da4f8	0.15394962
135	0xbcf1f2a3	-0.029534644
136	0xbed5fca3	-0.4179431
137	0x3e18fde1	0.14940597
138	0x3e13f646	0.14449415
139	0xbe98975b	-0.29802975
140	0x3e8278f4	0.25482905
141	0xbd8fd20b	-0.070224844
142	0xbcb91c6d	-0.022596562
143	0x3dc3e307	0.095647864
144	0xbe238cda	-0.159717
145	0xbed6d524	-0.41959488
146	0x3cced844	0.025249608
147	0x3da1c536	0.07898943
148	0xbea17bfc	-0.31539905
149	0x3ec8ed55	0.3924357
150	0x3e27649c	0.16346973
151	0x3ebfba39	0.37446764
152	0x3d824e2c	0.06362566
153	0xbe639da2	-0.22228101
154	0xbdd17dcf	-0.10229074
155	0x3e2a76d3	0.1664689
156	0x3e167a65	0.14695127
157	0xbe8ef4b0	-0.27921057
158	0x3dd416a7	0.10355883
159	0xbe82586f	-0.25458094
160	0xbe4b8a1a	-0.198769
161	0x3ed636ab	0.41838583
162	0x3e81115c	0.25208557
163	0x3e6bdd87	0.23033725
164	0xbdce6811	-0.10078443
165	0xbd4bca7f	-0.049753662
166	0x3c679aab	0.014135997
167	0xbe7de6a9	-0.24795021
168	0x3e5a3e6d	0.21312876
169	0x3ebff376	0.37490433
170	0x3e755107	0.2395669
171	0xbcbac6e0	-0.02279991
172	0xbe43b610	-0.1911242
173	0xbde1659c	-0.110057086
174	0xbcae3cfd	-0.021269316
175	0xbe4e5f22	-0.20153478
176	0xbe6c1ded	-0.23058291
177	0xbd854e51	-0.06509078
178	0x3e7d178e	0.24716017
179	0xbea7fc4e	-0.3280968
180	0x3e4e405b	0.20141737
181	0xbca9e630	-0.020739645
182	0xbe709940	-0.2349596
183	0xbe89a734	-0.26885378
184	0x3e7389e9	0.23783077
185	0x3c7c4fbb	0.015399869
186	0x3e929aa2	0.286336
187	0xbc7067e4	-0.014673207
188	0x3ddbf706	0.10740475
189	0x3bacf5af	0.005278311
190	0x3e15497d	0.14578815
191	0xbe000cfb	-0.12504952
192	0x3d7d1181	0.06178427
193	0xbe3445e3	-0.17604785
194	0xbdec915f	-0.11551165
195	0xbe40715d	-0.18793245
196	0x3e7a1f01	0.2442589
197	0x3e161b94	0.14658958
198	0xbe95c272	-0.29249913
199	0x3eae346a	0.34024364
200	0xbe5508fe	-0.20804211
201	0xbe3ca518	-0.18422353
202	0x3d86c45b	0.065804206
203	0x3eba9cad	0.3644766
204	0x3ce42d76	0.027853709
205	0xbd93ff7c	-0.07226464
206	0x3d831789	0.06400973
207	0x3e206522	0.15663579
208	0xbe3b7ab4	-0.18308526
209	0xbe4e7a62	-0.20163873
210	0x3e1a796b	0.1508538
211	0xbdd0d6d2	-0.10197224
212	0xbd89b9d7	-0.06724899
213	0x3eb9c3bd	0.3628215
214	0xbd6625c2	-0.056188352
215	0xbe9a3ad4	-0.30123007
216	0xbe6acb66	-0.22929153
217	0x3e195e02	0.14977267
218	0xbe895dac	-0.26829278
219	0x3e9a01de	0.3007955
220	0xbe973ec7	-0.29540083
221	0xbd3dc2df	-0.04632842
222	0x3e3c8153	0.18408708
223	0x3e729f6d	0.23693629
224	0x3ea99419	0.33120802
225	0xbe29e6a4	-0.16591889
226	0x3d2cc0fd	0.042176235
227	0x3e050318	0.12989461
228	0x3eb37b83	0.3505517
229	0xbd0c94f3	-0.034321737
230	0x3c1493ee	0.009068472
231	0xbe737310	-0.23774362
232	0x3c4cdd8c	0.012503993
233	0x3e7583db	0.2397608
234	0x3d834bfa	0.06410976
235	0xbd5ff7ac	-0.054679558
236	0xbe1b4fa1	-0.15167095
237	0xbdb9ce78	-0.09072584
238	0xbe48b27b	-0.19599335
239	0xbda69c34	-0.08135262
240	0x3aca3f33	0.0015430212
241	0x3ed838b2	0.42230755
242	0x3d618ddf	0.05506694
243	0x3d21dd55	0.03951772
244	0xbe76b85f	-0.2409377
245	0xbee9aeaf	-0.45641086
246	0x3df94d67	0.121729665
247	0xbeadfa79	-0.33980158
248	0x3dc385c3	0.095469974
249	0x3d9b6d50	0.07589209
250	0xbe5b3767	-0.21407853
251	0x3db006e3	0.085950635
252	0xbdfb8920	-0.12282014
253	0x3e8b602b	0.27221808
254	0x3ca8162d	0.020518387
255	0xbed18d8f	-0.40928313

decoder.fc.bias f4 [64]
0	0x3ee22234	0.4416672
1	0x3e609514	0.21931869
2	0xbd81b4b1	-0.06333292
3	0x3d7fd643	0.062460195
4	0x3ea939ba	0.33051854
5	0x3e620009	0.22070326
6	0x3edb418e	0.42823452
7	0xbe307b52	-0.17234543
8	0x3e96900f	0.29406783
9	0x3eeb8401	0.45999148
10	0x3d0678e7	0.032830145
11	0x3e7a5718	0.24447286
12	0x3dc8264d	0.0977293
13	0x3d86758a	0.065653875
14	0xbdca0c0a	-0.098655775
15	0x3e914c1b	0.28378376
16	0xbc8b770a	-0.017024536
17	0x3eace1ab	0.3376592
18	0xbe2576fe	-0.16158673
19	0xbc3f1164	-0.011661861
20	0x3eae2020	0.34008884
21	0x3ec4338e	0.38320583
22	0x3ecf4c3c	0.4048785
23	0x3ed02257	0.406512
24	0x3cd8febb	0.026488652
25	0x3e293130	0.1652267
26	0xbe302d68	-0.17204821
27	0x3d879e53	0.06621995
28	0x3da464d4	0.08027044
29	0xbed4bca7	-0.4155018
30	0x3e4499d2	0.19199303
31	0x3e412d47	0.18864928
32	0xbdb2a1fc	-0.08722302
33	0xbdc5742d	-0.096412994
34	0x3e37f231	0.17963482
35	0x3dbb5308	0.09146696
36	0x3ec5350e	0.3851704
37	0x3e055037	0.13018881
38	0xbe8975ff	-0.26847836
39	0x3ed42247	0.41432402
40	0xbe7ad5ec	-0.24495667
41	0x3e3af634	0.18257982
42	0x3ee728e9	0.451484
43	0xbe206b3f	-0.15665911
44	0xbd9c02d4	-0.07617727
45	0x3e9b39a7	0.30317423
46	0xbec8dc4d	-0.39230576
47	0x3d98479c	0.074355334
48	0x3ef69275	0.48158613
49	0x3b8a1c56	0.0042148037
50	0x3b2515fb	0.0025190103
51	0x3e4c175e	0.19930789
52	0x3ec87511	0.39151815
53	0xbe966ca3	-0.29379758
54	0x3ebb8cd9	0.36630896
55	0x3e1e84b5	0.15480311
56	0x3e7b207e	0.24524114
57	0xbe6dbd01	-0.2321663
58	0x3de9d181	0.11416913
59	0x3e902045	0.2814962
60	0xbe2ce25d	-0.16883226
61	0x3de804c2	0.113290325
62	0x3e8a5b55	0.27022806
63	0x3ec46179	0.38355616

decoder.out.weight f4 [46, 64]
0	0xbe30d966	-0.17270431
1	0xbe28822f	-0.16455911
2	0xbe1e32b6	-0.15449032
3	0xbdca24a1	-0.09870268
4	0xbd92c41a	-0.0716631
5	0xbd424171	-0.04742569
6	0x3d0a04ed	0.033696104
7	0xbcced59c	-0.025248341
8	0x3c1c7441	0.0095492015
9	0xbdcb64a5	-0.09931306
10	0xbd22383a	-0.039604403
11	0xbe0b90aa	-0.13629404
12	0xbdd36a62	-0.10323025
13	0xbcef6c1f	-0.02922636
14	0xbd8381a7	-0.064212136
15	0xbaa3b3db	-0.0012489514
16	0xbd96dcf1	-0.0736636
17	0xbde7523f	-0.11294984
18	0x3d32b280	0.043627262
19	0xbd072d71	-0.03300232
20	0x3d0cd6ff	0.034384724
21	0xbe001ad1	-0.1251023
22	0xbe2d32cd	-0.1691391
23	0xbc527ff0	-0.0128478855
24	0x3b5bae01	0.0033520462
25	0xbdca334a	-0.09873064
26	0x3dbae0f9	0.091249414
27	0xbde29f3f	-0.1106553
28	0xbe2507eb	-0.16116302
29	0xbc240d41	-0.010012926
30	0xbda580f6	-0.08081238
31	0x3d6b5597	0.05745467
32	0xbd792b21	-0.060832147
33	0xbda0919d	-0.078402735
34	0x3e0a22ef	0.13489889
35	0x3bd7455d	0.006569548
36	0xbd6dfde9	-0.058103476
37	0x3d91bd50	0.071161866
38	0xbd9a1cc4	-0.07525018
39	0xba4421f1	-0.00074818643
40	0xbce29a55	-0.027661482
41	0xbe014f77	-0.1262797
42	0x3c4ce5cd	0.012505961
43	0x3d361e82	0.04446269
44	0x3d87d875	0.06633083
45	0xbe0cea6d	-0.13761301
46	0x3d339f33	0.043852996
47	0xbe3c8b92	-0.18412617
48	0x3c9dd37d	0.019265885
49	0xbd0f0f5b	-0.034926753
50	0xbc843258	-0.016137287
51	0x3d9ad54c	0.075602144
52	0xbd0cc1fe	-0.034364693
53	0x3d3aad59	0.045575473
54	0xbdbb67ca	-0.091506556
55	0xbdab6614	-0.08369079
56	0xbc58c0de	-0.013229577
57	0xbd81fbb4	-0.06346837
58	0x3d219632	0.039449878
59	0xbdaea08c	-0.08526716
60	0x3e2ebf4a	0.17065158
61	0xbc77fe04	-0.015136246
62	0xbd252507	-0.040318515
63	0xbe2e4420	-0.17018175
64	0x3bb3abbb	0.0054831184
65	0xbe1c3a62	-0.15256646
66	0xbdd17329	-0.10227043
67	0x3d7cf634	0.061758235
68	0xbdaf203b	-0.08551069
69	0xbdb49207	-0.08816915
70	0xbe286423	-0.16444449
71	0xbe1c6b5e	-0.15275332
72	0xbe4b43b9	-0.19850053
73	0xbe1c6d16	-0.15275988
74	0x3d874d0e	0.06606494
75	0xbd08ffb8	-0.033446997
76	0x3d17e65b	0.03708492
77	0xbd408e95	-0.047010977
78	0x3b432306	0.0029775514
79	0xbdefe7f4	-0.117141634
80	0xbc18c7c3	-0.009324971
81	0xbe3c7eb9	-0.18407716
82	0xbe10f7fe	-0.14157102
83	0xbe03f482	-0.12886241
84	0xbd864773	-0.065565966
85	0x3d255ff1	0.0403747
86	0xbdc6c4bf	-0.09705495
87	0x3ceb73d0	0.028741747
88	0xbd130fa0	-0.035903573
89	0x3d8a7820	0.06761193
90	0x3dd9287d	0.10603426
91	0x3c17056a	0.009217599
92	0xbdc95291	-0.098302014
93	0x3d581648	0.052755624
94	0x3dd67871	0.10472191
95	0xbca3dc8b	-0.020002624
96	0xbc223765	-0.009900902
97	0xbd85ce90	-0.06533539
98	0xbd019166	-0.031632803
99	0x3db7d5a4	0.089762956
100	0x3bc23c9b	0.005927635
101	0x3d6c925f	0.057756778
102	0xbd84bb9c	-0.06481096
103	0xbe0c8471	-0.13722397
104	0xbda12340	-0.078680515
105	0xbe0aa3e2	-0.13539079
106	0xbc114481	-0.00886643
107	0x3d9629dc	0.07332203
108	0x3ddde486	0.10834603
109	0x3d5e9884	0.05434467
110	0x3e1ca840	0.15298557
111	0xbd64b7b2	-0.055839248
112	0xbc8f7ae1	-0.017514648
113	0xbde1e0fd	-0.11029241
114	0x3cdb5a10	0.026776344
115	0xbda0f882	-0.07859899
116	0x3d8b1d56	0.06792705
117	0x3db5d5fd	0.08878706
118	0x3d482aef	0.04886907
119	0xbdbb10a8	-0.09134036
120	0xbd8d8a63	-0.06911161
121	0x3a0f3fb4	0.00054645096
122	0xbe333dbc	-0.17504019
123	0xbcbb3efc	-0.022857182
124	0x3cf30e8d	0.029670024
125	0xbddcb3f2	-0.10776509
126	0xbdab14f0	-0.08353603
127	0xbbad9ab4	-0.005297983
128	0xbce7aa04	-0.028279312
129	0xbde6a61e	-0.11262153
130	0xbd98958c	-0.07450399
131	0xbd533df1	-0.051572744
132	0xbe5344ca	-0.2063171
133	0xbd954ee8	-0.07290441
134	0xbdec096d	-0.11525235
135	0xbdd8c991	-0.10585321
136	0x3bff4e6e	0.007791332
137	0xbca50188	-0.020142332
138	0xbe6196be	-0.2203016
139	0xbdc77d82	-0.097407356
140	0xbcd4ff0f	-0.026000528
141	0xbd46873f	-0.048468824
142	0xbd34b03c	-0.044113383
143	0xbdd0c29d	-0.101933695
144	0xbded1546	-0.11576323
145	0xbd16237f	-0.036654945
146	0x3d4d2846	0.050087236
147	0x3e12fd43	0.14354424
148	0x3c5826e7	0.013192869
149	0xbe09981d	-0.13436933
150	0xbdacc034	-0.08435097
151	0xbe194eda	-0.14971486
152	0xbb5dc13f	-0.0033837107
153	0xbdcf4622	-0.10120799
154	0x3e29b1d7	0.16571747
155	0x3cbe77b4	0.023250438
156	0xbdbca3d4	-0.09210935
157	0x3ce23852	0.027614746
158	0xbe0f1452	-0.13972595
159	0x3c3a1d9b	0.011359598
160	0xbc39ebb9	-0.011347705
161	0xbd5328be	-0.051552527
162	0xbcd73299	-0.026269244
163	0xbe224ac1	-0.15848829
164	0xbd2d8819	-0.04236612
165	0x3d14ab12	0.036295958
166	0xbdcfe6fb	-0.10151478
167	0xbdee4cfe	-0.11635779
168	0x3ded68d0	0.11592257
169	0xbd2117a7	-0.039329197
170	0xbd280817	-0.04102334
171	0xbb1326f2	-0.0022453633
172	0x3de01a4c	0.10942516
173	0xbd5940ca	-0.053040303
174	0x3e3c29c6	0.1837531
175	0xbe0c5531	-0.13704373
176	0x3aa36cee	0.0012468377
177	0xbde5efe3	-0.112273954
178	0xbe05a9d1	-0.13053061
179	0xbe15e0b9	-0.14636506
180	0xbdd3904a	-0.10330255
181	0x3e38662f	0.1800773
182	0xbd81b954	-0.06334177
183	0xbcb3f3c7	-0.021966828
184	0xbdfc6314	-0.12323585
185	0xbd83bbf6	-0.06432335
186	0xbd3aaadc	-0.0455731
187	0xbd8e7c5a	-0.06957312
188	0x3cbef47d	0.02330994
189	0xbd363146	-0.044480585
190	0x3ccca531	0.024981113
191	0xbde29fa7	-0.110656075
192	0xb9d3407f	-0.0004029311
193	0x3e068980	0.1313839
194	0x3dcd5ef2	0.10027875
195	0xbc40e67d	-0.011773703
196	0x3d54c5a5	0.0519463
197	0x3e8d7154	0.27625525
198	0x3e36bd7e	0.17845723
199	0xbd3a0988	-0.045419246
200	0xbe346988	-0.17618382
201	0xbe15f473	-0.14644031
202	0x3dbd86cb	0.09254225
203	0x3e559f24	0.20861489
204	0xbe1898f7	-0.14902101
205	0xbe7d824d	-0.24756737
206	0x3cab45c0	0.020907283
207	0xbd98d3b6	-0.07462256
208	0xbca2e2b7	-0.019883497
209	0xbe713428	-0.23555052
210	0xbcf2c7f2	-0.029636357
211	0xbdc8e2e8	-0.09808904
212	0x3d947140	0.07248163
213	0xbd01e7fc	-0.03171538
214	0xbdb9232f	-0.09039914
215	0x3d28c193	0.04120023
216	0xbe1b0dd6	-0.15141997
217	0x3db7c515	0.08973137
218	0xbc42443f	-0.011857091
219	0x3d8b00cb	0.067872606
220	0xbd4c6952	-0.04990513
221	0x3cb1250c	0.02162411
222	0x3e0c7540	0.13716602
223	0x3daf60cb	0.08563384
224	0x3dfb5907	0.1227284
225	0x3db19d58	0.08672589
226	0x3d6925e3	0.056920897
227	0x3e2328d3	0.15933542
228	0xbc9c581d	-0.019084984
229	0xbd62f7bf	-0.05541205
230	0xbe20f275	-0.1571749
231	0x3d79e6e0	0.061011195
232	0xbe26e261	-0.16297294
233	0x3d644ac3	0.05573536
234	0x3d0be563	0.034154307
235	0x3d240333	0.040042114
236	0x3d1fe18b	0.039033454
237	0x3c08bec7	0.008346266
238	0x3c1bac5f	0.009501546
239	0x3d462803	0.048378002
240	0xbe1fd5c9	-0.15608896
241	0x39b887ac	0.00035196298
242	0xba10d524	-0.00055249245
243	0x3e1aadc7	0.15105353
244	0x3d1fc1d7	0.03900322
245	0xbd96e4a4	-0.073678285
246	0x3de1249e	0.10993312
247	0xbdd63375	-0.104590334
248	0x3d48aaba	0.048990943
249	0x3d80cc57	0.06288975
250	0xbdc60c60	-0.09670329
251	0xbe3a8fe0	-0.18218946
252	0x3e81eed3	0.2537752
253	0x3cf4a4fd	0.029863829
254	0xbe2f17c2	-0.17098907
255	0xbe35f83f	-0.1777048

decoder.out.bias f4 [46]
0	0xbdb0c5ff	-0.08631515
1	0xbe2fb51f	-0.17158936
2	0xbdf60cf4	-0.12014189
3	0xbe0af027	-0.13568173
4	0x3d02284d	0.031776715
5	0x3d2a86b6	0.041632377
6	0xbe8b6fb8	-0.27233672
7	0x3bc8ffbf	0.006134003
8	0x3da7337c	0.08164117
9	0xbd6e55d3	-0.058187317
10	0xbe1314c2	-0.14363387
11	0xbdf83d2b	-0.12121042
12	0xbd9fc749	-0.078016825
13	0x3dce9cae	0.10088478
14	0xbddb6cd5	-0.107141174
15	0x3bca1dd7	0.006168108
16	0xbceaa0aa	-0.028641064
17	0x3d1b1f83	0.03787185
18	0xbdc6a439	-0.09699292
19	0xbd9dba37	-0.07701533
20	0xbd92adb6	-0.07162039
21	0xbe07aeb1	-0.13250233
22	0xbda42b0a	-0.080160215
23	0x3ccb6959	0.024830507
24	0xbd8e2558	-0.069407165
25	0xbdab26e1	-0.08357025
26	0xbe41ec74	-0.18937856
27	0xbe011d0a	-0.12608734
28	0x3d2de0b8	0.042450637
29	0xbdc0c26f	-0.09412085
30	0xbdf4dcc8	-0.11956173
31	0x3ce2663a	0.027636636
32	0xbdd92527	-0.10602789
33	0xbe07c9ca	-0.1326057
34	0x3c72e3c2	0.0148248095
35	0x3c5c9b4a	0.013464758
36	0xbd7aefb4	-0.061263755
37	0x3d4ac92a	0.04950825
38	0xbd55c342	-0.052188165
39	0xbdc369c8	-0.095416605
40	0x3c66cd21	0.0140869925
41	0xbc4f9ed6	-0.012672147
42	0xbd546fa9	-0.0518643
43	0x3b6042f3	0.0034219592
44	0xbe070175	-0.1318415
45	0xbd32444e	-0.04352217

decoder.bn.weight f4 [64]
0	0x3f800000	1.0
1	0x3f800000	1.0
2	0x3f800000	1.0
3	0x3f800000	1.0
4	0x3f800000	1.0
5	0x3f800000	1.0
6	0x3f800000	1.0
7	0x3f800000	1.0
8	0x3f800000	1.0
9	0x3f800000	1.0
10	0x3f800000	1.0
11	0x3f800000	1.0
12	0x3f800000	1.0
13	0x3f800000	1.0
14	0x3f800000	1.0
15	0x3f800000	1.0
16	0x3f800000	1.0
17	0x3f800000	1.0
18	0x3f800000	1.0
19	0x3f800000	1.0
20	0x3f800000	1.0
21	0x3f800000	1.0
22	0x3f800000	1.0
23	0x3f800000	1.0
24	0x3f800000	1.0
25	0x3f800000	1.0
26	0x3f800000	1.0
27	0x3f800000	1.0
28	0x3f800000	1.0
29	0x3f800000	1.0
30	0x3f800000	1.0
31	0x3f800000	1.0
32	0x3f800000	1.0
33	0x3f800000	1.0
34	0x3f800000	1.0
35	0x3f800000	1.0
36	0x3f800000	1.0
37	0x3f800000	1.0
38	0x3f800000	1.0
39	0x3f800000	1.0
40	0x3f800000	1.0
41	0x3f800000	1.0
42	0x3f800000	1.0
43	0x3f800000	1.0
44	0x3f800000	1.0
45	0x3f800000	1.0
46	0x3f800000	1.0
47	0x3f800000	1.0
48	0x3f800000	1.0
49	0x3f800000	1.0
50	0x3f800000	1.0
51	0x3f800000	1.0
52	0x3f800000	1.0
53	0x3f800000	1.0
54	0x3f800000	1.0
55	0x3f800000	1.0
56	0x3f800000	1.0
57	0x3f800000	1.0
58	0x3f800000	1.0
59	0x3f800000	1.0
60	0x3f800000	1.0
61	0x3f800000	1.0
62	0x3f800000	1.0
63	0x3f800000	1.0

decoder.bn.bias f4 [64]
0	0x00000000	0.0
1	0x00000000	0.0
2	0x00000000	0.0
3	0x00000000	0.0
4	0x00000000	0.0
5	0x00000000	0.0
6	0x00000000	0.0
7	0x00000000	0.0
8	0x00000000	0.0
9	0x00000000	0.0
10	0x00000000	0.0
11	0x00000000	0.0
12	0x00000000	0.0
13	0x00000000	0.0
14	0x00000000	0.0
15	0x00000000	0.0
16	0x00000000	0.0
17	0x00000000	0.0
18	0x00000000	0.0
19	0x00000000	0.0
20	0x00000000	0.0
21	0x00000000	0.0
22	0x00000000	0.0
23	0x00000000	0.0
24	0x00000000	0.0
25	0x00000000	0.0
26	0x00000000	0.0
27	0x00000000	0.0
28	0x00000000	0.0
29	0x00000000	0.0
30	0x00000000	0.0
31	0x00000000	0.0
32	0x00000000	0.0
33	0x00000000	0.0
34	0x00000000	0.0
35	0x00000000	0.0
36	0x00000000	0.0
37	0x00000000	0.0
38	0x00000000	0.0
39	0x00000000	0.0
40	0x00000000	0.0
41	0x00000000	0.0
42	0x00000000	0.0
43	0x00000000	0.0
44	0x00000000	0.0
45	0x00000000	0.0
46	0x00000000	0.0
47	0x00000000	0.0
48	0x00000000	0.0
49	0x00000000	0.0
50	0x00000000	0.0
51	0x00000000	0.0
52	0x00000000	0.0
53	0x00000000	0.0
54	0x00000000	0.0
55	0x00000000	0.0
56	0x00000000	0.0
57	0x00000000	0.0
58	0x00000000	0.0
59	0x00000000	0.0
60	0x00000000	0.0
61	0x00000000	0.0
62	0x00000000	0.0
63	0x00000000	0.0

decoder.bn.running_mean f4 [64]
0	0x00000000	0.0
1	0x00000000	0.0
2	0x00000000	0.0
3	0x00000000	0.0
4	0x00000000	0.0
5	0x00000000	0.0
6	0x00000000	0.0
7	0x00000000	0.0
8	0x00000000	0.0
9	0x00000000	0.0
10	0x00000000	0.0
11	0x00000000	0.0
12	0x00000000	0.0
13	0x00000000	0.0
14	0x00000000	0.0
15	0x00000000	0.0
16	0x00000000	0.0
17	0x00000000	0.0
18	0x00000000	0.0
19	0x00000000	0.0
20	0x00000000	0.0
21	0x00000000	0.0
22	0x00000000	0.0
23	0x00000000	0.0
24	0x00000000	0.0
25	0x00000000	0.0
26	0x00000000	0.0
27	0x00000000	0.0
28	0x00000000	0.0
29	0x00000000	0.0
30	0x00000000	0.0
31	0x00000000	0.0
32	0x00000000	0.0
33	0x00000000	0.0
34	0x00000000	0.0
35	0x00000000	0.0
36	0x00000000	0.0
37	0x00000000	0.0
38	0x00000000	0.0
39	0x00000000	0.0
40	0x00000000	0.0
41	0x00000000	0.0
42	0x00000000	0.0
43	0x00000000	0.0
44	0x00000000	0.0
45	0x00000000	0.0
46	0x00000000	0.0
47	0x00000000	0.0
48	0x00000000	0.0
49	0x00000000	0.0
50	0x00000000	0.0
51	0x00000000	0.0
52	0x00000000	0.0
53	0x00000000	0.0
54	0x00000000	0.0
55	0x00000000	0.0
56	0x00000000	0.0
57	0x00000000	0.0
58	0x00000000	0.0
59	0x00000000	0.0
60	0x00000000	0.0
61	0x00000000	0.0
62	0x00000000	0.0
63	0x00000000	0.0

decoder.bn.running_var f4 [64]
0	0x3f800000	1.0
1	0x3f800000	1.0
2	0x3f800000	1.0
3	0x3f800000	1.0
4	0x3f800000	1.0
5	0x3f800000	1.0
6	0x3f800000	1.0
7	0x3f800000	1.0
8	0x3f800000	1.0
9	0x3f800000	1.0
10	0x3f800000	1.0
11	0x3f800000	1.0
12	0x3f800000	1.0
13	0x3f800000	1.0
14	0x3f800000	1.0
15	0x3f800000	1.0
16	0x3f800000	1.0
17	0x3f800000	1.0
18	0x3f800000	1.0
19	0x3f800000	1.0
20	0x3f800000	1.0
21	0x3f800000	1.0
22	0x3f800000	1.0
23	0x3f800000	1.0
24	0x3f800000	1.0
25	0x3f800000	1.0
26	0x3f800000	1.0
27	0x3f800000	1.0
28	0x3f800000	1.0
29	0x3f800000	1.0
30	0x3f800000	1.0
31	0x3f800000	1.0
32	0x3f800000	1.0
33	0x3f800000	1.0
34	0x3f800000	1.0
35	0x3f800000	1.0
36	0x3f800000	1.0
37	0x3f800000	1.0
38	0x3f800000	1.0
39	0x3f800000	1.0
40	0x3f800000	1.0
41	0x3f800000	1.0
42	0x3f800000	1.0
43	0x3f800000	1.0
44	0x3f800000	1.0
45	0x3f800000	1.0
46	0x3f800000	1.0
47	0x3f800000	1.0
48	0x3f800000	1.0
49	0x3f800000	1.0
50	0x3f800000	1.0
51	0x3f800000	1.0
52	0x3f800000	1.0
53	0x3f800000	1.0
54	0x3f800000	1.0
55	0x3f800000	1.0
56	0x3f800000	1.0
57	0x3f800000	1.0
58	0x3f800000	1.0
59	0x3f800000	1.0
60	0x3f800000	1.0
61	0x3f800000	1.0
62	0x3f800000	1.0
63	0x3f800000	1.0
