FarconVAE/model_german/farcon_2023_05_01_16_54_59_184055_ours.pth (torch, 41699 bytes, 21 tensors)

encoder.fc.weight f4 [64, 47]
-0.08979063 0.096271664 -0.06408963 -0.040740598 0.12906782 -0.11065642 0.054541335 0.08288954
-0.044896405 0.06592756 0.083729416 0.027966063 0.036981262 0.15008385 0.0932929 0.067623764
-0.007703833 0.16706723 0.06262745 -0.0018631245 -0.068940215 -0.14344819 0.05624535 0.035756957
-0.065302975 0.11713697 0.08980328 0.04976349 0.009209084 -0.027724024 0.03667149 0.0066079926
-0.009119547 0.10166292 -0.039070014 -0.09398616 -0.051056903 0.06292308 0.040925685 0.10741963
-0.027456723 0.04532891 0.024211183 0.08658042 0.03188337 0.21606201 -0.106873296 -0.13128877
-0.17821144 -0.075298995 -0.09456207 0.06272686 0.069229744 -0.020260336 -0.114745855 -0.14575177
-0.1276028 -0.081399105 0.03564766 0.010840895 -0.06385305 0.058073338 0.08263562 0.0743239
0.000544106 -0.19489397 -0.052371442 0.11327003 -0.11169629 -0.061370485 -0.18825264 -0.00021687661
-0.07190886 -0.22584745 -0.019692302 -0.02324772 -0.16185938 -0.008724947 -0.021836702 -0.24380443
-0.02337623 0.055478845 -0.059743278 0.079407886 0.024100818 -0.02166154 -0.11168405 -0.030176606
0.055018816 0.13417307 -0.06543625 -0.24060887 -0.25183898 0.22569555 0.08106647 -0.12698053
-0.007693372 0.07967625 -0.0070068184 0.15452753 -0.010452968 0.005766405 0.07548949 -0.00012281291
0.07734468 0.04285753 0.108536616 0.07453063 -0.1068017 -0.072513536 0.08022122 0.06770109
0.06779309 0.1645566 0.18530662 0.0494053 0.13779093 0.066136 0.17215833 0.12784356
-0.06777229 0.0608279 -0.086424366 0.1184115 0.042415176 0.034951203 -0.017621772 0.14082265
0.14142963 0.027410904 0.024298966 0.10947182 0.100448675 0.014751195 0.11750271 0.13853067
0.132617 0.10787234 0.13022064 0.15661845 -0.09204308 -0.016251482 -0.016755557 -0.013195443
-0.023231784 0.10546171 0.15355524 -0.08897603 0.088651136 0.06287556 0.054165527 0.13135667
0.15420347 0.009801701 0.11562358 -0.07995612 0.15952052 0.052904285 0.17924261 0.1401024
-0.062865265 -0.037190016 0.081882805 0.07329242 0.13065527 0.22119926 0.028577432 0.03257937
0.065983176 0.018095555 -0.0011881089 0.023374341 0.04410493 0.14523758 0.09217702 0.15466972
0.07711055 0.113104805 0.19438858 -0.035902333 0.20418248 0.19669035 -0.03293616 0.100103214
-0.0034220065 0.15855905 0.34298852 -0.34998804 0.20790592 0.07341376 0.15328796 0.043157455
0.06342755 0.1866723 0.016522184 0.19700323 0.062134717 -0.018704707 -0.034488965 0.22663935
0.15370268 0.034347754 0.23537225 -0.020009058 0.21307579 0.19472988 0.16533881 -0.01117548
0.21305442 0.029695421 0.026355145 -0.020594526 0.15243621 0.30316478 0.23009041 0.039165635
0.30822822 0.13356002 0.048041895 0.08925744 0.27692515 0.16081989 -0.20465802 0.042565003
0.0985305 0.17610405 0.045900986 0.14447659 0.2564007 0.17776145 0.0070235003 0.035737667
0.08865577 -0.21328616 -0.40123564 0.040519502 -0.09461531 -0.10642979 0.027807754 -0.18782584
-0.17151053 -0.06881817 -0.12334648 -0.15966669 0.11283405 -0.071643025 -0.005981491 0.05566947
-0.0783123 -0.17343007 -0.17351887 -0.039545406 -0.06378143 -0.08682754 -0.01070103 -0.14933579
00000000: 26e4 b7bd 142a c53d 6d41 83bd 9ddf 26bd
00000010: 5b2a 043e d59f e2bd bc66 5f3d fec1 a93d
00000020: 4be5 37bd 0705 873d 547a ab3d 1619 e53c
00000030: aa79 173d 95af 193e 5910 bf3d 547e 8a3d
00000040: 6f70 fcbb ac13 2b3e d242 803d 1634 f4ba
00000050: 8730 8dbd 15e4 12be 8661 663d e375 123d
00000060: 91bd 85bd 82e5 ef3d c8ea b73d cdd4 4b3d
00000070: b3e1 163c 7e1d e3bc d834 163d dc87 d83b
00000080: 276a 15bc a634 d03d e107 20bd d17b c0bd
00000090: 0b21 51bd d1dd 803d b1a1 273d d3fe db3d
000000a0: ecec e0bc cfaa 393d 8856 c63c 1351 b13d
000000b0: 2398 023d 5c3f 5d3e 63e0 dabd 9070 06be
000000c0: 0f7d 36be 5c36 9abd c2a9 c1bd f176 803d
000000d0: 53c8 8d3d 01f9 a5bc e0ff eabd f43f 15be
000000e0: 4faa 02be 93b4 a6bd 4803 123d 029e 313c
000000f0: 63c5 82bd 4fde 6d3d dd3c a93d 2137 983d
00000100: 56a2 0e3a 4992 47be 7083 56bd 1efa e73d
00000110: 06c1 e4bd 9e5f 7bbd 4dc5 40be 5f69 63b9
00000120: f444 93bd 8e44 67be c051 a1bc 0172 bebc
00000130: 77be 25be 15f3 0ebc e2e2 b2bc dea7 79be
00000140: 827f bfbc c93d 633d 5eb5 74bd 9aa0 a23d
00000150: 146f c53c 8b73 b1bc 9bba e4bd ee34 f7bc
00000160: 695b 613d aa64 093e 7103 86bd 2c62 76be
00000170: 0af1 80be bc1c 673e 2d06 a63d 2f07 02be
00000180: af18 fcbb 4d2d a33d 7499 e5bb 773c 1e3e
00000190: ed42 2bbc 1cf4 bc3b 3c9a 9a3d 57c7 00b9
000001a0: e366 9e3d 618b 2f3d 7248 de3d 84a3 983d
000001b0: daba dabd fa81 94bd 064b a43d dea6 8a3d
000001c0: 1bd7 8a3d 8681 283e 05c1 3d3e 365d 4a3d
000001d0: 1119 0d3e 5072 873d 464a 303e 6ce9 023e
000001e0: 33cc 8abd ad26 793d 42ff b0bd ba81 f23d
000001f0: 89bb 2d3d fe28 0f3d 895b 90bc d033 103e
00000200: eed2 103e d58c e03c a00e c73c c332 e03d
00000210: 09b8 cd3d ffae 713c 43a5 f03d fcda 0d3e
00000220: c0cc 073e 2cec dc3d 8f58 053e 9660 203e
00000230: 1581 bcbd d421 85bc f342 89bc b331 58bc
00000240: 9550 bebc 4ffc d73d 963d 1d3e 1139 b6bd
00000250: ba8e b53d e7c4 803d acdc 5d3d 5d82 063e
00000260: 84e7 1d3e 5097 203c 0ecc ec3d 09c0 a3bd
00000270: 5959 233e 2ab2 583d 608b 373e 0177 0f3e
00000280: 81bf 80bd 8f54 18bd 2cb2 a73d 561a 963d
00000290: 7fca 053e 0f82 623e 381b ea3c f271 053d
000002a0: 3022 873d 213d 943c 52ba 9bba 8c7b bf3c
000002b0: 5fa7 343d 29b9 143e 4ec7 bc3d bd61 1e3e
000002c0: 23ec 9d3d 7ea3 e73d cd0d 473e 530e 13bd
000002d0: 3615 513e 3269 493e 11e8 06bd ea02 cd3d
000002e0: be43 60bb 4e5d 223e 319c af3e a231 b3be
000002f0: 4ae5 543e f459 963d 85f7 1c3e dfc5 303d
00000300: 4ee6 813d 0627 3f3e 8859 873c 37bb 493e
00000310: f980 7e3d 9d3a 99bc 4d44 0dbd 2514 683e
00000320: 3c64 1d3e 3bb0 0c3d 6c05 713e 09ea a3bc
00000330: 8a30 5a3e 4567 473e 944e 293e 5c19 37bc
00000340: f02a 5a3e d043 f33c bfe6 d73c dab5 a8bc
00000350: 3d18 1c3e 6a38 9b3e d29c 6b3e 256c 203d
00000360: 17d0 9d3e f5c3 083e 94c7 443d 9bcc b63d
00000370: 22c9 8d3e f8ad 243e df91 51be a458 2e3d
00000380: 5cca c93d 9f54 343e ac02 3c3d acf1 133e
00000390: f446 833e 1907 363e 6425 e63b a961 123d
000003a0: 2891 b53d b067 5abe c26e cdbe c7f7 253d
000003b0: acc5 c1bd ddf7 d9bd 16cd e33c 6b55 40be
000003c0: 75a0 2fbe 8af0 8cbd 149d fcbd aa7f 23be
000003d0: 8a15 e73d 94b9 92bd 6200 c4bb ac05 643d
000003e0: 3362 a0bd a797 31be eeae 31be 5dfa 21bd
000003f0: d79f 82bd a3d2 b1bd 5f53 2fbc 7beb 18be

encoder.fc.bias f4 [64]
0.09801904 -0.108254306 -0.067520775 0.047696184 0.027065765 0.041778836 -0.1046915 0.04743188
0.04873143 0.031593602 0.1537037 0.045146685 -0.01512103 -0.16369182 -0.13119169 -0.15126075
0.02617071 0.16101043 -0.08702374 -0.04802451 0.08379109 0.14086796 -0.034020014 0.16431369
0.22435349 0.13826488 0.06652309 0.095544524 0.104593195 -0.12761417 0.063878514 0.031383675
0.12690598 0.07788954 -0.00087761844 0.14300372 0.086166546 0.027164841 -0.10884243 0.013147063
0.091158286 0.0728203 -0.097664714 0.07215243 0.15205753 0.03631703 0.15047163 -0.04073524
0.18621626 0.044961575 -0.0387855 -0.079492696 0.014352299 0.088459514 0.034344543 -0.16828184
0.128384 -0.16335824 0.13660806 -0.03217791 0.13258474 -0.0013047511 -0.04197979 -0.08660508
00000000: 35be c83d 6fb4 ddbd 5548 8abd 135d 433d
00000010: 06b9 dd3c 4920 2b3d 7f68 d6bd ee47 423d
00000020: 9c9a 473d 4b68 013d 8164 1d3e bbeb 383d
00000030: 32be 77bc d49e 27be 1d57 06be 19e4 1abe
00000040: f563 d63c ebdf 243e 8139 b2bd 59b5 44bd
00000050: aa9a ab3d b13f 103e 9258 0bbd d941 283e
00000060: ecbc 653e 4f95 0d3e 423d 883d d9ac c33d
00000070: f534 d63d 4aad 02be bdd2 823d 2b8c 003d
00000080: a4f3 013e 8d84 9f3d fa0f 66ba 916f 123e
00000090: 1678 b03d cd88 de3c c8e8 debd c766 573c
000000a0: 32b1 ba3d cf22 953d 7004 c8bd a7c4 933d
000000b0: f8b4 1b3e 2bc1 143d 3c15 1a3e ffd9 26bd
000000c0: 7aaf 3e3e a129 383d 8bdd 1ebd 11cd a2bd
000000d0: e825 6b3c 432a b53d ddac 0c3d 1352 2cbe
000000e0: 1877 033e 6247 27be fce2 0b3e fccc 03bd
000000f0: 4bc4 073e 2f04 abba 00f3 2bbd 015e b1bd

encoder.bn.weight f4 [64]
1.0 1.0 1.0 1.0 1.0 1.0 1.0 1.0
1.0 1.0 1.0 1.0 1.0 1.0 1.0 1.0
1.0 1.0 1.0 1.0 1.0 1.0 1.0 1.0
1.0 1.0 1.0 1.0 1.0 1.0 1.0 1.0
1.0 1.0 1.0 1.0 1.0 1.0 1.0 1.0
1.0 1.0 1.0 1.0 1.0 1.0 1.0 1.0
1.0 1.0 1.0 1.0 1.0 1.0 1.0 1.0
1.0 1.0 1.0 1.0 1.0 1.0 1.0 1.0
00000000: 0000 803f 0000 803f 0000 803f 0000 803f
00000010: 0000 803f 0000 803f 0000 803f 0000 803f
00000020: 0000 803f 0000 803f 0000 803f 0000 803f
00000030: 0000 803f 0000 803f 0000 803f 0000 803f
00000040: 0000 803f 0000 803f 0000 803f 0000 803f
00000050: 0000 803f 0000 803f 0000 803f 0000 803f
00000060: 0000 803f 0000 803f 0000 803f 0000 803f
00000070: 0000 803f 0000 803f 0000 803f 0000 803f
00000080: 0000 803f 0000 803f 0000 803f 0000 803f
00000090: 0000 803f 0000 803f 0000 803f 0000 803f
000000a0: 0000 803f 0000 803f 0000 803f 0000 803f
000000b0: 0000 803f 0000 803f 0000 803f 0000 803f
000000c0: 0000 803f 0000 803f 0000 803f 0000 803f
000000d0: 0000 803f 0000 803f 0000 803f 0000 803f
000000e0: 0000 803f 0000 803f 0000 803f 0000 803f
000000f0: 0000 803f 0000 803f 0000 803f 0000 803f

encoder.bn.bias f4 [64]
0.0 0.0 0.0 0.0 0.0 0.0 0.0 0.0
0.0 0.0 0.0 0.0 0.0 0.0 0.0 0.0
0.0 0.0 0.0 0.0 0.0 0.0 0.0 0.0
0.0 0.0 0.0 0.0 0.0 0.0 0.0 0.0
0.0 0.0 0.0 0.0 0.0 0.0 0.0 0.0
0.0 0.0 0.0 0.0 0.0 0.0 0.0 0.0
0.0 0.0 0.0 0.0 0.0 0.0 0.0 0.0
0.0 0.0 0.0 0.0 0.0 0.0 0.0 0.0
00000000: 0000 0000 0000 0000 0000 0000 0000 0000
00000010: 0000 0000 0000 0000 0000 0000 0000 0000
00000020: 0000 0000 0000 0000 0000 0000 0000 0000
00000030: 0000 0000 0000 0000 0000 0000 0000 0000
00000040: 0000 0000 0000 0000 0000 0000 0000 0000
00000050: 0000 0000 0000 0000 0000 0000 0000 0000
00000060: 0000 0000 0000 0000 0000 0000 0000 0000
00000070: 0000 0000 0000 0000 0000 0000 0000 0000
00000080: 0000 0000 0000 0000 0000 0000 0000 0000
00000090: 0000 0000 0000 0000 0000 0000 0000 0000
000000a0: 0000 0000 0000 0000 0000 0000 0000 0000
000000b0: 0000 0000 0000 0000 0000 0000 0000 0000
000000c0: 0000 0000 0000 0000 0000 0000 0000 0000
000000d0: 0000 0000 0000 0000 0000 0000 0000 0000
000000e0: 0000 0000 0000 0000 0000 0000 0000 0000
000000f0: 0000 0000 0000 0000 0000 0000 0000 0000

encoder.bn.running_mean f4 [64]
0.0 0.0 0.0 0.0 0.0 0.0 0.0 0.0
0.0 0.0 0.0 0.0 0.0 0.0 0.0 0.0
0.0 0.0 0.0 0.0 0.0 0.0 0.0 0.0
0.0 0.0 0.0 0.0 0.0 0.0 0.0 0.0
0.0 0.0 0.0 0.0 0.0 0.0 0.0 0.0
0.0 0.0 0.0 0.0 0.0 0.0 0.0 0.0
0.0 0.0 0.0 0.0 0.0 0.0 0.0 0.0
0.0 0.0 0.0 0.0 0.0 0.0 0.0 0.0
00000000: 0000 0000 0000 0000 0000 0000 0000 0000
00000010: 0000 0000 0000 0000 0000 0000 0000 0000
00000020: 0000 0000 0000 0000 0000 0000 0000 0000
00000030: 0000 0000 0000 0000 0000 0000 0000 0000
00000040: 0000 0000 0000 0000 0000 0000 0000 0000
00000050: 0000 0000 0000 0000 0000 0000 0000 0000
00000060: 0000 0000 0000 0000 0000 0000 0000 0000
00000070: 0000 0000 0000 0000 0000 0000 0000 0000
00000080: 0000 0000 0000 0000 0000 0000 0000 0000
00000090: 0000 0000 0000 0000 0000 0000 0000 0000
000000a0: 0000 0000 0000 0000 0000 0000 0000 0000
000000b0: 0000 0000 0000 0000 0000 0000 0000 0000
000000c0: 0000 0000 0000 0000 0000 0000 0000 0000
000000d0: 0000 0000 0000 0000 0000 0000 0000 0000
000000e0: 0000 0000 0000 0000 0000 0000 0000 0000
000000f0: 0000 0000 0000 0000 0000 0000 0000 0000

encoder.bn.running_var f4 [64]
1.0 1.0 1.0 1.0 1.0 1.0 1.0 1.0
1.0 1.0 1.0 1.0 1.0 1.0 1.0 1.0
1.0 1.0 1.0 1.0 1.0 1.0 1.0 1.0
1.0 1.0 1.0 1.0 1.0 1.0 1.0 1.0
1.0 1.0 1.0 1.0 1.0 1.0 1.0 1.0
1.0 1.0 1.0 1.0 1.0 1.0 1.0 1.0
1.0 1.0 1.0 1.0 1.0 1.0 1.0 1.0
1.0 1.0 1.0 1.0 1.0 1.0 1.0 1.0
00000000: 0000 803f 0000 803f 0000 803f 0000 803f
00000010: 0000 803f 0000 803f 0000 803f 0000 803f
00000020: 0000 803f 0000 803f 0000 803f 0000 803f
00000030: 0000 803f 0000 803f 0000 803f 0000 803f
00000040: 0000 803f 0000 803f 0000 803f 0000 803f
00000050: 0000 803f 0000 803f 0000 803f 0000 803f
00000060: 0000 803f 0000 803f 0000 803f 0000 803f
00000070: 0000 803f 0000 803f 0000 803f 0000 803f
00000080: 0000 803f 0000 803f 0000 803f 0000 803f
00000090: 0000 803f 0000 803f 0000 803f 0000 803f
000000a0: 0000 803f 0000 803f 0000 803f 0000 803f
000000b0: 0000 803f 0000 803f 0000 803f 0000 803f
000000c0: 0000 803f 0000 803f 0000 803f 0000 803f
000000d0: 0000 803f 0000 803f 0000 803f 0000 803f
000000e0: 0000 803f 0000 803f 0000 803f 0000 803f
000000f0: 0000 803f 0000 803f 0000 803f 0000 803f

encoder.out.weight f4 [20, 64]
0.05078444 -0.081994414 0.10940139 0.14721702 0.13213348 -0.04643859 -0.12045185 -0.080371656
-0.015823497 -0.12058562 0.03671199 0.07456488 0.02641906 -0.061220184 0.010770586 0.029598672
-0.07200526 0.11843587 0.10033443 -0.05793727 -0.031537954 0.015599107 -0.24185598 -0.12266712
0.13155301 -0.19368534 -0.05109982 -0.05461434 -0.0076900353 -0.014156692 0.12802699 -0.02207862
0.073467515 -0.023136795 0.14025249 -0.10844019 0.00911043 0.0630233 -0.08864974 -0.09523417
0.10142192 -0.08794498 0.06277803 -0.04780735 -0.2610059 0.14518368 -0.026384741 0.053714834
0.13658507 0.15195182 0.032122165 -0.02356747 -0.1638391 -0.12909015 0.05096107 0.12099247
0.17498836 -0.06270569 -0.12567303 0.055121373 -0.0058201808 -0.02343966 0.034666076 0.11190785
0.058279466 0.084017456 0.13590232 0.1748442 0.35915893 0.051035125 -0.11657127 -0.010056207
0.19191808 -0.26793504 0.026061092 0.13660535 -0.13974828 0.14354476 -0.13499163 0.09322646
-0.1690793 0.16991976 0.11702938 -0.018655641 -0.109918125 0.1725914 -0.21888946 -0.06465761
0.1502624 -0.20907936 -0.094786555 -0.050828125 0.21863312 -0.22171396 0.130482 0.13109568
0.1448549 -0.17273048 0.03976655 0.13250993 -0.1227651 -0.12846223 0.095241666 -0.09924511
0.22603935 -0.18617162 -0.08106654 -0.15836136 -0.27587995 -0.10472352 -0.2155404 0.1429684
0.09425531 0.098766476 0.033218767 -0.1523453 -0.020270947 -0.1296797 -0.12135652 0.07170435
0.3319229 0.05639713 -0.12550433 0.14028148 0.026410745 -0.061813604 -0.09247103 0.034164544
-0.08807634 0.1134565 0.11267311 -0.060659952 -0.22320168 0.108851954 0.03778246 -0.1560449
-0.17117836 0.13691303 -0.06367458 -0.0957422 -0.08276775 -0.013806959 0.18056202 0.10690534
0.024167988 -0.24684088 -0.023752717 -0.22848785 -0.0052959537 -0.06381918 0.37523767 -0.17547765
-0.105176724 0.24129963 0.14096089 -0.13116169 -0.24348588 0.08458873 -0.2582377 0.022933464
0.06607998 -0.02885606 -0.138031 -0.18484144 0.15550606 -0.043465454 0.08958401 -0.14245848
0.0052234125 0.05076863 -0.015161181 0.14421578 0.21344233 0.0010220046 0.23876259 -0.015300914
-0.052517142 -0.17062227 0.024179092 0.11303835 -0.051353894 0.03394749 0.07771416 0.0811488
-0.36150455 -0.08361519 0.22350085 -0.05626998 0.1401783 0.4258001 0.05924489 -0.061603505
0.025291475 -0.06793175 0.14176022 0.10046709 0.09401347 -0.15944794 -0.044681188 -0.054685645
0.18724656 -0.23405102 0.0825078 0.06821275 0.040220127 0.06635983 -0.19001806 -0.005420166
-0.10752018 0.09746054 -0.13848741 0.021840895 -0.13431315 0.2839902 -0.27530548 0.060896277
0.15412842 -0.23422256 -0.076927535 0.08097136 0.2852398 0.013267891 0.22802065 0.12707825
-0.015253736 -0.1082033 0.04384353 0.19463442 -0.027444614 0.15032536 -0.101780646 0.07182696
0.23799935 -0.14929245 0.06812744 -0.085752405 -0.3331902 -0.2382823 -0.16000283 0.23525093
0.060903005 0.21320066 0.08458967 -0.11487528 -0.08219537 0.0011923382 0.06594149 -0.1134998
0.30509976 -0.017469129 -0.30998072 -0.02113571 -0.004013179 -0.2336942 -0.11007526 -0.06545071
00000000: 5803 503d b0ec a7bd d60d e03d 0fc0 163e
00000010: 004e 073e 6436 3ebd 76af f6bd e599 a4bd
00000020: 47a0 81bc 98f5 f6bd 505f 163d 79b5 983d
00000030: c96c d83c 04c2 7abd 1d77 303c ea78 f23c
00000040: 7e77 93bd 818e f23d 237c cd3d a14f 6dbd
00000050: f12d 01bd 6693 7f3c 18a9 77be e638 fbbd
00000060: d5b5 063e 7355 46be 0b4e 51bd 49b3 5fbd
00000070: b1fc fbbb 78f1 67bc 8219 033e 39de b4bc
00000080: 2376 963d 6089 bdbc 599e 0f3e e415 debd
00000090: ea43 153c 5c12 813d ff8d b5bd 220a c3bd
000000a0: 4cb6 cf3d 7f1c b4bd c591 803d a4d1 43bd
000000b0: 91a2 85be 08ab 143e d024 d8bc 1604 5c3d
000000c0: f5dc 0b3e 4299 1b3e 8892 033d 9110 c1bc
000000d0: 70c5 27be 3530 04be 8ebc 503d e6ca f73d
000000e0: 2630 333e d76b 80bd 6eb0 00be f3c6 613d
000000f0: 37b7 bebb 8804 c0bc 04fe 0d3d f12f e53d
00000100: 73b6 6e3d 5811 ac3d fa29 0b3e 5c0a 333e
00000110: aee3 b73e 350a 513d ebbc eebd cac2 24bc
00000120: 2c86 443e c82e 89be 127e d53c 46e2 0b3e
00000130: 2c1a 0fbe 66fd 123e 3f3b 0abe 84ed be3d
00000140: 2023 2dbe 72ff 2d3e 19ad ef3d b7d3 98bc
00000150: c11c e1bd cdbb 303e 8f24 60be 366b 84bd
00000160: 63de 193e e618 56be 741f c2bd 2731 50bd
00000170: 5ce1 5f3e fc08 63be 139d 053e f23d 063e
00000180: d854 143e 42e0 30be 40e2 223d afb0 073e
00000190: 456c fbbd 9a8b 03be 100e c33d 0541 cbbd
000001a0: dc76 673e c6a3 3ebe 3706 a6bd 7b29 22be
000001b0: 2340 8dbe 4979 d6bd 9fb6 5cbe 4f66 123e
000001c0: ee08 c13d 1446 ca3d 6710 083d 6800 1cbe
000001d0: 420f a6bc c1ca 04be c489 f8bd bbd9 923d
000001e0: ccf1 a93e ad00 673d 3584 00be f3a5 0f3e
000001f0: 595b d83c 4330 7dbd 7461 bdbd 1ff0 0b3d
00000200: 5e61 b4bd e25b e83d 29c1 e63d 9276 78bd
00000210: fb8e 64be c6ed de3d c8c1 1a3d 3cca 1fbe
00000220: 6149 2fbe ee32 0c3e d167 82bd 7d14 c4bd
00000230: 2382 a9bd 9536 62bc 40e5 383e 30f1 da3d
00000240: f2fb c53c dbc3 7cbe 0f95 c2bc b8f8 69be
00000250: ae89 adbb a1b3 82bd 271f c03e 6ab0 33be
00000260: e566 d7bd 4017 773e 0d58 103e 404f 06be
00000270: 5d54 79be db3c ad3d bb37 84be f6de bb3c
00000280: f154 873d 8b63 ecbc 0058 0dbe 1347 3dbe
00000290: fb3c 1f3e d508 32bd d277 b73d a3e0 11be
000002a0: 2929 ab3b c4f2 4f3d 9a66 78bc 4dad 133e
000002b0: a090 5a3e c9f4 853a 2e7e 743e afb0 7abc
000002c0: 371c 57bd 9bb7 2ebe 3b13 c63c a780 e73d
000002d0: 7658 52bd 860c 0b3d 9a28 9f3d 5831 a63d
000002e0: 2017 b9be 713e abbd 68dd 643e 5a7b 66bd
000002f0: e68a 0f3e 7902 da3e c5aa 723d f553 7cbd
00000300: 1130 cf3c cd1f 8bbd 9729 113e b1c1 cd3d
00000310: 228a c03d 5246 23be 9f03 37bd 0efe 5fbd
00000320: 90bd 3f3e 12ab 6fbe d9f9 a83d 20b3 8b3d
00000330: dcbd 243d aae7 873d 1894 42be a69b b1bb
00000340: 8a33 dcbd 6499 c73d a5cf 0dbe adeb b23c
00000350: 6389 09be 2a67 913e d7f4 8cbe 606e 793d
00000360: d7d3 1d3e 0ad8 6fbe 2f8c 9dbd 50d4 a53d
00000370: f30a 923e 9161 593c 3f7e 693e cd20 023e
00000380: ceea 79bc b199 ddbd 4695 333d 3f4e 473e
00000390: 87d3 e0bc e4ee 193e 5f72 d0bd 031a 933d
000003a0: 1ab6 733e 1fe0 18be 6686 8b3d f59e afbd
000003b0: e897 aabe 4600 74be c8d7 23be 9fe5 703e
000003c0: 6e75 793d 4651 5a3e 593d ad3d bb43 ebbd
000003d0: 0c56 a8bd 3b48 9c3a 550c 873d 9572 e8bd
000003e0: 0936 9c3e 6b1b 8fbc cbb5 9ebe cc24 adbc
000003f0: fc80 83bb 884d 6fbe 236f e1bd 060b 86bd

encoder.out.bias f4 [20]
-0.07633297 0.10794671 -0.08647166 0.12361981 -0.13676432 0.082945526 0.14639519 0.12713413
-0.15031707 0.09974522 0.05089883 -0.040771693 -0.026743691 0.10247644 -0.023978354 0.090851694
-0.06516977 -0.047285646 -0.1377396 -0.0706456
00000000: 7654 9cbd 2a13 dd3d 0e18 b1bd 622c fd3d
00000010: f20b 0cbe 58df a93d 9fe8 153e 732f 023e
00000020: b8ec 19be 3947 cc3d 4b7b 503d 3800 27bd
00000030: 9615 dbbc 2bdf d13d 416e c4bc 7410 ba3d
00000040: ba77 85bd 98ae 41bd 9c0b 0dbe a4ae 90bd

encoder.net.0.weight f4 [64, 47]
-0.08979063 0.096271664 -0.06408963 -0.040740598 0.12906782 -0.11065642 0.054541335 0.08288954
-0.044896405 0.06592756 0.083729416 0.027966063 0.036981262 0.15008385 0.0932929 0.067623764
-0.007703833 0.16706723 0.06262745 -0.0018631245 -0.068940215 -0.14344819 0.05624535 0.035756957
-0.065302975 0.11713697 0.08980328 0.04976349 0.009209084 -0.027724024 0.03667149 0.0066079926
-0.009119547 0.10166292 -0.039070014 -0.09398616 -0.051056903 0.06292308 0.040925685 0.10741963
-0.027456723 0.04532891 0.024211183 0.08658042 0.03188337 0.21606201 -0.106873296 -0.13128877
-0.17821144 -0.075298995 -0.09456207 0.06272686 0.069229744 -0.020260336 -0.114745855 -0.14575177
-0.1276028 -0.081399105 0.03564766 0.010840895 -0.06385305 0.058073338 0.08263562 0.0743239
0.000544106 -0.19489397 -0.052371442 0.11327003 -0.11169629 -0.061370485 -0.18825264 -0.00021687661
-0.07190886 -0.22584745 -0.019692302 -0.02324772 -0.16185938 -0.008724947 -0.021836702 -0.24380443
-0.02337623 0.055478845 -0.059743278 0.079407886 0.024100818 -0.02166154 -0.11168405 -0.030176606
0.055018816 0.13417307 -0.06543625 -0.24060887 -0.25183898 0.22569555 0.08106647 -0.12698053
-0.007693372 0.07967625 -0.0070068184 0.15452753 -0.010452968 0.005766405 0.07548949 -0.00012281291
0.07734468 0.04285753 0.108536616 0.07453063 -0.1068017 -0.072513536 0.08022122 0.06770109
0.06779309 0.1645566 0.18530662 0.0494053 0.13779093 0.066136 0.17215833 0.12784356
-0.06777229 0.0608279 -0.086424366 0.1184115 0.042415176 0.034951203 -0.017621772 0.14082265
0.14142963 0.027410904 0.024298966 0.10947182 0.100448675 0.014751195 0.11750271 0.13853067
0.132617 0.10787234 0.13022064 0.15661845 -0.09204308 -0.016251482 -0.016755557 -0.013195443
-0.023231784 0.10546171 0.15355524 -0.08897603 0.088651136 0.06287556 0.054165527 0.13135667
0.15420347 0.009801701 0.11562358 -0.07995612 0.15952052 0.052904285 0.17924261 0.1401024
-0.062865265 -0.037190016 0.081882805 0.07329242 0.13065527 0.22119926 0.028577432 0.03257937
0.065983176 0.018095555 -0.0011881089 0.023374341 0.04410493 0.14523758 0.09217702 0.15466972
0.07711055 0.113104805 0.19438858 -0.035902333 0.20418248 0.19669035 -0.03293616 0.100103214
-0.0034220065 0.15855905 0.34298852 -0.34998804 0.20790592 0.07341376 0.15328796 0.043157455
0.06342755 0.1866723 0.016522184 0.19700323 0.062134717 -0.018704707 -0.034488965 0.22663935
0.15370268 0.034347754 0.23537225 -0.020009058 0.21307579 0.19472988 0.16533881 -0.01117548
0.21305442 0.029695421 0.026355145 -0.020594526 0.15243621 0.30316478 0.23009041 0.039165635
0.30822822 0.13356002 0.048041895 0.08925744 0.27692515 0.16081989 -0.20465802 0.042565003
0.0985305 0.17610405 0.045900986 0.14447659 0.2564007 0.17776145 0.0070235003 0.035737667
0.08865577 -0.21328616 -0.40123564 0.040519502 -0.09461531 -0.10642979 0.027807754 -0.18782584
-0.17151053 -0.06881817 -0.12334648 -0.15966669 0.11283405 -0.071643025 -0.005981491 0.05566947
-0.0783123 -0.17343007 -0.17351887 -0.039545406 -0.06378143 -0.08682754 -0.01070103 -0.14933579
00000000: 26e4 b7bd 142a c53d 6d41 83bd 9ddf 26bd
00000010: 5b2a 043e d59f e2bd bc66 5f3d fec1 a93d
00000020: 4be5 37bd 0705 873d 547a ab3d 1619 e53c
00000030: aa79 173d 95af 193e 5910 bf3d 547e 8a3d
00000040: 6f70 fcbb ac13 2b3e d242 803d 1634 f4ba
00000050: 8730 8dbd 15e4 12be 8661 663d e375 123d
00000060: 91bd 85bd 82e5 ef3d c8ea b73d cdd4 4b3d
00000070: b3e1 163c 7e1d e3bc d834 163d dc87 d83b
00000080: 276a 15bc a634 d03d e107 20bd d17b c0bd
00000090: 0b21 51bd d1dd 803d b1a1 273d d3fe db3d
000000a0: ecec e0bc cfaa 393d 8856 c63c 1351 b13d
000000b0: 2398 023d 5c3f 5d3e 63e0 dabd 9070 06be
000000c0: 0f7d 36be 5c36 9abd c2a9 c1bd f176 803d
000000d0: 53c8 8d3d 01f9 a5bc e0ff eabd f43f 15be
000000e0: 4faa 02be 93b4 a6bd 4803 123d 029e 313c
000000f0: 63c5 82bd 4fde 6d3d dd3c a93d 2137 983d
00000100: 56a2 0e3a 4992 47be 7083 56bd 1efa e73d
00000110: 06c1 e4bd 9e5f 7bbd 4dc5 40be 5f69 63b9
00000120: f444 93bd 8e44 67be c051 a1bc 0172 bebc
00000130: 77be 25be 15f3 0ebc e2e2 b2bc dea7 79be
00000140: 827f bfbc c93d 633d 5eb5 74bd 9aa0 a23d
00000150: 146f c53c 8b73 b1bc 9bba e4bd ee34 f7bc
00000160: 695b 613d aa64 093e 7103 86bd 2c62 76be
00000170: 0af1 80be bc1c 673e 2d06 a63d 2f07 02be
00000180: af18 fcbb 4d2d a33d 7499 e5bb 773c 1e3e
00000190: ed42 2bbc 1cf4 bc3b 3c9a 9a3d 57c7 00b9
000001a0: e366 9e3d 618b 2f3d 7248 de3d 84a3 983d
000001b0: daba dabd fa81 94bd 064b a43d dea6 8a3d
000001c0: 1bd7 8a3d 8681 283e 05c1 3d3e 365d 4a3d
000001d0: 1119 0d3e 5072 873d 464a 303e 6ce9 023e
000001e0: 33cc 8abd ad26 793d 42ff b0bd ba81 f23d
000001f0: 89bb 2d3d fe28 0f3d 895b 90bc d033 103e
00000200: eed2 103e d58c e03c a00e c73c c332 e03d
00000210: 09b8 cd3d ffae 713c 43a5 f03d fcda 0d3e
00000220: c0cc 073e 2cec dc3d 8f58 053e 9660 203e
00000230: 1581 bcbd d421 85bc f342 89bc b331 58bc
00000240: 9550 bebc 4ffc d73d 963d 1d3e 1139 b6bd
00000250: ba8e b53d e7c4 803d acdc 5d3d 5d82 063e
00000260: 84e7 1d3e 5097 203c 0ecc ec3d 09c0 a3bd
00000270: 5959 233e 2ab2 583d 608b 373e 0177 0f3e
00000280: 81bf 80bd 8f54 18bd 2cb2 a73d 561a 963d
00000290: 7fca 053e 0f82 623e 381b ea3c f271 053d
000002a0: 3022 873d 213d 943c 52ba 9bba 8c7b bf3c
000002b0: 5fa7 343d 29b9 143e 4ec7 bc3d bd61 1e3e
000002c0: 23ec 9d3d 7ea3 e73d cd0d 473e 530e 13bd
000002d0: 3615 513e 3269 493e 11e8 06bd ea02 cd3d
000002e0: be43 60bb 4e5d 223e 319c af3e a231 b3be
000002f0: 4ae5 543e f459 963d 85f7 1c3e dfc5 303d
00000300: 4ee6 813d 0627 3f3e 8859 873c 37bb 493e
00000310: f980 7e3d 9d3a 99bc 4d44 0dbd 2514 683e
00000320: 3c64 1d3e 3bb0 0c3d 6c05 713e 09ea a3bc
00000330: 8a30 5a3e 4567 473e 944e 293e 5c19 37bc
00000340: f02a 5a3e d043 f33c bfe6 d73c dab5 a8bc
00000350: 3d18 1c3e 6a38 9b3e d29c 6b3e 256c 203d
00000360: 17d0 9d3e f5c3 083e 94c7 443d 9bcc b63d
00000370: 22c9 8d3e f8ad 243e df91 51be a458 2e3d
00000380: 5cca c93d 9f54 343e ac02 3c3d acf1 133e
00000390: f446 833e 1907 363e 6425 e63b a961 123d
000003a0: 2891 b53d b067 5abe c26e cdbe c7f7 253d
000003b0: acc5 c1bd ddf7 d9bd 16cd e33c 6b55 40be
000003c0: 75a0 2fbe 8af0 8cbd 149d fcbd aa7f 23be
000003d0: 8a15 e73d 94b9 92bd 6200 c4bb ac05 643d
000003e0: 3362 a0bd a797 31be eeae 31be 5dfa 21bd
000003f0: d79f 82bd a3d2 b1bd 5f53 2fbc 7beb 18be

encoder.net.0.bias f4 [64]
0.09801904 -0.108254306 -0.067520775 0.047696184 0.027065765 0.041778836 -0.1046915 0.04743188
0.04873143 0.031593602 0.1537037 0.045146685 -0.01512103 -0.16369182 -0.13119169 -0.15126075
0.02617071 0.16101043 -0.08702374 -0.04802451 0.08379109 0.14086796 -0.034020014 0.16431369
0.22435349 0.13826488 0.06652309 0.095544524 0.104593195 -0.12761417 0.063878514 0.031383675
0.12690598 0.07788954 -0.00087761844 0.14300372 0.086166546 0.027164841 -0.10884243 0.013147063
0.091158286 0.0728203 -0.097664714 0.07215243 0.15205753 0.03631703 0.15047163 -0.04073524
0.18621626 0.044961575 -0.0387855 -0.079492696 0.014352299 0.088459514 0.034344543 -0.16828184
0.128384 -0.16335824 0.13660806 -0.03217791 0.13258474 -0.0013047511 -0.04197979 -0.08660508
00000000: 35be c83d 6fb4 ddbd 5548 8abd 135d 433d
00000010: 06b9 dd3c 4920 2b3d 7f68 d6bd ee47 423d
00000020: 9c9a 473d 4b68 013d 8164 1d3e bbeb 383d
00000030: 32be 77bc d49e 27be 1d57 06be 19e4 1abe
00000040: f563 d63c ebdf 243e 8139 b2bd 59b5 44bd
00000050: aa9a ab3d b13f 103e 9258 0bbd d941 283e
00000060: ecbc 653e 4f95 0d3e 423d 883d d9ac c33d
00000070: f534 d63d 4aad 02be bdd2 823d 2b8c 003d
00000080: a4f3 013e 8d84 9f3d fa0f 66ba 916f 123e
00000090: 1678 b03d cd88 de3c c8e8 debd c766 573c
000000a0: 32b1 ba3d cf22 953d 7004 c8bd a7c4 933d
000000b0: f8b4 1b3e 2bc1 143d 3c15 1a3e ffd9 26bd
000000c0: 7aaf 3e3e a129 383d 8bdd 1ebd 11cd a2bd
000000d0: e825 6b3c 432a b53d ddac 0c3d 1352 2cbe
000000e0: 1877 033e 6247 27be fce2 0b3e fccc 03bd
000000f0: 4bc4 073e 2f04 abba 00f3 2bbd 015e b1bd

decoder.fc.weight f4 [64, 10]
-0.3792486 -0.23722485 0.26185682 0.039260104 -0.3593381 0.14312375 -0.3758772 -0.5643365
-0.18931389 0.01458717 0.0111778565 0.13453777 0.12550558 0.3922886 -0.21181841 0.15704548
-0.22039795 -0.021004606 -0.33233818 0.158089 -0.09742761 -0.16394272 0.046594005 0.1634566
0.050109297 0.36376753 -0.1234296 -0.2562786 -0.013463975 -0.14094765 -0.18840136 0.12762657
-0.3330114 0.39220494 -0.292242 -0.23048533 -0.03860483 0.1494863 0.08214572 0.025142875
0.17326196 -0.2365171 -0.024291562 0.04159385 0.13743405 0.2236634 -0.22629277 -0.36718035
-0.3412014 0.18690525 -0.25769413 0.1494363 0.16291814 0.15345709 0.05878424 0.31123948
0.05329833 0.36476937 -0.3171071 0.08598668 -0.15608633 -0.070113674 -0.05155724 0.30298176
0.18737467 0.2907203 -0.06707542 -0.374903 0.13663602 0.3590718 -0.0047342153 -0.30456176
-0.13684106 0.14595138 -0.3480858 0.1549731 -0.47900295 -0.42694232 -0.14945367 -0.14502113
0.3302971 -0.035070207 -0.2732129 -0.045469325 0.26313534 0.10597816 0.0040891296 0.0228439
-0.21931334 -0.27780238 -0.15159525 0.048171733 0.19121385 -0.13642338 0.28007796 0.21205397
-0.346175 0.020343548 0.28132147 -0.008489476 -0.0010770584 0.28586873 -0.07433888 0.10951588
-0.3328323 0.17542209 0.25747284 -0.35413614 0.17536548 0.03396399 -0.30431402 -0.3568406
0.0007831939 -0.21234234 -0.06323304 0.12477031 0.18740818 0.20248018 0.018128082 -0.021689607
-0.24258885 0.21754554 -0.28622264 -0.03477733 0.0582823 -0.20804493 0.09100775 0.57076025
-0.025484242 -0.1178381 0.070643745 0.34350595 -0.065814346 -0.121302426 0.11444761 0.28088152
0.012622617 -0.28428105 0.22297873 -0.3677165 -0.016707636 0.15037155 0.13976145 0.26490152
0.018680941 0.16339688 0.22860943 0.16202772 -0.4533992 0.2544584 0.028032532 0.051012747
-0.020626055 0.2018344 -0.4150255 -0.1718972 0.37165096 -0.030908225 -0.4275683 0.13517644
-0.32549027 -0.22350106 -0.09845948 -0.054226175 0.013492857 0.23133546 0.3308618 0.18753332
-0.37024796 0.31567988 -0.12786955 0.32342848 0.008604691 0.17276457 0.12434453 0.06164899
0.12348042 0.55121005 -0.27504647 0.38015643 0.07637167 -0.18927088 0.16794848 -0.17368925
-0.23250337 -0.18434903 0.2016644 -0.501556 -0.35159004 0.17191108 -0.15552549 -0.051650647
-0.37453857 -0.084804304 -0.10508239 0.2492931 0.17140566 0.23723346 0.0039131646 -0.16417834
-0.3792409 0.22858965 -0.12203114 0.019134717 -0.23545037 0.29306188 -0.3592557 -0.4896679
0.06633998 -0.06277316 -0.35307002 0.17751722 0.065005936 0.25610518 0.104340054 -0.08707081
0.34976512 0.41137308 0.096516706 0.17786208 -0.18482627 0.13082293 -0.08458464 -0.056353707
-0.2178662 -0.07541661 0.34794614 0.18326361 -0.30403885 0.29577988 -0.15404718 0.13995475
0.03286842 0.30809128 0.20135151 -0.21816984 0.3210346 -0.20010813 -0.059273567 -0.09557925
0.18049388 -0.16417688 -0.04733744 0.11296992 0.04249466 0.28324243 0.5010064 0.1922356
-0.36661646 0.036892362 0.1412019 0.16728127 -0.28180796 0.15577012 -0.018537318 0.018930016
00000000: df2c c2be 12eb 72be 1912 863e 34cf 203d
00000010: 2afb b7be 088f 123e fa72 c0be 5b78 10bf
00000020: 80db 41be 07ff 6e3c 5423 373c 45c4 093e
00000030: 8984 003e 0dda c83e ede6 58be 88d0 203e
00000040: 00b0 61be da11 acbc 3b28 aabe 15e2 213e
00000050: 2088 c7bd 9ae0 27be 5bd9 3e3d 2b61 273e
00000060: 683f 4d3d bd3f ba3e a8c8 fcbd f336 83be
00000070: 0198 5cbc 9554 10be 49ec 40be 8ab0 023e
00000080: 7880 aabe 16cf c83e bea0 95be 5904 6cbe
00000090: 1920 1ebd f012 193e 043c a83d 6ef8 cd3c
000000a0: 956b 313e 8a31 72be 19ff c6bc 505e 2a3d
000000b0: 83bb 0c3e 0508 653e 4bb9 67be 10ff bbbe
000000c0: f3b1 aebe 1764 3f3e 7cf0 83be d405 193e
000000d0: 03d4 263e db23 1d3e bec7 703d c85a 9f3e
000000e0: 5a4f 5a3d 0dc3 ba3e dd5b a2be c919 b03d
000000f0: 18d5 1fbe c297 8fbd af2d 53bd 6d20 9b3e
00000100: 25df 3f3e 4bd9 943e d65e 89bd 49f3 bfbe
00000110: 50ea 0b3e 42d8 b73e 7a21 9bbb 85ef 9bbe
00000120: 1020 0cbe 4774 153e 4d38 b2be 45b1 1e3e
00000130: e03f f5be 2f98 dabe 620a 19be 6b80 14be
00000140: b41c a93e c7a5 0fbd 90e2 8bbe 0b3e 3abd
00000150: adb9 863e 140b d93d 1bfe 853b 2123 bb3c
00000160: ad93 60be 1d3c 8ebe c93b 1bbe b94f 453d
00000170: 90cd 433e 92b2 0bbe 6166 8f3e ad24 593e
00000180: d93d b1be 83a7 a63c 5e09 903e 7117 0bbc
00000190: 152c 8dba 635d 923e fc3e 98bd dd49 e03d
000001a0: ff68 aabe d9a1 333e 7bd3 833e 5551 b5be
000001b0: 0293 333e d31d 0b3d 0ccf 9bbe d0b3 b6be
000001c0: 414f 4d3a 4570 59be 5380 81bd 9487 ff3d
000001d0: eee7 3f3e f756 4f3e 5881 943c 67ae b1bc
000001e0: 3669 78be 42c4 5e3e c68b 92be ac72 0ebd
000001f0: 6cb9 6e3d bb09 55be 4562 ba3d 581d 123f
00000200: 54c4 d0bc 1a55 f1bd abad 903d 03e0 af3e
00000210: acc9 86bd 686d f8bd 8263 ea3d b4cf 8f3e
00000220: 18cf 4e3c 498d 91be 8954 643e 5645 bcbe
00000230: 74de 88bc 00fb 193e a01d 0f3e 2ca1 873e
00000240: c608 993c 8351 273e 9718 6a3e 98ea 253e
00000250: f123 e8be 5f48 823e 7ba4 e53c bef2 503d
00000260: f9f7 a8bc adad 4e3e 397e d4be d205 30be
00000270: 0949 be3e 3f33 fdbc 3bea dabe b16b 0a3e
00000280: a9a6 a6be 76dd 64be 20a5 c9bd 441c 5ebd
00000290: 2511 5d3c 34e3 6c3e b866 a93e bc08 403e
000002a0: 2491 bdbe cba0 a13e 3cf0 02be 6b98 a53e
000002b0: b1fa 0c3c 32e9 303e 58a8 fe3d a783 7c3d
000002c0: 4de3 fc3d 1a1c 0d3f e4d2 8cbe dda3 c23e
000002d0: c068 9c3d 3ad0 41be b0fa 2b3e 98db 31be
000002e0: 5d15 6ebe fec5 3cbe 1d81 4e3e f965 00bf
000002f0: 9c03 b4be 7509 303e 1342 1fbe a18f 53bd
00000300: 85c3 bfbe e1ad adbd 7035 d7bd b146 7f3e
00000310: f784 2f3e 54ed 723e 013a 803b 5e1e 28be
00000320: dd2b c2be 6813 6a3e 76eb f9bd 69c0 9c3c
00000330: e719 71be 350c 963e 5df0 b7be c0b5 fabe
00000340: 41dd 873d 378f 80bd 98c5 b4be 13c7 353e
00000350: d521 853d 3820 833e 3db0 d53d 2e52 b2bd
00000360: 6a14 b33e 7e9f d23e 8daa c53d 7a21 363e
00000370: 1943 3dbe 72f6 053e b63a adbd 25d3 66bd
00000380: 5118 5fbe 0674 9abd ff25 b23e 75a9 3b3e
00000390: fbaa 9bbe 7670 973e 8bbe 1dbe 4c50 0f3e
000003a0: 09a1 063d 24be 9d3e 172f 4e3e ea67 5fbe
000003b0: a65e a43e 25e9 4cbe d7c8 72bd 0ebf c3bd
000003c0: 63d3 383e fc1d 28be e7e4 41bd c65c e73d
000003d0: e10e 2e3d 2705 913e f541 003f 69d9 443e
000003e0: 27b5 bbbe 721c 173d 3b97 103e c84b 2b3e
000003f0: 2249 90be 3482 1f3e 93db 97bc 1f13 9b3c

decoder.fc.bias f4 [64]
0.34928325 -0.17080069 0.4222566 0.11476773 0.45495093 0.009973125 -0.051368717 0.10937181
0.3038361 -0.25486588 -0.34167647 0.4193151 0.32845944 -0.10628557 -0.13453966 0.07738129
-0.0035173804 -0.020337163 0.27044198 -0.10040881 -0.10089739 -0.2720326 0.094158135 0.30954018
0.10441968 -0.04532416 0.49157825 0.29169744 0.35795826 -0.4356302 0.013968103 -0.085999794
0.4314794 -0.00024105709 0.27642664 0.44245452 -0.022325264 0.30434912 -0.089652486 0.27239197
0.005299804 0.114820674 0.41139767 0.3768772 0.012910697 -0.330536 0.44155794 -0.1397014
0.30890757 0.11313368 0.33032912 0.044919323 0.5002205 0.37647313 0.007199182 -0.46364373
0.18819393 -0.014008666 0.13030143 0.2992576 0.29033613 -0.0041615064 0.31593427 -0.38390103
00000000: 41d5 b23e 60e6 2ebe 0432 d83e 580b eb3d
00000010: 54ef e83e 5166 233c 0168 52bd 54fe df3d
00000020: 6890 9b3e c87d 82be 38f0 aebe 78b0 d63e
00000030: d62b a83e 40ac d9bd c4c4 09be 157a 9e3d
00000040: da83 66bb 1f9a a6bc 5f77 8a3e 22a3 cdbd
00000050: 4aa3 cebd db47 8bbe fbd5 c03d 0d7c 9e3e
00000060: fcd9 d53d d4a5 39bd 25b0 fb3e 5e59 953e
00000070: 4e46 b73e ec0a dfbe 78da 643c a920 b0bd
00000080: deea dc3e 45c4 7cb9 cb87 8d3e 6689 e23e
00000090: 79e3 b6bc a6d3 9b3e b99b b7bd f676 8b3e
000000a0: faa9 ad3b 1a27 eb3d b7a2 d23e 0cf6 c03e
000000b0: 6387 533c 043c a9be e213 e23e e20d 0fbe
000000c0: 2229 9e3e a1b2 e73d e620 a93e 53fd 373d
000000d0: 730e 003f 16c1 c03e 1ee7 eb3b b662 edbe
000000e0: e9b5 403e 9b84 65bc bd6d 053e 4b38 993e
000000f0: f0a6 943e 3f5d 88bb 23c2 a13e ad8e c4be

decoder.out.weight f4 [46, 64]
0.04634818 -0.07364592 0.00988933 0.06087975 -0.071225576 0.04116039 -0.07310286 -0.074887164
-0.17160678 0.051876474 0.17214382 0.021540279 -0.01948341 0.033310205 -0.013188729 -0.06619061
-0.104204856 -0.1106703 0.011531722 -0.0360662 -0.011316874 0.012088319 -0.011715461 -0.065791
-0.09409122 0.061479166 -0.15675595 -0.09749396 -0.21430133 0.08537097 -0.08304889 0.052842714
-0.07188088 0.04955884 -0.14235416 -0.15364543 -0.06900898 -0.105187826 -0.04982151 -0.10322134
-0.049484096 -0.018509597 -0.07305935 0.0027509923 -0.11613887 0.08793593 -0.010886131 -0.05866303
-0.03300184 -0.08121076 -0.18414174 0.00651427 -0.11365335 -0.04694956 0.09384904 0.0379031
-0.042576686 -0.03617223 -0.050015498 0.055509876 -0.0069438773 0.011942431 -0.062195398 0.076744154
-0.0803654 0.0041464455 -0.0848075 -0.07540472 -0.024700692 -0.008401772 -0.03494478 -0.008967347
-0.01075083 0.041798268 0.118189655 -0.00754707 -0.018264418 0.0096369125 -0.108609885 0.027828764
0.084406 -0.06231698 0.028960345 0.0058940505 0.032896228 0.010035651 -0.017129112 -0.12962833
-0.13145803 -0.029190352 -0.094252825 0.04387796 0.0085803615 -0.050551537 -0.07531993 0.05056515
-0.028229827 -0.008642755 -0.06627743 -0.05943675 0.08585159 -0.060304575 -0.1502241 -0.06607562
-0.0033427484 -0.10530957 -0.082933016 -0.082220405 -0.12246468 -0.10254742 -0.10048626 -0.14231876
0.039211486 -0.09160833 -0.16153537 0.0148789575 -0.1049306 -0.028899325 -0.030642776 0.1060262
0.023308259 -0.042308036 -0.011305639 -0.06424309 0.009106067 -0.030168077 -0.010975231 0.06846867
-0.12547283 -0.11884646 -0.17666136 -0.16556144 0.0009820601 -0.06739065 0.021777725 -0.11255688
-0.09480696 0.048820093 -0.066433236 -0.13849929 0.05347587 0.058042865 0.006193631 0.0070074885
-0.08132384 -0.1064567 -0.19701156 0.14094774 -0.0013361799 -0.052797746 -0.06569121 -0.069308385
-0.15432602 -0.106237076 -0.002098298 -0.078441456 -0.11376368 0.18419875 -0.1504117 -0.018892428
0.043413036 -0.12802082 -0.14561492 -0.036186486 -0.0068305745 -0.05552851 -0.18133128 -0.15451118
-0.08224836 -0.09113506 -0.001874714 -0.15599178 0.010857495 0.08300503 -0.042999376 0.09872351
-0.105271794 0.032390133 -0.17299725 -0.09390491 -0.011921079 -0.12306429 -0.11994516 0.122201905
-0.14394478 -0.022508543 -0.12420235 -0.011492966 -0.030398251 -0.119153485 -0.20352471 -0.014970257
-0.00865009 0.027505316 0.1500623 -0.121431775 0.05678188 0.109821364 0.1430805 -0.022235343
0.08246858 -0.16690508 -0.2720492 -0.10717305 0.029903054 0.10442542 0.23875517 0.01245083
0.073756464 0.16357125 -0.16720225 0.016439684 0.09628431 0.11744671 -0.029727057 0.081835814
-0.0065684337 -0.12546973 0.13042611 -0.049760576 -0.055599183 -0.16550943 -0.09112826 -0.16642007
0.12207674 -0.035317946 0.07181147 0.08573645 -0.18017247 0.056808785 -0.0024481416 -0.049072523
-0.050495926 -0.040234186 0.06525623 0.03402741 -0.08938812 -0.09246787 6.137306e-07 -0.16658951
-0.031455487 -0.13212098 0.05706543 0.058244076 0.058200464 -0.11384919 -0.1477568 -0.004873581
0.17078854 -0.13423039 0.028345246 0.030672155 -0.016441308 -0.02233493 0.15194139 -0.0010579508
00000000: 97d7 3d3d acd3 96bd db06 223c 0b5d 793d
00000010: b7de 91bd cc97 283d f4b6 95bd 715e 99bd
00000020: b0b9 2fbe 6d7c 543d 7846 303e 3d75 b03c
00000030: ac9b 9fbc 4870 083d 8a15 58bc f18e 87bd
00000040: 5b69 d5bd 1ca7 e2bd 8cef 3c3c 27ba 13bd
00000050: 696a 39bc 160e 463c 34f2 3fbc 6fbd 86bd
00000060: e6b2 c0bd 94d1 7b3d a284 20be eaaa c7bd
00000070: cf71 5bbe fad6 ae3d 8915 aabd 9a71 583d
00000080: 4836 93bd 36fe 4a3d 4ac5 11be 3a55 1dbe
00000090: 9554 8dbd b76c d7bd a411 4cbd b665 d3bd
000000a0: d6af 4abd 70a1 97bc 24a0 95bd fe49 343b
000000b0: 37da edbd c117 b43d be5b 32bc a548 70bd
000000c0: f02c 07bd d451 a6bd a78f 3cbe a875 d53b
000000d0: 16c3 e8bd 2f4e 40bd ed33 c03d 4840 1b3d
000000e0: e464 2ebd 5529 14bd 0ddd 4cbd 535e 633d
000000f0: 7789 e3bb 30aa 433c 9ac0 7ebd 0a2c 9d3d
00000100: 9d96 a4bd e8de 873b 8eaf adbd ca6d 9abd
00000110: 1b59 cabc 96a7 09bc 4222 0fbd c8eb 12bc
00000120: 4024 30bc a934 2b3d 6b0d f23d 694d f7bb
00000130: 439f 95bc 24e4 1d3c dc6e debd 26f9 e33c
00000140: 0edd ac3d 1740 7fbd 3f3e ed3c e122 c13b
00000150: 32be 063d 926c 243c 5a52 8cbc 4abd 04be
00000160: ef9c 06be 9b20 efbc a007 c1bd 60b9 333d
00000170: a594 0c3c 210f 4fbd 5641 9abd 671d 4f3d
00000180: 3d42 e7bc 589a 0dbc 76bc 87bd f373 73bd
00000190: f5d2 af3d ee01 77bd 59d4 19be a852 87bd
000001a0: 0312 5bbb 8bac d7bd c9d8 a9bd 2c63 a8bd
000001b0: c3ce fabd 6204 d2bd becb cdbd 02bc 11be
000001c0: 399c 203d 269d bbbd 8769 25be dfc6 733c
000001d0: dbe5 d6bd 47be ecbc 8f06 fbbc 4424 d93d
000001e0: f6f0 be3c 314b 2dbd 493b 39bc e291 83bd
000001f0: 9d31 153c 0b23 f7bc 75d1 33bc 4d39 8c3d
00000200: f37b 00be c665 f3bd b7e6 34be f088 29be
00000210: 78b8 803a 1c04 8abd 3367 b23c 3984 e6bd
00000220: 272a c2bd 94f7 473d 260e 88bd c2d2 0dbe
00000230: 8409 5b3d 5bbe 6d3d f1f3 ca3b 139f e53b
00000240: 1d8d a6bd f805 dabd 66bd 49be 9b54 103e
00000250: c222 afba 7342 58bd 1d89 86bd 8ef1 8dbd
00000260: a407 1ebe d392 d9bd 9983 09bb eaa5 a0bd
00000270: effc e8bd 999e 3c3e 8605 1abe 4bc4 9abc
00000280: ded1 313d e417 03be 141c 15be 4838 14bd
00000290: 03d3 dfbb dd71 63bd e8ae 39be 2e38 1ebe
000002a0: d471 a8bd 05a5 babd f7b8 f5ba 4fbc 1fbe
000002b0: a2e3 313c 8bfe a93d 1d20 30bd 8d2f ca3d
000002c0: bd98 d7bd 84ab 043d 3126 31be 3851 c0bd
000002d0: a150 43bc 2109 fcbd cfa5 f5bd fe44 fa3d
000002e0: 4366 13be d663 b8bc cd5d febd fe4c 3cbc
000002f0: c105 f9bc be06 f4bd c868 50be cf45 75bc
00000300: 1bb9 0dbc d452 e13c eea9 193e 39b1 f8bd
00000310: 1e94 683d 06ea e03d b283 123e e526 b6bc
00000320: 49e5 a83d 2ae9 2abe 084a 8bbe 8b7d dbbd
00000330: 40f7 f43c ffdc d53d 3c7c 743e 91fe 4b3c
00000340: a10d 973d 397f 273e 1137 2bbe 84ac 863c
00000350: b530 c53d e787 f03d 2886 f3bc 8999 a73d
00000360: 043c d7bb 237b 00be 6c8e 053e bfd1 4bbd
00000370: f8bb 63bd 4e7b 29be 74a1 babd 066a 2abe
00000380: 5f03 fa3d 8da9 10bd e411 933d 9896 af3d
00000390: 227f 38be 54b0 683d 0071 20bb 4500 49bd
000003a0: d1d4 4ebd 9acc 24bd 0fa5 853d 5360 0b3d
000003b0: 1e11 b7bd cb5f bdbd 3fbf 2435 7196 2abe
000003c0: 78d7 00bd b94a 07be 71bd 693d 5791 6e3d
000003d0: 9c63 6e3d c429 e9bd 8f4d 17be 90b2 9fbb
000003e0: 31e3 2e3e b173 09be 4a34 e83c 2c44 fb3c
000003f0: ecaf 86bc bef7 b6bc 8696 1b3e f0aa 8aba

decoder.out.bias f4 [46]
-0.07994171 -0.11620666 -0.04818354 0.1186138 0.018775253 -0.05001321 -0.17344208 -0.033653885
-0.080937654 -0.11633343 0.025124228 0.03816295 -0.1438625 0.14864275 0.030463608 -0.12151394
-0.18148184 0.13094334 -0.0929196 -0.20117094 0.008450052 -0.2781696 -0.054658603 0.16351376
-0.14415412 -0.25184232 -0.24071042 -0.07114988 -0.07563569 -0.028330445 0.026882248 -0.017601172
-0.2229629 -0.015841268 0.018815948 0.035154924 0.046622377 -0.081862435 -0.11907705 -0.08776448
-0.030529985 -0.023298193 -0.05820571 0.10101497 -0.15631245 -0.037071984
00000000: 7bb8 a3bd c2fd edbd 1b5c 45bd cbeb f23d
00000010: 8fce 993c a7da 4cbd cd9a 31be a8d8 09bd
00000020: a4c2 a5bd 3940 eebd 53d1 cd3c c150 1c3d
00000030: b150 13be ce35 183e d18e f93c 4ddc f8bd
00000040: 60d6 39be 0316 063e a24c bebd c1ff 4dbe
00000050: 1672 0a3c 3f6c 8ebe b3e1 5fbd 2770 273e
00000060: 239d 13be 7af1 80be cb7c 76be 07b7 91bd
00000070: e2e6 9abd 4015 e8bc 2938 dc3c 5530 90bc
00000080: 6350 64be 8cc5 81bc e723 9a3c 9cfe 0f3d
00000090: 1bf7 3e3d 7ea7 a7bd abde f3bd ddbd b3bd
000000a0: 051a fabc dadb bebc 1c69 6ebd f0e0 ce3d
000000b0: 5f10 20be cbd8 17bd

decoder.bn.weight f4 [64]
1.0 1.0 1.0 1.0 1.0 1.0 1.0 1.0
1.0 1.0 1.0 1.0 1.0 1.0 1.0 1.0
1.0 1.0 1.0 1.0 1.0 1.0 1.0 1.0
1.0 1.0 1.0 1.0 1.0 1.0 1.0 1.0
1.0 1.0 1.0 1.0 1.0 1.0 1.0 1.0
1.0 1.0 1.0 1.0 1.0 1.0 1.0 1.0
1.0 1.0 1.0 1.0 1.0 1.0 1.0 1.0
1.0 1.0 1.0 1.0 1.0 1.0 1.0 1.0
00000000: 0000 803f 0000 803f 0000 803f 0000 803f
00000010: 0000 803f 0000 803f 0000 803f 0000 803f
00000020: 0000 803f 0000 803f 0000 803f 0000 803f
00000030: 0000 803f 0000 803f 0000 803f 0000 803f
00000040: 0000 803f 0000 803f 0000 803f 0000 803f
00000050: 0000 803f 0000 803f 0000 803f 0000 803f
00000060: 0000 803f 0000 803f 0000 803f 0000 803f
00000070: 0000 803f 0000 803f 0000 803f 0000 803f
00000080: 0000 803f 0000 803f 0000 803f 0000 803f
00000090: 0000 803f 0000 803f 0000 803f 0000 803f
000000a0: 0000 803f 0000 803f 0000 803f 0000 803f
000000b0: 0000 803f 0000 803f 0000 803f 0000 803f
000000c0: 0000 803f 0000 803f 0000 803f 0000 803f
000000d0: 0000 803f 0000 803f 0000 803f 0000 803f
000000e0: 0000 803f 0000 803f 0000 803f 0000 803f
000000f0: 0000 803f 0000 803f 0000 803f 0000 803f

decoder.bn.bias f4 [64]
0.0 0.0 0.0 0.0 0.0 0.0 0.0 0.0
0.0 0.0 0.0 0.0 0.0 0.0 0.0 0.0
0.0 0.0 0.0 0.0 0.0 0.0 0.0 0.0
0.0 0.0 0.0 0.0 0.0 0.0 0.0 0.0
0.0 0.0 0.0 0.0 0.0 0.0 0.0 0.0
0.0 0.0 0.0 0.0 0.0 0.0 0.0 0.0
0.0 0.0 0.0 0.0 0.0 0.0 0.0 0.0
0.0 0.0 0.0 0.0 0.0 0.0 0.0 0.0
00000000: 0000 0000 0000 0000 0000 0000 0000 0000
00000010: 0000 0000 0000 0000 0000 0000 0000 0000
00000020: 0000 0000 0000 0000 0000 0000 0000 0000
00000030: 0000 0000 0000 0000 0000 0000 0000 0000
00000040: 0000 0000 0000 0000 0000 0000 0000 0000
00000050: 0000 0000 0000 0000 0000 0000 0000 0000
00000060: 0000 0000 0000 0000 0000 0000 0000 0000
00000070: 0000 0000 0000 0000 0000 0000 0000 0000
00000080: 0000 0000 0000 0000 0000 0000 0000 0000
00000090: 0000 0000 0000 0000 0000 0000 0000 0000
000000a0: 0000 0000 0000 0000 0000 0000 0000 0000
000000b0: 0000 0000 0000 0000 0000 0000 0000 0000
000000c0: 0000 0000 0000 0000 0000 0000 0000 0000
000000d0: 0000 0000 0000 0000 0000 0000 0000 0000
000000e0: 0000 0000 0000 0000 0000 0000 0000 0000
000000f0: 0000 0000 0000 0000 0000 0000 0000 0000

decoder.bn.running_mean f4 [64]
0.0 0.0 0.0 0.0 0.0 0.0 0.0 0.0
0.0 0.0 0.0 0.0 0.0 0.0 0.0 0.0
0.0 0.0 0.0 0.0 0.0 0.0 0.0 0.0
0.0 0.0 0.0 0.0 0.0 0.0 0.0 0.0
0.0 0.0 0.0 0.0 0.0 0.0 0.0 0.0
0.0 0.0 0.0 0.0 0.0 0.0 0.0 0.0
0.0 0.0 0.0 0.0 0.0 0.0 0.0 0.0
0.0 0.0 0.0 0.0 0.0 0.0 0.0 0.0
00000000: 0000 0000 0000 0000 0000 0000 0000 0000
00000010: 0000 0000 0000 0000 0000 0000 0000 0000
00000020: 0000 0000 0000 0000 0000 0000 0000 0000
00000030: 0000 0000 0000 0000 0000 0000 0000 0000
00000040: 0000 0000 0000 0000 0000 0000 0000 0000
00000050: 0000 0000 0000 0000 0000 0000 0000 0000
00000060: 0000 0000 0000 0000 0000 0000 0000 0000
00000070: 0000 0000 0000 0000 0000 0000 0000 0000
00000080: 0000 0000 0000 0000 0000 0000 0000 0000
00000090: 0000 0000 0000 0000 0000 0000 0000 0000
000000a0: 0000 0000 0000 0000 0000 0000 0000 0000
000000b0: 0000 0000 0000 0000 0000 0000 0000 0000
000000c0: 0000 0000 0000 0000 0000 0000 0000 0000
000000d0: 0000 0000 0000 0000 0000 0000 0000 0000
000000e0: 0000 0000 0000 0000 0000 0000 0000 0000
000000f0: 0000 0000 0000 0000 0000 0000 0000 0000

decoder.bn.running_var f4 [64]
1.0 1.0 1.0 1.0 1.0 1.0 1.0 1.0
1.0 1.0 1.0 1.0 1.0 1.0 1.0 1.0
1.0 1.0 1.0 1.0 1.0 1.0 1.0 1.0
1.0 1.0 1.0 1.0 1.0 1.0 1.0 1.0
1.0 1.0 1.0 1.0 1.0 1.0 1.0 1.0
1.0 1.0 1.0 1.0 1.0 1.0 1.0 1.0
1.0 1.0 1.0 1.0 1.0 1.0 1.0 1.0
1.0 1.0 1.0 1.0 1.0 1.0 1.0 1.0
00000000: 0000 803f 0000 803f 0000 803f 0000 803f
00000010: 0000 803f 0000 803f 0000 803f 0000 803f
00000020: 0000 803f 0000 803f 0000 803f 0000 803f
00000030: 0000 803f 0000 803f 0000 803f 0000 803f
00000040: 0000 803f 0000 803f 0000 803f 0000 803f
00000050: 0000 803f 0000 803f 0000 803f 0000 803f
00000060: 0000 803f 0000 803f 0000 803f 0000 803f
00000070: 0000 803f 0000 803f 0000 803f 0000 803f
00000080: 0000 803f 0000 803f 0000 803f 0000 803f
00000090: 0000 803f 0000 803f 0000 803f 0000 803f
000000a0: 0000 803f 0000 803f 0000 803f 0000 803f
000000b0: 0000 803f 0000 803f 0000 803f 0000 803f
000000c0: 0000 803f 0000 803f 0000 803f 0000 803f
000000d0: 0000 803f 0000 803f 0000 803f 0000 803f
000000e0: 0000 803f 0000 803f 0000 803f 0000 803f
000000f0: 0000 803f 0000 803f 0000 803f 0000 803f
