FarconVAE/model_german/farcon_2023_05_01_17_24_18_761743_ours.pth (torch, 41699 bytes, 21 tensors)

encoder.fc.weight f4 [64, 47]
0	0x3d711257	0.05885538
1	0x3d9b9342	0.075964466
2	0x3e02eeb2	0.12786368
3	0xbdb07637	-0.08616298
4	0x3bd52e39	0.0065057543
5	0xbb80e71d	-0.003933801
6	0x3d99a888	0.07502848
7	0x3e03754b	0.12837712
8	0x3e25e3a2	0.16200116
9	0x3de9df1f	0.1141951
10	0x3e3a50f7	0.18194948
11	0xbcdd1e2b	-0.026991924
12	0x3e0591ae	0.13043854
13	0x3e15b524	0.14619881
14	0x3dd35571	0.10319031
15	0x3d92db30	0.07170713
16	0x3dd5c4ae	0.10437904
17	0x3e18822c	0.14893407
18	0x3d81c8cd	0.06337128
19	0x39d3f349	0.00040426318
20	0x3d994ab5	0.07484952
21	0xbb9e022f	-0.0048220376
22	0x3dd6ffc4	0.10498002
23	0x3e25bcb4	0.16185266
24	0x3d9f8a99	0.07790107
25	0xbcb5d3d0	-0.022195727
26	0x3daee752	0.085402146
27	0x3c8ce84e	0.017200615
28	0x3c77c6a2	0.015123041
29	0xbd5b83fe	-0.053592674
30	0xbd035840	-0.032066584
31	0xbcdebca8	-0.027189568
32	0xbd782f15	-0.060591776
33	0x3d2ca0a5	0.04214539
34	0x3cb6e465	0.022325704
35	0xbd99ec06	-0.07515721
36	0xbd92b3d9	-0.071632095
37	0x3e209001	0.15679933
38	0x3dc92fe0	0.098235846
39	0x3e432b57	0.19059502
40	0x3e407eec	0.18798417
41	0x3dafac8f	0.08577835
42	0x3e08bf7d	0.13354297
43	0x3d4a0c51	0.049328152
44	0xbd4ebd5e	-0.050473563
45	0xbe23eb7c	-0.16007799
46	0xbeb0b435	-0.34512487
47	0xbd8e06b8	-0.06934875
48	0x3d62fed6	0.05541881
49	0x3c9d17d0	0.019176394
50	0x3d4d4799	0.05011711
51	0x3d17ec4c	0.037090585
52	0xbd837e46	-0.06420569
53	0x3e186e89	0.14885916
54	0x3da98a07	0.0827828
55	0xbcf13a8d	-0.029446865
56	0x3d360a1a	0.044443227
57	0x3d9bb354	0.076025635
58	0xbca1b2cd	-0.01973858
59	0x3da8ad24	0.08236149
60	0x3e124cd6	0.14287123
61	0xbdccdc79	-0.10002989
62	0x3e24b63d	0.16085143
63	0x3dbbbd82	0.09167005
64	0x3d47b78a	0.04875902
65	0xbb901af5	-0.004397745
66	0xbdc971bf	-0.098361485
67	0x3d96ab59	0.07356901
68	0xbcfb68b1	-0.03068957
69	0x3dcfe8ab	0.101518
70	0x3dd7fdcd	0.105464555
71	0xbd94fb3e	-0.07274483
72	0xbd266183	-0.04062034
73	0x3d78cfb7	0.060744967
74	0x3e21a2a6	0.15784702
75	0x3e01dddc	0.12682289
76	0x3ae252d4	0.0017267116
77	0xbcf338a2	-0.02969009
78	0xbd29c1b2	-0.041444488
79	0x3ced727d	0.028985256
80	0x3d0fab94	0.03507574
81	0xbd913fcc	-0.070922464
82	0xbd498955	-0.049203236
83	0x3e02bebe	0.12768075
84	0xbd8df049	-0.069305964
85	0x3da30da7	0.07961588
86	0x3e228ef0	0.15874839
87	0xbd20dfbd	-0.039275873
88	0xbc3cd2d3	-0.011524874
89	0x3cc3fa34	0.023923017
90	0x3d79a21f	0.060945626
91	0x3dd9259e	0.10602878
92	0x3dfe7f6b	0.12426647
93	0xbe8b832b	-0.2724851
94	0xbdc7db1e	-0.0975859
95	0x3e08562a	0.13314119
96	0x3cc5cdf7	0.024146063
97	0x3e315810	0.1731875
98	0xbd3b1fe7	-0.04568472
99	0x3e0a56b8	0.13509643
100	0xbcbd0f38	-0.023078546
101	0x3ba10e44	0.0049150307
102	0xbdab94cc	-0.0837799
103	0x3e1f8e80	0.15581703
104	0xbd3887a2	-0.045051225
105	0x3d11f13b	0.035630446
106	0x3e2d1d1e	0.16905639
107	0x3ded937e	0.116003975
108	0xbcaec875	-0.02133582
109	0x3db15f63	0.08660772
110	0x3e0b519a	0.13605347
111	0x3e14ed8e	0.14543745
112	0x3dd17383	0.1022711
113	0x3c55e412	0.0130548645
114	0xbda4a867	-0.08039933
115	0x3e0cebb0	0.13761783
116	0x3d37baf7	0.044856038
117	0x3de42a07	0.111408286
118	0x3e1d5171	0.15363099
119	0x3e216e85	0.15764816
120	0xbd9d9f08	-0.076963484
121	0x3dc72dc9	0.0972553
122	0x3d3e08d8	0.046395153
123	0x3e03c155	0.12866719
124	0xbc9a6347	-0.018846167
125	0x3df54bab	0.11977323
126	0xbc0848bf	-0.008318125
127	0x3def07f3	0.11671438
128	0x3dd4c54d	0.10389195
129	0xbd3b8920	-0.04578507
130	0x3d844fa3	0.06460502
131	0x3e2d2d2b	0.16911761
132	0x3e02b7ef	0.12765478
133	0x3da302b0	0.07959497
134	0x3dec8b18	0.115499675
135	0x3ddeb870	0.108750224
136	0x3da76ff4	0.0817565
137	0xbc73669c	-0.014856007
138	0x3dd1651b	0.102243625
139	0x3b01f3b6	0.00198291
140	0x3c654966	0.01399455
141	0x3d4e27eb	0.050331037
142	0xbd0c3107	-0.034226444
143	0xbddd56e6	-0.1080759
144	0x3cf3f107	0.029778017
145	0x3e0db6bc	0.13839239
146	0x3e4f8409	0.20265211
147	0xbbf7dbb1	-0.007564031
148	0x3caf6c1e	0.021413859
149	0x3d034e83	0.032057296
150	0xbda9899d	-0.08278201
151	0x3e5e1aa8	0.21689856
152	0x3d86dd8f	0.06585228
153	0xbd21cba9	-0.039500866
154	0x3e445a90	0.19175172
155	0xbd124328	-0.035708576
156	0xbca299fb	-0.019848814
157	0x3e6fd8db	0.23422568
158	0x3d36cef5	0.044630963
159	0x3dd8481f	0.10560631
160	0x3d6e929f	0.058245298
161	0x3d9a18a8	0.07524234
162	0xbd4420f9	-0.047883008
163	0x3c9ea46c	0.019365512
164	0x3bbca6c3	0.0057571842
165	0x3c786e7b	0.015163059
166	0x3dae06c8	0.08497387
167	0x3df84d0e	0.12124072
168	0x3e362ca0	0.1779046
169	0x3e5fd85e	0.21859881
170	0x3e1dcbb6	0.15409741
171	0x3d6e469c	0.058172807
172	0xbd0cbbee	-0.03435891
173	0x3d6e7af8	0.05822274
174	0x3d1cb109	0.03825477
175	0xbc99cb99	-0.01877384
176	0x3d88c100	0.06677437
177	0xbde8221f	-0.11334633
178	0xbd4d3624	-0.05010046
179	0xbdd7dc1b	-0.10540029
180	0x3d98210b	0.074281774
181	0x3e814d27	0.25254175
182	0x3dc51f10	0.09625065
183	0x3e2e9c73	0.17051868
184	0x3d3fac11	0.046794955
185	0x3e1325a8	0.14369833
186	0x3e3ba64d	0.18325157
187	0xbe8de6e6	-0.27715224
188	0xbd7654cf	-0.060139474
189	0xbd67db1e	-0.05660545
190	0x3de9d277	0.11417096
191	0xbdee8964	-0.11647299
192	0x3daba162	0.08380391
193	0xbd95404a	-0.07287653
194	0xbe04e18b	-0.12976663
195	0x3dc0e327	0.09418326
196	0xbcd821cd	-0.026383305
197	0xbe313781	-0.1730633
198	0xbd29fa18	-0.041498274
199	0xbd407b0e	-0.046992354
200	0xbe0c1290	-0.13678956
201	0xbe2fa890	-0.17154145
202	0x3dad17bb	0.08451792
203	0x3e0258b7	0.12729155
204	0x3d066e47	0.032820012
205	0x3c94d844	0.01816953
206	0xbc93c8e7	-0.018040134
207	0xbe35ce24	-0.17754418
208	0x3b84edc6	0.004056665
209	0xbe2deef9	-0.16985692
210	0x3dc7530b	0.09732636
211	0xbd9b03a3	-0.07569053
212	0xbc441acc	-0.0119692795
213	0xbe115ed0	-0.14196324
214	0xbe1d5d47	-0.15367614
215	0xbdd729eb	-0.10506042
216	0xbd8948a6	-0.0670331
217	0xbdbf2886	-0.09333901
218	0xbc3ba0cb	-0.01145191
219	0xbd3b9318	-0.045794576
220	0x3d466117	0.048432436
221	0xbd55f3c9	-0.052234445
222	0xbc7dcc97	-0.015490673
223	0x3deb5904	0.11491588
224	0xbe254ca6	-0.1614252
225	0x3d7cc470	0.061710775
226	0xbc97acff	-0.018515108
227	0x3d65effa	0.056137063
228	0xbd336b6d	-0.04380362
229	0xbdf53c46	-0.11974387
230	0x3ddfee79	0.10934157
231	0xbd84f66a	-0.06492312
232	0xbd5fb0f9	-0.054612134
233	0xbe4fff71	-0.20312287
234	0x3e408848	0.18801987
235	0x3df908d7	0.12159889
236	0x3e0a9e61	0.1353698
237	0x3de38d07	0.11110883
238	0x3e2c7101	0.16839983
239	0xbd59f89b	-0.053215604
240	0xbd2a3a7d	-0.041559685
241	0x3d78f2b7	0.060778346
242	0x3c997c9a	0.018736172
243	0x3e27d3c9	0.16389383
244	0xbcce5da4	-0.025191136
245	0x3e04195c	0.12900299
246	0x3d367707	0.044547107
247	0xbcf103b1	-0.029420706
248	0x3e192141	0.14954092
249	0x3b8cdfa3	0.0042991205
250	0xbe067d3b	-0.13133709
251	0x3c48ff11	0.012267844
252	0xbd9533be	-0.0728526
253	0xbe08850a	-0.13332
254	0x3e100697	0.14065014
255	0xbc820de2	-0.01587576

encoder.fc.bias f4 [64]
0	0xbcbf5557	-0.023356123
1	0x3dc97772	0.098372355
2	0xbc81ec86	-0.015859853
3	0xbd1c22ea	-0.038119234
4	0xbe2f4cd3	-0.1711915
5	0xbdedfe9c	-0.116208285
6	0x3e10ef17	0.14153706
7	0x3df59215	0.119907536
8	0x3b1318fe	0.0022445316
9	0x3df8193a	0.121141866
10	0x3cce2006	0.025161754
11	0xbd34d585	-0.04414894
12	0x3b71a8ff	0.003687441
13	0x3ceacf65	0.028663347
14	0x3c85a07a	0.016311873
15	0xbd67586d	-0.056480814
16	0xbda8ffbf	-0.08251905
17	0xbd9dd3f3	-0.07706442
18	0xbe131ef3	-0.14367275
19	0x3e0070cc	0.12543029
20	0xbdc6f115	-0.097139515
21	0xbe109ddf	-0.14122723
22	0x3e2a547e	0.16633794
23	0xbd978896	-0.073990986
24	0x3e2d78b4	0.16940576
25	0x3d0e8e04	0.034803405
26	0x3c933960	0.017971694
27	0x3dbc65bd	0.091990925
28	0xbdd99dcd	-0.10625801
29	0x3e48bdc0	0.19603634
30	0x3da728a2	0.08162047
31	0xbd97e8d0	-0.07417452
32	0xbcec0dfd	-0.028815264
33	0xbdd4ac79	-0.10384459
34	0xbe31fde0	-0.17382002
35	0xbdbca789	-0.09211642
36	0xbe42e9df	-0.19034527
37	0x3dee31f6	0.11630623
38	0x3e0ad0e6	0.13556251
39	0x3da13194	0.078707844
40	0x3e047d6b	0.12938468
41	0x3e384e03	0.17998509
42	0xbd085321	-0.033282403
43	0x3dcdce28	0.10049087
44	0x3e0112d6	0.12604842
45	0x3e29b916	0.16574511
46	0x3e05c40b	0.13063066
47	0x3e3e34d9	0.18574847
48	0x3d96f587	0.073710494
49	0x3dc0a5f8	0.09406656
50	0x3c1394c3	0.0090076355
51	0xbdf1f162	-0.11813618
52	0xbd6f469a	-0.05841694
53	0x3d01ce13	0.03169067
54	0x3e35ed02	0.17766193
55	0x3e23c35f	0.15992497
56	0x3e2feb2d	0.17179556
57	0xbdedbb7a	-0.11608024
58	0x3d6f90fb	0.058487874
59	0x3c9483ad	0.018129194
60	0x3dea7128	0.11447364
61	0x3b7784e3	0.0037768416
62	0xbe3dff0d	-0.18554325
63	0x3c8cde96	0.017195981

encoder.bn.weight f4 [64]
0	0x3f800000	1.0
1	0x3f800000	1.0
2	0x3f800000	1.0
3	0x3f800000	1.0
4	0x3f800000	1.0
5	0x3f800000	1.0
6	0x3f800000	1.0
7	0x3f800000	1.0
8	0x3f800000	1.0
9	0x3f800000	1.0
10	0x3f800000	1.0
11	0x3f800000	1.0
12	0x3f800000	1.0
13	0x3f800000	1.0
14	0x3f800000	1.0
15	0x3f800000	1.0
16	0x3f800000	1.0
17	0x3f800000	1.0
18	0x3f800000	1.0
19	0x3f800000	1.0
20	0x3f800000	1.0
21	0x3f800000	1.0
22	0x3f800000	1.0
23	0x3f800000	1.0
24	0x3f800000	1.0
25	0x3f800000	1.0
26	0x3f800000	1.0
27	0x3f800000	1.0
28	0x3f800000	1.0
29	0x3f800000	1.0
30	0x3f800000	1.0
31	0x3f800000	1.0
32	0x3f800000	1.0
33	0x3f800000	1.0
34	0x3f800000	1.0
35	0x3f800000	1.0
36	0x3f800000	1.0
37	0x3f800000	1.0
38	0x3f800000	1.0
39	0x3f800000	1.0
40	0x3f800000	1.0
41	0x3f800000	1.0
42	0x3f800000	1.0
43	0x3f800000	1.0
44	0x3f800000	1.0
45	0x3f800000	1.0
46	0x3f800000	1.0
47	0x3f800000	1.0
48	0x3f800000	1.0
49	0x3f800000	1.0
50	0x3f800000	1.0
51	0x3f800000	1.0
52	0x3f800000	1.0
53	0x3f800000	1.0
54	0x3f800000	1.0
55	0x3f800000	1.0
56	0x3f800000	1.0
57	0x3f800000	1.0
58	0x3f800000	1.0
59	0x3f800000	1.0
60	0x3f800000	1.0
61	0x3f800000	1.0
62	0x3f800000	1.0
63	0x3f800000	1.0

encoder.bn.bias f4 [64]
0	0x00000000	0.0
1	0x00000000	0.0
2	0x00000000	0.0
3	0x00000000	0.0
4	0x00000000	0.0
5	0x00000000	0.0
6	0x00000000	0.0
7	0x00000000	0.0
8	0x00000000	0.0
9	0x00000000	0.0
10	0x00000000	0.0
11	0x00000000	0.0
12	0x00000000	0.0
13	0x00000000	0.0
14	0x00000000	0.0
15	0x00000000	0.0
16	0x00000000	0.0
17	0x00000000	0.0
18	0x00000000	0.0
19	0x00000000	0.0
20	0x00000000	0.0
21	0x00000000	0.0
22	0x00000000	0.0
23	0x00000000	0.0
24	0x00000000	0.0
25	0x00000000	0.0
26	0x00000000	0.0
27	0x00000000	0.0
28	0x00000000	0.0
29	0x00000000	0.0
30	0x00000000	0.0
31	0x00000000	0.0
32	0x00000000	0.0
33	0x00000000	0.0
34	0x00000000	0.0
35	0x00000000	0.0
36	0x00000000	0.0
37	0x00000000	0.0
38	0x00000000	0.0
39	0x00000000	0.0
40	0x00000000	0.0
41	0x00000000	0.0
42	0x00000000	0.0
43	0x00000000	0.0
44	0x00000000	0.0
45	0x00000000	0.0
46	0x00000000	0.0
47	0x00000000	0.0
48	0x00000000	0.0
49	0x00000000	0.0
50	0x00000000	0.0
51	0x00000000	0.0
52	0x00000000	0.0
53	0x00000000	0.0
54	0x00000000	0.0
55	0x00000000	0.0
56	0x00000000	0.0
57	0x00000000	0.0
58	0x00000000	0.0
59	0x00000000	0.0
60	0x00000000	0.0
61	0x00000000	0.0
62	0x00000000	0.0
63	0x00000000	0.0

encoder.bn.running_mean f4 [64]
0	0x00000000	0.0
1	0x00000000	0.0
2	0x00000000	0.0
3	0x00000000	0.0
4	0x00000000	0.0
5	0x00000000	0.0
6	0x00000000	0.0
7	0x00000000	0.0
8	0x00000000	0.0
9	0x00000000	0.0
10	0x00000000	0.0
11	0x00000000	0.0
12	0x00000000	0.0
13	0x00000000	0.0
14	0x00000000	0.0
15	0x00000000	0.0
16	0x00000000	0.0
17	0x00000000	0.0
18	0x00000000	0.0
19	0x00000000	0.0
20	0x00000000	0.0
21	0x00000000	0.0
22	0x00000000	0.0
23	0x00000000	0.0
24	0x00000000	0.0
25	0x00000000	0.0
26	0x00000000	0.0
27	0x00000000	0.0
28	0x00000000	0.0
29	0x00000000	0.0
30	0x00000000	0.0
31	0x00000000	0.0
32	0x00000000	0.0
33	0x00000000	0.0
34	0x00000000	0.0
35	0x00000000	0.0
36	0x00000000	0.0
37	0x00000000	0.0
38	0x00000000	0.0
39	0x00000000	0.0
40	0x00000000	0.0
41	0x00000000	0.0
42	0x00000000	0.0
43	0x00000000	0.0
44	0x00000000	0.0
45	0x00000000	0.0
46	0x00000000	0.0
47	0x00000000	0.0
48	0x00000000	0.0
49	0x00000000	0.0
50	0x00000000	0.0
51	0x00000000	0.0
52	0x00000000	0.0
53	0x00000000	0.0
54	0x00000000	0.0
55	0x00000000	0.0
56	0x00000000	0.0
57	0x00000000	0.0
58	0x00000000	0.0
59	0x00000000	0.0
60	0x00000000	0.0
61	0x00000000	0.0
62	0x00000000	0.0
63	0x00000000	0.0

encoder.bn.running_var f4 [64]
0	0x3f800000	1.0
1	0x3f800000	1.0
2	0x3f800000	1.0
3	0x3f800000	1.0
4	0x3f800000	1.0
5	0x3f800000	1.0
6	0x3f800000	1.0
7	0x3f800000	1.0
8	0x3f800000	1.0
9	0x3f800000	1.0
10	0x3f800000	1.0
11	0x3f800000	1.0
12	0x3f800000	1.0
13	0x3f800000	1.0
14	0x3f800000	1.0
15	0x3f800000	1.0
16	0x3f800000	1.0
17	0x3f800000	1.0
18	0x3f800000	1.0
19	0x3f800000	1.0
20	0x3f800000	1.0
21	0x3f800000	1.0
22	0x3f800000	1.0
23	0x3f800000	1.0
24	0x3f800000	1.0
25	0x3f800000	1.0
26	0x3f800000	1.0
27	0x3f800000	1.0
28	0x3f800000	1.0
29	0x3f800000	1.0
30	0x3f800000	1.0
31	0x3f800000	1.0
32	0x3f800000	1.0
33	0x3f800000	1.0
34	0x3f800000	1.0
35	0x3f800000	1.0
36	0x3f800000	1.0
37	0x3f800000	1.0
38	0x3f800000	1.0
39	0x3f800000	1.0
40	0x3f800000	1.0
41	0x3f800000	1.0
42	0x3f800000	1.0
43	0x3f800000	1.0
44	0x3f800000	1.0
45	0x3f800000	1.0
46	0x3f800000	1.0
47	0x3f800000	1.0
48	0x3f800000	1.0
49	0x3f800000	1.0
50	0x3f800000	1.0
51	0x3f800000	1.0
52	0x3f800000	1.0
53	0x3f800000	1.0
54	0x3f800000	1.0
55	0x3f800000	1.0
56	0x3f800000	1.0
57	0x3f800000	1.0
58	0x3f800000	1.0
59	0x3f800000	1.0
60	0x3f800000	1.0
61	0x3f800000	1.0
62	0x3f800000	1.0
63	0x3f800000	1.0

encoder.out.weight f4 [20, 64]
0	0xbddf0abd	-0.1089072
1	0xbe0eb9d0	-0.1393807
2	0xbcc89c03	-0.024488455
3	0xbdf44130	-0.11926496
4	0x3de41865	0.111374654
5	0x3cdf3c8e	0.027250554
6	0x3e0f7b67	0.14011918
7	0xbe1bed18	-0.15227163
8	0xbcf10f90	-0.029426366
9	0xbd88ddda	-0.0668294
10	0xbcfa7253	-0.030572092
11	0x3c944c83	0.01810289
12	0x3e1ca553	0.15297441
13	0x3d01a688	0.031652957
14	0x3df8d695	0.12150303
15	0x3e02177a	0.12704268
16	0x3d13974d	0.036032964
17	0x3b942ac4	0.0045216996
18	0xbe12e16d	-0.14343806
19	0xbc840aee	-0.016118493
20	0x3a9dbd92	0.0012034646
21	0x3da9414f	0.0826441
22	0xbde031cc	-0.10946998
23	0x3db4f4ff	0.08835792
24	0x3d029076	0.03187605
25	0xbd9cf697	-0.07664221
26	0xbe8806be	-0.26567644
27	0xbcea6186	-0.028610956
28	0xbb0a58bd	-0.002111002
29	0xbd0b3033	-0.033981513
30	0x3aadbbb2	0.001325479
31	0xbd9bb98d	-0.076037504
32	0x3cba077a	0.022708643
33	0xbd7518d0	-0.059838116
34	0x3dddca87	0.10829645
35	0xbc338dcb	-0.010959099
36	0xbd39eb6d	-0.045390535
37	0xbe3fe9ce	-0.18741533
38	0x3e0b5bd4	0.13609248
39	0x3e2635e2	0.16231492
40	0x3db3be95	0.08776585
41	0xbd6b2f31	-0.057418052
42	0x3e181f24	0.14855629
43	0x3d14feef	0.036375936
44	0x3c977d94	0.018492498
45	0x3de39b3c	0.11113593
46	0x3de974f9	0.11399264
47	0xbd3119ce	-0.0432375
48	0x3e272030	0.16320872
49	0x3e4eadda	0.20183507
50	0x3c82e081	0.015976192
51	0x3e3170f2	0.17328241
52	0xbe16051a	-0.14650384
53	0x3e163910	0.14670205
54	0xbe143a08	-0.14475262
55	0xbd351805	-0.04421236
56	0xbda00a1f	-0.078144304
57	0xbaa3d00e	-0.0012497918
58	0xbe163393	-0.14668112
59	0x3ddda2c1	0.108220585
60	0x3df9e6fe	0.122022614
61	0xbd360c74	-0.04444547
62	0xbd7c40b7	-0.061585154
63	0x3b972596	0.004612635
64	0xbe2c8cf6	-0.16850647
65	0x3d9fb593	0.077983044
66	0xbd7168eb	-0.05893795
67	0xbce27d75	-0.027647713
68	0x3d1bb231	0.038011733
69	0x3d0643fd	0.032779682
70	0x3e1724af	0.14760087
71	0xbe070ff7	-0.13189684
72	0x3da34f77	0.07974141
73	0x3d9cc54d	0.0765482
74	0xbda8a727	-0.08235007
75	0xbdb87570	-0.090067744
76	0xbd4b6476	-0.049656354
77	0x3ddd8fdd	0.10818455
78	0xbdebadb0	-0.11507738
79	0xbc4fa220	-0.012672931
80	0x3d3cf977	0.046136346
81	0xbd0a8c44	-0.033825174
82	0xbd0aff23	-0.033934724
83	0x3d04f35c	0.032458648
84	0xbd883390	-0.0665046
85	0xbdd7a35e	-0.10529207
86	0xbd25d92d	-0.040490318
87	0x3cb0d5ac	0.021586262
88	0xbdca0939	-0.0986504
89	0xbc604281	-0.013687731
90	0xbe3287ce	-0.17434618
91	0x3e0d55e1	0.13802291
92	0xbdb3b14d	-0.08774052
93	0x3d6263ca	0.055270948
94	0x3dd23ade	0.10265134
95	0x3b095672	0.0020956066
96	0xbd6db3b2	-0.0580327
97	0x3d6bd6c9	0.057577882
98	0xbda7f3fb	-0.082008325
99	0xbd630fb6	-0.055434905
100	0xbdfe383b	-0.12413069
101	0xbdeb95eb	-0.11503204
102	0x3d97f5d8	0.07419938
103	0x3da1469b	0.07874795
104	0x3be252bd	0.006906836
105	0x3d46a54c	0.048497483
106	0xbd46f257	-0.048570957
107	0x3c0c9c4d	0.008582187
108	0xbceb79fb	-0.028744688
109	0xbdbd07c3	-0.09229996
110	0x3d6c0deb	0.05763046
111	0xbce53143	-0.027977591
112	0x3d83997a	0.06425758
113	0x3c961e74	0.018325068
114	0x3df02fa1	0.117278345
115	0x3d522296	0.051302515
116	0xbcdcb1b2	-0.0269402
117	0x3cbc0700	0.022952557
118	0x3d9f0a18	0.07765597
119	0x3d0829ce	0.033242993
120	0xbd477aa3	-0.04870094
121	0xbd28a16d	-0.041169573
122	0xbd35fd64	-0.044431105
123	0x3db3d756	0.087813064
124	0x3c944c0f	0.018102674
125	0xbe1cd8b0	-0.15317035
126	0xbd27392f	-0.04082602
127	0x3e1db0ad	0.15399428
128	0xbe88bec6	-0.2670805
129	0xbe7b63a3	-0.24549727
130	0xbdfc0a0f	-0.12306606
131	0xbe9f32bc	-0.31093395
132	0x3d086731	0.033301536
133	0x3b5618b2	0.0032668528
134	0x3e2208e4	0.15823704
135	0xbe8cf190	-0.27528048
136	0xbe3212c3	-0.1738997
137	0xbe5be0ce	-0.21472475
138	0x3e7cde82	0.24694255
139	0xbe2be265	-0.16785581
140	0x3e952b31	0.29134515
141	0x3e1160e8	0.14197123
142	0x3e8f926b	0.28041396
143	0x3d7d4f0e	0.06184297
144	0x3e32a1e4	0.17444569
145	0xbe6c4e30	-0.23076701
146	0xbdac96bf	-0.0842719
147	0x3da38a3b	0.0798535
148	0x3dd1f4d9	0.10251779
149	0x3e0804b6	0.13283047
150	0xbe02553d	-0.12727828
151	0x3e09d11e	0.13458678
152	0x3dd8b873	0.10582056
153	0xbea11fa2	-0.31469446
154	0xbe80be0d	-0.25144997
155	0xbdf646e0	-0.12025237
156	0x3dbeeda0	0.09322667
157	0xbe54a246	-0.20765027
158	0x3e940838	0.2891252
159	0xbe049c25	-0.1295019
160	0x3e85b68f	0.26115844
161	0x3e1481ae	0.14502594
162	0x3de8a275	0.11359111
163	0x3db566f5	0.08857528
164	0x3e03c368	0.1286751
165	0xbe974d52	-0.29551178
166	0x3e86efb0	0.26354742
167	0x3e19c9fb	0.15018456
168	0xbc0b689b	-0.008508827
169	0xbe26575e	-0.16244265
170	0x3cf5745d	0.029962713
171	0x3e0c313e	0.1369066
172	0x3d8781d4	0.066165596
173	0x3dfa2288	0.122136176
174	0x3e1552fa	0.14582434
175	0xbdd4b216	-0.1038553
176	0x3e64fec3	0.22362809
177	0x3e24ad11	0.16081645
178	0x3e084bf9	0.13310231
179	0x3e2d052d	0.16896506
180	0xbe7898e8	-0.24277079
181	0x3dcc41f7	0.09973519
182	0x3d251eb2	0.040312476
183	0xbe888368	-0.26662755
184	0xbdb72125	-0.08941869
185	0x3df55c5a	0.11980505
186	0xbe803f75	-0.25048414
187	0x3e095fab	0.134154
188	0x3e56837f	0.209486
189	0x3d41eeb4	0.047346786
190	0xbda17dfa	-0.07885356
191	0x3e6300d3	0.22168283
192	0xbd680902	-0.056649216
193	0xbe1ddc45	-0.15416057
194	0x3cccd2da	0.025002886
195	0xbe404165	-0.18774946
196	0x3d5f7c99	0.054562185
197	0xbe122021	-0.14270069
198	0x3df3b73d	0.11900184
199	0xbd6dc5d7	-0.058050003
200	0xbb787090	-0.003790889
201	0xbe3029bf	-0.17203425
202	0xbc84b5fd	-0.01620006
203	0x3c8a2cde	0.016867097
204	0x3e1790bf	0.1480131
205	0xbd9bc35a	-0.0760562
206	0x3d927fcb	0.07153281
207	0x3e193c7f	0.14964484
208	0x3dc5ccac	0.09658179
209	0xbe14a4d6	-0.14516005
210	0x3d1ba9f3	0.038003873
211	0xbd96e744	-0.07368329
212	0xbd50487a	-0.05085037
213	0x3d528c2c	0.05140321
214	0xbb858733	-0.004074955
215	0xbd549d2d	-0.051907707
216	0xbd8d9cc1	-0.06914664
217	0xbdb7f028	-0.08981353
218	0xbe8ddb0d	-0.27706185
219	0xbdd5c6fd	-0.10438345
220	0xbd8b3797	-0.06797712
221	0xbe432490	-0.19056916
222	0x3dd7252b	0.10505136
223	0xbd6f32fe	-0.05839824
224	0x3ddb13d2	0.1069714
225	0x3c2af5cc	0.010434579
226	0x3d5fb54c	0.054616258
227	0xbcc1f40d	-0.023675943
228	0x3d036167	0.032075312
229	0xbe21f2a4	-0.15815216
230	0xbcf4f2db	-0.029900959
231	0x3dd275ba	0.10276361
232	0xbdce0fe4	-0.10061625
233	0xbcf5ea1f	-0.030018864
234	0x3e12a2c8	0.14319909
235	0x3d8dea99	0.069295116
236	0xbd42c865	-0.047554392
237	0xbd4f4050	-0.050598443
238	0xbd1528df	-0.03641593
239	0xbe3d14ae	-0.1846492
240	0x3e348669	0.17629398
241	0xbd18d4f5	-0.037312467
242	0x3e192ae2	0.14957765
243	0x3e6abfe4	0.22924763
244	0xbe324d28	-0.17412245
245	0xbcc33e43	-0.0238334
246	0x3d94747a	0.07248779
247	0xbbe2182a	-0.0068998532
248	0xbdeba4b6	-0.115060255
249	0x3d22445e	0.03961598
250	0xbc34e2a7	-0.011040366
251	0xbbeee830	-0.0072908625
252	0x3e07c5d9	0.13259067
253	0x3de22ece	0.110440835
254	0x3d780cba	0.060559012
255	0x3e20cbc3	0.15702729

encoder.out.bias f4 [20]
0	0xbdeeb559	-0.11655683
1	0xbd794bc0	-0.060863256
2	0xbd967336	-0.073461935
3	0xbd728b55	-0.05921491
4	0x3deb142f	0.11478459
5	0x3e059d9e	0.13048407
6	0xbdb5a7fd	-0.08869932
7	0x3d7d0492	0.061771937
8	0xbb466e77	-0.0030278245
9	0x3d4df23d	0.050279845
10	0x3d33615c	0.04379402
11	0xbe0c10e4	-0.13678318
12	0x3d8c5353	0.0685183
13	0x3d6f88e2	0.05848015
14	0x3d69e550	0.057103455
15	0xbd4ca109	-0.049958263
16	0xbd43b738	-0.047782153
17	0x3e03bdf2	0.12865427
18	0xbe258e68	-0.16167605
19	0xbe1a70c2	-0.15082076

encoder.net.0.weight f4 [64, 47]
0	0x3d711257	0.05885538
1	0x3d9b9342	0.075964466
2	0x3e02eeb2	0.12786368
3	0xbdb07637	-0.08616298
4	0x3bd52e39	0.0065057543
5	0xbb80e71d	-0.003933801
6	0x3d99a888	0.07502848
7	0x3e03754b	0.12837712
8	0x3e25e3a2	0.16200116
9	0x3de9df1f	0.1141951
10	0x3e3a50f7	0.18194948
11	0xbcdd1e2b	-0.026991924
12	0x3e0591ae	0.13043854
13	0x3e15b524	0.14619881
14	0x3dd35571	0.10319031
15	0x3d92db30	0.07170713
16	0x3dd5c4ae	0.10437904
17	0x3e18822c	0.14893407
18	0x3d81c8cd	0.06337128
19	0x39d3f349	0.00040426318
20	0x3d994ab5	0.07484952
21	0xbb9e022f	-0.0048220376
22	0x3dd6ffc4	0.10498002
23	0x3e25bcb4	0.16185266
24	0x3d9f8a99	0.07790107
25	0xbcb5d3d0	-0.022195727
26	0x3daee752	0.085402146
27	0x3c8ce84e	0.017200615
28	0x3c77c6a2	0.015123041
29	0xbd5b83fe	-0.053592674
30	0xbd035840	-0.032066584
31	0xbcdebca8	-0.027189568
32	0xbd782f15	-0.060591776
33	0x3d2ca0a5	0.04214539
34	0x3cb6e465	0.022325704
35	0xbd99ec06	-0.07515721
36	0xbd92b3d9	-0.071632095
37	0x3e209001	0.15679933
38	0x3dc92fe0	0.098235846
39	0x3e432b57	0.19059502
40	0x3e407eec	0.18798417
41	0x3dafac8f	0.08577835
42	0x3e08bf7d	0.13354297
43	0x3d4a0c51	0.049328152
44	0xbd4ebd5e	-0.050473563
45	0xbe23eb7c	-0.16007799
46	0xbeb0b435	-0.34512487
47	0xbd8e06b8	-0.06934875
48	0x3d62fed6	0.05541881
49	0x3c9d17d0	0.019176394
50	0x3d4d4799	0.05011711
51	0x3d17ec4c	0.037090585
52	0xbd837e46	-0.06420569
53	0x3e186e89	0.14885916
54	0x3da98a07	0.0827828
55	0xbcf13a8d	-0.029446865
56	0x3d360a1a	0.044443227
57	0x3d9bb354	0.076025635
58	0xbca1b2cd	-0.01973858
59	0x3da8ad24	0.08236149
60	0x3e124cd6	0.14287123
61	0xbdccdc79	-0.10002989
62	0x3e24b63d	0.16085143
63	0x3dbbbd82	0.09167005
64	0x3d47b78a	0.04875902
65	0xbb901af5	-0.004397745
66	0xbdc971bf	-0.098361485
67	0x3d96ab59	0.07356901
68	0xbcfb68b1	-0.03068957
69	0x3dcfe8ab	0.101518
70	0x3dd7fdcd	0.105464555
71	0xbd94fb3e	-0.07274483
72	0xbd266183	-0.04062034
73	0x3d78cfb7	0.060744967
74	0x3e21a2a6	0.15784702
75	0x3e01dddc	0.12682289
76	0x3ae252d4	0.0017267116
77	0xbcf338a2	-0.02969009
78	0xbd29c1b2	-0.041444488
79	0x3ced727d	0.028985256
80	0x3d0fab94	0.03507574
81	0xbd913fcc	-0.070922464
82	0xbd498955	-0.049203236
83	0x3e02bebe	0.12768075
84	0xbd8df049	-0.069305964
85	0x3da30da7	0.07961588
86	0x3e228ef0	0.15874839
87	0xbd20dfbd	-0.039275873
88	0xbc3cd2d3	-0.011524874
89	0x3cc3fa34	0.023923017
90	0x3d79a21f	0.060945626
91	0x3dd9259e	0.10602878
92	0x3dfe7f6b	0.12426647
93	0xbe8b832b	-0.2724851
94	0xbdc7db1e	-0.0975859
95	0x3e08562a	0.13314119
96	0x3cc5cdf7	0.024146063
97	0x3e315810	0.1731875
98	0xbd3b1fe7	-0.04568472
99	0x3e0a56b8	0.13509643
100	0xbcbd0f38	-0.023078546
101	0x3ba10e44	0.0049150307
102	0xbdab94cc	-0.0837799
103	0x3e1f8e80	0.15581703
104	0xbd3887a2	-0.045051225
105	0x3d11f13b	0.035630446
106	0x3e2d1d1e	0.16905639
107	0x3ded937e	0.116003975
108	0xbcaec875	-0.02133582
109	0x3db15f63	0.08660772
110	0x3e0b519a	0.13605347
111	0x3e14ed8e	0.14543745
112	0x3dd17383	0.1022711
113	0x3c55e412	0.0130548645
114	0xbda4a867	-0.08039933
115	0x3e0cebb0	0.13761783
116	0x3d37baf7	0.044856038
117	0x3de42a07	0.111408286
118	0x3e1d5171	0.15363099
119	0x3e216e85	0.15764816
120	0xbd9d9f08	-0.076963484
121	0x3dc72dc9	0.0972553
122	0x3d3e08d8	0.046395153
123	0x3e03c155	0.12866719
124	0xbc9a6347	-0.018846167
125	0x3df54bab	0.11977323
126	0xbc0848bf	-0.008318125
127	0x3def07f3	0.11671438
128	0x3dd4c54d	0.10389195
129	0xbd3b8920	-0.04578507
130	0x3d844fa3	0.06460502
131	0x3e2d2d2b	0.16911761
132	0x3e02b7ef	0.12765478
133	0x3da302b0	0.07959497
134	0x3dec8b18	0.115499675
135	0x3ddeb870	0.108750224
136	0x3da76ff4	0.0817565
137	0xbc73669c	-0.014856007
138	0x3dd1651b	0.102243625
139	0x3b01f3b6	0.00198291
140	0x3c654966	0.01399455
141	0x3d4e27eb	0.050331037
142	0xbd0c3107	-0.034226444
143	0xbddd56e6	-0.1080759
144	0x3cf3f107	0.029778017
145	0x3e0db6bc	0.13839239
146	0x3e4f8409	0.20265211
147	0xbbf7dbb1	-0.007564031
148	0x3caf6c1e	0.021413859
149	0x3d034e83	0.032057296
150	0xbda9899d	-0.08278201
151	0x3e5e1aa8	0.21689856
152	0x3d86dd8f	0.06585228
153	0xbd21cba9	-0.039500866
154	0x3e445a90	0.19175172
155	0xbd124328	-0.035708576
156	0xbca299fb	-0.019848814
157	0x3e6fd8db	0.23422568
158	0x3d36cef5	0.044630963
159	0x3dd8481f	0.10560631
160	0x3d6e929f	0.058245298
161	0x3d9a18a8	0.07524234
162	0xbd4420f9	-0.047883008
163	0x3c9ea46c	0.019365512
164	0x3bbca6c3	0.0057571842
165	0x3c786e7b	0.015163059
166	0x3dae06c8	0.08497387
167	0x3df84d0e	0.12124072
168	0x3e362ca0	0.1779046
169	0x3e5fd85e	0.21859881
170	0x3e1dcbb6	0.15409741
171	0x3d6e469c	0.058172807
172	0xbd0cbbee	-0.03435891
173	0x3d6e7af8	0.05822274
174	0x3d1cb109	0.03825477
175	0xbc99cb99	-0.01877384
176	0x3d88c100	0.06677437
177	0xbde8221f	-0.11334633
178	0xbd4d3624	-0.05010046
179	0xbdd7dc1b	-0.10540029
180	0x3d98210b	0.074281774
181	0x3e814d27	0.25254175
182	0x3dc51f10	0.09625065
183	0x3e2e9c73	0.17051868
184	0x3d3fac11	0.046794955
185	0x3e1325a8	0.14369833
186	0x3e3ba64d	0.18325157
187	0xbe8de6e6	-0.27715224
188	0xbd7654cf	-0.060139474
189	0xbd67db1e	-0.05660545
190	0x3de9d277	0.11417096
191	0xbdee8964	-0.11647299
192	0x3daba162	0.08380391
193	0xbd95404a	-0.07287653
194	0xbe04e18b	-0.12976663
195	0x3dc0e327	0.09418326
196	0xbcd821cd	-0.026383305
197	0xbe313781	-0.1730633
198	0xbd29fa18	-0.041498274
199	0xbd407b0e	-0.046992354
200	0xbe0c1290	-0.13678956
201	0xbe2fa890	-0.17154145
202	0x3dad17bb	0.08451792
203	0x3e0258b7	0.12729155
204	0x3d066e47	0.032820012
205	0x3c94d844	0.01816953
206	0xbc93c8e7	-0.018040134
207	0xbe35ce24	-0.17754418
208	0x3b84edc6	0.004056665
209	0xbe2deef9	-0.16985692
210	0x3dc7530b	0.09732636
211	0xbd9b03a3	-0.07569053
212	0xbc441acc	-0.0119692795
213	0xbe115ed0	-0.14196324
214	0xbe1d5d47	-0.15367614
215	0xbdd729eb	-0.10506042
216	0xbd8948a6	-0.0670331
217	0xbdbf2886	-0.09333901
218	0xbc3ba0cb	-0.01145191
219	0xbd3b9318	-0.045794576
220	0x3d466117	0.048432436
221	0xbd55f3c9	-0.052234445
222	0xbc7dcc97	-0.015490673
223	0x3deb5904	0.11491588
224	0xbe254ca6	-0.1614252
225	0x3d7cc470	0.061710775
226	0xbc97acff	-0.018515108
227	0x3d65effa	0.056137063
228	0xbd336b6d	-0.04380362
229	0xbdf53c46	-0.11974387
230	0x3ddfee79	0.10934157
231	0xbd84f66a	-0.06492312
232	0xbd5fb0f9	-0.054612134
233	0xbe4fff71	-0.20312287
234	0x3e408848	0.18801987
235	0x3df908d7	0.12159889
236	0x3e0a9e61	0.1353698
237	0x3de38d07	0.11110883
238	0x3e2c7101	0.16839983
239	0xbd59f89b	-0.053215604
240	0xbd2a3a7d	-0.041559685
241	0x3d78f2b7	0.060778346
242	0x3c997c9a	0.018736172
243	0x3e27d3c9	0.16389383
244	0xbcce5da4	-0.025191136
245	0x3e04195c	0.12900299
246	0x3d367707	0.044547107
247	0xbcf103b1	-0.029420706
248	0x3e192141	0.14954092
249	0x3b8cdfa3	0.0042991205
250	0xbe067d3b	-0.13133709
251	0x3c48ff11	0.012267844
252	0xbd9533be	-0.0728526
253	0xbe08850a	-0.13332
254	0x3e100697	0.14065014
255	0xbc820de2	-0.01587576

encoder.net.0.bias f4 [64]
0	0xbcbf5557	-0.023356123
1	0x3dc97772	0.098372355
2	0xbc81ec86	-0.015859853
3	0xbd1c22ea	-0.038119234
4	0xbe2f4cd3	-0.1711915
5	0xbdedfe9c	-0.116208285
6	0x3e10ef17	0.14153706
7	0x3df59215	0.119907536
8	0x3b1318fe	0.0022445316
9	0x3df8193a	0.121141866
10	0x3cce2006	0.025161754
11	0xbd34d585	-0.04414894
12	0x3b71a8ff	0.003687441
13	0x3ceacf65	0.028663347
14	0x3c85a07a	0.016311873
15	0xbd67586d	-0.056480814
16	0xbda8ffbf	-0.08251905
17	0xbd9dd3f3	-0.07706442
18	0xbe131ef3	-0.14367275
19	0x3e0070cc	0.12543029
20	0xbdc6f115	-0.097139515
21	0xbe109ddf	-0.14122723
22	0x3e2a547e	0.16633794
23	0xbd978896	-0.073990986
24	0x3e2d78b4	0.16940576
25	0x3d0e8e04	0.034803405
26	0x3c933960	0.017971694
27	0x3dbc65bd	0.091990925
28	0xbdd99dcd	-0.10625801
29	0x3e48bdc0	0.19603634
30	0x3da728a2	0.08162047
31	0xbd97e8d0	-0.07417452
32	0xbcec0dfd	-0.028815264
33	0xbdd4ac79	-0.10384459
34	0xbe31fde0	-0.17382002
35	0xbdbca789	-0.09211642
36	0xbe42e9df	-0.19034527
37	0x3dee31f6	0.11630623
38	0x3e0ad0e6	0.13556251
39	0x3da13194	0.078707844
40	0x3e047d6b	0.12938468
41	0x3e384e03	0.17998509
42	0xbd085321	-0.033282403
43	0x3dcdce28	0.10049087
44	0x3e0112d6	0.12604842
45	0x3e29b916	0.16574511
46	0x3e05c40b	0.13063066
47	0x3e3e34d9	0.18574847
48	0x3d96f587	0.073710494
49	0x3dc0a5f8	0.09406656
50	0x3c1394c3	0.0090076355
51	0xbdf1f162	-0.11813618
52	0xbd6f469a	-0.05841694
53	0x3d01ce13	0.03169067
54	0x3e35ed02	0.17766193
55	0x3e23c35f	0.15992497
56	0x3e2feb2d	0.17179556
57	0xbdedbb7a	-0.11608024
58	0x3d6f90fb	0.058487874
59	0x3c9483ad	0.018129194
60	0x3dea7128	0.11447364
61	0x3b7784e3	0.0037768416
62	0xbe3dff0d	-0.18554325
63	0x3c8cde96	0.017195981

decoder.fc.weight f4 [64, 10]
0	0xbe94597f	-0.2897453
1	0x3e0d8f60	0.13824224
2	0xbe31956b	-0.17342155
3	0x3d89b824	0.06724575
4	0x3e103de6	0.14086112
5	0x3dd554fc	0.104166
6	0xbe51915c	-0.20465606
7	0xbe4a7b75	-0.19773658
8	0x3d0cd599	0.03438339
9	0xbee1e19a	-0.44117433
10	0xbec80c5d	-0.39071932
11	0xbe048ba1	-0.12943889
12	0xbecfa006	-0.40551776
13	0x3dae59f7	0.08513253
14	0xbe23f45c	-0.16011184
15	0xbe601912	-0.21884564
16	0xbe9fb73b	-0.3119448
17	0x3e5c5467	0.21516572
18	0xbe9ebebe	-0.310049
19	0x3e262d26	0.1622816
20	0x3da27d45	0.079340495
21	0x3dbcdaa1	0.09221388
22	0x3cc5b064	0.024131961
23	0xbe9fd179	-0.31214502
24	0x3e948a93	0.29011974
25	0xbe676d1d	-0.22600217
26	0x3e79a42f	0.24379037
27	0xbe243518	-0.16035879
28	0xbe8efd15	-0.2792746
29	0x3e3e504a	0.18585315
30	0xbdbc001c	-0.09179708
31	0x3d9708b0	0.07374704
32	0xbec53943	-0.3852025
33	0x3dc54ac8	0.09633404
34	0x3e1c5f02	0.15270618
35	0x3e18e86f	0.14932416
36	0xbd8bd3f4	-0.06827536
37	0x3e9cd28e	0.3062939
38	0xbd9d1004	-0.0766907
39	0xbe76ccf2	-0.24101618
40	0x3e2e848d	0.17042752
41	0xbe538f3f	-0.20660113
42	0x3d09d8c6	0.033653997
43	0xbe09f702	-0.13473132
44	0xbe9b2919	-0.30304793
45	0x3e4006da	0.18752614
46	0x3c0dbd1a	0.008651042
47	0x3e027925	0.12741525
48	0x3e3d4791	0.18484332
49	0x3e1eb3d1	0.15498282
50	0x3e39c323	0.18140845
51	0x3e7902cc	0.24317473
52	0xbea9831b	-0.33107838
53	0x3dd3b7be	0.103377804
54	0x3dbc9f57	0.09210079
55	0xbccd6950	-0.025074631
56	0xbe949668	-0.29021
57	0xbacf9783	-0.0015838001
58	0xbe2001f1	-0.1562574
59	0xbe16aeb1	-0.14715077
60	0xbe530c9a	-0.20610276
61	0x3e284e8a	0.1643621
62	0xbea44e5a	-0.32091027
63	0xbe07827f	-0.13233374
64	0x3e4ad953	0.19809465
65	0xbde529ec	-0.111896366
66	0xbe1666c7	-0.14687644
67	0x3db4bd95	0.088252224
68	0xbe0ce135	-0.13757785
69	0x3e178637	0.14797293
70	0xbdfbfb7b	-0.123038255
71	0x3e1dbaf1	0.15403344
72	0xbe2ef81b	-0.17086832
73	0xbe99b2f4	-0.30019343
74	0x3cdfd831	0.027324768
75	0x3e3a55e6	0.1819683
76	0x3d9ebee4	0.07751253
77	0x3e491296	0.19635996
78	0xbe2b623a	-0.16736689
79	0xbda6c903	-0.08143809
80	0x3e057062	0.13031152
81	0xbcb3b5a3	-0.021937197
82	0xbd8fdaa8	-0.07024127
83	0xbc37f07c	-0.01122677
84	0xbe6a9485	-0.22908218
85	0x3cf4e4e6	0.029894304
86	0xbeb56752	-0.3543039
87	0xbeb7588c	-0.35809743
88	0xbea00e03	-0.3126069
89	0xbe88781c	-0.26654136
90	0x3e4ab440	0.19795322
91	0x3e9363c8	0.28787065
92	0xbc1daf76	-0.009624353
93	0xbe26bad8	-0.16282213
94	0x3ebca1d3	0.36842212
95	0x3eb7374c	0.35784376
96	0xbe9544e0	-0.2915411
97	0xbdbaabb3	-0.0911478
98	0xbe1f8063	-0.1557632
99	0x3d9cd3a1	0.076575525
100	0xbcb304cd	-0.021852875
101	0x3d5b2114	0.053498343
102	0x3d814924	0.063127786
103	0xbe7457a9	-0.23861565
104	0xbce33fa2	-0.027740303
105	0x3e8b53b7	0.27212307
106	0x3e7e60d7	0.24841629
107	0x3d060753	0.03272183
108	0xbe2ee9f1	-0.17081429
109	0x3ec26d29	0.37973908
110	0x3e48378b	0.19552438
111	0xbe79b6f5	-0.24386199
112	0xbeae2c3c	-0.34018123
113	0xbe1de41d	-0.1541905
114	0x3ea23212	0.31678826
115	0x3e22c2bc	0.15894598
116	0x3df985f9	0.121837564
117	0x3e4db259	0.20087565
118	0xbea39e80	-0.31956863
119	0x3afcf7b9	0.0019299901
120	0xbdc30abe	-0.09523533
121	0xbe31d1da	-0.17365208
122	0x3ddb352f	0.10703503
123	0x3bd25a43	0.0064194514
124	0xbc6c39e6	-0.014418101
125	0xbe3d1d13	-0.18468122
126	0xbe651054	-0.2236951
127	0x3d9c1ccc	0.0762268
128	0xbef87519	-0.48526838
129	0xbe1cd516	-0.15315661
130	0x3e7b1032	0.24517897
131	0x3de7914e	0.113070115
132	0xbd3730c8	-0.044724256
133	0xbeca8d8a	-0.3956111
134	0x3ebfa0f5	0.37427488
135	0xbe149ad2	-0.14512184
136	0xbe744409	-0.23854078
137	0xbd0db746	-0.03459861
138	0x3ea4d0b2	0.32190472
139	0x3d007dc1	0.03136993
140	0xbdc34493	-0.09534564
141	0xbe9fdb56	-0.31222028
142	0x3c844217	0.016144795
143	0xbe9dbce6	-0.3080818
144	0x3c6f2f64	0.014598701
145	0x3e8d2c65	0.27572933
146	0xbde5912e	-0.112093315
147	0x3e2d9e08	0.16954815
148	0xbe0a2e73	-0.13494281
149	0x3ea688e6	0.3252632
150	0xbe87f13b	-0.26551232
151	0xbdab8e8c	-0.08376798
152	0xbe0503c2	-0.12989715
153	0xbde91bf8	-0.11382288
154	0x3e367af4	0.1782034
155	0x3e4cebb7	0.20011793
156	0xbe9ebd90	-0.31004
157	0x3e138749	0.14407076
158	0x3edfc5fe	0.43705744
159	0xbef8dddf	-0.48606774
160	0xbeb89076	-0.36047715
161	0xbe6dc384	-0.23219115
162	0xbda85411	-0.082191594
163	0xbe91a39c	-0.28445137
164	0x3e9e2f11	0.30895284
165	0xbe2a616c	-0.16638726
166	0xbd618ff4	-0.055068925
167	0xbe07d737	-0.13265692
168	0x3e94b9f2	0.29048115
169	0xbddaf9b8	-0.10692161
170	0xbebc5fa1	-0.3679171
171	0x3ca85d00	0.020552158
172	0x3e26f5b6	0.16304669
173	0x3ddaeb0a	0.106893614
174	0x3c051601	0.008122922
175	0xbdeeba40	-0.11656618
176	0xbe8f5562	-0.2799483
177	0xbec25682	-0.37956625
178	0xbe880466	-0.26565856
179	0xbd966e65	-0.07345275
180	0x3ca85d4b	0.020552298
181	0xbdd00974	-0.10158053
182	0xbecd355d	-0.40079775
183	0xbe2e759a	-0.17037049
184	0x3e9b3ab9	0.3031824
185	0x3de97611	0.113994725
186	0xbe7fa470	-0.24965072
187	0x3d0adf15	0.033904154
188	0xbedab491	-0.42715886
189	0x3ebdd2af	0.370748
190	0x3e893775	0.26800123
191	0xbe15990c	-0.14609164
192	0x3e6959df	0.2278819
193	0xbea2f93a	-0.3183077
194	0x3de83f6f	0.11340224
195	0xbdfb51db	-0.12271472
196	0xbea7d3bb	-0.32778725
197	0xbe1975f9	-0.14986409
198	0x3e232835	0.15933307
199	0xbe271e0f	-0.1632006
200	0xbe95532c	-0.29165018
201	0x3d8adff0	0.06780994
202	0x3e0f2381	0.13978387
203	0x3db938de	0.0904405
204	0x3db5c39b	0.088751994
205	0xbd20b43d	-0.03923439
206	0x3ddb34af	0.10703408
207	0x3cc13f62	0.023589794
208	0x3eeee539	0.46659258
209	0xbe80c2a1	-0.2514849
210	0xbe030b88	-0.12797368
211	0xbd8e8cee	-0.06960474
212	0x3d540dbf	0.05177092
213	0x3eadfbfd	0.33981314
214	0xbe052a70	-0.1300447
215	0x3e4e69a6	0.20157489
216	0x3e7bf5f1	0.24605538
217	0x3e5de892	0.2167075
218	0x3e9eefe2	0.3104239
219	0xbc2ecf3b	-0.010669525
220	0x3bfa4d69	0.0076386225
221	0x3c8625f9	0.016375529
222	0x3d4e5c7f	0.05038118
223	0x3ea63ee1	0.32469848
224	0x3d339393	0.04384191
225	0xbdb262d3	-0.087102555
226	0xbe5c3260	-0.21503592
227	0x3e972a1b	0.2952431
228	0xbd8f06d7	-0.069837265
229	0x3e9cd79a	0.3063324
230	0xbd83081a	-0.063980296
231	0xbe5f8b6d	-0.2183053
232	0x3e00b41b	0.12568705
233	0x3e15df4a	0.1463596
234	0xbe07bb9f	-0.13255166
235	0x3da04e23	0.078274034
236	0x3e07ef71	0.13274933
237	0x3dcd2fe0	0.10018897
238	0x3da0414d	0.07824955
239	0xbe8798b5	-0.26483694
240	0xbe0a34ba	-0.13496676
241	0x3dab2207	0.083560996
242	0xbe49d863	-0.19711451
243	0xbe493939	-0.19650735
244	0xbd2ea17a	-0.042634465
245	0x3e99b006	0.30017108
246	0xbe3729e5	-0.17887075
247	0xbdcb0b4f	-0.09914266
248	0x3e24874e	0.1606724
249	0xbeda0167	-0.42579195
250	0x3e3f318c	0.18671244
251	0x3db7773d	0.0895829
252	0x3e8d0f1d	0.27550593
253	0x3e1f3eb0	0.15551257
254	0xbe1d819e	-0.15381476
255	0x3d84f6d9	0.06492395

decoder.fc.bias f4 [64]
0	0x3df4711f	0.11935639
1	0xbdf39312	-0.11893286
2	0x3e8fa224	0.2805339
3	0x3e285a8c	0.16440791
4	0x3d77565d	0.060385097
5	0x3e7465bc	0.23866934
6	0x3e901a07	0.28144857
7	0x3eccccd3	0.40000018
8	0xbdfee7dc	-0.124465674
9	0x3ea6553d	0.32486907
10	0xbead94c1	-0.33902553
11	0x3d92f8f9	0.07176394
12	0x3ec12280	0.37721634
13	0x3e80e2a4	0.25172913
14	0xbbce0aba	-0.0062879
15	0xbdce3c03	-0.1007004
16	0xbb95281d	-0.004551901
17	0x3e97ba93	0.29634532
18	0x3cbacdd5	0.022803226
19	0x3ed247ee	0.41070503
20	0x3ed5c09d	0.41748515
21	0xbe4e2e11	-0.2013476
22	0xbd9198d1	-0.071092255
23	0xbec8f87a	-0.39252073
24	0xbe1e7b31	-0.15476681
25	0xbed0c55c	-0.40775573
26	0xbe2541eb	-0.16138427
27	0xbe858096	-0.26074666
28	0xbdf343cd	-0.11878166
29	0x3ee9a2e0	0.45632076
30	0x3d57b88a	0.052666225
31	0x3e185e8e	0.1487982
32	0xbd7eff20	-0.062255025
33	0x3eb57438	0.3544023
34	0x3e78e5c3	0.24306397
35	0xbdc3629b	-0.09540292
36	0x3eadae69	0.33922127
37	0x3ee62fa6	0.44958228
38	0xbd9af67f	-0.07566547
39	0xbdb9d188	-0.09073168
40	0x3e7902fd	0.24317546
41	0x3ed5fe1e	0.4179544
42	0x3d2541a3	0.0403458
43	0x3d5b95b2	0.053609557
44	0xbe37263b	-0.17885678
45	0x3e8f0e08	0.27940392
46	0x3e361335	0.17780764
47	0x3dc6915b	0.09695693
48	0x3e05f0e5	0.13080175
49	0x3e7e83a7	0.24854909
50	0xbd9261ba	-0.07147546
51	0xbd438615	-0.047735292
52	0x3e271649	0.16317095
53	0x3ed9bbe5	0.42526165
54	0xbe39d1eb	-0.18146484
55	0x3b73fd99	0.0037230013
56	0xbe30401a	-0.17211953
57	0x3ed5e891	0.41778997
58	0xbdcbcac0	-0.09950781
59	0x3b78b1a1	0.0037947672
60	0xbe2ef782	-0.17086604
61	0xbeaf6ccf	-0.34262702
62	0xbe61d3b8	-0.2205342
63	0x3c9540e7	0.018219424

decoder.out.weight f4 [46, 64]
0	0x3c844c48	0.016149655
1	0xbc012fff	-0.007884978
2	0xbce52067	-0.027969552
3	0x3a98b6f4	0.0011651204
4	0xbe0a7e87	-0.13524829
5	0xbd8c4d43	-0.06850674
6	0xbd84ee81	-0.064908035
7	0xbe3fe301	-0.18738939
8	0xbe1bdeb1	-0.15221669
9	0xbc0b374a	-0.008497069
10	0x3e114fd2	0.14190605
11	0xbdb91b21	-0.090383776
12	0xbd03afcd	-0.03215008
13	0x3c8db6d7	0.017299099
14	0xbd805255	-0.062657036
15	0xbd8423a3	-0.0645211
16	0xbddf67c7	-0.10908466
17	0xbe2a0a1e	-0.16605422
18	0x3d340079	0.043945763
19	0xbe3ff956	-0.18747458
20	0xbdff6f60	-0.12472415
21	0x3a97139c	0.001152623
22	0x3deef50c	0.11667833
23	0x3e069fcb	0.13146894
24	0x3ba84a44	0.0051358063
25	0xbc3346e3	-0.010942194
26	0xbd0007d8	-0.03125748
27	0xbd26a7b9	-0.040687297
28	0xbd5f9605	-0.05458643
29	0xbe1e6e55	-0.15471776
30	0xbde7307c	-0.112885445
31	0x3c06f56e	0.008237226
32	0xbd86014d	-0.06543217
33	0x3cada113	0.02119497
34	0xbd0ca861	-0.034340266
35	0x3d846fd0	0.06466639
36	0x3a308cf4	0.0006734871
37	0xbddfb471	-0.10923088
38	0xbd2dbb5a	-0.042415
39	0xbcc9bfea	-0.024627645
40	0xbe2a3e0e	-0.16625234
41	0xbdfd25f7	-0.12360757
42	0xbd0b2e47	-0.03397968
43	0xbb1df4ef	-0.002410229
44	0x3dc2c2c6	0.09509806
45	0x3c2151e9	0.009846189
46	0xbc3b1ed9	-0.011420929
47	0xbd98e3cf	-0.07465326
48	0x3d7cb679	0.061697457
49	0xbd6a73e3	-0.057239424
50	0x3bd5ecfc	0.006528495
51	0xbe1bfc8f	-0.15233062
52	0x3c4f3a74	0.012648214
53	0xbd60bbc2	-0.05486656
54	0xbbaf3358	-0.005346697
55	0xbd60cd8e	-0.054883532
56	0xbda571a6	-0.08078317
57	0xbd1f9701	-0.038962368
58	0xbd72df64	-0.059295073
59	0x3bbb695b	0.0057193465
60	0x3d80a8fe	0.06282233
61	0xbc8065e6	-0.015673589
62	0x3d6e6918	0.058205694
63	0xbdc3e333	-0.09564819
64	0xbdf2a18d	-0.118472196
65	0x3d8ebf6d	0.06970105
66	0x3c12d943	0.008962932
67	0x3c925a0a	0.0178652
68	0xbe170645	-0.14748485
69	0xbc5507d0	-0.013002351
70	0xbd586f88	-0.05284074
71	0xbdd36dd7	-0.10323685
72	0xbe003d72	-0.1252344
73	0xbe08125c	-0.13288254
74	0x3d5860d0	0.052826703
75	0xbdf171b5	-0.11789266
76	0xbb51c0dc	-0.0032005822
77	0xbde1605b	-0.110047065
78	0xbd21cddd	-0.039502967
79	0xbe1a9a0e	-0.1509783
80	0x3d21024b	0.039308827
81	0x3d1f5e16	0.038908087
82	0xbc5ceafc	-0.013483759
83	0xbd27d23a	-0.040971972
84	0xbdc101de	-0.09424184
85	0xbd83ccf7	-0.06435578
86	0x3d822649	0.063549586
87	0x3dfb776f	0.122786395
88	0xbda24875	-0.07923976
89	0x3e02a08e	0.12756559
90	0xbdba3502	-0.09092142
91	0x3e163e5a	0.14672223
92	0x3d573fca	0.05255107
93	0xbde59f0d	-0.11211977
94	0xbe11a8c2	-0.14224532
95	0x3d6a126f	0.057146486
96	0x3d994ed1	0.07485736
97	0xbe1ceab5	-0.15323909
98	0x3d03890b	0.032113116
99	0x3d831e4b	0.06402262
100	0xbd139375	-0.036029298
101	0xbdae546a	-0.085121945
102	0x3d357743	0.04430319
103	0x3d9a0de1	0.075221784
104	0xbd74b456	-0.059742294
105	0x3cc78167	0.024353696
106	0xbc3645ae	-0.011125011
107	0xbd644f1f	-0.05573952
108	0xbcabd5a0	-0.020975888
109	0xbdd6553b	-0.10465475
110	0xbda82a36	-0.08211176
111	0xbe176784	-0.14785582
112	0x3cd27c04	0.0256939
113	0x3cbd6110	0.023117572
114	0xbcc98775	-0.024600724
115	0xbd38aae5	-0.045084853
116	0xbda67fbf	-0.081298344
117	0xbe102d6f	-0.14079832
118	0x3d471118	0.048600286
119	0xbd8e1b43	-0.069387935
120	0x3da56647	0.080761485
121	0xbdc89100	-0.097932816
122	0x3d8d8aaf	0.069112174
123	0xbe014f7d	-0.12627979
124	0xbaac3305	-0.0013137764
125	0x3db72039	0.08941693
126	0x3da01d64	0.07818106
127	0x3bd16bcc	0.006391024
128	0xbddc8c9f	-0.10769009
129	0xbd4d2259	-0.050081585
130	0xbd8f2cd0	-0.06990969
131	0xbe2d2b2c	-0.16911
132	0x3d3f496c	0.04670088
133	0xbe528ffe	-0.20562741
134	0xbc048702	-0.008088829
135	0xbe1b04af	-0.15138505
136	0xbe0681b3	-0.13135414
137	0x3ccade36	0.024764162
138	0x3d864223	0.06555583
139	0xbbeb03bd	-0.0071720765
140	0xbde279f2	-0.110584155
141	0xbe30b874	-0.17257863
142	0xbde42f22	-0.11141802
143	0xbdc62b87	-0.09676271
144	0x3bea7603	0.0071551814
145	0x3c01093b	0.007875736
146	0xbd5eea10	-0.05442244
147	0x3d2502fe	0.040286057
148	0xbdab4683	-0.083630584
149	0x3e229555	0.15877278
150	0xbcc347d9	-0.02383797
151	0x3d994b49	0.07485063
152	0xbe18ea26	-0.1493307
153	0xbcb5f56c	-0.022211753
154	0x3e19d533	0.15022735
155	0x3d29b455	0.041431744
156	0xbd84731c	-0.06467268
157	0xbdbe658c	-0.09296712
158	0xbe45f79a	-0.19332734
159	0xbd922a5e	-0.07136987
160	0x3d7c1174	0.061540082
161	0xbe15265d	-0.14565416
162	0xbe55587e	-0.20834538
163	0x3aef5e7e	0.0018262414
164	0xbd176dc3	-0.03696991
165	0xbc91a5ab	-0.017779192
166	0xbd064369	-0.03277913
167	0xbdcb8f53	-0.09939446
168	0x3cac60ca	0.021042246
169	0xbe257be0	-0.16160536
170	0x3d167be4	0.036739245
171	0xbdd7a121	-0.1052878
172	0xbddc8955	-0.107683815
173	0xbdba4e97	-0.09097021
174	0xbd0c40ff	-0.034241673
175	0xbc9490a7	-0.018135382
176	0xbd7ee9de	-0.062234752
177	0xbd3b3ded	-0.045713354
178	0xbe5fa30f	-0.21839546
179	0xbd533f10	-0.051573813
180	0x3c3df764	0.011594627
181	0xbe3247c5	-0.1741019
182	0xbd0363cc	-0.032077596
183	0xbda7f20d	-0.082004644
184	0xbbf2c20f	-0.0074083875
185	0x3d48a6c5	0.04898717
186	0xbd50958b	-0.050923865
187	0xbdf38a84	-0.11891654
188	0xbc4e7c5c	-0.012602892
189	0x3b55ffa4	0.0032653594
190	0x3c8da5ac	0.017290913
191	0xbdb4c5b5	-0.08826772
192	0x3da92312	0.08258642
193	0xbdd0dd7e	-0.10198496
194	0x3d784eaf	0.060621914
195	0xbdc4f5ed	-0.09617219
196	0xbc829254	-0.015938915
197	0x3cf8fd66	0.030394267
198	0xbc3030ff	-0.010753869
199	0xbe08f247	-0.13373671
200	0x3b666aa2	0.0035158773
201	0x3d01f36e	0.031726293
202	0xbc12946b	-0.008946518
203	0xbd8cc949	-0.068743296
204	0x3e18ddf0	0.14928412
205	0x3e3a962c	0.18221349
206	0xbd7d62af	-0.06186169
207	0xbe53afbb	-0.20672505
208	0x3c4b2454	0.012398798
209	0x3e0c7250	0.13715482
210	0x3d09cec9	0.03364447
211	0x3cd93362	0.026513759
212	0x3dafd3c4	0.08585313
213	0xbd393e0e	-0.045225196
214	0xbdacb10c	-0.084322065
215	0x3d1b8880	0.037971973
216	0xbdf961ee	-0.12176882
217	0x3d695ba1	0.05697215
218	0x3c86a0c2	0.016434077
219	0xbdac83c9	-0.084235735
220	0xbe478eb3	-0.19488029
221	0xbdd29b14	-0.10283485
222	0xbe2f4bac	-0.1711871
223	0x3c97db5e	0.01853722
224	0xbe030820	-0.12796068
225	0x3c92edfe	0.01793575
226	0x3a8e38a5	0.0010850622
227	0x3cac7f0a	0.02105667
228	0xbd348b15	-0.04407795
229	0x3d4eb66d	0.050466944
230	0x3e0c668a	0.1371099
231	0xbccb726e	-0.024834838
232	0xbbda8b90	-0.006669469
233	0x3dbb06ba	0.09132142
234	0xbd26b19f	-0.040696736
235	0x3ddbe7f9	0.10737605
236	0xbde12363	-0.109930776
237	0x3d979761	0.0740192
238	0x3c156c9d	0.009120134
239	0x3c3b38ec	0.011427145
240	0x3d83fb9d	0.06444476
241	0x3ded0f27	0.11575156
242	0xbd70ff7c	-0.0588374
243	0xbd66b150	-0.056321442
244	0xbd43eeb7	-0.047835078
245	0x3d27e0e8	0.04098597
246	0xbd5149a4	-0.05109562
247	0xbc03d607	-0.008046634
248	0x3d5c6876	0.05381056
249	0x3cbffe7f	0.023436783
250	0xbd86628e	-0.065617666
251	0x3dc1e1fc	0.09466931
252	0x3e1f4122	0.1555219
253	0x3c88e46b	0.01671048
254	0x39bdb877	0.00036186326
255	0x3cb38706	0.02191497

decoder.out.bias f4 [46]
0	0xbd976d74	-0.073939234
1	0x3bf4fe3e	0.007476597
2	0xbd4f3013	-0.050582957
3	0x3d737ca1	0.059445027
4	0x3d82fe13	0.06396117
5	0xbcad59bc	-0.021160953
6	0xbda716b3	-0.081586264
7	0xbbd3d228	-0.0064642616
8	0xbd516960	-0.051125884
9	0xbd8f9272	-0.07010354
10	0xbe4577b5	-0.19283946
11	0xbe37fde8	-0.17967951
12	0x3c1af7ca	0.009458492
13	0x3d8989bc	0.06715724
14	0xbd9fc5f4	-0.078014284
15	0xbc990956	-0.01868121
16	0xbccbcc3f	-0.024877666
17	0xbc50e7b5	-0.012750556
18	0xbe0b80a6	-0.13623294
19	0xbe2c3722	-0.16817906
20	0xbda17e74	-0.07885447
21	0xbd40300a	-0.046920814
22	0x3d2c541d	0.042072404
23	0xbd918550	-0.071055055
24	0x3cf5c7b7	0.030002458
25	0xbe5cb975	-0.21555121
26	0xbe1fb631	-0.15596844
27	0x3d423f98	0.04742393
28	0x3c9044d7	0.01761095
29	0xbbc391dc	-0.0059683155
30	0xbe0767c5	-0.13223179
31	0x3d302e90	0.043013155
32	0x3bf44f56	0.0074557466
33	0xbd228c25	-0.039684433
34	0xbd8e55ea	-0.069499806
35	0xbcce5828	-0.02518852
36	0xbe0ff813	-0.14059477
37	0xbe1e8120	-0.15478945
38	0xbd8694f4	-0.06571379
39	0xbe04dae8	-0.12974131
40	0xbd5f9f42	-0.05459524
41	0xbe7f91cb	-0.2495796
42	0xbe34cec8	-0.17657006
43	0xbc252bfb	-0.010081287
44	0xbdc9bb11	-0.09850133
45	0xbd818563	-0.063242696

decoder.bn.weight f4 [64]
0	0x3f800000	1.0
1	0x3f800000	1.0
2	0x3f800000	1.0
3	0x3f800000	1.0
4	0x3f800000	1.0
5	0x3f800000	1.0
6	0x3f800000	1.0
7	0x3f800000	1.0
8	0x3f800000	1.0
9	0x3f800000	1.0
10	0x3f800000	1.0
11	0x3f800000	1.0
12	0x3f800000	1.0
13	0x3f800000	1.0
14	0x3f800000	1.0
15	0x3f800000	1.0
16	0x3f800000	1.0
17	0x3f800000	1.0
18	0x3f800000	1.0
19	0x3f800000	1.0
20	0x3f800000	1.0
21	0x3f800000	1.0
22	0x3f800000	1.0
23	0x3f800000	1.0
24	0x3f800000	1.0
25	0x3f800000	1.0
26	0x3f800000	1.0
27	0x3f800000	1.0
28	0x3f800000	1.0
29	0x3f800000	1.0
30	0x3f800000	1.0
31	0x3f800000	1.0
32	0x3f800000	1.0
33	0x3f800000	1.0
34	0x3f800000	1.0
35	0x3f800000	1.0
36	0x3f800000	1.0
37	0x3f800000	1.0
38	0x3f800000	1.0
39	0x3f800000	1.0
40	0x3f800000	1.0
41	0x3f800000	1.0
42	0x3f800000	1.0
43	0x3f800000	1.0
44	0x3f800000	1.0
45	0x3f800000	1.0
46	0x3f800000	1.0
47	0x3f800000	1.0
48	0x3f800000	1.0
49	0x3f800000	1.0
50	0x3f800000	1.0
51	0x3f800000	1.0
52	0x3f800000	1.0
53	0x3f800000	1.0
54	0x3f800000	1.0
55	0x3f800000	1.0
56	0x3f800000	1.0
57	0x3f800000	1.0
58	0x3f800000	1.0
59	0x3f800000	1.0
60	0x3f800000	1.0
61	0x3f800000	1.0
62	0x3f800000	1.0
63	0x3f800000	1.0

decoder.bn.bias f4 [64]
0	0x00000000	0.0
1	0x00000000	0.0
2	0x00000000	0.0
3	0x00000000	0.0
4	0x00000000	0.0
5	0x00000000	0.0
6	0x00000000	0.0
7	0x00000000	0.0
8	0x00000000	0.0
9	0x00000000	0.0
10	0x00000000	0.0
11	0x00000000	0.0
12	0x00000000	0.0
13	0x00000000	0.0
14	0x00000000	0.0
15	0x00000000	0.0
16	0x00000000	0.0
17	0x00000000	0.0
18	0x00000000	0.0
19	0x00000000	0.0
20	0x00000000	0.0
21	0x00000000	0.0
22	0x00000000	0.0
23	0x00000000	0.0
24	0x00000000	0.0
25	0x00000000	0.0
26	0x00000000	0.0
27	0x00000000	0.0
28	0x00000000	0.0
29	0x00000000	0.0
30	0x00000000	0.0
31	0x00000000	0.0
32	0x00000000	0.0
33	0x00000000	0.0
34	0x00000000	0.0
35	0x00000000	0.0
36	0x00000000	0.0
37	0x00000000	0.0
38	0x00000000	0.0
39	0x00000000	0.0
40	0x00000000	0.0
41	0x00000000	0.0
42	0x00000000	0.0
43	0x00000000	0.0
44	0x00000000	0.0
45	0x00000000	0.0
46	0x00000000	0.0
47	0x00000000	0.0
48	0x00000000	0.0
49	0x00000000	0.0
50	0x00000000	0.0
51	0x00000000	0.0
52	0x00000000	0.0
53	0x00000000	0.0
54	0x00000000	0.0
55	0x00000000	0.0
56	0x00000000	0.0
57	0x00000000	0.0
58	0x00000000	0.0
59	0x00000000	0.0
60	0x00000000	0.0
61	0x00000000	0.0
62	0x00000000	0.0
63	0x00000000	0.0

decoder.bn.running_mean f4 [64]
0	0x00000000	0.0
1	0x00000000	0.0
2	0x00000000	0.0
3	0x00000000	0.0
4	0x00000000	0.0
5	0x00000000	0.0
6	0x00000000	0.0
7	0x00000000	0.0
8	0x00000000	0.0
9	0x00000000	0.0
10	0x00000000	0.0
11	0x00000000	0.0
12	0x00000000	0.0
13	0x00000000	0.0
14	0x00000000	0.0
15	0x00000000	0.0
16	0x00000000	0.0
17	0x00000000	0.0
18	0x00000000	0.0
19	0x00000000	0.0
20	0x00000000	0.0
21	0x00000000	0.0
22	0x00000000	0.0
23	0x00000000	0.0
24	0x00000000	0.0
25	0x00000000	0.0
26	0x00000000	0.0
27	0x00000000	0.0
28	0x00000000	0.0
29	0x00000000	0.0
30	0x00000000	0.0
31	0x00000000	0.0
32	0x00000000	0.0
33	0x00000000	0.0
34	0x00000000	0.0
35	0x00000000	0.0
36	0x00000000	0.0
37	0x00000000	0.0
38	0x00000000	0.0
39	0x00000000	0.0
40	0x00000000	0.0
41	0x00000000	0.0
42	0x00000000	0.0
43	0x00000000	0.0
44	0x00000000	0.0
45	0x00000000	0.0
46	0x00000000	0.0
47	0x00000000	0.0
48	0x00000000	0.0
49	0x00000000	0.0
50	0x00000000	0.0
51	0x00000000	0.0
52	0x00000000	0.0
53	0x00000000	0.0
54	0x00000000	0.0
55	0x00000000	0.0
56	0x00000000	0.0
57	0x00000000	0.0
58	0x00000000	0.0
59	0x00000000	0.0
60	0x00000000	0.0
61	0x00000000	0.0
62	0x00000000	0.0
63	0x00000000	0.0

decoder.bn.running_var f4 [64]
0	0x3f800000	1.0
1	0x3f800000	1.0
2	0x3f800000	1.0
3	0x3f800000	1.0
4	0x3f800000	1.0
5	0x3f800000	1.0
6	0x3f800000	1.0
7	0x3f800000	1.0
8	0x3f800000	1.0
9	0x3f800000	1.0
10	0x3f800000	1.0
11	0x3f800000	1.0
12	0x3f800000	1.0
13	0x3f800000	1.0
14	0x3f800000	1.0
15	0x3f800000	1.0
16	0x3f800000	1.0
17	0x3f800000	1.0
18	0x3f800000	1.0
19	0x3f800000	1.0
20	0x3f800000	1.0
21	0x3f800000	1.0
22	0x3f800000	1.0
23	0x3f800000	1.0
24	0x3f800000	1.0
25	0x3f800000	1.0
26	0x3f800000	1.0
27	0x3f800000	1.0
28	0x3f800000	1.0
29	0x3f800000	1.0
30	0x3f800000	1.0
31	0x3f800000	1.0
32	0x3f800000	1.0
33	0x3f800000	1.0
34	0x3f800000	1.0
35	0x3f800000	1.0
36	0x3f800000	1.0
37	0x3f800000	1.0
38	0x3f800000	1.0
39	0x3f800000	1.0
40	0x3f800000	1.0
41	0x3f800000	1.0
42	0x3f800000	1.0
43	0x3f800000	1.0
44	0x3f800000	1.0
45	0x3f800000	1.0
46	0x3f800000	1.0
47	0x3f800000	1.0
48	0x3f800000	1.0
49	0x3f800000	1.0
50	0x3f800000	1.0
51	0x3f800000	1.0
52	0x3f800000	1.0
53	0x3f800000	1.0
54	0x3f800000	1.0
55	0x3f800000	1.0
56	0x3f800000	1.0
57	0x3f800000	1.0
58	0x3f800000	1.0
59	0x3f800000	1.0
60	0x3f800000	1.0
61	0x3f800000	1.0
62	0x3f800000	1.0
63	0x3f800000	1.0
