FarconVAE/result_german/german_downstream_s_2023_05_01_17_39_12_100109_ours.pth.pt (torch, 23812 bytes, 21 tensors)

fc1.weight f4 [64, 5]
000000 47 57 ae 3e 49 8e 88 3e 2e a7 ad 3e ca e0 9c be
       0.34050962 0.26671055 0.3391661 -0.3064025
000010 c5 d7 b4 3e 99 4c 77 3e c6 02 9a be e7 bf e7 3d
       0.3532087 0.24150313 -0.3008024 0.11315899
000020 e8 3c 7e 3e d8 7a af 3d 06 bb 86 bd b1 31 66 bd
       0.24827921 0.085683525 -0.06578641 -0.056199733
000030 44 93 b1 be 83 d1 a5 be 5a 92 8d be a0 3b 8b 3e
       -0.34682667 -0.32386407 -0.2765072 0.27193928
000040 f7 7b ca be 62 05 c0 3e 52 d2 77 3e 33 5f d8 3e
       -0.39547703 0.37504107 0.24201325 0.4226013
000050 e1 2f 81 3e c0 cf dd be e2 27 ec bb 6c 86 d7 be
       0.2523184 -0.43322563 -0.007206903 -0.42094743
000060 8e d5 a9 3e a1 b1 cd bd 41 cf b2 3e 2f e5 e2 be
       0.33170742 -0.10043646 0.34923747 -0.44315478
000070 4b fd b1 be 53 61 a6 bd be a3 c6 3e 8d ee 5d 3e
       -0.3476356 -0.08124032 0.387968 0.21673031
000080 87 62 f4 bd 2c b8 a8 3e 6f f7 ad 3e 86 b0 be 3e
       -0.11932855 0.32953012 0.3397784 0.37244052
000090 05 43 a0 be d1 17 5c 3e c1 bc db be a8 96 00 be
       -0.31301132 0.2149346 -0.42917445 -0.12557471
0000a0 f2 80 93 be d2 ca 3f 3d 62 51 2d be 08 89 c4 3e
       -0.28809315 0.046824284 -0.16925576 0.38385797
0000b0 58 a2 68 3e 00 7d 86 be 4c 85 38 bd 58 e9 a0 3e
       0.22718179 -0.26267242 -0.045048997 0.31428027
0000c0 f7 65 ec bd a0 ce 2b be e7 be 0d 3e 48 c0 91 be
       -0.11542886 -0.1677804 0.13842355 -0.2846701
0000d0 8e 0c cb be 31 d5 41 3e 32 3d 49 3e 30 e4 da 3d
       -0.39658016 0.18928982 0.1965225 0.106880546
0000e0 c5 71 7c 3e 3d 6f 71 bd 04 66 f1 bc 1f 1b 75 3e
       0.24652775 -0.058943976 -0.02946759 0.23936127
0000f0 a0 ba f8 3d db df 58 3e 83 22 f9 3d 89 26 67 be
       0.12144971 0.21179144 0.12164786 -0.22573294
000100 0b e3 bd 3e f3 37 00 3e 09 a9 c8 be e4 dc 8f bd
       0.37087283 0.12521343 -0.39191464 -0.070245534
000110 3f d7 de 3e 0a 44 92 3e 45 9f b8 3c 67 5b 1e 3e
       0.43523595 0.28567535 0.022536883 0.15464555
000120 81 17 23 3d 44 cd ad 3e e7 3a 4f be fa 21 9a be
       0.039817337 0.33945668 -0.20237313 -0.30104047
000130 5a e9 94 be 2d 1c fc bc ff eb 88 be 21 e3 93 be
       -0.29084283 -0.030775154 -0.2674255 -0.28884223
000140 3e 27 ee 3d 9a 8c a9 be 35 c5 05 3e a7 1f 6c bd
       0.116285786 -0.33115083 0.1306351 -0.057647374
000150 7d 7e bf 3e 4a cf b3 bd cc 08 6d be 17 10 9b 3e
       0.3740119 -0.087797716 -0.23147887 0.30285713
000160 88 f4 53 3c 97 7a 9e be 57 cf 89 3e 40 3b 8a 3e
       0.012936719 -0.30952904 0.26916 0.2699833
000170 51 27 c8 3e 62 fd 46 bd fe 45 d1 be 9f 9a 9d 3d
       0.39092496 -0.04858149 -0.40873712 0.07695507
000180 70 bf c5 3e ac f1 19 3e 0a ab ac 3e 24 ae d4 3d
       0.38622618 0.15033597 0.33724242 0.10384777
000190 bb e5 af bd fa dd 5d 3e 00 33 46 be 2c b2 04 3e
       -0.085887395 0.21666709 -0.19355392 0.12958592
0001a0 8d 53 d7 be fe 85 0f be c0 53 22 be 9e 04 d2 3d
       -0.42055932 -0.14015958 -0.1585226 0.10254787
0001b0 82 d5 55 be e5 d3 d8 3e 5d 86 d6 be d8 a1 e0 be
       -0.20882228 0.42349163 -0.41899386 -0.43873477
0001c0 8c bd a8 bc 51 e5 87 bd 4e 94 2a 3d a2 df 23 be
       -0.020598195 -0.066355355 0.04164534 -0.16003278
0001d0 bc 83 61 be df fd d1 bd af 5b b2 3e 6d 9e ca bd
       -0.22022909 -0.102535 0.34835574 -0.098934986
0001e0 4a 55 e1 3e 30 94 a0 be cc d4 66 3e 17 3e de be
       0.44010383 -0.31363058 0.22542113 -0.43406746
0001f0 89 0b 07 3e 32 18 e8 bd 2b ec 47 3e 92 90 be 3e
       0.13187994 -0.1133274 0.19523685 0.37219673
000200 bd 27 69 be 93 b7 04 3d 33 61 a1 3e 48 ee c2 be
       -0.22769065 0.032401633 0.3151947 -0.3807242
000210 70 21 98 3d 8f 62 82 3e a2 53 bf bd e5 4e b4 be
       0.07428253 0.2546582 -0.093421236 -0.35216442
000220 c7 70 87 be fb cc e5 bc f4 ed b5 be 07 99 c2 3e
       -0.2645323 -0.028051844 -0.35533106 0.38007376
000230 81 34 c2 3e c9 03 af 3c b6 e0 a4 bd d5 df 1c be
       0.37930682 0.02136411 -0.08050673 -0.1531976
000240 ba f4 34 be 57 7a 76 3e ae 33 d6 3e 16 d7 59 3e
       -0.17671481 0.24070106 0.41836303 0.21273455
000250 1b 3b 28 be 4d 60 f5 3d 19 01 4e 3e 33 ef 40 3e
       -0.16428797 0.119812585 0.20117606 0.18841247
000260 10 21 cc 3d 6e 11 60 bd 97 41 d0 be bb a7 6b 3d
       0.09967244 -0.054704122 -0.4067504 0.057533007
000270 69 be c9 bc d7 07 ca 3e 18 ed 43 3e 4f 80 92 be
       -0.024626927 0.39459106 0.19133413 -0.28613517
000280 01 09 64 be 30 8f 6f 3e c1 7d e1 3e 91 2f 8f 3e
       -0.2226906 0.23394465 0.44041255 0.27965978
000290 4a 8c 06 bd 3e 29 4c be 7f 3f 4e be 96 32 9b 3e
       -0.032848634 -0.19937608 -0.2014141 0.30312032
0002a0 1c 23 83 3d e3 fd bf 3e 0e ac ac 3d d1 4e c9 3c
       0.06403181 0.37498388 0.08431254 0.024573715
0002b0 54 1e ca 3e c0 25 1f be a7 2b d1 3e 53 af 83 be
       0.39476264 -0.15541744 0.40853617 -0.257197
0002c0 8a fa 05 bd 54 0c db be 16 28 be 3e 20 f9 68 3e
       -0.032709636 -0.42782843 0.37139958 0.22751284
0002d0 4d 80 07 3e a0 f5 5e be 18 fb d7 bd 52 0e b5 be
       0.13232537 -0.21773386 -0.10545939 -0.35362488
0002e0 33 e2 29 3e 60 39 1e 3b d8 c6 06 bd f3 53 dd be
       0.16590194 0.0024143085 -0.032904476 -0.4322811
0002f0 b0 01 b8 be 97 b6 16 be 83 e1 b2 be 5c f0 88 bd
       -0.35938787 -0.1471809 -0.34937677 -0.0668647
000300 a1 57 9c 3e c8 af 8b be fd d9 c0 3e c3 1c dc 3d
       0.30535606 -0.27282548 0.37666312 0.10747673
000310 44 ba dc 3e 1f b2 0d be 1b fc 6c bd 1b 0e de 3e
       0.4311086 -0.13837479 -0.057857614 0.43370137
000320 71 8d 2a 3e 8b 09 14 3e 5d c1 d7 3e f5 9c da be
       0.16655518 0.14456765 0.42139712 -0.42697874
000330 37 e2 cf be 4e 21 80 3e 1c 50 ec 3d e4 c7 78 3e
       -0.40602276 0.2502541 0.11538717 0.24295002
000340 36 28 d4 be 10 ed c4 bd 30 74 72 bd fc 01 91 bd
       -0.4143693 -0.096155286 -0.059192836 -0.070804566
000350 3d e5 8a 3d f4 c4 c6 bd 8e 9f c5 bd 63 e3 12 3e
       0.06782005 -0.097055346 -0.09649573 0.14344554
000360 98 7e 9d be 8b f1 9f be 5c 29 77 be e7 75 4b 3e
       -0.30760646 -0.3123897 -0.24136871 0.19869195
000370 d5 1f 92 be ee 72 a7 bc 6e f9 15 be ae f9 82 3d
       -0.2853991 -0.020440545 -0.14645931 0.06395279
000380 49 e1 db 3e c1 55 63 be 1a 8f 94 3e 8b 13 ca 3e
       0.42945316 -0.22200681 0.29015428 0.39468035
000390 a4 c8 7e 3e a3 36 8a 3e fe da 87 be 0a aa d6 bd
       0.24881226 0.2699481 -0.26534265 -0.10481651
0003a0 69 79 47 3e 68 38 71 be 22 8f c6 bc 66 05 e1 be
       0.19479908 -0.23556674 -0.024238173 -0.4394943
0003b0 18 4a 9f be 3c e5 32 3d c5 10 67 be 82 01 de bd
       -0.31111217 0.043675646 -0.22564991 -0.10840131
0003c0 9f f2 76 3e b9 e5 aa 3e ae 00 12 3e fa 02 be be
       0.2411599 0.3337839 0.14258072 -0.37111646
0003d0 38 6f d8 be 23 08 53 be 8b f8 aa 3e 8e 9f 6f 3e
       -0.42272353 -0.20608573 0.33392748 0.23400709
0003e0 cf 24 0d 3e 8c 32 39 be 0e 21 1d 3e e5 97 c1 be
       0.13783573 -0.18085688 0.1534464 -0.378112
0003f0 91 87 3f 3e d3 88 8e 3e de ae 83 3d 06 2a aa 3d
       0.18704058 0.27838764 0.06429838 0.083087966

fc1.bias f4 [64]
000000 d2 32 8e be df 44 ba bd 11 02 46 3c 20 0b 52 be
       -0.27773148 -0.09095167 0.012085454 -0.20512056
000010 fb a8 c3 bd 43 7d a0 be 70 9f 88 be 70 17 3a 3e
       -0.09553715 -0.31345567 -0.2668414 0.18173003
000020 c5 a2 28 be be c8 15 3e d6 d5 38 3e 38 24 42 be
       -0.16468342 0.14627358 0.18050322 -0.18959129
000030 2b 67 54 be 1c ee c7 3e bf fc 44 3e 80 4d 4d bb
       -0.2074248 0.3904885 0.1923704 -0.0031326711
000040 a9 f9 dc be bd 05 89 3e 4f 92 bb be c3 e2 6e be
       -0.43159226 0.2676219 -0.36635062 -0.2332869
000050 d2 39 75 be 95 2d 24 3d 25 d2 9c 3e ee a0 73 be
       -0.23947838 0.040082533 0.30629078 -0.23791859
000060 be 60 49 3e f5 c4 68 be 67 5e b7 3e aa 43 a4 be
       0.1966581 -0.22731383 0.3581421 -0.32082874
000070 89 5a b9 bd 99 80 65 3e 04 86 a6 3e e9 f7 73 be
       -0.09050471 0.22412337 0.3252412 -0.23825039
000080 b4 94 8a 3e 89 d9 a4 be 7d 45 f1 3d 92 d6 a9 3e
       0.27066576 -0.32197216 0.11780832 0.33171517
000090 92 48 c7 3e 82 33 58 bd ac c1 01 3d c4 75 96 be
       0.38922554 -0.052783497 0.03167884 -0.29386723
0000a0 e5 9c a4 bd ea b5 e1 be 75 6c 5a 3d 5d 7e fe 3d
       -0.08037738 -0.44084102 0.05332609 0.12426446
0000b0 3e 91 6d be 17 0c 38 bd d5 92 fa 3c 3d 63 59 3e
       -0.23199937 -0.044933405 0.030587593 0.21229263
0000c0 77 57 c2 3e 33 d3 f1 bd ed 99 2d bb 73 e6 5a be
       0.37957355 -0.11807861 -0.0026489452 -0.21376972
0000d0 85 63 a1 3d 4d 7f a9 3e 6d f3 ca be e5 de 02 3e
       0.0788031 0.33104935 -0.39638844 0.1278034
0000e0 ba 10 84 3e 29 87 26 3d 78 cb 8f be 9b 7a 87 3e
       0.2579401 0.040656243 -0.28084922 0.26460728
0000f0 fd 28 82 bc f8 0f c0 be 08 21 57 3e 32 52 22 3e
       -0.015888685 -0.37512183 0.21008694 0.15851668

fc2.weight f4 [64, 64]
000000 eb 46 9f 3d 37 65 99 bc 86 55 d6 3d 94 b4 f6 3d
       0.077771984 -0.01872502 0.10465531 0.12046161
000010 83 f0 d7 3d 6d eb 2a bd d9 8d ac 3d 30 01 68 bd
       0.10543921 -0.041728426 0.08425493 -0.056641757
000020 9b 2b 20 bd 83 73 f8 bd 3a 55 ce 3d 94 7e f0 3d
       -0.039104085 -0.12131407 0.100748494 0.11742893
000030 ec c8 72 3d 24 0a 4c bd 9b 2e fc bd 04 19 5b bc
       0.059273645 -0.04981436 -0.12313577 -0.013372663
000040 c1 14 94 3d 98 63 ae bc ac da ad 3c a7 30 68 ba
       0.07230521 -0.021287724 0.021222435 -0.00088573474
000050 7b 5e ad bd 47 fb f3 bd e7 4c ab bd 8a f2 f9 3d
       -0.08465286 -0.11913162 -0.08364277 0.12204464
000060 77 8e 4f 3d b8 1a a3 3c 5c 68 0a bd 57 20 93 bd
       0.050672974 0.019910201 -0.03379093 -0.07183903
000070 ba 5b b7 3d cd 3b 15 bd 75 b5 f2 3d 60 8d 0d 3c
       0.08953042 -0.036433984 0.118510164 0.008639663
000080 45 b9 7b bd d7 d4 9e bd 24 32 a6 bd 9a 1d 77 3d
       -0.061455984 -0.0775544 -0.08115032 0.060330965
000090 99 af 3b bd 9b e7 2f 3d f4 2d 94 bb 96 36 67 3d
       -0.04582176 0.042945486 -0.0045220796 0.05644854
0000a0 dd 81 a3 3d ca 62 b3 bd d1 32 00 3d 94 91 fb 3c
       0.07983754 -0.08759077 0.031298462 0.030709065
0000b0 57 6a 44 bd 9f cf 45 bd a3 fd 05 bd 19 9d f9 bb
       -0.047952976 -0.048293706 -0.03271259 -0.0076176045
0000c0 96 6c 35 3c ce 90 08 3d 2b c3 16 bd 2e 19 7c bd
       0.011073252 0.03334122 -0.03680722 -0.06154745
0000d0 bb ef 5a 3c 2a 5c d1 3d ec cf c3 bd 36 46 48 3d
       0.01336282 0.10222657 -0.09561142 0.048895083
0000e0 00 0f ae 3d fe d6 4c bc 61 23 59 bd 09 c3 bc bd
       0.08498955 -0.01250243 -0.053012256 -0.092168875
0000f0 9e 62 d8 3d 21 85 65 bc 17 a9 e4 3d 7d 96 b5 bd
       0.10565685 -0.014008791 0.11165064 -0.08866594
000100 e3 88 c8 3d c9 35 ba bb cf 59 d9 3d 06 66 fe 3c
       0.09791734 -0.005682681 0.10612833 0.031054508
000110 21 03 08 3d d5 b9 9f bd 92 3a 3f bd 65 5d b5 bc
       0.03320611 -0.077991165 -0.046686716 -0.02213926
000120 33 c2 aa 3c cd 92 fa bd 3f 7d 93 bd 2f 2f b7 3c
       0.020844555 -0.12235031 -0.07201623 0.022361366
000130 34 16 90 3c 22 a9 ce bc 6d aa e9 3d d6 d2 28 bd
       0.017588712 -0.025227133 0.11409459 -0.041216694
000140 ab cf 6c bd 2e f8 dc bb 6d cf 94 3d 79 76 e7 bd
       -0.057815235 -0.0067434525 0.07266126 -0.11301894
000150 4b cc f4 bd ef cf f7 3d b3 d1 57 3d e6 7d 00 3d
       -0.11953028 0.12100207 0.05269022 0.031370066
000160 99 5c f8 3d c8 ff 66 bd 63 af d3 3d 98 43 ea bd
       0.121270366 -0.056396276 0.10336187 -0.11438674
000170 c8 54 9f bd f5 ce 0a bd 72 54 d1 3b 89 d5 e8 bd
       -0.077798426 -0.033888776 0.0063882405 -0.113688536
000180 05 ad ef ba d5 c9 44 3d f8 3a d2 bd 69 5a f7 3d
       -0.0018285817 0.048044045 -0.10265154 0.12077791
000190 09 47 60 3d e3 1f bf 3d 27 0b bd bd 1b 51 e6 bd
       0.054755244 0.09332254 -0.09230643 -0.112459384
0001a0 b6 84 c4 bc 9e b9 6a 3c dd 3b 8b 3d bd 4d 27 3d
       -0.023989063 0.014326481 0.067985274 0.04084562
0001b0 25 22 c5 bc 20 f0 80 3d 16 35 cc bc e2 fc 5a bd
       -0.024064133 0.062958 -0.024927657 -0.053463824
0001c0 da c2 91 3d e4 d5 ee 3d ad e9 9b 3d 25 af f1 bd
       0.07117243 0.1166189 0.076129295 -0.11800984
0001d0 11 52 78 bd f8 10 06 3c 5b 18 64 3d 46 34 0a bc
       -0.06062514 0.008182757 0.05568729 -0.0084353145
0001e0 e5 f9 b1 bc 60 fb c6 bd 31 c3 2d 3d 13 fe ea 3d
       -0.021725604 -0.09715915 0.042422477 0.11474242
0001f0 08 b0 84 bd e6 73 7b 3d 37 39 91 bd 6f 05 da 3d
       -0.06478888 0.061389826 -0.07090991 0.106455676
000200 93 15 9c bc 41 4a da 3d 78 d7 00 3d fa 0c cf bc
       -0.019053256 0.10658694 0.031455487 -0.025274742
000210 99 e9 e7 bd 38 29 90 bd 07 bf a0 3d 35 25 fd bd
       -0.11323852 -0.07039112 0.078489356 -0.12360612
000220 c7 a9 a8 3d a9 b5 e5 3d 69 58 5d 3d dd 5e 8e 3d
       0.082355075 0.112162896 0.054039393 0.069516875
000230 05 82 e3 3c 4b 4b 58 bd 31 dd e9 3d 29 82 39 bd
       0.02777196 -0.05280618 0.11419142 -0.045290146
000240 8c e1 38 3c 6b 28 88 bd 83 ba 5f 3c ad 2e 8e 3d
       0.011284243 -0.06648334 0.013655308 0.069424964
000250 59 a5 b6 bd 50 14 95 3d 0d 57 b3 3d 1f d8 24 bd
       -0.08918256 0.07279265 0.08756838 -0.04024517
000260 2e f3 92 3c 2d 3a 71 bd 5b 66 c4 3d 41 ec d2 3d
       0.017938223 -0.05889337 0.09589835 0.10298968
000270 26 19 2b bd bf 0a db 3d c5 3e cf bd ed b8 d2 3c
       -0.04177203 0.10695409 -0.10119394 0.025722945
000280 7b 24 db 3d ed df 08 bd b9 ad 5f bd e7 53 de 3d
       0.107003175 -0.033416677 -0.054609034 0.10855847
000290 65 90 65 bc d7 d6 e8 bd fe a8 e5 bd 4b 9a b5 3d
       -0.014011477 -0.113691024 -0.11213873 0.0886732
0002a0 43 ad 91 bd 45 a4 95 3c 59 5e fa bc a9 e7 c8 bd
       -0.07113125 0.018266806 -0.030562567 -0.09809811
0002b0 cb 2e c0 3d 6f fa 2f 3d 99 41 61 bd 28 5a ef 3d
       0.09383925 0.04296344 -0.0549942 0.11687118
0002c0 41 b9 9d bd df ac ae bd 5b c3 51 bc 37 17 eb bb
       -0.0770135 -0.08529066 -0.012802924 -0.0071743983
0002d0 4a bf b8 3b fb 89 61 bc 59 ac c2 bd 47 cb 71 3d
       0.005638038 -0.013765807 -0.09505529 0.05903175
0002e0 df bb cb bd b2 d7 ee 3d 93 e1 54 bd 25 93 b3 3c
       -0.09947943 0.11662234 -0.051972937 0.02192075
0002f0 fb c7 ca 3d 25 02 9f bc 3e 70 90 3d cb 87 ae 3d
       0.099014245 -0.019410202 0.070526585 0.08521994
000300 2a f9 63 bd 4e ec f4 3d 40 8d 73 bd c3 bc 97 bd
       -0.055657543 0.11959134 -0.05946088 -0.0740905
000310 86 7c e4 3c dc 7b c5 3d 18 b1 9d 3c b5 44 e8 3d
       0.027891409 0.09642765 0.019249484 0.1134123
000320 c0 0d 64 3d 26 48 64 3c e1 95 bf bd 04 c8 5c 3c
       0.055677176 0.013933217 -0.09354759 0.013475422
000330 8d fa b8 3d f1 cb 00 be 73 1a bf bd f5 f0 e9 bd
       0.09032164 -0.12577797 -0.09331217 -0.11422912
000340 e5 be 35 bd f8 a4 ff bd 71 17 9d 3d b4 84 ce 3d
       -0.044371504 -0.12482637 0.07670487 0.10083905
000350 5f 5e d0 bd cd 85 1a bd a6 a7 97 3d 12 f8 3d bd
       -0.1017425 -0.03772526 0.07405023 -0.046379156
000360 0b ce e0 3d 4f bd c9 3d 45 87 e3 bd f7 7e c0 bd
       0.109767996 0.09850561 -0.11109785 -0.093992166
000370 60 94 e1 3c 9b 09 b1 3d e7 8f c1 3d 01 bc 93 bd
       0.027536571 0.0864441 0.09451275 -0.07213593
000380 bc c1 e1 bd 15 bc f4 bd 3b ce d7 bd 7e 29 50 3d
       -0.1102328 -0.11949936 -0.10537382 0.05082082
000390 3d 8c 34 bd 1d d3 dc bc 8c 29 c2 bd cf b3 38 bd
       -0.044079054 -0.026956135 -0.09480581 -0.045093354
0003a0 3b 83 f5 3d 43 75 c7 bd ce c0 91 bc 85 9d c9 3b
       0.11987921 -0.09739163 -0.017792132 0.006152811
0003b0 ce e0 15 bd f7 49 ea bd fd 2b a4 3c 2b 9b 54 3d
       -0.036591344 -0.11439889 0.020040506 0.051905792
0003c0 cb 80 a8 3d 52 d9 dd 3d cd 47 b1 bd 71 a0 40 bc
       0.0822769 0.10832466 -0.08656273 -0.011757002
0003d0 d9 e8 ea bd ec 7e 00 be d3 a4 8f 3d 4d 9b d0 3c
       -0.114701934 -0.12548417 0.070138596 0.025464678
0003e0 36 df a9 bc 12 8a 2b bd 75 a7 ca bd 11 8f c5 bd
       -0.020736318 -0.04187972 -0.09895221 -0.096464284
0003f0 76 3f bb 3d 63 7f af bd a6 8d f5 3c 26 08 7d bd
       0.091429636 -0.08569219 0.02997477 -0.06177535

fc2.bias f4 [64]
000000 1b 62 88 bd d6 b2 ab bd 80 d8 a7 3c df 71 6b 3d
       -0.06659337 -0.083837196 0.020488977 0.057481643
000010 b5 43 a2 bd 40 22 b8 bd fd 06 20 bd 71 98 89 ba
       -0.0792307 -0.08990908 -0.039069165 -0.0010497702
000020 b1 fb f2 bc da 61 a4 bc 8b ea b6 bd d3 ef f0 3d
       -0.029661031 -0.02006619 -0.08931454 0.11764493
000030 38 7d 54 3d 25 f0 83 bd aa 63 bd 3d f9 86 9b bd
       0.05187723 -0.06442288 0.09247525 -0.07594103
000040 f3 0c e9 bd 3d c8 70 3d 91 3a 57 3b a8 e7 42 bb
       -0.11379423 0.058784712 0.0032841305 -0.0029740129
000050 d2 b4 06 3d 50 20 e8 bd d2 a4 a3 bd 3f f1 25 bb
       0.032887287 -0.11334288 -0.07990421 -0.0025320796
000060 8f f8 1a bd 96 19 f8 3d eb 27 e2 3d 26 b4 ba bd
       -0.0378347 0.12114255 0.1104277 -0.09116392
000070 4b 70 94 bd a2 9c a9 bd d8 db de bd 38 52 8e bd
       -0.07247981 -0.082818285 -0.108817756 -0.06949276
000080 da 0d a0 3d 92 38 83 3c 37 bd 4a 3d 63 24 33 bd
       0.07815142 0.016018186 0.049496856 -0.043735873
000090 33 16 72 bd b5 10 62 bd 01 f9 46 bd fb ec fd 3c
       -0.059103202 -0.055191714 -0.048577312 0.03099679
0000a0 91 e3 fd bc d6 05 e6 3b ad b6 d3 bd e8 7d bf 3d
       -0.030992301 0.0070197387 -0.10337577 0.093501866
0000b0 87 f7 31 bd 31 0c 68 bd ff fc b6 3b c0 1b e0 bc
       -0.04344895 -0.05665225 0.0055843587 -0.027356982
0000c0 7f 66 ff bc c7 6d 40 bd e9 c2 f1 3d ab 46 a2 bd
       -0.031176804 -0.04697969 0.11804754 -0.07923635
0000d0 e7 66 15 3d 72 6a b0 bd 19 1d 27 bd 0b c3 30 3d
       0.03647509 -0.08614053 -0.040799234 0.043154757
0000e0 88 dc 2a 3d 52 9c 40 3d 9d 28 87 3c 50 ff fd 3b
       0.04171422 0.04702408 0.016498858 0.007751383
0000f0 68 49 f8 bd 60 ec 32 3d 6b d7 11 bc b2 4a ac bd
       -0.12123376 0.043682456 -0.008901457 -0.084126845

out.weight f4 [1, 64]
000000 eb ff a5 3a 0d 72 52 bd a2 ed d2 3d f3 72 00 3e
       0.001266477 -0.0513783 0.10299231 0.1254385
000010 aa db c4 bd 27 03 0b 3d aa 18 a3 3d 23 e0 2b 3d
       -0.0961221 0.033938553 0.07963689 0.0419618
000020 f0 e2 d5 bd 8a 68 db 3d 4e e5 eb bd 77 e9 b3 3c
       -0.104436755 0.107132986 -0.11518346 0.02196191
000030 cc f1 ac bd a6 50 d3 3d ae db d2 bd 99 77 4d bd
       -0.084445566 0.10318117 -0.10295807 -0.050162885
000040 40 ee c8 3d e2 1d b0 bd 1c 84 c3 bd 61 74 a7 bc
       0.098110676 -0.0859945 -0.09546682 -0.020441236
000050 47 8c 69 3d 88 ac 80 3d 9d 91 5c 3c 34 38 b1 3d
       0.057018545 0.06282908 0.013462451 0.08653298
000060 b8 a6 dc bd 64 76 88 3d e4 0a 96 3d a7 85 48 3d
       -0.107739866 0.06663206 0.07326296 0.048955586
000070 98 c1 c9 3d 51 46 4b bd 02 37 8a bd fc ef 8d 3d
       0.09851378 -0.049627606 -0.06748773 0.06930539
000080 2f e1 f9 3c 38 75 9d 3d 42 6a b5 3d 47 b8 94 3c
       0.030502884 0.07688373 0.08858158 0.018154277
000090 f0 77 cd 3d d8 cd ed bd 31 23 4d bd 3f 3b 49 3d
       0.10032642 -0.11611527 -0.05008239 0.049128767
0000a0 70 b3 97 3d 3a 9f ce 3d 9f fd 7e 3d f3 f1 7d bc
       0.07407272 0.10088964 0.06225359 -0.01549958
0000b0 11 8f ec bc d1 4b 1f bd 58 06 c5 bd c4 cd c9 bd
       -0.028876813 -0.038890664 -0.096203506 -0.098537
0000c0 b6 e3 ee bd 3e 14 a1 3d 1b f8 00 3d 3b 73 a8 3b
       -0.11664526 0.07865189 0.03148661 0.0051406897
0000d0 96 81 f1 bb 3d d3 12 3c ce ec 42 3c 67 d8 5b 3d
       -0.007370184 0.008961496 0.011897279 0.053673174
0000e0 09 28 24 bd 45 65 65 bd 36 16 b7 3d 6a 9e b0 bd
       -0.040077243 -0.05600478 0.08939783 -0.08623965
0000f0 66 60 f4 3d 36 a9 48 3b e0 41 81 bd cb a3 18 3d
       0.11932449 0.0030618436 -0.06311393 0.03726558

bn.weight f4 [64]
000000 c5 20 80 3f 77 be 7f 3f c5 20 80 3f c5 20 80 3f
       1.001 0.999 1.001 1.001
000010 77 be 7f 3f c5 20 80 3f c5 20 80 3f c5 20 80 3f
       0.999 1.001 1.001 1.001
000020 77 be 7f 3f c5 20 80 3f 77 be 7f 3f c5 20 80 3f
       0.999 1.001 0.999 1.001
000030 77 be 7f 3f c5 20 80 3f 77 be 7f 3f 77 be 7f 3f
       0.999 1.001 0.999 0.999
000040 77 be 7f 3f 77 be 7f 3f 77 be 7f 3f 77 be 7f 3f
       0.999 0.999 0.999 0.999
000050 c5 20 80 3f c5 20 80 3f c5 20 80 3f c5 20 80 3f
       1.001 1.001 1.001 1.001
000060 77 be 7f 3f c5 20 80 3f c3 20 80 3f c4 20 80 3f
       0.999 1.001 1.0009998 1.0009999
000070 c5 20 80 3f 77 be 7f 3f 77 be 7f 3f c5 20 80 3f
       1.001 0.999 0.999 1.001
000080 c5 20 80 3f 77 be 7f 3f c5 20 80 3f c4 20 80 3f
       1.001 0.999 1.001 1.0009999
000090 77 be 7f 3f 77 be 7f 3f 77 be 7f 3f c5 20 80 3f
       0.999 0.999 0.999 1.001
0000a0 c5 20 80 3f c5 20 80 3f c5 20 80 3f 77 be 7f 3f
       1.001 1.001 1.001 0.999
0000b0 77 be 7f 3f 77 be 7f 3f 77 be 7f 3f 77 be 7f 3f
       0.999 0.999 0.999 0.999
0000c0 77 be 7f 3f c4 20 80 3f c5 20 80 3f c4 20 80 3f
       0.999 1.0009999 1.001 1.0009999
0000d0 c4 20 80 3f c5 20 80 3f c5 20 80 3f c5 20 80 3f
       1.0009999 1.001 1.001 1.001
0000e0 77 be 7f 3f 77 be 7f 3f c5 20 80 3f 77 be 7f 3f
       0.999 0.999 1.001 0.999
0000f0 77 be 7f 3f c5 20 80 3f 77 be 7f 3f c5 20 80 3f
       0.999 1.001 0.999 1.001

bn.bias f4 [64]
000000 0f 12 83 3a 56 12 83 ba 62 12 83 3a 63 12 83 3a
       0.0009999889 -0.0009999971 0.0009999985 0.0009999987
000010 66 12 83 ba 5a 12 83 3a 62 12 83 3a 50 12 83 3a
       -0.000999999 0.0009999976 0.0009999985 0.0009999964
000020 64 12 83 ba 64 12 83 3a 65 12 83 ba 3d 12 83 3a
       -0.0009999988 0.0009999988 -0.0009999989 0.0009999942
000030 62 12 83 ba 64 12 83 3a 62 12 83 ba 5b 12 83 ba
       -0.0009999985 0.0009999988 -0.0009999985 -0.0009999977
000040 4b 12 83 3a 5d 12 83 ba 5b 12 83 ba 42 12 83 ba
       0.0009999959 -0.000999998 -0.0009999977 -0.0009999948
000050 5f 12 83 3a 5b 12 83 3a 46 12 83 3a 5d 12 83 3a
       0.0009999982 0.0009999977 0.0009999953 0.000999998
000060 5e 12 83 ba 53 12 83 3a 59 12 83 3a 50 12 83 3a
       -0.0009999981 0.0009999968 0.0009999975 0.0009999964
000070 64 12 83 3a 50 12 83 ba 64 12 83 ba 5d 12 83 3a
       0.0009999988 -0.0009999964 -0.0009999988 0.000999998
000080 49 12 83 3a 54 12 83 ba 60 12 83 3a 36 12 83 3a
       0.0009999956 -0.0009999969 0.0009999983 0.0009999934
000090 50 12 83 3a 67 12 83 ba 56 12 83 ba 59 12 83 3a
       0.0009999964 -0.0009999991 -0.0009999971 0.0009999975
0000a0 63 12 83 3a 62 12 83 3a 5f 12 83 3a 2d 12 83 ba
       0.0009999987 0.0009999985 0.0009999982 -0.0009999924
0000b0 3c 12 83 ba 57 12 83 ba 66 12 83 ba 66 12 83 ba
       -0.0009999941 -0.0009999973 -0.000999999 -0.000999999
0000c0 66 12 83 ba 54 12 83 3a 57 12 83 3a fc 11 83 3a
       -0.000999999 0.0009999969 0.0009999973 0.0009999867
0000d0 10 11 83 ba 53 12 83 3a 03 12 83 3a 5e 12 83 3a
       -0.0009999592 0.0009999968 0.0009999875 0.0009999981
0000e0 4c 12 83 ba 5d 12 83 ba 63 12 83 3a 5c 12 83 ba
       -0.000999996 -0.000999998 0.0009999987 -0.0009999978
0000f0 5d 12 83 3a 4f 11 83 3a 57 12 83 ba 5f 12 83 3a
       0.000999998 0.0009999665 -0.0009999973 0.0009999982

bn.running_mean f4 [64]
000000 58 26 37 3d 5b 02 47 bc be a5 df 38 88 91 84 bc
       0.0447143 -0.012146558 0.000106643405 -0.016182676
000010 b8 b8 d1 3c a5 27 55 bb 11 e5 9b 3c dd e4 80 3c
       0.025600776 -0.003252485 0.019030126 0.01573413
000020 80 9a 19 3c fc 8b 8b bd 1f 2c d1 3c e6 ec 0b 3d
       0.009375215 -0.06813809 0.025533734 0.03416147
000030 9f e4 49 3d ce a7 00 3d 60 ea 4a bc 98 b1 62 bd
       0.049290296 0.03141003 -0.012384981 -0.055345148
000040 08 8b c5 bc 16 1d 8c bc 41 e1 77 bd 53 da 0e 39
       -0.024114147 -0.017103713 -0.060517553 0.00013623507
000050 8c ee d1 bc 57 60 cb 3c 86 02 f5 bb 99 f5 63 bd
       -0.025626443 0.024826212 -0.0074771075 -0.055654142
000060 09 71 3e 3d 63 15 5b 3a 4a 11 57 bc 15 44 45 bd
       0.046494517 0.0008357374 -0.013126681 -0.04816063
000070 b5 de f7 bb a1 52 de 3c a6 9b c7 bc bd 12 96 bd
       -0.0075643905 0.02713901 -0.024366211 -0.07327793
000080 94 31 33 3c e2 d3 c9 bc 87 1a c1 3d 9a 93 17 3d
       0.010937113 -0.024637166 0.09428888 0.037006
000090 cc 74 2d 3d 3a 06 9d bc 0a 22 28 3d c0 ba 48 3d
       0.042347714 -0.019168008 0.041048087 0.049006224
0000a0 26 07 0d bd 71 d6 6d 3c 06 c5 90 bc 11 f4 81 3d
       -0.034430645 0.014516459 -0.017672073 0.0634538
0000b0 ee 7d 03 3d 2d 0b 97 3c 37 0d 43 ba f7 f1 57 bd
       0.032102518 0.018437946 -0.0007440629 -0.05272099
0000c0 82 1d 64 3d 7f 3e d8 bc af 4f 5e bc a1 1d 09 bd
       0.055692203 -0.026396988 -0.013568803 -0.033475522
0000d0 93 34 60 bd 97 1f 8e bc 7f 1d d4 bc 67 a4 91 bb
       -0.05473764 -0.017349048 -0.025892971 -0.004444647
0000e0 4a 97 41 3d dd 93 07 3d de 93 88 bd b8 16 a5 3d
       0.04726342 0.033099998 -0.066688284 0.08060974
0000f0 d7 13 5c bd b4 66 df bd 69 f0 0a 3d 66 63 28 3d
       -0.05372986 -0.10908261 0.03392068 0.04111042

bn.running_var f4 [64]
000000 d2 b8 84 3f a3 33 54 3f f7 04 61 3f d4 cd 65 3f
       1.0368903 0.8289129 0.878982 0.89767194
000010 37 80 58 3f 4b 0e 5b 3f 4e 29 71 3f 7c 62 57 3f
       0.8457064 0.85568684 0.9420365 0.8413465
000020 5b 32 57 3f cf df 58 3f 5f f4 59 3f 6f e5 5f 3f
       0.8406121 0.84716505 0.85138506 0.8745946
000030 90 0e 69 3f 65 e9 5c 3f 42 4f 53 3f c9 af 6e 3f
       0.91037846 0.8629363 0.8254281 0.93236977
000040 66 d2 55 3f 18 a3 60 3f 05 73 61 3f 47 0b 66 3f
       0.8352417 0.8774886 0.8806613 0.8986096
000050 22 33 57 3f fa 19 54 3f 5b d7 75 3f fc 26 63 3f
       0.840624 0.8285214 0.9603173 0.8873136
000060 7e db 5a 3f d6 3c 5b 3f ee 0e 59 3f d6 2c 5b 3f
       0.8549117 0.85639703 0.84788406 0.8561529
000070 f8 ee 56 3f be 6f 7c 3f 5c 5f 54 3f 6f 41 55 3f
       0.8395839 0.98608005 0.82958007 0.8330297
000080 aa 25 5b 3f 3f 46 56 3f 34 79 67 3f 9e f5 5c 3f
       0.85604346 0.8370094 0.90419316 0.8631228
000090 c1 3c 55 3f 2b 23 5d 3f c2 f2 57 3f 9b c3 72 3f
       0.8329583 0.8638179 0.84354794 0.9482972
0000a0 e9 0d 67 3f b0 59 60 3f b7 fb 56 3f ad 8f 5a 3f
       0.902556 0.8763685 0.83977836 0.8537548
0000b0 b9 59 54 3f 70 0f 65 3f 35 aa 57 3f a5 2c 70 3f
       0.82949406 0.8947668 0.8424409 0.9381812
0000c0 80 93 5f 3f e4 0c 5a 3f 22 1a 57 3f b1 b8 57 3f
       0.8733444 0.8517592 0.8402425 0.8426619
0000d0 bb 12 53 3f e1 77 58 3f 39 a4 5f 3f 7b 7c 56 3f
       0.82450455 0.8455792 0.8735996 0.8378369
0000e0 70 2f 55 3f 71 10 68 3f b7 11 60 3f 48 93 56 3f
       0.8327551 0.9065009 0.8752703 0.83818483
0000f0 62 c0 56 3f eb 36 64 3f 5b 73 56 3f 87 a9 56 3f
       0.838873 0.891463 0.8376977 0.8385243

net.0.weight f4 [64, 5]
000000 47 57 ae 3e 49 8e 88 3e 2e a7 ad 3e ca e0 9c be
       0.34050962 0.26671055 0.3391661 -0.3064025
000010 c5 d7 b4 3e 99 4c 77 3e c6 02 9a be e7 bf e7 3d
       0.3532087 0.24150313 -0.3008024 0.11315899
000020 e8 3c 7e 3e d8 7a af 3d 06 bb 86 bd b1 31 66 bd
       0.24827921 0.085683525 -0.06578641 -0.056199733
000030 44 93 b1 be 83 d1 a5 be 5a 92 8d be a0 3b 8b 3e
       -0.34682667 -0.32386407 -0.2765072 0.27193928
000040 f7 7b ca be 62 05 c0 3e 52 d2 77 3e 33 5f d8 3e
       -0.39547703 0.37504107 0.24201325 0.4226013
000050 e1 2f 81 3e c0 cf dd be e2 27 ec bb 6c 86 d7 be
       0.2523184 -0.43322563 -0.007206903 -0.42094743
000060 8e d5 a9 3e a1 b1 cd bd 41 cf b2 3e 2f e5 e2 be
       0.33170742 -0.10043646 0.34923747 -0.44315478
000070 4b fd b1 be 53 61 a6 bd be a3 c6 3e 8d ee 5d 3e
       -0.3476356 -0.08124032 0.387968 0.21673031
000080 87 62 f4 bd 2c b8 a8 3e 6f f7 ad 3e 86 b0 be 3e
       -0.11932855 0.32953012 0.3397784 0.37244052
000090 05 43 a0 be d1 17 5c 3e c1 bc db be a8 96 00 be
       -0.31301132 0.2149346 -0.42917445 -0.12557471
0000a0 f2 80 93 be d2 ca 3f 3d 62 51 2d be 08 89 c4 3e
       -0.28809315 0.046824284 -0.16925576 0.38385797
0000b0 58 a2 68 3e 00 7d 86 be 4c 85 38 bd 58 e9 a0 3e
       0.22718179 -0.26267242 -0.045048997 0.31428027
0000c0 f7 65 ec bd a0 ce 2b be e7 be 0d 3e 48 c0 91 be
       -0.11542886 -0.1677804 0.13842355 -0.2846701
0000d0 8e 0c cb be 31 d5 41 3e 32 3d 49 3e 30 e4 da 3d
       -0.39658016 0.18928982 0.1965225 0.106880546
0000e0 c5 71 7c 3e 3d 6f 71 bd 04 66 f1 bc 1f 1b 75 3e
       0.24652775 -0.058943976 -0.02946759 0.23936127
0000f0 a0 ba f8 3d db df 58 3e 83 22 f9 3d 89 26 67 be
       0.12144971 0.21179144 0.12164786 -0.22573294
000100 0b e3 bd 3e f3 37 00 3e 09 a9 c8 be e4 dc 8f bd
       0.37087283 0.12521343 -0.39191464 -0.070245534
000110 3f d7 de 3e 0a 44 92 3e 45 9f b8 3c 67 5b 1e 3e
       0.43523595 0.28567535 0.022536883 0.15464555
000120 81 17 23 3d 44 cd ad 3e e7 3a 4f be fa 21 9a be
       0.039817337 0.33945668 -0.20237313 -0.30104047
000130 5a e9 94 be 2d 1c fc bc ff eb 88 be 21 e3 93 be
       -0.29084283 -0.030775154 -0.2674255 -0.28884223
000140 3e 27 ee 3d 9a 8c a9 be 35 c5 05 3e a7 1f 6c bd
       0.116285786 -0.33115083 0.1306351 -0.057647374
000150 7d 7e bf 3e 4a cf b3 bd cc 08 6d be 17 10 9b 3e
       0.3740119 -0.087797716 -0.23147887 0.30285713
000160 88 f4 53 3c 97 7a 9e be 57 cf 89 3e 40 3b 8a 3e
       0.012936719 -0.30952904 0.26916 0.2699833
000170 51 27 c8 3e 62 fd 46 bd fe 45 d1 be 9f 9a 9d 3d
       0.39092496 -0.04858149 -0.40873712 0.07695507
000180 70 bf c5 3e ac f1 19 3e 0a ab ac 3e 24 ae d4 3d
       0.38622618 0.15033597 0.33724242 0.10384777
000190 bb e5 af bd fa dd 5d 3e 00 33 46 be 2c b2 04 3e
       -0.085887395 0.21666709 -0.19355392 0.12958592
0001a0 8d 53 d7 be fe 85 0f be c0 53 22 be 9e 04 d2 3d
       -0.42055932 -0.14015958 -0.1585226 0.10254787
0001b0 82 d5 55 be e5 d3 d8 3e 5d 86 d6 be d8 a1 e0 be
       -0.20882228 0.42349163 -0.41899386 -0.43873477
0001c0 8c bd a8 bc 51 e5 87 bd 4e 94 2a 3d a2 df 23 be
       -0.020598195 -0.066355355 0.04164534 -0.16003278
0001d0 bc 83 61 be df fd d1 bd af 5b b2 3e 6d 9e ca bd
       -0.22022909 -0.102535 0.34835574 -0.098934986
0001e0 4a 55 e1 3e 30 94 a0 be cc d4 66 3e 17 3e de be
       0.44010383 -0.31363058 0.22542113 -0.43406746
0001f0 89 0b 07 3e 32 18 e8 bd 2b ec 47 3e 92 90 be 3e
       0.13187994 -0.1133274 0.19523685 0.37219673
000200 bd 27 69 be 93 b7 04 3d 33 61 a1 3e 48 ee c2 be
       -0.22769065 0.032401633 0.3151947 -0.3807242
000210 70 21 98 3d 8f 62 82 3e a2 53 bf bd e5 4e b4 be
       0.07428253 0.2546582 -0.093421236 -0.35216442
000220 c7 70 87 be fb cc e5 bc f4 ed b5 be 07 99 c2 3e
       -0.2645323 -0.028051844 -0.35533106 0.38007376
000230 81 34 c2 3e c9 03 af 3c b6 e0 a4 bd d5 df 1c be
       0.37930682 0.02136411 -0.08050673 -0.1531976
000240 ba f4 34 be 57 7a 76 3e ae 33 d6 3e 16 d7 59 3e
       -0.17671481 0.24070106 0.41836303 0.21273455
000250 1b 3b 28 be 4d 60 f5 3d 19 01 4e 3e 33 ef 40 3e
       -0.16428797 0.119812585 0.20117606 0.18841247
000260 10 21 cc 3d 6e 11 60 bd 97 41 d0 be bb a7 6b 3d
       0.09967244 -0.054704122 -0.4067504 0.057533007
000270 69 be c9 bc d7 07 ca 3e 18 ed 43 3e 4f 80 92 be
       -0.024626927 0.39459106 0.19133413 -0.28613517
000280 01 09 64 be 30 8f 6f 3e c1 7d e1 3e 91 2f 8f 3e
       -0.2226906 0.23394465 0.44041255 0.27965978
000290 4a 8c 06 bd 3e 29 4c be 7f 3f 4e be 96 32 9b 3e
       -0.032848634 -0.19937608 -0.2014141 0.30312032
0002a0 1c 23 83 3d e3 fd bf 3e 0e ac ac 3d d1 4e c9 3c
       0.06403181 0.37498388 0.08431254 0.024573715
0002b0 54 1e ca 3e c0 25 1f be a7 2b d1 3e 53 af 83 be
       0.39476264 -0.15541744 0.40853617 -0.257197
0002c0 8a fa 05 bd 54 0c db be 16 28 be 3e 20 f9 68 3e
       -0.032709636 -0.42782843 0.37139958 0.22751284
0002d0 4d 80 07 3e a0 f5 5e be 18 fb d7 bd 52 0e b5 be
       0.13232537 -0.21773386 -0.10545939 -0.35362488
0002e0 33 e2 29 3e 60 39 1e 3b d8 c6 06 bd f3 53 dd be
       0.16590194 0.0024143085 -0.032904476 -0.4322811
0002f0 b0 01 b8 be 97 b6 16 be 83 e1 b2 be 5c f0 88 bd
       -0.35938787 -0.1471809 -0.34937677 -0.0668647
000300 a1 57 9c 3e c8 af 8b be fd d9 c0 3e c3 1c dc 3d
       0.30535606 -0.27282548 0.37666312 0.10747673
000310 44 ba dc 3e 1f b2 0d be 1b fc 6c bd 1b 0e de 3e
       0.4311086 -0.13837479 -0.057857614 0.43370137
000320 71 8d 2a 3e 8b 09 14 3e 5d c1 d7 3e f5 9c da be
       0.16655518 0.14456765 0.42139712 -0.42697874
000330 37 e2 cf be 4e 21 80 3e 1c 50 ec 3d e4 c7 78 3e
       -0.40602276 0.2502541 0.11538717 0.24295002
000340 36 28 d4 be 10 ed c4 bd 30 74 72 bd fc 01 91 bd
       -0.4143693 -0.096155286 -0.059192836 -0.070804566
000350 3d e5 8a 3d f4 c4 c6 bd 8e 9f c5 bd 63 e3 12 3e
       0.06782005 -0.097055346 -0.09649573 0.14344554
000360 98 7e 9d be 8b f1 9f be 5c 29 77 be e7 75 4b 3e
       -0.30760646 -0.3123897 -0.24136871 0.19869195
000370 d5 1f 92 be ee 72 a7 bc 6e f9 15 be ae f9 82 3d
       -0.2853991 -0.020440545 -0.14645931 0.06395279
000380 49 e1 db 3e c1 55 63 be 1a 8f 94 3e 8b 13 ca 3e
       0.42945316 -0.22200681 0.29015428 0.39468035
000390 a4 c8 7e 3e a3 36 8a 3e fe da 87 be 0a aa d6 bd
       0.24881226 0.2699481 -0.26534265 -0.10481651
0003a0 69 79 47 3e 68 38 71 be 22 8f c6 bc 66 05 e1 be
       0.19479908 -0.23556674 -0.024238173 -0.4394943
0003b0 18 4a 9f be 3c e5 32 3d c5 10 67 be 82 01 de bd
       -0.31111217 0.043675646 -0.22564991 -0.10840131
0003c0 9f f2 76 3e b9 e5 aa 3e ae 00 12 3e fa 02 be be
       0.2411599 0.3337839 0.14258072 -0.37111646
0003d0 38 6f d8 be 23 08 53 be 8b f8 aa 3e 8e 9f 6f 3e
       -0.42272353 -0.20608573 0.33392748 0.23400709
0003e0 cf 24 0d 3e 8c 32 39 be 0e 21 1d 3e e5 97 c1 be
       0.13783573 -0.18085688 0.1534464 -0.378112
0003f0 91 87 3f 3e d3 88 8e 3e de ae 83 3d 06 2a aa 3d
       0.18704058 0.27838764 0.06429838 0.083087966

net.0.bias f4 [64]
000000 d2 32 8e be df 44 ba bd 11 02 46 3c 20 0b 52 be
       -0.27773148 -0.09095167 0.012085454 -0.20512056
000010 fb a8 c3 bd 43 7d a0 be 70 9f 88 be 70 17 3a 3e
       -0.09553715 -0.31345567 -0.2668414 0.18173003
000020 c5 a2 28 be be c8 15 3e d6 d5 38 3e 38 24 42 be
       -0.16468342 0.14627358 0.18050322 -0.18959129
000030 2b 67 54 be 1c ee c7 3e bf fc 44 3e 80 4d 4d bb
       -0.2074248 0.3904885 0.1923704 -0.0031326711
000040 a9 f9 dc be bd 05 89 3e 4f 92 bb be c3 e2 6e be
       -0.43159226 0.2676219 -0.36635062 -0.2332869
000050 d2 39 75 be 95 2d 24 3d 25 d2 9c 3e ee a0 73 be
       -0.23947838 0.040082533 0.30629078 -0.23791859
000060 be 60 49 3e f5 c4 68 be 67 5e b7 3e aa 43 a4 be
       0.1966581 -0.22731383 0.3581421 -0.32082874
000070 89 5a b9 bd 99 80 65 3e 04 86 a6 3e e9 f7 73 be
       -0.09050471 0.22412337 0.3252412 -0.23825039
000080 b4 94 8a 3e 89 d9 a4 be 7d 45 f1 3d 92 d6 a9 3e
       0.27066576 -0.32197216 0.11780832 0.33171517
000090 92 48 c7 3e 82 33 58 bd ac c1 01 3d c4 75 96 be
       0.38922554 -0.052783497 0.03167884 -0.29386723
0000a0 e5 9c a4 bd ea b5 e1 be 75 6c 5a 3d 5d 7e fe 3d
       -0.08037738 -0.44084102 0.05332609 0.12426446
0000b0 3e 91 6d be 17 0c 38 bd d5 92 fa 3c 3d 63 59 3e
       -0.23199937 -0.044933405 0.030587593 0.21229263
0000c0 77 57 c2 3e 33 d3 f1 bd ed 99 2d bb 73 e6 5a be
       0.37957355 -0.11807861 -0.0026489452 -0.21376972
0000d0 85 63 a1 3d 4d 7f a9 3e 6d f3 ca be e5 de 02 3e
       0.0788031 0.33104935 -0.39638844 0.1278034
0000e0 ba 10 84 3e 29 87 26 3d 78 cb 8f be 9b 7a 87 3e
       0.2579401 0.040656243 -0.28084922 0.26460728
0000f0 fd 28 82 bc f8 0f c0 be 08 21 57 3e 32 52 22 3e
       -0.015888685 -0.37512183 0.21008694 0.15851668

net.1.weight f4 [64]
000000 c5 20 80 3f 77 be 7f 3f c5 20 80 3f c5 20 80 3f
       1.001 0.999 1.001 1.001
000010 77 be 7f 3f c5 20 80 3f c5 20 80 3f c5 20 80 3f
       0.999 1.001 1.001 1.001
000020 77 be 7f 3f c5 20 80 3f 77 be 7f 3f c5 20 80 3f
       0.999 1.001 0.999 1.001
000030 77 be 7f 3f c5 20 80 3f 77 be 7f 3f 77 be 7f 3f
       0.999 1.001 0.999 0.999
000040 77 be 7f 3f 77 be 7f 3f 77 be 7f 3f 77 be 7f 3f
       0.999 0.999 0.999 0.999
000050 c5 20 80 3f c5 20 80 3f c5 20 80 3f c5 20 80 3f
       1.001 1.001 1.001 1.001
000060 77 be 7f 3f c5 20 80 3f c3 20 80 3f c4 20 80 3f
       0.999 1.001 1.0009998 1.0009999
000070 c5 20 80 3f 77 be 7f 3f 77 be 7f 3f c5 20 80 3f
       1.001 0.999 0.999 1.001
000080 c5 20 80 3f 77 be 7f 3f c5 20 80 3f c4 20 80 3f
       1.001 0.999 1.001 1.0009999
000090 77 be 7f 3f 77 be 7f 3f 77 be 7f 3f c5 20 80 3f
       0.999 0.999 0.999 1.001
0000a0 c5 20 80 3f c5 20 80 3f c5 20 80 3f 77 be 7f 3f
       1.001 1.001 1.001 0.999
0000b0 77 be 7f 3f 77 be 7f 3f 77 be 7f 3f 77 be 7f 3f
       0.999 0.999 0.999 0.999
0000c0 77 be 7f 3f c4 20 80 3f c5 20 80 3f c4 20 80 3f
       0.999 1.0009999 1.001 1.0009999
0000d0 c4 20 80 3f c5 20 80 3f c5 20 80 3f c5 20 80 3f
       1.0009999 1.001 1.001 1.001
0000e0 77 be 7f 3f 77 be 7f 3f c5 20 80 3f 77 be 7f 3f
       0.999 0.999 1.001 0.999
0000f0 77 be 7f 3f c5 20 80 3f 77 be 7f 3f c5 20 80 3f
       0.999 1.001 0.999 1.001

net.1.bias f4 [64]
000000 0f 12 83 3a 56 12 83 ba 62 12 83 3a 63 12 83 3a
       0.0009999889 -0.0009999971 0.0009999985 0.0009999987
000010 66 12 83 ba 5a 12 83 3a 62 12 83 3a 50 12 83 3a
       -0.000999999 0.0009999976 0.0009999985 0.0009999964
000020 64 12 83 ba 64 12 83 3a 65 12 83 ba 3d 12 83 3a
       -0.0009999988 0.0009999988 -0.0009999989 0.0009999942
000030 62 12 83 ba 64 12 83 3a 62 12 83 ba 5b 12 83 ba
       -0.0009999985 0.0009999988 -0.0009999985 -0.0009999977
000040 4b 12 83 3a 5d 12 83 ba 5b 12 83 ba 42 12 83 ba
       0.0009999959 -0.000999998 -0.0009999977 -0.0009999948
000050 5f 12 83 3a 5b 12 83 3a 46 12 83 3a 5d 12 83 3a
       0.0009999982 0.0009999977 0.0009999953 0.000999998
000060 5e 12 83 ba 53 12 83 3a 59 12 83 3a 50 12 83 3a
       -0.0009999981 0.0009999968 0.0009999975 0.0009999964
000070 64 12 83 3a 50 12 83 ba 64 12 83 ba 5d 12 83 3a
       0.0009999988 -0.0009999964 -0.0009999988 0.000999998
000080 49 12 83 3a 54 12 83 ba 60 12 83 3a 36 12 83 3a
       0.0009999956 -0.0009999969 0.0009999983 0.0009999934
000090 50 12 83 3a 67 12 83 ba 56 12 83 ba 59 12 83 3a
       0.0009999964 -0.0009999991 -0.0009999971 0.0009999975
0000a0 63 12 83 3a 62 12 83 3a 5f 12 83 3a 2d 12 83 ba
       0.0009999987 0.0009999985 0.0009999982 -0.0009999924
0000b0 3c 12 83 ba 57 12 83 ba 66 12 83 ba 66 12 83 ba
       -0.0009999941 -0.0009999973 -0.000999999 -0.000999999
0000c0 66 12 83 ba 54 12 83 3a 57 12 83 3a fc 11 83 3a
       -0.000999999 0.0009999969 0.0009999973 0.0009999867
0000d0 10 11 83 ba 53 12 83 3a 03 12 83 3a 5e 12 83 3a
       -0.0009999592 0.0009999968 0.0009999875 0.0009999981
0000e0 4c 12 83 ba 5d 12 83 ba 63 12 83 3a 5c 12 83 ba
       -0.000999996 -0.000999998 0.0009999987 -0.0009999978
0000f0 5d 12 83 3a 4f 11 83 3a 57 12 83 ba 5f 12 83 3a
       0.000999998 0.0009999665 -0.0009999973 0.0009999982

net.1.running_mean f4 [64]
000000 58 26 37 3d 5b 02 47 bc be a5 df 38 88 91 84 bc
       0.0447143 -0.012146558 0.000106643405 -0.016182676
000010 b8 b8 d1 3c a5 27 55 bb 11 e5 9b 3c dd e4 80 3c
       0.025600776 -0.003252485 0.019030126 0.01573413
000020 80 9a 19 3c fc 8b 8b bd 1f 2c d1 3c e6 ec 0b 3d
       0.009375215 -0.06813809 0.025533734 0.03416147
000030 9f e4 49 3d ce a7 00 3d 60 ea 4a bc 98 b1 62 bd
       0.049290296 0.03141003 -0.012384981 -0.055345148
000040 08 8b c5 bc 16 1d 8c bc 41 e1 77 bd 53 da 0e 39
       -0.024114147 -0.017103713 -0.060517553 0.00013623507
000050 8c ee d1 bc 57 60 cb 3c 86 02 f5 bb 99 f5 63 bd
       -0.025626443 0.024826212 -0.0074771075 -0.055654142
000060 09 71 3e 3d 63 15 5b 3a 4a 11 57 bc 15 44 45 bd
       0.046494517 0.0008357374 -0.013126681 -0.04816063
000070 b5 de f7 bb a1 52 de 3c a6 9b c7 bc bd 12 96 bd
       -0.0075643905 0.02713901 -0.024366211 -0.07327793
000080 94 31 33 3c e2 d3 c9 bc 87 1a c1 3d 9a 93 17 3d
       0.010937113 -0.024637166 0.09428888 0.037006
000090 cc 74 2d 3d 3a 06 9d bc 0a 22 28 3d c0 ba 48 3d
       0.042347714 -0.019168008 0.041048087 0.049006224
0000a0 26 07 0d bd 71 d6 6d 3c 06 c5 90 bc 11 f4 81 3d
       -0.034430645 0.014516459 -0.017672073 0.0634538
0000b0 ee 7d 03 3d 2d 0b 97 3c 37 0d 43 ba f7 f1 57 bd
       0.032102518 0.018437946 -0.0007440629 -0.05272099
0000c0 82 1d 64 3d 7f 3e d8 bc af 4f 5e bc a1 1d 09 bd
       0.055692203 -0.026396988 -0.013568803 -0.033475522
0000d0 93 34 60 bd 97 1f 8e bc 7f 1d d4 bc 67 a4 91 bb
       -0.05473764 -0.017349048 -0.025892971 -0.004444647
0000e0 4a 97 41 3d dd 93 07 3d de 93 88 bd b8 16 a5 3d
       0.04726342 0.033099998 -0.066688284 0.08060974
0000f0 d7 13 5c bd b4 66 df bd 69 f0 0a 3d 66 63 28 3d
       -0.05372986 -0.10908261 0.03392068 0.04111042

net.1.running_var f4 [64]
000000 d2 b8 84 3f a3 33 54 3f f7 04 61 3f d4 cd 65 3f
       1.0368903 0.8289129 0.878982 0.89767194
000010 37 80 58 3f 4b 0e 5b 3f 4e 29 71 3f 7c 62 57 3f
       0.8457064 0.85568684 0.9420365 0.8413465
000020 5b 32 57 3f cf df 58 3f 5f f4 59 3f 6f e5 5f 3f
       0.8406121 0.84716505 0.85138506 0.8745946
000030 90 0e 69 3f 65 e9 5c 3f 42 4f 53 3f c9 af 6e 3f
       0.91037846 0.8629363 0.8254281 0.93236977
000040 66 d2 55 3f 18 a3 60 3f 05 73 61 3f 47 0b 66 3f
       0.8352417 0.8774886 0.8806613 0.8986096
000050 22 33 57 3f fa 19 54 3f 5b d7 75 3f fc 26 63 3f
       0.840624 0.8285214 0.9603173 0.8873136
000060 7e db 5a 3f d6 3c 5b 3f ee 0e 59 3f d6 2c 5b 3f
       0.8549117 0.85639703 0.84788406 0.8561529
000070 f8 ee 56 3f be 6f 7c 3f 5c 5f 54 3f 6f 41 55 3f
       0.8395839 0.98608005 0.82958007 0.8330297
000080 aa 25 5b 3f 3f 46 56 3f 34 79 67 3f 9e f5 5c 3f
       0.85604346 0.8370094 0.90419316 0.8631228
000090 c1 3c 55 3f 2b 23 5d 3f c2 f2 57 3f 9b c3 72 3f
       0.8329583 0.8638179 0.84354794 0.9482972
0000a0 e9 0d 67 3f b0 59 60 3f b7 fb 56 3f ad 8f 5a 3f
       0.902556 0.8763685 0.83977836 0.8537548
0000b0 b9 59 54 3f 70 0f 65 3f 35 aa 57 3f a5 2c 70 3f
       0.82949406 0.8947668 0.8424409 0.9381812
0000c0 80 93 5f 3f e4 0c 5a 3f 22 1a 57 3f b1 b8 57 3f
       0.8733444 0.8517592 0.8402425 0.8426619
0000d0 bb 12 53 3f e1 77 58 3f 39 a4 5f 3f 7b 7c 56 3f
       0.82450455 0.8455792 0.8735996 0.8378369
0000e0 70 2f 55 3f 71 10 68 3f b7 11 60 3f 48 93 56 3f
       0.8327551 0.9065009 0.8752703 0.83818483
0000f0 62 c0 56 3f eb 36 64 3f 5b 73 56 3f 87 a9 56 3f
       0.838873 0.891463 0.8376977 0.8385243

net.3.weight f4 [64, 64]
000000 eb 46 9f 3d 37 65 99 bc 86 55 d6 3d 94 b4 f6 3d
       0.077771984 -0.01872502 0.10465531 0.12046161
000010 83 f0 d7 3d 6d eb 2a bd d9 8d ac 3d 30 01 68 bd
       0.10543921 -0.041728426 0.08425493 -0.056641757
000020 9b 2b 20 bd 83 73 f8 bd 3a 55 ce 3d 94 7e f0 3d
       -0.039104085 -0.12131407 0.100748494 0.11742893
000030 ec c8 72 3d 24 0a 4c bd 9b 2e fc bd 04 19 5b bc
       0.059273645 -0.04981436 -0.12313577 -0.013372663
000040 c1 14 94 3d 98 63 ae bc ac da ad 3c a7 30 68 ba
       0.07230521 -0.021287724 0.021222435 -0.00088573474
000050 7b 5e ad bd 47 fb f3 bd e7 4c ab bd 8a f2 f9 3d
       -0.08465286 -0.11913162 -0.08364277 0.12204464
000060 77 8e 4f 3d b8 1a a3 3c 5c 68 0a bd 57 20 93 bd
       0.050672974 0.019910201 -0.03379093 -0.07183903
000070 ba 5b b7 3d cd 3b 15 bd 75 b5 f2 3d 60 8d 0d 3c
       0.08953042 -0.036433984 0.118510164 0.008639663
000080 45 b9 7b bd d7 d4 9e bd 24 32 a6 bd 9a 1d 77 3d
       -0.061455984 -0.0775544 -0.08115032 0.060330965
000090 99 af 3b bd 9b e7 2f 3d f4 2d 94 bb 96 36 67 3d
       -0.04582176 0.042945486 -0.0045220796 0.05644854
0000a0 dd 81 a3 3d ca 62 b3 bd d1 32 00 3d 94 91 fb 3c
       0.07983754 -0.08759077 0.031298462 0.030709065
0000b0 57 6a 44 bd 9f cf 45 bd a3 fd 05 bd 19 9d f9 bb
       -0.047952976 -0.048293706 -0.03271259 -0.0076176045
0000c0 96 6c 35 3c ce 90 08 3d 2b c3 16 bd 2e 19 7c bd
       0.011073252 0.03334122 -0.03680722 -0.06154745
0000d0 bb ef 5a 3c 2a 5c d1 3d ec cf c3 bd 36 46 48 3d
       0.01336282 0.10222657 -0.09561142 0.048895083
0000e0 00 0f ae 3d fe d6 4c bc 61 23 59 bd 09 c3 bc bd
       0.08498955 -0.01250243 -0.053012256 -0.092168875
0000f0 9e 62 d8 3d 21 85 65 bc 17 a9 e4 3d 7d 96 b5 bd
       0.10565685 -0.014008791 0.11165064 -0.08866594
000100 e3 88 c8 3d c9 35 ba bb cf 59 d9 3d 06 66 fe 3c
       0.09791734 -0.005682681 0.10612833 0.031054508
000110 21 03 08 3d d5 b9 9f bd 92 3a 3f bd 65 5d b5 bc
       0.03320611 -0.077991165 -0.046686716 -0.02213926
000120 33 c2 aa 3c cd 92 fa bd 3f 7d 93 bd 2f 2f b7 3c
       0.020844555 -0.12235031 -0.07201623 0.022361366
000130 34 16 90 3c 22 a9 ce bc 6d aa e9 3d d6 d2 28 bd
       0.017588712 -0.025227133 0.11409459 -0.041216694
000140 ab cf 6c bd 2e f8 dc bb 6d cf 94 3d 79 76 e7 bd
       -0.057815235 -0.0067434525 0.07266126 -0.11301894
000150 4b cc f4 bd ef cf f7 3d b3 d1 57 3d e6 7d 00 3d
       -0.11953028 0.12100207 0.05269022 0.031370066
000160 99 5c f8 3d c8 ff 66 bd 63 af d3 3d 98 43 ea bd
       0.121270366 -0.056396276 0.10336187 -0.11438674
000170 c8 54 9f bd f5 ce 0a bd 72 54 d1 3b 89 d5 e8 bd
       -0.077798426 -0.033888776 0.0063882405 -0.113688536
000180 05 ad ef ba d5 c9 44 3d f8 3a d2 bd 69 5a f7 3d
       -0.0018285817 0.048044045 -0.10265154 0.12077791
000190 09 47 60 3d e3 1f bf 3d 27 0b bd bd 1b 51 e6 bd
       0.054755244 0.09332254 -0.09230643 -0.112459384
0001a0 b6 84 c4 bc 9e b9 6a 3c dd 3b 8b 3d bd 4d 27 3d
       -0.023989063 0.014326481 0.067985274 0.04084562
0001b0 25 22 c5 bc 20 f0 80 3d 16 35 cc bc e2 fc 5a bd
       -0.024064133 0.062958 -0.024927657 -0.053463824
0001c0 da c2 91 3d e4 d5 ee 3d ad e9 9b 3d 25 af f1 bd
       0.07117243 0.1166189 0.076129295 -0.11800984
0001d0 11 52 78 bd f8 10 06 3c 5b 18 64 3d 46 34 0a bc
       -0.06062514 0.008182757 0.05568729 -0.0084353145
0001e0 e5 f9 b1 bc 60 fb c6 bd 31 c3 2d 3d 13 fe ea 3d
       -0.021725604 -0.09715915 0.042422477 0.11474242
0001f0 08 b0 84 bd e6 73 7b 3d 37 39 91 bd 6f 05 da 3d
       -0.06478888 0.061389826 -0.07090991 0.106455676
000200 93 15 9c bc 41 4a da 3d 78 d7 00 3d fa 0c cf bc
       -0.019053256 0.10658694 0.031455487 -0.025274742
000210 99 e9 e7 bd 38 29 90 bd 07 bf a0 3d 35 25 fd bd
       -0.11323852 -0.07039112 0.078489356 -0.12360612
000220 c7 a9 a8 3d a9 b5 e5 3d 69 58 5d 3d dd 5e 8e 3d
       0.082355075 0.112162896 0.054039393 0.069516875
000230 05 82 e3 3c 4b 4b 58 bd 31 dd e9 3d 29 82 39 bd
       0.02777196 -0.05280618 0.11419142 -0.045290146
000240 8c e1 38 3c 6b 28 88 bd 83 ba 5f 3c ad 2e 8e 3d
       0.011284243 -0.06648334 0.013655308 0.069424964
000250 59 a5 b6 bd 50 14 95 3d 0d 57 b3 3d 1f d8 24 bd
       -0.08918256 0.07279265 0.08756838 -0.04024517
000260 2e f3 92 3c 2d 3a 71 bd 5b 66 c4 3d 41 ec d2 3d
       0.017938223 -0.05889337 0.09589835 0.10298968
000270 26 19 2b bd bf 0a db 3d c5 3e cf bd ed b8 d2 3c
       -0.04177203 0.10695409 -0.10119394 0.025722945
000280 7b 24 db 3d ed df 08 bd b9 ad 5f bd e7 53 de 3d
       0.107003175 -0.033416677 -0.054609034 0.10855847
000290 65 90 65 bc d7 d6 e8 bd fe a8 e5 bd 4b 9a b5 3d
       -0.014011477 -0.113691024 -0.11213873 0.0886732
0002a0 43 ad 91 bd 45 a4 95 3c 59 5e fa bc a9 e7 c8 bd
       -0.07113125 0.018266806 -0.030562567 -0.09809811
0002b0 cb 2e c0 3d 6f fa 2f 3d 99 41 61 bd 28 5a ef 3d
       0.09383925 0.04296344 -0.0549942 0.11687118
0002c0 41 b9 9d bd df ac ae bd 5b c3 51 bc 37 17 eb bb
       -0.0770135 -0.08529066 -0.012802924 -0.0071743983
0002d0 4a bf b8 3b fb 89 61 bc 59 ac c2 bd 47 cb 71 3d
       0.005638038 -0.013765807 -0.09505529 0.05903175
0002e0 df bb cb bd b2 d7 ee 3d 93 e1 54 bd 25 93 b3 3c
       -0.09947943 0.11662234 -0.051972937 0.02192075
0002f0 fb c7 ca 3d 25 02 9f bc 3e 70 90 3d cb 87 ae 3d
       0.099014245 -0.019410202 0.070526585 0.08521994
000300 2a f9 63 bd 4e ec f4 3d 40 8d 73 bd c3 bc 97 bd
       -0.055657543 0.11959134 -0.05946088 -0.0740905
000310 86 7c e4 3c dc 7b c5 3d 18 b1 9d 3c b5 44 e8 3d
       0.027891409 0.09642765 0.019249484 0.1134123
000320 c0 0d 64 3d 26 48 64 3c e1 95 bf bd 04 c8 5c 3c
       0.055677176 0.013933217 -0.09354759 0.013475422
000330 8d fa b8 3d f1 cb 00 be 73 1a bf bd f5 f0 e9 bd
       0.09032164 -0.12577797 -0.09331217 -0.11422912
000340 e5 be 35 bd f8 a4 ff bd 71 17 9d 3d b4 84 ce 3d
       -0.044371504 -0.12482637 0.07670487 0.10083905
000350 5f 5e d0 bd cd 85 1a bd a6 a7 97 3d 12 f8 3d bd
       -0.1017425 -0.03772526 0.07405023 -0.046379156
000360 0b ce e0 3d 4f bd c9 3d 45 87 e3 bd f7 7e c0 bd
       0.109767996 0.09850561 -0.11109785 -0.093992166
000370 60 94 e1 3c 9b 09 b1 3d e7 8f c1 3d 01 bc 93 bd
       0.027536571 0.0864441 0.09451275 -0.07213593
000380 bc c1 e1 bd 15 bc f4 bd 3b ce d7 bd 7e 29 50 3d
       -0.1102328 -0.11949936 -0.10537382 0.05082082
000390 3d 8c 34 bd 1d d3 dc bc 8c 29 c2 bd cf b3 38 bd
       -0.044079054 -0.026956135 -0.09480581 -0.045093354
0003a0 3b 83 f5 3d 43 75 c7 bd ce c0 91 bc 85 9d c9 3b
       0.11987921 -0.09739163 -0.017792132 0.006152811
0003b0 ce e0 15 bd f7 49 ea bd fd 2b a4 3c 2b 9b 54 3d
       -0.036591344 -0.11439889 0.020040506 0.051905792
0003c0 cb 80 a8 3d 52 d9 dd 3d cd 47 b1 bd 71 a0 40 bc
       0.0822769 0.10832466 -0.08656273 -0.011757002
0003d0 d9 e8 ea bd ec 7e 00 be d3 a4 8f 3d 4d 9b d0 3c
       -0.114701934 -0.12548417 0.070138596 0.025464678
0003e0 36 df a9 bc 12 8a 2b bd 75 a7 ca bd 11 8f c5 bd
       -0.020736318 -0.04187972 -0.09895221 -0.096464284
0003f0 76 3f bb 3d 63 7f af bd a6 8d f5 3c 26 08 7d bd
       0.091429636 -0.08569219 0.02997477 -0.06177535

net.3.bias f4 [64]
000000 1b 62 88 bd d6 b2 ab bd 80 d8 a7 3c df 71 6b 3d
       -0.06659337 -0.083837196 0.020488977 0.057481643
000010 b5 43 a2 bd 40 22 b8 bd fd 06 20 bd 71 98 89 ba
       -0.0792307 -0.08990908 -0.039069165 -0.0010497702
000020 b1 fb f2 bc da 61 a4 bc 8b ea b6 bd d3 ef f0 3d
       -0.029661031 -0.02006619 -0.08931454 0.11764493
000030 38 7d 54 3d 25 f0 83 bd aa 63 bd 3d f9 86 9b bd
       0.05187723 -0.06442288 0.09247525 -0.07594103
000040 f3 0c e9 bd 3d c8 70 3d 91 3a 57 3b a8 e7 42 bb
       -0.11379423 0.058784712 0.0032841305 -0.0029740129
000050 d2 b4 06 3d 50 20 e8 bd d2 a4 a3 bd 3f f1 25 bb
       0.032887287 -0.11334288 -0.07990421 -0.0025320796
000060 8f f8 1a bd 96 19 f8 3d eb 27 e2 3d 26 b4 ba bd
       -0.0378347 0.12114255 0.1104277 -0.09116392
000070 4b 70 94 bd a2 9c a9 bd d8 db de bd 38 52 8e bd
       -0.07247981 -0.082818285 -0.108817756 -0.06949276
000080 da 0d a0 3d 92 38 83 3c 37 bd 4a 3d 63 24 33 bd
       0.07815142 0.016018186 0.049496856 -0.043735873
000090 33 16 72 bd b5 10 62 bd 01 f9 46 bd fb ec fd 3c
       -0.059103202 -0.055191714 -0.048577312 0.03099679
0000a0 91 e3 fd bc d6 05 e6 3b ad b6 d3 bd e8 7d bf 3d
       -0.030992301 0.0070197387 -0.10337577 0.093501866
0000b0 87 f7 31 bd 31 0c 68 bd ff fc b6 3b c0 1b e0 bc
       -0.04344895 -0.05665225 0.0055843587 -0.027356982
0000c0 7f 66 ff bc c7 6d 40 bd e9 c2 f1 3d ab 46 a2 bd
       -0.031176804 -0.04697969 0.11804754 -0.07923635
0000d0 e7 66 15 3d 72 6a b0 bd 19 1d 27 bd 0b c3 30 3d
       0.03647509 -0.08614053 -0.040799234 0.043154757
0000e0 88 dc 2a 3d 52 9c 40 3d 9d 28 87 3c 50 ff fd 3b
       0.04171422 0.04702408 0.016498858 0.007751383
0000f0 68 49 f8 bd 60 ec 32 3d 6b d7 11 bc b2 4a ac bd
       -0.12123376 0.043682456 -0.008901457 -0.084126845
