FarconVAE/result_german/german_downstream_s_2023_05_01_16_36_39_774350_ours.pth.pt (torch, 23812 bytes, 21 tensors)

fc1.weight f4 [64, 5]
0	0x3ead9571	0.33903077
1	0x3e142001	0.14465334
2	0xbe769782	-0.24081233
3	0xbe9dacfb	-0.30796036
4	0xbe1929df	-0.14957379
5	0x3e57e69f	0.21084069
6	0xbde3d529	-0.111246414
7	0xbe6ea112	-0.23303631
8	0x3d6b2053	0.057403874
9	0x3e8874fc	0.26651752
10	0xbee5926e	-0.4483828
11	0xbdeb3f19	-0.11486644
12	0x3ec3e4f1	0.38260606
13	0x3e0945e2	0.13405564
14	0x3ecd7785	0.4013025
15	0xbe984c19	-0.29745558
16	0xbdbd08e3	-0.09230211
17	0x3d5ee430	0.054416835
18	0xbd2f2fd2	-0.042770214
19	0x3ec8b881	0.39203265
20	0xbe007e04	-0.12548071
21	0xbe7d8be2	-0.24760392
22	0x3e15c328	0.14625227
23	0x3e520771	0.20510651
24	0xbe48a557	-0.19594322
25	0xbd9b533b	-0.07584234
26	0x3ea98536	0.33109444
27	0xbeb00774	-0.34380686
28	0x3eb451a0	0.35218525
29	0xbebc7e6f	-0.3681521
30	0x3e8282fa	0.25490552
31	0xbe0143ea	-0.12623563
32	0x3d55c488	0.05218938
33	0xbde1307a	-0.10995574
34	0xbe7e96f3	-0.2486227
35	0xbcb30725	-0.021853993
36	0xbef0937e	-0.46987528
37	0x3c0e4bd4	0.008685071
38	0x3e95bf69	0.29247597
39	0xbdd1b730	-0.10240018
40	0x3cee7469	0.029108243
41	0xbeb53d5a	-0.3539837
42	0xbdd0c3e4	-0.10193613
43	0xbdbbcf87	-0.09170442
44	0x3ed2221a	0.41041642
45	0xbec9b827	-0.3939831
46	0x3db46d0d	0.08809862
47	0x3e296f37	0.16546331
48	0x3e1138b4	0.14181787
49	0xbddd6f01	-0.10812188
50	0x3db032d3	0.08603444
51	0x3e1f7db9	0.15575303
52	0x3da7c974	0.08192721
53	0x3ebd6a5b	0.36995205
54	0xbe3d93ef	-0.18513463
55	0xbe7eb8b7	-0.2487515
56	0x3e33aa46	0.17545423
57	0xbe3e7c54	-0.18602115
58	0x3e160a6c	0.14652413
59	0xbdb88ade	-0.09010862
60	0xbe6ef813	-0.2333682
61	0xbeae126e	-0.33998436
62	0xbe951b5b	-0.29122433
63	0x3e9889c8	0.2979262
64	0x3b8b7697	0.0042560804
65	0xbc656c17	-0.014002821
66	0xbe9ad0da	-0.30237466
67	0xbdf91ef6	-0.121641085
68	0xbe964cd5	-0.29355493
69	0xbe76da91	-0.24106814
70	0x3e932fef	0.28747508
71	0xbe1e14a3	-0.1543756
72	0xbdd1b651	-0.10239852
73	0x3d3d9402	0.04628373
74	0xbe1b85d0	-0.15187764
75	0xbea9d0b7	-0.3316705
76	0x3d0abff0	0.033874452
77	0x3dde3220	0.10849404
78	0xbe5b52a5	-0.21418245
79	0xbe990e67	-0.298938
80	0xbd7f8dc8	-0.062391073
81	0x3e831d37	0.25608227
82	0xbeac6c55	-0.336764
83	0xbe39a64e	-0.18129846
84	0xbee5fefc	-0.449211
85	0xbec3cfbc	-0.38244426
86	0x3e5e1d3e	0.21690843
87	0x3eacd81f	0.33758637
88	0x3eb259c1	0.34834102
89	0x3e56397b	0.20920365
90	0xbeb7dcfe	-0.3591079
91	0xbc300bae	-0.010744972
92	0xbe147689	-0.14498343
93	0x3d512219	0.05105791
94	0xbe5dcd41	-0.2166033
95	0x3e833263	0.2562438
96	0x3ec173de	0.37783712
97	0xbd112cd6	-0.03544315
98	0x3d89a99c	0.067218035
99	0x3dc0642e	0.09394108
100	0x3d8e036f	0.06934249
101	0xbed5f56f	-0.41788813
102	0xbdafa005	-0.08575443
103	0xbe70c1bc	-0.23511404
104	0x3e16619f	0.14685677
105	0xbbe2fd2d	-0.0069271536
106	0xbda81c4c	-0.08208522
107	0xbea6eeed	-0.3260416
108	0xbed41afc	-0.41426837
109	0xbe185ce0	-0.14879179
110	0xbe035d32	-0.1282852
111	0x3ecbf3c8	0.39834428
112	0xbe5864d2	-0.2113221
113	0xbe7abbe6	-0.2448574
114	0xbeac0bf0	-0.33602858
115	0xbdf87fe9	-0.12133772
116	0x3ee49179	0.44642237
117	0xbed1f277	-0.41005298
118	0x3e7dc104	0.24780661
119	0xbebaee5f	-0.36509988
120	0xbe8496f6	-0.25896424
121	0x3e156e57	0.14592873
122	0x3eca10cc	0.3946594
123	0x3e5a71ee	0.21332523
124	0xbec5e01e	-0.3864755
125	0x3ec46b66	0.38363189
126	0x3ea53440	0.32266426
127	0xbe26db9d	-0.16294713
128	0xbec91e16	-0.39280766
129	0x3e2d3ccd	0.16917725
130	0xbe2eeb7a	-0.17082015
131	0xbb9e9b85	-0.0048403167
132	0x3e7d1999	0.24716796
133	0x3eab0e23	0.33409223
134	0xbe7be8a3	-0.24600463
135	0xbd7b661e	-0.061376683
136	0x3d92509a	0.0714428
137	0x3ce17999	0.027523803
138	0x3ec2a09f	0.3801317
139	0xbe48612f	-0.19568323
140	0xbc312f79	-0.010814541
141	0x3d71d37c	0.059039578
142	0x3d9a146c	0.075234264
143	0x3eec90e7	0.46204302
144	0x3d638461	0.05554617
145	0x3ec14b5b	0.37752804
146	0xbe86a58e	-0.26298183
147	0x3e45bdec	0.1931073
148	0xbc227f1d	-0.0099180015
149	0x3ee71230	0.45131063
150	0xbe28b465	-0.16475065
151	0x3cff64ae	0.031175938
152	0x3e6609a6	0.22464618
153	0xbe60f5ba	-0.21968737
154	0xbeab7d59	-0.3349407
155	0x3eaf02ab	0.34181723
156	0x3e1ecfd4	0.15508968
157	0x3e9f44c3	0.3110715
158	0xbe6d6c09	-0.23185743
159	0xbedd1c8b	-0.4318584
160	0xbe442cea	-0.19157758
161	0xbebc998f	-0.36835906
162	0x3ea87227	0.3289959
163	0x3ea314f6	0.3185193
164	0xbea5658c	-0.32304037
165	0x3e991fd7	0.29907104
166	0x3ee642d4	0.4497286
167	0xbed8e017	-0.42358467
168	0x3ecdbfea	0.4018548
169	0x3e2bf099	0.16791
170	0x3cfa7ca6	0.030577015
171	0xbec0b538	-0.3763826
172	0x3e939e83	0.28831872
173	0x3eaf1d2e	0.3420195
174	0x3e7b9826	0.24569759
175	0xbe4eed9e	-0.20207831
176	0x3e8e5ae7	0.27803728
177	0x3eb59def	0.35472056
178	0xbe178fd6	-0.14800963
179	0xbec773ae	-0.38955444
180	0x3bed3aca	0.007239674
181	0x3ec59bb1	0.38595346
182	0xbe57916e	-0.21051571
183	0xbd2a9cd9	-0.041653488
184	0x3ec94edc	0.39317977
185	0xbe8f36d3	-0.27971515
186	0x3ebd3f6b	0.36962447
187	0x3d75a0a8	0.059967667
188	0xbcec64dc	-0.028856687
189	0x3e9c1ee5	0.3049232
190	0x3ebc80b5	0.36816946
191	0x3ac7bba2	0.0015238414
192	0x3e4854dd	0.19563623
193	0x3ee97e8f	0.4560437
194	0xbd484559	-0.04889426
195	0xbe1fe323	-0.1561399
196	0xbebb9f1b	-0.36644825
197	0xbec1b424	-0.3783275
198	0x3e8fb66a	0.28068858
199	0x3ed45520	0.41471195
200	0xbdc364c2	-0.095407024
201	0xbe9aaa90	-0.30208254
202	0x3e9d81d9	0.30763128
203	0xbe02fb38	-0.12791145
204	0xbe3e97da	-0.18612614
205	0xbe6362eb	-0.22205703
206	0xbecc98ad	-0.39960232
207	0x3c64e0df	0.013969629
208	0x3eb448e3	0.35211858
209	0xbd467dd0	-0.048459828
210	0x3ed12d64	0.40854943
211	0x3ea989ec	0.3311304
212	0x3e7e1713	0.2481349
213	0xbd648f3f	-0.055800673
214	0xbe136560	-0.1439414
215	0x3e0d05ad	0.13771696
216	0x3ec95a04	0.3932649
217	0xbeb419e3	-0.35176
218	0xbeb975c1	-0.36222652
219	0x3e00b03b	0.12567227
220	0x3e3287b3	0.17434578
221	0xbe49da7c	-0.19712251
222	0xbd8c14ac	-0.0683988
223	0xbe5bc4bb	-0.21461765
224	0x3e23d9a2	0.16000989
225	0xbebe44b5	-0.37161794
226	0xbebb3ed4	-0.36571372
227	0xbea9b7cb	-0.33148035
228	0xbde69791	-0.11259378
229	0x3df1a68a	0.11799343
230	0xbe4d6276	-0.20057091
231	0xbe6fed5f	-0.23430394
232	0x3dd7af59	0.10531492
233	0x3d824422	0.063606516
234	0xbe544542	-0.20729545
235	0xbe2f0907	-0.17093287
236	0x3d4f4f1d	0.050612558
237	0xbea0588b	-0.31317553
238	0xbe0e3a6a	-0.1388947
239	0xbdd4acb2	-0.103845015
240	0x3e7bd7bb	0.24594013
241	0x3d563cb6	0.052303992
242	0xbe4b3698	-0.19845045
243	0xbd56125d	-0.052263606
244	0xbeb7896d	-0.35847035
245	0x3defb0d7	0.117036514
246	0xbd88f670	-0.06687629
247	0xbe40427f	-0.18775366
248	0xbe2aa9cb	-0.16666333
249	0xbec0f815	-0.37689272
250	0x3edfe01c	0.4372567
251	0xbe89a4bb	-0.26883492
252	0xbebc5272	-0.3678165
253	0xbea6f9c8	-0.32612443
254	0x3ddf82ce	0.10913621
255	0x3e98ed22	0.29868418

fc1.bias f4 [64]
0	0xbe4faaf9	-0.20280065
1	0x3e8acd12	0.2710958
2	0xbe18c189	-0.14917578
3	0xbaacbf95	-0.0013179654
4	0xbdaa7f7a	-0.083250955
5	0x3d484ed6	0.04890331
6	0x3ea0e71d	0.31426325
7	0x3cd7220b	0.02626135
8	0x3d3423ad	0.043979336
9	0x3e41dfa1	0.18932964
10	0x3b0d1c8b	0.0021531906
11	0xbddcf3c1	-0.1078868
12	0xbac0cc4b	-0.0014709322
13	0xbeb0e0d4	-0.3454653
14	0x3e71aa07	0.23600017
15	0x3e4d1b93	0.2003005
16	0xbe253fd7	-0.16137634
17	0xbdd86a16	-0.10567109
18	0xbe7bdade	-0.2459521
19	0xbe308fd9	-0.17242374
20	0x3e5e186d	0.21689005
21	0xbeb479ee	-0.35249275
22	0x3ec4c9c8	0.38435197
23	0x3e84c2a4	0.2592975
24	0xbaeb62ed	-0.0017958559
25	0x3a2be866	0.00065577624
26	0x3ea7df89	0.3278773
27	0x3e09861b	0.13430063
28	0x3ea3d787	0.32000372
29	0x3e013163	0.12616496
30	0xbe802d27	-0.25034449
31	0x3e193cdb	0.14964621
32	0xbcbaa4bd	-0.022783631
33	0xba643d5c	-0.0008706653
34	0x3e56e029	0.20983948
35	0x3e1d3103	0.15350728
36	0xbda50e5c	-0.080593795
37	0x3e8f669f	0.2800798
38	0x3ec965ef	0.39335582
39	0x3eb91db8	0.36155486
40	0xbd9e4af0	-0.07729137
41	0xbe592061	-0.21203758
42	0x3eab66d8	0.334769
43	0x3c99b561	0.018763246
44	0xbec4c7a1	-0.38433555
45	0xbe8037e5	-0.25042644
46	0x3e60de71	0.21959855
47	0x3e951a3f	0.29121587
48	0x3e9e0cb6	0.30869073
49	0x3e21f940	0.15817738
50	0xbe83f7e0	-0.2577505
51	0x3e2c721c	0.16840404
52	0xbb84525d	-0.004038139
53	0x3e1b3a68	0.15158999
54	0xbe115526	-0.14192638
55	0x3e6450b7	0.22296415
56	0xbe87aef1	-0.26500657
57	0x3d9b4731	0.07581938
58	0xbdc2254c	-0.0947977
59	0x3da3e284	0.08002189
60	0x3b00ef24	0.001967379
61	0xbe402498	-0.1876396
62	0x3ebd063f	0.36918828
63	0x3ea805bb	0.32816872

fc2.weight f4 [64, 64]
0	0x3d8727a6	0.06599359
1	0xbdbba30b	-0.09161957
2	0xbc51cf8a	-0.012805829
3	0xbd17a8bf	-0.037026163
4	0xbdbda9a2	-0.092608705
5	0x3d35d03f	0.044388052
6	0x3d0863d7	0.03329834
7	0x3dd5e015	0.10443131
8	0x3dc3b998	0.095568836
9	0xbdad11cd	-0.08450661
10	0x3c6140bd	0.013748345
11	0xbdd13900	-0.1021595
12	0x3d3e63a5	0.046481747
13	0x3dd45bed	0.10369096
14	0xbce78beb	-0.02826496
15	0x3d9da744	0.07697919
16	0xbce34102	-0.02774096
17	0xbd9acfc3	-0.07559159
18	0xbdde6400	-0.10858917
19	0x3da28f86	0.07937531
20	0x3bd3ac25	0.00645973
21	0x3db2e195	0.087344326
22	0xbdead7ea	-0.114669636
23	0xbde56226	-0.11200361
24	0xbdd7fc90	-0.10546219
25	0xbd85b081	-0.06527806
26	0x3d7fb816	0.062431417
27	0x3d8201fc	0.06348035
28	0xbd7aca65	-0.061228175
29	0xbdb5f289	-0.088841505
30	0xbd194324	-0.037417546
31	0x3d82932f	0.06375729
32	0xbdc3b62a	-0.095562294
33	0xbd496d28	-0.049176365
34	0xbd9279bd	-0.07152126
35	0xbd22a9d2	-0.039712735
36	0xbda6879b	-0.081313334
37	0x3cbc2d70	0.022970885
38	0x3ce4772b	0.027888855
39	0xbd8d8a06	-0.069110915
40	0x3df85d43	0.12127163
41	0x3db9d6f9	0.09074206
42	0x3c918a03	0.017766004
43	0xbc618344	-0.013764206
44	0xbd3da268	-0.04629746
45	0xbdd4fe1e	-0.104000315
46	0x3d978ced	0.07399926
47	0xbdb23a29	-0.087024994
48	0x3d34b3ad	0.044116665
49	0x3b85d5e0	0.004084334
50	0x3d57d92f	0.052697357
51	0xbdf94d4b	-0.121729456
52	0x3dafdeef	0.08587443
53	0x3cd3b203	0.025841719
54	0x3cb2d06c	0.021827899
55	0xbe037748	-0.12838471
56	0x39eefe60	0.00045584422
57	0x3dc1844f	0.09449064
58	0x3dbb26e7	0.091382794
59	0x3df9f242	0.1220441
60	0xbd9f2c6b	-0.07772144
61	0xbdf70724	-0.12061909
62	0x3d06e509	0.03293327
63	0x3dd3246d	0.10309682
64	0x3d42e21b	0.047578912
65	0x3df21519	0.1182043
66	0xbd1bc2e0	-0.038027644
67	0x3d785050	0.060623467
68	0xbc821faa	-0.01588424
69	0x3bf8de8d	0.0075948895
70	0xbe08973c	-0.13338941
71	0x3dedea87	0.11616998
72	0xbdb99be2	-0.090629354
73	0x3dcad391	0.09903634
74	0x3ccd092c	0.025028788
75	0x3dc43645	0.095806636
76	0x3d12d81d	0.035850633
77	0x3dfcf59e	0.12351535
78	0x3dbf85c4	0.09351686
79	0x3d95a740	0.07307291
80	0xbd8af86e	-0.067856655
81	0xbdedb671	-0.116070636
82	0xbdd770a4	-0.10519531
83	0x3cc91689	0.024546878
84	0xbdd9db82	-0.10637571
85	0x3dd037f6	0.10166924
86	0xbca29372	-0.019845698
87	0xbda25505	-0.079263724
88	0x3da11878	0.07865995
89	0x3ddf5c7f	0.10906314
90	0x3d1676bd	0.03673433
91	0x3c2c50f3	0.010517347
92	0x3dcb30bd	0.099214055
93	0xbd5816e7	-0.052756216
94	0x3da884cb	0.08228453
95	0x3aa91552	0.0012900031
96	0x3dd3593e	0.10319756
97	0x3d391324	0.04518427
98	0xbe050387	-0.12989627
99	0xbddd7b6e	-0.10814558
100	0x3dc5c988	0.0965758
101	0xbdc82824	-0.09773281
102	0xbd6afbcc	-0.05736904
103	0xbda1abf1	-0.07894123
104	0xbd68bf36	-0.056822978
105	0x3cc77928	0.024349764
106	0xbe0512ca	-0.12995449
107	0x3cab3306	0.020898353
108	0xbdd1d254	-0.10245195
109	0xbdbd5060	-0.09243846
110	0x3d8e27cd	0.06941185
111	0x3dc49bfc	0.09600064
112	0x3d9c3ce0	0.076287985
113	0xbd342d25	-0.043988366
114	0x3d2715a8	0.040792137
115	0xbd424846	-0.047432207
116	0x3cf20bbd	0.029546613
117	0x3d8c50ba	0.06851335
118	0xbd96a7ed	-0.07356248
119	0xbd7240e3	-0.059143912
120	0x3bf089c5	0.007340642
121	0xbc09baac	-0.008406322
122	0x3da56626	0.08076124
123	0x3da76466	0.08173446
124	0xbddee575	-0.10883609
125	0xbbd4e11e	-0.0064965626
126	0xbd156fec	-0.03648369
127	0xbdbe52f7	-0.09293168
128	0x3d95b4de	0.07309888
129	0xbddaaaf0	-0.10677135
130	0x3d88cfd0	0.06680262
131	0x3cc12da8	0.02358134
132	0x3dd7ab84	0.10530761
133	0x3db675d3	0.08909192
134	0x3c967411	0.018365892
135	0xbd3f8d67	-0.04676571
136	0x3d9ceeae	0.07662712
137	0x3df3bcf6	0.11901276
138	0x3d1b13a7	0.03786054
139	0x3d5cc7e1	0.053901557
140	0x3daac31a	0.08337994
141	0x3c9f0432	0.01941118
142	0x3bafbcb9	0.0053630737
143	0xbd9bcf5f	-0.07607912
144	0x3dba3c3f	0.09093522
145	0x3cc9fe41	0.02465737
146	0xbc2cb4d1	-0.010541157
147	0xbba40e0e	-0.0050065583
148	0x3c82e415	0.015977899
149	0xbe08285c	-0.13296646
150	0xbd884b10	-0.06654942
151	0xbcc474ea	-0.02398153
152	0xbda17262	-0.07883145
153	0x3dc41634	0.095745474
154	0xbc0f3002	-0.008739473
155	0xbd06dc66	-0.032925032
156	0x3d9dfde4	0.077144414
157	0x3d284ab2	0.04108686
158	0x3da8bbc9	0.08238942
159	0xbcf95498	-0.030435845
160	0x3ca74897	0.020420356
161	0x3df4ecce	0.119592294
162	0x3d19210c	0.03738503
163	0x3dc97692	0.098370686
164	0xbdd1c4ac	-0.1024259
165	0xbd8e6fa7	-0.0695489
166	0x3da96974	0.08272067
167	0xbc573971	-0.013136254
168	0xbcc45563	-0.023966497
169	0x3c8b3b54	0.016996063
170	0xbdcf5ac3	-0.10124733
171	0x3d09760d	0.033559848
172	0xbdf22439	-0.11823315
173	0x3cb20eb1	0.021735521
174	0xbda11b19	-0.078664966
175	0x3d1c13c8	0.038104802
176	0xbda6e6c6	-0.08149485
177	0xbbfe647a	-0.0077634426
178	0xbce5a953	-0.028034842
179	0xbe03851a	-0.12843743
180	0xbda34e42	-0.07973911
181	0xbdaf0703	-0.08546259
182	0xbdb5f536	-0.08884661
183	0x3cdff6b7	0.027339322
184	0x3dabb081	0.08383275
185	0x3d887a50	0.06663954
186	0x3da4b00f	0.08041393
187	0xbbd73099	-0.0065670726
188	0x3dc02923	0.09382846
189	0x3d99b3c4	0.07504991
190	0x3df90030	0.12158239
191	0x3cd051dc	0.025429659
192	0xbbd3a932	-0.0064593786
193	0xbd106385	-0.03525116
194	0x3d8771a0	0.06613469
195	0xbd0a50df	-0.03376853
196	0x3df1a582	0.11799146
197	0x3daf4ce0	0.085595846
198	0xbdf07aa5	-0.117421426
199	0xbd887e76	-0.066647455
200	0x3dddf79a	0.10838242
201	0x3d4c767a	0.049917676
202	0xbd457f74	-0.048217252
203	0xbd6bbca3	-0.057552945
204	0xbd8e5884	-0.06950477
205	0xbd042921	-0.032265786
206	0x3d509001	0.050918583
207	0x3da0668c	0.07832059
208	0xbdf7e7ae	-0.12104736
209	0xbddedfdd	-0.10882542
210	0xbd073f01	-0.03301907
211	0x3df6be6c	0.12048039
212	0xbcf1f27d	-0.029534573
213	0xbdb6a68a	-0.089184836
214	0x3ceadd47	0.028669966
215	0xbd25b868	-0.040459067
216	0x3d269a68	0.040674597
217	0x3d8bde93	0.06829562
218	0xbce04a47	-0.027379168
219	0x3d2ddf98	0.042449564
220	0x3d799cf5	0.0609407
221	0xbde34b4f	-0.11098348
222	0x3b385351	0.0028125832
223	0x3d17a67e	0.037024014
224	0x3dcd06dd	0.10011075
225	0x3dca5a48	0.09880501
226	0x3ccf7630	0.02532491
227	0x3d079d25	0.03310885
228	0x3d332d08	0.043744117
229	0xbda24097	-0.07922476
230	0xbd82d0ff	-0.06387519
231	0x3d3f2ca0	0.046673417
232	0xbd5bda11	-0.05367476
233	0xbd085374	-0.033282712
234	0x3e1fb803	0.15597539
235	0xbd945916	-0.07243554
236	0xbc8b3c54	-0.01699654
237	0xbc311e87	-0.010810501
238	0x3d80e6d2	0.062940255
239	0x3dd60e97	0.104520015
240	0x3d6fc94d	0.058541585
241	0xbd5f7bc1	-0.05456138
242	0x3dc3d614	0.095623165
243	0x3d19700e	0.03746038
244	0x3d94a9ea	0.07258971
245	0x3dc453ac	0.09586272
246	0x3d06cb30	0.03290862
247	0xbd808c18	-0.06276721
248	0x3b053999	0.002032852
249	0xbcee3528	-0.029078081
250	0x3cbac39a	0.022798348
251	0x3d948a6d	0.07252965
252	0x3d755b59	0.05990157
253	0xbdae7854	-0.085190445
254	0xbad9d45f	-0.0016619078
255	0xbdaf7088	-0.085663855

fc2.bias f4 [64]
0	0x3caafc88	0.02087237
1	0xbd88be26	-0.06676893
2	0xbb02d24f	-0.001996178
3	0xbc2c958d	-0.010533703
4	0x39120c14	0.00013928144
5	0xbd580c58	-0.052746147
6	0x3d3c211f	0.045930024
7	0x378d874c	1.6871512e-05
8	0x3d6791ff	0.056535717
9	0xbc914834	-0.017734624
10	0xbc556969	-0.01302562
11	0x3d816e25	0.063198365
12	0xba011126	-0.0004923515
13	0xbb080f4e	-0.0020761075
14	0x3c20682d	0.009790462
15	0xbcddf391	-0.02709368
16	0x3d52f19f	0.05149996
17	0xbc99e6b2	-0.018786762
18	0xbd941964	-0.072314054
19	0xbd6c297a	-0.057656743
20	0x3c5d435d	0.01350483
21	0x3a441f9b	0.0007481516
22	0xb8d3c7e8	-0.000100984995
23	0xbd46e415	-0.04855736
24	0xbd2abece	-0.04168587
25	0x3d7197fa	0.058982827
26	0xbb0861c7	-0.0020810233
27	0xba618aa5	-0.00086037285
28	0xbd4a0093	-0.049316954
29	0x3a6ec29d	0.0009107979
30	0xbda48dd9	-0.08034868
31	0x3c8d091f	0.017216263
32	0x3cf10de7	0.029425574
33	0xbadee595	-0.0017005677
34	0x3c45358b	0.012036691
35	0xbd23cc7b	-0.03998993
36	0xbd67cb3d	-0.056590308
37	0x3da8e7f4	0.082473665
38	0x3cb45216	0.022011798
39	0xbcfcf965	-0.03088064
40	0xbc96cc7a	-0.018408049
41	0xb9963fd6	-0.0002865779
42	0xbd9cd02d	-0.07656894
43	0xbd626979	-0.055276368
44	0x3d97f458	0.07419652
45	0x3a8705c7	0.0010301404
46	0xbc91ceb2	-0.017798755
47	0xbad32459	-0.0016108855
48	0x3d2446e8	0.040106684
49	0xbda62f54	-0.08114496
50	0xbb0e0a1d	-0.0021673508
51	0x3da36993	0.07979121
52	0x3c6822f3	0.014168489
53	0x3c2c9b0a	0.010535011
54	0xbd7f04e4	-0.062260523
55	0xbad7f104	-0.0016475026
56	0xba1e34a6	-0.0006035067
57	0xbd56126c	-0.052263662
58	0x3c6940bf	0.014236628
59	0x3a4b8b8b	0.0007764629
60	0x3ade5636	0.0016962949
61	0x3a48d280	0.00076607615
62	0xbd9504b0	-0.07276285
63	0x3cb20c85	0.021734485

out.weight f4 [1, 64]
0	0x3d52577f	0.051352974
1	0xbd61e424	-0.055149212
2	0x3cdce0a9	0.026962595
3	0xbd1ff409	-0.03905109
4	0x3d6f0c16	0.058361135
5	0x3da90ae1	0.08254028
6	0x3e03317f	0.1281185
7	0x3d8383f6	0.06421654
8	0xbd893f7d	-0.067015626
9	0x394588d6	0.0001883836
10	0x3c692eed	0.014232379
11	0x3c5387ee	0.012910826
12	0x3d6f0d5d	0.058362354
13	0x3e13383f	0.14376925
14	0x3e050339	0.1298951
15	0x3cffbb4f	0.031217245
16	0xbcac982f	-0.02106866
17	0xbc97eb1e	-0.01854473
18	0x3da7c44c	0.081917375
19	0xbc30ce3b	-0.010791357
20	0x3ba7e172	0.0051233107
21	0x3c9d64b2	0.019213054
22	0x3dc50f4a	0.09622057
23	0x3da2a537	0.079416685
24	0x3c3104ff	0.010804414
25	0xbdaf3ef1	-0.08556927
26	0xbdc8b3f6	-0.0979995
27	0xbda4124e	-0.08011304
28	0xbccc4f7e	-0.024940249
29	0x3d59280b	0.053016704
30	0x3de69c24	0.1126025
31	0x3e060843	0.13089089
32	0x3e17d63e	0.1482782
33	0x3deeeadb	0.11665889
34	0x3df52504	0.11969951
35	0x3d91df98	0.07122725
36	0xbd5fb193	-0.054612707
37	0x3d96279b	0.07331773
38	0x3cb27ebd	0.02178895
39	0xbc19f2d9	-0.009396278
40	0x3d58169c	0.052755937
41	0xbd113817	-0.035453882
42	0xbcdd70db	-0.027031353
43	0xbd8a7212	-0.067600384
44	0x3dacadce	0.08431588
45	0x3d90aeb3	0.07064571
46	0x3d5e7d8c	0.05431895
47	0x3da0537e	0.07828425
48	0x3d03bd96	0.032163225
49	0xbdf7dc89	-0.121026106
50	0x3e04624d	0.12928124
51	0x3e027526	0.12740001
52	0x3da7722f	0.08176076
53	0x3df1b48d	0.118020155
54	0x3d34b097	0.04411372
55	0x3e080212	0.1328204
56	0xbd7466e0	-0.05966842
57	0xbd744a7e	-0.059641354
58	0xbc84bebc	-0.01620423
59	0x3d9175b0	0.07102525
60	0xbda5c17c	-0.08093545
61	0x3b6200eb	0.003448541
62	0xbdcf1cef	-0.101129405
63	0xbd3553ea	-0.04426948

bn.weight f4 [64]
0	0x3f8221ce	1.0166566
1	0x3f7ce879	0.98792225
2	0x3f7eca7e	0.9952773
3	0x3f82b5ef	1.0211772
4	0x3f803966	1.0017517
5	0x3f81c5ad	1.0138451
6	0x3f826948	1.0188379
7	0x3f843813	1.0329612
8	0x3f7a2578	0.9771342
9	0x3f7c21aa	0.9848887
10	0x3f7fd6b6	0.99937
11	0x3f8090c6	1.0044181
12	0x3f83c041	1.0293046
13	0x3f82465e	1.0177724
14	0x3f825287	1.0181435
15	0x3f81717d	1.0112759
16	0x3f810bf7	1.0081776
17	0x3f7d0952	0.98842347
18	0x3f80684b	1.0031828
19	0x3f7cccdd	0.98750097
20	0x3f801a3c	1.0008006
21	0x3f7d23a1	0.9888249
22	0x3f83cbd6	1.0296581
23	0x3f80f9e3	1.0076259
24	0x3f7f1e13	0.99655265
25	0x3f7eba71	0.99503237
26	0x3f7d3695	0.9891141
27	0x3f7eb2e2	0.99491704
28	0x3f7ce537	0.98787254
29	0x3f7f3501	0.9969025
30	0x3f8005e5	1.0001799
31	0x3f80e109	1.0068675
32	0x3f8378dd	1.027126
33	0x3f815037	1.0102605
34	0x3f81dc7c	1.0145411
35	0x3f81068a	1.008012
36	0x3f827061	1.0190545
37	0x3f84a0ee	1.0361612
38	0x3f7f3f29	0.9970575
39	0x3f78133c	0.9690435
40	0x3f83b112	1.0288413
41	0x3f7be64d	0.98398286
42	0x3f7937f2	0.9735099
43	0x3f7b84f9	0.98249775
44	0x3f80fcac	1.0077109
45	0x3f7daf7e	0.99095905
46	0x3f82962d	1.020208
47	0x3f8389c8	1.0276423
48	0x3f8140ff	1.009796
49	0x3f7cfcf3	0.9882347
50	0x3f817839	1.0114814
51	0x3f8092fa	1.0044854
52	0x3f838d88	1.0277567
53	0x3f824d26	1.0179794
54	0x3f7f623d	0.99759275
55	0x3f83821a	1.0274079
56	0x3f7b64cf	0.98200697
57	0x3f7f884e	0.9981736
58	0x3f7e2185	0.99269897
59	0x3f7e3b46	0.99309194
60	0x3f7c3b38	0.9852786
61	0x3f8396c1	1.0280381
62	0x3f7b07f9	0.9805904
63	0x3f7f5e27	0.9975304

bn.bias f4 [64]
0	0x3c9ebd6e	0.019377436
1	0xbc842f52	-0.016135845
2	0xbc76bd66	-0.015059805
3	0xbb8d6eda	-0.004316193
4	0xbba25832	-0.0049543614
5	0x3ce0b3ae	0.027429428
6	0x3c855477	0.016275628
7	0x3c9a738b	0.018853923
8	0xbc99b38e	-0.018762376
9	0xbc56a18b	-0.013100038
10	0x3ccfb80f	0.02535632
11	0xbb637f7b	-0.0034713435
12	0x3cad5a5c	0.02116125
13	0x3c9a9104	0.018867977
14	0x3c7cdb91	0.015433208
15	0x3d15dfdd	0.036590446
16	0x3d0f6266	0.03500595
17	0xbc8c63ef	-0.017137496
18	0x3bfdd582	0.0077463994
19	0x3d2a84c8	0.041630536
20	0xbcf70955	-0.030155817
21	0x3d01a9fa	0.031656243
22	0x3ca18ae6	0.019719552
23	0x3ce72a3e	0.028218385
24	0x3bc81c1a	0.0061068656
25	0xbc76f707	-0.015073544
26	0xbc7e41b5	-0.015518595
27	0xbc9696c6	-0.018382441
28	0xbc539066	-0.012912845
29	0x3bf9c193	0.007621953
30	0x3cd10a23	0.025517529
31	0x3c61a4d0	0.0137722045
32	0x3cb76b5c	0.02239006
33	0x3c78fd7c	0.015197154
34	0x3b0bbd8d	0.0021322698
35	0x3bc9dae5	0.0061601275
36	0xbc94d55b	-0.018168142
37	0x3cc17e82	0.023619894
38	0x3cca1c7e	0.02467179
39	0xbc9f8f38	-0.019477472
40	0x3c7203ff	0.014771461
41	0xbc9d3de7	-0.019194556
42	0xbc01fbfe	-0.007933615
43	0xbc9e3f9d	-0.019317443
44	0x3c8aa2a0	0.016923249
45	0x3c8380f3	0.016052699
46	0xba29e0a7	-0.0006480314
47	0x3c8c5871	0.017132016
48	0xbbafc23a	-0.00536373
49	0xbcb91338	-0.022592172
50	0x3c4aaf66	0.01237092
51	0x3c5139de	0.012770144
52	0x3c971850	0.01844421
53	0x3c138e95	0.009006162
54	0x3c730cc6	0.014834588
55	0x3c0c3289	0.00855697
56	0xbc981474	-0.01856444
57	0xbc96ba53	-0.018399393
58	0x3ae6908a	0.0017590683
59	0x3c2afd08	0.010436304
60	0xbc884818	-0.01663594
61	0x3d1f3cd1	0.03887636
62	0xbc8032ec	-0.015649281
63	0xbc75a301	-0.014992476

bn.running_mean f4 [64]
0	0xbeb14a9e	-0.3462724
1	0xbd1eb125	-0.038743157
2	0x3e3c0cf7	0.1836432
3	0x3d9c7b91	0.07640756
4	0x3e9c3538	0.30509353
5	0x3e4a9ea4	0.19787079
6	0x3dbca328	0.09210807
7	0x3da330ea	0.07968314
8	0xbd546fd1	-0.05186445
9	0x3ec0c70f	0.3765187
10	0x3dc8baa2	0.098012224
11	0xbb50dcce	-0.003186989
12	0x3e5d632b	0.21619861
13	0xbe220d7b	-0.15825455
14	0x3b90a4e4	0.0044141877
15	0x3e057b9b	0.13035433
16	0xbe17c5cc	-0.14821547
17	0x3e91562a	0.2838605
18	0xbe06e15a	-0.13171902
19	0xbd1dcf87	-0.03852799
20	0xbd3cae24	-0.04606451
21	0xbdb42e47	-0.08797889
22	0x3dec0d46	0.11525969
23	0x3dc00a54	0.0937697
24	0x3ea0f189	0.31434277
25	0xbefae196	-0.49000233
26	0x3ec30131	0.38086846
27	0x3eb204d4	0.3476931
28	0x3eb03187	0.34412786
29	0xbe84979d	-0.25896922
30	0xbe145d78	-0.1448878
31	0x3e2d9a81	0.1695347
32	0x3e669a59	0.22519816
33	0xbe87c374	-0.26516306
34	0x3ed5b8c5	0.4174253
35	0x3e426912	0.18985394
36	0xbe484b43	-0.1955996
37	0x3e8b192f	0.2716765
38	0x3e877b06	0.26461047
39	0xbdf088bf	-0.11744832
40	0x3ddd54c6	0.10807185
41	0x3dbc657a	0.091990426
42	0x3eebf368	0.46084142
43	0xbecf7ce2	-0.40524966
44	0xbeb95b0b	-0.36202273
45	0xbe95ba02	-0.29243475
46	0x3e933ee7	0.28758928
47	0x3bf47b19	0.0074609634
48	0x3e7189ea	0.23587766
49	0x3c7d86b8	0.015474014
50	0xbf12c063	-0.5732481
51	0x3dd6fd63	0.104975484
52	0x3d303efd	0.04302882
53	0xbe9d06eb	-0.3066934
54	0xbe5ea9cc	-0.2174446
55	0x3e750cbf	0.23930643
56	0xbe72c3bc	-0.23707479
57	0xbd2893d5	-0.04115661
58	0xbe7803cb	-0.24220197
59	0x3e8a130a	0.2696765
60	0x3db1a053	0.086731575
61	0xbdb8960c	-0.09012994
62	0x3e9dace4	0.30795968
63	0x3e25e5b0	0.162009

bn.running_var f4 [64]
0	0x3f0b976c	0.54527926
1	0x3eb063fa	0.34451276
2	0x3f234422	0.6377584
3	0x3e3fa277	0.18714319
4	0x3ecc53ec	0.39907777
5	0x3ebe3106	0.37146777
6	0x3e4721ca	0.19446483
7	0x3e9c146f	0.3048434
8	0x3ee6fae5	0.45113292
9	0x3ee9ec20	0.45687962
10	0x3eff02d0	0.49806833
11	0x3e15ca58	0.1462797
12	0x3e6826e1	0.22671081
13	0x3e76561d	0.24056287
14	0x3e26a4ae	0.16273758
15	0x3e80b36b	0.25136885
16	0x3e9b6214	0.30348265
17	0x3f6e6a3b	0.93130845
18	0x3e92bd50	0.2866006
19	0x3e5e5e02	0.21715549
20	0x3eac4e2f	0.336534
21	0x3f0b52df	0.54423326
22	0x3e82ce09	0.25547817
23	0x3ec3986b	0.38202223
24	0x3f850a6f	1.0393809
25	0x3f611eb1	0.87937456
26	0x3f30d69f	0.69077486
27	0x3ebbb155	0.3665873
28	0x3e9c7c0a	0.30563384
29	0x3ec80c76	0.39072007
30	0x3e9ce10a	0.3064044
31	0x3ec6b507	0.38809988
32	0x3f6f2a86	0.9342426
33	0x3f0b7614	0.5447705
34	0x3eb8b3fb	0.36074814
35	0x3f1065b0	0.5640516
36	0x3ebe5a6d	0.37178364
37	0x3e5f7d16	0.2182506
38	0x3eb02414	0.34402525
39	0x3edf60ff	0.4362869
40	0x3e91cd85	0.2847711
41	0x3eceb3e2	0.40371615
42	0x3e6a867a	0.22902861
43	0x3f5289e2	0.8224164
44	0x3eaae194	0.33375227
45	0x3ea46028	0.3210461
46	0x3e96f652	0.29484802
47	0x3e126c37	0.14299093
48	0x3e3fd3e8	0.1873318
49	0x3e534f6e	0.20635769
50	0x3f934d37	1.1507939
51	0x3e67416d	0.22583552
52	0x3ea5c2fa	0.32375318
53	0x3f64bbaf	0.8934888
54	0x3f085f8f	0.5327081
55	0x3e372fa3	0.17889266
56	0x3e936ecb	0.28795466
57	0x3d3d66c2	0.046240576
58	0x3e6641e7	0.22486077
59	0x3f29bd4b	0.66304463
60	0x3ee1a10e	0.44068187
61	0x3ec2bba7	0.38033792
62	0x3f0853b6	0.5325273
63	0x3e6ee518	0.2332958

net.0.weight f4 [64, 5]
0	0x3ead9571	0.33903077
1	0x3e142001	0.14465334
2	0xbe769782	-0.24081233
3	0xbe9dacfb	-0.30796036
4	0xbe1929df	-0.14957379
5	0x3e57e69f	0.21084069
6	0xbde3d529	-0.111246414
7	0xbe6ea112	-0.23303631
8	0x3d6b2053	0.057403874
9	0x3e8874fc	0.26651752
10	0xbee5926e	-0.4483828
11	0xbdeb3f19	-0.11486644
12	0x3ec3e4f1	0.38260606
13	0x3e0945e2	0.13405564
14	0x3ecd7785	0.4013025
15	0xbe984c19	-0.29745558
16	0xbdbd08e3	-0.09230211
17	0x3d5ee430	0.054416835
18	0xbd2f2fd2	-0.042770214
19	0x3ec8b881	0.39203265
20	0xbe007e04	-0.12548071
21	0xbe7d8be2	-0.24760392
22	0x3e15c328	0.14625227
23	0x3e520771	0.20510651
24	0xbe48a557	-0.19594322
25	0xbd9b533b	-0.07584234
26	0x3ea98536	0.33109444
27	0xbeb00774	-0.34380686
28	0x3eb451a0	0.35218525
29	0xbebc7e6f	-0.3681521
30	0x3e8282fa	0.25490552
31	0xbe0143ea	-0.12623563
32	0x3d55c488	0.05218938
33	0xbde1307a	-0.10995574
34	0xbe7e96f3	-0.2486227
35	0xbcb30725	-0.021853993
36	0xbef0937e	-0.46987528
37	0x3c0e4bd4	0.008685071
38	0x3e95bf69	0.29247597
39	0xbdd1b730	-0.10240018
40	0x3cee7469	0.029108243
41	0xbeb53d5a	-0.3539837
42	0xbdd0c3e4	-0.10193613
43	0xbdbbcf87	-0.09170442
44	0x3ed2221a	0.41041642
45	0xbec9b827	-0.3939831
46	0x3db46d0d	0.08809862
47	0x3e296f37	0.16546331
48	0x3e1138b4	0.14181787
49	0xbddd6f01	-0.10812188
50	0x3db032d3	0.08603444
51	0x3e1f7db9	0.15575303
52	0x3da7c974	0.08192721
53	0x3ebd6a5b	0.36995205
54	0xbe3d93ef	-0.18513463
55	0xbe7eb8b7	-0.2487515
56	0x3e33aa46	0.17545423
57	0xbe3e7c54	-0.18602115
58	0x3e160a6c	0.14652413
59	0xbdb88ade	-0.09010862
60	0xbe6ef813	-0.2333682
61	0xbeae126e	-0.33998436
62	0xbe951b5b	-0.29122433
63	0x3e9889c8	0.2979262
64	0x3b8b7697	0.0042560804
65	0xbc656c17	-0.014002821
66	0xbe9ad0da	-0.30237466
67	0xbdf91ef6	-0.121641085
68	0xbe964cd5	-0.29355493
69	0xbe76da91	-0.24106814
70	0x3e932fef	0.28747508
71	0xbe1e14a3	-0.1543756
72	0xbdd1b651	-0.10239852
73	0x3d3d9402	0.04628373
74	0xbe1b85d0	-0.15187764
75	0xbea9d0b7	-0.3316705
76	0x3d0abff0	0.033874452
77	0x3dde3220	0.10849404
78	0xbe5b52a5	-0.21418245
79	0xbe990e67	-0.298938
80	0xbd7f8dc8	-0.062391073
81	0x3e831d37	0.25608227
82	0xbeac6c55	-0.336764
83	0xbe39a64e	-0.18129846
84	0xbee5fefc	-0.449211
85	0xbec3cfbc	-0.38244426
86	0x3e5e1d3e	0.21690843
87	0x3eacd81f	0.33758637
88	0x3eb259c1	0.34834102
89	0x3e56397b	0.20920365
90	0xbeb7dcfe	-0.3591079
91	0xbc300bae	-0.010744972
92	0xbe147689	-0.14498343
93	0x3d512219	0.05105791
94	0xbe5dcd41	-0.2166033
95	0x3e833263	0.2562438
96	0x3ec173de	0.37783712
97	0xbd112cd6	-0.03544315
98	0x3d89a99c	0.067218035
99	0x3dc0642e	0.09394108
100	0x3d8e036f	0.06934249
101	0xbed5f56f	-0.41788813
102	0xbdafa005	-0.08575443
103	0xbe70c1bc	-0.23511404
104	0x3e16619f	0.14685677
105	0xbbe2fd2d	-0.0069271536
106	0xbda81c4c	-0.08208522
107	0xbea6eeed	-0.3260416
108	0xbed41afc	-0.41426837
109	0xbe185ce0	-0.14879179
110	0xbe035d32	-0.1282852
111	0x3ecbf3c8	0.39834428
112	0xbe5864d2	-0.2113221
113	0xbe7abbe6	-0.2448574
114	0xbeac0bf0	-0.33602858
115	0xbdf87fe9	-0.12133772
116	0x3ee49179	0.44642237
117	0xbed1f277	-0.41005298
118	0x3e7dc104	0.24780661
119	0xbebaee5f	-0.36509988
120	0xbe8496f6	-0.25896424
121	0x3e156e57	0.14592873
122	0x3eca10cc	0.3946594
123	0x3e5a71ee	0.21332523
124	0xbec5e01e	-0.3864755
125	0x3ec46b66	0.38363189
126	0x3ea53440	0.32266426
127	0xbe26db9d	-0.16294713
128	0xbec91e16	-0.39280766
129	0x3e2d3ccd	0.16917725
130	0xbe2eeb7a	-0.17082015
131	0xbb9e9b85	-0.0048403167
132	0x3e7d1999	0.24716796
133	0x3eab0e23	0.33409223
134	0xbe7be8a3	-0.24600463
135	0xbd7b661e	-0.061376683
136	0x3d92509a	0.0714428
137	0x3ce17999	0.027523803
138	0x3ec2a09f	0.3801317
139	0xbe48612f	-0.19568323
140	0xbc312f79	-0.010814541
141	0x3d71d37c	0.059039578
142	0x3d9a146c	0.075234264
143	0x3eec90e7	0.46204302
144	0x3d638461	0.05554617
145	0x3ec14b5b	0.37752804
146	0xbe86a58e	-0.26298183
147	0x3e45bdec	0.1931073
148	0xbc227f1d	-0.0099180015
149	0x3ee71230	0.45131063
150	0xbe28b465	-0.16475065
151	0x3cff64ae	0.031175938
152	0x3e6609a6	0.22464618
153	0xbe60f5ba	-0.21968737
154	0xbeab7d59	-0.3349407
155	0x3eaf02ab	0.34181723
156	0x3e1ecfd4	0.15508968
157	0x3e9f44c3	0.3110715
158	0xbe6d6c09	-0.23185743
159	0xbedd1c8b	-0.4318584
160	0xbe442cea	-0.19157758
161	0xbebc998f	-0.36835906
162	0x3ea87227	0.3289959
163	0x3ea314f6	0.3185193
164	0xbea5658c	-0.32304037
165	0x3e991fd7	0.29907104
166	0x3ee642d4	0.4497286
167	0xbed8e017	-0.42358467
168	0x3ecdbfea	0.4018548
169	0x3e2bf099	0.16791
170	0x3cfa7ca6	0.030577015
171	0xbec0b538	-0.3763826
172	0x3e939e83	0.28831872
173	0x3eaf1d2e	0.3420195
174	0x3e7b9826	0.24569759
175	0xbe4eed9e	-0.20207831
176	0x3e8e5ae7	0.27803728
177	0x3eb59def	0.35472056
178	0xbe178fd6	-0.14800963
179	0xbec773ae	-0.38955444
180	0x3bed3aca	0.007239674
181	0x3ec59bb1	0.38595346
182	0xbe57916e	-0.21051571
183	0xbd2a9cd9	-0.041653488
184	0x3ec94edc	0.39317977
185	0xbe8f36d3	-0.27971515
186	0x3ebd3f6b	0.36962447
187	0x3d75a0a8	0.059967667
188	0xbcec64dc	-0.028856687
189	0x3e9c1ee5	0.3049232
190	0x3ebc80b5	0.36816946
191	0x3ac7bba2	0.0015238414
192	0x3e4854dd	0.19563623
193	0x3ee97e8f	0.4560437
194	0xbd484559	-0.04889426
195	0xbe1fe323	-0.1561399
196	0xbebb9f1b	-0.36644825
197	0xbec1b424	-0.3783275
198	0x3e8fb66a	0.28068858
199	0x3ed45520	0.41471195
200	0xbdc364c2	-0.095407024
201	0xbe9aaa90	-0.30208254
202	0x3e9d81d9	0.30763128
203	0xbe02fb38	-0.12791145
204	0xbe3e97da	-0.18612614
205	0xbe6362eb	-0.22205703
206	0xbecc98ad	-0.39960232
207	0x3c64e0df	0.013969629
208	0x3eb448e3	0.35211858
209	0xbd467dd0	-0.048459828
210	0x3ed12d64	0.40854943
211	0x3ea989ec	0.3311304
212	0x3e7e1713	0.2481349
213	0xbd648f3f	-0.055800673
214	0xbe136560	-0.1439414
215	0x3e0d05ad	0.13771696
216	0x3ec95a04	0.3932649
217	0xbeb419e3	-0.35176
218	0xbeb975c1	-0.36222652
219	0x3e00b03b	0.12567227
220	0x3e3287b3	0.17434578
221	0xbe49da7c	-0.19712251
222	0xbd8c14ac	-0.0683988
223	0xbe5bc4bb	-0.21461765
224	0x3e23d9a2	0.16000989
225	0xbebe44b5	-0.37161794
226	0xbebb3ed4	-0.36571372
227	0xbea9b7cb	-0.33148035
228	0xbde69791	-0.11259378
229	0x3df1a68a	0.11799343
230	0xbe4d6276	-0.20057091
231	0xbe6fed5f	-0.23430394
232	0x3dd7af59	0.10531492
233	0x3d824422	0.063606516
234	0xbe544542	-0.20729545
235	0xbe2f0907	-0.17093287
236	0x3d4f4f1d	0.050612558
237	0xbea0588b	-0.31317553
238	0xbe0e3a6a	-0.1388947
239	0xbdd4acb2	-0.103845015
240	0x3e7bd7bb	0.24594013
241	0x3d563cb6	0.052303992
242	0xbe4b3698	-0.19845045
243	0xbd56125d	-0.052263606
244	0xbeb7896d	-0.35847035
245	0x3defb0d7	0.117036514
246	0xbd88f670	-0.06687629
247	0xbe40427f	-0.18775366
248	0xbe2aa9cb	-0.16666333
249	0xbec0f815	-0.37689272
250	0x3edfe01c	0.4372567
251	0xbe89a4bb	-0.26883492
252	0xbebc5272	-0.3678165
253	0xbea6f9c8	-0.32612443
254	0x3ddf82ce	0.10913621
255	0x3e98ed22	0.29868418

net.0.bias f4 [64]
0	0xbe4faaf9	-0.20280065
1	0x3e8acd12	0.2710958
2	0xbe18c189	-0.14917578
3	0xbaacbf95	-0.0013179654
4	0xbdaa7f7a	-0.083250955
5	0x3d484ed6	0.04890331
6	0x3ea0e71d	0.31426325
7	0x3cd7220b	0.02626135
8	0x3d3423ad	0.043979336
9	0x3e41dfa1	0.18932964
10	0x3b0d1c8b	0.0021531906
11	0xbddcf3c1	-0.1078868
12	0xbac0cc4b	-0.0014709322
13	0xbeb0e0d4	-0.3454653
14	0x3e71aa07	0.23600017
15	0x3e4d1b93	0.2003005
16	0xbe253fd7	-0.16137634
17	0xbdd86a16	-0.10567109
18	0xbe7bdade	-0.2459521
19	0xbe308fd9	-0.17242374
20	0x3e5e186d	0.21689005
21	0xbeb479ee	-0.35249275
22	0x3ec4c9c8	0.38435197
23	0x3e84c2a4	0.2592975
24	0xbaeb62ed	-0.0017958559
25	0x3a2be866	0.00065577624
26	0x3ea7df89	0.3278773
27	0x3e09861b	0.13430063
28	0x3ea3d787	0.32000372
29	0x3e013163	0.12616496
30	0xbe802d27	-0.25034449
31	0x3e193cdb	0.14964621
32	0xbcbaa4bd	-0.022783631
33	0xba643d5c	-0.0008706653
34	0x3e56e029	0.20983948
35	0x3e1d3103	0.15350728
36	0xbda50e5c	-0.080593795
37	0x3e8f669f	0.2800798
38	0x3ec965ef	0.39335582
39	0x3eb91db8	0.36155486
40	0xbd9e4af0	-0.07729137
41	0xbe592061	-0.21203758
42	0x3eab66d8	0.334769
43	0x3c99b561	0.018763246
44	0xbec4c7a1	-0.38433555
45	0xbe8037e5	-0.25042644
46	0x3e60de71	0.21959855
47	0x3e951a3f	0.29121587
48	0x3e9e0cb6	0.30869073
49	0x3e21f940	0.15817738
50	0xbe83f7e0	-0.2577505
51	0x3e2c721c	0.16840404
52	0xbb84525d	-0.004038139
53	0x3e1b3a68	0.15158999
54	0xbe115526	-0.14192638
55	0x3e6450b7	0.22296415
56	0xbe87aef1	-0.26500657
57	0x3d9b4731	0.07581938
58	0xbdc2254c	-0.0947977
59	0x3da3e284	0.08002189
60	0x3b00ef24	0.001967379
61	0xbe402498	-0.1876396
62	0x3ebd063f	0.36918828
63	0x3ea805bb	0.32816872

net.1.weight f4 [64]
0	0x3f8221ce	1.0166566
1	0x3f7ce879	0.98792225
2	0x3f7eca7e	0.9952773
3	0x3f82b5ef	1.0211772
4	0x3f803966	1.0017517
5	0x3f81c5ad	1.0138451
6	0x3f826948	1.0188379
7	0x3f843813	1.0329612
8	0x3f7a2578	0.9771342
9	0x3f7c21aa	0.9848887
10	0x3f7fd6b6	0.99937
11	0x3f8090c6	1.0044181
12	0x3f83c041	1.0293046
13	0x3f82465e	1.0177724
14	0x3f825287	1.0181435
15	0x3f81717d	1.0112759
16	0x3f810bf7	1.0081776
17	0x3f7d0952	0.98842347
18	0x3f80684b	1.0031828
19	0x3f7cccdd	0.98750097
20	0x3f801a3c	1.0008006
21	0x3f7d23a1	0.9888249
22	0x3f83cbd6	1.0296581
23	0x3f80f9e3	1.0076259
24	0x3f7f1e13	0.99655265
25	0x3f7eba71	0.99503237
26	0x3f7d3695	0.9891141
27	0x3f7eb2e2	0.99491704
28	0x3f7ce537	0.98787254
29	0x3f7f3501	0.9969025
30	0x3f8005e5	1.0001799
31	0x3f80e109	1.0068675
32	0x3f8378dd	1.027126
33	0x3f815037	1.0102605
34	0x3f81dc7c	1.0145411
35	0x3f81068a	1.008012
36	0x3f827061	1.0190545
37	0x3f84a0ee	1.0361612
38	0x3f7f3f29	0.9970575
39	0x3f78133c	0.9690435
40	0x3f83b112	1.0288413
41	0x3f7be64d	0.98398286
42	0x3f7937f2	0.9735099
43	0x3f7b84f9	0.98249775
44	0x3f80fcac	1.0077109
45	0x3f7daf7e	0.99095905
46	0x3f82962d	1.020208
47	0x3f8389c8	1.0276423
48	0x3f8140ff	1.009796
49	0x3f7cfcf3	0.9882347
50	0x3f817839	1.0114814
51	0x3f8092fa	1.0044854
52	0x3f838d88	1.0277567
53	0x3f824d26	1.0179794
54	0x3f7f623d	0.99759275
55	0x3f83821a	1.0274079
56	0x3f7b64cf	0.98200697
57	0x3f7f884e	0.9981736
58	0x3f7e2185	0.99269897
59	0x3f7e3b46	0.99309194
60	0x3f7c3b38	0.9852786
61	0x3f8396c1	1.0280381
62	0x3f7b07f9	0.9805904
63	0x3f7f5e27	0.9975304

net.1.bias f4 [64]
0	0x3c9ebd6e	0.019377436
1	0xbc842f52	-0.016135845
2	0xbc76bd66	-0.015059805
3	0xbb8d6eda	-0.004316193
4	0xbba25832	-0.0049543614
5	0x3ce0b3ae	0.027429428
6	0x3c855477	0.016275628
7	0x3c9a738b	0.018853923
8	0xbc99b38e	-0.018762376
9	0xbc56a18b	-0.013100038
10	0x3ccfb80f	0.02535632
11	0xbb637f7b	-0.0034713435
12	0x3cad5a5c	0.02116125
13	0x3c9a9104	0.018867977
14	0x3c7cdb91	0.015433208
15	0x3d15dfdd	0.036590446
16	0x3d0f6266	0.03500595
17	0xbc8c63ef	-0.017137496
18	0x3bfdd582	0.0077463994
19	0x3d2a84c8	0.041630536
20	0xbcf70955	-0.030155817
21	0x3d01a9fa	0.031656243
22	0x3ca18ae6	0.019719552
23	0x3ce72a3e	0.028218385
24	0x3bc81c1a	0.0061068656
25	0xbc76f707	-0.015073544
26	0xbc7e41b5	-0.015518595
27	0xbc9696c6	-0.018382441
28	0xbc539066	-0.012912845
29	0x3bf9c193	0.007621953
30	0x3cd10a23	0.025517529
31	0x3c61a4d0	0.0137722045
32	0x3cb76b5c	0.02239006
33	0x3c78fd7c	0.015197154
34	0x3b0bbd8d	0.0021322698
35	0x3bc9dae5	0.0061601275
36	0xbc94d55b	-0.018168142
37	0x3cc17e82	0.023619894
38	0x3cca1c7e	0.02467179
39	0xbc9f8f38	-0.019477472
40	0x3c7203ff	0.014771461
41	0xbc9d3de7	-0.019194556
42	0xbc01fbfe	-0.007933615
43	0xbc9e3f9d	-0.019317443
44	0x3c8aa2a0	0.016923249
45	0x3c8380f3	0.016052699
46	0xba29e0a7	-0.0006480314
47	0x3c8c5871	0.017132016
48	0xbbafc23a	-0.00536373
49	0xbcb91338	-0.022592172
50	0x3c4aaf66	0.01237092
51	0x3c5139de	0.012770144
52	0x3c971850	0.01844421
53	0x3c138e95	0.009006162
54	0x3c730cc6	0.014834588
55	0x3c0c3289	0.00855697
56	0xbc981474	-0.01856444
57	0xbc96ba53	-0.018399393
58	0x3ae6908a	0.0017590683
59	0x3c2afd08	0.010436304
60	0xbc884818	-0.01663594
61	0x3d1f3cd1	0.03887636
62	0xbc8032ec	-0.015649281
63	0xbc75a301	-0.014992476

net.1.running_mean f4 [64]
0	0xbeb14a9e	-0.3462724
1	0xbd1eb125	-0.038743157
2	0x3e3c0cf7	0.1836432
3	0x3d9c7b91	0.07640756
4	0x3e9c3538	0.30509353
5	0x3e4a9ea4	0.19787079
6	0x3dbca328	0.09210807
7	0x3da330ea	0.07968314
8	0xbd546fd1	-0.05186445
9	0x3ec0c70f	0.3765187
10	0x3dc8baa2	0.098012224
11	0xbb50dcce	-0.003186989
12	0x3e5d632b	0.21619861
13	0xbe220d7b	-0.15825455
14	0x3b90a4e4	0.0044141877
15	0x3e057b9b	0.13035433
16	0xbe17c5cc	-0.14821547
17	0x3e91562a	0.2838605
18	0xbe06e15a	-0.13171902
19	0xbd1dcf87	-0.03852799
20	0xbd3cae24	-0.04606451
21	0xbdb42e47	-0.08797889
22	0x3dec0d46	0.11525969
23	0x3dc00a54	0.0937697
24	0x3ea0f189	0.31434277
25	0xbefae196	-0.49000233
26	0x3ec30131	0.38086846
27	0x3eb204d4	0.3476931
28	0x3eb03187	0.34412786
29	0xbe84979d	-0.25896922
30	0xbe145d78	-0.1448878
31	0x3e2d9a81	0.1695347
32	0x3e669a59	0.22519816
33	0xbe87c374	-0.26516306
34	0x3ed5b8c5	0.4174253
35	0x3e426912	0.18985394
36	0xbe484b43	-0.1955996
37	0x3e8b192f	0.2716765
38	0x3e877b06	0.26461047
39	0xbdf088bf	-0.11744832
40	0x3ddd54c6	0.10807185
41	0x3dbc657a	0.091990426
42	0x3eebf368	0.46084142
43	0xbecf7ce2	-0.40524966
44	0xbeb95b0b	-0.36202273
45	0xbe95ba02	-0.29243475
46	0x3e933ee7	0.28758928
47	0x3bf47b19	0.0074609634
48	0x3e7189ea	0.23587766
49	0x3c7d86b8	0.015474014
50	0xbf12c063	-0.5732481
51	0x3dd6fd63	0.104975484
52	0x3d303efd	0.04302882
53	0xbe9d06eb	-0.3066934
54	0xbe5ea9cc	-0.2174446
55	0x3e750cbf	0.23930643
56	0xbe72c3bc	-0.23707479
57	0xbd2893d5	-0.04115661
58	0xbe7803cb	-0.24220197
59	0x3e8a130a	0.2696765
60	0x3db1a053	0.086731575
61	0xbdb8960c	-0.09012994
62	0x3e9dace4	0.30795968
63	0x3e25e5b0	0.162009

net.1.running_var f4 [64]
0	0x3f0b976c	0.54527926
1	0x3eb063fa	0.34451276
2	0x3f234422	0.6377584
3	0x3e3fa277	0.18714319
4	0x3ecc53ec	0.39907777
5	0x3ebe3106	0.37146777
6	0x3e4721ca	0.19446483
7	0x3e9c146f	0.3048434
8	0x3ee6fae5	0.45113292
9	0x3ee9ec20	0.45687962
10	0x3eff02d0	0.49806833
11	0x3e15ca58	0.1462797
12	0x3e6826e1	0.22671081
13	0x3e76561d	0.24056287
14	0x3e26a4ae	0.16273758
15	0x3e80b36b	0.25136885
16	0x3e9b6214	0.30348265
17	0x3f6e6a3b	0.93130845
18	0x3e92bd50	0.2866006
19	0x3e5e5e02	0.21715549
20	0x3eac4e2f	0.336534
21	0x3f0b52df	0.54423326
22	0x3e82ce09	0.25547817
23	0x3ec3986b	0.38202223
24	0x3f850a6f	1.0393809
25	0x3f611eb1	0.87937456
26	0x3f30d69f	0.69077486
27	0x3ebbb155	0.3665873
28	0x3e9c7c0a	0.30563384
29	0x3ec80c76	0.39072007
30	0x3e9ce10a	0.3064044
31	0x3ec6b507	0.38809988
32	0x3f6f2a86	0.9342426
33	0x3f0b7614	0.5447705
34	0x3eb8b3fb	0.36074814
35	0x3f1065b0	0.5640516
36	0x3ebe5a6d	0.37178364
37	0x3e5f7d16	0.2182506
38	0x3eb02414	0.34402525
39	0x3edf60ff	0.4362869
40	0x3e91cd85	0.2847711
41	0x3eceb3e2	0.40371615
42	0x3e6a867a	0.22902861
43	0x3f5289e2	0.8224164
44	0x3eaae194	0.33375227
45	0x3ea46028	0.3210461
46	0x3e96f652	0.29484802
47	0x3e126c37	0.14299093
48	0x3e3fd3e8	0.1873318
49	0x3e534f6e	0.20635769
50	0x3f934d37	1.1507939
51	0x3e67416d	0.22583552
52	0x3ea5c2fa	0.32375318
53	0x3f64bbaf	0.8934888
54	0x3f085f8f	0.5327081
55	0x3e372fa3	0.17889266
56	0x3e936ecb	0.28795466
57	0x3d3d66c2	0.046240576
58	0x3e6641e7	0.22486077
59	0x3f29bd4b	0.66304463
60	0x3ee1a10e	0.44068187
61	0x3ec2bba7	0.38033792
62	0x3f0853b6	0.5325273
63	0x3e6ee518	0.2332958

net.3.weight f4 [64, 64]
0	0x3d8727a6	0.06599359
1	0xbdbba30b	-0.09161957
2	0xbc51cf8a	-0.012805829
3	0xbd17a8bf	-0.037026163
4	0xbdbda9a2	-0.092608705
5	0x3d35d03f	0.044388052
6	0x3d0863d7	0.03329834
7	0x3dd5e015	0.10443131
8	0x3dc3b998	0.095568836
9	0xbdad11cd	-0.08450661
10	0x3c6140bd	0.013748345
11	0xbdd13900	-0.1021595
12	0x3d3e63a5	0.046481747
13	0x3dd45bed	0.10369096
14	0xbce78beb	-0.02826496
15	0x3d9da744	0.07697919
16	0xbce34102	-0.02774096
17	0xbd9acfc3	-0.07559159
18	0xbdde6400	-0.10858917
19	0x3da28f86	0.07937531
20	0x3bd3ac25	0.00645973
21	0x3db2e195	0.087344326
22	0xbdead7ea	-0.114669636
23	0xbde56226	-0.11200361
24	0xbdd7fc90	-0.10546219
25	0xbd85b081	-0.06527806
26	0x3d7fb816	0.062431417
27	0x3d8201fc	0.06348035
28	0xbd7aca65	-0.061228175
29	0xbdb5f289	-0.088841505
30	0xbd194324	-0.037417546
31	0x3d82932f	0.06375729
32	0xbdc3b62a	-0.095562294
33	0xbd496d28	-0.049176365
34	0xbd9279bd	-0.07152126
35	0xbd22a9d2	-0.039712735
36	0xbda6879b	-0.081313334
37	0x3cbc2d70	0.022970885
38	0x3ce4772b	0.027888855
39	0xbd8d8a06	-0.069110915
40	0x3df85d43	0.12127163
41	0x3db9d6f9	0.09074206
42	0x3c918a03	0.017766004
43	0xbc618344	-0.013764206
44	0xbd3da268	-0.04629746
45	0xbdd4fe1e	-0.104000315
46	0x3d978ced	0.07399926
47	0xbdb23a29	-0.087024994
48	0x3d34b3ad	0.044116665
49	0x3b85d5e0	0.004084334
50	0x3d57d92f	0.052697357
51	0xbdf94d4b	-0.121729456
52	0x3dafdeef	0.08587443
53	0x3cd3b203	0.025841719
54	0x3cb2d06c	0.021827899
55	0xbe037748	-0.12838471
56	0x39eefe60	0.00045584422
57	0x3dc1844f	0.09449064
58	0x3dbb26e7	0.091382794
59	0x3df9f242	0.1220441
60	0xbd9f2c6b	-0.07772144
61	0xbdf70724	-0.12061909
62	0x3d06e509	0.03293327
63	0x3dd3246d	0.10309682
64	0x3d42e21b	0.047578912
65	0x3df21519	0.1182043
66	0xbd1bc2e0	-0.038027644
67	0x3d785050	0.060623467
68	0xbc821faa	-0.01588424
69	0x3bf8de8d	0.0075948895
70	0xbe08973c	-0.13338941
71	0x3dedea87	0.11616998
72	0xbdb99be2	-0.090629354
73	0x3dcad391	0.09903634
74	0x3ccd092c	0.025028788
75	0x3dc43645	0.095806636
76	0x3d12d81d	0.035850633
77	0x3dfcf59e	0.12351535
78	0x3dbf85c4	0.09351686
79	0x3d95a740	0.07307291
80	0xbd8af86e	-0.067856655
81	0xbdedb671	-0.116070636
82	0xbdd770a4	-0.10519531
83	0x3cc91689	0.024546878
84	0xbdd9db82	-0.10637571
85	0x3dd037f6	0.10166924
86	0xbca29372	-0.019845698
87	0xbda25505	-0.079263724
88	0x3da11878	0.07865995
89	0x3ddf5c7f	0.10906314
90	0x3d1676bd	0.03673433
91	0x3c2c50f3	0.010517347
92	0x3dcb30bd	0.099214055
93	0xbd5816e7	-0.052756216
94	0x3da884cb	0.08228453
95	0x3aa91552	0.0012900031
96	0x3dd3593e	0.10319756
97	0x3d391324	0.04518427
98	0xbe050387	-0.12989627
99	0xbddd7b6e	-0.10814558
100	0x3dc5c988	0.0965758
101	0xbdc82824	-0.09773281
102	0xbd6afbcc	-0.05736904
103	0xbda1abf1	-0.07894123
104	0xbd68bf36	-0.056822978
105	0x3cc77928	0.024349764
106	0xbe0512ca	-0.12995449
107	0x3cab3306	0.020898353
108	0xbdd1d254	-0.10245195
109	0xbdbd5060	-0.09243846
110	0x3d8e27cd	0.06941185
111	0x3dc49bfc	0.09600064
112	0x3d9c3ce0	0.076287985
113	0xbd342d25	-0.043988366
114	0x3d2715a8	0.040792137
115	0xbd424846	-0.047432207
116	0x3cf20bbd	0.029546613
117	0x3d8c50ba	0.06851335
118	0xbd96a7ed	-0.07356248
119	0xbd7240e3	-0.059143912
120	0x3bf089c5	0.007340642
121	0xbc09baac	-0.008406322
122	0x3da56626	0.08076124
123	0x3da76466	0.08173446
124	0xbddee575	-0.10883609
125	0xbbd4e11e	-0.0064965626
126	0xbd156fec	-0.03648369
127	0xbdbe52f7	-0.09293168
128	0x3d95b4de	0.07309888
129	0xbddaaaf0	-0.10677135
130	0x3d88cfd0	0.06680262
131	0x3cc12da8	0.02358134
132	0x3dd7ab84	0.10530761
133	0x3db675d3	0.08909192
134	0x3c967411	0.018365892
135	0xbd3f8d67	-0.04676571
136	0x3d9ceeae	0.07662712
137	0x3df3bcf6	0.11901276
138	0x3d1b13a7	0.03786054
139	0x3d5cc7e1	0.053901557
140	0x3daac31a	0.08337994
141	0x3c9f0432	0.01941118
142	0x3bafbcb9	0.0053630737
143	0xbd9bcf5f	-0.07607912
144	0x3dba3c3f	0.09093522
145	0x3cc9fe41	0.02465737
146	0xbc2cb4d1	-0.010541157
147	0xbba40e0e	-0.0050065583
148	0x3c82e415	0.015977899
149	0xbe08285c	-0.13296646
150	0xbd884b10	-0.06654942
151	0xbcc474ea	-0.02398153
152	0xbda17262	-0.07883145
153	0x3dc41634	0.095745474
154	0xbc0f3002	-0.008739473
155	0xbd06dc66	-0.032925032
156	0x3d9dfde4	0.077144414
157	0x3d284ab2	0.04108686
158	0x3da8bbc9	0.08238942
159	0xbcf95498	-0.030435845
160	0x3ca74897	0.020420356
161	0x3df4ecce	0.119592294
162	0x3d19210c	0.03738503
163	0x3dc97692	0.098370686
164	0xbdd1c4ac	-0.1024259
165	0xbd8e6fa7	-0.0695489
166	0x3da96974	0.08272067
167	0xbc573971	-0.013136254
168	0xbcc45563	-0.023966497
169	0x3c8b3b54	0.016996063
170	0xbdcf5ac3	-0.10124733
171	0x3d09760d	0.033559848
172	0xbdf22439	-0.11823315
173	0x3cb20eb1	0.021735521
174	0xbda11b19	-0.078664966
175	0x3d1c13c8	0.038104802
176	0xbda6e6c6	-0.08149485
177	0xbbfe647a	-0.0077634426
178	0xbce5a953	-0.028034842
179	0xbe03851a	-0.12843743
180	0xbda34e42	-0.07973911
181	0xbdaf0703	-0.08546259
182	0xbdb5f536	-0.08884661
183	0x3cdff6b7	0.027339322
184	0x3dabb081	0.08383275
185	0x3d887a50	0.06663954
186	0x3da4b00f	0.08041393
187	0xbbd73099	-0.0065670726
188	0x3dc02923	0.09382846
189	0x3d99b3c4	0.07504991
190	0x3df90030	0.12158239
191	0x3cd051dc	0.025429659
192	0xbbd3a932	-0.0064593786
193	0xbd106385	-0.03525116
194	0x3d8771a0	0.06613469
195	0xbd0a50df	-0.03376853
196	0x3df1a582	0.11799146
197	0x3daf4ce0	0.085595846
198	0xbdf07aa5	-0.117421426
199	0xbd887e76	-0.066647455
200	0x3dddf79a	0.10838242
201	0x3d4c767a	0.049917676
202	0xbd457f74	-0.048217252
203	0xbd6bbca3	-0.057552945
204	0xbd8e5884	-0.06950477
205	0xbd042921	-0.032265786
206	0x3d509001	0.050918583
207	0x3da0668c	0.07832059
208	0xbdf7e7ae	-0.12104736
209	0xbddedfdd	-0.10882542
210	0xbd073f01	-0.03301907
211	0x3df6be6c	0.12048039
212	0xbcf1f27d	-0.029534573
213	0xbdb6a68a	-0.089184836
214	0x3ceadd47	0.028669966
215	0xbd25b868	-0.040459067
216	0x3d269a68	0.040674597
217	0x3d8bde93	0.06829562
218	0xbce04a47	-0.027379168
219	0x3d2ddf98	0.042449564
220	0x3d799cf5	0.0609407
221	0xbde34b4f	-0.11098348
222	0x3b385351	0.0028125832
223	0x3d17a67e	0.037024014
224	0x3dcd06dd	0.10011075
225	0x3dca5a48	0.09880501
226	0x3ccf7630	0.02532491
227	0x3d079d25	0.03310885
228	0x3d332d08	0.043744117
229	0xbda24097	-0.07922476
230	0xbd82d0ff	-0.06387519
231	0x3d3f2ca0	0.046673417
232	0xbd5bda11	-0.05367476
233	0xbd085374	-0.033282712
234	0x3e1fb803	0.15597539
235	0xbd945916	-0.07243554
236	0xbc8b3c54	-0.01699654
237	0xbc311e87	-0.010810501
238	0x3d80e6d2	0.062940255
239	0x3dd60e97	0.104520015
240	0x3d6fc94d	0.058541585
241	0xbd5f7bc1	-0.05456138
242	0x3dc3d614	0.095623165
243	0x3d19700e	0.03746038
244	0x3d94a9ea	0.07258971
245	0x3dc453ac	0.09586272
246	0x3d06cb30	0.03290862
247	0xbd808c18	-0.06276721
248	0x3b053999	0.002032852
249	0xbcee3528	-0.029078081
250	0x3cbac39a	0.022798348
251	0x3d948a6d	0.07252965
252	0x3d755b59	0.05990157
253	0xbdae7854	-0.085190445
254	0xbad9d45f	-0.0016619078
255	0xbdaf7088	-0.085663855

net.3.bias f4 [64]
0	0x3caafc88	0.02087237
1	0xbd88be26	-0.06676893
2	0xbb02d24f	-0.001996178
3	0xbc2c958d	-0.010533703
4	0x39120c14	0.00013928144
5	0xbd580c58	-0.052746147
6	0x3d3c211f	0.045930024
7	0x378d874c	1.6871512e-05
8	0x3d6791ff	0.056535717
9	0xbc914834	-0.017734624
10	0xbc556969	-0.01302562
11	0x3d816e25	0.063198365
12	0xba011126	-0.0004923515
13	0xbb080f4e	-0.0020761075
14	0x3c20682d	0.009790462
15	0xbcddf391	-0.02709368
16	0x3d52f19f	0.05149996
17	0xbc99e6b2	-0.018786762
18	0xbd941964	-0.072314054
19	0xbd6c297a	-0.057656743
20	0x3c5d435d	0.01350483
21	0x3a441f9b	0.0007481516
22	0xb8d3c7e8	-0.000100984995
23	0xbd46e415	-0.04855736
24	0xbd2abece	-0.04168587
25	0x3d7197fa	0.058982827
26	0xbb0861c7	-0.0020810233
27	0xba618aa5	-0.00086037285
28	0xbd4a0093	-0.049316954
29	0x3a6ec29d	0.0009107979
30	0xbda48dd9	-0.08034868
31	0x3c8d091f	0.017216263
32	0x3cf10de7	0.029425574
33	0xbadee595	-0.0017005677
34	0x3c45358b	0.012036691
35	0xbd23cc7b	-0.03998993
36	0xbd67cb3d	-0.056590308
37	0x3da8e7f4	0.082473665
38	0x3cb45216	0.022011798
39	0xbcfcf965	-0.03088064
40	0xbc96cc7a	-0.018408049
41	0xb9963fd6	-0.0002865779
42	0xbd9cd02d	-0.07656894
43	0xbd626979	-0.055276368
44	0x3d97f458	0.07419652
45	0x3a8705c7	0.0010301404
46	0xbc91ceb2	-0.017798755
47	0xbad32459	-0.0016108855
48	0x3d2446e8	0.040106684
49	0xbda62f54	-0.08114496
50	0xbb0e0a1d	-0.0021673508
51	0x3da36993	0.07979121
52	0x3c6822f3	0.014168489
53	0x3c2c9b0a	0.010535011
54	0xbd7f04e4	-0.062260523
55	0xbad7f104	-0.0016475026
56	0xba1e34a6	-0.0006035067
57	0xbd56126c	-0.052263662
58	0x3c6940bf	0.014236628
59	0x3a4b8b8b	0.0007764629
60	0x3ade5636	0.0016962949
61	0x3a48d280	0.00076607615
62	0xbd9504b0	-0.07276285
63	0x3cb20c85	0.021734485

net.4.weight f4 [64]
0	0x3f8221ce	1.0166566
1	0x3f7ce879	0.98792225
2	0x3f7eca7e	0.9952773
3	0x3f82b5ef	1.0211772
4	0x3f803966	1.0017517
5	0x3f81c5ad	1.0138451
6	0x3f826948	1.0188379
7	0x3f843813	1.0329612
8	0x3f7a2578	0.9771342
9	0x3f7c21aa	0.9848887
10	0x3f7fd6b6	0.99937
11	0x3f8090c6	1.0044181
12	0x3f83c041	1.0293046
13	0x3f82465e	1.0177724
14	0x3f825287	1.0181435
15	0x3f81717d	1.0112759
16	0x3f810bf7	1.0081776
17	0x3f7d0952	0.98842347
18	0x3f80684b	1.0031828
19	0x3f7cccdd	0.98750097
20	0x3f801a3c	1.0008006
21	0x3f7d23a1	0.9888249
22	0x3f83cbd6	1.0296581
23	0x3f80f9e3	1.0076259
24	0x3f7f1e13	0.99655265
25	0x3f7eba71	0.99503237
26	0x3f7d3695	0.9891141
27	0x3f7eb2e2	0.99491704
28	0x3f7ce537	0.98787254
29	0x3f7f3501	0.9969025
30	0x3f8005e5	1.0001799
31	0x3f80e109	1.0068675
32	0x3f8378dd	1.027126
33	0x3f815037	1.0102605
34	0x3f81dc7c	1.0145411
35	0x3f81068a	1.008012
36	0x3f827061	1.0190545
37	0x3f84a0ee	1.0361612
38	0x3f7f3f29	0.9970575
39	0x3f78133c	0.9690435
40	0x3f83b112	1.0288413
41	0x3f7be64d	0.98398286
42	0x3f7937f2	0.9735099
43	0x3f7b84f9	0.98249775
44	0x3f80fcac	1.0077109
45	0x3f7daf7e	0.99095905
46	0x3f82962d	1.020208
47	0x3f8389c8	1.0276423
48	0x3f8140ff	1.009796
49	0x3f7cfcf3	0.9882347
50	0x3f817839	1.0114814
51	0x3f8092fa	1.0044854
52	0x3f838d88	1.0277567
53	0x3f824d26	1.0179794
54	0x3f7f623d	0.99759275
55	0x3f83821a	1.0274079
56	0x3f7b64cf	0.98200697
57	0x3f7f884e	0.9981736
58	0x3f7e2185	0.99269897
59	0x3f7e3b46	0.99309194
60	0x3f7c3b38	0.9852786
61	0x3f8396c1	1.0280381
62	0x3f7b07f9	0.9805904
63	0x3f7f5e27	0.9975304
