FarconVAE/result_german/german_downstream_s_2023_05_01_17_27_58_262874_ours.pth.pt (torch, 23812 bytes, 21 tensors)

fc1.weight f4 [64, 5]
-0.010528108 0.18747348 -0.10052589 0.4242713 -0.056062717 -0.23843399 -0.3288579 0.24752925
0.2670905 0.060449284 0.16451827 0.07153074 -0.14784703 -0.017328229 -0.009859713 0.22644147
-0.42838353 -0.31132415 -0.36992565 -0.14675188 0.24151663 -0.18183123 0.07409783 -0.20257325
-0.43768758 -0.06009256 0.34127027 0.1683652 0.30915996 -0.420199 -0.43073115 -0.031973157
0.22443195 -0.2605951 0.04273894 0.15278472 -0.053711914 -0.08489737 0.14496243 -0.10034826
-0.08783041 -0.11492734 -0.011987969 -0.105872005 -0.022471422 0.21003954 -0.45410952 0.011137525
0.092106536 -0.036156476 -0.16788876 -0.14399786 -0.39763284 0.09318326 -0.028752549 -0.41625464
-0.14717281 0.40056953 -0.321814 -0.11451474 0.053382065 -0.13676597 -0.27082002 -0.38419765
-0.2816196 -0.32909125 -0.108824305 0.27639723 -0.08120839 -0.12262284 0.16319652 -0.06308175
0.416759 0.22124319 0.07859153 -0.41109967 -0.32534683 -0.015237583 0.30137116 0.058333423
0.11041719 0.18546805 -0.020908916 -0.4326195 0.13361308 0.17271376 0.23000962 0.32021293
0.0051333513 -0.23432492 0.344189 -0.39816478 0.22246407 -0.28062373 -0.070613354 0.08240947
-0.053288613 -0.29817837 -0.32610783 -0.20418338 -0.40155995 -0.36536607 0.028556474 -0.30134454
-0.38254797 0.13714913 -0.14872187 0.07302487 0.11436339 -0.06210813 0.070229545 0.09134275
-0.4121414 0.37804314 0.27921674 0.43325552 0.036855333 -0.38061887 0.18071191 0.2093147
-0.05921632 -0.25617158 0.26024184 -0.27239507 0.2672384 0.39701977 0.24741118 -0.43413818
0.38525105 0.3777354 -0.08509193 -0.3940659 -0.14876589 -0.24932386 -0.11440706 0.41763914
-0.42734408 -0.014704435 -0.2243896 0.26160762 0.35602862 0.3449175 -0.27283594 -0.4168659
-0.037591398 -0.40013772 -0.2962088 0.32131195 0.29720375 0.09709022 0.21373253 -0.26025993
0.16170946 -0.061892357 0.26342204 0.0068498496 -0.35772386 -0.14523798 -0.3138365 0.13102508
-0.05910337 -0.32443544 -0.45020425 -0.24414875 0.09990212 -0.3947846 -0.26479813 0.21667841
0.42702693 -0.07016798 0.0069682235 0.020839367 -0.4075411 0.25965914 0.27454013 0.19895895
-0.18092002 -0.20537204 -0.38272586 -0.06907206 -0.32792145 -0.34433308 -0.20737264 0.03965889
-0.13982195 0.082777 0.20316286 -0.19351271 -0.10974047 0.20370881 0.37013987 -0.12468696
-0.42343032 -0.19407931 -0.2804507 -0.21757309 0.1444565 -0.0663466 -0.28199527 0.08288171
0.39936954 -0.3683756 -0.24488911 0.340683 -0.10990384 0.12927082 0.45264795 -0.4213351
0.21274175 0.4201408 -0.055703048 0.06981947 -0.24934582 -0.16617677 0.04389495 -0.088916905
0.09128168 0.29453707 -0.20401457 0.14455059 -0.11553275 0.25999323 -0.18334113 0.314405
0.15751304 0.109643504 -0.30540967 -0.07122986 -0.16379672 0.45616043 0.4334167 0.2331446
0.3768436 0.019584766 -0.2223337 -0.11172651 0.26806787 -0.0610132 0.079719804 0.12829554
-0.43600628 -0.092655994 -0.027870176 -0.17100935 0.4082815 0.026036065 -0.08150899 -0.19604322
0.24543796 -0.37265563 -0.37773842 0.15010402 0.4331712 -0.40326637 0.3689791 0.24109778
00000000: 167e 2cbc 0cf9 3f3e 85e0 cdbd 163a d93e
00000010: 05a2 65bd 0a28 74be 1060 a8be 4f78 7d3e
00000020: 16c0 883e ab99 773d 7a77 283e b57e 923d
00000030: 3665 17be eef3 8dbc a28a 21bc 46e0 673e
00000040: 1655 dbbe e165 9fbe e566 bdbe 2046 16be
00000050: 2350 773e f731 3abe 9ac0 973d 5d6f 4fbe
00000060: 9618 e0be 9e23 76bd faba ae3e ed67 2c3e
00000070: 374a 9e3e 5324 d7be cb88 dcbe 49f6 02bd
00000080: 7dd1 653e b96c 85be 070f 2f3d 9973 1c3e
00000090: 0601 5cbd acde adbd 0871 143e 6383 cdbd
000000a0: 6ee0 b3bd 065f ebbd 3069 44bc 6cd3 d8bd
000000b0: fd15 b8bc 9b14 573e 0b81 e8be 2a7a 363c
000000c0: 5aa2 bc3d d018 14bd 08eb 2bbe 2d74 13be
000000d0: 8896 cbbe ddd6 be3d 778a ebbc 541f d5be
000000e0: 78b4 16be 7317 cd3e cec4 a4be b486 eabd
000000f0: 27a7 5a3d 610c 0cbe eca8 8abe 8eb5 c4be
00000100: 7230 90be a67e a8be 47df debd f083 8d3e
00000110: 9650 a6bd af21 fbbd fd1c 273e 0131 81bd
00000120: 7061 d53e 938d 623e 99f4 a03d a87b d2be
00000130: dc93 a6be 0ea7 79bc 524d 9a3e 07ef 6e3d
00000140: 6822 e23d 56eb 3d3e 2d49 abbc 4e80 ddbe
00000150: ded1 083e e0db 303e a487 6b3e f3f2 a33e
00000160: ac35 a83b dff2 6fbe 8a39 b03e 41dc cbbe
00000170: 9fcd 633e eaad 8fbe bc9d 90bd 4cc6 a83d
00000180: 2945 5abd d6aa 98be 9bf7 a6be 7315 51be
00000190: 4499 cdbe 4311 bbbe 44ef e93c d549 9abe
000001a0: 54dd c3be d270 0c3e 8c4a 18be 108e 953d
000001b0: 5a37 ea3d 1865 7ebd 82d4 8f3d e811 bb3d
000001c0: 3304 d3be df8e c13e 7ff5 8e3e abd3 dd3e
000001d0: 9ef5 163d 7ae0 c2be 8b0c 393e 9856 563e
000001e0: d08c 72bd ec28 83be 6b3e 853e 5e77 8bbe
000001f0: 79d3 883e 2d46 cb3e 5b59 7d3e 5c47 debe
00000200: a03f c53e 8966 c13e ae44 aebd 01c3 c9be
00000210: 1656 18be c14e 7fbe 404e eabd ccd4 d53e
00000220: d8cc dabe dfea 70bc 63c6 65be 6ff1 853e
00000230: 6249 b63e 0799 b03e 27b1 8bbe 726f d5be
00000240: 70f9 19bd dade ccbe aea8 97be 0083 a43e
00000250: 172b 983e 3dd7 c63d b3dc 5a3e ca40 85be
00000260: 2a97 253e d782 7dbd 41df 863e b474 e03b
00000270: 9527 b7be 44b9 14be 2daf a0be 702b 063e
00000280: 6016 72bd 671c a6be 2c81 e6be 2102 7abe
00000290: 7c99 cc3d 3521 cabe 9f93 87be f2e0 5d3e
000002a0: 46a3 da3e 3bb4 8fbd b255 e43b 52b7 aa3c
000002b0: 3aa9 d0be 0bf2 843e 8690 8c3e e5bb 4b3e
000002c0: 1943 39be 0c4d 52be a5f4 c3be a775 8dbd
000002d0: 52e5 a7be 6d4c b0be 7e59 54be 5c71 223d
000002e0: 7c2d 0fbe fd86 a93d ed09 503e 3228 46be
000002f0: 9dbf e0bd 0b99 503e f982 bd3e e05b ffbd
00000300: dccb d8be babc 46be 3c97 8fbe 7bcb 5ebe
00000310: 68ec 133e bae0 87bd af61 90be e3bd a93d
00000320: 2a7a cc3e ba9b bcbe 36c4 7abe 016e ae3e
00000330: 4415 e1bd 925f 043e 79c1 e73e 3cb9 d7be
00000340: f9d8 593e b21c d73e e128 64bd 83fd 8e3d
00000350: 8354 7fbe 3e2a 2abe 31cb 333d 111a b6bd
00000360: e4f1 ba3d 90cd 963e 32e9 50be 1205 143e
00000370: 6f9c ecbd d51d 853e c7bd 3bbe b1f9 a03e
00000380: 194b 213e c68c e03d a85e 9cbe f6e0 91bd
00000390: 54ba 27be dc8d e93e cbe8 dd3e 75bd 6e3e
000003a0: a5f1 c03e 3b70 a03c 72ab 63be ded0 e4bd
000003b0: 3140 893e fae8 79bd 2344 a33d e85f 033e
000003c0: 373c dfbe 6dc2 bdbd ff4f e4bc 131d 2fbe
000003d0: 460a d13e 9649 d53c 2fee a6bd 8ebf 48be
000003e0: 1754 7b3e b8cc bebe ee66 c1be deb4 193e
000003f0: 9ec8 dd3e ee78 cebe d4ea bc3e 56e2 763e

fc1.bias f4 [64]
-0.102506265 0.3383598 -0.13383302 0.0018696033 -0.20107907 0.041993223 -0.30944178 0.11452436
-0.34451598 0.03171848 -0.4118803 -0.03589797 -0.21779048 -0.09073686 0.32895622 -0.3188094
-0.15316097 0.2819657 0.25824553 0.23028208 0.045469444 -0.35564896 -0.2166293 0.015742483
-0.30102435 0.0011766598 -0.18003358 0.29784605 0.32866138 0.36711806 0.046494488 0.0522392
-0.049817476 0.40393305 0.09805651 0.23622541 -0.14018397 0.25838065 0.28216448 0.36635265
-0.3612906 -0.3071281 0.06526492 0.1460974 -0.33495775 -0.23850049 -0.1997793 -0.39098772
-0.24595918 -0.2783688 -0.28975028 -0.20566992 0.3078382 -0.0693534 -0.40330696 -0.06709608
0.2350573 0.31009528 -0.18637949 0.22715382 0.27332434 0.37810627 0.017124416 -0.2880885
00000000: ceee d1bd 7f3d ad3e 860b 09be 7a0d f53a
00000010: ace7 4dbe 1601 2c3d 276f 9ebe bf8b ea3d
00000020: 6664 b0be 3deb 013d fae1 d2be c009 13bd
00000030: 7804 5fbe 3fd4 b9bd f36c a83e fc3a a3be
00000040: 3bd6 1cbe cf5d 903e c238 843e 11cf 6b3e
00000050: 2b3e 3a3d 9f17 b6be 12d4 5dbe 61f6 803c
00000060: dd1f 9abe 273a 9a3a b95a 38be 477f 983e
00000070: 4e46 a83e e6f6 bb3e 0171 3e3d c5f8 553d
00000080: 690d 4cbd 50d0 ce3e dad1 c83d 13e5 713e
00000090: 638c 0fbe 784a 843e dd77 903e 9392 bb3e
000000a0: 15fb b8be e53f 9dbe 9da9 853d 8f9a 153e
000000b0: 957f abbe 7939 74be f292 4cbe 8b2f c8be
000000c0: b9dc 7bbe 5b86 8ebe 265a 94be 239b 52be
000000d0: f89c 9d3e 2809 8ebd 407e cebe ab69 89bd
000000e0: dcb2 703e cfc4 9e3e 44da 3ebe 039b 683e
000000f0: 2bf1 8b3e 2597 c13e 8148 8c3c 5680 93be

fc2.weight f4 [64, 64]
0.019459518 0.073089235 0.0058921576 0.07502083 -0.035652015 -0.11676846 -0.066731 0.1231387
0.0401743 0.12707599 0.05457068 0.08420022 0.024272503 0.08620731 -0.03514827 0.06610146
0.08497561 0.035515215 -0.072125934 -0.05725534 0.05569085 -0.07558201 -0.02305596 0.07339285
-0.070295304 -0.012338749 0.032863654 -0.025877424 0.070227355 0.050607376 0.07978025 -0.051537678
-0.041142613 0.11074643 -0.09451022 0.08074339 -0.08717412 -0.013273956 0.07059984 0.077800505
0.11676049 0.03008364 0.03031018 0.05384327 0.1077103 0.07102497 -0.10952207 0.09930066
0.11004504 0.027296048 -0.110813566 -0.063184425 0.03819505 0.04163155 -0.041550282 -0.10751869
0.09424749 -0.06925564 -0.06632767 -0.06320974 0.026158502 0.09970531 0.06619741 0.11403467
-0.034979604 -0.068608694 -0.11222782 0.061676487 0.09598033 -0.09063542 0.016747514 0.012388637
-0.036818307 -0.028064303 -0.11895486 -0.0012354195 -0.046982612 0.023569874 0.08754283 0.068246625
0.10078258 -0.1099585 -0.10431966 0.062169805 -0.021606626 -0.104786634 -0.00037511426 0.03716991
-0.07628772 0.021880591 0.07980238 0.099165455 -0.101720154 0.061992016 -0.11303299 0.10148575
-0.009583087 0.00866723 0.031045046 0.07899135 0.069272526 -0.078560516 -0.027543694 0.094632894
0.061803292 -0.031638533 -0.048595894 0.06612805 0.020814903 -0.12023982 0.09822415 -0.14350148
0.0165942 0.009778906 -0.013344995 0.12772642 0.05754576 -0.054660816 -0.042592507 -0.019261504
-0.009432357 -0.037107464 -0.063419305 0.07202181 -0.07137629 0.09422733 -0.009861832 0.09728028
-0.08679602 0.0015552883 -0.0076794615 0.11996096 0.092584826 0.04946933 -0.0467004 0.09230404
-0.097463034 0.078878686 0.1310345 -0.10614378 0.1072982 -0.08249164 -0.027259128 0.057689104
0.10908629 -0.027730918 -0.085635334 0.08136827 0.048351225 0.016445776 -0.042265587 0.013743654
-0.08125031 -0.07402851 0.06894237 0.033362903 0.08769448 -0.09824329 -0.0092803715 -0.008424081
-0.0937323 -0.08982144 0.012936851 0.0754946 -0.096222915 -0.017116154 0.10332698 0.08248412
0.0723371 0.12455626 -0.011263439 0.014332448 -0.035368398 0.11735225 0.04522784 -0.10919916
0.029616274 0.08339502 0.058869123 0.04962035 0.08594484 -0.026675552 0.11589388 0.05875283
0.06549338 -0.0002090582 -0.03773805 0.027093751 0.09161297 -0.10609748 -0.100372024 -0.025470858
0.06131691 0.12107645 -0.09006745 -0.037761644 0.054785624 -0.09033561 -0.0029561422 -0.03677629
0.072812706 0.09076681 0.032427814 -0.06777609 0.10314664 0.092751615 0.067530975 0.0746197
-0.06957798 0.06356565 -0.11103206 0.03989341 0.031426586 0.12076093 -0.059417248 0.017763987
0.010067621 -0.100747146 0.08026041 -0.026154306 0.120505445 -0.021728208 0.032416467 9.3535964e-05
0.081915565 0.064011924 -0.11234665 -0.11730799 -0.022284715 0.040194705 -0.03362233 -0.120066114
-0.08628287 0.07570808 0.05749493 0.09852289 0.084372506 0.08147023 -0.12829046 0.07731667
-0.06766153 -0.036652952 0.012001035 0.10081537 -0.01629723 0.07514474 0.09461902 -0.030849207
-0.08194024 0.039364014 -0.11170119 -0.027385151 0.09322656 -0.09923319 0.041802377 0.06084194
00000000: 9169 9f3c cfaf 953d 0013 c13b 85a4 993d
00000010: d907 12bd 4d24 efbd 43aa 88bd 2530 fc3d
00000020: cf8d 243d 3520 023e 8185 5f3d 2a71 ac3d
00000030: 21d7 c63c 758d b03d a2f7 0fbd 3460 873d
00000040: b107 ae3d 6778 113d c3b6 93bd 9384 6abd
00000050: 171c 643d beca 9abd dadf bcbc fe4e 963d
00000060: fcf6 8fbd 7728 4abc 0a9c 063d e4fc d3bc
00000070: 5cd3 8f3d ae49 4f3d d463 a33d 2c19 53bd
00000080: 2885 28bd 06cf e23d 938e c1bd ca5c a53d
00000090: 5888 b2bd 027b 59bc a696 903d df55 9f3d
000000a0: 2020 ef3d f771 f63c 0e4d f83c c38a 5c3d
000000b0: 3897 dc3d 8a75 913d 1b4d e0bd 255e cb3d
000000c0: 4b5f e13d f69b df3c 39f2 e2bd d666 81bd
000000d0: 6a72 1c3d d885 2a3d a130 2abd c232 dcbd
000000e0: d404 c13d e7d5 8dbd cdd6 87bd 1c74 81bd
000000f0: 5b4a d63c 4c32 cc3d 8292 873d 028b e93d
00000100: c646 0fbd b782 8cbd b3d7 e5bd 7ca0 7c3d
00000110: 5691 c43d 109f b9bd 1532 893c b6f9 4a3c
00000120: cbce 16bd 1ce7 e5bc 9b9e f3bd cded a1ba
00000130: d770 40bd 9c15 c13c a849 b33d e3c4 8b3d
00000140: 1967 ce3d ec31 e1bd 8ca5 d5bd c4a5 7e3d
00000150: 6100 b1bc 609a d6bd fcaa c4b9 7a3f 183d
00000160: bc3c 9cbd ed3e b33c 6e6f a33d 4217 cb3d
00000170: a852 d0bd 57eb 7d3d d77d e7bd c3d7 cf3d
00000180: 6102 1dbc ff00 0e3c 2e52 fe3c 38c6 a13d
00000190: c1de 8d3d 56e4 a0bd 50a3 e1bc e4ce c13d
000001a0: 7325 7d3d 6897 01bd 7d0c 47bd 256e 873d
000001b0: 0484 aa3c 4b40 f6bd be29 c93d 0df2 12be
000001c0: 8ff0 873c b437 203c f7a4 5abc b7ca 023e
000001d0: 1ab5 6b3d 05e4 5fbd 7b75 2ebd 4dca 9dbc
000001e0: 2c8a 1abc fffd 17bd fbe1 81bd 2c80 933d
000001f0: bb2d 92bd 42fa c03d 8593 21bc e23a c73d
00000200: 1dc2 b1bd d1da cb3a fea3 fbbb 17ae f53d
00000210: 1d9d bd3d 5aa0 4a3d eb48 3fbd e709 bd3d
00000220: b39a c7bd 268b a13d e82d 063e e961 d9bd
00000230: 29bf db3d 60f1 a8bd 894e dfbc 694b 6c3d
00000240: a268 df3d f32b e3bc 9461 afbd 68a4 a63d
00000250: ef0b 463d 4bb9 863c ae1e 2dbd 102d 613c
00000260: 9066 a6bd 429c 97bd a831 8d3d 8aa7 083d
00000270: 2a99 b33d c733 c9bd b30c 18bc 2805 0abc
00000280: b8f6 bfbd 4ef4 b7bd 16f5 533c ea9c 9a3d
00000290: 8510 c5bd 2d37 8cbc 189d d33d 6fed a83d
000002a0: 7925 943d 5a17 ff3d 4a8a 38bc a5d2 6a3c
000002b0: 74de 10bd 6056 f03d d440 393d cfa3 dfbd
000002c0: d49d f23c 02cb aa3d c020 713d b53e 4b3d
000002d0: d903 b03d b086 dabc c559 ed3d cfa6 703d
000002e0: 6521 863d a236 5bb9 3793 1abd b7f3 dd3c
000002f0: 959f bb3d a349 d9bd d98f cdbd 43a8 d0bc
00000300: 7127 7b3d eef6 f73d 4975 b8bd f4ab 1abd
00000310: e466 603d e001 b9bd d6bb 41bb bca2 16bd
00000320: d41e 953d f3e3 b93d 07d3 043d 31ce 8abd
00000330: 8c3e d33d 8ff4 bd3d ae4d 8a3d 37d2 983d
00000340: e67e 8ebd b52e 823d c764 e3bd 4667 233d
00000350: 2ab9 003d 8251 f73d 805f 73bd c885 913c
00000360: aaf2 243c 8554 cebd 925f a43d 8e41 d6bc
00000370: 8fcb f63d 5bff b1bc 21c7 043d bd28 c438
00000380: 59c3 a73d af18 833d 0016 e6bd 2c3f f0bd
00000390: 6f8e b6bc 34a3 243d 91b7 09bd 39e5 f5bd
000003a0: 13b5 b0bd d60c 9b3d ce7f 6b3d 5ec6 c93d
000003b0: 7ecb ac3d ddd9 a63d 935e 03be 3458 9e3d
000003c0: 2192 8abd 6821 16bd fd9f 443c 4a78 ce3d
000003d0: c581 85bc 7ce5 993d 9ec7 c13d 7ab7 fcbc
000003e0: 49d0 a7bd 293c 213d 98c3 e4bd d356 e0bc
000003f0: 91ed be3d c53a cbbd f838 2b3d 6635 793d

fc2.bias f4 [64]
0.014791176 0.0026178607 -0.06402321 -0.00082301354 0.009936806 -0.03493538 -0.028684404 0.00093030644
0.0010835268 -0.0026427028 -0.025155092 0.032169033 0.0019716788 0.027276043 0.08878309 0.01084308
-0.04574588 0.09068899 0.028253991 -0.0029835813 0.028818266 0.08402511 0.09500174 0.07156961
-0.058198165 -0.06225452 0.015794631 0.018575625 -0.03782029 0.0023570247 -0.022843469 -0.009838623
0.10326344 6.323837e-05 0.0036312684 0.0024655557 -0.08315142 -0.044360492 -0.0024723446 0.059567425
-0.044426728 0.0018334769 0.018659793 0.07979057 -6.110494e-05 0.0027382565 0.0114228325 0.014966135
-6.845522e-05 -0.06781744 0.10276973 -0.05870435 -0.06271403 -0.012158625 -0.053057015 0.0006024579
0.07504298 -0.058559306 -0.023472518 0.031952344 -0.044203028 0.057618827 0.06425114 0.09693557
00000000: b056 723c 6a90 2b3b 9a1e 83bd 81bf 57ba
00000010: fccd 223c 6718 0fbd 8efb eabc cfdf 733a
00000020: 2005 8e3a 3231 2dbb 0d12 cebc adc3 033d
00000030: 4837 013b 0272 df3c e9d3 b53d 2ca7 313c
00000040: 0860 3bbd 26bb b93d ea74 e73c 3088 43bb
00000050: 4914 ec3c 5b15 ac3d 4690 c23d 1693 923d
00000060: 3361 6ebd 98fe 7ebd be63 813c e92b 983c
00000070: 73e9 1abd 5078 1a3b 3a22 bbbc 2d32 21bc
00000080: c87b d33d d79e 8438 93fa 6d3b 2995 213b
00000090: 4b4b aabd 59b3 35bd 0f07 22bb f9fc 733d
000000a0: cdf8 35bd 4751 f03a 6cdc 983c 3d69 a33d
000000b0: 7725 80b8 5274 333b d526 3b3c 8534 753c
000000c0: 9e8f 8fb8 dfe3 8abd f078 d23d f973 70bd
000000d0: 3770 80bd f834 47bc 5052 59bd 44ee 1d3a
000000e0: 22b0 993d e2db 6fbd 7049 c0bc 76e0 023d
000000f0: 3c0e 35bd b801 6c3d 1a96 833d 2886 c63d

out.weight f4 [1, 64]
-0.0110825505 0.096818194 -0.02607643 -0.088577926 0.013069962 -0.10453496 -0.030530805 -0.0897124
0.058342297 0.055279337 0.125327 -0.07745678 0.045254372 -0.0556357 -0.024731705 -0.057027325
-0.0078030135 0.06636717 -0.03884652 -0.081607915 0.13629662 -0.0061024697 0.11248042 -0.022778358
-0.021726303 0.007201906 0.026673162 0.1105883 -0.0049816854 -0.005340763 -0.021451963 0.08934578
-0.10024513 0.06996195 -0.035771977 0.09599203 -0.019366015 0.07913252 0.11458257 -0.080190934
-0.01872862 0.13129148 0.014500098 -0.024625018 0.14618175 0.01986104 0.09155281 -0.034250252
0.058015432 -0.06421622 0.1293946 0.024421247 0.043301724 -0.07830582 0.12619673 -0.102611095
0.015363573 -0.020137252 0.08441474 -0.058834948 0.14420716 0.055545446 0.083010264 0.08396515
00000000: 9693 35bc 9e48 c63d 3d9e d5bc 5868 b5bd
00000010: 6523 563c 6d16 d6bd bd1b fabc 23bb b7bd
00000020: 55f8 6e3d 966c 623d b955 003e a9a1 9ebd
00000030: a65c 393d 42e2 63bd 259a cabc 7c95 69bd
00000040: 6cb0 ffbb 83eb 873d 871d 1fbd 0d22 a7bd
00000050: 5791 0b3e 3af7 c7bb 225c e63d ae99 babc
00000060: 5cfb b1bc f7fd eb3b ad81 da3c 1e7c e23d
00000070: 683d a3bb 9101 afbb 07bc afbc ecfa b63d
00000080: 524d cdbd 3648 8f3d a385 12bd 7897 c43d
00000090: 7aa5 9ebc 3b10 a23d 44aa ea3d 253b a4bd
000000a0: c36c 99bc 4671 063e d291 6d3c 68ba c9bc
000000b0: abb0 153e 9fb3 a23c 0a80 bb3d fe49 0cbd
000000c0: 97a1 6d3d cb83 83bd 0580 043e 110f c83c
000000d0: 265d 313d cd5e a0bd b739 013e c425 d2bd
000000e0: 7fb7 7b3c e1f6 a4bc a3e1 ac3d eafc 70bd
000000f0: 0bab 133e 9f83 633d 4901 aa3d ecf5 ab3d

bn.weight f4 [64]
0.98339117 1.0219831 0.98184925 0.98081356 1.0194503 0.98175377 0.98437226 0.98091346
1.0207071 1.017059 1.0211768 0.97885203 1.0199143 0.98084265 0.98608935 0.9804125
0.98621833 1.0209509 0.97981805 0.9814585 1.0213256 1.0079412 1.0193218 0.98519236
0.98087823 0.9861467 1.0214752 1.0171845 0.9842594 0.97928345 0.9810381 1.0212842
0.980106 1.0174545 0.9802529 1.019276 0.9812251 1.021395 1.0185428 0.9816547
0.9815111 1.0199267 1.0172986 0.98377424 1.0214103 0.9802936 1.0190301 0.98308885
1.020289 0.98349136 1.0177935 1.0218643 1.0119705 0.9787807 1.0194058 0.9802806
1.0139662 0.9787384 1.0211424 0.9800067 1.0216197 1.0197221 1.0169374 1.0222727
00000000: 86bf 7b3f 58d0 823f 795a 7b3f 9916 7b3f
00000010: 597d 823f 3754 7b3f d2ff 7b3f 251d 7b3f
00000020: 88a6 823f fd2e 823f ecb5 823f 0c96 7a3f
00000030: 8d8c 823f 8118 7b3f 5a70 7c3f 50fc 7a3f
00000040: ce78 7c3f 85ae 823f 5bd5 7a3f dd40 7b3f
00000050: ccba 823f 3804 813f 2379 823f 9135 7c3f
00000060: d61a 7b3f 1c74 7c3f b3bf 823f 1a33 823f
00000070: 6df8 7b3f 52b2 7a3f 5025 7b3f 71b9 823f
00000080: 3ae8 7a3f f33b 823f dbf1 7a3f a377 823f
00000090: 9131 7b3f 12bd 823f 9c5f 823f b94d 7b3f
000000a0: 5044 7b3f f58c 823f d736 823f a1d8 7b3f
000000b0: 93bd 823f 85f4 7a3f 946f 823f b6ab 7b3f
000000c0: d498 823f 17c6 7b3f 0f47 823f 73cc 823f
000000d0: 4088 813f 5f91 7a3f e47b 823f abf3 7a3f
000000e0: a5c9 813f 9a8e 7a3f cbb4 823f b8e1 7a3f
000000f0: 6fc4 823f 4186 823f 012b 823f d5d9 823f

bn.bias f4 [64]
-0.01693651 0.02053475 -0.016925192 -0.019424684 -0.008911065 -0.017948586 -0.020655703 -0.019992378
0.021108465 0.021546466 0.020751704 -0.020738881 0.020337338 -0.019233637 -0.01601194 -0.01956054
-0.014867602 0.020581769 -0.019639418 -0.019033315 0.019266285 0.014709736 0.019413777 -0.017643018
-0.017667454 -0.013417827 0.021528121 0.02126122 -0.015850222 -0.019558981 -0.0171292 0.020869102
-0.019343538 0.021498023 -0.018410373 0.020342987 -0.019714478 0.021066174 0.018269572 -0.019062921
-0.019425115 0.019292297 0.015979225 -0.01720864 0.021069817 0.0104540605 0.01974415 -0.018358376
0.0195375 -0.018409189 0.019410023 0.022109186 0.02088276 -0.020622853 0.019498492 -0.019596798
0.0057527684 -0.020253366 0.020652909 -0.01954623 0.021068823 0.020498047 0.019771181 0.020880116
00000000: 70be 8abc 7e38 a83c b3a6 8abc 8420 9fbc
00000010: b7ff 11bc ea08 93bc 2636 a9bc 0ec7 a3bc
00000020: a9eb ac3c 3782 b03c 7aff a93c 96e4 a9bc
00000030: 7d9a a63c dc8f 9dbc 792b 83bc 6d3d a0bc
00000040: 3e97 73bc 199b a83c d8e2 a0bc c1eb 9bbc
00000050: 54d4 9d3c 1b01 713c a409 9f3c 1788 90bc
00000060: 56bb 90bc 72d6 5bbc be5b b03c 032c ae3c
00000070: 53d8 81bc 283a a0bc 8952 8cbc aef5 aa3c
00000080: 5776 9ebc 9f1c b03c 5ad1 96bc 56a6 a63c
00000090: 4280 a1bc f892 ac3c 12aa 953c d829 9cbc
000000a0: 6b21 9fbc e10a 9e3c dde6 823c 22f9 8cbc
000000b0: 9c9a ac3c 8247 2b3c 7cbe a13c 4e64 96bc
000000c0: 1b0d a03c dece 96bc c501 9f3c 531e b53c
000000d0: 5212 ab3c 42f1 a8bc 4dbb 9f3c 7789 a0bc
000000e0: b881 bc3b 63ea a5bc 4a30 a93c 6a1f a0bc
000000f0: 8698 ac3c 85eb a73c 2cf7 a13c c70c ab3c

bn.running_mean f4 [64]
0.29127 0.071323656 0.05445692 0.0911766 -0.091589704 0.3584041 0.053673834 0.042384975
-0.15716489 -0.08456574 0.014920324 0.49810305 -0.14061041 -0.0757595 0.07084402 -0.095654584
-0.18303478 0.45211086 -0.31880203 0.2590311 0.27080673 0.007211104 -0.13707238 -0.24475342
-0.30298316 -0.21833043 -0.2146082 -0.1873038 0.15475401 0.08708415 -0.35620183 -0.16739054
0.0038024227 0.33492643 -0.114569195 0.12706283 0.04702624 0.15194224 0.17955308 0.19115508
-0.31649986 -0.33526534 0.2485939 -0.1747617 -0.09605216 -0.5221505 -0.054095298 -0.19567724
-0.29805642 0.17887707 -0.2347709 -0.14049809 -0.004431133 -0.02457498 -0.50076455 0.22156054
0.22826625 0.40160277 -0.51156074 -0.0009043103 0.066150784 0.19877513 0.046140652 0.10631916
00000000: 5721 953e 2312 923d 380e 5f3d ccba ba3d
00000010: 6293 bbbd be80 b73e 18d9 5b3d de9b 2d3d
00000020: d5ef 20be cd30 adbd 6074 743c 5d07 ff3e
00000030: 2dfc 0fbe cc27 9bbd ab16 913d 8de6 c3bd
00000040: 786d 3bbe 137b e73e 053a a3be b99f 843e
00000050: 2ea7 8a3e 204b ec3b b45c 0cbe a4a0 7abe
00000060: 9c20 9bbe 0392 5fbe 41c2 5bbe 91cc 3fbe
00000070: d677 1e3e 2d59 b23d 1660 b6be 6d68 2bbe
00000080: 1132 793b 7a7b ab3e 41a3 eabd c21c 023e
00000090: 969e 403d bf96 1b3e c3dc 373e 28be 433e
000000a0: 450c a2be e6a7 abbe 668f 7e3e bbf4 32be
000000b0: ffb6 c4bd a8ab 05bf 0893 5dbd 9d5f 48be
000000c0: da9a 98be 8d2b 373e c867 70be bbde 0fbe
000000d0: 0a33 91bb 7851 c9bc 1b32 00bf c4e0 623e
000000e0: a1be 693e e19e cd3e a5f5 02bf 3d0f 6dba
000000f0: 107a 873d b58b 4b3e fbfd 3c3d dcbd d93d

bn.running_var f4 [64]
0.11463941 0.30391634 0.11453703 0.23096348 0.115264244 0.15440275 0.21177983 0.076632924
0.09710066 0.29730347 0.2895139 0.22567464 0.48068136 0.09163707 0.73217076 0.12643372
0.22105077 0.18324761 0.28585193 0.3487362 0.41895148 0.21116364 0.118403316 0.17927738
0.13296077 0.3015802 0.22973622 0.40927136 0.3416435 0.348313 0.27833834 0.16434067
0.4089307 0.25160092 0.122322015 0.18484522 0.20704943 0.1412878 0.23274742 0.33065578
0.379964 0.2959421 0.25324696 0.17855348 0.13463971 0.14596409 0.4584844 0.2533593
0.23959233 0.098222695 0.29437375 0.12089275 0.16222925 0.2728914 0.17817447 0.13563813
0.21023491 0.11708182 0.45869017 0.48995236 0.16888402 0.083628334 0.29549617 0.43609837
00000000: 11c8 ea3d ec9a 9b3e 6492 ea3d b181 6c3e
00000010: a90f ec3d c11b 1e3e d0dc 583e b9f1 9c3d
00000020: b6dc c63d 2938 983e 2a3b 943e 4117 673e
00000030: de1b f63e 37ac bb3d 8b6f 3b3f d777 013e
00000040: 225b 623e 43a5 3b3e 2f5b 923e 8d8d b23e
00000050: cf80 d63e 483b 583e 707d f23d 7d94 373e
00000060: de26 083e b868 9a3e f93f 6b3e 048c d13e
00000070: e6eb ae3e 1556 b23e 5d82 8e3e ec48 283e
00000080: 5d5f d13e d6d1 803e f783 fa3d 1148 3d3e
00000090: c404 543e c0ad 103e 5755 6e3e b74b a93e
000000a0: a48a c23e b985 973e 96a9 813e b9d6 363e
000000b0: fede 093e 9c77 153e 78be ea3e 4fb8 813e
000000c0: b157 753e fb28 c93d 28b8 963e 9e96 f73d
000000d0: 6d1f 263e 6cb8 8b3e 5e73 363e b9e4 0a3e
000000e0: d247 573e 98c8 ef3d 70d9 ea3e 09db fa3e
000000f0: efef 2c3e 5545 ab3d 464b 973e 4948 df3e

net.0.weight f4 [64, 5]
-0.010528108 0.18747348 -0.10052589 0.4242713 -0.056062717 -0.23843399 -0.3288579 0.24752925
0.2670905 0.060449284 0.16451827 0.07153074 -0.14784703 -0.017328229 -0.009859713 0.22644147
-0.42838353 -0.31132415 -0.36992565 -0.14675188 0.24151663 -0.18183123 0.07409783 -0.20257325
-0.43768758 -0.06009256 0.34127027 0.1683652 0.30915996 -0.420199 -0.43073115 -0.031973157
0.22443195 -0.2605951 0.04273894 0.15278472 -0.053711914 -0.08489737 0.14496243 -0.10034826
-0.08783041 -0.11492734 -0.011987969 -0.105872005 -0.022471422 0.21003954 -0.45410952 0.011137525
0.092106536 -0.036156476 -0.16788876 -0.14399786 -0.39763284 0.09318326 -0.028752549 -0.41625464
-0.14717281 0.40056953 -0.321814 -0.11451474 0.053382065 -0.13676597 -0.27082002 -0.38419765
-0.2816196 -0.32909125 -0.108824305 0.27639723 -0.08120839 -0.12262284 0.16319652 -0.06308175
0.416759 0.22124319 0.07859153 -0.41109967 -0.32534683 -0.015237583 0.30137116 0.058333423
0.11041719 0.18546805 -0.020908916 -0.4326195 0.13361308 0.17271376 0.23000962 0.32021293
0.0051333513 -0.23432492 0.344189 -0.39816478 0.22246407 -0.28062373 -0.070613354 0.08240947
-0.053288613 -0.29817837 -0.32610783 -0.20418338 -0.40155995 -0.36536607 0.028556474 -0.30134454
-0.38254797 0.13714913 -0.14872187 0.07302487 0.11436339 -0.06210813 0.070229545 0.09134275
-0.4121414 0.37804314 0.27921674 0.43325552 0.036855333 -0.38061887 0.18071191 0.2093147
-0.05921632 -0.25617158 0.26024184 -0.27239507 0.2672384 0.39701977 0.24741118 -0.43413818
0.38525105 0.3777354 -0.08509193 -0.3940659 -0.14876589 -0.24932386 -0.11440706 0.41763914
-0.42734408 -0.014704435 -0.2243896 0.26160762 0.35602862 0.3449175 -0.27283594 -0.4168659
-0.037591398 -0.40013772 -0.2962088 0.32131195 0.29720375 0.09709022 0.21373253 -0.26025993
0.16170946 -0.061892357 0.26342204 0.0068498496 -0.35772386 -0.14523798 -0.3138365 0.13102508
-0.05910337 -0.32443544 -0.45020425 -0.24414875 0.09990212 -0.3947846 -0.26479813 0.21667841
0.42702693 -0.07016798 0.0069682235 0.020839367 -0.4075411 0.25965914 0.27454013 0.19895895
-0.18092002 -0.20537204 -0.38272586 -0.06907206 -0.32792145 -0.34433308 -0.20737264 0.03965889
-0.13982195 0.082777 0.20316286 -0.19351271 -0.10974047 0.20370881 0.37013987 -0.12468696
-0.42343032 -0.19407931 -0.2804507 -0.21757309 0.1444565 -0.0663466 -0.28199527 0.08288171
0.39936954 -0.3683756 -0.24488911 0.340683 -0.10990384 0.12927082 0.45264795 -0.4213351
0.21274175 0.4201408 -0.055703048 0.06981947 -0.24934582 -0.16617677 0.04389495 -0.088916905
0.09128168 0.29453707 -0.20401457 0.14455059 -0.11553275 0.25999323 -0.18334113 0.314405
0.15751304 0.109643504 -0.30540967 -0.07122986 -0.16379672 0.45616043 0.4334167 0.2331446
0.3768436 0.019584766 -0.2223337 -0.11172651 0.26806787 -0.0610132 0.079719804 0.12829554
-0.43600628 -0.092655994 -0.027870176 -0.17100935 0.4082815 0.026036065 -0.08150899 -0.19604322
0.24543796 -0.37265563 -0.37773842 0.15010402 0.4331712 -0.40326637 0.3689791 0.24109778
00000000: 167e 2cbc 0cf9 3f3e 85e0 cdbd 163a d93e
00000010: 05a2 65bd 0a28 74be 1060 a8be 4f78 7d3e
00000020: 16c0 883e ab99 773d 7a77 283e b57e 923d
00000030: 3665 17be eef3 8dbc a28a 21bc 46e0 673e
00000040: 1655 dbbe e165 9fbe e566 bdbe 2046 16be
00000050: 2350 773e f731 3abe 9ac0 973d 5d6f 4fbe
00000060: 9618 e0be 9e23 76bd faba ae3e ed67 2c3e
00000070: 374a 9e3e 5324 d7be cb88 dcbe 49f6 02bd
00000080: 7dd1 653e b96c 85be 070f 2f3d 9973 1c3e
00000090: 0601 5cbd acde adbd 0871 143e 6383 cdbd
000000a0: 6ee0 b3bd 065f ebbd 3069 44bc 6cd3 d8bd
000000b0: fd15 b8bc 9b14 573e 0b81 e8be 2a7a 363c
000000c0: 5aa2 bc3d d018 14bd 08eb 2bbe 2d74 13be
000000d0: 8896 cbbe ddd6 be3d 778a ebbc 541f d5be
000000e0: 78b4 16be 7317 cd3e cec4 a4be b486 eabd
000000f0: 27a7 5a3d 610c 0cbe eca8 8abe 8eb5 c4be
00000100: 7230 90be a67e a8be 47df debd f083 8d3e
00000110: 9650 a6bd af21 fbbd fd1c 273e 0131 81bd
00000120: 7061 d53e 938d 623e 99f4 a03d a87b d2be
00000130: dc93 a6be 0ea7 79bc 524d 9a3e 07ef 6e3d
00000140: 6822 e23d 56eb 3d3e 2d49 abbc 4e80 ddbe
00000150: ded1 083e e0db 303e a487 6b3e f3f2 a33e
00000160: ac35 a83b dff2 6fbe 8a39 b03e 41dc cbbe
00000170: 9fcd 633e eaad 8fbe bc9d 90bd 4cc6 a83d
00000180: 2945 5abd d6aa 98be 9bf7 a6be 7315 51be
00000190: 4499 cdbe 4311 bbbe 44ef e93c d549 9abe
000001a0: 54dd c3be d270 0c3e 8c4a 18be 108e 953d
000001b0: 5a37 ea3d 1865 7ebd 82d4 8f3d e811 bb3d
000001c0: 3304 d3be df8e c13e 7ff5 8e3e abd3 dd3e
000001d0: 9ef5 163d 7ae0 c2be 8b0c 393e 9856 563e
000001e0: d08c 72bd ec28 83be 6b3e 853e 5e77 8bbe
000001f0: 79d3 883e 2d46 cb3e 5b59 7d3e 5c47 debe
00000200: a03f c53e 8966 c13e ae44 aebd 01c3 c9be
00000210: 1656 18be c14e 7fbe 404e eabd ccd4 d53e
00000220: d8cc dabe dfea 70bc 63c6 65be 6ff1 853e
00000230: 6249 b63e 0799 b03e 27b1 8bbe 726f d5be
00000240: 70f9 19bd dade ccbe aea8 97be 0083 a43e
00000250: 172b 983e 3dd7 c63d b3dc 5a3e ca40 85be
00000260: 2a97 253e d782 7dbd 41df 863e b474 e03b
00000270: 9527 b7be 44b9 14be 2daf a0be 702b 063e
00000280: 6016 72bd 671c a6be 2c81 e6be 2102 7abe
00000290: 7c99 cc3d 3521 cabe 9f93 87be f2e0 5d3e
000002a0: 46a3 da3e 3bb4 8fbd b255 e43b 52b7 aa3c
000002b0: 3aa9 d0be 0bf2 843e 8690 8c3e e5bb 4b3e
000002c0: 1943 39be 0c4d 52be a5f4 c3be a775 8dbd
000002d0: 52e5 a7be 6d4c b0be 7e59 54be 5c71 223d
000002e0: 7c2d 0fbe fd86 a93d ed09 503e 3228 46be
000002f0: 9dbf e0bd 0b99 503e f982 bd3e e05b ffbd
00000300: dccb d8be babc 46be 3c97 8fbe 7bcb 5ebe
00000310: 68ec 133e bae0 87bd af61 90be e3bd a93d
00000320: 2a7a cc3e ba9b bcbe 36c4 7abe 016e ae3e
00000330: 4415 e1bd 925f 043e 79c1 e73e 3cb9 d7be
00000340: f9d8 593e b21c d73e e128 64bd 83fd 8e3d
00000350: 8354 7fbe 3e2a 2abe 31cb 333d 111a b6bd
00000360: e4f1 ba3d 90cd 963e 32e9 50be 1205 143e
00000370: 6f9c ecbd d51d 853e c7bd 3bbe b1f9 a03e
00000380: 194b 213e c68c e03d a85e 9cbe f6e0 91bd
00000390: 54ba 27be dc8d e93e cbe8 dd3e 75bd 6e3e
000003a0: a5f1 c03e 3b70 a03c 72ab 63be ded0 e4bd
000003b0: 3140 893e fae8 79bd 2344 a33d e85f 033e
000003c0: 373c dfbe 6dc2 bdbd ff4f e4bc 131d 2fbe
000003d0: 460a d13e 9649 d53c 2fee a6bd 8ebf 48be
000003e0: 1754 7b3e b8cc bebe ee66 c1be deb4 193e
000003f0: 9ec8 dd3e ee78 cebe d4ea bc3e 56e2 763e

net.0.bias f4 [64]
-0.102506265 0.3383598 -0.13383302 0.0018696033 -0.20107907 0.041993223 -0.30944178 0.11452436
-0.34451598 0.03171848 -0.4118803 -0.03589797 -0.21779048 -0.09073686 0.32895622 -0.3188094
-0.15316097 0.2819657 0.25824553 0.23028208 0.045469444 -0.35564896 -0.2166293 0.015742483
-0.30102435 0.0011766598 -0.18003358 0.29784605 0.32866138 0.36711806 0.046494488 0.0522392
-0.049817476 0.40393305 0.09805651 0.23622541 -0.14018397 0.25838065 0.28216448 0.36635265
-0.3612906 -0.3071281 0.06526492 0.1460974 -0.33495775 -0.23850049 -0.1997793 -0.39098772
-0.24595918 -0.2783688 -0.28975028 -0.20566992 0.3078382 -0.0693534 -0.40330696 -0.06709608
0.2350573 0.31009528 -0.18637949 0.22715382 0.27332434 0.37810627 0.017124416 -0.2880885
00000000: ceee d1bd 7f3d ad3e 860b 09be 7a0d f53a
00000010: ace7 4dbe 1601 2c3d 276f 9ebe bf8b ea3d
00000020: 6664 b0be 3deb 013d fae1 d2be c009 13bd
00000030: 7804 5fbe 3fd4 b9bd f36c a83e fc3a a3be
00000040: 3bd6 1cbe cf5d 903e c238 843e 11cf 6b3e
00000050: 2b3e 3a3d 9f17 b6be 12d4 5dbe 61f6 803c
00000060: dd1f 9abe 273a 9a3a b95a 38be 477f 983e
00000070: 4e46 a83e e6f6 bb3e 0171 3e3d c5f8 553d
00000080: 690d 4cbd 50d0 ce3e dad1 c83d 13e5 713e
00000090: 638c 0fbe 784a 843e dd77 903e 9392 bb3e
000000a0: 15fb b8be e53f 9dbe 9da9 853d 8f9a 153e
000000b0: 957f abbe 7939 74be f292 4cbe 8b2f c8be
000000c0: b9dc 7bbe 5b86 8ebe 265a 94be 239b 52be
000000d0: f89c 9d3e 2809 8ebd 407e cebe ab69 89bd
000000e0: dcb2 703e cfc4 9e3e 44da 3ebe 039b 683e
000000f0: 2bf1 8b3e 2597 c13e 8148 8c3c 5680 93be

net.1.weight f4 [64]
0.98339117 1.0219831 0.98184925 0.98081356 1.0194503 0.98175377 0.98437226 0.98091346
1.0207071 1.017059 1.0211768 0.97885203 1.0199143 0.98084265 0.98608935 0.9804125
0.98621833 1.0209509 0.97981805 0.9814585 1.0213256 1.0079412 1.0193218 0.98519236
0.98087823 0.9861467 1.0214752 1.0171845 0.9842594 0.97928345 0.9810381 1.0212842
0.980106 1.0174545 0.9802529 1.019276 0.9812251 1.021395 1.0185428 0.9816547
0.9815111 1.0199267 1.0172986 0.98377424 1.0214103 0.9802936 1.0190301 0.98308885
1.020289 0.98349136 1.0177935 1.0218643 1.0119705 0.9787807 1.0194058 0.9802806
1.0139662 0.9787384 1.0211424 0.9800067 1.0216197 1.0197221 1.0169374 1.0222727
00000000: 86bf 7b3f 58d0 823f 795a 7b3f 9916 7b3f
00000010: 597d 823f 3754 7b3f d2ff 7b3f 251d 7b3f
00000020: 88a6 823f fd2e 823f ecb5 823f 0c96 7a3f
00000030: 8d8c 823f 8118 7b3f 5a70 7c3f 50fc 7a3f
00000040: ce78 7c3f 85ae 823f 5bd5 7a3f dd40 7b3f
00000050: ccba 823f 3804 813f 2379 823f 9135 7c3f
00000060: d61a 7b3f 1c74 7c3f b3bf 823f 1a33 823f
00000070: 6df8 7b3f 52b2 7a3f 5025 7b3f 71b9 823f
00000080: 3ae8 7a3f f33b 823f dbf1 7a3f a377 823f
00000090: 9131 7b3f 12bd 823f 9c5f 823f b94d 7b3f
000000a0: 5044 7b3f f58c 823f d736 823f a1d8 7b3f
000000b0: 93bd 823f 85f4 7a3f 946f 823f b6ab 7b3f
000000c0: d498 823f 17c6 7b3f 0f47 823f 73cc 823f
000000d0: 4088 813f 5f91 7a3f e47b 823f abf3 7a3f
000000e0: a5c9 813f 9a8e 7a3f cbb4 823f b8e1 7a3f
000000f0: 6fc4 823f 4186 823f 012b 823f d5d9 823f

net.1.bias f4 [64]
-0.01693651 0.02053475 -0.016925192 -0.019424684 -0.008911065 -0.017948586 -0.020655703 -0.019992378
0.021108465 0.021546466 0.020751704 -0.020738881 0.020337338 -0.019233637 -0.01601194 -0.01956054
-0.014867602 0.020581769 -0.019639418 -0.019033315 0.019266285 0.014709736 0.019413777 -0.017643018
-0.017667454 -0.013417827 0.021528121 0.02126122 -0.015850222 -0.019558981 -0.0171292 0.020869102
-0.019343538 0.021498023 -0.018410373 0.020342987 -0.019714478 0.021066174 0.018269572 -0.019062921
-0.019425115 0.019292297 0.015979225 -0.01720864 0.021069817 0.0104540605 0.01974415 -0.018358376
0.0195375 -0.018409189 0.019410023 0.022109186 0.02088276 -0.020622853 0.019498492 -0.019596798
0.0057527684 -0.020253366 0.020652909 -0.01954623 0.021068823 0.020498047 0.019771181 0.020880116
00000000: 70be 8abc 7e38 a83c b3a6 8abc 8420 9fbc
00000010: b7ff 11bc ea08 93bc 2636 a9bc 0ec7 a3bc
00000020: a9eb ac3c 3782 b03c 7aff a93c 96e4 a9bc
00000030: 7d9a a63c dc8f 9dbc 792b 83bc 6d3d a0bc
00000040: 3e97 73bc 199b a83c d8e2 a0bc c1eb 9bbc
00000050: 54d4 9d3c 1b01 713c a409 9f3c 1788 90bc
00000060: 56bb 90bc 72d6 5bbc be5b b03c 032c ae3c
00000070: 53d8 81bc 283a a0bc 8952 8cbc aef5 aa3c
00000080: 5776 9ebc 9f1c b03c 5ad1 96bc 56a6 a63c
00000090: 4280 a1bc f892 ac3c 12aa 953c d829 9cbc
000000a0: 6b21 9fbc e10a 9e3c dde6 823c 22f9 8cbc
000000b0: 9c9a ac3c 8247 2b3c 7cbe a13c 4e64 96bc
000000c0: 1b0d a03c dece 96bc c501 9f3c 531e b53c
000000d0: 5212 ab3c 42f1 a8bc 4dbb 9f3c 7789 a0bc
000000e0: b881 bc3b 63ea a5bc 4a30 a93c 6a1f a0bc
000000f0: 8698 ac3c 85eb a73c 2cf7 a13c c70c ab3c

net.1.running_mean f4 [64]
0.29127 0.071323656 0.05445692 0.0911766 -0.091589704 0.3584041 0.053673834 0.042384975
-0.15716489 -0.08456574 0.014920324 0.49810305 -0.14061041 -0.0757595 0.07084402 -0.095654584
-0.18303478 0.45211086 -0.31880203 0.2590311 0.27080673 0.007211104 -0.13707238 -0.24475342
-0.30298316 -0.21833043 -0.2146082 -0.1873038 0.15475401 0.08708415 -0.35620183 -0.16739054
0.0038024227 0.33492643 -0.114569195 0.12706283 0.04702624 0.15194224 0.17955308 0.19115508
-0.31649986 -0.33526534 0.2485939 -0.1747617 -0.09605216 -0.5221505 -0.054095298 -0.19567724
-0.29805642 0.17887707 -0.2347709 -0.14049809 -0.004431133 -0.02457498 -0.50076455 0.22156054
0.22826625 0.40160277 -0.51156074 -0.0009043103 0.066150784 0.19877513 0.046140652 0.10631916
00000000: 5721 953e 2312 923d 380e 5f3d ccba ba3d
00000010: 6293 bbbd be80 b73e 18d9 5b3d de9b 2d3d
00000020: d5ef 20be cd30 adbd 6074 743c 5d07 ff3e
00000030: 2dfc 0fbe cc27 9bbd ab16 913d 8de6 c3bd
00000040: 786d 3bbe 137b e73e 053a a3be b99f 843e
00000050: 2ea7 8a3e 204b ec3b b45c 0cbe a4a0 7abe
00000060: 9c20 9bbe 0392 5fbe 41c2 5bbe 91cc 3fbe
00000070: d677 1e3e 2d59 b23d 1660 b6be 6d68 2bbe
00000080: 1132 793b 7a7b ab3e 41a3 eabd c21c 023e
00000090: 969e 403d bf96 1b3e c3dc 373e 28be 433e
000000a0: 450c a2be e6a7 abbe 668f 7e3e bbf4 32be
000000b0: ffb6 c4bd a8ab 05bf 0893 5dbd 9d5f 48be
000000c0: da9a 98be 8d2b 373e c867 70be bbde 0fbe
000000d0: 0a33 91bb 7851 c9bc 1b32 00bf c4e0 623e
000000e0: a1be 693e e19e cd3e a5f5 02bf 3d0f 6dba
000000f0: 107a 873d b58b 4b3e fbfd 3c3d dcbd d93d

net.1.running_var f4 [64]
0.11463941 0.30391634 0.11453703 0.23096348 0.115264244 0.15440275 0.21177983 0.076632924
0.09710066 0.29730347 0.2895139 0.22567464 0.48068136 0.09163707 0.73217076 0.12643372
0.22105077 0.18324761 0.28585193 0.3487362 0.41895148 0.21116364 0.118403316 0.17927738
0.13296077 0.3015802 0.22973622 0.40927136 0.3416435 0.348313 0.27833834 0.16434067
0.4089307 0.25160092 0.122322015 0.18484522 0.20704943 0.1412878 0.23274742 0.33065578
0.379964 0.2959421 0.25324696 0.17855348 0.13463971 0.14596409 0.4584844 0.2533593
0.23959233 0.098222695 0.29437375 0.12089275 0.16222925 0.2728914 0.17817447 0.13563813
0.21023491 0.11708182 0.45869017 0.48995236 0.16888402 0.083628334 0.29549617 0.43609837
00000000: 11c8 ea3d ec9a 9b3e 6492 ea3d b181 6c3e
00000010: a90f ec3d c11b 1e3e d0dc 583e b9f1 9c3d
00000020: b6dc c63d 2938 983e 2a3b 943e 4117 673e
00000030: de1b f63e 37ac bb3d 8b6f 3b3f d777 013e
00000040: 225b 623e 43a5 3b3e 2f5b 923e 8d8d b23e
00000050: cf80 d63e 483b 583e 707d f23d 7d94 373e
00000060: de26 083e b868 9a3e f93f 6b3e 048c d13e
00000070: e6eb ae3e 1556 b23e 5d82 8e3e ec48 283e
00000080: 5d5f d13e d6d1 803e f783 fa3d 1148 3d3e
00000090: c404 543e c0ad 103e 5755 6e3e b74b a93e
000000a0: a48a c23e b985 973e 96a9 813e b9d6 363e
000000b0: fede 093e 9c77 153e 78be ea3e 4fb8 813e
000000c0: b157 753e fb28 c93d 28b8 963e 9e96 f73d
000000d0: 6d1f 263e 6cb8 8b3e 5e73 363e b9e4 0a3e
000000e0: d247 573e 98c8 ef3d 70d9 ea3e 09db fa3e
000000f0: efef 2c3e 5545 ab3d 464b 973e 4948 df3e

net.3.weight f4 [64, 64]
0.019459518 0.073089235 0.0058921576 0.07502083 -0.035652015 -0.11676846 -0.066731 0.1231387
0.0401743 0.12707599 0.05457068 0.08420022 0.024272503 0.08620731 -0.03514827 0.06610146
0.08497561 0.035515215 -0.072125934 -0.05725534 0.05569085 -0.07558201 -0.02305596 0.07339285
-0.070295304 -0.012338749 0.032863654 -0.025877424 0.070227355 0.050607376 0.07978025 -0.051537678
-0.041142613 0.11074643 -0.09451022 0.08074339 -0.08717412 -0.013273956 0.07059984 0.077800505
0.11676049 0.03008364 0.03031018 0.05384327 0.1077103 0.07102497 -0.10952207 0.09930066
0.11004504 0.027296048 -0.110813566 -0.063184425 0.03819505 0.04163155 -0.041550282 -0.10751869
0.09424749 -0.06925564 -0.06632767 -0.06320974 0.026158502 0.09970531 0.06619741 0.11403467
-0.034979604 -0.068608694 -0.11222782 0.061676487 0.09598033 -0.09063542 0.016747514 0.012388637
-0.036818307 -0.028064303 -0.11895486 -0.0012354195 -0.046982612 0.023569874 0.08754283 0.068246625
0.10078258 -0.1099585 -0.10431966 0.062169805 -0.021606626 -0.104786634 -0.00037511426 0.03716991
-0.07628772 0.021880591 0.07980238 0.099165455 -0.101720154 0.061992016 -0.11303299 0.10148575
-0.009583087 0.00866723 0.031045046 0.07899135 0.069272526 -0.078560516 -0.027543694 0.094632894
0.061803292 -0.031638533 -0.048595894 0.06612805 0.020814903 -0.12023982 0.09822415 -0.14350148
0.0165942 0.009778906 -0.013344995 0.12772642 0.05754576 -0.054660816 -0.042592507 -0.019261504
-0.009432357 -0.037107464 -0.063419305 0.07202181 -0.07137629 0.09422733 -0.009861832 0.09728028
-0.08679602 0.0015552883 -0.0076794615 0.11996096 0.092584826 0.04946933 -0.0467004 0.09230404
-0.097463034 0.078878686 0.1310345 -0.10614378 0.1072982 -0.08249164 -0.027259128 0.057689104
0.10908629 -0.027730918 -0.085635334 0.08136827 0.048351225 0.016445776 -0.042265587 0.013743654
-0.08125031 -0.07402851 0.06894237 0.033362903 0.08769448 -0.09824329 -0.0092803715 -0.008424081
-0.0937323 -0.08982144 0.012936851 0.0754946 -0.096222915 -0.017116154 0.10332698 0.08248412
0.0723371 0.12455626 -0.011263439 0.014332448 -0.035368398 0.11735225 0.04522784 -0.10919916
0.029616274 0.08339502 0.058869123 0.04962035 0.08594484 -0.026675552 0.11589388 0.05875283
0.06549338 -0.0002090582 -0.03773805 0.027093751 0.09161297 -0.10609748 -0.100372024 -0.025470858
0.06131691 0.12107645 -0.09006745 -0.037761644 0.054785624 -0.09033561 -0.0029561422 -0.03677629
0.072812706 0.09076681 0.032427814 -0.06777609 0.10314664 0.092751615 0.067530975 0.0746197
-0.06957798 0.06356565 -0.11103206 0.03989341 0.031426586 0.12076093 -0.059417248 0.017763987
0.010067621 -0.100747146 0.08026041 -0.026154306 0.120505445 -0.021728208 0.032416467 9.3535964e-05
0.081915565 0.064011924 -0.11234665 -0.11730799 -0.022284715 0.040194705 -0.03362233 -0.120066114
-0.08628287 0.07570808 0.05749493 0.09852289 0.084372506 0.08147023 -0.12829046 0.07731667
-0.06766153 -0.036652952 0.012001035 0.10081537 -0.01629723 0.07514474 0.09461902 -0.030849207
-0.08194024 0.039364014 -0.11170119 -0.027385151 0.09322656 -0.09923319 0.041802377 0.06084194
00000000: 9169 9f3c cfaf 953d 0013 c13b 85a4 993d
00000010: d907 12bd 4d24 efbd 43aa 88bd 2530 fc3d
00000020: cf8d 243d 3520 023e 8185 5f3d 2a71 ac3d
00000030: 21d7 c63c 758d b03d a2f7 0fbd 3460 873d
00000040: b107 ae3d 6778 113d c3b6 93bd 9384 6abd
00000050: 171c 643d beca 9abd dadf bcbc fe4e 963d
00000060: fcf6 8fbd 7728 4abc 0a9c 063d e4fc d3bc
00000070: 5cd3 8f3d ae49 4f3d d463 a33d 2c19 53bd
00000080: 2885 28bd 06cf e23d 938e c1bd ca5c a53d
00000090: 5888 b2bd 027b 59bc a696 903d df55 9f3d
000000a0: 2020 ef3d f771 f63c 0e4d f83c c38a 5c3d
000000b0: 3897 dc3d 8a75 913d 1b4d e0bd 255e cb3d
000000c0: 4b5f e13d f69b df3c 39f2 e2bd d666 81bd
000000d0: 6a72 1c3d d885 2a3d a130 2abd c232 dcbd
000000e0: d404 c13d e7d5 8dbd cdd6 87bd 1c74 81bd
000000f0: 5b4a d63c 4c32 cc3d 8292 873d 028b e93d
00000100: c646 0fbd b782 8cbd b3d7 e5bd 7ca0 7c3d
00000110: 5691 c43d 109f b9bd 1532 893c b6f9 4a3c
00000120: cbce 16bd 1ce7 e5bc 9b9e f3bd cded a1ba
00000130: d770 40bd 9c15 c13c a849 b33d e3c4 8b3d
00000140: 1967 ce3d ec31 e1bd 8ca5 d5bd c4a5 7e3d
00000150: 6100 b1bc 609a d6bd fcaa c4b9 7a3f 183d
00000160: bc3c 9cbd ed3e b33c 6e6f a33d 4217 cb3d
00000170: a852 d0bd 57eb 7d3d d77d e7bd c3d7 cf3d
00000180: 6102 1dbc ff00 0e3c 2e52 fe3c 38c6 a13d
00000190: c1de 8d3d 56e4 a0bd 50a3 e1bc e4ce c13d
000001a0: 7325 7d3d 6897 01bd 7d0c 47bd 256e 873d
000001b0: 0484 aa3c 4b40 f6bd be29 c93d 0df2 12be
000001c0: 8ff0 873c b437 203c f7a4 5abc b7ca 023e
000001d0: 1ab5 6b3d 05e4 5fbd 7b75 2ebd 4dca 9dbc
000001e0: 2c8a 1abc fffd 17bd fbe1 81bd 2c80 933d
000001f0: bb2d 92bd 42fa c03d 8593 21bc e23a c73d
00000200: 1dc2 b1bd d1da cb3a fea3 fbbb 17ae f53d
00000210: 1d9d bd3d 5aa0 4a3d eb48 3fbd e709 bd3d
00000220: b39a c7bd 268b a13d e82d 063e e961 d9bd
00000230: 29bf db3d 60f1 a8bd 894e dfbc 694b 6c3d
00000240: a268 df3d f32b e3bc 9461 afbd 68a4 a63d
00000250: ef0b 463d 4bb9 863c ae1e 2dbd 102d 613c
00000260: 9066 a6bd 429c 97bd a831 8d3d 8aa7 083d
00000270: 2a99 b33d c733 c9bd b30c 18bc 2805 0abc
00000280: b8f6 bfbd 4ef4 b7bd 16f5 533c ea9c 9a3d
00000290: 8510 c5bd 2d37 8cbc 189d d33d 6fed a83d
000002a0: 7925 943d 5a17 ff3d 4a8a 38bc a5d2 6a3c
000002b0: 74de 10bd 6056 f03d d440 393d cfa3 dfbd
000002c0: d49d f23c 02cb aa3d c020 713d b53e 4b3d
000002d0: d903 b03d b086 dabc c559 ed3d cfa6 703d
000002e0: 6521 863d a236 5bb9 3793 1abd b7f3 dd3c
000002f0: 959f bb3d a349 d9bd d98f cdbd 43a8 d0bc
00000300: 7127 7b3d eef6 f73d 4975 b8bd f4ab 1abd
00000310: e466 603d e001 b9bd d6bb 41bb bca2 16bd
00000320: d41e 953d f3e3 b93d 07d3 043d 31ce 8abd
00000330: 8c3e d33d 8ff4 bd3d ae4d 8a3d 37d2 983d
00000340: e67e 8ebd b52e 823d c764 e3bd 4667 233d
00000350: 2ab9 003d 8251 f73d 805f 73bd c885 913c
00000360: aaf2 243c 8554 cebd 925f a43d 8e41 d6bc
00000370: 8fcb f63d 5bff b1bc 21c7 043d bd28 c438
00000380: 59c3 a73d af18 833d 0016 e6bd 2c3f f0bd
00000390: 6f8e b6bc 34a3 243d 91b7 09bd 39e5 f5bd
000003a0: 13b5 b0bd d60c 9b3d ce7f 6b3d 5ec6 c93d
000003b0: 7ecb ac3d ddd9 a63d 935e 03be 3458 9e3d
000003c0: 2192 8abd 6821 16bd fd9f 443c 4a78 ce3d
000003d0: c581 85bc 7ce5 993d 9ec7 c13d 7ab7 fcbc
000003e0: 49d0 a7bd 293c 213d 98c3 e4bd d356 e0bc
000003f0: 91ed be3d c53a cbbd f838 2b3d 6635 793d

net.3.bias f4 [64]
0.014791176 0.0026178607 -0.06402321 -0.00082301354 0.009936806 -0.03493538 -0.028684404 0.00093030644
0.0010835268 -0.0026427028 -0.025155092 0.032169033 0.0019716788 0.027276043 0.08878309 0.01084308
-0.04574588 0.09068899 0.028253991 -0.0029835813 0.028818266 0.08402511 0.09500174 0.07156961
-0.058198165 -0.06225452 0.015794631 0.018575625 -0.03782029 0.0023570247 -0.022843469 -0.009838623
0.10326344 6.323837e-05 0.0036312684 0.0024655557 -0.08315142 -0.044360492 -0.0024723446 0.059567425
-0.044426728 0.0018334769 0.018659793 0.07979057 -6.110494e-05 0.0027382565 0.0114228325 0.014966135
-6.845522e-05 -0.06781744 0.10276973 -0.05870435 -0.06271403 -0.012158625 -0.053057015 0.0006024579
0.07504298 -0.058559306 -0.023472518 0.031952344 -0.044203028 0.057618827 0.06425114 0.09693557
00000000: b056 723c 6a90 2b3b 9a1e 83bd 81bf 57ba
00000010: fccd 223c 6718 0fbd 8efb eabc cfdf 733a
00000020: 2005 8e3a 3231 2dbb 0d12 cebc adc3 033d
00000030: 4837 013b 0272 df3c e9d3 b53d 2ca7 313c
00000040: 0860 3bbd 26bb b93d ea74 e73c 3088 43bb
00000050: 4914 ec3c 5b15 ac3d 4690 c23d 1693 923d
00000060: 3361 6ebd 98fe 7ebd be63 813c e92b 983c
00000070: 73e9 1abd 5078 1a3b 3a22 bbbc 2d32 21bc
00000080: c87b d33d d79e 8438 93fa 6d3b 2995 213b
00000090: 4b4b aabd 59b3 35bd 0f07 22bb f9fc 733d
000000a0: cdf8 35bd 4751 f03a 6cdc 983c 3d69 a33d
000000b0: 7725 80b8 5274 333b d526 3b3c 8534 753c
000000c0: 9e8f 8fb8 dfe3 8abd f078 d23d f973 70bd
000000d0: 3770 80bd f834 47bc 5052 59bd 44ee 1d3a
000000e0: 22b0 993d e2db 6fbd 7049 c0bc 76e0 023d
000000f0: 3c0e 35bd b801 6c3d 1a96 833d 2886 c63d

net.4.weight f4 [64]
0.98339117 1.0219831 0.98184925 0.98081356 1.0194503 0.98175377 0.98437226 0.98091346
1.0207071 1.017059 1.0211768 0.97885203 1.0199143 0.98084265 0.98608935 0.9804125
0.98621833 1.0209509 0.97981805 0.9814585 1.0213256 1.0079412 1.0193218 0.98519236
0.98087823 0.9861467 1.0214752 1.0171845 0.9842594 0.97928345 0.9810381 1.0212842
0.980106 1.0174545 0.9802529 1.019276 0.9812251 1.021395 1.0185428 0.9816547
0.9815111 1.0199267 1.0172986 0.98377424 1.0214103 0.9802936 1.0190301 0.98308885
1.020289 0.98349136 1.0177935 1.0218643 1.0119705 0.9787807 1.0194058 0.9802806
1.0139662 0.9787384 1.0211424 0.9800067 1.0216197 1.0197221 1.0169374 1.0222727
00000000: 86bf 7b3f 58d0 823f 795a 7b3f 9916 7b3f
00000010: 597d 823f 3754 7b3f d2ff 7b3f 251d 7b3f
00000020: 88a6 823f fd2e 823f ecb5 823f 0c96 7a3f
00000030: 8d8c 823f 8118 7b3f 5a70 7c3f 50fc 7a3f
00000040: ce78 7c3f 85ae 823f 5bd5 7a3f dd40 7b3f
00000050: ccba 823f 3804 813f 2379 823f 9135 7c3f
00000060: d61a 7b3f 1c74 7c3f b3bf 823f 1a33 823f
00000070: 6df8 7b3f 52b2 7a3f 5025 7b3f 71b9 823f
00000080: 3ae8 7a3f f33b 823f dbf1 7a3f a377 823f
00000090: 9131 7b3f 12bd 823f 9c5f 823f b94d 7b3f
000000a0: 5044 7b3f f58c 823f d736 823f a1d8 7b3f
000000b0: 93bd 823f 85f4 7a3f 946f 823f b6ab 7b3f
000000c0: d498 823f 17c6 7b3f 0f47 823f 73cc 823f
000000d0: 4088 813f 5f91 7a3f e47b 823f abf3 7a3f
000000e0: a5c9 813f 9a8e 7a3f cbb4 823f b8e1 7a3f
000000f0: 6fc4 823f 4186 823f 012b 823f d5d9 823f

net.4.bias f4 [64]
-0.01693651 0.02053475 -0.016925192 -0.019424684 -0.008911065 -0.017948586 -0.020655703 -0.019992378
0.021108465 0.021546466 0.020751704 -0.020738881 0.020337338 -0.019233637 -0.01601194 -0.01956054
-0.014867602 0.020581769 -0.019639418 -0.019033315 0.019266285 0.014709736 0.019413777 -0.017643018
-0.017667454 -0.013417827 0.021528121 0.02126122 -0.015850222 -0.019558981 -0.0171292 0.020869102
-0.019343538 0.021498023 -0.018410373 0.020342987 -0.019714478 0.021066174 0.018269572 -0.019062921
-0.019425115 0.019292297 0.015979225 -0.01720864 0.021069817 0.0104540605 0.01974415 -0.018358376
0.0195375 -0.018409189 0.019410023 0.022109186 0.02088276 -0.020622853 0.019498492 -0.019596798
0.0057527684 -0.020253366 0.020652909 -0.01954623 0.021068823 0.020498047 0.019771181 0.020880116
00000000: 70be 8abc 7e38 a83c b3a6 8abc 8420 9fbc
00000010: b7ff 11bc ea08 93bc 2636 a9bc 0ec7 a3bc
00000020: a9eb ac3c 3782 b03c 7aff a93c 96e4 a9bc
00000030: 7d9a a63c dc8f 9dbc 792b 83bc 6d3d a0bc
00000040: 3e97 73bc 199b a83c d8e2 a0bc c1eb 9bbc
00000050: 54d4 9d3c 1b01 713c a409 9f3c 1788 90bc
00000060: 56bb 90bc 72d6 5bbc be5b b03c 032c ae3c
00000070: 53d8 81bc 283a a0bc 8952 8cbc aef5 aa3c
00000080: 5776 9ebc 9f1c b03c 5ad1 96bc 56a6 a63c
00000090: 4280 a1bc f892 ac3c 12aa 953c d829 9cbc
000000a0: 6b21 9fbc e10a 9e3c dde6 823c 22f9 8cbc
000000b0: 9c9a ac3c 8247 2b3c 7cbe a13c 4e64 96bc
000000c0: 1b0d a03c dece 96bc c501 9f3c 531e b53c
000000d0: 5212 ab3c 42f1 a8bc 4dbb 9f3c 7789 a0bc
000000e0: b881 bc3b 63ea a5bc 4a30 a93c 6a1f a0bc
000000f0: 8698 ac3c 85eb a73c 2cf7 a13c c70c ab3c

net.4.running_mean f4 [64]
0.29127 0.071323656 0.05445692 0.0911766 -0.091589704 0.3584041 0.053673834 0.042384975
-0.15716489 -0.08456574 0.014920324 0.49810305 -0.14061041 -0.0757595 0.07084402 -0.095654584
-0.18303478 0.45211086 -0.31880203 0.2590311 0.27080673 0.007211104 -0.13707238 -0.24475342
-0.30298316 -0.21833043 -0.2146082 -0.1873038 0.15475401 0.08708415 -0.35620183 -0.16739054
0.0038024227 0.33492643 -0.114569195 0.12706283 0.04702624 0.15194224 0.17955308 0.19115508
-0.31649986 -0.33526534 0.2485939 -0.1747617 -0.09605216 -0.5221505 -0.054095298 -0.19567724
-0.29805642 0.17887707 -0.2347709 -0.14049809 -0.004431133 -0.02457498 -0.50076455 0.22156054
0.22826625 0.40160277 -0.51156074 -0.0009043103 0.066150784 0.19877513 0.046140652 0.10631916
00000000: 5721 953e 2312 923d 380e 5f3d ccba ba3d
00000010: 6293 bbbd be80 b73e 18d9 5b3d de9b 2d3d
00000020: d5ef 20be cd30 adbd 6074 743c 5d07 ff3e
00000030: 2dfc 0fbe cc27 9bbd ab16 913d 8de6 c3bd
00000040: 786d 3bbe 137b e73e 053a a3be b99f 843e
00000050: 2ea7 8a3e 204b ec3b b45c 0cbe a4a0 7abe
00000060: 9c20 9bbe 0392 5fbe 41c2 5bbe 91cc 3fbe
00000070: d677 1e3e 2d59 b23d 1660 b6be 6d68 2bbe
00000080: 1132 793b 7a7b ab3e 41a3 eabd c21c 023e
00000090: 969e 403d bf96 1b3e c3dc 373e 28be 433e
000000a0: 450c a2be e6a7 abbe 668f 7e3e bbf4 32be
000000b0: ffb6 c4bd a8ab 05bf 0893 5dbd 9d5f 48be
000000c0: da9a 98be 8d2b 373e c867 70be bbde 0fbe
000000d0: 0a33 91bb 7851 c9bc 1b32 00bf c4e0 623e
000000e0: a1be 693e e19e cd3e a5f5 02bf 3d0f 6dba
000000f0: 107a 873d b58b 4b3e fbfd 3c3d dcbd d93d
