FarconVAE/result_german/german_downstream_s_2023_05_01_17_17_05_920121_ours.pth.pt (torch, 23812 bytes, 21 tensors)

fc1.weight f4 [64, 5]
00000000: ad2f 673d a657 babe ec0a 573e a240 b7be
00000010: 813a 93bd 0db6 a6be d078 b43e e093 f5bd
00000020: 31d5 0bbd f2e6 993e 9bb3 02be 08be c0be
00000030: bf8d bfbe fd83 543e 1e55 e4be 1f96 0bbe
00000040: 0f29 35be 8071 15bc 8488 80be 4b23 59be
00000050: 5743 c63e 3dbd c23c 53e9 ebbd 51fd b7bd
00000060: 1b43 d63d 84cd 2b3e 26ab 90be beb0 9fbe
00000070: 63b7 a33e 8cd1 39be 2072 c23e be60 8bbe
00000080: 7b3b 0b3e e4ee ac3d 33b4 aabe ea36 113e
00000090: a6b0 d83e dc78 fcbd d0f3 383e f232 c63e
000000a0: a9d3 acbe 997f ab3e 7580 2d3e b938 d6be
000000b0: 5e4a 843e 2da1 44be c753 7e3c dd92 8b3e
000000c0: af16 933e 3d2b a4be 8f1c 953d 951e 5fbe
000000d0: f3b7 59be 7209 8dbe c5d9 a7be c03f dd3e
000000e0: d77e e6bd fe92 a5bd 30fc c9be 6137 cebe
000000f0: b060 bdbe 370b 9b3e 6838 543d 2f38 aebe
00000100: 5fe1 8ebe f771 993e e3f2 9bbe 52d9 933e
00000110: e3b0 a03e 89b9 cc3c 883b c9be de11 e53e
00000120: 936f b9be 07f4 bfbe bde1 423d 49e0 dd3e
00000130: 00e2 77bd b79f f63d 3fde b3bd 6add ba3e
00000140: 34de be3e 3553 ca3d 42fa bbbe c27e 773e
00000150: 8f6e aebd 656f d63e f3af e03e e064 2a3e
00000160: c214 60bc 737b d13e d7cc dcbe dbea 42be
00000170: 4b42 dd3d 50bb 203c b192 c9be ddbf dc3e
00000180: 60d7 80bd 62db 213e 9073 383e 6be5 c2be
00000190: 574e b5bd 0d01 d5be 25fe 1fbd 9902 babe
000001a0: fed2 aebe 7eae fe3d 0648 cdbe 2dc1 97be
000001b0: 8fcb 623e 6310 833d c021 03be ff0f c9bc
000001c0: 03d4 a1be c5cf a3be 7d45 033e 6d81 b53e
000001d0: ce47 cdbe 4f38 2dbe 78d9 dfbe 7ef0 443e
000001e0: 2e7e dbbd ec51 803e 5121 adbe bcd5 02be
000001f0: d017 963e 0868 4bbe cc20 b6be a734 fcbd
00000200: 65d4 d33e 227e 423e 8270 98be 7b05 cebe
00000210: 81f4 453e 3361 51bd 5fbd 26bd 1af2 0a3e
00000220: 2a6e acbe 1af4 073e 6381 503d b340 43be
00000230: bc80 a33e 5479 403e 0dad 3c3d 8b10 bc3e
00000240: 5e6c 263e 6b11 503e f51f c8be e88a dbbc
00000250: 04d5 d6bd c576 dbbe 0299 a5be a403 a7be
00000260: 3cef c5be dae8 ca3e 207e 85be 9054 ae3e
00000270: a844 cd3e df6a b3be fea4 8d3e 66c6 cfbe
00000280: e9b0 eebd 95ae c43e 204f 06be 9d9e 803e
00000290: d24a 383e 9f0e 31be a13a debe c837 89be
000002a0: 50f8 6fbe 51b7 b03e 0fb0 c93e ad89 c0be
000002b0: 0386 10be 1696 bb3e fc1c 80be d12f 5a3d
000002c0: d98c 9c3e b04e 8bbe db10 95be ec4d c1be
000002d0: d6ae 903e 3606 7abe e35c ca3e 35db a33e
000002e0: 4905 51bd 87d9 84be d902 033e 40bc b33e
000002f0: d581 933e 11be cdbe 87f6 bcbe e1bc 2ebe
00000300: 22e4 df3e a5a8 59be dc6d 013e c7d0 1abd
00000310: 61a6 c3bd 373d bcbe e606 91be 99b9 a7bd
00000320: af56 aa3d 24d5 a2bd 034f e3bd e848 b13e
00000330: 8800 2d3e 090d 9cbd 3a24 d0be 233d bbbd
00000340: 19ed 413e 6ccb 8d3e 58f8 c03e 6916 683e
00000350: 3443 0a3d 90d9 ba3e 1c7c b23e dcc3 b43e
00000360: e7fd 72be 0ea1 a6be f9c2 31be cd02 a93d
00000370: c97b 723e 109e 2f3d e8f9 febc 3af0 833e
00000380: 0046 80be 835a 1cbe c7d3 483d bdb2 6e3e
00000390: 826d ae3e bf68 313e eb07 633e 7765 d43e
000003a0: 1b4b 07be 0edb b3be 8e0b ce3e 59c8 963e
000003b0: d25a b93e 9273 06be e3c0 e4bd 5819 a43d
000003c0: 7e9b fe3d da78 ee3d c83a a5bc 49bc f13a
000003d0: 3c93 18be 1965 28be 6ef2 c83e 1cf6 5b3e
000003e0: 4352 8ebe ddb0 543e 12f5 bd3e 80c6 053e
000003f0: 136b b63e 45b7 9a3e 6a38 63be efc6 dd3e
0.05644195 -0.36394995 0.2100026 -0.35791498 -0.07188893 -0.3256077 0.35248423 -0.119910955
-0.034138862 0.3005901 -0.12763827 -0.37644982 -0.3741283 0.20753475 -0.4459619 -0.13631485
-0.17691444 -0.009121299 -0.25104153 -0.2120487 0.3872325 0.023771876 -0.115191124 -0.08983863
0.10462018 0.16777617 -0.28255576 -0.3118953 0.3197585 -0.18146342 0.37977695 -0.27222246
0.13596909 0.08444002 -0.33340606 0.14181104 0.42322272 -0.123277396 0.18061757 0.38710743
-0.33755234 0.33495787 0.16943534 -0.4184015 0.25837988 -0.19202109 0.015522904 0.27260485
0.28728244 -0.32064238 0.07280838 -0.2178901 -0.21261577 -0.2754627 -0.32783332 0.432127
-0.112546615 -0.08084677 -0.39450216 -0.40276626 -0.3698783 0.30281994 0.051811606 -0.3402724
-0.2790632 0.2996976 -0.30458745 0.2887674 0.31384954 0.024990814 -0.3930323 0.44740194
-0.36217937 -0.37490866 0.047578562 0.43335178 -0.060518265 0.12042182 -0.087826245 0.3649705
0.37278903 0.09879152 -0.3671437 0.24169448 -0.08517181 0.41881862 0.4388424 0.16640043
-0.013676824 0.40914497 -0.4312503 -0.19034903 0.1080366 0.009810284 -0.3936973 0.4311513
-0.062910795 0.15806344 0.18012834 -0.38065657 -0.08852833 -0.41602364 -0.03906073 -0.36330107
-0.3414535 0.124356255 -0.40094012 -0.2963957 0.22147964 0.0639961 -0.12805843 -0.02454376
-0.31607065 -0.31994453 0.12819476 0.35450307 -0.40093845 -0.16916011 -0.43720603 0.19232365
-0.10717426 0.250625 -0.3381448 -0.12776846 0.29315042 -0.19863904 -0.35571897 -0.1231473
0.41372982 0.18993428 -0.29773337 -0.40238556 0.19331552 -0.051118087 -0.040707942 0.13568917
-0.33677799 0.13276711 0.050904643 -0.1906765 0.31934154 0.18796283 0.04606347 0.3673137
0.16252276 0.20319144 -0.3908688 -0.026799634 -0.10489848 -0.4286405 -0.32343298 -0.32619965
-0.38659084 0.39630777 -0.26072788 0.3404889 0.40091443 -0.35042474 0.27664942 -0.40581053
-0.11654837 0.38414446 -0.13116121 0.25121012 0.17997292 -0.17290734 -0.43404105 -0.2680037
-0.23434567 0.3451486 0.39392135 -0.37605038 -0.14113621 0.36637944 -0.25022113 0.053268258
0.30576208 -0.2720847 -0.29114422 -0.37754762 0.2825839 -0.24416432 0.39523992 0.3200318
-0.05103043 -0.2594721 0.12794055 0.3510456 0.2880999 -0.40184072 -0.36906835 -0.17064239
0.4372874 -0.21255739 0.12639564 -0.03779676 -0.09553219 -0.36765453 -0.28325576 -0.08189697
0.08317315 -0.079508096 -0.11099055 0.34625936 0.16894734 -0.07619674 -0.4065264 -0.0914252
0.18938102 0.2769426 0.3768947 0.22664799 0.033755496 0.36494112 0.34860313 0.3530568
-0.23729669 -0.3254475 -0.17359532 0.08252487 0.23680033 0.04287535 -0.031125024 0.25769216
-0.25053406 -0.15268902 0.04903009 0.2331037 0.34067923 0.17325114 0.22170989 0.41483662
-0.13212244 -0.35128063 0.4024319 0.29449728 0.36202103 -0.13130024 -0.11169603 0.080126464
0.124320015 0.11644144 -0.02016963 0.0018442954 -0.14899915 -0.16444816 0.3924746 0.21480602
-0.27797136 0.20770593 0.37101036 0.13064003 0.35628566 0.3021795 -0.22189489 0.43315837

fc1.bias f4 [64]
00000000: 462d a9be 88c8 0c3b 1a03 46be 41b3 46be
00000010: 3245 dc3e ba1a 833e 56dc a8be c1f7 f1bb
00000020: 0193 cd3e 6eee 4e3e ea36 ca3e e791 ba3d
00000030: fa70 283e ffb7 dd3e 990e 39be d745 963e
00000040: 2f6f 2f3e 0690 c9be 8287 183e 8385 533e
00000050: aa17 4fbe b956 493e 7a73 0e3e aa96 473e
00000060: 3a66 313d 6727 edbd bd6b 81be 5149 c73e
00000070: d56c 583e 7f65 02bd 1406 3b3e 8814 bfbe
00000080: 7963 24be 28be 8abe a2e0 9c3e 021e b5bd
00000090: 26ff e63d 7fbf b739 ab75 cebd ed82 a2be
000000a0: 6315 5d3d 05fe e03c 0601 61be 2487 043e
000000b0: 826c 85be 2c73 6cbe 53a3 203d ad41 963e
000000c0: 6372 a3be a61b f8ba 8f7c c0be a9c9 643e
000000d0: 3b10 b6be 7c79 653d 4ee8 c53e 63cf 41bd
000000e0: 66b0 04be 6bc2 75be eeec a4be 3d63 d4be
000000f0: 3c34 dd3e 6723 b6be af2b 96bd 8529 c8be
-0.33042353 0.002148183 -0.1933712 -0.19404317 0.43021542 0.25606328 -0.32980603 -0.007384271
0.40151218 0.20208141 0.3949502 0.0910986 0.16449347 0.4330444 -0.18071975 0.2935016
0.17132257 -0.39367694 0.14895442 0.206564 -0.20223871 0.19661988 0.13911238 0.19491068
0.04331038 -0.11579781 -0.2527751 0.38923123 0.21135266 -0.031835075 0.18264037 -0.37320352
-0.16053571 -0.27098203 0.3064013 -0.08843614 0.112791345 0.00035047156 -0.10081037 -0.31740513
0.053975474 0.027464876 -0.21973047 0.12942177 -0.26059347 -0.2309081 0.039218258 0.29346982
-0.31923208 -0.0018929138 -0.3759503 0.22342552 -0.35559258 0.05602406 0.38653797 -0.04731692
-0.12957916 -0.23999946 -0.32212013 -0.41481963 0.43203914 -0.35573885 -0.07332551 -0.39094177

fc2.weight f4 [64, 64]
00000000: 252b 143d ca3f cabd 47fa a3bd 923c c53d
00000010: 0c1f f43d a82d 57bc 5b94 e0bc f482 91bd
00000020: 5814 2ebd 1563 6ebd 4c69 49bd ab33 773d
00000030: e986 97bd 369d d53d ffd7 45bd 0fb8 cb3d
00000040: a8b5 e2bc a478 183d ddf6 5fbd c809 4b3c
00000050: 7805 afbd 2b3d adbd a4a4 2d3c 6d3a cebd
00000060: 2006 95bd 4b22 193d f248 6f3d a6e8 f4bd
00000070: 8e51 adbd 8007 25bd 3518 d83d fc27 94bd
00000080: dfa9 9b3d 80d7 373c 65a5 813d 54f5 033e
00000090: 7b83 2bbd 9c51 ca3d 00fa b4bd e0c6 853d
000000a0: 6e8e 053d 1884 833d db2b c83d 6f4f e1bd
000000b0: 864c adbd df32 92bd 326f 7dbd 1871 643d
000000c0: 74f7 e63d 675e fb3d 921a f3bd 4fa6 133d
000000d0: 1afc 4ebd e8a0 de3d a4d9 bfbd 908e 94ba
000000e0: c11a 273d 1acd 3b3d 9961 abbc 5e9f 0bbd
000000f0: d1e0 f63d 7e77 9cbd d51b 183d 34e6 353c
00000100: 43f9 8837 6875 4e3d 73cb f33c 8331 93bd
00000110: 4c52 8f3d a934 f13c 84f4 6e3d 34a4 313d
00000120: 6872 d6ba 0e21 ec3d a90b ec3c 26ce f7bd
00000130: b2e2 c6bc 357d bcbd 7956 adbd e529 4dbd
00000140: 8a0e f53d aa5e cebd f332 dfbb 6431 c53d
00000150: 7041 983d f380 183d dd82 a23d c32b 9b3d
00000160: 6666 e53d 6181 77bd 79df f2bc 540f b53c
00000170: 7fa3 2a3d 04f4 75bb 0008 93bd d649 d7bb
00000180: 5446 de3c 0b9e 3a3d 3a4a 7abc 8f07 28bd
00000190: ed5b e43d 3c53 243d a1b0 fdbd d730 bfbd
000001a0: 07a6 7c3d 1e00 25bd bda0 c03d fc37 ac3d
000001b0: afec 863d bece 47bd d302 cebd 601a 223d
000001c0: 1dbc d7bd 1cbf e43d 4ab5 dc3d 8695 bd3b
000001d0: 53d2 823d a0d1 d6bd 06e3 de3c a2cb 9dbd
000001e0: ae2f ea3d 5c4c ffbd 6285 71bb 0a62 b63d
000001f0: c577 18bd a36a 6a3b aa91 50bc 5a9b 51bd
00000200: 76ec 2ebd 75ff 3dbc a7d8 07be dae1 d0bd
00000210: 23a5 86bd 1dda ae3d e1f4 8dbc 8867 873d
00000220: 1aa8 943d 94d0 9dbc 2f47 82bd 36d5 3a3d
00000230: 0e15 e03d eac6 823d 87fe 2c3d 5e95 f33d
00000240: 9794 d0bd 47e7 ea3d b00a 4c3d 8c09 5cbd
00000250: 5607 a33d 3dc7 1d3c 8d53 6e3d 22e0 ebbd
00000260: 3e99 643c a761 91bd 2fd7 003e c8dd ee3d
00000270: 4dac 04be f6e9 8e3d 3dc4 c43d e0ec 873c
00000280: 4afa fabd 8f6d 133c 99ff ddbd 3006 8d3d
00000290: 6625 c6bb ab22 8dbd 48bd d63d f097 9b3d
000002a0: 2dc1 08be 9e43 9fbd 75da 9f3d 6a21 e53d
000002b0: d1dc 10bd 57bc bdbd d814 5d3c ea59 dcbd
000002c0: 92b6 efbd 189d a5bd 9627 593d 3aad 78bd
000002d0: 74ea d3bd bda6 d2bc 5af1 d638 7eda da3c
000002e0: 6c52 8c3d 4636 f33c 9d90 d6bd 1698 0ebc
000002f0: b795 ccbd a451 78bd 7eb7 d33d 11aa ad3c
00000300: 3ae7 ca3d 616e c53d a7f5 ae3d cc16 39bc
00000310: 1ceb bfbd ef85 8ebd 0ca8 a53d 3776 e3bd
00000320: efe1 ebbd 7881 b23d 8429 e7bc 58b8 ae3d
00000330: 2efd 5dbd 3d30 af3d efb4 81bd 4be4 033d
00000340: fd99 5cbd 508f b33d ab85 df3c 38d7 2d3d
00000350: 5a0d 9bbd edbb eb3d 4a3c 0a3d 9fb1 17bd
00000360: ad75 cc3d 5b29 fd3c a3d1 54bc ba6d 053e
00000370: 7e71 fd3d 45e2 3dbd 0eab 833d 35ae a13d
00000380: c765 1dbc 091c 6cbd 4117 3a3b f152 d73d
00000390: 04c0 94bd 26cf 703d 57a2 b53d 0d75 debd
000003a0: 0bfe 8abd 877f 2c3b 441f 82bd ec22 e9bd
000003b0: bc2d 143d 29c7 02be 1a6b a73b fd4e 83bb
000003c0: 17d9 733d 408a dabd 2d8f 013d 98a7 5439
000003d0: d5b4 713c 78a6 70bc 994e 3dbd 1e52 aa3d
000003e0: 875c 2a3d 9cf3 173d ad19 3abd 3480 c93d
000003f0: a0ef a2bc de06 dfbd ff24 e1bd ebd4 c6bd
0.03617396 -0.09875448 -0.08006721 0.096306935 0.11919984 -0.013133444 -0.027414491 -0.071050555
-0.04249987 -0.05819996 -0.049172685 0.06035201 -0.07398779 0.10430376 -0.048301693 0.09947216
-0.027674511 0.037224427 -0.054678787 0.012392469 -0.08545965 -0.084589325 0.010598335 -0.100697376
-0.07276559 0.03738622 0.058419175 -0.11958437 -0.08462821 -0.040290356 0.10551492 -0.07234189
0.0760076 0.011220813 0.06330375 0.12886554 -0.041873436 0.09878847 -0.08836746 0.06532073
0.032606535 0.06421679 0.0977399 -0.11001479 -0.08461861 -0.07138609 -0.061873622 0.055771917
0.11277667 0.12273865 -0.11870302 0.036047276 -0.05053339 0.10870534 -0.093676835 -0.0011333991
0.040797 0.045849897 -0.020920562 -0.03408753 0.12054599 -0.07639979 0.037135918 0.011102248
1.6328535e-05 0.050404936 0.029760098 -0.07187178 0.06998119 0.029444056 0.058338657 0.043369487
-0.0016361 0.11529742 0.028814154 -0.120998666 -0.024278019 -0.09203569 -0.08463759 -0.050088782
0.11965664 -0.100766495 -0.0068114935 0.09628561 0.07434356 0.03723235 0.079351164 0.07576706
0.112011716 -0.06042612 -0.029647576 0.022102036 0.04165983 -0.0037529478 -0.0717926 -0.006570081
0.027133144 0.045560878 -0.015276486 -0.041022833 0.11150346 0.04011844 -0.12387205 -0.09335487
0.061681774 -0.040283315 0.094056584 0.08409116 0.065881126 -0.04878115 -0.100591324 0.039575934
-0.10533927 0.11169264 0.10776766 0.005785647 0.063877724 -0.104892015 0.027207863 -0.077048555
0.114348754 -0.12465736 -0.0036853184 0.08905418 -0.037223596 0.0035769127 -0.0127300415 -0.051173545
-0.042705975 -0.01159655 -0.1326624 -0.10199328 -0.06574466 0.085376956 -0.017328681 0.06611544
0.07258625 -0.019264497 -0.063612334 0.04561349 0.10941516 0.06385596 0.042234924 0.11893724
-0.10184591 0.11469894 0.04981488 -0.053720042 0.079603836 0.009630022 0.05818515 -0.11517359
0.013952551 -0.07098704 0.12582086 0.11663395 -0.12956353 0.06978218 0.09607742 0.016592443
-0.1225477 0.008998289 -0.10839767 0.06885946 -0.0060469387 -0.06891378 0.10485321 0.07597339
-0.1335494 -0.07776569 0.07805339 0.11188014 -0.035366837 -0.092644386 0.013493739 -0.10759337
-0.117047444 -0.08086604 0.053016268 -0.060712077 -0.10347453 -0.025714273 0.000102492704 0.026715513
0.06851658 0.029688966 -0.104768015 -0.008703252 -0.09989493 -0.060624734 0.10337733 0.021199258
0.09907384 0.09640194 0.08542948 -0.011296939 -0.093710154 -0.069591396 0.08088693 -0.11106532
-0.11517703 0.087161005 -0.028218038 0.085312545 -0.05419653 0.085541226 -0.063333385 0.03220014
-0.053857792 0.08767569 0.027285418 0.042441577 -0.07570906 0.115104534 0.033748902 -0.037034627
0.099833824 0.030903509 -0.012989434 0.13030139 0.123751625 -0.046358366 0.064291105 0.078945555
-0.009606785 -0.057643924 0.0028395208 0.10513867 -0.072631866 0.058791302 0.088688545 -0.108621694
-0.06786736 0.002632113 -0.0635362 -0.11383614 0.03617643 -0.12771286 0.005109203 -0.004007219
0.059533205 -0.106709 0.031630684 0.00020280329 0.014752586 -0.014688127 -0.046217535 0.08316444
0.041592147 0.03709756 -0.045434643 0.09838906 -0.019889653 -0.10889982 -0.109933846 -0.0970858

fc2.bias f4 [64]
00000000: f5ba 883d d7d4 f4bc 9c0c 16bd 1ad9 73bc
00000010: acc9 b9bc 9628 8a3d db13 b03d 5b12 b3bd
00000020: c4d7 6a3d 846d 26bc 4914 6a3d 100a 20bd
00000030: f528 9ebd 5b46 3b3c 5c9c 71bd 9096 b5bc
00000040: 379a 9a3c 5df2 cd3d 5210 01bd 94e2 8bb9
00000050: 5a14 9f3c d49d 9b3d d233 50ba 14b6 d1bd
00000060: 885a b0bd 845e e03d 27dd de3d f409 3b3d
00000070: bbad 843c 4bb8 903d 1a6a 6b3d 49b4 183d
00000080: 8d2b 80bd 5707 e03a eb88 363d ecfd a2bd
00000090: c5fe fabc dc45 cbbd feb0 09bc 18ac 67bd
000000a0: 6872 8ebd 136d fb3a ab90 6c3d 5630 d4bd
000000b0: 0ceb a13d f1e6 723d 4f80 eabd 1db1 1b3d
000000c0: 0acf 3bbd eac0 843c 9465 533d c4b9 e73d
000000d0: 17f9 34bd 1a4a daba 2ecd d5bd 780e 85bd
000000e0: a704 143c a105 7cbc eb26 163d fd39 293d
000000f0: 8e6b dbbc ce01 923d 5f8d 6cbb 25dd 4cbd
0.06676284 -0.029886646 -0.03663312 -0.014883304 -0.022679172 0.067460224 0.08597537 -0.087437354
0.057334676 -0.0101579465 0.05714825 -0.039072096 -0.07722656 0.011430348 -0.058987007 -0.02216652
0.018872363 0.10055993 -0.031509705 -0.0002668096 0.019418884 0.07598463 -0.0007942292 -0.10239807
-0.086110175 0.109555274 0.10882025 0.04566379 0.016196122 0.07066401 0.057474233 0.03728131
-0.06258307 0.0017092031 0.04456417 -0.07958588 -0.030639062 -0.09925434 -0.008404015 -0.056560606
-0.06955415 0.0019182287 0.057755154 -0.10360782 0.0790616 0.059302274 -0.11450254 0.038010705
-0.045851745 0.01620527 0.051610544 0.11314729 -0.044182863 -0.0016654164 -0.104395255 -0.064969
0.009034312 -0.015382201 0.03665821 0.041315068 -0.026784685 0.071292505 -0.0036095006 -0.050015587

out.weight f4 [1, 64]
00000000: b952 5dbd 85c0 89bc f02e 473d aac3 a1bd
00000010: 9736 cfbd dd88 073e 0392 bd3d 84f4 a5bd
00000020: 7a39 b93d 8524 a43d f759 973d 3522 083d
00000030: 04a9 4a3c 705a 393d 7389 1cbd 32bc f33d
00000040: ea9d e63d be0f 083e 09d6 0b3b fd29 8abd
00000050: 3cb4 3fbc 4c2a 91bd 7083 fbbc 9bae 6d3c
00000060: fb4f 15bd c38d 693d eb3d e13d bbab b5bd
00000070: d3da eabd c77b 053e 17b0 e6bd bfaf e3bd
00000080: c4a1 17bc 479a b5bd 5336 cb3d 8645 443d
00000090: 4f80 113b a3c8 e03d dc12 df3d 4fef 843a
000000a0: b2ea c03d f243 c0bd 127e 04bd d49b 203d
000000b0: aa68 bf3d 5c90 7c3c afe0 d5bc 0e31 fb3d
000000c0: 1931 b9bd 21bd b93c f028 063e 6a91 91bd
000000d0: c615 2b3d 7f03 0d3d 9c16 ce3c afa1 f63d
000000e0: d8d4 a63d df50 0dbd 1112 d03d 652a 543d
000000f0: 6685 18bd 27e8 d9bd 1370 623d 3abd 513d
-0.05403397 -0.016815433 0.048628747 -0.07898648 -0.10117834 0.13235803 0.09256365 -0.08103278
0.09044166 0.08014778 0.07390206 0.033235747 0.012369398 0.045252264 -0.03821702 0.1190113
0.112605885 0.13287255 0.0021337292 -0.0674629 -0.011700686 -0.070881456 -0.030702323 0.014506961
-0.03645323 0.05701996 0.10998138 -0.088706456 -0.11467519 0.13035499 -0.11264055 -0.11117505
-0.0092548765 -0.08867317 0.09922471 0.047917865 0.0022201722 0.109757684 0.10892269 0.001014212
0.094197646 -0.093879595 -0.032346793 0.03921111 0.09346135 0.015415277 -0.026108114 0.12265216
-0.09042568 0.022673192 0.13101554 -0.07107814 0.04176881 0.034427162 0.025157265 0.120425574
0.081460655 -0.034500953 0.10159696 0.051798243 -0.037236594 -0.10639983 0.055282664 0.05120585

bn.weight f4 [64]
00000000: a371 7d3f 1390 7d3f 053f 813f 459b 7d3f
00000010: 9c82 7d3f 3f3e 813f d13a 813f fa71 7d3f
00000020: 23ff 7f3f 6242 813f 2306 803f 38cb 803f
00000030: 9ea0 7d3f bb40 813f 60b8 7d3f 03a7 803f
00000040: 7446 813f 0244 813f 7889 7d3f 38a6 7d3f
00000050: 7b35 813f 049d 7d3f 99bb 7d3f 7a91 7e3f
00000060: 5a9b 7d3f ee4a 813f 613d 813f 17c4 7d3f
00000070: 178a 7d3f ae28 803f 572b 803f 0794 7d3f
00000080: 1777 7d3f 24e4 803f 933f 813f 5be3 7e3f
00000090: 6146 813f 7cc5 803f c531 813f 2c8d 7d3f
000000a0: 4844 813f a170 7d3f 359b 7d3f c334 813f
000000b0: 4549 813f f027 813f e5bd 7d3f 792d 813f
000000c0: c2ba 7d3f 1c4a 813f 8340 813f 236a 7d3f
000000d0: f039 813f 7322 813f 0c3f 813f 9142 813f
000000e0: 7344 813f e87f 7d3f 644a 813f f12d 813f
000000f0: 8074 7d3f 258b 7d3f de0b 7f3f 2c40 813f
0.9900152 0.99047965 1.0097357 0.9906505 0.9902742 1.0097121 1.0096074 0.9900204
0.9999868 1.0098383 1.0001873 1.0062017 0.9907321 1.0097879 0.9910946 1.0050968
1.0099626 1.0098879 0.99037886 0.99081755 1.0094446 0.9906771 0.99114376 0.9944073
0.9906517 1.0100992 1.0096856 0.99127334 0.99038833 1.0012414 1.0013226 0.99053997
0.9900984 1.0069623 1.0097526 0.99565667 1.0099603 1.0060267 1.0093313 0.99043536
1.0098963 0.98999983 0.9906495 1.0094227 1.0100485 1.0090313 0.9911788 1.0092002
0.99113095 1.0100741 1.0097812 0.98990077 1.0095806 1.0088638 1.0097365 1.009844
1.0099014 0.99023294 1.0100827 1.0092145 0.9900589 0.9904044 0.9962748 1.0097709

bn.bias f4 [64]
00000000: 9c42 1cbc b68d 20bc 11a7 213c 3d61 1bbc
00000010: c79d 22bc 2825 1e3c a671 1e3c ebb8 23bc
00000020: a481 223c 4d49 223c 8107 243c fe3f 1c3c
00000030: c089 ccbb 1a82 253c 1cea 23bc e399 223c
00000040: 5129 223c 5af4 203c c4da 1dbc 1217 1dbc
00000050: 31a7 1c3c 253c 1abc 2733 16bc 3c6d 1e3c
00000060: 2cbb 1abc 83f5 243c 749c 203c 82d2 19bc
00000070: 06cc 1dbc 1636 243c e8e0 23bc 328c 1dbc
00000080: 54db 23bc 9f19 25bc b662 223c ac11 243c
00000090: 8fb6 0fbc d8b4 233c 5a90 1d3c fe53 1dbc
000000a0: d6c6 213c 106f 23bc 0f1c 1abc ad72 223c
000000b0: 014d 223c 4891 1e3c 9cb2 17bc 2655 203c
000000c0: f0a7 1bbc d788 253c 1a1d 213c 305d 21bc
000000d0: e3a7 1f3c d808 193c ce0b 203c 957e 223c
000000e0: 82d3 203c cbed 1dbc 9ecb 223c 2e5a 1e3c
000000f0: 9246 1cbc 60a8 1ebc d12b 253c 4c9d 233c
-0.009537365 -0.0097994115 0.009866492 -0.009483633 -0.009925312 0.009652413 0.009670651 -0.009992818
0.009918604 0.009905172 0.010011555 0.009536741 -0.006242007 0.010101819 -0.0100045465 0.009924385
0.009897546 0.009823883 -0.009634677 -0.00958802 0.009561346 -0.009413754 -0.009167469 0.009669598
-0.009444039 0.0100683 0.009802926 -0.009388568 -0.0096311625 0.010022661 -0.010002352 -0.009615945
-0.010001022 -0.010076909 0.00991123 0.010013979 -0.008771553 0.009991847 0.009616936 -0.009602545
0.009874066 -0.00997521 -0.009406104 0.009915036 0.0099060545 0.009678192 -0.009258892 0.009785926
-0.009500489 0.010103426 0.0098335985 -0.009848878 0.009744617 0.009340487 0.009768439 0.009917875
0.009816052 -0.009639214 0.009936241 0.009665055 -0.00953831 -0.009683698 0.010081247 0.009986233

bn.running_mean f4 [64]
00000000: ab48 b0be 0210 813e 6107 0abe 4cbc 3fbe
00000010: e21b 663d 2ac0 28bd 3c64 e8be 423e 653e
00000020: 59a2 2e3e f176 6b3c 311b 1c3e 8df5 c8be
00000030: 1a60 c2bd 139b 0d3e 2089 26be 1f3d 5b3d
00000040: d8e5 2e3e ec16 b0bc 022b 363e 35d2 a4bc
00000050: 2ac6 3abe 76e5 533d 8f74 dcbd bec7 93be
00000060: 8d70 bb3d 17c9 323e e9ef 94be 1a3f ce3d
00000070: e983 203e b915 97bd 3c4c e23e aa67 8bbe
00000080: 400a 5c3d d55a 5ebb 2b6b 343e e7c7 69be
00000090: 1d7d 46bd 3a75 653e ccbd 863d d4e4 90bc
000000a0: 0a5d 5b3e 6ab0 873e d917 65bd 84ef 52be
000000b0: f36a 693d 1f25 073e e297 65be 14d1 2f3e
000000c0: c867 eebd f8c6 55bd 1421 8dbe d721 e6bb
000000d0: 2a3b 9cbe 323f 623e ce39 e83e 07a0 8bbd
000000e0: ad97 a3bc 5d2e d7be 59da 253e 69ff bcbe
000000f0: 2e6c aebd 6e3b 91bd 5caf 2ebe ec55 a3be
-0.3443044 0.25207525 -0.13479377 -0.18724173 0.056178935 -0.041198887 -0.45388973 0.2238703
0.17054118 0.01437162 0.15244748 -0.3924984 -0.09490986 0.13828687 -0.16263247 0.053525086
0.17079866 -0.021495305 0.17789844 -0.020119766 -0.18239656 0.051732503 -0.10764419 -0.2886333
0.09152327 0.17459522 -0.29089287 0.100706294 0.1567532 -0.0737719 0.44198787 -0.27227527
0.053720713 -0.0033928652 0.17619006 -0.22830163 -0.04845916 0.22408 0.0657917 -0.017687239
0.2142221 0.2650178 -0.055930946 -0.2059918 0.05698676 0.13197754 -0.2242122 0.171696
-0.116408885 -0.052191705 -0.275643 -0.007023077 -0.3051389 0.2209442 0.453566 -0.06817632
-0.019969786 -0.4202756 0.16196574 -0.36913612 -0.085167274 -0.070914134 -0.17059082 -0.3190149

bn.running_var f4 [64]
00000000: afff 9a3e 0732 cb3e 077f 7e3e 9002 8e3e
00000010: f10e 773e e782 ac3e 8f79 063f 6e94 ca3e
00000020: 8317 733e 9288 773e 1ea7 ad3e 7504 623f
00000030: 7446 a93e 81de 663e d321 b33e cc7a 7c3e
00000040: 8953 8f3e 1fc5 823e b049 723e 5330 1f3f
00000050: cf80 a13e f493 bf3e 2d34 933e 65d7 7b3e
00000060: da88 bc3e 2951 473f 96dd 943e 2a39 673e
00000070: 0845 a83e 75d3 f53e 8394 f53e 2157 f53e
00000080: 6ec3 9e3e 3524 293f c8a6 863e 153f 0a3f
00000090: 6a28 ac3e edee bb3e dd4d 8d3e b0c3 5e3e
000000a0: cde0 b43e c858 1a3f 6c4c 7a3e 2aa8 6e3e
000000b0: f674 a83e 3055 993e ec4e 8a3e 8f84 823e
000000c0: 379f 7c3e 6c21 923e f994 163f 5011 883e
000000d0: f0a9 5f3e e65e 5e3e a14c 133f c461 843e
000000e0: a129 c23e 80f6 b93e 0a2f 4e3f ebce 743e
000000f0: 716d ec3e 81bf c83e 1aa6 c13e 471f 883e
0.30273196 0.39686605 0.24853145 0.2773633 0.24126793 0.3369362 0.52529234 0.39566368
0.23739438 0.24173191 0.33916563 0.8828805 0.33061564 0.22545816 0.34986743 0.24656218
0.2799342 0.25541016 0.23660922 0.6218311 0.31543586 0.37417567 0.28750744 0.24593885
0.3682316 0.77858216 0.29075307 0.225804 0.32865167 0.4801289 0.47964868 0.47918037
0.31008476 0.6607087 0.2629912 0.54002506 0.33624583 0.36705723 0.27598467 0.21754336
0.3532776 0.6029172 0.24443215 0.23306337 0.32901734 0.29947805 0.27013338 0.2549176
0.2467011 0.28541124 0.58821064 0.26575708 0.2184217 0.21715888 0.575388 0.2585584
0.37922385 0.36320877 0.80540526 0.23907058 0.46177247 0.39208606 0.37822038 0.26586363

net.0.weight f4 [64, 5]
00000000: ad2f 673d a657 babe ec0a 573e a240 b7be
00000010: 813a 93bd 0db6 a6be d078 b43e e093 f5bd
00000020: 31d5 0bbd f2e6 993e 9bb3 02be 08be c0be
00000030: bf8d bfbe fd83 543e 1e55 e4be 1f96 0bbe
00000040: 0f29 35be 8071 15bc 8488 80be 4b23 59be
00000050: 5743 c63e 3dbd c23c 53e9 ebbd 51fd b7bd
00000060: 1b43 d63d 84cd 2b3e 26ab 90be beb0 9fbe
00000070: 63b7 a33e 8cd1 39be 2072 c23e be60 8bbe
00000080: 7b3b 0b3e e4ee ac3d 33b4 aabe ea36 113e
00000090: a6b0 d83e dc78 fcbd d0f3 383e f232 c63e
000000a0: a9d3 acbe 997f ab3e 7580 2d3e b938 d6be
000000b0: 5e4a 843e 2da1 44be c753 7e3c dd92 8b3e
000000c0: af16 933e 3d2b a4be 8f1c 953d 951e 5fbe
000000d0: f3b7 59be 7209 8dbe c5d9 a7be c03f dd3e
000000e0: d77e e6bd fe92 a5bd 30fc c9be 6137 cebe
000000f0: b060 bdbe 370b 9b3e 6838 543d 2f38 aebe
00000100: 5fe1 8ebe f771 993e e3f2 9bbe 52d9 933e
00000110: e3b0 a03e 89b9 cc3c 883b c9be de11 e53e
00000120: 936f b9be 07f4 bfbe bde1 423d 49e0 dd3e
00000130: 00e2 77bd b79f f63d 3fde b3bd 6add ba3e
00000140: 34de be3e 3553 ca3d 42fa bbbe c27e 773e
00000150: 8f6e aebd 656f d63e f3af e03e e064 2a3e
00000160: c214 60bc 737b d13e d7cc dcbe dbea 42be
00000170: 4b42 dd3d 50bb 203c b192 c9be ddbf dc3e
00000180: 60d7 80bd 62db 213e 9073 383e 6be5 c2be
00000190: 574e b5bd 0d01 d5be 25fe 1fbd 9902 babe
000001a0: fed2 aebe 7eae fe3d 0648 cdbe 2dc1 97be
000001b0: 8fcb 623e 6310 833d c021 03be ff0f c9bc
000001c0: 03d4 a1be c5cf a3be 7d45 033e 6d81 b53e
000001d0: ce47 cdbe 4f38 2dbe 78d9 dfbe 7ef0 443e
000001e0: 2e7e dbbd ec51 803e 5121 adbe bcd5 02be
000001f0: d017 963e 0868 4bbe cc20 b6be a734 fcbd
00000200: 65d4 d33e 227e 423e 8270 98be 7b05 cebe
00000210: 81f4 453e 3361 51bd 5fbd 26bd 1af2 0a3e
00000220: 2a6e acbe 1af4 073e 6381 503d b340 43be
00000230: bc80 a33e 5479 403e 0dad 3c3d 8b10 bc3e
00000240: 5e6c 263e 6b11 503e f51f c8be e88a dbbc
00000250: 04d5 d6bd c576 dbbe 0299 a5be a403 a7be
00000260: 3cef c5be dae8 ca3e 207e 85be 9054 ae3e
00000270: a844 cd3e df6a b3be fea4 8d3e 66c6 cfbe
00000280: e9b0 eebd 95ae c43e 204f 06be 9d9e 803e
00000290: d24a 383e 9f0e 31be a13a debe c837 89be
000002a0: 50f8 6fbe 51b7 b03e 0fb0 c93e ad89 c0be
000002b0: 0386 10be 1696 bb3e fc1c 80be d12f 5a3d
000002c0: d98c 9c3e b04e 8bbe db10 95be ec4d c1be
000002d0: d6ae 903e 3606 7abe e35c ca3e 35db a33e
000002e0: 4905 51bd 87d9 84be d902 033e 40bc b33e
000002f0: d581 933e 11be cdbe 87f6 bcbe e1bc 2ebe
00000300: 22e4 df3e a5a8 59be dc6d 013e c7d0 1abd
00000310: 61a6 c3bd 373d bcbe e606 91be 99b9 a7bd
00000320: af56 aa3d 24d5 a2bd 034f e3bd e848 b13e
00000330: 8800 2d3e 090d 9cbd 3a24 d0be 233d bbbd
00000340: 19ed 413e 6ccb 8d3e 58f8 c03e 6916 683e
00000350: 3443 0a3d 90d9 ba3e 1c7c b23e dcc3 b43e
00000360: e7fd 72be 0ea1 a6be f9c2 31be cd02 a93d
00000370: c97b 723e 109e 2f3d e8f9 febc 3af0 833e
00000380: 0046 80be 835a 1cbe c7d3 483d bdb2 6e3e
00000390: 826d ae3e bf68 313e eb07 633e 7765 d43e
000003a0: 1b4b 07be 0edb b3be 8e0b ce3e 59c8 963e
000003b0: d25a b93e 9273 06be e3c0 e4bd 5819 a43d
000003c0: 7e9b fe3d da78 ee3d c83a a5bc 49bc f13a
000003d0: 3c93 18be 1965 28be 6ef2 c83e 1cf6 5b3e
000003e0: 4352 8ebe ddb0 543e 12f5 bd3e 80c6 053e
000003f0: 136b b63e 45b7 9a3e 6a38 63be efc6 dd3e
0.05644195 -0.36394995 0.2100026 -0.35791498 -0.07188893 -0.3256077 0.35248423 -0.119910955
-0.034138862 0.3005901 -0.12763827 -0.37644982 -0.3741283 0.20753475 -0.4459619 -0.13631485
-0.17691444 -0.009121299 -0.25104153 -0.2120487 0.3872325 0.023771876 -0.115191124 -0.08983863
0.10462018 0.16777617 -0.28255576 -0.3118953 0.3197585 -0.18146342 0.37977695 -0.27222246
0.13596909 0.08444002 -0.33340606 0.14181104 0.42322272 -0.123277396 0.18061757 0.38710743
-0.33755234 0.33495787 0.16943534 -0.4184015 0.25837988 -0.19202109 0.015522904 0.27260485
0.28728244 -0.32064238 0.07280838 -0.2178901 -0.21261577 -0.2754627 -0.32783332 0.432127
-0.112546615 -0.08084677 -0.39450216 -0.40276626 -0.3698783 0.30281994 0.051811606 -0.3402724
-0.2790632 0.2996976 -0.30458745 0.2887674 0.31384954 0.024990814 -0.3930323 0.44740194
-0.36217937 -0.37490866 0.047578562 0.43335178 -0.060518265 0.12042182 -0.087826245 0.3649705
0.37278903 0.09879152 -0.3671437 0.24169448 -0.08517181 0.41881862 0.4388424 0.16640043
-0.013676824 0.40914497 -0.4312503 -0.19034903 0.1080366 0.009810284 -0.3936973 0.4311513
-0.062910795 0.15806344 0.18012834 -0.38065657 -0.08852833 -0.41602364 -0.03906073 -0.36330107
-0.3414535 0.124356255 -0.40094012 -0.2963957 0.22147964 0.0639961 -0.12805843 -0.02454376
-0.31607065 -0.31994453 0.12819476 0.35450307 -0.40093845 -0.16916011 -0.43720603 0.19232365
-0.10717426 0.250625 -0.3381448 -0.12776846 0.29315042 -0.19863904 -0.35571897 -0.1231473
0.41372982 0.18993428 -0.29773337 -0.40238556 0.19331552 -0.051118087 -0.040707942 0.13568917
-0.33677799 0.13276711 0.050904643 -0.1906765 0.31934154 0.18796283 0.04606347 0.3673137
0.16252276 0.20319144 -0.3908688 -0.026799634 -0.10489848 -0.4286405 -0.32343298 -0.32619965
-0.38659084 0.39630777 -0.26072788 0.3404889 0.40091443 -0.35042474 0.27664942 -0.40581053
-0.11654837 0.38414446 -0.13116121 0.25121012 0.17997292 -0.17290734 -0.43404105 -0.2680037
-0.23434567 0.3451486 0.39392135 -0.37605038 -0.14113621 0.36637944 -0.25022113 0.053268258
0.30576208 -0.2720847 -0.29114422 -0.37754762 0.2825839 -0.24416432 0.39523992 0.3200318
-0.05103043 -0.2594721 0.12794055 0.3510456 0.2880999 -0.40184072 -0.36906835 -0.17064239
0.4372874 -0.21255739 0.12639564 -0.03779676 -0.09553219 -0.36765453 -0.28325576 -0.08189697
0.08317315 -0.079508096 -0.11099055 0.34625936 0.16894734 -0.07619674 -0.4065264 -0.0914252
0.18938102 0.2769426 0.3768947 0.22664799 0.033755496 0.36494112 0.34860313 0.3530568
-0.23729669 -0.3254475 -0.17359532 0.08252487 0.23680033 0.04287535 -0.031125024 0.25769216
-0.25053406 -0.15268902 0.04903009 0.2331037 0.34067923 0.17325114 0.22170989 0.41483662
-0.13212244 -0.35128063 0.4024319 0.29449728 0.36202103 -0.13130024 -0.11169603 0.080126464
0.124320015 0.11644144 -0.02016963 0.0018442954 -0.14899915 -0.16444816 0.3924746 0.21480602
-0.27797136 0.20770593 0.37101036 0.13064003 0.35628566 0.3021795 -0.22189489 0.43315837

net.0.bias f4 [64]
00000000: 462d a9be 88c8 0c3b 1a03 46be 41b3 46be
00000010: 3245 dc3e ba1a 833e 56dc a8be c1f7 f1bb
00000020: 0193 cd3e 6eee 4e3e ea36 ca3e e791 ba3d
00000030: fa70 283e ffb7 dd3e 990e 39be d745 963e
00000040: 2f6f 2f3e 0690 c9be 8287 183e 8385 533e
00000050: aa17 4fbe b956 493e 7a73 0e3e aa96 473e
00000060: 3a66 313d 6727 edbd bd6b 81be 5149 c73e
00000070: d56c 583e 7f65 02bd 1406 3b3e 8814 bfbe
00000080: 7963 24be 28be 8abe a2e0 9c3e 021e b5bd
00000090: 26ff e63d 7fbf b739 ab75 cebd ed82 a2be
000000a0: 6315 5d3d 05fe e03c 0601 61be 2487 043e
000000b0: 826c 85be 2c73 6cbe 53a3 203d ad41 963e
000000c0: 6372 a3be a61b f8ba 8f7c c0be a9c9 643e
000000d0: 3b10 b6be 7c79 653d 4ee8 c53e 63cf 41bd
000000e0: 66b0 04be 6bc2 75be eeec a4be 3d63 d4be
000000f0: 3c34 dd3e 6723 b6be af2b 96bd 8529 c8be
-0.33042353 0.002148183 -0.1933712 -0.19404317 0.43021542 0.25606328 -0.32980603 -0.007384271
0.40151218 0.20208141 0.3949502 0.0910986 0.16449347 0.4330444 -0.18071975 0.2935016
0.17132257 -0.39367694 0.14895442 0.206564 -0.20223871 0.19661988 0.13911238 0.19491068
0.04331038 -0.11579781 -0.2527751 0.38923123 0.21135266 -0.031835075 0.18264037 -0.37320352
-0.16053571 -0.27098203 0.3064013 -0.08843614 0.112791345 0.00035047156 -0.10081037 -0.31740513
0.053975474 0.027464876 -0.21973047 0.12942177 -0.26059347 -0.2309081 0.039218258 0.29346982
-0.31923208 -0.0018929138 -0.3759503 0.22342552 -0.35559258 0.05602406 0.38653797 -0.04731692
-0.12957916 -0.23999946 -0.32212013 -0.41481963 0.43203914 -0.35573885 -0.07332551 -0.39094177

net.1.weight f4 [64]
00000000: a371 7d3f 1390 7d3f 053f 813f 459b 7d3f
00000010: 9c82 7d3f 3f3e 813f d13a 813f fa71 7d3f
00000020: 23ff 7f3f 6242 813f 2306 803f 38cb 803f
00000030: 9ea0 7d3f bb40 813f 60b8 7d3f 03a7 803f
00000040: 7446 813f 0244 813f 7889 7d3f 38a6 7d3f
00000050: 7b35 813f 049d 7d3f 99bb 7d3f 7a91 7e3f
00000060: 5a9b 7d3f ee4a 813f 613d 813f 17c4 7d3f
00000070: 178a 7d3f ae28 803f 572b 803f 0794 7d3f
00000080: 1777 7d3f 24e4 803f 933f 813f 5be3 7e3f
00000090: 6146 813f 7cc5 803f c531 813f 2c8d 7d3f
000000a0: 4844 813f a170 7d3f 359b 7d3f c334 813f
000000b0: 4549 813f f027 813f e5bd 7d3f 792d 813f
000000c0: c2ba 7d3f 1c4a 813f 8340 813f 236a 7d3f
000000d0: f039 813f 7322 813f 0c3f 813f 9142 813f
000000e0: 7344 813f e87f 7d3f 644a 813f f12d 813f
000000f0: 8074 7d3f 258b 7d3f de0b 7f3f 2c40 813f
0.9900152 0.99047965 1.0097357 0.9906505 0.9902742 1.0097121 1.0096074 0.9900204
0.9999868 1.0098383 1.0001873 1.0062017 0.9907321 1.0097879 0.9910946 1.0050968
1.0099626 1.0098879 0.99037886 0.99081755 1.0094446 0.9906771 0.99114376 0.9944073
0.9906517 1.0100992 1.0096856 0.99127334 0.99038833 1.0012414 1.0013226 0.99053997
0.9900984 1.0069623 1.0097526 0.99565667 1.0099603 1.0060267 1.0093313 0.99043536
1.0098963 0.98999983 0.9906495 1.0094227 1.0100485 1.0090313 0.9911788 1.0092002
0.99113095 1.0100741 1.0097812 0.98990077 1.0095806 1.0088638 1.0097365 1.009844
1.0099014 0.99023294 1.0100827 1.0092145 0.9900589 0.9904044 0.9962748 1.0097709

net.1.bias f4 [64]
00000000: 9c42 1cbc b68d 20bc 11a7 213c 3d61 1bbc
00000010: c79d 22bc 2825 1e3c a671 1e3c ebb8 23bc
00000020: a481 223c 4d49 223c 8107 243c fe3f 1c3c
00000030: c089 ccbb 1a82 253c 1cea 23bc e399 223c
00000040: 5129 223c 5af4 203c c4da 1dbc 1217 1dbc
00000050: 31a7 1c3c 253c 1abc 2733 16bc 3c6d 1e3c
00000060: 2cbb 1abc 83f5 243c 749c 203c 82d2 19bc
00000070: 06cc 1dbc 1636 243c e8e0 23bc 328c 1dbc
00000080: 54db 23bc 9f19 25bc b662 223c ac11 243c
00000090: 8fb6 0fbc d8b4 233c 5a90 1d3c fe53 1dbc
000000a0: d6c6 213c 106f 23bc 0f1c 1abc ad72 223c
000000b0: 014d 223c 4891 1e3c 9cb2 17bc 2655 203c
000000c0: f0a7 1bbc d788 253c 1a1d 213c 305d 21bc
000000d0: e3a7 1f3c d808 193c ce0b 203c 957e 223c
000000e0: 82d3 203c cbed 1dbc 9ecb 223c 2e5a 1e3c
000000f0: 9246 1cbc 60a8 1ebc d12b 253c 4c9d 233c
-0.009537365 -0.0097994115 0.009866492 -0.009483633 -0.009925312 0.009652413 0.009670651 -0.009992818
0.009918604 0.009905172 0.010011555 0.009536741 -0.006242007 0.010101819 -0.0100045465 0.009924385
0.009897546 0.009823883 -0.009634677 -0.00958802 0.009561346 -0.009413754 -0.009167469 0.009669598
-0.009444039 0.0100683 0.009802926 -0.009388568 -0.0096311625 0.010022661 -0.010002352 -0.009615945
-0.010001022 -0.010076909 0.00991123 0.010013979 -0.008771553 0.009991847 0.009616936 -0.009602545
0.009874066 -0.00997521 -0.009406104 0.009915036 0.0099060545 0.009678192 -0.009258892 0.009785926
-0.009500489 0.010103426 0.0098335985 -0.009848878 0.009744617 0.009340487 0.009768439 0.009917875
0.009816052 -0.009639214 0.009936241 0.009665055 -0.00953831 -0.009683698 0.010081247 0.009986233

net.1.running_mean f4 [64]
00000000: ab48 b0be 0210 813e 6107 0abe 4cbc 3fbe
00000010: e21b 663d 2ac0 28bd 3c64 e8be 423e 653e
00000020: 59a2 2e3e f176 6b3c 311b 1c3e 8df5 c8be
00000030: 1a60 c2bd 139b 0d3e 2089 26be 1f3d 5b3d
00000040: d8e5 2e3e ec16 b0bc 022b 363e 35d2 a4bc
00000050: 2ac6 3abe 76e5 533d 8f74 dcbd bec7 93be
00000060: 8d70 bb3d 17c9 323e e9ef 94be 1a3f ce3d
00000070: e983 203e b915 97bd 3c4c e23e aa67 8bbe
00000080: 400a 5c3d d55a 5ebb 2b6b 343e e7c7 69be
00000090: 1d7d 46bd 3a75 653e ccbd 863d d4e4 90bc
000000a0: 0a5d 5b3e 6ab0 873e d917 65bd 84ef 52be
000000b0: f36a 693d 1f25 073e e297 65be 14d1 2f3e
000000c0: c867 eebd f8c6 55bd 1421 8dbe d721 e6bb
000000d0: 2a3b 9cbe 323f 623e ce39 e83e 07a0 8bbd
000000e0: ad97 a3bc 5d2e d7be 59da 253e 69ff bcbe
000000f0: 2e6c aebd 6e3b 91bd 5caf 2ebe ec55 a3be
-0.3443044 0.25207525 -0.13479377 -0.18724173 0.056178935 -0.041198887 -0.45388973 0.2238703
0.17054118 0.01437162 0.15244748 -0.3924984 -0.09490986 0.13828687 -0.16263247 0.053525086
0.17079866 -0.021495305 0.17789844 -0.020119766 -0.18239656 0.051732503 -0.10764419 -0.2886333
0.09152327 0.17459522 -0.29089287 0.100706294 0.1567532 -0.0737719 0.44198787 -0.27227527
0.053720713 -0.0033928652 0.17619006 -0.22830163 -0.04845916 0.22408 0.0657917 -0.017687239
0.2142221 0.2650178 -0.055930946 -0.2059918 0.05698676 0.13197754 -0.2242122 0.171696
-0.116408885 -0.052191705 -0.275643 -0.007023077 -0.3051389 0.2209442 0.453566 -0.06817632
-0.019969786 -0.4202756 0.16196574 -0.36913612 -0.085167274 -0.070914134 -0.17059082 -0.3190149

net.1.running_var f4 [64]
00000000: afff 9a3e 0732 cb3e 077f 7e3e 9002 8e3e
00000010: f10e 773e e782 ac3e 8f79 063f 6e94 ca3e
00000020: 8317 733e 9288 773e 1ea7 ad3e 7504 623f
00000030: 7446 a93e 81de 663e d321 b33e cc7a 7c3e
00000040: 8953 8f3e 1fc5 823e b049 723e 5330 1f3f
00000050: cf80 a13e f493 bf3e 2d34 933e 65d7 7b3e
00000060: da88 bc3e 2951 473f 96dd 943e 2a39 673e
00000070: 0845 a83e 75d3 f53e 8394 f53e 2157 f53e
00000080: 6ec3 9e3e 3524 293f c8a6 863e 153f 0a3f
00000090: 6a28 ac3e edee bb3e dd4d 8d3e b0c3 5e3e
000000a0: cde0 b43e c858 1a3f 6c4c 7a3e 2aa8 6e3e
000000b0: f674 a83e 3055 993e ec4e 8a3e 8f84 823e
000000c0: 379f 7c3e 6c21 923e f994 163f 5011 883e
000000d0: f0a9 5f3e e65e 5e3e a14c 133f c461 843e
000000e0: a129 c23e 80f6 b93e 0a2f 4e3f ebce 743e
000000f0: 716d ec3e 81bf c83e 1aa6 c13e 471f 883e
0.30273196 0.39686605 0.24853145 0.2773633 0.24126793 0.3369362 0.52529234 0.39566368
0.23739438 0.24173191 0.33916563 0.8828805 0.33061564 0.22545816 0.34986743 0.24656218
0.2799342 0.25541016 0.23660922 0.6218311 0.31543586 0.37417567 0.28750744 0.24593885
0.3682316 0.77858216 0.29075307 0.225804 0.32865167 0.4801289 0.47964868 0.47918037
0.31008476 0.6607087 0.2629912 0.54002506 0.33624583 0.36705723 0.27598467 0.21754336
0.3532776 0.6029172 0.24443215 0.23306337 0.32901734 0.29947805 0.27013338 0.2549176
0.2467011 0.28541124 0.58821064 0.26575708 0.2184217 0.21715888 0.575388 0.2585584
0.37922385 0.36320877 0.80540526 0.23907058 0.46177247 0.39208606 0.37822038 0.26586363

net.3.weight f4 [64, 64]
00000000: 252b 143d ca3f cabd 47fa a3bd 923c c53d
00000010: 0c1f f43d a82d 57bc 5b94 e0bc f482 91bd
00000020: 5814 2ebd 1563 6ebd 4c69 49bd ab33 773d
00000030: e986 97bd 369d d53d ffd7 45bd 0fb8 cb3d
00000040: a8b5 e2bc a478 183d ddf6 5fbd c809 4b3c
00000050: 7805 afbd 2b3d adbd a4a4 2d3c 6d3a cebd
00000060: 2006 95bd 4b22 193d f248 6f3d a6e8 f4bd
00000070: 8e51 adbd 8007 25bd 3518 d83d fc27 94bd
00000080: dfa9 9b3d 80d7 373c 65a5 813d 54f5 033e
00000090: 7b83 2bbd 9c51 ca3d 00fa b4bd e0c6 853d
000000a0: 6e8e 053d 1884 833d db2b c83d 6f4f e1bd
000000b0: 864c adbd df32 92bd 326f 7dbd 1871 643d
000000c0: 74f7 e63d 675e fb3d 921a f3bd 4fa6 133d
000000d0: 1afc 4ebd e8a0 de3d a4d9 bfbd 908e 94ba
000000e0: c11a 273d 1acd 3b3d 9961 abbc 5e9f 0bbd
000000f0: d1e0 f63d 7e77 9cbd d51b 183d 34e6 353c
00000100: 43f9 8837 6875 4e3d 73cb f33c 8331 93bd
00000110: 4c52 8f3d a934 f13c 84f4 6e3d 34a4 313d
00000120: 6872 d6ba 0e21 ec3d a90b ec3c 26ce f7bd
00000130: b2e2 c6bc 357d bcbd 7956 adbd e529 4dbd
00000140: 8a0e f53d aa5e cebd f332 dfbb 6431 c53d
00000150: 7041 983d f380 183d dd82 a23d c32b 9b3d
00000160: 6666 e53d 6181 77bd 79df f2bc 540f b53c
00000170: 7fa3 2a3d 04f4 75bb 0008 93bd d649 d7bb
00000180: 5446 de3c 0b9e 3a3d 3a4a 7abc 8f07 28bd
00000190: ed5b e43d 3c53 243d a1b0 fdbd d730 bfbd
000001a0: 07a6 7c3d 1e00 25bd bda0 c03d fc37 ac3d
000001b0: afec 863d bece 47bd d302 cebd 601a 223d
000001c0: 1dbc d7bd 1cbf e43d 4ab5 dc3d 8695 bd3b
000001d0: 53d2 823d a0d1 d6bd 06e3 de3c a2cb 9dbd
000001e0: ae2f ea3d 5c4c ffbd 6285 71bb 0a62 b63d
000001f0: c577 18bd a36a 6a3b aa91 50bc 5a9b 51bd
00000200: 76ec 2ebd 75ff 3dbc a7d8 07be dae1 d0bd
00000210: 23a5 86bd 1dda ae3d e1f4 8dbc 8867 873d
00000220: 1aa8 943d 94d0 9dbc 2f47 82bd 36d5 3a3d
00000230: 0e15 e03d eac6 823d 87fe 2c3d 5e95 f33d
00000240: 9794 d0bd 47e7 ea3d b00a 4c3d 8c09 5cbd
00000250: 5607 a33d 3dc7 1d3c 8d53 6e3d 22e0 ebbd
00000260: 3e99 643c a761 91bd 2fd7 003e c8dd ee3d
00000270: 4dac 04be f6e9 8e3d 3dc4 c43d e0ec 873c
00000280: 4afa fabd 8f6d 133c 99ff ddbd 3006 8d3d
00000290: 6625 c6bb ab22 8dbd 48bd d63d f097 9b3d
000002a0: 2dc1 08be 9e43 9fbd 75da 9f3d 6a21 e53d
000002b0: d1dc 10bd 57bc bdbd d814 5d3c ea59 dcbd
000002c0: 92b6 efbd 189d a5bd 9627 593d 3aad 78bd
000002d0: 74ea d3bd bda6 d2bc 5af1 d638 7eda da3c
000002e0: 6c52 8c3d 4636 f33c 9d90 d6bd 1698 0ebc
000002f0: b795 ccbd a451 78bd 7eb7 d33d 11aa ad3c
00000300: 3ae7 ca3d 616e c53d a7f5 ae3d cc16 39bc
00000310: 1ceb bfbd ef85 8ebd 0ca8 a53d 3776 e3bd
00000320: efe1 ebbd 7881 b23d 8429 e7bc 58b8 ae3d
00000330: 2efd 5dbd 3d30 af3d efb4 81bd 4be4 033d
00000340: fd99 5cbd 508f b33d ab85 df3c 38d7 2d3d
00000350: 5a0d 9bbd edbb eb3d 4a3c 0a3d 9fb1 17bd
00000360: ad75 cc3d 5b29 fd3c a3d1 54bc ba6d 053e
00000370: 7e71 fd3d 45e2 3dbd 0eab 833d 35ae a13d
00000380: c765 1dbc 091c 6cbd 4117 3a3b f152 d73d
00000390: 04c0 94bd 26cf 703d 57a2 b53d 0d75 debd
000003a0: 0bfe 8abd 877f 2c3b 441f 82bd ec22 e9bd
000003b0: bc2d 143d 29c7 02be 1a6b a73b fd4e 83bb
000003c0: 17d9 733d 408a dabd 2d8f 013d 98a7 5439
000003d0: d5b4 713c 78a6 70bc 994e 3dbd 1e52 aa3d
000003e0: 875c 2a3d 9cf3 173d ad19 3abd 3480 c93d
000003f0: a0ef a2bc de06 dfbd ff24 e1bd ebd4 c6bd
0.03617396 -0.09875448 -0.08006721 0.096306935 0.11919984 -0.013133444 -0.027414491 -0.071050555
-0.04249987 -0.05819996 -0.049172685 0.06035201 -0.07398779 0.10430376 -0.048301693 0.09947216
-0.027674511 0.037224427 -0.054678787 0.012392469 -0.08545965 -0.084589325 0.010598335 -0.100697376
-0.07276559 0.03738622 0.058419175 -0.11958437 -0.08462821 -0.040290356 0.10551492 -0.07234189
0.0760076 0.011220813 0.06330375 0.12886554 -0.041873436 0.09878847 -0.08836746 0.06532073
0.032606535 0.06421679 0.0977399 -0.11001479 -0.08461861 -0.07138609 -0.061873622 0.055771917
0.11277667 0.12273865 -0.11870302 0.036047276 -0.05053339 0.10870534 -0.093676835 -0.0011333991
0.040797 0.045849897 -0.020920562 -0.03408753 0.12054599 -0.07639979 0.037135918 0.011102248
1.6328535e-05 0.050404936 0.029760098 -0.07187178 0.06998119 0.029444056 0.058338657 0.043369487
-0.0016361 0.11529742 0.028814154 -0.120998666 -0.024278019 -0.09203569 -0.08463759 -0.050088782
0.11965664 -0.100766495 -0.0068114935 0.09628561 0.07434356 0.03723235 0.079351164 0.07576706
0.112011716 -0.06042612 -0.029647576 0.022102036 0.04165983 -0.0037529478 -0.0717926 -0.006570081
0.027133144 0.045560878 -0.015276486 -0.041022833 0.11150346 0.04011844 -0.12387205 -0.09335487
0.061681774 -0.040283315 0.094056584 0.08409116 0.065881126 -0.04878115 -0.100591324 0.039575934
-0.10533927 0.11169264 0.10776766 0.005785647 0.063877724 -0.104892015 0.027207863 -0.077048555
0.114348754 -0.12465736 -0.0036853184 0.08905418 -0.037223596 0.0035769127 -0.0127300415 -0.051173545
-0.042705975 -0.01159655 -0.1326624 -0.10199328 -0.06574466 0.085376956 -0.017328681 0.06611544
0.07258625 -0.019264497 -0.063612334 0.04561349 0.10941516 0.06385596 0.042234924 0.11893724
-0.10184591 0.11469894 0.04981488 -0.053720042 0.079603836 0.009630022 0.05818515 -0.11517359
0.013952551 -0.07098704 0.12582086 0.11663395 -0.12956353 0.06978218 0.09607742 0.016592443
-0.1225477 0.008998289 -0.10839767 0.06885946 -0.0060469387 -0.06891378 0.10485321 0.07597339
-0.1335494 -0.07776569 0.07805339 0.11188014 -0.035366837 -0.092644386 0.013493739 -0.10759337
-0.117047444 -0.08086604 0.053016268 -0.060712077 -0.10347453 -0.025714273 0.000102492704 0.026715513
0.06851658 0.029688966 -0.104768015 -0.008703252 -0.09989493 -0.060624734 0.10337733 0.021199258
0.09907384 0.09640194 0.08542948 -0.011296939 -0.093710154 -0.069591396 0.08088693 -0.11106532
-0.11517703 0.087161005 -0.028218038 0.085312545 -0.05419653 0.085541226 -0.063333385 0.03220014
-0.053857792 0.08767569 0.027285418 0.042441577 -0.07570906 0.115104534 0.033748902 -0.037034627
0.099833824 0.030903509 -0.012989434 0.13030139 0.123751625 -0.046358366 0.064291105 0.078945555
-0.009606785 -0.057643924 0.0028395208 0.10513867 -0.072631866 0.058791302 0.088688545 -0.108621694
-0.06786736 0.002632113 -0.0635362 -0.11383614 0.03617643 -0.12771286 0.005109203 -0.004007219
0.059533205 -0.106709 0.031630684 0.00020280329 0.014752586 -0.014688127 -0.046217535 0.08316444
0.041592147 0.03709756 -0.045434643 0.09838906 -0.019889653 -0.10889982 -0.109933846 -0.0970858

net.3.bias f4 [64]
00000000: f5ba 883d d7d4 f4bc 9c0c 16bd 1ad9 73bc
00000010: acc9 b9bc 9628 8a3d db13 b03d 5b12 b3bd
00000020: c4d7 6a3d 846d 26bc 4914 6a3d 100a 20bd
00000030: f528 9ebd 5b46 3b3c 5c9c 71bd 9096 b5bc
00000040: 379a 9a3c 5df2 cd3d 5210 01bd 94e2 8bb9
00000050: 5a14 9f3c d49d 9b3d d233 50ba 14b6 d1bd
00000060: 885a b0bd 845e e03d 27dd de3d f409 3b3d
00000070: bbad 843c 4bb8 903d 1a6a 6b3d 49b4 183d
00000080: 8d2b 80bd 5707 e03a eb88 363d ecfd a2bd
00000090: c5fe fabc dc45 cbbd feb0 09bc 18ac 67bd
000000a0: 6872 8ebd 136d fb3a ab90 6c3d 5630 d4bd
000000b0: 0ceb a13d f1e6 723d 4f80 eabd 1db1 1b3d
000000c0: 0acf 3bbd eac0 843c 9465 533d c4b9 e73d
000000d0: 17f9 34bd 1a4a daba 2ecd d5bd 780e 85bd
000000e0: a704 143c a105 7cbc eb26 163d fd39 293d
000000f0: 8e6b dbbc ce01 923d 5f8d 6cbb 25dd 4cbd
0.06676284 -0.029886646 -0.03663312 -0.014883304 -0.022679172 0.067460224 0.08597537 -0.087437354
0.057334676 -0.0101579465 0.05714825 -0.039072096 -0.07722656 0.011430348 -0.058987007 -0.02216652
0.018872363 0.10055993 -0.031509705 -0.0002668096 0.019418884 0.07598463 -0.0007942292 -0.10239807
-0.086110175 0.109555274 0.10882025 0.04566379 0.016196122 0.07066401 0.057474233 0.03728131
-0.06258307 0.0017092031 0.04456417 -0.07958588 -0.030639062 -0.09925434 -0.008404015 -0.056560606
-0.06955415 0.0019182287 0.057755154 -0.10360782 0.0790616 0.059302274 -0.11450254 0.038010705
-0.045851745 0.01620527 0.051610544 0.11314729 -0.044182863 -0.0016654164 -0.104395255 -0.064969
0.009034312 -0.015382201 0.03665821 0.041315068 -0.026784685 0.071292505 -0.0036095006 -0.050015587

net.4.weight f4 [64]
00000000: a371 7d3f 1390 7d3f 053f 813f 459b 7d3f
00000010: 9c82 7d3f 3f3e 813f d13a 813f fa71 7d3f
00000020: 23ff 7f3f 6242 813f 2306 803f 38cb 803f
00000030: 9ea0 7d3f bb40 813f 60b8 7d3f 03a7 803f
00000040: 7446 813f 0244 813f 7889 7d3f 38a6 7d3f
00000050: 7b35 813f 049d 7d3f 99bb 7d3f 7a91 7e3f
00000060: 5a9b 7d3f ee4a 813f 613d 813f 17c4 7d3f
00000070: 178a 7d3f ae28 803f 572b 803f 0794 7d3f
00000080: 1777 7d3f 24e4 803f 933f 813f 5be3 7e3f
00000090: 6146 813f 7cc5 803f c531 813f 2c8d 7d3f
000000a0: 4844 813f a170 7d3f 359b 7d3f c334 813f
000000b0: 4549 813f f027 813f e5bd 7d3f 792d 813f
000000c0: c2ba 7d3f 1c4a 813f 8340 813f 236a 7d3f
000000d0: f039 813f 7322 813f 0c3f 813f 9142 813f
000000e0: 7344 813f e87f 7d3f 644a 813f f12d 813f
000000f0: 8074 7d3f 258b 7d3f de0b 7f3f 2c40 813f
0.9900152 0.99047965 1.0097357 0.9906505 0.9902742 1.0097121 1.0096074 0.9900204
0.9999868 1.0098383 1.0001873 1.0062017 0.9907321 1.0097879 0.9910946 1.0050968
1.0099626 1.0098879 0.99037886 0.99081755 1.0094446 0.9906771 0.99114376 0.9944073
0.9906517 1.0100992 1.0096856 0.99127334 0.99038833 1.0012414 1.0013226 0.99053997
0.9900984 1.0069623 1.0097526 0.99565667 1.0099603 1.0060267 1.0093313 0.99043536
1.0098963 0.98999983 0.9906495 1.0094227 1.0100485 1.0090313 0.9911788 1.0092002
0.99113095 1.0100741 1.0097812 0.98990077 1.0095806 1.0088638 1.0097365 1.009844
1.0099014 0.99023294 1.0100827 1.0092145 0.9900589 0.9904044 0.9962748 1.0097709

net.4.bias f4 [64]
00000000: 9c42 1cbc b68d 20bc 11a7 213c 3d61 1bbc
00000010: c79d 22bc 2825 1e3c a671 1e3c ebb8 23bc
00000020: a481 223c 4d49 223c 8107 243c fe3f 1c3c
00000030: c089 ccbb 1a82 253c 1cea 23bc e399 223c
00000040: 5129 223c 5af4 203c c4da 1dbc 1217 1dbc
00000050: 31a7 1c3c 253c 1abc 2733 16bc 3c6d 1e3c
00000060: 2cbb 1abc 83f5 243c 749c 203c 82d2 19bc
00000070: 06cc 1dbc 1636 243c e8e0 23bc 328c 1dbc
00000080: 54db 23bc 9f19 25bc b662 223c ac11 243c
00000090: 8fb6 0fbc d8b4 233c 5a90 1d3c fe53 1dbc
000000a0: d6c6 213c 106f 23bc 0f1c 1abc ad72 223c
000000b0: 014d 223c 4891 1e3c 9cb2 17bc 2655 203c
000000c0: f0a7 1bbc d788 253c 1a1d 213c 305d 21bc
000000d0: e3a7 1f3c d808 193c ce0b 203c 957e 223c
000000e0: 82d3 203c cbed 1dbc 9ecb 223c 2e5a 1e3c
000000f0: 9246 1cbc 60a8 1ebc d12b 253c 4c9d 233c
-0.009537365 -0.0097994115 0.009866492 -0.009483633 -0.009925312 0.009652413 0.009670651 -0.009992818
0.009918604 0.009905172 0.010011555 0.009536741 -0.006242007 0.010101819 -0.0100045465 0.009924385
0.009897546 0.009823883 -0.009634677 -0.00958802 0.009561346 -0.009413754 -0.009167469 0.009669598
-0.009444039 0.0100683 0.009802926 -0.009388568 -0.0096311625 0.010022661 -0.010002352 -0.009615945
-0.010001022 -0.010076909 0.00991123 0.010013979 -0.008771553 0.009991847 0.009616936 -0.009602545
0.009874066 -0.00997521 -0.009406104 0.009915036 0.0099060545 0.009678192 -0.009258892 0.009785926
-0.009500489 0.010103426 0.0098335985 -0.009848878 0.009744617 0.009340487 0.009768439 0.009917875
0.009816052 -0.009639214 0.009936241 0.009665055 -0.00953831 -0.009683698 0.010081247 0.009986233

net.4.running_mean f4 [64]
00000000: ab48 b0be 0210 813e 6107 0abe 4cbc 3fbe
00000010: e21b 663d 2ac0 28bd 3c64 e8be 423e 653e
00000020: 59a2 2e3e f176 6b3c 311b 1c3e 8df5 c8be
00000030: 1a60 c2bd 139b 0d3e 2089 26be 1f3d 5b3d
00000040: d8e5 2e3e ec16 b0bc 022b 363e 35d2 a4bc
00000050: 2ac6 3abe 76e5 533d 8f74 dcbd bec7 93be
00000060: 8d70 bb3d 17c9 323e e9ef 94be 1a3f ce3d
00000070: e983 203e b915 97bd 3c4c e23e aa67 8bbe
00000080: 400a 5c3d d55a 5ebb 2b6b 343e e7c7 69be
00000090: 1d7d 46bd 3a75 653e ccbd 863d d4e4 90bc
000000a0: 0a5d 5b3e 6ab0 873e d917 65bd 84ef 52be
000000b0: f36a 693d 1f25 073e e297 65be 14d1 2f3e
000000c0: c867 eebd f8c6 55bd 1421 8dbe d721 e6bb
000000d0: 2a3b 9cbe 323f 623e ce39 e83e 07a0 8bbd
000000e0: ad97 a3bc 5d2e d7be 59da 253e 69ff bcbe
000000f0: 2e6c aebd 6e3b 91bd 5caf 2ebe ec55 a3be
-0.3443044 0.25207525 -0.13479377 -0.18724173 0.056178935 -0.041198887 -0.45388973 0.2238703
0.17054118 0.01437162 0.15244748 -0.3924984 -0.09490986 0.13828687 -0.16263247 0.053525086
0.17079866 -0.021495305 0.17789844 -0.020119766 -0.18239656 0.051732503 -0.10764419 -0.2886333
0.09152327 0.17459522 -0.29089287 0.100706294 0.1567532 -0.0737719 0.44198787 -0.27227527
0.053720713 -0.0033928652 0.17619006 -0.22830163 -0.04845916 0.22408 0.0657917 -0.017687239
0.2142221 0.2650178 -0.055930946 -0.2059918 0.05698676 0.13197754 -0.2242122 0.171696
-0.116408885 -0.052191705 -0.275643 -0.007023077 -0.3051389 0.2209442 0.453566 -0.06817632
-0.019969786 -0.4202756 0.16196574 -0.36913612 -0.085167274 -0.070914134 -0.17059082 -0.3190149
