FarconVAE/result_german/german_downstream_s_2023_05_01_16_29_08_113739_ours.pth.pt (torch, 23812 bytes, 21 tensors)

fc1.weight f4 [64, 5]
0	0xbe8a2604	-0.2698213
1	0x3edec780	0.4351158
2	0xbece96be	-0.40349382
3	0x3e708126	0.23486766
4	0x3ec94912	0.3931356
5	0x3ad0c938	0.0015929108
6	0x3e869b3f	0.26290318
7	0xbea98c8d	-0.33115044
8	0xbe89a852	-0.2688623
9	0x3dc86f34	0.09786835
10	0x3eb8e3e4	0.36111367
11	0xbe8a205d	-0.26977816
12	0xbebcaae8	-0.3684914
13	0x3e225f6e	0.15856716
14	0x3cf425ee	0.029803243
15	0x3edc1cb7	0.42990658
16	0x3db93a0a	0.09044273
17	0xbd91ac5e	-0.071129546
18	0xbed7f456	-0.421786
19	0xbed89129	-0.42298248
20	0x3e4d9700	0.20077133
21	0x3d1f6bfe	0.03892135
22	0x3d3a9a00	0.045557022
23	0xbdd8bbc9	-0.10582692
24	0xbde0b524	-0.1097205
25	0x3edf7a2f	0.43647906
26	0x3da0f10e	0.078584775
27	0x3ec16863	0.37774953
28	0x3e430a38	0.19046867
29	0xbe9d61d8	-0.3073871
30	0x3ea6f923	0.3261195
31	0x3ee3acb8	0.4446771
32	0x3dcd8056	0.10034244
33	0xbe408ac7	-0.1880294
34	0x3de9ce3d	0.1141629
35	0xbea49ea6	-0.3215229
36	0x3dd43a4d	0.103626825
37	0xbe6fcc2f	-0.23417734
38	0x3da9e8b9	0.082963414
39	0x3e288ea0	0.16460657
40	0x3d3662b6	0.04452773
41	0x3e183962	0.1486564
42	0xbe4ab09d	-0.19793935
43	0x3c8e0645	0.017336974
44	0xbd5aac72	-0.053387113
45	0xbec2aebc	-0.38023937
46	0x3ea4d887	0.32196447
47	0xbd3a2240	-0.04544282
48	0x3c1ff0ef	0.009762033
49	0x3e588c13	0.21147184
50	0x3ebeac01	0.37240604
51	0xbdae41f1	-0.08508671
52	0xbe9337f4	-0.28753626
53	0x3e377bae	0.17918274
54	0xbe490490	-0.19630647
55	0xbe67f937	-0.22653662
56	0x3e43e68c	0.19130915
57	0xbecf10e9	-0.4044259
58	0x3bab3d66	0.005225825
59	0x3ed9f4b9	0.4256952
60	0xbeb2435e	-0.34817022
61	0x3e29dbd9	0.16587771
62	0xbe4e2e38	-0.20134819
63	0x3e9a97cd	0.3019394
64	0x3d3fd243	0.04683138
65	0x3e611344	0.21980006
66	0xbe1825c3	-0.14858155
67	0xbe63a15c	-0.22229522
68	0xbec6d0f2	-0.38831288
69	0x3ec8def5	0.39232603
70	0x3d8002a4	0.06250504
71	0xbe5359e5	-0.20639761
72	0x3e6010a1	0.21881343
73	0x3d3ba592	0.045812197
74	0x3b64aa1e	0.0034891437
75	0x3e1ef027	0.15521298
76	0xbecd0783	-0.40044793
77	0xbbd44388	-0.006477777
78	0x3e8408ee	0.25788063
79	0xbd004ed2	-0.03132517
80	0x3c63f656	0.0139137115
81	0x3e354764	0.17703015
82	0xbedcbf86	-0.4311487
83	0x3c3a9aaa	0.011389414
84	0xbc0646ab	-0.0081955595
85	0x3eb685c1	0.3564892
86	0x3ed07a84	0.40718472
87	0xbcf28776	-0.029605608
88	0xbebddf8d	-0.37084618
89	0x3ed9061f	0.42387483
90	0xbdc0d0e8	-0.09414846
91	0xbeae65c7	-0.34062025
92	0xbe93e038	-0.28882003
93	0x3dfa7992	0.12230219
94	0xbd0fd09a	-0.035111047
95	0xbd809513	-0.06278434
96	0x3e550d5c	0.20805877
97	0xbeb272da	-0.3485325
98	0x3eba16d5	0.36345544
99	0xbe9b9cd2	-0.30393082
100	0x3ec6f6b1	0.38860086
101	0xbea7e9a0	-0.3279543
102	0x3eb3b749	0.35100773
103	0xbda4d281	-0.08047963
104	0xbeb77ffe	-0.35839838
105	0xbe296c57	-0.16545235
106	0x3e0dc98e	0.13846418
107	0x3c5b544f	0.0133868
108	0x3ed38693	0.4131361
109	0x3ea4b767	0.32171175
110	0x3ea495a9	0.32145432
111	0xbea8ad38	-0.32944655
112	0x3e294b2f	0.16532587
113	0x3dcbf9a7	0.09959727
114	0x3d6796b9	0.056540225
115	0xbded6196	-0.11590879
116	0x3e8e6429	0.2781079
117	0xbeb7a52b	-0.358682
118	0xbecab81d	-0.39593592
119	0x3e97fc5b	0.2968472
120	0x3eb030f1	0.3441234
121	0xbbd0cedb	-0.0063723153
122	0xbe538100	-0.20654678
123	0x3eaa2f87	0.33239385
124	0x3eb77ed5	0.35838953
125	0x3ddd16b9	0.1079535
126	0x3deeb4be	0.116555676
127	0xbedc1701	-0.429863
128	0x3e8fe8c8	0.28107285
129	0xbeb60a01	-0.35554507
130	0x3e4132bc	0.1886701
131	0x3e8ff983	0.2812005
132	0x3daa9af4	0.08330336
133	0x3ecbf395	0.39834276
134	0xbd9bb57d	-0.076029755
135	0xbdcfa01c	-0.1013796
136	0x3e9544ed	0.2915415
137	0x3ed11a19	0.40840223
138	0x3e4f05e3	0.2021709
139	0x3e331e4b	0.17492025
140	0xbca667b2	-0.020313118
141	0x3ea3f1ac	0.32020319
142	0xbeba04b0	-0.363317
143	0x3e915db0	0.2839179
144	0x3e240431	0.16017224
145	0xbeae62c8	-0.3405974
146	0x3e8e899a	0.27839357
147	0xbddeb623	-0.108745836
148	0xbce653b4	-0.028116085
149	0xbede3f29	-0.43407562
150	0xbe7a8615	-0.2446521
151	0xbd785304	-0.060626045
152	0xbda0c6e2	-0.07850434
153	0x3ec2db43	0.38057908
154	0xbe13c5b3	-0.14430885
155	0xbe12ec73	-0.1434801
156	0x3ea3c05c	0.31982696
157	0x3eb1ff44	0.34765065
158	0xbe25c4d9	-0.16188373
159	0x3d826ab9	0.06368012
160	0x3e14bbd7	0.1452478
161	0x3ca5055b	0.020144155
162	0xbe4e7be7	-0.20164452
163	0xbce367f0	-0.027759522
164	0xbe0e32d6	-0.1388658
165	0x3e8654ad	0.26236477
166	0x3db2835f	0.08716463
167	0xbede2b12	-0.43392235
168	0xbe480a77	-0.19535242
169	0xbda093c8	-0.07840687
170	0xbea58b82	-0.32333
171	0x3e901f87	0.28149053
172	0x3ea00739	0.3125551
173	0x3ed83b24	0.4223262
174	0xbe6d442a	-0.23170534
175	0xbe34d5d1	-0.1765969
176	0xbd6cd810	-0.05782324
177	0xbd906e3d	-0.07052276
178	0xbddb5945	-0.10710386
179	0x3dab58b4	0.08366528
180	0x3e8e92df	0.2784643
181	0x3b79fece	0.003814626
182	0xbe6e0380	-0.23243523
183	0xbebf6656	-0.37382764
184	0x3cd575cf	0.026057152
185	0x3ea1b91d	0.31586543
186	0xbce19e26	-0.027541231
187	0x3e58408d	0.21118374
188	0xbd8a65c8	-0.067576945
189	0xbe5b0223	-0.21387534
190	0x3e84e984	0.25959408
191	0x3e838c23	0.25692853
192	0x3e8fbf05	0.28075424
193	0x3d916b3b	0.07100531
194	0xbe3083e6	-0.17237815
195	0xbe474aba	-0.194621
196	0x3d830413	0.063972615
197	0xbeaf4cad	-0.34238186
198	0x3e80edda	0.25181466
199	0xbda8c303	-0.082403205
200	0xbb97f971	-0.00463789
201	0x3e87b5a6	0.26505774
202	0xbecc303e	-0.39880556
203	0xbe358235	-0.17725451
204	0xbeac12ce	-0.33608097
205	0x3e89b438	0.26895308
206	0x3e9880e0	0.29785824
207	0x3e64bcbf	0.22337626
208	0xbd2ccfee	-0.042190485
209	0xbedc8ccd	-0.43076172
210	0xbe0593b4	-0.13044626
211	0xbe8f72c9	-0.28017262
212	0xbed67bee	-0.41891426
213	0x3e71d289	0.23615469
214	0x3d9fac9c	0.077965945
215	0x3d03f2b3	0.032213878
216	0x3eceacf2	0.40366322
217	0x3bcfdf2a	0.006343742
218	0x3e126369	0.14295734
219	0xbce5b575	-0.028040627
220	0xbeb5e6bf	-0.35527608
221	0xbdfef0d6	-0.124482796
222	0x3d7abb46	0.061213754
223	0x3ead4ca1	0.33847526
224	0x3e5cf29b	0.21576922
225	0x3eba0222	0.36329752
226	0xbe498314	-0.19678909
227	0xbd67d044	-0.056595102
228	0xbcb09aa3	-0.021558112
229	0x3eb83200	0.35975647
230	0xbe8982e9	-0.2685769
231	0xbe845305	-0.2584459
232	0xbde419fe	-0.1113777
233	0xbeb4cc9f	-0.35312364
234	0x3dc39024	0.09548977
235	0xbed57c50	-0.41696405
236	0xbee66728	-0.45000577
237	0xbeb62305	-0.35573593
238	0x3dfe75ed	0.12424836
239	0xbea403f1	-0.32034257
240	0x3eb0d0bc	0.34534252
241	0xbecc8330	-0.39943838
242	0x3e0e7241	0.13910772
243	0xbeb5d2aa	-0.35512286
244	0x3dcf801e	0.10131858
245	0x3dbcf31b	0.09226056
246	0x3e7f099e	0.24906012
247	0xbb377afe	-0.0027996893
248	0xbe81128d	-0.25209466
249	0xbe759b4c	-0.23985022
250	0x3ecbb8cc	0.39789426
251	0x3c326897	0.010889194
252	0xbe98811d	-0.29786006
253	0x3ecc75ec	0.39933717
254	0x3ebc3a8d	0.3676342
255	0xbea0f8ee	-0.31439918

fc1.bias f4 [64]
0	0xbecc0b70	-0.39852476
1	0x3e1269ef	0.14298223
2	0xbe069ce2	-0.13145784
3	0xbe6963c2	-0.22791961
4	0xbcd85823	-0.026409214
5	0xbeacfbbe	-0.33785814
6	0xbe485f65	-0.1956764
7	0x3eae6146	0.3405859
8	0x3e08a0cd	0.1334259
9	0xbe87c6c1	-0.26518825
10	0xbd7319e9	-0.05935088
11	0x3ec4203b	0.3830584
12	0x3e2674ca	0.16255489
13	0xbe24ced4	-0.16094524
14	0x3c06c518	0.008225702
15	0x3d4c0974	0.049813703
16	0xbeaac619	-0.33354262
17	0x3d106f8c	0.03526263
18	0x3e0dd20d	0.1384966
19	0x3d2cc431	0.04217929
20	0x3e2c23c1	0.16810514
21	0x3dc0c1ce	0.09411965
22	0xbe0c5436	-0.13703999
23	0xbe4e92e9	-0.2017323
24	0x3ecbb74e	0.39788288
25	0x3eceef00	0.40416718
26	0x3e0134ef	0.12617849
27	0x3d7839d5	0.060602028
28	0xbe9d7f2a	-0.3076108
29	0xbdceafdb	-0.100921355
30	0x3e6789ef	0.22611211
31	0xbdc7bc3b	-0.09752699
32	0xbeb73040	-0.35779
33	0xbe4c890b	-0.19974153
34	0xbd5a8d4e	-0.053357415
35	0xbe9eec1f	-0.3103952
36	0x3e9cef8b	0.30651507
37	0xbe3b87a5	-0.18313463
38	0xbe9a1f69	-0.3010209
39	0x3d59f973	0.05321641
40	0x3d921aa6	0.07133989
41	0xbc91f044	-0.017814763
42	0xbd5eb0be	-0.054367773
43	0x3ddf8005	0.1091309
44	0xbdd492e1	-0.103795774
45	0xb98f8e77	-0.0002738123
46	0x3e579207	0.21051799
47	0xbd86d3f3	-0.06583395
48	0x3b8f83be	0.0043797186
49	0xbe2cf6cb	-0.16891019
50	0x3de85411	0.113441594
51	0xbeb1bcae	-0.34714264
52	0xbe31cf40	-0.17364216
53	0x3eaa75fb	0.33293137
54	0xbddd8cb0	-0.1081785
55	0xbe414f76	-0.18877968
56	0x3e92ca40	0.2866993
57	0x3e8a830c	0.27053106
58	0x3ed560db	0.41675457
59	0xbdbc61d9	-0.091983505
60	0xbd0fa7a3	-0.03507198
61	0x3e40cb01	0.1882744
62	0xbe918904	-0.28424847
63	0xbe9aa2da	-0.3020237

fc2.weight f4 [64, 64]
0	0x3dca60d6	0.09881751
1	0xbd73cfa7	-0.059524205
2	0xbdc847f2	-0.097793475
3	0xbd410b49	-0.047129903
4	0xbd5492f5	-0.05189796
5	0xbe0a812b	-0.13525836
6	0xbd0b922d	-0.03407495
7	0xbe0ac454	-0.13551456
8	0x3dbaa33f	0.09113168
9	0xbbe6e62d	-0.007046482
10	0xbdfa6b06	-0.12227444
11	0xbd8ecf4f	-0.06973135
12	0x3db35a25	0.08757428
13	0x3ccccb76	0.024999361
14	0x3bc7e058	0.006099742
15	0xbde8150f	-0.113321416
16	0xbd004354	-0.03131421
17	0x3dc8fef3	0.09814253
18	0x3d4b9374	0.04970117
19	0x3da62e64	0.08114317
20	0xbdf67563	-0.120341085
21	0xbdbd39eb	-0.092395626
22	0xbe0b76d5	-0.1361955
23	0x3d36e9b5	0.044656474
24	0xbb8659e1	-0.00410007
25	0xbd9d1dad	-0.07671676
26	0x3cc5c235	0.024140457
27	0xbd22f854	-0.039787605
28	0x3dc1b68d	0.09458647
29	0xbc6216c8	-0.013799377
30	0x3d54ff55	0.052001316
31	0x3d7aa1c9	0.061189447
32	0x3dcd7fac	0.10034117
33	0x3d946e25	0.07247571
34	0x3d8829b1	0.06648577
35	0x3db0a376	0.08624928
36	0x3aabbbf6	0.0013102281
37	0xbd5bb260	-0.05363691
38	0x3dadb0a2	0.08480956
39	0x3caad7ee	0.020854916
40	0xbd25f01b	-0.040512186
41	0x3dc1997b	0.09453102
42	0xbdfd4bcf	-0.12367975
43	0x3e022482	0.12709239
44	0xbd9c079c	-0.07618639
45	0x3dd1465a	0.102184966
46	0x3a8b35d5	0.0010620902
47	0xbba63f1e	-0.005073442
48	0x3d083fa8	0.033263832
49	0xbdb80d49	-0.08986909
50	0xbdda56c0	-0.106610775
51	0x3cda775f	0.026668249
52	0x3dbef9db	0.09325
53	0x3dbbe546	0.0917459
54	0xbd19c052	-0.037536927
55	0xbc9cbc4c	-0.019132756
56	0xbd4c431e	-0.049868695
57	0xbd7a3985	-0.06109001
58	0xbdce04d2	-0.10059513
59	0x3ce85544	0.02836097
60	0xbbf6ed49	-0.007535611
61	0xbdb1e7e7	-0.0868681
62	0xbde761b3	-0.112979315
63	0xbdd30db9	-0.10305352
64	0x3c767212	0.015041845
65	0x3db12348	0.086493075
66	0x3ca7bd4d	0.020476008
67	0xbd98a058	-0.07452458
68	0xbd32dc85	-0.043667335
69	0xbc3ea641	-0.011636318
70	0x3dbb2339	0.091375776
71	0x3b548b54	0.003243168
72	0x3da69325	0.08133534
73	0x3c9f0960	0.01941365
74	0x3cb67dce	0.022276785
75	0xbb29b64f	-0.0025896018
76	0xbda85eaf	-0.082211845
77	0x3cbacf64	0.02280397
78	0xbdbf045d	-0.09327004
79	0x3da920ad	0.082581855
80	0x3df209b7	0.11818259
81	0x3e030647	0.12795363
82	0xbc1ac012	-0.009445207
83	0xbd20fcd2	-0.03930361
84	0xbd92cf9a	-0.07168503
85	0xbc8a32c4	-0.01686991
86	0xbdfb5d7a	-0.122736886
87	0x3cdce0ab	0.026962599
88	0xbd396ccc	-0.045269772
89	0x3dd1c282	0.102421775
90	0x3c22e974	0.009943355
91	0xbdd46ed4	-0.10372701
92	0x3d831703	0.064008735
93	0xbd38fdd1	-0.045163933
94	0x3dcc04cf	0.09961855
95	0xbda3156d	-0.07963071
96	0x3c3780b7	0.011200122
97	0x3dba5850	0.090988755
98	0x3ba4c704	0.0050286073
99	0x3da33305	0.079687156
100	0x3da941f1	0.082645305
101	0x3d1a3781	0.03765059
102	0x3debe293	0.11517825
103	0x3db75523	0.089517854
104	0x3ac8e3eb	0.0015326714
105	0xbdb8325b	-0.089939795
106	0x3bbad421	0.0057015573
107	0xbc8b16e5	-0.01697869
108	0xbdff07fa	-0.12452693
109	0x3ddb053c	0.10694358
110	0xbc2ba349	-0.010475942
111	0xbc300023	-0.01074222
112	0xbdbeb740	-0.09312296
113	0xbd74d25c	-0.059770927
114	0x3db7fcbd	0.08983753
115	0xbd7d3a40	-0.06182313
116	0x3dbb63d7	0.09149902
117	0x3da55f2d	0.08074794
118	0xbe00674a	-0.12539402
119	0x3d2dea6c	0.04245989
120	0x3dad5fbf	0.08465528
121	0x3dcacdfe	0.09902571
122	0x3d6b454e	0.05743914
123	0xbcd95fb7	-0.026534898
124	0x3d9a367d	0.07529924
125	0xbd1d4f32	-0.038405605
126	0xbd2e1b07	-0.042506244
127	0xbdcab49b	-0.09897729
128	0xbd27838b	-0.040896934
129	0xbdbbc590	-0.091685414
130	0x3ba0247f	0.004887163
131	0x3df58485	0.11988167
132	0x3c9c2f02	0.019065384
133	0x3d302c7c	0.043011174
134	0xbdd65a6e	-0.10466467
135	0xbcc369d4	-0.023854174
136	0xbcc050b0	-0.023475975
137	0xbdb84bf9	-0.08998866
138	0x3d44951f	0.047993775
139	0xbe0e7a76	-0.13913903
140	0xbd976f12	-0.07394232
141	0xbd81313c	-0.06308219
142	0xbdc0c5e9	-0.09412748
143	0xbdf40ea0	-0.11916852
144	0xbcea8ce7	-0.02863164
145	0xbdad0def	-0.08449923
146	0xbc8b834d	-0.017030383
147	0x3d568396	0.052371584
148	0xbcd6b21d	-0.026207978
149	0x3c59bdb5	0.013289859
150	0xbdd3c533	-0.10340347
151	0xbd94c873	-0.07264795
152	0x3cf9cf8a	0.03049447
153	0xbcec83cb	-0.028871438
154	0x3cc2069d	0.023684794
155	0xbc559a59	-0.013037288
156	0xbd03f3b1	-0.032214824
157	0x3d2c8bf0	0.042125642
158	0xbd743115	-0.05961712
159	0x3d5f661b	0.054540735
160	0xbb0b36fb	-0.0021242488
161	0x3d6b39e2	0.05742825
162	0xbc8b2e30	-0.016989797
163	0xbc2660c4	-0.010154907
164	0xbdbe7e87	-0.09301477
165	0xbdc84b8d	-0.09780035
166	0xbda35590	-0.07975304
167	0x3d8060dc	0.062684745
168	0xbdd4009c	-0.10351679
169	0xbd967c66	-0.07347946
170	0xba44ad77	-0.0007502655
171	0xbd4b73a0	-0.049670815
172	0x3de6d7ca	0.11271627
173	0x3d831c52	0.06401886
174	0xbdedc2d6	-0.11609428
175	0x3ccbce0f	0.02487853
176	0xbdb21990	-0.08696282
177	0x3d04d57d	0.03243016
178	0x3d6cbcea	0.05779735
179	0x3c63d637	0.013906053
180	0x3c84b552	0.016199742
181	0xbd595aa1	-0.053064946
182	0x3ccad000	0.024757385
183	0xbd39656c	-0.04526274
184	0xbd7bbc82	-0.061459072
185	0x3c9fcdcc	0.019507311
186	0x3d115786	0.03548386
187	0x3b7c2bee	0.0038478333
188	0xbccaa587	-0.024737133
189	0x3c903cf8	0.017607197
190	0x3de0d8a0	0.10978818
191	0x3d2cb766	0.04216709
192	0xbc9ad6de	-0.018901285
193	0xbd1e0293	-0.038576674
194	0xbdbd1809	-0.092331
195	0x3dfe3e57	0.12414234
196	0xbd79a693	-0.060949873
197	0x3dd4b56d	0.10386167
198	0x3d8450da	0.06460734
199	0xbcf135b1	-0.029444547
200	0xbd8658df	-0.065599196
201	0xbdc440a8	-0.09582645
202	0x3d1945de	0.037420146
203	0xbc3802fa	-0.011231178
204	0xbd1fe9d2	-0.039041348
205	0xbc588d44	-0.013217274
206	0x3d516d2c	0.051129505
207	0xbdcfec7b	-0.10152527
208	0x3c377000	0.0111961365
209	0xbd508be7	-0.05091467
210	0xbd3999e2	-0.04531277
211	0xbddf2053	-0.10894837
212	0x3cc767d4	0.024341501
213	0xbddab6f6	-0.10679428
214	0xbd7cb6dd	-0.06169783
215	0x3de555fa	0.11198039
216	0x3d87fcc9	0.06640012
217	0xbdfd0797	-0.12354963
218	0xbdbcf549	-0.09226472
219	0xbdcc337e	-0.09970759
220	0xbd1bba03	-0.03801919
221	0x3de5afd2	0.11215176
222	0x3cc1473d	0.02359354
223	0xbd8627a7	-0.06550532
224	0xba35f8e5	-0.000694169
225	0xbdd24cee	-0.102685794
226	0x3dfcdaee	0.12346445
227	0xbc6363e4	-0.013878796
228	0x3e03293e	0.12808701
229	0xbd260f9a	-0.040542223
230	0xbd4fca07	-0.050729778
231	0x3db0717a	0.08615394
232	0xbc480afd	-0.012209651
233	0xbd4a12e7	-0.049334433
234	0x3dacb58c	0.08433065
235	0x3db25e57	0.087094
236	0xbe11d106	-0.14239892
237	0x3da1d055	0.07901064
238	0x3d82e2be	0.06390904
239	0x3d43154a	0.047627725
240	0xbdf22b40	-0.118246555
241	0xbda812ab	-0.08206686
242	0x3dd605b3	0.10450306
243	0x3de59337	0.1120972
244	0xbd6be76a	-0.05759374
245	0xbdb16083	-0.08660986
246	0x3ce88f20	0.02838856
247	0x3d8c06a0	0.06837201
248	0x3d3543c9	0.044254098
249	0x3dacac4b	0.084313
250	0x3ca77673	0.020442223
251	0x3db6942f	0.089149825
252	0xbd22814a	-0.03967408
253	0xbdfa41ab	-0.122195564
254	0x3d4b15c1	0.049581293
255	0x3d490c64	0.049084082

fc2.bias f4 [64]
0	0xbdb78481	-0.0896082
1	0x3cf5525a	0.029946495
2	0xbb236428	-0.0024931524
3	0x3d192dce	0.0373972
4	0x3c905107	0.017616762
5	0x3990a278	0.0002758687
6	0xbbce28b0	-0.0062914714
7	0x3a72fe28	0.00092694396
8	0xbd3b9e86	-0.045805477
9	0xbd4b4e45	-0.04963519
10	0xbd66375e	-0.056205146
11	0xb9f11950	-0.0004598596
12	0xbd256030	-0.040374935
13	0x3c3f495e	0.011675207
14	0x3daf01da	0.08545275
15	0x3b14038f	0.002258513
16	0xba84b987	-0.0010126092
17	0x390a8df8	0.00013213593
18	0x3a857a48	0.0010183537
19	0xbd9ffcab	-0.078118645
20	0x3935c3c2	0.0001733443
21	0xbdbd5e97	-0.09246557
22	0x3d503dd7	0.050840225
23	0xbaea91e1	-0.0017896259
24	0x3a0f5b8d	0.0005468659
25	0x3cea4bcf	0.028600601
26	0x3ca5e27b	0.020249596
27	0x3cbaa3c0	0.02278316
28	0xbd3ea579	-0.046544526
29	0xbd071a31	-0.032983962
30	0x3d1af70e	0.037833266
31	0x3db267d0	0.08711207
32	0xbd7d0c08	-0.061779052
33	0x3acb6e05	0.0015520459
34	0x3db02faa	0.08602841
35	0xbd8ba341	-0.068182476
36	0xbdab7845	-0.08372549
37	0xbda92cab	-0.08260473
38	0x3dbc5ebd	0.091977574
39	0xbd841877	-0.06449979
40	0x3db42de2	0.08797814
41	0x3d478e45	0.048719663
42	0x3d9bbb90	0.07604134
43	0x3dadf1ff	0.08493423
44	0x3d9cca89	0.07655818
45	0x3d31082d	0.043220688
46	0xbcba8728	-0.022769526
47	0x3d5c9f8c	0.053863093
48	0x3d873477	0.06601804
49	0x3b841a9d	0.004031493
50	0xb85dc36f	-5.2872518e-05
51	0xbc446018	-0.011985801
52	0x386cd39a	5.6463854e-05
53	0xbbd2c73b	-0.0064324415
54	0xbc5741de	-0.013138263
55	0xbcbe360f	-0.023219137
56	0x398468a3	0.00025254962
57	0x3d437d3a	0.047726847
58	0xbbd59678	-0.0065181814
59	0xbcb7c072	-0.022430632
60	0x3d7b7ca9	0.061398182
61	0xbd3ce95e	-0.046120994
62	0x3b9bad78	0.0047509037
63	0xbd16a257	-0.036775913

out.weight f4 [1, 64]
0	0x3d382360	0.04495561
1	0xbd2de123	-0.042451035
2	0xbd2df62d	-0.0424711
3	0xbd07e464	-0.033176795
4	0xbc239fb3	-0.009986806
5	0x3d28a1b1	0.041169826
6	0x3e043014	0.12908965
7	0x3d33392f	0.043755706
8	0x3ca021fd	0.019547457
9	0xbbe62374	-0.0070232693
10	0xbdce193a	-0.10063405
11	0x3d98e1a1	0.0746491
12	0x3dd0bbb6	0.10192053
13	0x3dcdb232	0.10043754
14	0xbd7ec4d8	-0.062199444
15	0x3dae019e	0.08496402
16	0xbd828773	-0.06373491
17	0x3d1040af	0.035217937
18	0xbdccddde	-0.10003255
19	0x3c97bf28	0.018523768
20	0xbcd50064	-0.026001163
21	0xbd1446bb	-0.036200266
22	0x3e0782e4	0.13233525
23	0x3ba8d576	0.0051523997
24	0xbd8355b3	-0.0641283
25	0xbad289df	-0.0016062817
26	0xbd9748eb	-0.07386955
27	0x3ce0b233	0.027428722
28	0x3d995cc4	0.07488397
29	0x3ddefdd1	0.108882554
30	0x3da3cfcc	0.079986185
31	0x3d49137b	0.049090844
32	0x3db3ae41	0.08773471
33	0xbda0da1b	-0.078541
34	0x3d9b347d	0.07578371
35	0xbd1844fd	-0.037175167
36	0x3dccdef5	0.10003463
37	0xbd3618d1	-0.04445726
38	0x3d1bd6d9	0.03804669
39	0xbc865193	-0.01639632
40	0x3c3fc9d0	0.011705831
41	0x3d9f4216	0.07776277
42	0x3dcfc3fd	0.10144804
43	0x3e1b37b4	0.15157968
44	0xbd677a91	-0.056513373
45	0x3d0775f6	0.03307148
46	0x3d8c1c6b	0.06841358
47	0xbda856b4	-0.08219662
48	0x3de3396d	0.110949375
49	0x3cc8713d	0.024468059
50	0xbdbc4d03	-0.09194376
51	0x3c947db9	0.018126355
52	0x3dd19371	0.102332
53	0xbcc319ed	-0.023816073
54	0x3d702ca8	0.058636338
55	0x3d1ab14d	0.037766743
56	0x3c2e6da1	0.010646255
57	0x3dc138ae	0.09434639
58	0xbdae7ee7	-0.085202985
59	0x3d45df1b	0.048308473
60	0xbdb50ade	-0.088399634
61	0xbd316663	-0.043310534
62	0xbd9c01d4	-0.07617536
63	0x3d99d345	0.075109996

bn.weight f4 [64]
0	0x3f83aaae	1.0286462
1	0x3f79c545	0.97566634
2	0x3f7a3c06	0.9774784
3	0x3f79d6b9	0.97593266
4	0x3f7ae0f8	0.97999525
5	0x3f839098	1.0278502
6	0x3f8375fa	1.0270379
7	0x3f83ac9f	1.0287055
8	0x3f82d61a	1.0221589
9	0x3f79f9a3	0.9764654
10	0x3f7a17c1	0.97692496
11	0x3f83a080	1.0283356
12	0x3f83add5	1.0287424
13	0x3f838d7e	1.0277555
14	0x3f796a92	0.9742824
15	0x3f83d5a6	1.0299575
16	0x3f795a0c	0.97403026
17	0x3f838422	1.0274699
18	0x3f79e363	0.9761259
19	0x3f8100c3	1.0078357
20	0x3f79ba19	0.9754959
21	0x3f7a0732	0.9766723
22	0x3f83bbf3	1.0291733
23	0x3f7c13f8	0.9846797
24	0x3f7903f9	0.97271687
25	0x3f7b6a60	0.9820919
26	0x3f79a474	0.9751656
27	0x3f827d5b	1.0194505
28	0x3f837e81	1.0272981
29	0x3f836528	1.0265245
30	0x3f83d572	1.0299513
31	0x3f8263fa	1.018676
32	0x3f8373e0	1.0269737
33	0x3f79bfc4	0.97558236
34	0x3f83b2fd	1.0288998
35	0x3f7999f7	0.97500557
36	0x3f838433	1.0274719
37	0x3f799b06	0.9750217
38	0x3f83b3fd	1.0289303
39	0x3f79c6ab	0.9756877
40	0x3f7b8434	0.982486
41	0x3f83a523	1.0284771
42	0x3f83a5a2	1.0284922
43	0x3f83acd8	1.0287123
44	0x3f79cb38	0.9757571
45	0x3f83527c	1.0259547
46	0x3f83adfd	1.0287472
47	0x3f794f88	0.9738698
48	0x3f836395	1.0264765
49	0x3f825d4e	1.0184724
50	0x3f7946ce	0.97373664
51	0x3f7af562	0.98030674
52	0x3f83a4f3	1.0284714
53	0x3f79ac0b	0.9752814
54	0x3f836e12	1.0267966
55	0x3f83def1	1.0302411
56	0x3f7ac60f	0.97958463
57	0x3f837328	1.0269518
58	0x3f79976b	0.9749667
59	0x3f83b395	1.0289179
60	0x3f7972ec	0.9744098
61	0x3f7988f8	0.9747462
62	0x3f798a2d	0.97476465
63	0x3f83a526	1.0284774

bn.bias f4 [64]
0	0x3ce4ec2e	0.02794465
1	0xbcc33b95	-0.023832122
2	0xbcc320ab	-0.023819288
3	0xbcd31d49	-0.0257708
4	0xbcb95fab	-0.022628626
5	0x3cec2855	0.028827826
6	0x3cdea7ff	0.027179716
7	0x3cf60793	0.030032909
8	0xbb9d2979	-0.0047962037
9	0xbcccb3dc	-0.024988107
10	0xbccc2da4	-0.024924107
11	0x3ce6ba0e	0.02816489
12	0x3ce84cc1	0.028356912
13	0x3ce23ca6	0.02761681
14	0xbcd8bcc9	-0.026457207
15	0x3ced1c5a	0.028944183
16	0xbccf3a0c	-0.025296234
17	0x3cf42573	0.029803013
18	0xbcce66b1	-0.025195451
19	0x3b1fd91c	0.0024390882
20	0xbccc90bd	-0.02497136
21	0xbcd6aa9a	-0.026204396
22	0x3ce1bfd3	0.02755729
23	0xbc8d730b	-0.01726677
24	0xbcd27155	-0.025688807
25	0xbcbe8894	-0.023258485
26	0xbccf6b0e	-0.025319602
27	0x3ce7e12a	0.028305609
28	0x3ce344ec	0.027742825
29	0x3cdbf176	0.026848536
30	0x3ced1af7	0.028943522
31	0x3cf8223f	0.030289767
32	0x3ce08cb8	0.02741085
33	0xbcd0a326	-0.02546842
34	0x3cee043d	0.029054755
35	0xbccae61c	-0.024767928
36	0x3cde0e6b	0.027106484
37	0xbcda1d50	-0.026625305
38	0x3cf41b23	0.029798096
39	0xbcc398d6	-0.023876589
40	0xbc795aa8	-0.015219368
41	0x3cdaa660	0.026690662
42	0x3ce1907d	0.027534718
43	0x3ce7277f	0.028217075
44	0xbccbb332	-0.02486572
45	0x3cfca8bf	0.030842183
46	0x3ce0c878	0.027439341
47	0xbcdbc81b	-0.026828816
48	0x3cdcad66	0.026938152
49	0x3cb2af32	0.021812055
50	0xbcd2afa2	-0.025718514
51	0xbc631efd	-0.013862369
52	0x3ce044c4	0.02737654
53	0xbcd4321c	-0.0259028
54	0x3ce4e9ee	0.027943578
55	0x3cfa237a	0.030534495
56	0xbc50b7e7	-0.012739158
57	0x3cdc576d	0.026897157
58	0xbcd0d9f0	-0.025494546
59	0x3ce85418	0.028360412
60	0xbcd5cde2	-0.02609915
61	0xbcd340b8	-0.025787696
62	0xbcd3ec53	-0.025869524
63	0x3ce204dd	0.02759021

bn.running_mean f4 [64]
0	0xbee323dc	-0.44363296
1	0x3e0efff7	0.1396483
2	0xbee4fd7b	-0.4472464
3	0x3dcfcc34	0.101463705
4	0x3d23ed6c	0.040021345
5	0x3ec04031	0.37548974
6	0xbe40875c	-0.18801636
7	0xbd0e8bbb	-0.034801226
8	0x3ddecda7	0.10879069
9	0xbeb81937	-0.35956737
10	0xbe03e53a	-0.12880412
11	0xbea49bbf	-0.32150075
12	0x3e8e4649	0.27787998
13	0xbf117cf4	-0.5683129
14	0xbce86664	-0.028369136
15	0xbe99b520	-0.30021
16	0xbe14ffd6	-0.14550719
17	0xbe4da9d2	-0.20084313
18	0xbe54ded9	-0.20788135
19	0x3e124d3f	0.1428728
20	0x3ea90575	0.33011976
21	0xbe4624f5	-0.19350035
22	0xbe1b7d39	-0.15184487
23	0xbe73b897	-0.23800884
24	0xbdd43515	-0.10361687
25	0x3eb2a3a3	0.3489047
26	0x3e4f1ce1	0.2022586
27	0xbd6a9f29	-0.057280693
28	0xbe3fe6a2	-0.18740323
29	0x3eea504e	0.45764393
30	0x3defe1e6	0.117130086
31	0x3eebf17d	0.46082678
32	0xbeaf632e	-0.34255356
33	0xbe426306	-0.18983087
34	0x3e227458	0.15864694
35	0xbe63fef8	-0.22265232
36	0x3c5d9d70	0.013526306
37	0x3c5c1f81	0.0134352455
38	0xbc9f3a8e	-0.0194371
39	0xbe2c8fe1	-0.1685176
40	0x3e48c2d8	0.19605577
41	0x3f30450b	0.6885535
42	0xbe49668e	-0.19668028
43	0x3d99cb65	0.075094976
44	0xbdf0f8a5	-0.11766175
45	0xbe47b2fb	-0.1950187
46	0xbc421644	-0.011846129
47	0x3d8f345a	0.06992407
48	0xbec50396	-0.38479298
49	0x3e88ceb8	0.26720214
50	0xbe68201c	-0.22668499
51	0xbee1483a	-0.44000417
52	0x3e800195	0.25001207
53	0x3eba0fcb	0.36340174
54	0xbe6e2706	-0.23257074
55	0xbdad1310	-0.084509015
56	0x3ec15955	0.37763467
57	0x3e52497e	0.20535848
58	0x3e82e055	0.25561777
59	0x3e36f529	0.17866959
60	0x3e4ec7ba	0.20193377
61	0x3eeb5c6f	0.4596896
62	0xbec85abd	-0.39131728
63	0xbea9a1ed	-0.33131352

bn.running_var f4 [64]
0	0x3eb4d5ed	0.35319462
1	0x3e6af03b	0.22943203
2	0x3f0dd971	0.55409914
3	0x3f41aa33	0.7565033
4	0x3e0b0826	0.13577327
5	0x3f0e74e5	0.55647117
6	0x3f0100f2	0.5039207
7	0x3ec00a11	0.3750768
8	0x3df37b39	0.11888737
9	0x3e7a5d41	0.24449636
10	0x3e0f2aac	0.13981122
11	0x3f2c56be	0.6731986
12	0x3e47741f	0.1947789
13	0x3ee64d01	0.44980624
14	0x3e9d209d	0.30688944
15	0x3ee9a3bd	0.45632735
16	0x3ded32c4	0.115819484
17	0x3ec56675	0.3855473
18	0x3ee82e9e	0.45348066
19	0x3e16c177	0.14722238
20	0x3e8f93de	0.280425
21	0x3e810e2b	0.25206122
22	0x3e9ec008	0.31005883
23	0x3e45aade	0.19303462
24	0x3f14f84b	0.58191365
25	0x3e298ae1	0.16556884
26	0x3e3ee173	0.1864069
27	0x3e51d5a9	0.20491661
28	0x3ea4badc	0.32173812
29	0x3f3041cc	0.688504
30	0x3df89e1d	0.12139533
31	0x3f00adee	0.50265396
32	0x3d72d6b6	0.059286796
33	0x3e0411a4	0.12897354
34	0x3ef2894e	0.4737038
35	0x3d947b2c	0.07250056
36	0x3e2bda55	0.16782506
37	0x3e6fb1c8	0.23407662
38	0x3f09e7ea	0.538695
39	0x3e53e0b1	0.20691182
40	0x3f0b1a8c	0.5433738
41	0x3f8fa2fd	1.1221615
42	0x3f45b636	0.77231157
43	0x3e9f5a74	0.31123698
44	0x3ecc5dda	0.39915353
45	0x3f1a72ec	0.60331607
46	0x3e72808f	0.23681854
47	0x3ef486dc	0.4775914
48	0x3ea5c732	0.32378536
49	0x3f3d6d48	0.73994875
50	0x3f3fb27f	0.7488174
51	0x3ea122e4	0.31471932
52	0x3e3e5f96	0.1859115
53	0x3e174beb	0.14775054
54	0x3e81b90c	0.25336492
55	0x3e1e9053	0.15484743
56	0x3f0e099d	0.5548342
57	0x3e440c00	0.19145203
58	0x3e7552be	0.23957345
59	0x3e884493	0.26614818
60	0x3e39503c	0.18097013
61	0x3ebd7550	0.37003565
62	0x3e4ae29e	0.1981301
63	0x3eab3a4f	0.33442923

net.0.weight f4 [64, 5]
0	0xbe8a2604	-0.2698213
1	0x3edec780	0.4351158
2	0xbece96be	-0.40349382
3	0x3e708126	0.23486766
4	0x3ec94912	0.3931356
5	0x3ad0c938	0.0015929108
6	0x3e869b3f	0.26290318
7	0xbea98c8d	-0.33115044
8	0xbe89a852	-0.2688623
9	0x3dc86f34	0.09786835
10	0x3eb8e3e4	0.36111367
11	0xbe8a205d	-0.26977816
12	0xbebcaae8	-0.3684914
13	0x3e225f6e	0.15856716
14	0x3cf425ee	0.029803243
15	0x3edc1cb7	0.42990658
16	0x3db93a0a	0.09044273
17	0xbd91ac5e	-0.071129546
18	0xbed7f456	-0.421786
19	0xbed89129	-0.42298248
20	0x3e4d9700	0.20077133
21	0x3d1f6bfe	0.03892135
22	0x3d3a9a00	0.045557022
23	0xbdd8bbc9	-0.10582692
24	0xbde0b524	-0.1097205
25	0x3edf7a2f	0.43647906
26	0x3da0f10e	0.078584775
27	0x3ec16863	0.37774953
28	0x3e430a38	0.19046867
29	0xbe9d61d8	-0.3073871
30	0x3ea6f923	0.3261195
31	0x3ee3acb8	0.4446771
32	0x3dcd8056	0.10034244
33	0xbe408ac7	-0.1880294
34	0x3de9ce3d	0.1141629
35	0xbea49ea6	-0.3215229
36	0x3dd43a4d	0.103626825
37	0xbe6fcc2f	-0.23417734
38	0x3da9e8b9	0.082963414
39	0x3e288ea0	0.16460657
40	0x3d3662b6	0.04452773
41	0x3e183962	0.1486564
42	0xbe4ab09d	-0.19793935
43	0x3c8e0645	0.017336974
44	0xbd5aac72	-0.053387113
45	0xbec2aebc	-0.38023937
46	0x3ea4d887	0.32196447
47	0xbd3a2240	-0.04544282
48	0x3c1ff0ef	0.009762033
49	0x3e588c13	0.21147184
50	0x3ebeac01	0.37240604
51	0xbdae41f1	-0.08508671
52	0xbe9337f4	-0.28753626
53	0x3e377bae	0.17918274
54	0xbe490490	-0.19630647
55	0xbe67f937	-0.22653662
56	0x3e43e68c	0.19130915
57	0xbecf10e9	-0.4044259
58	0x3bab3d66	0.005225825
59	0x3ed9f4b9	0.4256952
60	0xbeb2435e	-0.34817022
61	0x3e29dbd9	0.16587771
62	0xbe4e2e38	-0.20134819
63	0x3e9a97cd	0.3019394
64	0x3d3fd243	0.04683138
65	0x3e611344	0.21980006
66	0xbe1825c3	-0.14858155
67	0xbe63a15c	-0.22229522
68	0xbec6d0f2	-0.38831288
69	0x3ec8def5	0.39232603
70	0x3d8002a4	0.06250504
71	0xbe5359e5	-0.20639761
72	0x3e6010a1	0.21881343
73	0x3d3ba592	0.045812197
74	0x3b64aa1e	0.0034891437
75	0x3e1ef027	0.15521298
76	0xbecd0783	-0.40044793
77	0xbbd44388	-0.006477777
78	0x3e8408ee	0.25788063
79	0xbd004ed2	-0.03132517
80	0x3c63f656	0.0139137115
81	0x3e354764	0.17703015
82	0xbedcbf86	-0.4311487
83	0x3c3a9aaa	0.011389414
84	0xbc0646ab	-0.0081955595
85	0x3eb685c1	0.3564892
86	0x3ed07a84	0.40718472
87	0xbcf28776	-0.029605608
88	0xbebddf8d	-0.37084618
89	0x3ed9061f	0.42387483
90	0xbdc0d0e8	-0.09414846
91	0xbeae65c7	-0.34062025
92	0xbe93e038	-0.28882003
93	0x3dfa7992	0.12230219
94	0xbd0fd09a	-0.035111047
95	0xbd809513	-0.06278434
96	0x3e550d5c	0.20805877
97	0xbeb272da	-0.3485325
98	0x3eba16d5	0.36345544
99	0xbe9b9cd2	-0.30393082
100	0x3ec6f6b1	0.38860086
101	0xbea7e9a0	-0.3279543
102	0x3eb3b749	0.35100773
103	0xbda4d281	-0.08047963
104	0xbeb77ffe	-0.35839838
105	0xbe296c57	-0.16545235
106	0x3e0dc98e	0.13846418
107	0x3c5b544f	0.0133868
108	0x3ed38693	0.4131361
109	0x3ea4b767	0.32171175
110	0x3ea495a9	0.32145432
111	0xbea8ad38	-0.32944655
112	0x3e294b2f	0.16532587
113	0x3dcbf9a7	0.09959727
114	0x3d6796b9	0.056540225
115	0xbded6196	-0.11590879
116	0x3e8e6429	0.2781079
117	0xbeb7a52b	-0.358682
118	0xbecab81d	-0.39593592
119	0x3e97fc5b	0.2968472
120	0x3eb030f1	0.3441234
121	0xbbd0cedb	-0.0063723153
122	0xbe538100	-0.20654678
123	0x3eaa2f87	0.33239385
124	0x3eb77ed5	0.35838953
125	0x3ddd16b9	0.1079535
126	0x3deeb4be	0.116555676
127	0xbedc1701	-0.429863
128	0x3e8fe8c8	0.28107285
129	0xbeb60a01	-0.35554507
130	0x3e4132bc	0.1886701
131	0x3e8ff983	0.2812005
132	0x3daa9af4	0.08330336
133	0x3ecbf395	0.39834276
134	0xbd9bb57d	-0.076029755
135	0xbdcfa01c	-0.1013796
136	0x3e9544ed	0.2915415
137	0x3ed11a19	0.40840223
138	0x3e4f05e3	0.2021709
139	0x3e331e4b	0.17492025
140	0xbca667b2	-0.020313118
141	0x3ea3f1ac	0.32020319
142	0xbeba04b0	-0.363317
143	0x3e915db0	0.2839179
144	0x3e240431	0.16017224
145	0xbeae62c8	-0.3405974
146	0x3e8e899a	0.27839357
147	0xbddeb623	-0.108745836
148	0xbce653b4	-0.028116085
149	0xbede3f29	-0.43407562
150	0xbe7a8615	-0.2446521
151	0xbd785304	-0.060626045
152	0xbda0c6e2	-0.07850434
153	0x3ec2db43	0.38057908
154	0xbe13c5b3	-0.14430885
155	0xbe12ec73	-0.1434801
156	0x3ea3c05c	0.31982696
157	0x3eb1ff44	0.34765065
158	0xbe25c4d9	-0.16188373
159	0x3d826ab9	0.06368012
160	0x3e14bbd7	0.1452478
161	0x3ca5055b	0.020144155
162	0xbe4e7be7	-0.20164452
163	0xbce367f0	-0.027759522
164	0xbe0e32d6	-0.1388658
165	0x3e8654ad	0.26236477
166	0x3db2835f	0.08716463
167	0xbede2b12	-0.43392235
168	0xbe480a77	-0.19535242
169	0xbda093c8	-0.07840687
170	0xbea58b82	-0.32333
171	0x3e901f87	0.28149053
172	0x3ea00739	0.3125551
173	0x3ed83b24	0.4223262
174	0xbe6d442a	-0.23170534
175	0xbe34d5d1	-0.1765969
176	0xbd6cd810	-0.05782324
177	0xbd906e3d	-0.07052276
178	0xbddb5945	-0.10710386
179	0x3dab58b4	0.08366528
180	0x3e8e92df	0.2784643
181	0x3b79fece	0.003814626
182	0xbe6e0380	-0.23243523
183	0xbebf6656	-0.37382764
184	0x3cd575cf	0.026057152
185	0x3ea1b91d	0.31586543
186	0xbce19e26	-0.027541231
187	0x3e58408d	0.21118374
188	0xbd8a65c8	-0.067576945
189	0xbe5b0223	-0.21387534
190	0x3e84e984	0.25959408
191	0x3e838c23	0.25692853
192	0x3e8fbf05	0.28075424
193	0x3d916b3b	0.07100531
194	0xbe3083e6	-0.17237815
195	0xbe474aba	-0.194621
196	0x3d830413	0.063972615
197	0xbeaf4cad	-0.34238186
198	0x3e80edda	0.25181466
199	0xbda8c303	-0.082403205
200	0xbb97f971	-0.00463789
201	0x3e87b5a6	0.26505774
202	0xbecc303e	-0.39880556
203	0xbe358235	-0.17725451
204	0xbeac12ce	-0.33608097
205	0x3e89b438	0.26895308
206	0x3e9880e0	0.29785824
207	0x3e64bcbf	0.22337626
208	0xbd2ccfee	-0.042190485
209	0xbedc8ccd	-0.43076172
210	0xbe0593b4	-0.13044626
211	0xbe8f72c9	-0.28017262
212	0xbed67bee	-0.41891426
213	0x3e71d289	0.23615469
214	0x3d9fac9c	0.077965945
215	0x3d03f2b3	0.032213878
216	0x3eceacf2	0.40366322
217	0x3bcfdf2a	0.006343742
218	0x3e126369	0.14295734
219	0xbce5b575	-0.028040627
220	0xbeb5e6bf	-0.35527608
221	0xbdfef0d6	-0.124482796
222	0x3d7abb46	0.061213754
223	0x3ead4ca1	0.33847526
224	0x3e5cf29b	0.21576922
225	0x3eba0222	0.36329752
226	0xbe498314	-0.19678909
227	0xbd67d044	-0.056595102
228	0xbcb09aa3	-0.021558112
229	0x3eb83200	0.35975647
230	0xbe8982e9	-0.2685769
231	0xbe845305	-0.2584459
232	0xbde419fe	-0.1113777
233	0xbeb4cc9f	-0.35312364
234	0x3dc39024	0.09548977
235	0xbed57c50	-0.41696405
236	0xbee66728	-0.45000577
237	0xbeb62305	-0.35573593
238	0x3dfe75ed	0.12424836
239	0xbea403f1	-0.32034257
240	0x3eb0d0bc	0.34534252
241	0xbecc8330	-0.39943838
242	0x3e0e7241	0.13910772
243	0xbeb5d2aa	-0.35512286
244	0x3dcf801e	0.10131858
245	0x3dbcf31b	0.09226056
246	0x3e7f099e	0.24906012
247	0xbb377afe	-0.0027996893
248	0xbe81128d	-0.25209466
249	0xbe759b4c	-0.23985022
250	0x3ecbb8cc	0.39789426
251	0x3c326897	0.010889194
252	0xbe98811d	-0.29786006
253	0x3ecc75ec	0.39933717
254	0x3ebc3a8d	0.3676342
255	0xbea0f8ee	-0.31439918

net.0.bias f4 [64]
0	0xbecc0b70	-0.39852476
1	0x3e1269ef	0.14298223
2	0xbe069ce2	-0.13145784
3	0xbe6963c2	-0.22791961
4	0xbcd85823	-0.026409214
5	0xbeacfbbe	-0.33785814
6	0xbe485f65	-0.1956764
7	0x3eae6146	0.3405859
8	0x3e08a0cd	0.1334259
9	0xbe87c6c1	-0.26518825
10	0xbd7319e9	-0.05935088
11	0x3ec4203b	0.3830584
12	0x3e2674ca	0.16255489
13	0xbe24ced4	-0.16094524
14	0x3c06c518	0.008225702
15	0x3d4c0974	0.049813703
16	0xbeaac619	-0.33354262
17	0x3d106f8c	0.03526263
18	0x3e0dd20d	0.1384966
19	0x3d2cc431	0.04217929
20	0x3e2c23c1	0.16810514
21	0x3dc0c1ce	0.09411965
22	0xbe0c5436	-0.13703999
23	0xbe4e92e9	-0.2017323
24	0x3ecbb74e	0.39788288
25	0x3eceef00	0.40416718
26	0x3e0134ef	0.12617849
27	0x3d7839d5	0.060602028
28	0xbe9d7f2a	-0.3076108
29	0xbdceafdb	-0.100921355
30	0x3e6789ef	0.22611211
31	0xbdc7bc3b	-0.09752699
32	0xbeb73040	-0.35779
33	0xbe4c890b	-0.19974153
34	0xbd5a8d4e	-0.053357415
35	0xbe9eec1f	-0.3103952
36	0x3e9cef8b	0.30651507
37	0xbe3b87a5	-0.18313463
38	0xbe9a1f69	-0.3010209
39	0x3d59f973	0.05321641
40	0x3d921aa6	0.07133989
41	0xbc91f044	-0.017814763
42	0xbd5eb0be	-0.054367773
43	0x3ddf8005	0.1091309
44	0xbdd492e1	-0.103795774
45	0xb98f8e77	-0.0002738123
46	0x3e579207	0.21051799
47	0xbd86d3f3	-0.06583395
48	0x3b8f83be	0.0043797186
49	0xbe2cf6cb	-0.16891019
50	0x3de85411	0.113441594
51	0xbeb1bcae	-0.34714264
52	0xbe31cf40	-0.17364216
53	0x3eaa75fb	0.33293137
54	0xbddd8cb0	-0.1081785
55	0xbe414f76	-0.18877968
56	0x3e92ca40	0.2866993
57	0x3e8a830c	0.27053106
58	0x3ed560db	0.41675457
59	0xbdbc61d9	-0.091983505
60	0xbd0fa7a3	-0.03507198
61	0x3e40cb01	0.1882744
62	0xbe918904	-0.28424847
63	0xbe9aa2da	-0.3020237

net.1.weight f4 [64]
0	0x3f83aaae	1.0286462
1	0x3f79c545	0.97566634
2	0x3f7a3c06	0.9774784
3	0x3f79d6b9	0.97593266
4	0x3f7ae0f8	0.97999525
5	0x3f839098	1.0278502
6	0x3f8375fa	1.0270379
7	0x3f83ac9f	1.0287055
8	0x3f82d61a	1.0221589
9	0x3f79f9a3	0.9764654
10	0x3f7a17c1	0.97692496
11	0x3f83a080	1.0283356
12	0x3f83add5	1.0287424
13	0x3f838d7e	1.0277555
14	0x3f796a92	0.9742824
15	0x3f83d5a6	1.0299575
16	0x3f795a0c	0.97403026
17	0x3f838422	1.0274699
18	0x3f79e363	0.9761259
19	0x3f8100c3	1.0078357
20	0x3f79ba19	0.9754959
21	0x3f7a0732	0.9766723
22	0x3f83bbf3	1.0291733
23	0x3f7c13f8	0.9846797
24	0x3f7903f9	0.97271687
25	0x3f7b6a60	0.9820919
26	0x3f79a474	0.9751656
27	0x3f827d5b	1.0194505
28	0x3f837e81	1.0272981
29	0x3f836528	1.0265245
30	0x3f83d572	1.0299513
31	0x3f8263fa	1.018676
32	0x3f8373e0	1.0269737
33	0x3f79bfc4	0.97558236
34	0x3f83b2fd	1.0288998
35	0x3f7999f7	0.97500557
36	0x3f838433	1.0274719
37	0x3f799b06	0.9750217
38	0x3f83b3fd	1.0289303
39	0x3f79c6ab	0.9756877
40	0x3f7b8434	0.982486
41	0x3f83a523	1.0284771
42	0x3f83a5a2	1.0284922
43	0x3f83acd8	1.0287123
44	0x3f79cb38	0.9757571
45	0x3f83527c	1.0259547
46	0x3f83adfd	1.0287472
47	0x3f794f88	0.9738698
48	0x3f836395	1.0264765
49	0x3f825d4e	1.0184724
50	0x3f7946ce	0.97373664
51	0x3f7af562	0.98030674
52	0x3f83a4f3	1.0284714
53	0x3f79ac0b	0.9752814
54	0x3f836e12	1.0267966
55	0x3f83def1	1.0302411
56	0x3f7ac60f	0.97958463
57	0x3f837328	1.0269518
58	0x3f79976b	0.9749667
59	0x3f83b395	1.0289179
60	0x3f7972ec	0.9744098
61	0x3f7988f8	0.9747462
62	0x3f798a2d	0.97476465
63	0x3f83a526	1.0284774

net.1.bias f4 [64]
0	0x3ce4ec2e	0.02794465
1	0xbcc33b95	-0.023832122
2	0xbcc320ab	-0.023819288
3	0xbcd31d49	-0.0257708
4	0xbcb95fab	-0.022628626
5	0x3cec2855	0.028827826
6	0x3cdea7ff	0.027179716
7	0x3cf60793	0.030032909
8	0xbb9d2979	-0.0047962037
9	0xbcccb3dc	-0.024988107
10	0xbccc2da4	-0.024924107
11	0x3ce6ba0e	0.02816489
12	0x3ce84cc1	0.028356912
13	0x3ce23ca6	0.02761681
14	0xbcd8bcc9	-0.026457207
15	0x3ced1c5a	0.028944183
16	0xbccf3a0c	-0.025296234
17	0x3cf42573	0.029803013
18	0xbcce66b1	-0.025195451
19	0x3b1fd91c	0.0024390882
20	0xbccc90bd	-0.02497136
21	0xbcd6aa9a	-0.026204396
22	0x3ce1bfd3	0.02755729
23	0xbc8d730b	-0.01726677
24	0xbcd27155	-0.025688807
25	0xbcbe8894	-0.023258485
26	0xbccf6b0e	-0.025319602
27	0x3ce7e12a	0.028305609
28	0x3ce344ec	0.027742825
29	0x3cdbf176	0.026848536
30	0x3ced1af7	0.028943522
31	0x3cf8223f	0.030289767
32	0x3ce08cb8	0.02741085
33	0xbcd0a326	-0.02546842
34	0x3cee043d	0.029054755
35	0xbccae61c	-0.024767928
36	0x3cde0e6b	0.027106484
37	0xbcda1d50	-0.026625305
38	0x3cf41b23	0.029798096
39	0xbcc398d6	-0.023876589
40	0xbc795aa8	-0.015219368
41	0x3cdaa660	0.026690662
42	0x3ce1907d	0.027534718
43	0x3ce7277f	0.028217075
44	0xbccbb332	-0.02486572
45	0x3cfca8bf	0.030842183
46	0x3ce0c878	0.027439341
47	0xbcdbc81b	-0.026828816
48	0x3cdcad66	0.026938152
49	0x3cb2af32	0.021812055
50	0xbcd2afa2	-0.025718514
51	0xbc631efd	-0.013862369
52	0x3ce044c4	0.02737654
53	0xbcd4321c	-0.0259028
54	0x3ce4e9ee	0.027943578
55	0x3cfa237a	0.030534495
56	0xbc50b7e7	-0.012739158
57	0x3cdc576d	0.026897157
58	0xbcd0d9f0	-0.025494546
59	0x3ce85418	0.028360412
60	0xbcd5cde2	-0.02609915
61	0xbcd340b8	-0.025787696
62	0xbcd3ec53	-0.025869524
63	0x3ce204dd	0.02759021

net.1.running_mean f4 [64]
0	0xbee323dc	-0.44363296
1	0x3e0efff7	0.1396483
2	0xbee4fd7b	-0.4472464
3	0x3dcfcc34	0.101463705
4	0x3d23ed6c	0.040021345
5	0x3ec04031	0.37548974
6	0xbe40875c	-0.18801636
7	0xbd0e8bbb	-0.034801226
8	0x3ddecda7	0.10879069
9	0xbeb81937	-0.35956737
10	0xbe03e53a	-0.12880412
11	0xbea49bbf	-0.32150075
12	0x3e8e4649	0.27787998
13	0xbf117cf4	-0.5683129
14	0xbce86664	-0.028369136
15	0xbe99b520	-0.30021
16	0xbe14ffd6	-0.14550719
17	0xbe4da9d2	-0.20084313
18	0xbe54ded9	-0.20788135
19	0x3e124d3f	0.1428728
20	0x3ea90575	0.33011976
21	0xbe4624f5	-0.19350035
22	0xbe1b7d39	-0.15184487
23	0xbe73b897	-0.23800884
24	0xbdd43515	-0.10361687
25	0x3eb2a3a3	0.3489047
26	0x3e4f1ce1	0.2022586
27	0xbd6a9f29	-0.057280693
28	0xbe3fe6a2	-0.18740323
29	0x3eea504e	0.45764393
30	0x3defe1e6	0.117130086
31	0x3eebf17d	0.46082678
32	0xbeaf632e	-0.34255356
33	0xbe426306	-0.18983087
34	0x3e227458	0.15864694
35	0xbe63fef8	-0.22265232
36	0x3c5d9d70	0.013526306
37	0x3c5c1f81	0.0134352455
38	0xbc9f3a8e	-0.0194371
39	0xbe2c8fe1	-0.1685176
40	0x3e48c2d8	0.19605577
41	0x3f30450b	0.6885535
42	0xbe49668e	-0.19668028
43	0x3d99cb65	0.075094976
44	0xbdf0f8a5	-0.11766175
45	0xbe47b2fb	-0.1950187
46	0xbc421644	-0.011846129
47	0x3d8f345a	0.06992407
48	0xbec50396	-0.38479298
49	0x3e88ceb8	0.26720214
50	0xbe68201c	-0.22668499
51	0xbee1483a	-0.44000417
52	0x3e800195	0.25001207
53	0x3eba0fcb	0.36340174
54	0xbe6e2706	-0.23257074
55	0xbdad1310	-0.084509015
56	0x3ec15955	0.37763467
57	0x3e52497e	0.20535848
58	0x3e82e055	0.25561777
59	0x3e36f529	0.17866959
60	0x3e4ec7ba	0.20193377
61	0x3eeb5c6f	0.4596896
62	0xbec85abd	-0.39131728
63	0xbea9a1ed	-0.33131352

net.1.running_var f4 [64]
0	0x3eb4d5ed	0.35319462
1	0x3e6af03b	0.22943203
2	0x3f0dd971	0.55409914
3	0x3f41aa33	0.7565033
4	0x3e0b0826	0.13577327
5	0x3f0e74e5	0.55647117
6	0x3f0100f2	0.5039207
7	0x3ec00a11	0.3750768
8	0x3df37b39	0.11888737
9	0x3e7a5d41	0.24449636
10	0x3e0f2aac	0.13981122
11	0x3f2c56be	0.6731986
12	0x3e47741f	0.1947789
13	0x3ee64d01	0.44980624
14	0x3e9d209d	0.30688944
15	0x3ee9a3bd	0.45632735
16	0x3ded32c4	0.115819484
17	0x3ec56675	0.3855473
18	0x3ee82e9e	0.45348066
19	0x3e16c177	0.14722238
20	0x3e8f93de	0.280425
21	0x3e810e2b	0.25206122
22	0x3e9ec008	0.31005883
23	0x3e45aade	0.19303462
24	0x3f14f84b	0.58191365
25	0x3e298ae1	0.16556884
26	0x3e3ee173	0.1864069
27	0x3e51d5a9	0.20491661
28	0x3ea4badc	0.32173812
29	0x3f3041cc	0.688504
30	0x3df89e1d	0.12139533
31	0x3f00adee	0.50265396
32	0x3d72d6b6	0.059286796
33	0x3e0411a4	0.12897354
34	0x3ef2894e	0.4737038
35	0x3d947b2c	0.07250056
36	0x3e2bda55	0.16782506
37	0x3e6fb1c8	0.23407662
38	0x3f09e7ea	0.538695
39	0x3e53e0b1	0.20691182
40	0x3f0b1a8c	0.5433738
41	0x3f8fa2fd	1.1221615
42	0x3f45b636	0.77231157
43	0x3e9f5a74	0.31123698
44	0x3ecc5dda	0.39915353
45	0x3f1a72ec	0.60331607
46	0x3e72808f	0.23681854
47	0x3ef486dc	0.4775914
48	0x3ea5c732	0.32378536
49	0x3f3d6d48	0.73994875
50	0x3f3fb27f	0.7488174
51	0x3ea122e4	0.31471932
52	0x3e3e5f96	0.1859115
53	0x3e174beb	0.14775054
54	0x3e81b90c	0.25336492
55	0x3e1e9053	0.15484743
56	0x3f0e099d	0.5548342
57	0x3e440c00	0.19145203
58	0x3e7552be	0.23957345
59	0x3e884493	0.26614818
60	0x3e39503c	0.18097013
61	0x3ebd7550	0.37003565
62	0x3e4ae29e	0.1981301
63	0x3eab3a4f	0.33442923

net.3.weight f4 [64, 64]
0	0x3dca60d6	0.09881751
1	0xbd73cfa7	-0.059524205
2	0xbdc847f2	-0.097793475
3	0xbd410b49	-0.047129903
4	0xbd5492f5	-0.05189796
5	0xbe0a812b	-0.13525836
6	0xbd0b922d	-0.03407495
7	0xbe0ac454	-0.13551456
8	0x3dbaa33f	0.09113168
9	0xbbe6e62d	-0.007046482
10	0xbdfa6b06	-0.12227444
11	0xbd8ecf4f	-0.06973135
12	0x3db35a25	0.08757428
13	0x3ccccb76	0.024999361
14	0x3bc7e058	0.006099742
15	0xbde8150f	-0.113321416
16	0xbd004354	-0.03131421
17	0x3dc8fef3	0.09814253
18	0x3d4b9374	0.04970117
19	0x3da62e64	0.08114317
20	0xbdf67563	-0.120341085
21	0xbdbd39eb	-0.092395626
22	0xbe0b76d5	-0.1361955
23	0x3d36e9b5	0.044656474
24	0xbb8659e1	-0.00410007
25	0xbd9d1dad	-0.07671676
26	0x3cc5c235	0.024140457
27	0xbd22f854	-0.039787605
28	0x3dc1b68d	0.09458647
29	0xbc6216c8	-0.013799377
30	0x3d54ff55	0.052001316
31	0x3d7aa1c9	0.061189447
32	0x3dcd7fac	0.10034117
33	0x3d946e25	0.07247571
34	0x3d8829b1	0.06648577
35	0x3db0a376	0.08624928
36	0x3aabbbf6	0.0013102281
37	0xbd5bb260	-0.05363691
38	0x3dadb0a2	0.08480956
39	0x3caad7ee	0.020854916
40	0xbd25f01b	-0.040512186
41	0x3dc1997b	0.09453102
42	0xbdfd4bcf	-0.12367975
43	0x3e022482	0.12709239
44	0xbd9c079c	-0.07618639
45	0x3dd1465a	0.102184966
46	0x3a8b35d5	0.0010620902
47	0xbba63f1e	-0.005073442
48	0x3d083fa8	0.033263832
49	0xbdb80d49	-0.08986909
50	0xbdda56c0	-0.106610775
51	0x3cda775f	0.026668249
52	0x3dbef9db	0.09325
53	0x3dbbe546	0.0917459
54	0xbd19c052	-0.037536927
55	0xbc9cbc4c	-0.019132756
56	0xbd4c431e	-0.049868695
57	0xbd7a3985	-0.06109001
58	0xbdce04d2	-0.10059513
59	0x3ce85544	0.02836097
60	0xbbf6ed49	-0.007535611
61	0xbdb1e7e7	-0.0868681
62	0xbde761b3	-0.112979315
63	0xbdd30db9	-0.10305352
64	0x3c767212	0.015041845
65	0x3db12348	0.086493075
66	0x3ca7bd4d	0.020476008
67	0xbd98a058	-0.07452458
68	0xbd32dc85	-0.043667335
69	0xbc3ea641	-0.011636318
70	0x3dbb2339	0.091375776
71	0x3b548b54	0.003243168
72	0x3da69325	0.08133534
73	0x3c9f0960	0.01941365
74	0x3cb67dce	0.022276785
75	0xbb29b64f	-0.0025896018
76	0xbda85eaf	-0.082211845
77	0x3cbacf64	0.02280397
78	0xbdbf045d	-0.09327004
79	0x3da920ad	0.082581855
80	0x3df209b7	0.11818259
81	0x3e030647	0.12795363
82	0xbc1ac012	-0.009445207
83	0xbd20fcd2	-0.03930361
84	0xbd92cf9a	-0.07168503
85	0xbc8a32c4	-0.01686991
86	0xbdfb5d7a	-0.122736886
87	0x3cdce0ab	0.026962599
88	0xbd396ccc	-0.045269772
89	0x3dd1c282	0.102421775
90	0x3c22e974	0.009943355
91	0xbdd46ed4	-0.10372701
92	0x3d831703	0.064008735
93	0xbd38fdd1	-0.045163933
94	0x3dcc04cf	0.09961855
95	0xbda3156d	-0.07963071
96	0x3c3780b7	0.011200122
97	0x3dba5850	0.090988755
98	0x3ba4c704	0.0050286073
99	0x3da33305	0.079687156
100	0x3da941f1	0.082645305
101	0x3d1a3781	0.03765059
102	0x3debe293	0.11517825
103	0x3db75523	0.089517854
104	0x3ac8e3eb	0.0015326714
105	0xbdb8325b	-0.089939795
106	0x3bbad421	0.0057015573
107	0xbc8b16e5	-0.01697869
108	0xbdff07fa	-0.12452693
109	0x3ddb053c	0.10694358
110	0xbc2ba349	-0.010475942
111	0xbc300023	-0.01074222
112	0xbdbeb740	-0.09312296
113	0xbd74d25c	-0.059770927
114	0x3db7fcbd	0.08983753
115	0xbd7d3a40	-0.06182313
116	0x3dbb63d7	0.09149902
117	0x3da55f2d	0.08074794
118	0xbe00674a	-0.12539402
119	0x3d2dea6c	0.04245989
120	0x3dad5fbf	0.08465528
121	0x3dcacdfe	0.09902571
122	0x3d6b454e	0.05743914
123	0xbcd95fb7	-0.026534898
124	0x3d9a367d	0.07529924
125	0xbd1d4f32	-0.038405605
126	0xbd2e1b07	-0.042506244
127	0xbdcab49b	-0.09897729
128	0xbd27838b	-0.040896934
129	0xbdbbc590	-0.091685414
130	0x3ba0247f	0.004887163
131	0x3df58485	0.11988167
132	0x3c9c2f02	0.019065384
133	0x3d302c7c	0.043011174
134	0xbdd65a6e	-0.10466467
135	0xbcc369d4	-0.023854174
136	0xbcc050b0	-0.023475975
137	0xbdb84bf9	-0.08998866
138	0x3d44951f	0.047993775
139	0xbe0e7a76	-0.13913903
140	0xbd976f12	-0.07394232
141	0xbd81313c	-0.06308219
142	0xbdc0c5e9	-0.09412748
143	0xbdf40ea0	-0.11916852
144	0xbcea8ce7	-0.02863164
145	0xbdad0def	-0.08449923
146	0xbc8b834d	-0.017030383
147	0x3d568396	0.052371584
148	0xbcd6b21d	-0.026207978
149	0x3c59bdb5	0.013289859
150	0xbdd3c533	-0.10340347
151	0xbd94c873	-0.07264795
152	0x3cf9cf8a	0.03049447
153	0xbcec83cb	-0.028871438
154	0x3cc2069d	0.023684794
155	0xbc559a59	-0.013037288
156	0xbd03f3b1	-0.032214824
157	0x3d2c8bf0	0.042125642
158	0xbd743115	-0.05961712
159	0x3d5f661b	0.054540735
160	0xbb0b36fb	-0.0021242488
161	0x3d6b39e2	0.05742825
162	0xbc8b2e30	-0.016989797
163	0xbc2660c4	-0.010154907
164	0xbdbe7e87	-0.09301477
165	0xbdc84b8d	-0.09780035
166	0xbda35590	-0.07975304
167	0x3d8060dc	0.062684745
168	0xbdd4009c	-0.10351679
169	0xbd967c66	-0.07347946
170	0xba44ad77	-0.0007502655
171	0xbd4b73a0	-0.049670815
172	0x3de6d7ca	0.11271627
173	0x3d831c52	0.06401886
174	0xbdedc2d6	-0.11609428
175	0x3ccbce0f	0.02487853
176	0xbdb21990	-0.08696282
177	0x3d04d57d	0.03243016
178	0x3d6cbcea	0.05779735
179	0x3c63d637	0.013906053
180	0x3c84b552	0.016199742
181	0xbd595aa1	-0.053064946
182	0x3ccad000	0.024757385
183	0xbd39656c	-0.04526274
184	0xbd7bbc82	-0.061459072
185	0x3c9fcdcc	0.019507311
186	0x3d115786	0.03548386
187	0x3b7c2bee	0.0038478333
188	0xbccaa587	-0.024737133
189	0x3c903cf8	0.017607197
190	0x3de0d8a0	0.10978818
191	0x3d2cb766	0.04216709
192	0xbc9ad6de	-0.018901285
193	0xbd1e0293	-0.038576674
194	0xbdbd1809	-0.092331
195	0x3dfe3e57	0.12414234
196	0xbd79a693	-0.060949873
197	0x3dd4b56d	0.10386167
198	0x3d8450da	0.06460734
199	0xbcf135b1	-0.029444547
200	0xbd8658df	-0.065599196
201	0xbdc440a8	-0.09582645
202	0x3d1945de	0.037420146
203	0xbc3802fa	-0.011231178
204	0xbd1fe9d2	-0.039041348
205	0xbc588d44	-0.013217274
206	0x3d516d2c	0.051129505
207	0xbdcfec7b	-0.10152527
208	0x3c377000	0.0111961365
209	0xbd508be7	-0.05091467
210	0xbd3999e2	-0.04531277
211	0xbddf2053	-0.10894837
212	0x3cc767d4	0.024341501
213	0xbddab6f6	-0.10679428
214	0xbd7cb6dd	-0.06169783
215	0x3de555fa	0.11198039
216	0x3d87fcc9	0.06640012
217	0xbdfd0797	-0.12354963
218	0xbdbcf549	-0.09226472
219	0xbdcc337e	-0.09970759
220	0xbd1bba03	-0.03801919
221	0x3de5afd2	0.11215176
222	0x3cc1473d	0.02359354
223	0xbd8627a7	-0.06550532
224	0xba35f8e5	-0.000694169
225	0xbdd24cee	-0.102685794
226	0x3dfcdaee	0.12346445
227	0xbc6363e4	-0.013878796
228	0x3e03293e	0.12808701
229	0xbd260f9a	-0.040542223
230	0xbd4fca07	-0.050729778
231	0x3db0717a	0.08615394
232	0xbc480afd	-0.012209651
233	0xbd4a12e7	-0.049334433
234	0x3dacb58c	0.08433065
235	0x3db25e57	0.087094
236	0xbe11d106	-0.14239892
237	0x3da1d055	0.07901064
238	0x3d82e2be	0.06390904
239	0x3d43154a	0.047627725
240	0xbdf22b40	-0.118246555
241	0xbda812ab	-0.08206686
242	0x3dd605b3	0.10450306
243	0x3de59337	0.1120972
244	0xbd6be76a	-0.05759374
245	0xbdb16083	-0.08660986
246	0x3ce88f20	0.02838856
247	0x3d8c06a0	0.06837201
248	0x3d3543c9	0.044254098
249	0x3dacac4b	0.084313
250	0x3ca77673	0.020442223
251	0x3db6942f	0.089149825
252	0xbd22814a	-0.03967408
253	0xbdfa41ab	-0.122195564
254	0x3d4b15c1	0.049581293
255	0x3d490c64	0.049084082

net.3.bias f4 [64]
0	0xbdb78481	-0.0896082
1	0x3cf5525a	0.029946495
2	0xbb236428	-0.0024931524
3	0x3d192dce	0.0373972
4	0x3c905107	0.017616762
5	0x3990a278	0.0002758687
6	0xbbce28b0	-0.0062914714
7	0x3a72fe28	0.00092694396
8	0xbd3b9e86	-0.045805477
9	0xbd4b4e45	-0.04963519
10	0xbd66375e	-0.056205146
11	0xb9f11950	-0.0004598596
12	0xbd256030	-0.040374935
13	0x3c3f495e	0.011675207
14	0x3daf01da	0.08545275
15	0x3b14038f	0.002258513
16	0xba84b987	-0.0010126092
17	0x390a8df8	0.00013213593
18	0x3a857a48	0.0010183537
19	0xbd9ffcab	-0.078118645
20	0x3935c3c2	0.0001733443
21	0xbdbd5e97	-0.09246557
22	0x3d503dd7	0.050840225
23	0xbaea91e1	-0.0017896259
24	0x3a0f5b8d	0.0005468659
25	0x3cea4bcf	0.028600601
26	0x3ca5e27b	0.020249596
27	0x3cbaa3c0	0.02278316
28	0xbd3ea579	-0.046544526
29	0xbd071a31	-0.032983962
30	0x3d1af70e	0.037833266
31	0x3db267d0	0.08711207
32	0xbd7d0c08	-0.061779052
33	0x3acb6e05	0.0015520459
34	0x3db02faa	0.08602841
35	0xbd8ba341	-0.068182476
36	0xbdab7845	-0.08372549
37	0xbda92cab	-0.08260473
38	0x3dbc5ebd	0.091977574
39	0xbd841877	-0.06449979
40	0x3db42de2	0.08797814
41	0x3d478e45	0.048719663
42	0x3d9bbb90	0.07604134
43	0x3dadf1ff	0.08493423
44	0x3d9cca89	0.07655818
45	0x3d31082d	0.043220688
46	0xbcba8728	-0.022769526
47	0x3d5c9f8c	0.053863093
48	0x3d873477	0.06601804
49	0x3b841a9d	0.004031493
50	0xb85dc36f	-5.2872518e-05
51	0xbc446018	-0.011985801
52	0x386cd39a	5.6463854e-05
53	0xbbd2c73b	-0.0064324415
54	0xbc5741de	-0.013138263
55	0xbcbe360f	-0.023219137
56	0x398468a3	0.00025254962
57	0x3d437d3a	0.047726847
58	0xbbd59678	-0.0065181814
59	0xbcb7c072	-0.022430632
60	0x3d7b7ca9	0.061398182
61	0xbd3ce95e	-0.046120994
62	0x3b9bad78	0.0047509037
63	0xbd16a257	-0.036775913

net.4.weight f4 [64]
0	0x3f83aaae	1.0286462
1	0x3f79c545	0.97566634
2	0x3f7a3c06	0.9774784
3	0x3f79d6b9	0.97593266
4	0x3f7ae0f8	0.97999525
5	0x3f839098	1.0278502
6	0x3f8375fa	1.0270379
7	0x3f83ac9f	1.0287055
8	0x3f82d61a	1.0221589
9	0x3f79f9a3	0.9764654
10	0x3f7a17c1	0.97692496
11	0x3f83a080	1.0283356
12	0x3f83add5	1.0287424
13	0x3f838d7e	1.0277555
14	0x3f796a92	0.9742824
15	0x3f83d5a6	1.0299575
16	0x3f795a0c	0.97403026
17	0x3f838422	1.0274699
18	0x3f79e363	0.9761259
19	0x3f8100c3	1.0078357
20	0x3f79ba19	0.9754959
21	0x3f7a0732	0.9766723
22	0x3f83bbf3	1.0291733
23	0x3f7c13f8	0.9846797
24	0x3f7903f9	0.97271687
25	0x3f7b6a60	0.9820919
26	0x3f79a474	0.9751656
27	0x3f827d5b	1.0194505
28	0x3f837e81	1.0272981
29	0x3f836528	1.0265245
30	0x3f83d572	1.0299513
31	0x3f8263fa	1.018676
32	0x3f8373e0	1.0269737
33	0x3f79bfc4	0.97558236
34	0x3f83b2fd	1.0288998
35	0x3f7999f7	0.97500557
36	0x3f838433	1.0274719
37	0x3f799b06	0.9750217
38	0x3f83b3fd	1.0289303
39	0x3f79c6ab	0.9756877
40	0x3f7b8434	0.982486
41	0x3f83a523	1.0284771
42	0x3f83a5a2	1.0284922
43	0x3f83acd8	1.0287123
44	0x3f79cb38	0.9757571
45	0x3f83527c	1.0259547
46	0x3f83adfd	1.0287472
47	0x3f794f88	0.9738698
48	0x3f836395	1.0264765
49	0x3f825d4e	1.0184724
50	0x3f7946ce	0.97373664
51	0x3f7af562	0.98030674
52	0x3f83a4f3	1.0284714
53	0x3f79ac0b	0.9752814
54	0x3f836e12	1.0267966
55	0x3f83def1	1.0302411
56	0x3f7ac60f	0.97958463
57	0x3f837328	1.0269518
58	0x3f79976b	0.9749667
59	0x3f83b395	1.0289179
60	0x3f7972ec	0.9744098
61	0x3f7988f8	0.9747462
62	0x3f798a2d	0.97476465
63	0x3f83a526	1.0284774
