FarconVAE/result_adult/adult_downstream_s_2023_05_01_22_01_45_274003_ours.pth.pt (torch, 26372 bytes, 21 tensors)

fc1.weight f4 [64, 15]
0	0xbe0c98b2	-0.13730124
1	0xbd4456f8	-0.047934502
2	0x3bd19342	0.0063957283
3	0xbe468244	-0.1938563
4	0xbcee2969	-0.02907248
5	0x3e744ab3	0.2385662
6	0x3e337d43	0.17528252
7	0x3e7b0a74	0.24515706
8	0x3e00562b	0.1253287
9	0xbe2559ae	-0.16147491
10	0xbe433f56	-0.1906713
11	0x3e65457a	0.22389784
12	0xbe140f24	-0.144589
13	0x3dc1b163	0.09457662
14	0x3dd07da9	0.10180218
15	0x3e551066	0.20807037
16	0xbe01708f	-0.12640594
17	0xbe1ef60a	-0.15523544
18	0xbde1d338	-0.11026615
19	0xbdbd52ae	-0.092442855
20	0xbdc0b4d9	-0.09409494
21	0x3cafe804	0.021472938
22	0x3e64bab7	0.22336851
23	0xbde108a0	-0.10987973
24	0x3df71d90	0.120661855
25	0xbe65759c	-0.22408146
26	0xbe921958	-0.2853496
27	0x3e43c94c	0.19119757
28	0x3c39c7e4	0.011339162
29	0xbe84c8e2	-0.2593451
30	0x3e710528	0.23537123
31	0x3d167e74	0.03674169
32	0x3dfff601	0.124980934
33	0xbe126d40	-0.14299488
34	0x3dc27b1c	0.094961375
35	0x3ba4ab14	0.005025277
36	0x3de9ecdd	0.11422131
37	0x3cfcd239	0.03086196
38	0x3e7e442c	0.24830693
39	0xbdf1f757	-0.118147545
40	0xbd4ac5e4	-0.04950513
41	0xbdb560de	-0.088563666
42	0xbde5a34b	-0.11212786
43	0xbe3a5766	-0.18197402
44	0xbe6fdfd2	-0.23425224
45	0x3cceaa6d	0.02522775
46	0xbd3e5cc8	-0.0464752
47	0x3d7aecc5	0.061260957
48	0x3e5555b5	0.20833476
49	0xbddfad67	-0.10921746
50	0xbc2a1873	-0.010381806
51	0xbe18ba71	-0.14914872
52	0xbdf870e5	-0.12130908
53	0x3e03225a	0.12806073
54	0xbe13ec21	-0.14445545
55	0xbe6bc71a	-0.2302517
56	0xbdc0e1a1	-0.09418035
57	0xbdd48798	-0.10377425
58	0x3d4a629e	0.049410455
59	0xbe4630b1	-0.19354512
60	0x3e622947	0.22086059
61	0xbe36cdf0	-0.17851996
62	0x3d737f2a	0.059447445
63	0x3e619b51	0.22031905
64	0x3d931657	0.07181995
65	0x3e7ed939	0.24887551
66	0xbdb665ba	-0.089061216
67	0xbd9582eb	-0.07300361
68	0xbc41ce26	-0.011828935
69	0xbe88cc96	-0.26718587
70	0x3e4d3508	0.20039761
71	0x3d09afb5	0.033614833
72	0x3e3c09c4	0.183631
73	0x3bbe7947	0.005812797
74	0xbe317f73	-0.17333774
75	0x3cb13683	0.021632439
76	0xbe2f5733	-0.17123108
77	0x3e65badf	0.22434567
78	0xbe03f5d5	-0.12886746
79	0xbdef85ec	-0.116954654
80	0x3e332519	0.1749462
81	0x3d0dc970	0.034615934
82	0xbe8458d7	-0.2584903
83	0xbe66f1c1	-0.2255316
84	0x3c351e82	0.011054637
85	0xbe4626c3	-0.19350724
86	0x3d936628	0.07197219
87	0x3ded5bbb	0.11589762
88	0xbe37bbe4	-0.17942768
89	0xbe55c8fa	-0.20877448
90	0xbe0135a2	-0.12618116
91	0xbe202a97	-0.15641247
92	0x3e5f8a14	0.21830016
93	0x3ca21e5f	0.019789873
94	0x3e754c19	0.2395481
95	0x3e0b6c97	0.13615642
96	0xbb6e9f32	-0.0036410806
97	0xbe5270de	-0.20550868
98	0x3e48da65	0.19614561
99	0x3e13922b	0.14411227
100	0x3e83b29c	0.25722206
101	0x3e01d82e	0.12680122
102	0xbdb08e3a	-0.086208776
103	0x3e27cf7d	0.16387744
104	0x3e1e32b7	0.15449034
105	0x3c0308f0	0.007997736
106	0xbe2e6112	-0.17029217
107	0x3daee5f9	0.085399576
108	0xbe57c198	-0.21069944
109	0xbd5b00b3	-0.053467464
110	0xbd19c119	-0.037537668
111	0x3e5c9079	0.21539487
112	0xbe3479d7	-0.17624603
113	0xbe378edc	-0.1792559
114	0x3e163245	0.14667614
115	0xbe8328b5	-0.25616995
116	0x3c0150f9	0.007892841
117	0x3d1d93ee	0.038471155
118	0xbe8da7c8	-0.2766707
119	0xbe65e7f3	-0.22451763
120	0x3e1f5bbb	0.15562336
121	0x3e1ca367	0.15296708
122	0x3e2b5a0e	0.16733572
123	0xbddff048	-0.10934502
124	0xbe07805a	-0.13232556
125	0x3e26aa92	0.16276005
126	0x3db92844	0.09040883
127	0xbdf24c77	-0.11830991
128	0xbe4406e3	-0.19143252
129	0x3d8c0142	0.068361774
130	0x3e3a333c	0.18183607
131	0x3e944711	0.2896047
132	0xbe1c11e1	-0.15241195
133	0xbe3e3767	-0.18575822
134	0x3dba12dd	0.09085629
135	0x3d3d25aa	0.046178497
136	0x3ddbfbec	0.1074141
137	0xbdd7f51e	-0.10544799
138	0xbb3a6609	-0.0028442165
139	0xbe3c0ce1	-0.18364288
140	0x3df00849	0.1172033
141	0xbe026d0d	-0.12736912
142	0x3e055c96	0.130236
143	0xbe559bfe	-0.20860288
144	0xbdf56c16	-0.119835064
145	0x3e76833a	0.24073496
146	0x3c5872b3	0.01321094
147	0xbd26e778	-0.04074809
148	0xbe0b7ae5	-0.136211
149	0xbe6bbd97	-0.23021542
150	0x3c93dfce	0.018051054
151	0x3dbb7ab1	0.09154261
152	0xbd18f75c	-0.037345275
153	0x3cb8dfc3	0.022567635
154	0xbd7342d9	-0.059389923
155	0x3e0d6b1c	0.1381039
156	0xbd2d8394	-0.04236181
157	0x3d6ee42a	0.058323063
158	0xbe7a27f5	-0.24429305
159	0x3e34104f	0.17584346
160	0x3da3aff7	0.07992547
161	0xbe3db680	-0.1852665
162	0x3e7451f0	0.23859382
163	0xbe23a59b	-0.15981142
164	0x3ce9cf71	0.028541299
165	0xbdebe202	-0.11517717
166	0x3e25de4a	0.16198078
167	0x3e2b653b	0.16737835
168	0xbe459998	-0.19296873
169	0x3d815bab	0.063163124
170	0x3bc5e251	0.006038942
171	0xbd0b4ed0	-0.03401071
172	0xbddead71	-0.10872925
173	0xbe5db774	-0.21652013
174	0xbe04423c	-0.12915891
175	0xbd264042	-0.040588625
176	0x3b486116	0.0030575446
177	0x3e4d31d8	0.20038545
178	0x3e138b75	0.14408667
179	0xbdfa6b10	-0.12227452
180	0xbdcf6f89	-0.101286955
181	0xbd803b13	-0.062612675
182	0xbe8bf4b0	-0.2733512
183	0xbdf79877	-0.12089627
184	0x3d6395b4	0.05556269
185	0x3da7906a	0.08181842
186	0xbdf6642e	-0.120308265
187	0xbe2b6112	-0.16736248
188	0xbe00d61a	-0.12581673
189	0x3e3a904d	0.18219109
190	0xbe143e5f	-0.14476918
191	0x3dd3f7ae	0.103499755
192	0xbe12e8c6	-0.14346609
193	0xbe021cc5	-0.12706287
194	0xbe0cd55c	-0.13753265
195	0x3e289d3b	0.16466229
196	0xbd0ba27a	-0.034090497
197	0xbcec329a	-0.028832722
198	0xbc8d6ca5	-0.01726372
199	0x3df8267b	0.121167146
200	0x3c128e01	0.008944989
201	0xbe0a0061	-0.13476707
202	0xbda7c640	-0.0819211
203	0xbe89e28f	-0.26930663
204	0xbcd9a971	-0.026570054
205	0x3e8846e5	0.26616588
206	0x3e14c296	0.14527354
207	0x3d03cb92	0.03217656
208	0xbda92100	-0.082582474
209	0x3df684d2	0.12037052
210	0xbd924432	-0.071419135
211	0x3bb6d25e	0.005579277
212	0x3d4f23ac	0.05057113
213	0xbc944f48	-0.01810421
214	0xbc33c626	-0.010972535
215	0x3dc9d976	0.098559305
216	0x3e8c9be2	0.2746268
217	0x3e70e50e	0.23524877
218	0x3e3a18da	0.18173543
219	0x3ca94258	0.020661518
220	0xbe1ad745	-0.15121181
221	0x3e29fa4a	0.16599384
222	0xbd582729	-0.05277172
223	0xbdac3b49	-0.08409745
224	0xbe3f2022	-0.18664601
225	0x3cf07155	0.029350916
226	0x3e06121a	0.13092843
227	0x3e0d4216	0.13794741
228	0xbdc55593	-0.096354626
229	0xbe576c45	-0.21037395
230	0xbe2da44f	-0.1695721
231	0x3e5b3941	0.2140856
232	0xbcb2977c	-0.021800749
233	0x3dbe33b4	0.09287205
234	0xbe16418a	-0.14673439
235	0x3e07d705	0.13265617
236	0x3d84667a	0.06464858
237	0x3e29f084	0.16595656
238	0xbdc852ce	-0.09781419
239	0xbe870122	-0.26368052
240	0x3b539504	0.0032284865
241	0x3e311c77	0.17296015
242	0x3d2f4e4c	0.04279928
243	0x3de9365d	0.11387322
244	0x3e16ef2b	0.14739673
245	0xbd6e401a	-0.0581666
246	0xbd816b67	-0.063193135
247	0x3e1c53d4	0.15266353
248	0xbded4ac4	-0.11586526
249	0x3c7d51db	0.01546141
250	0xbd669f9e	-0.056304567
251	0x3d8b587f	0.06803989
252	0x3e56d3a8	0.20979178
253	0x3e1077eb	0.14108245
254	0xbd2c62c0	-0.042086363
255	0xbb5a09b4	-0.0033269944

fc1.bias f4 [64]
0	0x3e4073c5	0.18794163
1	0xbd3fe99a	-0.04685364
2	0xbd2a1af3	-0.041529607
3	0x3d6732a8	0.056444794
4	0xbe06d67a	-0.13167754
5	0x3d073a5e	0.033014648
6	0xbded0187	-0.11572557
7	0x3d048159	0.032349918
8	0x3e0041ee	0.1252515
9	0xbd5c25d8	-0.053747028
10	0xbd8b3376	-0.06796925
11	0x3d7db5f1	0.06194109
12	0xbd0a37da	-0.03374467
13	0xbda83fb0	-0.082152724
14	0x3b8a29b1	0.004216396
15	0xbe18b9d7	-0.14914642
16	0xbde2f415	-0.11081711
17	0xbe3854d4	-0.1800111
18	0x3e36c576	0.17848763
19	0xbe4ac88a	-0.19803062
20	0xbdef2b61	-0.11678196
21	0x3c153c88	0.00910867
22	0x3ba631d1	0.0050718565
23	0x3d48e3d4	0.0490454
24	0x3bd7f1f5	0.006590123
25	0x3c7e39e7	0.015516735
26	0xbe019fc8	-0.12658608
27	0x3e2e17f6	0.17001328
28	0x3e2226d5	0.15835126
29	0xbc36dce2	-0.011161061
30	0xbe3aa051	-0.18225218
31	0x39c37a0e	0.00037284236
32	0x3e4d77f0	0.20065284
33	0x3e295806	0.16537485
34	0x3e3f1ebb	0.18664066
35	0xbd01cb62	-0.0316881
36	0x3ca89a7e	0.02058148
37	0xbd21b15a	-0.039475776
38	0xbdc2f8c2	-0.09520103
39	0xbc335231	-0.010944889
40	0x3d545277	0.051836457
41	0xbe2632c6	-0.16230306
42	0x3d543ba8	0.051814705
43	0xbe05660d	-0.1302721
44	0x3bcb429d	0.0062030093
45	0x3d0bbb34	0.034114078
46	0x3be20cc0	0.0068984926
47	0x3dbed683	0.093182586
48	0x3e522b0d	0.20524235
49	0xbc2a5c0a	-0.01039792
50	0xbe3fc57c	-0.18727678
51	0xbce180c7	-0.027527226
52	0x3d6b55eb	0.057454985
53	0x3e2d44bd	0.16920753
54	0x3bfb1731	0.0076626767
55	0xbdd45e36	-0.10369532
56	0xbe280174	-0.16406804
57	0xbe2546ac	-0.1614024
58	0x3d814c0c	0.06313333
59	0xbe4f95e7	-0.20272027
60	0x3e519360	0.20466375
61	0x3db8a65e	0.09016107
62	0x3ab8f70c	0.0014111712
63	0x3c3450a6	0.011005556

fc2.weight f4 [64, 64]
0	0xbce966a1	-0.02849132
1	0xbdca2c8c	-0.09871778
2	0x3c5622ec	0.013069849
3	0xbdf53165	-0.11972312
4	0x3c59cd76	0.013293615
5	0x3d1f63e1	0.03891361
6	0x3d970e5e	0.07375787
7	0xbdb2532c	-0.0870727
8	0x3d329784	0.043601528
9	0xbd9ae0da	-0.07562418
10	0xbd6312bb	-0.055437785
11	0x3dea512a	0.11441262
12	0xbd834a43	-0.06410649
13	0xbd8b8cf9	-0.06813998
14	0x3c220bf3	0.009890544
15	0x3bf220d7	0.0073891687
16	0xbd1b26db	-0.037878852
17	0xbd9f9c64	-0.07793501
18	0xbd45af26	-0.048262738
19	0x3cd63fb7	0.026153428
20	0x3b63da78	0.0034767669
21	0x3de2da57	0.11076801
22	0x3dd11435	0.10208932
23	0xbcd9ff31	-0.026610943
24	0xbcaf9f70	-0.02143833
25	0xbc2a2a5d	-0.010386077
26	0x3dcde094	0.100526005
27	0xbdd5e1c2	-0.104434505
28	0xbcee1209	-0.029061334
29	0xbca34469	-0.019930081
30	0xbc0edd76	-0.008719793
31	0x3d8ea5e3	0.06965234
32	0x3d3cff9c	0.046142206
33	0xbdcdc4c8	-0.10047299
34	0x3df497ed	0.1194304
35	0xbda6c0ed	-0.081422664
36	0x3d2d05ed	0.04224198
37	0xbde318f2	-0.11088742
38	0xbc16d610	-0.00920631
39	0x3d952dca	0.07284124
40	0xbda7be0e	-0.08190547
41	0xbd302f1a	-0.04301367
42	0xbdfb274a	-0.12263353
43	0x3d287e3d	0.041136015
44	0x3d872bb2	0.06600131
45	0xbd51fd87	-0.051267173
46	0x3d192de5	0.037397284
47	0xbddbd147	-0.10733276
48	0x3d0d30e4	0.034470454
49	0x3c987f87	0.018615497
50	0xbdc7d50c	-0.09757432
51	0xbd876aec	-0.066121906
52	0x3bc4f994	0.0060111973
53	0x3cbb1b81	0.022840263
54	0xbdc077bb	-0.09397837
55	0xbbd9ccda	-0.0066467347
56	0x3d957cd0	0.07299197
57	0x3bc0292c	0.005864283
58	0xbddf7faa	-0.10913022
59	0xbdb4891d	-0.08815215
60	0xbe08da79	-0.1336459
61	0xbcf6f1e6	-0.030144643
62	0xbd9c8597	-0.07642668
63	0xbdd96fa8	-0.10617
64	0xbcc75199	-0.024330901
65	0xbe15aaa9	-0.14615883
66	0x3d92f8fb	0.071763955
67	0x3d83ffc1	0.064452656
68	0xbd5f5cff	-0.054532047
69	0xbc821c91	-0.015882762
70	0xbd25d2b9	-0.040484164
71	0xbd9582ab	-0.073003136
72	0xbe261c80	-0.1622181
73	0x3d30e62a	0.04318825
74	0x3ce9ab04	0.02852393
75	0xbd931879	-0.07182402
76	0xbd409cf9	-0.0470247
77	0x3c4c184f	0.0124569675
78	0x3db46d54	0.08809915
79	0xbd5e5749	-0.05428246
80	0xbda66413	-0.081245564
81	0x3d5ecd91	0.054395262
82	0x3d6a7747	0.057242658
83	0xbdc7a3a6	-0.0974801
84	0x3d1fe654	0.039038017
85	0x3de2458d	0.11048422
86	0xbda5c6dc	-0.0809457
87	0xbc695f44	-0.0142439045
88	0xbd8de751	-0.06928886
89	0x3b540147	0.0032349394
90	0x3d4630f1	0.048386518
91	0xbd297215	-0.041368563
92	0x3cf47018	0.029838607
93	0x3da7f31c	0.08200666
94	0x3ca8a5cc	0.02058687
95	0xbdb3fc1e	-0.08788322
96	0xbd216312	-0.03940112
97	0xbe0fc999	-0.14041747
98	0xbe099ec9	-0.13439478
99	0xbe229d52	-0.15880325
100	0xbe158ce8	-0.14604533
101	0xbd1daf2a	-0.038497128
102	0xbd6d1684	-0.0578828
103	0x3da8ea0d	0.08247767
104	0x3c922ce0	0.017843664
105	0xbdaf91eb	-0.085727535
106	0xbc8d31e1	-0.017235698
107	0x3df2af66	0.11849861
108	0xbd984c2b	-0.07436403
109	0xbd8f53e8	-0.06998426
110	0xbdfb3ccc	-0.122674555
111	0xbd73c93e	-0.05951809
112	0xbdcf1a95	-0.10112492
113	0xbdc82860	-0.09773326
114	0x3da84df6	0.08217995
115	0xbe05a5c7	-0.1305152
116	0xbd9ba725	-0.0760024
117	0xbd48b11e	-0.048997037
118	0x3ce5d596	0.028055947
119	0xbd24ab5f	-0.040202495
120	0x3c91efa0	0.017814457
121	0x3e0f6789	0.1400434
122	0x3d833ffb	0.06408688
123	0xbe1556b3	-0.14583854
124	0xbd74b8da	-0.0597466
125	0x3cd11bcf	0.025525955
126	0xbd4b0ece	-0.049574666
127	0xbe13b889	-0.14425863
128	0x3d94dc1b	0.07268544
129	0xbd2b1d8e	-0.041776232
130	0xbd862f74	-0.0655202
131	0xbdea9738	-0.11454624
132	0xbdd9ccf2	-0.10634793
133	0xbd609471	-0.054829065
134	0xbddf3e48	-0.10900551
135	0xbbbb3ff1	-0.0057144095
136	0xbddedd54	-0.10882059
137	0x3a99fa63	0.0011747595
138	0x3da247a5	0.07923821
139	0xbdd8f9d9	-0.1059453
140	0xbe032ad1	-0.12809302
141	0x3d33ae54	0.043867424
142	0xbdc1d2fc	-0.0946407
143	0xbdd18159	-0.10229749
144	0xbda8df82	-0.08245756
145	0x3d4c5e46	0.049894594
146	0x3d526a93	0.05137117
147	0xbda51be8	-0.08061963
148	0x3e0c74fc	0.13716501
149	0xbd69ef96	-0.057113253
150	0x3d44092c	0.04786031
151	0x3dac68b7	0.0841841
152	0xbe07251c	-0.1319775
153	0x3d4d4519	0.050114725
154	0x3d8c9794	0.06864849
155	0xbd2a54a1	-0.041584615
156	0xbd9fa782	-0.077956215
157	0xbba62b2c	-0.0050710645
158	0x3ca4ef20	0.020133555
159	0x3db45aef	0.08806407
160	0x3de6f740	0.11277628
161	0xbbc42607	-0.0059859785
162	0x3d7c390d	0.061577845
163	0x3da3857e	0.07984446
164	0x3e0ae884	0.1356526
165	0xbd0e1149	-0.034684453
166	0xbdae0e16	-0.084987804
167	0x3d9ddd4f	0.07708227
168	0xbd9f92b0	-0.0779165
169	0x3d6cc3b1	0.057803813
170	0x3df2e13c	0.11859366
171	0x3cd0305c	0.025413685
172	0xbd2dc1c0	-0.042421103
173	0x3cbe865d	0.023257429
174	0x3d1de316	0.038546644
175	0xbd90b27b	-0.070652924
176	0xbdf2c9d6	-0.118549034
177	0x3bacb7ad	0.0052709193
178	0x3dd15c64	0.102227
179	0xbdb1c4e6	-0.086801335
180	0xbd90839d	-0.07056353
181	0xbd137e88	-0.03600934
182	0xbd8b5434	-0.0680317
183	0xbde7eb74	-0.11324206
184	0xbe122d7e	-0.14275166
185	0xbcafc367	-0.02145548
186	0x3d813550	0.06308997
187	0x3dd1ffb9	0.10253853
188	0xbd1c0f85	-0.038100738
189	0x3d9219eb	0.0713385
190	0xbd04af8a	-0.03239397
191	0xbdf79bb3	-0.12090244
192	0x3e0b4713	0.13601331
193	0xbd7e07cb	-0.06201915
194	0x3d175e09	0.036954913
195	0xbdbeb7af	-0.093123786
196	0x3dc22334	0.09479371
197	0x3df30587	0.11866289
198	0x3c848db8	0.016180858
199	0x3a68ac9d	0.0008875819
200	0x3dc07c27	0.0939868
201	0xbe03a06e	-0.12854168
202	0xbd879b8a	-0.066214636
203	0xbd15696a	-0.036477484
204	0x3da157da	0.078780845
205	0xbdcc36ac	-0.09971365
206	0x3ddc2cec	0.10750756
207	0xbd870edf	-0.06594633
208	0xbd8fb527	-0.07016974
209	0xbd8daa6e	-0.069172725
210	0xb80f5988	-3.417724e-05
211	0xbd9f9b53	-0.077932976
212	0xbcfb240b	-0.030656835
213	0xbdf3942d	-0.11893497
214	0xbdcfc273	-0.1014451
215	0x3da3f211	0.08005155
216	0x3d7d62ac	0.06186168
217	0x3dac0556	0.08399455
218	0xbddee3d1	-0.10883296
219	0xbc9c50fe	-0.019081589
220	0xbd95c948	-0.07313782
221	0x3daf3836	0.08555643
222	0xbe14537e	-0.14484975
223	0x3de2c02c	0.1107181
224	0xbd39f084	-0.04539539
225	0xbdd2437e	-0.10266779
226	0x3d47e0ef	0.048798498
227	0xbdd655a9	-0.10465557
228	0x3d931937	0.07182544
229	0x3d4ebfd4	0.05047591
230	0x3d1d98f0	0.03847593
231	0x3e0ac345	0.13551052
232	0xbdbcb047	-0.0921331
233	0xbdc23dc6	-0.094844386
234	0xbe1ee83e	-0.15518281
235	0x3c8e8032	0.017395113
236	0xbddaeac6	-0.10689311
237	0xbcf7e0d7	-0.03025858
238	0xbdc04f9a	-0.09390183
239	0x3daee0bf	0.08538961
240	0xbd62fe68	-0.055418402
241	0xbda8ece1	-0.08248306
242	0x3d58e182	0.052949436
243	0x3dae07ad	0.08497558
244	0x3c74c5af	0.01493971
245	0xbd733dab	-0.059384983
246	0x3cd41364	0.025888152
247	0xbd00ea1b	-0.03147326
248	0xbd1813a0	-0.03712809
249	0xbdf52f03	-0.119718574
250	0xbdd8a87b	-0.1057901
251	0x3d8248d0	0.06361544
252	0xbddcc493	-0.10779681
253	0xbd62276f	-0.055213388
254	0xbd17aa0e	-0.03702741
255	0xbd29b633	-0.041433524

fc2.bias f4 [64]
0	0xbb804d9c	-0.0039155018
1	0x3d0e4ba9	0.034740124
2	0x3d226545	0.03964736
3	0xbd41a59f	-0.04727709
4	0xbc364410	-0.011124626
5	0xba8b7bd2	-0.001064176
6	0x3d9d3787	0.076766066
7	0x3baa90af	0.005205236
8	0x3d080f09	0.033217464
9	0x3c3607bb	0.0111102415
10	0x3d4fd0e2	0.050736316
11	0xbd1c2447	-0.038120534
12	0x3d87c160	0.0662868
13	0x3d4241eb	0.047426146
14	0xba1d35d5	-0.00059970963
15	0xbc0779b3	-0.008268761
16	0xbc1a6673	-0.00942384
17	0x3a003845	0.00048911973
18	0xbcc7e799	-0.024402427
19	0x3c932e64	0.017966457
20	0x3b7385c8	0.0037158597
21	0xbd64eea7	-0.05589166
22	0xbb7728b9	-0.0037713482
23	0x3d83cabf	0.06435155
24	0x3c2ce70b	0.010553132
25	0xbd2d1609	-0.042257342
26	0xbd2c8f03	-0.042128574
27	0x3c2be3be	0.01049131
28	0x3cc335ac	0.023829304
29	0x3d75fea7	0.06005731
30	0x3d2ee2c7	0.04269674
31	0xbc12b8db	-0.008955206
32	0xbca7dfca	-0.020492453
33	0xbda772f9	-0.08176226
34	0x3d55750b	0.052113574
35	0x3c5d380a	0.01350213
36	0xbb450940	-0.0030065328
37	0xba6ffa51	-0.00091544265
38	0x3c321128	0.010868348
39	0x38810293	6.151679e-05
40	0x3b8edf2f	0.0043601017
41	0xbd963400	-0.07334137
42	0x3ce4ec3f	0.027944682
43	0xbc136779	-0.008996838
44	0x3d05f0e8	0.03270045
45	0xbc1e7a27	-0.009672678
46	0xbd922847	-0.071365885
47	0x3d7e8ebd	0.062147845
48	0x3d4760a0	0.048676133
49	0x3d9610ef	0.073274486
50	0x3a25d06c	0.0006325308
51	0xbc36c515	-0.011155386
52	0x3d497049	0.04917935
53	0xbc372b73	-0.011179793
54	0xbb2da34a	-0.0026495033
55	0x3d4c17ee	0.04982751
56	0x3bfc019c	0.0076906215
57	0xbd967936	-0.07347338
58	0xbc1acdd2	-0.009448485
59	0xbb0c9d4d	-0.0021456063
60	0x3a583f1d	0.00082491507
61	0x3d099d11	0.033597056
62	0xbc370990	-0.0111717135
63	0x3c3644ee	0.011124833

out.weight f4 [1, 64]
0	0x3dd05911	0.10173238
1	0x3dd8deea	0.105893925
2	0xbd1b565b	-0.037924152
3	0x3de1c926	0.11024694
4	0x3d0ec882	0.034859188
5	0x3d26ec8d	0.040752936
6	0x3cfa85be	0.030581351
7	0x3defb651	0.11704696
8	0x3ddf8c0e	0.10915385
9	0x3adcf8f8	0.0016858866
10	0x3d3aa808	0.045570403
11	0xbd994d02	-0.07485391
12	0xbb39706c	-0.0028295768
13	0xbc461068	-0.0120888725
14	0xbd0d486f	-0.034492906
15	0x3cb63b65	0.022245118
16	0x3de9eb17	0.11421793
17	0xbdc4ccf8	-0.09609407
18	0x3ca2e7e5	0.019885967
19	0x3e169ed0	0.1470902
20	0x3d5cb115	0.053879816
21	0xbc7949d1	-0.015215353
22	0x3dc13d5d	0.09435532
23	0x3d84fbe3	0.06493356
24	0x3cc35524	0.02384431
25	0x3db5832b	0.08862909
26	0xbd2d5bf6	-0.04232403
27	0x3e1527a9	0.1456591
28	0x3e119da0	0.14220285
29	0x3d0a0b52	0.033702202
30	0x3d5b1452	0.053486176
31	0x3aac4336	0.0013142589
32	0x3d1d99ed	0.038476873
33	0x3d2c5408	0.042072326
34	0xbd0b3517	-0.033986177
35	0x3aad6d23	0.0013231378
36	0x3e0a6c8e	0.13517973
37	0x3c86e0f2	0.016464684
38	0x3dfa8270	0.1223191
39	0x3cd44a50	0.025914341
40	0xbcab43ec	-0.020906411
41	0x3dab6dd1	0.08370555
42	0xbc4da8d6	-0.012552461
43	0x3ddfb042	0.109222904
44	0xbce111c8	-0.0274743
45	0xbc582614	-0.013192672
46	0xbd534efd	-0.051589
47	0xbc918efa	-0.017768372
48	0x3dca81e0	0.09888053
49	0xbc067609	-0.008206853
50	0x3df10140	0.117678165
51	0x3df3ca96	0.119038746
52	0x3d97ef93	0.07418742
53	0x3d87c6d5	0.06629721
54	0x3da03352	0.078222886
55	0x3d8abcfd	0.06774328
56	0xbcbb0a3c	-0.022832029
57	0xbda80a06	-0.08205037
58	0x3cc89817	0.024486585
59	0x3d27c990	0.04096371
60	0x3cfa6c97	0.030569358
61	0x3d27f114	0.041001394
62	0x3da8a9a3	0.08235481
63	0x3e0cf389	0.13764776

bn.weight f4 [64]
0	0x3f842e31	1.0326596
1	0x3f7f8dfc	0.99826026
2	0x3f7c78d5	0.98621875
3	0x3f84db0a	1.0379345
4	0x3f75be1a	0.95993197
5	0x3f7bbf26	0.98338544
6	0x3f808efd	1.0043637
7	0x3f8290b3	1.0200409
8	0x3f82a343	1.0206074
9	0x3f75b0fa	0.9597317
10	0x3f77f894	0.96863675
11	0x3f7a6729	0.9781366
12	0x3f7da64b	0.9908187
13	0x3f774520	0.9658985
14	0x3f799c5d	0.97504216
15	0x3f7c8114	0.9863446
16	0x3f83fec7	1.0312127
17	0x3f78c713	0.97178763
18	0x3f85202c	1.0400443
19	0x3f82f872	1.023207
20	0x3f850f3a	1.0395272
21	0x3f7c37c9	0.9852262
22	0x3f807e66	1.0038574
23	0x3f817c10	1.0115986
24	0x3f7a3072	0.9773017
25	0x3f840ba7	1.0316056
26	0x3f788c14	0.9708874
27	0x3f82c384	1.0215917
28	0x3f826658	1.0187483
29	0x3f830be1	1.0238
30	0x3f815993	1.0105461
31	0x3f7c7945	0.9862254
32	0x3f8568c7	1.04226
33	0x3f851605	1.0397345
34	0x3f79aaf1	0.9752646
35	0x3f7832eb	0.96952695
36	0x3f848b6c	1.0355048
37	0x3f7804f2	0.96882546
38	0x3f82b772	1.0212233
39	0x3f839fc6	1.0283134
40	0x3f781df4	0.96920705
41	0x3f83ea82	1.0305941
42	0x3f813738	1.0094976
43	0x3f804d99	1.0023681
44	0x3f7658bd	0.96229154
45	0x3f7a37f6	0.9774164
46	0x3f783031	0.96948534
47	0x3f7d0a0b	0.9884345
48	0x3f833891	1.0251638
49	0x3f776d21	0.9665089
50	0x3f82ef2a	1.0229237
51	0x3f82acd6	1.0208995
52	0x3f821ec5	1.016564
53	0x3f833fe6	1.0253875
54	0x3f83b899	1.029071
55	0x3f827541	1.0192033
56	0x3f7e4f97	0.99340194
57	0x3f7652e2	0.9622022
58	0x3f78b664	0.97153306
59	0x3f7b8cf1	0.98261935
60	0x3f7c83f6	0.98638856
61	0x3f7a896f	0.9786596
62	0x3f833ede	1.025356
63	0x3f817edf	1.0116843

bn.bias f4 [64]
0	0x3d147913	0.036248278
1	0x3d0fcc1d	0.035106767
2	0xbd186108	-0.03720191
3	0x3d18ed15	0.037335474
4	0x3d109216	0.03529557
5	0x3cec6c99	0.028860377
6	0x3ca4ba97	0.020108504
7	0x3cfb2659	0.030657934
8	0x3cf68d25	0.0300966
9	0xbd23c950	-0.03998691
10	0xbc858000	-0.016296387
11	0xbcf2db14	-0.02964548
12	0xbd1038e1	-0.035210494
13	0xbd0e8ac2	-0.0348003
14	0xbd0379eb	-0.032098692
15	0xbc6be4e6	-0.014397835
16	0x3d013359	0.03154311
17	0xbd06ce87	-0.032911804
18	0x3bfabbb4	0.0076517705
19	0x3d0e32cd	0.034716416
20	0x3d1b1303	0.037859928
21	0xbcfb7083	-0.030693298
22	0x3d169984	0.036767498
23	0x3cee7668	0.029109195
24	0xbcc748c8	-0.024326697
25	0x3d1ab3d8	0.03776917
26	0xbd03c3dc	-0.032169208
27	0x3d01eedf	0.031721946
28	0x3d0773fd	0.0330696
29	0x3cfd2916	0.03090338
30	0x3cef37c5	0.029201398
31	0xbc5e2b7b	-0.013560171
32	0x3d27f992	0.041009493
33	0x3d1ee2ee	0.038790636
34	0xbcf0d688	-0.029399171
35	0xbcfd6bf6	-0.030935269
36	0x3d09b3bd	0.033618677
37	0xbd02e0f3	-0.03195281
38	0x3d0d172d	0.03444593
39	0x3d1e1c1a	0.03860102
40	0xbd0192c8	-0.031634122
41	0x3d1290e4	0.03578271
42	0xbcf21b80	-0.029554129
43	0x3d0752a4	0.033037797
44	0xbd137c05	-0.036006946
45	0xbd1f9a28	-0.038965374
46	0xbd0faa00	-0.035074234
47	0xbc839348	-0.01606144
48	0x3cff63d0	0.031175524
49	0xbd1116d4	-0.03542216
50	0x3d12335a	0.035693504
51	0x3d01ee5d	0.03172146
52	0x3d14eb8f	0.03635746
53	0x3d110616	0.035406195
54	0x3d0c1818	0.034202665
55	0x3cfefa59	0.031125234
56	0x3cfc72ea	0.030816514
57	0xbd166241	-0.036714796
58	0x3c55cbd3	0.013049084
59	0x3ccdd434	0.0251256
60	0x3d097e39	0.03356764
61	0xbb3288c7	-0.002724217
62	0x3d08aa95	0.033365805
63	0x3cfefed6	0.031127375

bn.running_mean f4 [64]
0	0xbdc18f0e	-0.09451114
1	0xbdfd5649	-0.12369973
2	0xbda3a460	-0.079903364
3	0xbe3356d0	-0.17513585
4	0x3e1fa81b	0.15591471
5	0xbe1d9012	-0.1538699
6	0xbe1fa0ae	-0.15588638
7	0x3ddf741e	0.109108195
8	0x3caf8f11	0.021430524
9	0x3e168041	0.14697362
10	0x3e227334	0.15864259
11	0x3e96b78f	0.2943692
12	0xbd42a3af	-0.047519382
13	0xbe4cf38d	-0.20014782
14	0x3e6729a4	0.22574478
15	0xbe13df61	-0.14440681
16	0x3ddbe530	0.107370734
17	0xbe14cee6	-0.1453205
18	0xbdd25dce	-0.10271798
19	0xbdb74694	-0.089490086
20	0xbd4ed2c1	-0.05049396
21	0xbe25b194	-0.16181022
22	0x3e3a5e89	0.18200125
23	0xbe1dc5e6	-0.15407524
24	0x3d7dae3c	0.06193374
25	0xbaad6200	-0.0013228059
26	0x3c98badf	0.018643795
27	0x3e6cf758	0.23141229
28	0x3e224000	0.15844727
29	0x3d951ce4	0.07280901
30	0x3e061328	0.13093245
31	0xbe68c403	-0.22731023
32	0x3d3537b7	0.044242587
33	0x3e8386a2	0.25688654
34	0xbc578a7f	-0.013155579
35	0x3d195ddc	0.037443027
36	0x3dbf6950	0.09346259
37	0x3d208e59	0.039198253
38	0xbdc23975	-0.09483615
39	0xb9870d63	-0.0002575918
40	0xbd9ab338	-0.075537145
41	0xbe599860	-0.21249533
42	0x3c782d83	0.01514757
43	0xbb0bcd8d	-0.0021332235
44	0xbe4c79ff	-0.19968413
45	0xbc7f5460	-0.015584081
46	0xbc1ab773	-0.009443152
47	0x3ea5f464	0.32413018
48	0xbd7ff161	-0.062486056
49	0xbd511f6f	-0.051055368
50	0xbe47675e	-0.19473025
51	0xbe67d83f	-0.22641085
52	0x3d3c9a02	0.04604531
53	0x3da7527f	0.08170032
54	0xbdbf0478	-0.09327024
55	0xbdb596ef	-0.08866679
56	0xbe7a6f27	-0.24456464
57	0xbe87258b	-0.2639583
58	0x3e868b81	0.26278308
59	0xbeb19602	-0.3468476
60	0xbdc06c42	-0.093956485
61	0x3d22fee2	0.039793856
62	0xbdf5fbd0	-0.1201092
63	0xbe1ff1cd	-0.15619583

bn.running_var f4 [64]
0	0x3e9494f2	0.29019886
1	0x3f08bba0	0.53411293
2	0x3ea1b0c2	0.31580168
3	0x3e74c89c	0.23904651
4	0x3ea744fe	0.32669824
5	0x3ea19561	0.3155928
6	0x3ef74c01	0.48300174
7	0x3eed4ad4	0.46346152
8	0x3ec08243	0.37599382
9	0x3e90b77e	0.28264993
10	0x3e9cd7b7	0.30633327
11	0x3e79d8d6	0.24399123
12	0x3ebc6983	0.3679925
13	0x3e8a4dfe	0.27012628
14	0x3e83cc04	0.2574159
15	0x3eb27747	0.34856626
16	0x3ec6af73	0.38805732
17	0x3e8f185c	0.27948272
18	0x3e60771e	0.2192044
19	0x3e6b67fd	0.22988887
20	0x3eb3b2fe	0.35097498
21	0x3e97c220	0.29640293
22	0x3ec5f659	0.3866451
23	0x3ebd2db2	0.36948925
24	0x3ec5a982	0.38605887
25	0x3e363a3d	0.17795654
26	0x3e96b2fb	0.29433426
27	0x3ea1a5ad	0.31571713
28	0x3eb1133c	0.34584987
29	0x3e9a770c	0.3016895
30	0x3e9c928a	0.3058055
31	0x3e9cb432	0.30606228
32	0x3e648a17	0.22318302
33	0x3eae6ea7	0.34068796
34	0x3ef3df94	0.47631514
35	0x3e7a49f7	0.24442278
36	0x3ebc4b9b	0.36776432
37	0x3ee98cbe	0.4561519
38	0x3ea57aae	0.3232016
39	0x3ea57de6	0.32322615
40	0x3f066946	0.52504385
41	0x3eb184c1	0.34671596
42	0x3ea47b56	0.32125348
43	0x3e697ba0	0.22801065
44	0x3e9e7ce0	0.30954647
45	0x3e84c2c8	0.25929856
46	0x3e91045d	0.2832364
47	0x3e90030c	0.28127325
48	0x3e90dbff	0.28292844
49	0x3e91a077	0.28442737
50	0x3e9e1eff	0.30883023
51	0x3ec6fa6e	0.38862938
52	0x3e92ab7b	0.28646454
53	0x3e9b4d51	0.30332425
54	0x3e8a0e85	0.26964203
55	0x3ea94bcf	0.3306565
56	0x3ea1e0f5	0.3161694
57	0x3e98f2a0	0.29872608
58	0x3e97ca2d	0.29646435
59	0x3eccbe45	0.39988914
60	0x3e6e2150	0.23254895
61	0x3eaef282	0.34169394
62	0x3e85ddee	0.2614588
63	0x3e91a34b	0.28444895

net.0.weight f4 [64, 15]
0	0xbe0c98b2	-0.13730124
1	0xbd4456f8	-0.047934502
2	0x3bd19342	0.0063957283
3	0xbe468244	-0.1938563
4	0xbcee2969	-0.02907248
5	0x3e744ab3	0.2385662
6	0x3e337d43	0.17528252
7	0x3e7b0a74	0.24515706
8	0x3e00562b	0.1253287
9	0xbe2559ae	-0.16147491
10	0xbe433f56	-0.1906713
11	0x3e65457a	0.22389784
12	0xbe140f24	-0.144589
13	0x3dc1b163	0.09457662
14	0x3dd07da9	0.10180218
15	0x3e551066	0.20807037
16	0xbe01708f	-0.12640594
17	0xbe1ef60a	-0.15523544
18	0xbde1d338	-0.11026615
19	0xbdbd52ae	-0.092442855
20	0xbdc0b4d9	-0.09409494
21	0x3cafe804	0.021472938
22	0x3e64bab7	0.22336851
23	0xbde108a0	-0.10987973
24	0x3df71d90	0.120661855
25	0xbe65759c	-0.22408146
26	0xbe921958	-0.2853496
27	0x3e43c94c	0.19119757
28	0x3c39c7e4	0.011339162
29	0xbe84c8e2	-0.2593451
30	0x3e710528	0.23537123
31	0x3d167e74	0.03674169
32	0x3dfff601	0.124980934
33	0xbe126d40	-0.14299488
34	0x3dc27b1c	0.094961375
35	0x3ba4ab14	0.005025277
36	0x3de9ecdd	0.11422131
37	0x3cfcd239	0.03086196
38	0x3e7e442c	0.24830693
39	0xbdf1f757	-0.118147545
40	0xbd4ac5e4	-0.04950513
41	0xbdb560de	-0.088563666
42	0xbde5a34b	-0.11212786
43	0xbe3a5766	-0.18197402
44	0xbe6fdfd2	-0.23425224
45	0x3cceaa6d	0.02522775
46	0xbd3e5cc8	-0.0464752
47	0x3d7aecc5	0.061260957
48	0x3e5555b5	0.20833476
49	0xbddfad67	-0.10921746
50	0xbc2a1873	-0.010381806
51	0xbe18ba71	-0.14914872
52	0xbdf870e5	-0.12130908
53	0x3e03225a	0.12806073
54	0xbe13ec21	-0.14445545
55	0xbe6bc71a	-0.2302517
56	0xbdc0e1a1	-0.09418035
57	0xbdd48798	-0.10377425
58	0x3d4a629e	0.049410455
59	0xbe4630b1	-0.19354512
60	0x3e622947	0.22086059
61	0xbe36cdf0	-0.17851996
62	0x3d737f2a	0.059447445
63	0x3e619b51	0.22031905
64	0x3d931657	0.07181995
65	0x3e7ed939	0.24887551
66	0xbdb665ba	-0.089061216
67	0xbd9582eb	-0.07300361
68	0xbc41ce26	-0.011828935
69	0xbe88cc96	-0.26718587
70	0x3e4d3508	0.20039761
71	0x3d09afb5	0.033614833
72	0x3e3c09c4	0.183631
73	0x3bbe7947	0.005812797
74	0xbe317f73	-0.17333774
75	0x3cb13683	0.021632439
76	0xbe2f5733	-0.17123108
77	0x3e65badf	0.22434567
78	0xbe03f5d5	-0.12886746
79	0xbdef85ec	-0.116954654
80	0x3e332519	0.1749462
81	0x3d0dc970	0.034615934
82	0xbe8458d7	-0.2584903
83	0xbe66f1c1	-0.2255316
84	0x3c351e82	0.011054637
85	0xbe4626c3	-0.19350724
86	0x3d936628	0.07197219
87	0x3ded5bbb	0.11589762
88	0xbe37bbe4	-0.17942768
89	0xbe55c8fa	-0.20877448
90	0xbe0135a2	-0.12618116
91	0xbe202a97	-0.15641247
92	0x3e5f8a14	0.21830016
93	0x3ca21e5f	0.019789873
94	0x3e754c19	0.2395481
95	0x3e0b6c97	0.13615642
96	0xbb6e9f32	-0.0036410806
97	0xbe5270de	-0.20550868
98	0x3e48da65	0.19614561
99	0x3e13922b	0.14411227
100	0x3e83b29c	0.25722206
101	0x3e01d82e	0.12680122
102	0xbdb08e3a	-0.086208776
103	0x3e27cf7d	0.16387744
104	0x3e1e32b7	0.15449034
105	0x3c0308f0	0.007997736
106	0xbe2e6112	-0.17029217
107	0x3daee5f9	0.085399576
108	0xbe57c198	-0.21069944
109	0xbd5b00b3	-0.053467464
110	0xbd19c119	-0.037537668
111	0x3e5c9079	0.21539487
112	0xbe3479d7	-0.17624603
113	0xbe378edc	-0.1792559
114	0x3e163245	0.14667614
115	0xbe8328b5	-0.25616995
116	0x3c0150f9	0.007892841
117	0x3d1d93ee	0.038471155
118	0xbe8da7c8	-0.2766707
119	0xbe65e7f3	-0.22451763
120	0x3e1f5bbb	0.15562336
121	0x3e1ca367	0.15296708
122	0x3e2b5a0e	0.16733572
123	0xbddff048	-0.10934502
124	0xbe07805a	-0.13232556
125	0x3e26aa92	0.16276005
126	0x3db92844	0.09040883
127	0xbdf24c77	-0.11830991
128	0xbe4406e3	-0.19143252
129	0x3d8c0142	0.068361774
130	0x3e3a333c	0.18183607
131	0x3e944711	0.2896047
132	0xbe1c11e1	-0.15241195
133	0xbe3e3767	-0.18575822
134	0x3dba12dd	0.09085629
135	0x3d3d25aa	0.046178497
136	0x3ddbfbec	0.1074141
137	0xbdd7f51e	-0.10544799
138	0xbb3a6609	-0.0028442165
139	0xbe3c0ce1	-0.18364288
140	0x3df00849	0.1172033
141	0xbe026d0d	-0.12736912
142	0x3e055c96	0.130236
143	0xbe559bfe	-0.20860288
144	0xbdf56c16	-0.119835064
145	0x3e76833a	0.24073496
146	0x3c5872b3	0.01321094
147	0xbd26e778	-0.04074809
148	0xbe0b7ae5	-0.136211
149	0xbe6bbd97	-0.23021542
150	0x3c93dfce	0.018051054
151	0x3dbb7ab1	0.09154261
152	0xbd18f75c	-0.037345275
153	0x3cb8dfc3	0.022567635
154	0xbd7342d9	-0.059389923
155	0x3e0d6b1c	0.1381039
156	0xbd2d8394	-0.04236181
157	0x3d6ee42a	0.058323063
158	0xbe7a27f5	-0.24429305
159	0x3e34104f	0.17584346
160	0x3da3aff7	0.07992547
161	0xbe3db680	-0.1852665
162	0x3e7451f0	0.23859382
163	0xbe23a59b	-0.15981142
164	0x3ce9cf71	0.028541299
165	0xbdebe202	-0.11517717
166	0x3e25de4a	0.16198078
167	0x3e2b653b	0.16737835
168	0xbe459998	-0.19296873
169	0x3d815bab	0.063163124
170	0x3bc5e251	0.006038942
171	0xbd0b4ed0	-0.03401071
172	0xbddead71	-0.10872925
173	0xbe5db774	-0.21652013
174	0xbe04423c	-0.12915891
175	0xbd264042	-0.040588625
176	0x3b486116	0.0030575446
177	0x3e4d31d8	0.20038545
178	0x3e138b75	0.14408667
179	0xbdfa6b10	-0.12227452
180	0xbdcf6f89	-0.101286955
181	0xbd803b13	-0.062612675
182	0xbe8bf4b0	-0.2733512
183	0xbdf79877	-0.12089627
184	0x3d6395b4	0.05556269
185	0x3da7906a	0.08181842
186	0xbdf6642e	-0.120308265
187	0xbe2b6112	-0.16736248
188	0xbe00d61a	-0.12581673
189	0x3e3a904d	0.18219109
190	0xbe143e5f	-0.14476918
191	0x3dd3f7ae	0.103499755
192	0xbe12e8c6	-0.14346609
193	0xbe021cc5	-0.12706287
194	0xbe0cd55c	-0.13753265
195	0x3e289d3b	0.16466229
196	0xbd0ba27a	-0.034090497
197	0xbcec329a	-0.028832722
198	0xbc8d6ca5	-0.01726372
199	0x3df8267b	0.121167146
200	0x3c128e01	0.008944989
201	0xbe0a0061	-0.13476707
202	0xbda7c640	-0.0819211
203	0xbe89e28f	-0.26930663
204	0xbcd9a971	-0.026570054
205	0x3e8846e5	0.26616588
206	0x3e14c296	0.14527354
207	0x3d03cb92	0.03217656
208	0xbda92100	-0.082582474
209	0x3df684d2	0.12037052
210	0xbd924432	-0.071419135
211	0x3bb6d25e	0.005579277
212	0x3d4f23ac	0.05057113
213	0xbc944f48	-0.01810421
214	0xbc33c626	-0.010972535
215	0x3dc9d976	0.098559305
216	0x3e8c9be2	0.2746268
217	0x3e70e50e	0.23524877
218	0x3e3a18da	0.18173543
219	0x3ca94258	0.020661518
220	0xbe1ad745	-0.15121181
221	0x3e29fa4a	0.16599384
222	0xbd582729	-0.05277172
223	0xbdac3b49	-0.08409745
224	0xbe3f2022	-0.18664601
225	0x3cf07155	0.029350916
226	0x3e06121a	0.13092843
227	0x3e0d4216	0.13794741
228	0xbdc55593	-0.096354626
229	0xbe576c45	-0.21037395
230	0xbe2da44f	-0.1695721
231	0x3e5b3941	0.2140856
232	0xbcb2977c	-0.021800749
233	0x3dbe33b4	0.09287205
234	0xbe16418a	-0.14673439
235	0x3e07d705	0.13265617
236	0x3d84667a	0.06464858
237	0x3e29f084	0.16595656
238	0xbdc852ce	-0.09781419
239	0xbe870122	-0.26368052
240	0x3b539504	0.0032284865
241	0x3e311c77	0.17296015
242	0x3d2f4e4c	0.04279928
243	0x3de9365d	0.11387322
244	0x3e16ef2b	0.14739673
245	0xbd6e401a	-0.0581666
246	0xbd816b67	-0.063193135
247	0x3e1c53d4	0.15266353
248	0xbded4ac4	-0.11586526
249	0x3c7d51db	0.01546141
250	0xbd669f9e	-0.056304567
251	0x3d8b587f	0.06803989
252	0x3e56d3a8	0.20979178
253	0x3e1077eb	0.14108245
254	0xbd2c62c0	-0.042086363
255	0xbb5a09b4	-0.0033269944

net.0.bias f4 [64]
0	0x3e4073c5	0.18794163
1	0xbd3fe99a	-0.04685364
2	0xbd2a1af3	-0.041529607
3	0x3d6732a8	0.056444794
4	0xbe06d67a	-0.13167754
5	0x3d073a5e	0.033014648
6	0xbded0187	-0.11572557
7	0x3d048159	0.032349918
8	0x3e0041ee	0.1252515
9	0xbd5c25d8	-0.053747028
10	0xbd8b3376	-0.06796925
11	0x3d7db5f1	0.06194109
12	0xbd0a37da	-0.03374467
13	0xbda83fb0	-0.082152724
14	0x3b8a29b1	0.004216396
15	0xbe18b9d7	-0.14914642
16	0xbde2f415	-0.11081711
17	0xbe3854d4	-0.1800111
18	0x3e36c576	0.17848763
19	0xbe4ac88a	-0.19803062
20	0xbdef2b61	-0.11678196
21	0x3c153c88	0.00910867
22	0x3ba631d1	0.0050718565
23	0x3d48e3d4	0.0490454
24	0x3bd7f1f5	0.006590123
25	0x3c7e39e7	0.015516735
26	0xbe019fc8	-0.12658608
27	0x3e2e17f6	0.17001328
28	0x3e2226d5	0.15835126
29	0xbc36dce2	-0.011161061
30	0xbe3aa051	-0.18225218
31	0x39c37a0e	0.00037284236
32	0x3e4d77f0	0.20065284
33	0x3e295806	0.16537485
34	0x3e3f1ebb	0.18664066
35	0xbd01cb62	-0.0316881
36	0x3ca89a7e	0.02058148
37	0xbd21b15a	-0.039475776
38	0xbdc2f8c2	-0.09520103
39	0xbc335231	-0.010944889
40	0x3d545277	0.051836457
41	0xbe2632c6	-0.16230306
42	0x3d543ba8	0.051814705
43	0xbe05660d	-0.1302721
44	0x3bcb429d	0.0062030093
45	0x3d0bbb34	0.034114078
46	0x3be20cc0	0.0068984926
47	0x3dbed683	0.093182586
48	0x3e522b0d	0.20524235
49	0xbc2a5c0a	-0.01039792
50	0xbe3fc57c	-0.18727678
51	0xbce180c7	-0.027527226
52	0x3d6b55eb	0.057454985
53	0x3e2d44bd	0.16920753
54	0x3bfb1731	0.0076626767
55	0xbdd45e36	-0.10369532
56	0xbe280174	-0.16406804
57	0xbe2546ac	-0.1614024
58	0x3d814c0c	0.06313333
59	0xbe4f95e7	-0.20272027
60	0x3e519360	0.20466375
61	0x3db8a65e	0.09016107
62	0x3ab8f70c	0.0014111712
63	0x3c3450a6	0.011005556

net.1.weight f4 [64]
0	0x3f842e31	1.0326596
1	0x3f7f8dfc	0.99826026
2	0x3f7c78d5	0.98621875
3	0x3f84db0a	1.0379345
4	0x3f75be1a	0.95993197
5	0x3f7bbf26	0.98338544
6	0x3f808efd	1.0043637
7	0x3f8290b3	1.0200409
8	0x3f82a343	1.0206074
9	0x3f75b0fa	0.9597317
10	0x3f77f894	0.96863675
11	0x3f7a6729	0.9781366
12	0x3f7da64b	0.9908187
13	0x3f774520	0.9658985
14	0x3f799c5d	0.97504216
15	0x3f7c8114	0.9863446
16	0x3f83fec7	1.0312127
17	0x3f78c713	0.97178763
18	0x3f85202c	1.0400443
19	0x3f82f872	1.023207
20	0x3f850f3a	1.0395272
21	0x3f7c37c9	0.9852262
22	0x3f807e66	1.0038574
23	0x3f817c10	1.0115986
24	0x3f7a3072	0.9773017
25	0x3f840ba7	1.0316056
26	0x3f788c14	0.9708874
27	0x3f82c384	1.0215917
28	0x3f826658	1.0187483
29	0x3f830be1	1.0238
30	0x3f815993	1.0105461
31	0x3f7c7945	0.9862254
32	0x3f8568c7	1.04226
33	0x3f851605	1.0397345
34	0x3f79aaf1	0.9752646
35	0x3f7832eb	0.96952695
36	0x3f848b6c	1.0355048
37	0x3f7804f2	0.96882546
38	0x3f82b772	1.0212233
39	0x3f839fc6	1.0283134
40	0x3f781df4	0.96920705
41	0x3f83ea82	1.0305941
42	0x3f813738	1.0094976
43	0x3f804d99	1.0023681
44	0x3f7658bd	0.96229154
45	0x3f7a37f6	0.9774164
46	0x3f783031	0.96948534
47	0x3f7d0a0b	0.9884345
48	0x3f833891	1.0251638
49	0x3f776d21	0.9665089
50	0x3f82ef2a	1.0229237
51	0x3f82acd6	1.0208995
52	0x3f821ec5	1.016564
53	0x3f833fe6	1.0253875
54	0x3f83b899	1.029071
55	0x3f827541	1.0192033
56	0x3f7e4f97	0.99340194
57	0x3f7652e2	0.9622022
58	0x3f78b664	0.97153306
59	0x3f7b8cf1	0.98261935
60	0x3f7c83f6	0.98638856
61	0x3f7a896f	0.9786596
62	0x3f833ede	1.025356
63	0x3f817edf	1.0116843

net.1.bias f4 [64]
0	0x3d147913	0.036248278
1	0x3d0fcc1d	0.035106767
2	0xbd186108	-0.03720191
3	0x3d18ed15	0.037335474
4	0x3d109216	0.03529557
5	0x3cec6c99	0.028860377
6	0x3ca4ba97	0.020108504
7	0x3cfb2659	0.030657934
8	0x3cf68d25	0.0300966
9	0xbd23c950	-0.03998691
10	0xbc858000	-0.016296387
11	0xbcf2db14	-0.02964548
12	0xbd1038e1	-0.035210494
13	0xbd0e8ac2	-0.0348003
14	0xbd0379eb	-0.032098692
15	0xbc6be4e6	-0.014397835
16	0x3d013359	0.03154311
17	0xbd06ce87	-0.032911804
18	0x3bfabbb4	0.0076517705
19	0x3d0e32cd	0.034716416
20	0x3d1b1303	0.037859928
21	0xbcfb7083	-0.030693298
22	0x3d169984	0.036767498
23	0x3cee7668	0.029109195
24	0xbcc748c8	-0.024326697
25	0x3d1ab3d8	0.03776917
26	0xbd03c3dc	-0.032169208
27	0x3d01eedf	0.031721946
28	0x3d0773fd	0.0330696
29	0x3cfd2916	0.03090338
30	0x3cef37c5	0.029201398
31	0xbc5e2b7b	-0.013560171
32	0x3d27f992	0.041009493
33	0x3d1ee2ee	0.038790636
34	0xbcf0d688	-0.029399171
35	0xbcfd6bf6	-0.030935269
36	0x3d09b3bd	0.033618677
37	0xbd02e0f3	-0.03195281
38	0x3d0d172d	0.03444593
39	0x3d1e1c1a	0.03860102
40	0xbd0192c8	-0.031634122
41	0x3d1290e4	0.03578271
42	0xbcf21b80	-0.029554129
43	0x3d0752a4	0.033037797
44	0xbd137c05	-0.036006946
45	0xbd1f9a28	-0.038965374
46	0xbd0faa00	-0.035074234
47	0xbc839348	-0.01606144
48	0x3cff63d0	0.031175524
49	0xbd1116d4	-0.03542216
50	0x3d12335a	0.035693504
51	0x3d01ee5d	0.03172146
52	0x3d14eb8f	0.03635746
53	0x3d110616	0.035406195
54	0x3d0c1818	0.034202665
55	0x3cfefa59	0.031125234
56	0x3cfc72ea	0.030816514
57	0xbd166241	-0.036714796
58	0x3c55cbd3	0.013049084
59	0x3ccdd434	0.0251256
60	0x3d097e39	0.03356764
61	0xbb3288c7	-0.002724217
62	0x3d08aa95	0.033365805
63	0x3cfefed6	0.031127375

net.1.running_mean f4 [64]
0	0xbdc18f0e	-0.09451114
1	0xbdfd5649	-0.12369973
2	0xbda3a460	-0.079903364
3	0xbe3356d0	-0.17513585
4	0x3e1fa81b	0.15591471
5	0xbe1d9012	-0.1538699
6	0xbe1fa0ae	-0.15588638
7	0x3ddf741e	0.109108195
8	0x3caf8f11	0.021430524
9	0x3e168041	0.14697362
10	0x3e227334	0.15864259
11	0x3e96b78f	0.2943692
12	0xbd42a3af	-0.047519382
13	0xbe4cf38d	-0.20014782
14	0x3e6729a4	0.22574478
15	0xbe13df61	-0.14440681
16	0x3ddbe530	0.107370734
17	0xbe14cee6	-0.1453205
18	0xbdd25dce	-0.10271798
19	0xbdb74694	-0.089490086
20	0xbd4ed2c1	-0.05049396
21	0xbe25b194	-0.16181022
22	0x3e3a5e89	0.18200125
23	0xbe1dc5e6	-0.15407524
24	0x3d7dae3c	0.06193374
25	0xbaad6200	-0.0013228059
26	0x3c98badf	0.018643795
27	0x3e6cf758	0.23141229
28	0x3e224000	0.15844727
29	0x3d951ce4	0.07280901
30	0x3e061328	0.13093245
31	0xbe68c403	-0.22731023
32	0x3d3537b7	0.044242587
33	0x3e8386a2	0.25688654
34	0xbc578a7f	-0.013155579
35	0x3d195ddc	0.037443027
36	0x3dbf6950	0.09346259
37	0x3d208e59	0.039198253
38	0xbdc23975	-0.09483615
39	0xb9870d63	-0.0002575918
40	0xbd9ab338	-0.075537145
41	0xbe599860	-0.21249533
42	0x3c782d83	0.01514757
43	0xbb0bcd8d	-0.0021332235
44	0xbe4c79ff	-0.19968413
45	0xbc7f5460	-0.015584081
46	0xbc1ab773	-0.009443152
47	0x3ea5f464	0.32413018
48	0xbd7ff161	-0.062486056
49	0xbd511f6f	-0.051055368
50	0xbe47675e	-0.19473025
51	0xbe67d83f	-0.22641085
52	0x3d3c9a02	0.04604531
53	0x3da7527f	0.08170032
54	0xbdbf0478	-0.09327024
55	0xbdb596ef	-0.08866679
56	0xbe7a6f27	-0.24456464
57	0xbe87258b	-0.2639583
58	0x3e868b81	0.26278308
59	0xbeb19602	-0.3468476
60	0xbdc06c42	-0.093956485
61	0x3d22fee2	0.039793856
62	0xbdf5fbd0	-0.1201092
63	0xbe1ff1cd	-0.15619583

net.1.running_var f4 [64]
0	0x3e9494f2	0.29019886
1	0x3f08bba0	0.53411293
2	0x3ea1b0c2	0.31580168
3	0x3e74c89c	0.23904651
4	0x3ea744fe	0.32669824
5	0x3ea19561	0.3155928
6	0x3ef74c01	0.48300174
7	0x3eed4ad4	0.46346152
8	0x3ec08243	0.37599382
9	0x3e90b77e	0.28264993
10	0x3e9cd7b7	0.30633327
11	0x3e79d8d6	0.24399123
12	0x3ebc6983	0.3679925
13	0x3e8a4dfe	0.27012628
14	0x3e83cc04	0.2574159
15	0x3eb27747	0.34856626
16	0x3ec6af73	0.38805732
17	0x3e8f185c	0.27948272
18	0x3e60771e	0.2192044
19	0x3e6b67fd	0.22988887
20	0x3eb3b2fe	0.35097498
21	0x3e97c220	0.29640293
22	0x3ec5f659	0.3866451
23	0x3ebd2db2	0.36948925
24	0x3ec5a982	0.38605887
25	0x3e363a3d	0.17795654
26	0x3e96b2fb	0.29433426
27	0x3ea1a5ad	0.31571713
28	0x3eb1133c	0.34584987
29	0x3e9a770c	0.3016895
30	0x3e9c928a	0.3058055
31	0x3e9cb432	0.30606228
32	0x3e648a17	0.22318302
33	0x3eae6ea7	0.34068796
34	0x3ef3df94	0.47631514
35	0x3e7a49f7	0.24442278
36	0x3ebc4b9b	0.36776432
37	0x3ee98cbe	0.4561519
38	0x3ea57aae	0.3232016
39	0x3ea57de6	0.32322615
40	0x3f066946	0.52504385
41	0x3eb184c1	0.34671596
42	0x3ea47b56	0.32125348
43	0x3e697ba0	0.22801065
44	0x3e9e7ce0	0.30954647
45	0x3e84c2c8	0.25929856
46	0x3e91045d	0.2832364
47	0x3e90030c	0.28127325
48	0x3e90dbff	0.28292844
49	0x3e91a077	0.28442737
50	0x3e9e1eff	0.30883023
51	0x3ec6fa6e	0.38862938
52	0x3e92ab7b	0.28646454
53	0x3e9b4d51	0.30332425
54	0x3e8a0e85	0.26964203
55	0x3ea94bcf	0.3306565
56	0x3ea1e0f5	0.3161694
57	0x3e98f2a0	0.29872608
58	0x3e97ca2d	0.29646435
59	0x3eccbe45	0.39988914
60	0x3e6e2150	0.23254895
61	0x3eaef282	0.34169394
62	0x3e85ddee	0.2614588
63	0x3e91a34b	0.28444895

net.3.weight f4 [64, 64]
0	0xbce966a1	-0.02849132
1	0xbdca2c8c	-0.09871778
2	0x3c5622ec	0.013069849
3	0xbdf53165	-0.11972312
4	0x3c59cd76	0.013293615
5	0x3d1f63e1	0.03891361
6	0x3d970e5e	0.07375787
7	0xbdb2532c	-0.0870727
8	0x3d329784	0.043601528
9	0xbd9ae0da	-0.07562418
10	0xbd6312bb	-0.055437785
11	0x3dea512a	0.11441262
12	0xbd834a43	-0.06410649
13	0xbd8b8cf9	-0.06813998
14	0x3c220bf3	0.009890544
15	0x3bf220d7	0.0073891687
16	0xbd1b26db	-0.037878852
17	0xbd9f9c64	-0.07793501
18	0xbd45af26	-0.048262738
19	0x3cd63fb7	0.026153428
20	0x3b63da78	0.0034767669
21	0x3de2da57	0.11076801
22	0x3dd11435	0.10208932
23	0xbcd9ff31	-0.026610943
24	0xbcaf9f70	-0.02143833
25	0xbc2a2a5d	-0.010386077
26	0x3dcde094	0.100526005
27	0xbdd5e1c2	-0.104434505
28	0xbcee1209	-0.029061334
29	0xbca34469	-0.019930081
30	0xbc0edd76	-0.008719793
31	0x3d8ea5e3	0.06965234
32	0x3d3cff9c	0.046142206
33	0xbdcdc4c8	-0.10047299
34	0x3df497ed	0.1194304
35	0xbda6c0ed	-0.081422664
36	0x3d2d05ed	0.04224198
37	0xbde318f2	-0.11088742
38	0xbc16d610	-0.00920631
39	0x3d952dca	0.07284124
40	0xbda7be0e	-0.08190547
41	0xbd302f1a	-0.04301367
42	0xbdfb274a	-0.12263353
43	0x3d287e3d	0.041136015
44	0x3d872bb2	0.06600131
45	0xbd51fd87	-0.051267173
46	0x3d192de5	0.037397284
47	0xbddbd147	-0.10733276
48	0x3d0d30e4	0.034470454
49	0x3c987f87	0.018615497
50	0xbdc7d50c	-0.09757432
51	0xbd876aec	-0.066121906
52	0x3bc4f994	0.0060111973
53	0x3cbb1b81	0.022840263
54	0xbdc077bb	-0.09397837
55	0xbbd9ccda	-0.0066467347
56	0x3d957cd0	0.07299197
57	0x3bc0292c	0.005864283
58	0xbddf7faa	-0.10913022
59	0xbdb4891d	-0.08815215
60	0xbe08da79	-0.1336459
61	0xbcf6f1e6	-0.030144643
62	0xbd9c8597	-0.07642668
63	0xbdd96fa8	-0.10617
64	0xbcc75199	-0.024330901
65	0xbe15aaa9	-0.14615883
66	0x3d92f8fb	0.071763955
67	0x3d83ffc1	0.064452656
68	0xbd5f5cff	-0.054532047
69	0xbc821c91	-0.015882762
70	0xbd25d2b9	-0.040484164
71	0xbd9582ab	-0.073003136
72	0xbe261c80	-0.1622181
73	0x3d30e62a	0.04318825
74	0x3ce9ab04	0.02852393
75	0xbd931879	-0.07182402
76	0xbd409cf9	-0.0470247
77	0x3c4c184f	0.0124569675
78	0x3db46d54	0.08809915
79	0xbd5e5749	-0.05428246
80	0xbda66413	-0.081245564
81	0x3d5ecd91	0.054395262
82	0x3d6a7747	0.057242658
83	0xbdc7a3a6	-0.0974801
84	0x3d1fe654	0.039038017
85	0x3de2458d	0.11048422
86	0xbda5c6dc	-0.0809457
87	0xbc695f44	-0.0142439045
88	0xbd8de751	-0.06928886
89	0x3b540147	0.0032349394
90	0x3d4630f1	0.048386518
91	0xbd297215	-0.041368563
92	0x3cf47018	0.029838607
93	0x3da7f31c	0.08200666
94	0x3ca8a5cc	0.02058687
95	0xbdb3fc1e	-0.08788322
96	0xbd216312	-0.03940112
97	0xbe0fc999	-0.14041747
98	0xbe099ec9	-0.13439478
99	0xbe229d52	-0.15880325
100	0xbe158ce8	-0.14604533
101	0xbd1daf2a	-0.038497128
102	0xbd6d1684	-0.0578828
103	0x3da8ea0d	0.08247767
104	0x3c922ce0	0.017843664
105	0xbdaf91eb	-0.085727535
106	0xbc8d31e1	-0.017235698
107	0x3df2af66	0.11849861
108	0xbd984c2b	-0.07436403
109	0xbd8f53e8	-0.06998426
110	0xbdfb3ccc	-0.122674555
111	0xbd73c93e	-0.05951809
112	0xbdcf1a95	-0.10112492
113	0xbdc82860	-0.09773326
114	0x3da84df6	0.08217995
115	0xbe05a5c7	-0.1305152
116	0xbd9ba725	-0.0760024
117	0xbd48b11e	-0.048997037
118	0x3ce5d596	0.028055947
119	0xbd24ab5f	-0.040202495
120	0x3c91efa0	0.017814457
121	0x3e0f6789	0.1400434
122	0x3d833ffb	0.06408688
123	0xbe1556b3	-0.14583854
124	0xbd74b8da	-0.0597466
125	0x3cd11bcf	0.025525955
126	0xbd4b0ece	-0.049574666
127	0xbe13b889	-0.14425863
128	0x3d94dc1b	0.07268544
129	0xbd2b1d8e	-0.041776232
130	0xbd862f74	-0.0655202
131	0xbdea9738	-0.11454624
132	0xbdd9ccf2	-0.10634793
133	0xbd609471	-0.054829065
134	0xbddf3e48	-0.10900551
135	0xbbbb3ff1	-0.0057144095
136	0xbddedd54	-0.10882059
137	0x3a99fa63	0.0011747595
138	0x3da247a5	0.07923821
139	0xbdd8f9d9	-0.1059453
140	0xbe032ad1	-0.12809302
141	0x3d33ae54	0.043867424
142	0xbdc1d2fc	-0.0946407
143	0xbdd18159	-0.10229749
144	0xbda8df82	-0.08245756
145	0x3d4c5e46	0.049894594
146	0x3d526a93	0.05137117
147	0xbda51be8	-0.08061963
148	0x3e0c74fc	0.13716501
149	0xbd69ef96	-0.057113253
150	0x3d44092c	0.04786031
151	0x3dac68b7	0.0841841
152	0xbe07251c	-0.1319775
153	0x3d4d4519	0.050114725
154	0x3d8c9794	0.06864849
155	0xbd2a54a1	-0.041584615
156	0xbd9fa782	-0.077956215
157	0xbba62b2c	-0.0050710645
158	0x3ca4ef20	0.020133555
159	0x3db45aef	0.08806407
160	0x3de6f740	0.11277628
161	0xbbc42607	-0.0059859785
162	0x3d7c390d	0.061577845
163	0x3da3857e	0.07984446
164	0x3e0ae884	0.1356526
165	0xbd0e1149	-0.034684453
166	0xbdae0e16	-0.084987804
167	0x3d9ddd4f	0.07708227
168	0xbd9f92b0	-0.0779165
169	0x3d6cc3b1	0.057803813
170	0x3df2e13c	0.11859366
171	0x3cd0305c	0.025413685
172	0xbd2dc1c0	-0.042421103
173	0x3cbe865d	0.023257429
174	0x3d1de316	0.038546644
175	0xbd90b27b	-0.070652924
176	0xbdf2c9d6	-0.118549034
177	0x3bacb7ad	0.0052709193
178	0x3dd15c64	0.102227
179	0xbdb1c4e6	-0.086801335
180	0xbd90839d	-0.07056353
181	0xbd137e88	-0.03600934
182	0xbd8b5434	-0.0680317
183	0xbde7eb74	-0.11324206
184	0xbe122d7e	-0.14275166
185	0xbcafc367	-0.02145548
186	0x3d813550	0.06308997
187	0x3dd1ffb9	0.10253853
188	0xbd1c0f85	-0.038100738
189	0x3d9219eb	0.0713385
190	0xbd04af8a	-0.03239397
191	0xbdf79bb3	-0.12090244
192	0x3e0b4713	0.13601331
193	0xbd7e07cb	-0.06201915
194	0x3d175e09	0.036954913
195	0xbdbeb7af	-0.093123786
196	0x3dc22334	0.09479371
197	0x3df30587	0.11866289
198	0x3c848db8	0.016180858
199	0x3a68ac9d	0.0008875819
200	0x3dc07c27	0.0939868
201	0xbe03a06e	-0.12854168
202	0xbd879b8a	-0.066214636
203	0xbd15696a	-0.036477484
204	0x3da157da	0.078780845
205	0xbdcc36ac	-0.09971365
206	0x3ddc2cec	0.10750756
207	0xbd870edf	-0.06594633
208	0xbd8fb527	-0.07016974
209	0xbd8daa6e	-0.069172725
210	0xb80f5988	-3.417724e-05
211	0xbd9f9b53	-0.077932976
212	0xbcfb240b	-0.030656835
213	0xbdf3942d	-0.11893497
214	0xbdcfc273	-0.1014451
215	0x3da3f211	0.08005155
216	0x3d7d62ac	0.06186168
217	0x3dac0556	0.08399455
218	0xbddee3d1	-0.10883296
219	0xbc9c50fe	-0.019081589
220	0xbd95c948	-0.07313782
221	0x3daf3836	0.08555643
222	0xbe14537e	-0.14484975
223	0x3de2c02c	0.1107181
224	0xbd39f084	-0.04539539
225	0xbdd2437e	-0.10266779
226	0x3d47e0ef	0.048798498
227	0xbdd655a9	-0.10465557
228	0x3d931937	0.07182544
229	0x3d4ebfd4	0.05047591
230	0x3d1d98f0	0.03847593
231	0x3e0ac345	0.13551052
232	0xbdbcb047	-0.0921331
233	0xbdc23dc6	-0.094844386
234	0xbe1ee83e	-0.15518281
235	0x3c8e8032	0.017395113
236	0xbddaeac6	-0.10689311
237	0xbcf7e0d7	-0.03025858
238	0xbdc04f9a	-0.09390183
239	0x3daee0bf	0.08538961
240	0xbd62fe68	-0.055418402
241	0xbda8ece1	-0.08248306
242	0x3d58e182	0.052949436
243	0x3dae07ad	0.08497558
244	0x3c74c5af	0.01493971
245	0xbd733dab	-0.059384983
246	0x3cd41364	0.025888152
247	0xbd00ea1b	-0.03147326
248	0xbd1813a0	-0.03712809
249	0xbdf52f03	-0.119718574
250	0xbdd8a87b	-0.1057901
251	0x3d8248d0	0.06361544
252	0xbddcc493	-0.10779681
253	0xbd62276f	-0.055213388
254	0xbd17aa0e	-0.03702741
255	0xbd29b633	-0.041433524

net.3.bias f4 [64]
0	0xbb804d9c	-0.0039155018
1	0x3d0e4ba9	0.034740124
2	0x3d226545	0.03964736
3	0xbd41a59f	-0.04727709
4	0xbc364410	-0.011124626
5	0xba8b7bd2	-0.001064176
6	0x3d9d3787	0.076766066
7	0x3baa90af	0.005205236
8	0x3d080f09	0.033217464
9	0x3c3607bb	0.0111102415
10	0x3d4fd0e2	0.050736316
11	0xbd1c2447	-0.038120534
12	0x3d87c160	0.0662868
13	0x3d4241eb	0.047426146
14	0xba1d35d5	-0.00059970963
15	0xbc0779b3	-0.008268761
16	0xbc1a6673	-0.00942384
17	0x3a003845	0.00048911973
18	0xbcc7e799	-0.024402427
19	0x3c932e64	0.017966457
20	0x3b7385c8	0.0037158597
21	0xbd64eea7	-0.05589166
22	0xbb7728b9	-0.0037713482
23	0x3d83cabf	0.06435155
24	0x3c2ce70b	0.010553132
25	0xbd2d1609	-0.042257342
26	0xbd2c8f03	-0.042128574
27	0x3c2be3be	0.01049131
28	0x3cc335ac	0.023829304
29	0x3d75fea7	0.06005731
30	0x3d2ee2c7	0.04269674
31	0xbc12b8db	-0.008955206
32	0xbca7dfca	-0.020492453
33	0xbda772f9	-0.08176226
34	0x3d55750b	0.052113574
35	0x3c5d380a	0.01350213
36	0xbb450940	-0.0030065328
37	0xba6ffa51	-0.00091544265
38	0x3c321128	0.010868348
39	0x38810293	6.151679e-05
40	0x3b8edf2f	0.0043601017
41	0xbd963400	-0.07334137
42	0x3ce4ec3f	0.027944682
43	0xbc136779	-0.008996838
44	0x3d05f0e8	0.03270045
45	0xbc1e7a27	-0.009672678
46	0xbd922847	-0.071365885
47	0x3d7e8ebd	0.062147845
48	0x3d4760a0	0.048676133
49	0x3d9610ef	0.073274486
50	0x3a25d06c	0.0006325308
51	0xbc36c515	-0.011155386
52	0x3d497049	0.04917935
53	0xbc372b73	-0.011179793
54	0xbb2da34a	-0.0026495033
55	0x3d4c17ee	0.04982751
56	0x3bfc019c	0.0076906215
57	0xbd967936	-0.07347338
58	0xbc1acdd2	-0.009448485
59	0xbb0c9d4d	-0.0021456063
60	0x3a583f1d	0.00082491507
61	0x3d099d11	0.033597056
62	0xbc370990	-0.0111717135
63	0x3c3644ee	0.011124833

net.4.weight f4 [64]
0	0x3f842e31	1.0326596
1	0x3f7f8dfc	0.99826026
2	0x3f7c78d5	0.98621875
3	0x3f84db0a	1.0379345
4	0x3f75be1a	0.95993197
5	0x3f7bbf26	0.98338544
6	0x3f808efd	1.0043637
7	0x3f8290b3	1.0200409
8	0x3f82a343	1.0206074
9	0x3f75b0fa	0.9597317
10	0x3f77f894	0.96863675
11	0x3f7a6729	0.9781366
12	0x3f7da64b	0.9908187
13	0x3f774520	0.9658985
14	0x3f799c5d	0.97504216
15	0x3f7c8114	0.9863446
16	0x3f83fec7	1.0312127
17	0x3f78c713	0.97178763
18	0x3f85202c	1.0400443
19	0x3f82f872	1.023207
20	0x3f850f3a	1.0395272
21	0x3f7c37c9	0.9852262
22	0x3f807e66	1.0038574
23	0x3f817c10	1.0115986
24	0x3f7a3072	0.9773017
25	0x3f840ba7	1.0316056
26	0x3f788c14	0.9708874
27	0x3f82c384	1.0215917
28	0x3f826658	1.0187483
29	0x3f830be1	1.0238
30	0x3f815993	1.0105461
31	0x3f7c7945	0.9862254
32	0x3f8568c7	1.04226
33	0x3f851605	1.0397345
34	0x3f79aaf1	0.9752646
35	0x3f7832eb	0.96952695
36	0x3f848b6c	1.0355048
37	0x3f7804f2	0.96882546
38	0x3f82b772	1.0212233
39	0x3f839fc6	1.0283134
40	0x3f781df4	0.96920705
41	0x3f83ea82	1.0305941
42	0x3f813738	1.0094976
43	0x3f804d99	1.0023681
44	0x3f7658bd	0.96229154
45	0x3f7a37f6	0.9774164
46	0x3f783031	0.96948534
47	0x3f7d0a0b	0.9884345
48	0x3f833891	1.0251638
49	0x3f776d21	0.9665089
50	0x3f82ef2a	1.0229237
51	0x3f82acd6	1.0208995
52	0x3f821ec5	1.016564
53	0x3f833fe6	1.0253875
54	0x3f83b899	1.029071
55	0x3f827541	1.0192033
56	0x3f7e4f97	0.99340194
57	0x3f7652e2	0.9622022
58	0x3f78b664	0.97153306
59	0x3f7b8cf1	0.98261935
60	0x3f7c83f6	0.98638856
61	0x3f7a896f	0.9786596
62	0x3f833ede	1.025356
63	0x3f817edf	1.0116843
