FarconVAE/result_adult/adult_downstream_s_2023_05_01_22_53_26_070351_ours.pth.pt (torch, 26372 bytes, 21 tensors)

fc1.weight f4 [64, 15]
000000 09 80 00 3c ea 43 ed 3d c1 81 15 3e a9 e5 d1 3c
       0.007843026 0.11585219 0.14600278 0.025622206
000010 61 2c 6f 3d 23 f9 53 ba 08 0c 84 3e bf 2e 67 3e
       0.058391932 -0.00080861355 0.2579043 0.22576426
000020 2c 24 97 3d b1 6b 7a be 64 12 da bc 0b 70 89 bd
       0.07379946 -0.24455144 -0.026620097 -0.067108236
000030 41 b1 e4 3b 78 31 c4 be 76 d1 7d 3b f3 16 48 bd
       0.006979138 -0.38318992 0.0038729585 -0.04885001
000040 93 60 a4 3d ed 41 20 be c9 5a ab 3e 56 f3 b8 3c
       0.080262326 -0.15650149 0.334677 0.02257697
000050 a8 01 c7 3d bc 2d 46 be c5 ac f8 bd 1c 7a d4 3c
       0.09717113 -0.19353384 -0.12142328 0.025937133
000060 02 de fe bd 67 b6 46 3e eb 5c 62 3d 0d f9 d0 bd
       -0.124446884 0.19405518 0.055264395 -0.10203753
000070 09 a4 84 3d b0 cc c8 3d bc 6e 23 bc 6b 9d b7 3d
       0.064766 0.09804666 -0.009975132 0.08965572
000080 6d 40 48 be ff cc fc 3d d9 a1 a0 bd e8 0d 3d bd
       -0.19555826 0.123437874 -0.0784337 -0.04615584
000090 37 0c b8 bd 8b b3 8d 3e c7 97 10 3e 20 9f 02 be
       -0.08986705 0.27676043 0.14120398 -0.12756014
0000a0 08 d0 35 bd 48 e0 a0 be 6e 88 83 be c3 aa 74 3e
       -0.044387847 -0.31421113 -0.25690025 0.23893265
0000b0 b3 58 70 be b0 9b 74 3d 80 72 e8 bd ce 6a 44 3d
       -0.23471336 0.059718788 -0.11349964 0.04795342
0000c0 7f 85 96 3d dd 77 f1 3d 2d 42 09 be 4a fe d1 3d
       0.07349681 0.1179044 -0.1340415 0.1025358
0000d0 15 0f 28 3e f1 22 be 3d 2e 87 90 3c f3 66 86 3e
       0.16412003 0.09284008 0.017642584 0.2625042
0000e0 01 7d 3f 3e ed a7 d7 bd e0 e1 81 3d 8b 78 49 be
       0.18700029 -0.10530076 0.0634191 -0.1967489
0000f0 0f 26 29 3e bc c9 a7 be 91 52 3c be 4e 22 6e 3c
       0.16518424 -0.327711 -0.18390872 0.014534546
000100 3e fc ff 3d 29 de 1e bd 31 ee 37 be c1 c7 21 3c
       0.12499283 -0.038786087 -0.17961957 0.009874285
000110 8d ec cf bd 35 b5 60 3d c2 b1 d1 bd c9 f7 fb 3d
       -0.1015254 0.054860312 -0.10238983 0.12303121
000120 f1 6e b4 bd b2 e5 1e be fb ab b1 3d f1 93 10 be
       -0.08810223 -0.1551731 0.08675381 -0.14118935
000130 f6 96 0e be 4e 00 b1 bd 13 74 71 bd 7c d8 10 3e
       -0.13924775 -0.08642636 -0.058948588 0.14145082
000140 34 0e 81 3e aa c6 84 bd fe ea c0 bd a4 8a 18 3e
       0.2520615 -0.06483205 -0.09419821 0.14896637
000150 31 4d 20 be 16 e3 f4 3d 0e f8 88 be be 59 2d be
       -0.15654446 0.11957376 -0.2675175 -0.16928765
000160 c8 62 9c 3b 7d 67 9a bd c5 92 e4 3d 39 31 11 be
       0.004772518 -0.0753927 0.111608066 -0.14178933
000170 57 b1 60 bd db 01 8d 3e 9e c6 f2 3c 5f 83 49 be
       -0.054856624 0.27540478 0.029635724 -0.1967902
000180 c6 7e 07 be c9 a2 01 be 1a 9e 83 be 2e e3 27 3e
       -0.13231954 -0.12659754 -0.2570656 0.16395256
000190 c1 d6 44 be 42 b2 6f 3d fd d9 b8 3c 09 2c 91 be
       -0.19222547 0.05851961 0.022564882 -0.2835391
0001a0 30 94 02 be 04 21 1f bd d4 65 f3 bc 4f dc 8d 3e
       -0.12751842 -0.038849846 -0.029711641 0.27707145
0001b0 f9 5e 33 3e 9e 96 25 3d d9 2c bf 3d 23 46 41 bd
       0.17516698 0.040426843 0.09334726 -0.04718603
0001c0 7e 86 87 3e de a9 a1 bd a5 c6 06 be 56 fa aa bc
       0.26469797 -0.07893728 -0.13161714 -0.020871323
0001d0 09 14 3b 3e 27 d9 ad bd 04 8e 06 be b1 90 9c bd
       0.18269362 -0.08488684 -0.13140112 -0.07644785
0001e0 e1 d2 9a 3e 42 a1 1e 3e 6e e4 ea 3d 06 a6 ab bd
       0.30239013 0.15491202 0.11469351 -0.08381276
0001f0 cc 73 29 be fb 55 ad 3d 3b 60 27 3e 92 68 05 bd
       -0.16548079 0.08463665 0.16345303 -0.03257043
000200 28 bd db 3d d6 72 ab 3d 96 cc 6e 3e bc 9d 83 be
       0.10729438 0.083715126 0.23320231 -0.2570628
000210 3c 0e 0d be de da 18 3d 66 1a 2d 3e 9b a8 1b 3e
       -0.13774961 0.037318103 0.16904601 0.15201037
000220 4e 1c 7b bd 28 a1 02 3e ff 27 76 bc 8e 4a 7f 3e
       -0.06130629 0.12756789 -0.015024184 0.24930784
000230 70 c9 2a 3d 37 77 16 be 75 c4 b7 3d 5e 17 70 bd
       0.041696012 -0.14693914 0.08973018 -0.058616035
000240 07 65 8b 3d b3 b8 29 3e ac ee 74 3e 16 40 f5 bd
       0.06806379 0.16574363 0.23919171 -0.11975114
000250 f7 a6 4d be 9f 8b b5 bd 5f b7 06 be ae 10 10 be
       -0.20083223 -0.08864521 -0.13155888 -0.14068863
000260 b8 cb ca 3d 35 1e 33 be 54 8b 17 bd e8 ff 01 be
       0.099021375 -0.17491992 -0.036998108 -0.12695277
000270 1d f0 08 3e fb 6a 0b 3e d5 66 7e bd 70 6d 3f be
       0.13372846 0.13615029 -0.062109787 -0.18694091
000280 bc 2b 8c bd 21 31 f9 3d 45 c6 5a 3d a4 64 1e 3e
       -0.06844279 0.12167574 0.05341174 0.15468079
000290 80 b9 88 bd 70 e3 5e 3d a8 46 c2 3c 00 0a 69 be
       -0.06676006 0.05441612 0.023715332 -0.22757721
0002a0 43 df 85 3e fa 93 9e ba 65 7d e2 3d be a6 fe 3d
       0.26146898 -0.0012098544 0.11059073 0.12434147
0002b0 e3 6c 4b 3e 4b a3 e2 3d 47 d0 7b 3e f0 f0 d7 3b
       0.19865756 0.11066302 0.2459117 0.0065900013
0002c0 4c e1 ca 3d 1a 14 b7 bd 48 1c 65 3e 7b b1 6c 3c
       0.09906253 -0.08939381 0.2237407 0.0144466115
0002d0 dc fb 61 3d dd 32 6a 3d d6 71 8f be a5 57 2d be
       0.055171832 0.057177413 -0.28016537 -0.16927965
0002e0 de c3 e9 3d e8 fa fe bd 63 ed 66 3e 70 4d ae 3d
       0.11414312 -0.124502 0.22551493 0.08510864
0002f0 e4 6b 67 3e 76 58 ac 3d f7 ec 80 3b 58 95 68 be
       0.22599751 0.0841531 0.0039344984 -0.2271322
000300 dd c8 19 3e 1b 55 a6 3d ae 6d e9 bc 30 3a 64 be
       0.1501803 0.08121701 -0.028494682 -0.22287822
000310 93 23 b4 3d 5f b9 60 be ae 6c 69 be ed 04 14 be
       0.08795848 -0.21945713 -0.22795364 -0.14455004
000320 51 83 37 3d 72 12 c8 3d cf bd 4c 3d 40 ac 04 be
       0.044802967 0.09769143 0.049985703 -0.12956333
000330 df b9 83 3e f9 e6 be 3d 54 4d 30 3d ac 44 b2 bc
       0.25727746 0.09321398 0.043042496 -0.02176126
000340 6b ef 93 bd 71 00 dc bd 2c d7 4c bd 52 99 29 bd
       -0.072234 -0.10742272 -0.05000989 -0.041405983
000350 7e a9 b4 3c f6 ef 8c 3e 77 c8 da 3d 06 ea 24 3d
       0.022053476 0.27526826 0.10682767 0.040262245
000360 2a 72 08 3e 58 c3 54 be 69 bf cd bd 8e 1b ac 3d
       0.133248 -0.20777643 -0.10046274 0.08403693
000370 7f 07 64 3e 1c f5 71 3d a9 45 4b be 76 14 55 be
       0.22268485 0.059071645 -0.19850792 -0.20808586
000380 20 48 44 be 80 2e 88 bd a7 68 8e 3d 74 6a d1 3d
       -0.19168139 -0.06649494 0.069535546 0.102253824
000390 94 ee 20 bd 72 24 ba 3a a3 93 22 3e eb 52 40 3e
       -0.039290026 0.0014201535 0.15876631 0.1878163
0003a0 52 bf 41 be e0 2d 41 bc d7 28 05 be 8e d0 a7 bd
       -0.18920639 -0.011790723 -0.1300386 -0.081940755
0003b0 a5 7a 1b 3e 7f bc 93 be 1b 3e 15 bd ab 99 13 3e
       0.15183504 -0.2885475 -0.03643618 0.14414088
0003c0 14 aa 05 be 22 61 2c be 53 73 c5 3d 2f 6c 64 3d
       -0.13053161 -0.16833928 0.09641137 0.055767234
0003d0 31 1b 57 3d 56 5f 10 be 47 09 33 3d bf 0e 81 3d
       0.052516166 -0.14098868 0.04371002 0.06301641
0003e0 52 2b 9e bd c6 24 56 be 3b db 36 3c 12 f5 35 3c
       -0.077231064 -0.20912465 0.011160667 0.011105793
0003f0 a0 ad 42 3c ce 7e 9d be 3e d0 a6 3e 30 b5 cd 3d
       0.011882216 -0.30760807 0.3258075 0.100443244

fc1.bias f4 [64]
000000 c2 8b 06 3a e4 59 bc 3b db 47 be bb 4c bd 07 bc
       0.000513252 0.0057480205 -0.0058069057 -0.008284878
000010 40 26 17 bb ec f9 12 bb c0 6e a0 3b e7 79 c0 bb
       -0.002306357 -0.0022426797 0.004896015 -0.005873907
000020 2f df a6 ba 5a 3f 11 3a d4 ac 43 3a 5a ac e9 3b
       -0.0012731309 0.0005540751 0.0007464413 0.0071311416
000030 62 59 13 bb a6 03 10 bc f5 15 15 bb 4e 3b 07 bc
       -0.0022483696 -0.008789932 -0.0022748683 -0.008253885
000040 74 7e 1c bc 81 ff 21 3c 67 84 03 3a 80 09 40 b9
       -0.009551633 0.009887577 0.0005016983 -0.00018314086
000050 df 27 81 b9 19 33 99 bb b4 d6 67 3a 22 cc 8b 3b
       -0.00024634504 -0.004675281 0.0008843944 0.004266278
000060 d6 32 e6 ba ad 94 9a 3a a4 0e 84 bb 85 d7 9b bb
       -0.0017562758 0.0011793576 -0.0040300656 -0.0047559165
000070 15 c6 1c bc cc f7 d2 39 c4 11 75 bb 4a cf a8 3b
       -0.009568711 0.00040238944 -0.0037394622 0.005151664
000080 dd 11 06 3c f2 eb 15 ba d6 9b 48 b9 50 a2 54 38
       0.00818297 -0.00057190575 -0.0001913154 5.0695904e-05
000090 6e b3 32 3b fc 3b 64 39 1b 81 6a bb 74 74 49 b9
       0.0027267593 0.0002176612 -0.003578252 -0.00019212236
0000a0 73 72 cb bb 97 d5 b0 bb ff 47 de bb e6 ab cb 3a
       -0.006208712 -0.0053965556 -0.006783485 0.0015538901
0000b0 16 68 62 3b 9a 18 7f bb 97 d0 b5 39 11 2f 31 ba
       0.0034546903 -0.0038924576 0.00034678422 -0.00067590276
0000c0 af 19 9f ba f5 fa 8f 3b ae c2 bf 39 e8 7d 1a 3c
       -0.0012138392 0.00439393 0.00036575407 0.009429432
0000d0 c8 75 12 bc 14 66 4b ba 8f ab 59 bb 3f 9e 06 3b
       -0.008939214 -0.0007759046 -0.003321383 0.00205411
0000e0 35 c9 2c bb f3 11 a0 bb a4 d6 9d bb 87 48 f8 ba
       -0.0026365046 -0.004884952 -0.004816847 -0.0018942513
0000f0 36 50 1f bc 46 7b aa 3b 4c c8 fb 39 a1 20 13 3b
       -0.009723714 0.0052026836 0.00048023683 0.0022449868

fc2.weight f4 [64, 64]
000000 86 3a aa bc fb b6 81 3c 12 02 da 3d 1d 5b 28 3d
       -0.02077986 0.015834322 0.10644926 0.041102517
000010 fe 99 b0 3a 33 e3 d4 3c 82 3a c9 3d df 3f 5e 3d
       0.0013473628 0.025987243 0.098256126 0.05426013
000020 f4 35 4d bb 48 cc d6 3d ca dc fe 3d 01 e7 6d 3d
       -0.0031312676 0.10488182 0.12444456 0.05808163
000030 32 9b 3c 3d e2 94 89 3d 53 ed 25 bd 80 a5 48 bd
       0.046046443 0.0671785 -0.040509533 -0.048985958
000040 d4 7c 97 bd b4 93 a6 3c e5 ca 05 3d e4 08 6d 3d
       -0.07396856 0.020334102 0.0326642 0.057869807
000050 0a 7c af 3d 6b d3 4d bd 3c f9 15 3e 34 f3 15 be
       0.085685804 -0.050250452 0.14645857 -0.14643556
000060 48 a2 92 bd b2 4d 2a bd 09 78 36 bd 5b e7 e5 bd
       -0.07159859 -0.041578002 -0.04454807 -0.11225768
000070 8b 09 a1 3c 91 3c a8 bd 16 6b e6 bd e2 dd 93 bd
       0.01965787 -0.08214677 -0.11250894 -0.07220055
000080 b7 81 bf bd 4c b1 cd bd 93 4e 79 3d f6 21 e2 3c
       -0.09350913 -0.10043582 0.06086595 0.027604084
000090 a3 7a 91 bd b2 d5 d3 3d 60 1c 29 3d 78 0e 8e 3d
       -0.07103469 0.103434935 0.041286826 0.069363534
0000a0 4f 2f 76 bd 49 07 f3 3c 71 07 34 bd 24 c8 5a 3d
       -0.06010371 0.02966656 -0.04395241 0.053413525
0000b0 4d fd 2f bd 2c a3 e2 3c db 19 8e 3d 47 ba 4c 3d
       -0.042966176 0.027665697 0.06938525 0.049982335
0000c0 0b ec d4 bc b8 37 94 3d ac 50 d9 bd 7a 3a 73 3c
       -0.02599146 0.0723719 -0.1061109 0.014845485
0000d0 dd 02 e2 3d 4a 26 0c 3e 9e 66 97 bc 73 3e 8e bc
       0.110357024 0.13686481 -0.018481549 -0.017363762
0000e0 e4 4e 72 bd 68 67 28 bd 2b 0e 94 3d 40 2c 25 3d
       -0.059157267 -0.04111424 0.07229265 0.040325403
0000f0 ba 32 de bd f4 11 f9 3d fa e9 87 3c 0f 5b 34 3b
       -0.10849519 0.121616274 0.01659106 0.0027520095
000100 aa f8 fc bc 7f 35 f9 bc b7 8d 0f 3e 41 5c 17 3d
       -0.030880291 -0.030421017 0.14018904 0.036953215
000110 67 b6 9a bd c5 f7 7a bd f5 ce fb 3c 23 92 9b bd
       -0.07554322 -0.061271448 0.030738333 -0.07596233
000120 e0 70 24 be 51 77 d7 3c bf 97 33 3d f1 7b 95 bd
       -0.16058683 0.026302012 0.04384589 -0.072990306
000130 55 c3 86 3d d0 aa 0e bd ff 7c 89 3c e1 e1 24 bd
       0.065802254 -0.03483087 0.016783236 -0.040254477
000140 f6 85 f0 3c 78 23 5c bc ee 60 68 bc 9d 99 1d 3d
       0.029360753 -0.013436191 -0.014183266 0.038476575
000150 b3 b2 dd bc 65 60 96 3d dd df 0d 3c 22 5f 50 3d
       -0.02706275 0.073426045 0.00865933 0.050871976
000160 0f 87 d7 bc d5 f6 59 bd fd d8 64 3c 7e 74 af bd
       -0.026309518 -0.053213913 0.01396775 -0.08567141
000170 5d 5b 54 bd af 24 74 bd 1e c3 d3 bd 7e 8c b8 3d
       -0.051844943 -0.059605297 -0.1033995 0.09011172
000180 66 61 df 3b 58 2a 98 3b 74 e8 fd bc 39 e7 b4 bd
       0.0068170307 0.0046437196 -0.030994631 -0.08833165
000190 d8 4c 24 3d fb 46 87 3d 43 3b e1 bd e4 42 83 bc
       0.040112346 0.06605335 -0.109976314 -0.016023107
0001a0 65 3a 94 3c 5a 24 f9 bd ec c0 48 3d 06 2e b5 3d
       0.018094251 -0.12165137 0.04901211 0.08846669
0001b0 f3 f4 49 be 97 13 5b 3d e6 0d c7 3c 53 67 b1 bd
       -0.19722347 0.05348548 0.02429862 -0.08662286
0001c0 0a 1c 94 3c cf f8 65 bd 2e fa 21 bc 79 79 bd bc
       0.018079776 -0.056145485 -0.009886308 -0.023129212
0001d0 7e 93 70 bd bb 01 f2 3c 96 58 5b 3d b4 2f a3 bc
       -0.05873441 0.02954184 0.05355128 -0.019920208
0001e0 0b 4a b9 3d fe f0 b8 bb 7a 2e 91 3d 1a 8d 18 bd
       0.09047326 -0.005643963 0.07088943 -0.03724394
0001f0 df 6e c5 bc cd 8d d6 bd 2d 0d a4 3d 40 82 6f 3d
       -0.024100719 -0.10476265 0.080103256 0.058473825
000200 45 13 56 3c 04 d1 d9 3c 89 a1 bf bd 65 50 70 be
       0.013066118 0.026588924 -0.09356982 -0.23468168
000210 bd 4d 6b bc 16 3a a7 bd 57 28 68 bd 36 86 24 3c
       -0.014361796 -0.08165376 -0.056679096 0.010041764
000220 3c 97 30 bd d7 80 6c 3d e0 55 26 bd 40 35 ff 3c
       -0.04311298 0.05774006 -0.04060924 0.031153321
000230 be 2d 32 be 66 39 95 3c 2a da 13 3e 98 60 31 3e
       -0.17400262 0.018215846 0.14438692 0.17322004
000240 35 df 7c 3c e6 a4 36 3d 39 40 db bd 91 fd 55 bd
       0.015434076 0.044590853 -0.10705609 -0.052243773
000250 4f ce 9c bc be d9 b1 bd c9 96 77 3d 62 2d c0 bd
       -0.019141344 -0.08684109 0.060446534 -0.09383656
000260 40 0d 15 3c 40 7c 94 bd 6c ab d0 bd d9 4c 0e 3e
       0.009097397 -0.07250261 -0.10188946 0.13896503
000270 49 db 38 bd 0d 75 99 3d 3b 04 3b be ff c1 05 be
       -0.045131 0.07493029 -0.18263333 -0.13062285
000280 a7 50 8d be 5b 6e 18 be 82 03 5f 3d ba 93 dc bc
       -0.27600595 -0.14885847 0.054446705 -0.02692591
000290 17 1e a6 3c 4b bb 76 3c 2f 17 93 bd 0a 3b be bc
       0.02027802 0.015059303 -0.07182156 -0.023221511
0002a0 0b 23 d3 3c ed 5e 25 bd 1f 9a 74 be 0e 63 a8 3c
       0.025773546 -0.04037373 -0.23886918 0.020555045
0002b0 a2 e5 4d 3d 44 32 7f 3c f4 a9 b1 bc 43 85 69 3d
       0.050267823 0.015575949 -0.021687485 0.057011854
0002c0 e7 28 d1 bc 46 2d 5f bd fc b3 3a be bc bc c1 3c
       -0.0255322 -0.054486535 -0.18232721 0.023649566
0002d0 16 13 a9 bc 0d bb 23 be 36 5a e9 bd 4f ed 14 3e
       -0.020638984 -0.15989323 -0.113941595 0.14543651
0002e0 71 92 20 bd 5b 8d e3 bd 67 f1 a5 3d 01 32 34 3b
       -0.039202157 -0.11110946 0.081026845 0.0027495625
0002f0 26 81 89 3d 1e 29 df 3d 79 9c ed bd ab 45 d8 3d
       0.06714086 0.10896514 -0.116021104 0.10560163
000300 3c 11 80 bc 28 5c 6b bb fa 25 c7 3c 95 09 70 bd
       -0.015633218 -0.0035913084 0.0243101 -0.058602888
000310 99 13 47 bc 7f ef b4 3c c5 c7 30 3d 2c ba 7b 3d
       -0.012150669 0.022086857 0.043159265 0.061456844
000320 33 a1 93 3d 6b 12 11 bd 73 ec 1b 3c 4a 0b 9d 3d
       0.07208481 -0.035417955 0.009516823 0.07668169
000330 09 5b 81 bd 8a 97 9e 3c b5 f4 19 3c ab 0b 0e bd
       -0.06316192 0.019359369 0.009396722 -0.034679096
000340 28 4c 46 bb 67 48 ce 3c e3 3a 0a be 06 3e db 3d
       -0.0030257795 0.025181009 -0.13499026 0.107051894
000350 f4 c6 95 3c 0c df 8e bd 4b 2f 7b 3d 43 19 05 be
       0.018283345 -0.069761366 0.0613244 -0.12997918
000360 91 e1 69 3d 53 e9 19 3d 6e 97 b2 bd 7b fa 7f bd
       0.057099883 0.03757603 -0.08720289 -0.062494736
000370 b6 e1 a6 bc b8 9d 1d bd 85 ee 8c bd 50 60 b9 3c
       -0.0203713 -0.03848049 -0.068814315 0.022628933
000380 55 0f 9a bd 66 d3 4c bd f8 71 b1 3c 4f 22 86 bd
       -0.075224556 -0.050006293 0.02166079 -0.065495126
000390 60 b7 df bc 54 1e e7 3c 12 c2 0d 3d 97 76 20 3d
       -0.02730912 0.028212704 0.034608908 0.039175596
0003a0 ff 1a 55 bd f7 b3 99 bd ae a1 de bd 75 b7 1a be
       -0.0520277 -0.07505029 -0.10870682 -0.15109046
0003b0 7f c4 82 3d 36 54 89 bc 2c 12 28 bc 96 74 c0 bd
       0.06385135 -0.016763788 -0.010258239 -0.09397237
0003c0 df ab 27 bd ec 2b 97 3a 7c a2 e4 bc 16 27 c4 bc
       -0.040935393 0.0011533475 -0.02790951 -0.023944419
0003d0 f4 c9 12 bc ad 36 c3 bd 62 15 38 bd 68 9b d5 3d
       -0.008959282 -0.09531913 -0.044942267 0.10430032
0003e0 dc 56 7f bd 33 02 b2 bc eb 94 a8 3c 84 2e 05 bd
       -0.062338695 -0.021729564 0.020578822 -0.032515064
0003f0 61 d2 00 be 16 d3 85 3d cf 0a d5 3c 09 6f 27 bd
       -0.12580253 0.06534402 0.02600613 -0.040877376

fc2.bias f4 [64]
000000 65 f2 b1 3b 90 b1 a1 3b c2 2c 35 bb 9b 08 a3 ba
       0.005430507 0.004934497 -0.0027645086 -0.0012438478
000010 49 22 43 bb d8 ff a5 3b b2 af 55 3b 22 59 ad bb
       -0.0029775074 0.0050658993 0.0032605943 -0.0052901665
000020 e0 78 34 3b 8b 8e 47 bb 88 b4 0e 3a 07 65 0e ba
       0.0027537867 -0.0030449952 0.00054437714 -0.00054319244
000030 d0 40 9b bb 38 7c b1 bb e7 e8 99 38 71 4d ae 39
       -0.004737951 -0.0054164194 7.33899e-05 0.00033245565
000040 ea af 05 bb e9 16 b3 3b 97 2f e1 ba fc 9d 14 3b
       -0.0020399042 0.0054653776 -0.001718032 0.0022677174
000050 4b 3b 99 3b 61 36 e4 3a c2 a7 a0 ba a3 3d b3 3b
       0.0046762577 0.0017411226 -0.0012257027 0.005469994
000060 14 91 06 ba 29 49 dc ba fb 89 aa 3b ee 7f 48 ba
       -0.00051333127 -0.0016806471 0.005204437 -0.00076484575
000070 7c 07 a2 3b 5a 65 5e 3b 6b 33 2b 3a 35 87 91 3b
       0.00494474 0.0033934922 0.0006530794 0.0044411668
000080 21 79 e1 36 64 6a bc ba 56 6b 17 ba a0 c7 83 3b
       6.719624e-06 -0.0014374969 -0.0005776187 0.0040216
000090 be 28 b1 b9 b8 bf 8b 3b 3a b8 d8 3a b6 e0 8b ba
       -0.00033790426 0.004264798 0.0016534396 -0.0010671827
0000a0 84 d0 86 3b 81 54 8a ba 8d 64 3d 3b b0 14 cd ba
       0.0041142125 -0.0010553749 0.0028899044 -0.0015646424
0000b0 bd 0e e5 3a 5b d0 62 3b da 9b 4b 39 28 ba a0 bb
       0.0017475706 0.0034609053 0.00019417648 -0.004905004
0000c0 ca 07 67 39 1c 58 30 ba ac 8e f5 39 d2 94 d1 39
       0.00022032778 -0.00067269965 0.0004683634 0.00039974466
0000d0 ad f7 b2 bb 80 15 e6 3a 09 38 e1 ba e6 ed 23 3a
       -0.005461654 0.0017554015 -0.0017182837 0.0006253406
0000e0 2d 37 73 39 9a 72 82 3b 32 d3 9c bb 53 eb cd 39
       0.0002319484 0.0039809467 -0.0047859186 0.00039275977
0000f0 d6 b1 a3 bb e3 8a 3e ba 32 c1 ac b8 5b 59 33 39
       -0.004995565 -0.00072686205 -8.2375846e-05 0.00017104058

out.weight f4 [1, 64]
000000 be c0 82 bc 5b 87 ed 3c be 83 04 3e 46 14 f6 3c
       -0.015961047 0.028995207 0.1294088 0.030038964
000010 13 c7 1e 3e c7 07 7d bd c5 94 00 3e f3 a9 b9 3d
       0.15505628 -0.061774995 0.12556751 0.09065618
000020 35 40 60 bd ef cf 01 3e ab 7b 46 bd 4c 6f 11 bd
       -0.054748733 0.12676977 -0.048457783 -0.03550653
000030 29 c8 17 3d 20 4d 60 bd df 51 00 3e 02 98 fb 3d
       0.037056122 -0.054761052 0.12531231 0.122848526
000040 72 73 ea 3d 7e c3 fa 3d a5 ac a9 ba 51 1d 09 3d
       0.11447801 0.122443184 -0.0012945129 0.033475224
000050 9c 49 5f 3d 0d 63 7f bd 4e 9e 28 3d 99 a1 9f 3d
       0.05451356 -0.06235032 0.041166596 0.07794494
000060 58 d3 87 3d 37 5d 5d 3d e4 37 ed 3d f0 ca ca 3d
       0.066321075 0.054043975 0.11582926 0.099019885
000070 e2 ae fe 3d 6f 98 93 3d 9c 97 f2 3d 9c 02 b5 3d
       0.124357 0.07206809 0.118453234 0.08838388
000080 2d d7 f6 3d ab d6 e5 3c 98 e6 b0 3d 72 e3 69 3d
       0.1205276 0.028056463 0.08637732 0.057101674
000090 45 ee 01 3e 4a e1 83 3d d1 98 e2 bc 90 be 90 3d
       0.12688549 0.06439455 -0.02766076 0.07067597
0000a0 ee bf 96 3c ba 64 1b bd fc 82 a7 3d 9e ca 09 3e
       0.018402066 -0.037937857 0.0817928 0.13456199
0000b0 14 c5 e7 3d 77 bb 47 bd a4 78 b4 bc ce d8 8c 3c
       0.113168865 -0.048762765 -0.022030182 0.017193224
0000c0 e7 5b 4b 3d 10 7a e4 3d d0 b8 bb bc e6 b3 c4 bd
       0.04964819 0.11156094 -0.022915274 -0.096046254
0000d0 b4 24 95 3c 85 26 d8 bd be ec 4b 3d 61 55 7a bd
       0.018205978 -0.10554222 0.04978632 -0.06111658
0000e0 5b 73 4a bb 1a 92 13 3c 08 93 97 bd 9b 99 b5 3d
       -0.003089151 0.009007001 -0.07401091 0.088671885
0000f0 0c a5 27 3d d6 5a 1b 3c ae a7 ae bd 97 bb b2 bd
       0.040928885 0.009482106 -0.08528076 -0.08727186

bn.weight f4 [64]
000000 a3 21 61 3f f3 3e 48 3f a6 80 7f 3f 7e a3 34 3f
       0.8794195 0.7822105 0.99805677 0.7056197
000010 87 12 81 3f 1d c0 62 3f b1 b9 80 3f 4d c9 73 3f
       1.0083779 0.8857439 1.0056669 0.95229036
000020 f7 d4 64 3f ee af 7d 3f e7 16 66 3f f2 ba 5c 3f
       0.8938746 0.9909657 0.89878696 0.86222756
000030 37 40 4f 3f 72 c5 65 3f e3 f6 7e 3f 7d b3 7e 3f
       0.8095736 0.897544 0.9959547 0.9949263
000040 d6 b7 7e 3f 88 6e 7d 3f 5d 6e 49 3f 3a 65 49 3f
       0.9949926 0.9899678 0.78684026 0.78670084
000050 6b ee 3e 3f 1d 1c 6a 3f 5e 25 4a 3f 9b 98 78 3f
       0.74582547 0.9144915 0.7896327 0.9710786
000060 b1 eb 67 3f d0 1d 4f 3f b1 d7 81 3f a4 1d 78 3f
       0.9059401 0.80904865 1.0143949 0.9692023
000070 c0 06 7a 3f b9 d0 65 3f 7d 47 7e 3f 54 f0 74 3f
       0.9766655 0.8977161 0.9932783 0.9567921
000080 0c 3a 80 3f d6 52 2f 3f 99 70 72 3f 51 7a 64 3f
       1.0017715 0.6848577 0.9470306 0.8924914
000090 43 e6 7c 3f a0 7e 65 3f 3b 3b 5b 3f 93 e4 64 3f
       0.9878885 0.8964634 0.85637254 0.89411277
0000a0 3e d4 51 3f 7b dc 67 3f 75 57 79 3f 76 26 7d 3f
       0.8196448 0.905708 0.97399074 0.9888681
0000b0 be bd 80 3f 6d 1d 66 3f 2d f8 58 3f e0 35 43 3f
       1.0057905 0.8988865 0.84753686 0.7625408
0000c0 53 09 64 3f e2 66 77 3f 66 5d 57 3f f2 13 6e 3f
       0.8907673 0.9664136 0.8412689 0.92999184
0000d0 c6 7e 46 3f 3c e4 6d 3f e5 00 3d 3f 87 f3 66 3f
       0.7753719 0.92926383 0.7382949 0.90215343
0000e0 b8 2a 52 3f ca ec 4a 3f 69 6b 6d 3f 04 cf 78 3f
       0.82096434 0.7926756 0.9274202 0.9719088
0000f0 b2 7a 4f 3f 21 78 59 3f 1b ae 6a 3f e5 fc 6a 3f
       0.81046593 0.8494893 0.91671914 0.91792136

bn.bias f4 [64]
000000 1a e2 c5 bd 0e 0d 39 be ac 43 fd 3b fe fe 64 be
       -0.09662266 -0.18071386 0.0077290144 -0.22362897
000010 c6 87 8d 3b 34 1d ad bd 0a 96 65 3c 70 4f 03 bd
       0.004319164 -0.08452836 0.014012823 -0.03205818
000020 a0 32 ad bd 5f 21 e8 3c 64 e4 e1 bd ce 12 d7 bd
       -0.084569216 0.028336225 -0.1102989 -0.105016336
000030 f4 6a 1e be fa 4f a4 bd db a0 1b 3c 19 90 d1 3c
       -0.15470487 -0.08023067 0.0094988 0.025581406
000040 6e 89 2a 3c 0c b1 13 bc 22 61 24 be 5a a4 25 be
       0.010408742 -0.009014379 -0.16052678 -0.16175976
000050 25 ae 53 be d8 89 c6 bd a6 ea 16 be 26 41 08 bd
       -0.206719 -0.0969426 -0.14737949 -0.033265255
000060 ec de 09 bd d0 56 f1 bd dc c7 72 bc c0 88 b4 bc
       -0.03365986 -0.11784136 -0.014818158 -0.022037864
000070 a6 72 06 3d e3 33 24 bd 65 b7 0b 3c 6a ed 38 bd
       0.03282418 -0.040088546 0.008527611 -0.04514829
000080 0c 5a 92 b9 99 ff 6a be b7 25 9a bc 1c 0a 42 bd
       -0.0002791438 -0.22949065 -0.018816812 -0.047372922
000090 8b d6 64 3c 0d 91 9e bd cd e6 dd bd 00 9c c5 bd
       0.013967167 -0.0774251 -0.108350374 -0.09648895
0000a0 4c 14 10 be 20 41 9a bd f3 22 f2 3c f6 40 3f 3c
       -0.14070243 -0.07531953 0.02955768 0.011673203
0000b0 a5 cd 45 bb bf 46 c9 bd bf 03 04 be fa 89 35 be
       -0.0030182388 -0.09827947 -0.12892054 -0.17728415
0000c0 65 54 9f bd fd f4 62 bb f7 c4 09 be 89 a3 ac bd
       -0.07779769 -0.0034630888 -0.13454042 -0.08429629
0000d0 4c 30 45 be 3a 21 bb bd c3 35 59 be a7 a3 c4 bd
       -0.19256705 -0.09137197 -0.21211915 -0.09601527
0000e0 92 1e 06 be ed a8 23 be c4 02 bb bd bd ee 54 3c
       -0.13097599 -0.15982409 -0.09131387 0.012996373
0000f0 f1 f0 2d be 60 7f 2a be 29 55 a8 bd 67 b4 a0 bd
       -0.16986443 -0.16650152 -0.08219368 -0.07846909

bn.running_mean f4 [64]
000000 55 c8 9e 3d bd d2 d9 bd ff ca 77 be 7e 5c 9b be
       0.07753054 -0.10635898 -0.2419853 -0.30344003
000010 29 c6 51 3d 77 97 93 3e fa 58 a6 bd 80 26 f6 bb
       0.05121437 0.28826496 -0.0812244 -0.007511914
000020 67 51 c6 bd 82 73 12 be 45 40 35 3e 3e 0d 9e 3e
       -0.09683495 -0.14301875 0.17700298 0.30869478
000030 98 6d 84 bd c4 11 fc 3d cd de d9 bd 81 3a 7e 3e
       -0.06466216 0.12308076 -0.10638199 0.24827005
000040 78 69 d1 bd 90 e8 27 be 42 91 45 be 0d be 99 3d
       -0.10225195 -0.1639731 -0.19293693 0.075069524
000050 3e 35 94 bd 6a c4 9b 3a bb 07 ca ba eb a3 dc be
       -0.07236718 0.0011884097 -0.0015413681 -0.4309381
000060 96 c5 49 3d 23 b9 01 be 2d 0d 73 be 8a 1f b6 be
       0.0492607 -0.1266828 -0.23735495 -0.35570937
000070 04 c1 dc bd bc 2f 8a be e1 1a ab bd 23 11 30 be
       -0.10779002 -0.26989543 -0.08354736 -0.17194037
000080 a0 8b 6c be 8a 1d 2d bd 19 a1 21 3c d5 7b ba bd
       -0.23100138 -0.0422645 0.009865069 -0.0910565
000090 0f 61 97 3d 91 44 2e 3c 37 69 65 be 0d 51 48 3d
       0.07391559 0.010636465 -0.22403418 0.04890542
0000a0 1d da a6 3d 1e 7f a1 3c 95 49 d2 bd 3f 29 a0 be
       0.081470706 0.019713935 -0.10267941 -0.31281468
0000b0 ad f1 32 be af 41 70 3e 4d 64 70 3e 8e 2c 70 3d
       -0.17475004 0.23462556 0.23475762 0.05863624
0000c0 53 2c 9d 3d ef 49 87 bd 94 4b 99 bc 4e 53 ab 3e
       0.0767447 -0.066058986 -0.018712796 0.33461994
0000d0 a2 e7 b9 3d 5c ba 60 3e f9 18 93 be c1 e3 65 3e
       0.090773836 0.2194609 -0.2872999 0.22450162
0000e0 0d 41 da 3d 3a 98 28 bd 13 f2 ed 3b 07 04 57 be
       0.10656939 -0.0411608 0.0072615235 -0.2099763
0000f0 63 6c 53 bd ff 87 2b 3b 49 31 05 3d 1f 62 84 3e
       -0.051617038 0.002617359 0.032517705 0.2585611

bn.running_var f4 [64]
000000 14 6d 79 3e 57 4a 25 3e 35 98 14 3f a4 12 b1 3e
       0.24358016 0.1614164 0.5804475 0.34584534
000010 45 e4 62 3e ec 34 67 3e 24 30 92 3e 7d 4f a2 3e
       0.2215739 0.22578782 0.28552353 0.3170127
000020 c0 99 91 3e 12 8e 8b 3e 4f 94 eb 3d 79 e4 7d 3e
       0.28437614 0.2725683 0.11502897 0.24794187
000030 f8 00 41 3e db 81 d7 3e ea 2e 78 3e 4d d5 f3 3e
       0.18848026 0.4209126 0.24236646 0.47623673
000040 52 e2 2e 3e db 3e 7b 3e b4 d5 5a 3e 76 90 a8 3e
       0.17078522 0.24535696 0.21370584 0.32922715
000050 c3 3b 6c 3e 6b 3a 4d 3e 34 d9 87 3e 3d d7 dc 3e
       0.23069672 0.20041816 0.265329 0.43132964
000060 a7 82 80 3e 19 78 8f 3e 61 a8 81 3e 00 36 10 3f
       0.2509968 0.28021315 0.25323775 0.563324
000070 66 9d 7b 3e 9a 9d e1 3e 16 bb 80 3e 2e c0 4a 3e
       0.24571761 0.44065553 0.25142735 0.19799873
000080 fe d6 a9 3e 57 68 4c 3e 87 44 a8 3e 27 4f db 3e
       0.3317184 0.19961677 0.32864782 0.42833826
000090 8e 14 b2 3e 84 4b 9e 3e 2e e4 28 3f 0e 4d 72 3e
       0.34781307 0.3091699 0.65973175 0.23662207
0000a0 0f 62 4a 3e 2a 98 93 3e 8e 2e b7 3e 6d 13 3d 3e
       0.19763969 0.2882703 0.35777706 0.18464442
0000b0 dc 7c ee 3e 85 20 7f 3e a1 d1 46 3e 5e ac 8f 3e
       0.46579635 0.24914749 0.19415905 0.28061193
0000c0 78 81 04 3f ea 22 29 3e c7 32 90 3e 8b 01 84 3e
       0.51760054 0.16517225 0.2816374 0.25782427
0000d0 40 be d3 3e 48 2b 81 3e 3d b5 8f 3e 9f 1e 82 3e
       0.41356087 0.25228333 0.2806796 0.25413987
0000e0 1b 35 b9 3e 5b 2e be 3e 4d 8c 40 3e 82 c3 f2 3e
       0.3617333 0.3714474 0.1880352 0.47414786
0000f0 24 e7 50 3e 67 46 6b 3e 30 ff 14 3f 7d dd 55 3e
       0.20400673 0.22976075 0.58201885 0.20885272

net.0.weight f4 [64, 15]
000000 09 80 00 3c ea 43 ed 3d c1 81 15 3e a9 e5 d1 3c
       0.007843026 0.11585219 0.14600278 0.025622206
000010 61 2c 6f 3d 23 f9 53 ba 08 0c 84 3e bf 2e 67 3e
       0.058391932 -0.00080861355 0.2579043 0.22576426
000020 2c 24 97 3d b1 6b 7a be 64 12 da bc 0b 70 89 bd
       0.07379946 -0.24455144 -0.026620097 -0.067108236
000030 41 b1 e4 3b 78 31 c4 be 76 d1 7d 3b f3 16 48 bd
       0.006979138 -0.38318992 0.0038729585 -0.04885001
000040 93 60 a4 3d ed 41 20 be c9 5a ab 3e 56 f3 b8 3c
       0.080262326 -0.15650149 0.334677 0.02257697
000050 a8 01 c7 3d bc 2d 46 be c5 ac f8 bd 1c 7a d4 3c
       0.09717113 -0.19353384 -0.12142328 0.025937133
000060 02 de fe bd 67 b6 46 3e eb 5c 62 3d 0d f9 d0 bd
       -0.124446884 0.19405518 0.055264395 -0.10203753
000070 09 a4 84 3d b0 cc c8 3d bc 6e 23 bc 6b 9d b7 3d
       0.064766 0.09804666 -0.009975132 0.08965572
000080 6d 40 48 be ff cc fc 3d d9 a1 a0 bd e8 0d 3d bd
       -0.19555826 0.123437874 -0.0784337 -0.04615584
000090 37 0c b8 bd 8b b3 8d 3e c7 97 10 3e 20 9f 02 be
       -0.08986705 0.27676043 0.14120398 -0.12756014
0000a0 08 d0 35 bd 48 e0 a0 be 6e 88 83 be c3 aa 74 3e
       -0.044387847 -0.31421113 -0.25690025 0.23893265
0000b0 b3 58 70 be b0 9b 74 3d 80 72 e8 bd ce 6a 44 3d
       -0.23471336 0.059718788 -0.11349964 0.04795342
0000c0 7f 85 96 3d dd 77 f1 3d 2d 42 09 be 4a fe d1 3d
       0.07349681 0.1179044 -0.1340415 0.1025358
0000d0 15 0f 28 3e f1 22 be 3d 2e 87 90 3c f3 66 86 3e
       0.16412003 0.09284008 0.017642584 0.2625042
0000e0 01 7d 3f 3e ed a7 d7 bd e0 e1 81 3d 8b 78 49 be
       0.18700029 -0.10530076 0.0634191 -0.1967489
0000f0 0f 26 29 3e bc c9 a7 be 91 52 3c be 4e 22 6e 3c
       0.16518424 -0.327711 -0.18390872 0.014534546
000100 3e fc ff 3d 29 de 1e bd 31 ee 37 be c1 c7 21 3c
       0.12499283 -0.038786087 -0.17961957 0.009874285
000110 8d ec cf bd 35 b5 60 3d c2 b1 d1 bd c9 f7 fb 3d
       -0.1015254 0.054860312 -0.10238983 0.12303121
000120 f1 6e b4 bd b2 e5 1e be fb ab b1 3d f1 93 10 be
       -0.08810223 -0.1551731 0.08675381 -0.14118935
000130 f6 96 0e be 4e 00 b1 bd 13 74 71 bd 7c d8 10 3e
       -0.13924775 -0.08642636 -0.058948588 0.14145082
000140 34 0e 81 3e aa c6 84 bd fe ea c0 bd a4 8a 18 3e
       0.2520615 -0.06483205 -0.09419821 0.14896637
000150 31 4d 20 be 16 e3 f4 3d 0e f8 88 be be 59 2d be
       -0.15654446 0.11957376 -0.2675175 -0.16928765
000160 c8 62 9c 3b 7d 67 9a bd c5 92 e4 3d 39 31 11 be
       0.004772518 -0.0753927 0.111608066 -0.14178933
000170 57 b1 60 bd db 01 8d 3e 9e c6 f2 3c 5f 83 49 be
       -0.054856624 0.27540478 0.029635724 -0.1967902
000180 c6 7e 07 be c9 a2 01 be 1a 9e 83 be 2e e3 27 3e
       -0.13231954 -0.12659754 -0.2570656 0.16395256
000190 c1 d6 44 be 42 b2 6f 3d fd d9 b8 3c 09 2c 91 be
       -0.19222547 0.05851961 0.022564882 -0.2835391
0001a0 30 94 02 be 04 21 1f bd d4 65 f3 bc 4f dc 8d 3e
       -0.12751842 -0.038849846 -0.029711641 0.27707145
0001b0 f9 5e 33 3e 9e 96 25 3d d9 2c bf 3d 23 46 41 bd
       0.17516698 0.040426843 0.09334726 -0.04718603
0001c0 7e 86 87 3e de a9 a1 bd a5 c6 06 be 56 fa aa bc
       0.26469797 -0.07893728 -0.13161714 -0.020871323
0001d0 09 14 3b 3e 27 d9 ad bd 04 8e 06 be b1 90 9c bd
       0.18269362 -0.08488684 -0.13140112 -0.07644785
0001e0 e1 d2 9a 3e 42 a1 1e 3e 6e e4 ea 3d 06 a6 ab bd
       0.30239013 0.15491202 0.11469351 -0.08381276
0001f0 cc 73 29 be fb 55 ad 3d 3b 60 27 3e 92 68 05 bd
       -0.16548079 0.08463665 0.16345303 -0.03257043
000200 28 bd db 3d d6 72 ab 3d 96 cc 6e 3e bc 9d 83 be
       0.10729438 0.083715126 0.23320231 -0.2570628
000210 3c 0e 0d be de da 18 3d 66 1a 2d 3e 9b a8 1b 3e
       -0.13774961 0.037318103 0.16904601 0.15201037
000220 4e 1c 7b bd 28 a1 02 3e ff 27 76 bc 8e 4a 7f 3e
       -0.06130629 0.12756789 -0.015024184 0.24930784
000230 70 c9 2a 3d 37 77 16 be 75 c4 b7 3d 5e 17 70 bd
       0.041696012 -0.14693914 0.08973018 -0.058616035
000240 07 65 8b 3d b3 b8 29 3e ac ee 74 3e 16 40 f5 bd
       0.06806379 0.16574363 0.23919171 -0.11975114
000250 f7 a6 4d be 9f 8b b5 bd 5f b7 06 be ae 10 10 be
       -0.20083223 -0.08864521 -0.13155888 -0.14068863
000260 b8 cb ca 3d 35 1e 33 be 54 8b 17 bd e8 ff 01 be
       0.099021375 -0.17491992 -0.036998108 -0.12695277
000270 1d f0 08 3e fb 6a 0b 3e d5 66 7e bd 70 6d 3f be
       0.13372846 0.13615029 -0.062109787 -0.18694091
000280 bc 2b 8c bd 21 31 f9 3d 45 c6 5a 3d a4 64 1e 3e
       -0.06844279 0.12167574 0.05341174 0.15468079
000290 80 b9 88 bd 70 e3 5e 3d a8 46 c2 3c 00 0a 69 be
       -0.06676006 0.05441612 0.023715332 -0.22757721
0002a0 43 df 85 3e fa 93 9e ba 65 7d e2 3d be a6 fe 3d
       0.26146898 -0.0012098544 0.11059073 0.12434147
0002b0 e3 6c 4b 3e 4b a3 e2 3d 47 d0 7b 3e f0 f0 d7 3b
       0.19865756 0.11066302 0.2459117 0.0065900013
0002c0 4c e1 ca 3d 1a 14 b7 bd 48 1c 65 3e 7b b1 6c 3c
       0.09906253 -0.08939381 0.2237407 0.0144466115
0002d0 dc fb 61 3d dd 32 6a 3d d6 71 8f be a5 57 2d be
       0.055171832 0.057177413 -0.28016537 -0.16927965
0002e0 de c3 e9 3d e8 fa fe bd 63 ed 66 3e 70 4d ae 3d
       0.11414312 -0.124502 0.22551493 0.08510864
0002f0 e4 6b 67 3e 76 58 ac 3d f7 ec 80 3b 58 95 68 be
       0.22599751 0.0841531 0.0039344984 -0.2271322
000300 dd c8 19 3e 1b 55 a6 3d ae 6d e9 bc 30 3a 64 be
       0.1501803 0.08121701 -0.028494682 -0.22287822
000310 93 23 b4 3d 5f b9 60 be ae 6c 69 be ed 04 14 be
       0.08795848 -0.21945713 -0.22795364 -0.14455004
000320 51 83 37 3d 72 12 c8 3d cf bd 4c 3d 40 ac 04 be
       0.044802967 0.09769143 0.049985703 -0.12956333
000330 df b9 83 3e f9 e6 be 3d 54 4d 30 3d ac 44 b2 bc
       0.25727746 0.09321398 0.043042496 -0.02176126
000340 6b ef 93 bd 71 00 dc bd 2c d7 4c bd 52 99 29 bd
       -0.072234 -0.10742272 -0.05000989 -0.041405983
000350 7e a9 b4 3c f6 ef 8c 3e 77 c8 da 3d 06 ea 24 3d
       0.022053476 0.27526826 0.10682767 0.040262245
000360 2a 72 08 3e 58 c3 54 be 69 bf cd bd 8e 1b ac 3d
       0.133248 -0.20777643 -0.10046274 0.08403693
000370 7f 07 64 3e 1c f5 71 3d a9 45 4b be 76 14 55 be
       0.22268485 0.059071645 -0.19850792 -0.20808586
000380 20 48 44 be 80 2e 88 bd a7 68 8e 3d 74 6a d1 3d
       -0.19168139 -0.06649494 0.069535546 0.102253824
000390 94 ee 20 bd 72 24 ba 3a a3 93 22 3e eb 52 40 3e
       -0.039290026 0.0014201535 0.15876631 0.1878163
0003a0 52 bf 41 be e0 2d 41 bc d7 28 05 be 8e d0 a7 bd
       -0.18920639 -0.011790723 -0.1300386 -0.081940755
0003b0 a5 7a 1b 3e 7f bc 93 be 1b 3e 15 bd ab 99 13 3e
       0.15183504 -0.2885475 -0.03643618 0.14414088
0003c0 14 aa 05 be 22 61 2c be 53 73 c5 3d 2f 6c 64 3d
       -0.13053161 -0.16833928 0.09641137 0.055767234
0003d0 31 1b 57 3d 56 5f 10 be 47 09 33 3d bf 0e 81 3d
       0.052516166 -0.14098868 0.04371002 0.06301641
0003e0 52 2b 9e bd c6 24 56 be 3b db 36 3c 12 f5 35 3c
       -0.077231064 -0.20912465 0.011160667 0.011105793
0003f0 a0 ad 42 3c ce 7e 9d be 3e d0 a6 3e 30 b5 cd 3d
       0.011882216 -0.30760807 0.3258075 0.100443244

net.0.bias f4 [64]
000000 c2 8b 06 3a e4 59 bc 3b db 47 be bb 4c bd 07 bc
       0.000513252 0.0057480205 -0.0058069057 -0.008284878
000010 40 26 17 bb ec f9 12 bb c0 6e a0 3b e7 79 c0 bb
       -0.002306357 -0.0022426797 0.004896015 -0.005873907
000020 2f df a6 ba 5a 3f 11 3a d4 ac 43 3a 5a ac e9 3b
       -0.0012731309 0.0005540751 0.0007464413 0.0071311416
000030 62 59 13 bb a6 03 10 bc f5 15 15 bb 4e 3b 07 bc
       -0.0022483696 -0.008789932 -0.0022748683 -0.008253885
000040 74 7e 1c bc 81 ff 21 3c 67 84 03 3a 80 09 40 b9
       -0.009551633 0.009887577 0.0005016983 -0.00018314086
000050 df 27 81 b9 19 33 99 bb b4 d6 67 3a 22 cc 8b 3b
       -0.00024634504 -0.004675281 0.0008843944 0.004266278
000060 d6 32 e6 ba ad 94 9a 3a a4 0e 84 bb 85 d7 9b bb
       -0.0017562758 0.0011793576 -0.0040300656 -0.0047559165
000070 15 c6 1c bc cc f7 d2 39 c4 11 75 bb 4a cf a8 3b
       -0.009568711 0.00040238944 -0.0037394622 0.005151664
000080 dd 11 06 3c f2 eb 15 ba d6 9b 48 b9 50 a2 54 38
       0.00818297 -0.00057190575 -0.0001913154 5.0695904e-05
000090 6e b3 32 3b fc 3b 64 39 1b 81 6a bb 74 74 49 b9
       0.0027267593 0.0002176612 -0.003578252 -0.00019212236
0000a0 73 72 cb bb 97 d5 b0 bb ff 47 de bb e6 ab cb 3a
       -0.006208712 -0.0053965556 -0.006783485 0.0015538901
0000b0 16 68 62 3b 9a 18 7f bb 97 d0 b5 39 11 2f 31 ba
       0.0034546903 -0.0038924576 0.00034678422 -0.00067590276
0000c0 af 19 9f ba f5 fa 8f 3b ae c2 bf 39 e8 7d 1a 3c
       -0.0012138392 0.00439393 0.00036575407 0.009429432
0000d0 c8 75 12 bc 14 66 4b ba 8f ab 59 bb 3f 9e 06 3b
       -0.008939214 -0.0007759046 -0.003321383 0.00205411
0000e0 35 c9 2c bb f3 11 a0 bb a4 d6 9d bb 87 48 f8 ba
       -0.0026365046 -0.004884952 -0.004816847 -0.0018942513
0000f0 36 50 1f bc 46 7b aa 3b 4c c8 fb 39 a1 20 13 3b
       -0.009723714 0.0052026836 0.00048023683 0.0022449868

net.1.weight f4 [64]
000000 a3 21 61 3f f3 3e 48 3f a6 80 7f 3f 7e a3 34 3f
       0.8794195 0.7822105 0.99805677 0.7056197
000010 87 12 81 3f 1d c0 62 3f b1 b9 80 3f 4d c9 73 3f
       1.0083779 0.8857439 1.0056669 0.95229036
000020 f7 d4 64 3f ee af 7d 3f e7 16 66 3f f2 ba 5c 3f
       0.8938746 0.9909657 0.89878696 0.86222756
000030 37 40 4f 3f 72 c5 65 3f e3 f6 7e 3f 7d b3 7e 3f
       0.8095736 0.897544 0.9959547 0.9949263
000040 d6 b7 7e 3f 88 6e 7d 3f 5d 6e 49 3f 3a 65 49 3f
       0.9949926 0.9899678 0.78684026 0.78670084
000050 6b ee 3e 3f 1d 1c 6a 3f 5e 25 4a 3f 9b 98 78 3f
       0.74582547 0.9144915 0.7896327 0.9710786
000060 b1 eb 67 3f d0 1d 4f 3f b1 d7 81 3f a4 1d 78 3f
       0.9059401 0.80904865 1.0143949 0.9692023
000070 c0 06 7a 3f b9 d0 65 3f 7d 47 7e 3f 54 f0 74 3f
       0.9766655 0.8977161 0.9932783 0.9567921
000080 0c 3a 80 3f d6 52 2f 3f 99 70 72 3f 51 7a 64 3f
       1.0017715 0.6848577 0.9470306 0.8924914
000090 43 e6 7c 3f a0 7e 65 3f 3b 3b 5b 3f 93 e4 64 3f
       0.9878885 0.8964634 0.85637254 0.89411277
0000a0 3e d4 51 3f 7b dc 67 3f 75 57 79 3f 76 26 7d 3f
       0.8196448 0.905708 0.97399074 0.9888681
0000b0 be bd 80 3f 6d 1d 66 3f 2d f8 58 3f e0 35 43 3f
       1.0057905 0.8988865 0.84753686 0.7625408
0000c0 53 09 64 3f e2 66 77 3f 66 5d 57 3f f2 13 6e 3f
       0.8907673 0.9664136 0.8412689 0.92999184
0000d0 c6 7e 46 3f 3c e4 6d 3f e5 00 3d 3f 87 f3 66 3f
       0.7753719 0.92926383 0.7382949 0.90215343
0000e0 b8 2a 52 3f ca ec 4a 3f 69 6b 6d 3f 04 cf 78 3f
       0.82096434 0.7926756 0.9274202 0.9719088
0000f0 b2 7a 4f 3f 21 78 59 3f 1b ae 6a 3f e5 fc 6a 3f
       0.81046593 0.8494893 0.91671914 0.91792136

net.1.bias f4 [64]
000000 1a e2 c5 bd 0e 0d 39 be ac 43 fd 3b fe fe 64 be
       -0.09662266 -0.18071386 0.0077290144 -0.22362897
000010 c6 87 8d 3b 34 1d ad bd 0a 96 65 3c 70 4f 03 bd
       0.004319164 -0.08452836 0.014012823 -0.03205818
000020 a0 32 ad bd 5f 21 e8 3c 64 e4 e1 bd ce 12 d7 bd
       -0.084569216 0.028336225 -0.1102989 -0.105016336
000030 f4 6a 1e be fa 4f a4 bd db a0 1b 3c 19 90 d1 3c
       -0.15470487 -0.08023067 0.0094988 0.025581406
000040 6e 89 2a 3c 0c b1 13 bc 22 61 24 be 5a a4 25 be
       0.010408742 -0.009014379 -0.16052678 -0.16175976
000050 25 ae 53 be d8 89 c6 bd a6 ea 16 be 26 41 08 bd
       -0.206719 -0.0969426 -0.14737949 -0.033265255
000060 ec de 09 bd d0 56 f1 bd dc c7 72 bc c0 88 b4 bc
       -0.03365986 -0.11784136 -0.014818158 -0.022037864
000070 a6 72 06 3d e3 33 24 bd 65 b7 0b 3c 6a ed 38 bd
       0.03282418 -0.040088546 0.008527611 -0.04514829
000080 0c 5a 92 b9 99 ff 6a be b7 25 9a bc 1c 0a 42 bd
       -0.0002791438 -0.22949065 -0.018816812 -0.047372922
000090 8b d6 64 3c 0d 91 9e bd cd e6 dd bd 00 9c c5 bd
       0.013967167 -0.0774251 -0.108350374 -0.09648895
0000a0 4c 14 10 be 20 41 9a bd f3 22 f2 3c f6 40 3f 3c
       -0.14070243 -0.07531953 0.02955768 0.011673203
0000b0 a5 cd 45 bb bf 46 c9 bd bf 03 04 be fa 89 35 be
       -0.0030182388 -0.09827947 -0.12892054 -0.17728415
0000c0 65 54 9f bd fd f4 62 bb f7 c4 09 be 89 a3 ac bd
       -0.07779769 -0.0034630888 -0.13454042 -0.08429629
0000d0 4c 30 45 be 3a 21 bb bd c3 35 59 be a7 a3 c4 bd
       -0.19256705 -0.09137197 -0.21211915 -0.09601527
0000e0 92 1e 06 be ed a8 23 be c4 02 bb bd bd ee 54 3c
       -0.13097599 -0.15982409 -0.09131387 0.012996373
0000f0 f1 f0 2d be 60 7f 2a be 29 55 a8 bd 67 b4 a0 bd
       -0.16986443 -0.16650152 -0.08219368 -0.07846909

net.1.running_mean f4 [64]
000000 55 c8 9e 3d bd d2 d9 bd ff ca 77 be 7e 5c 9b be
       0.07753054 -0.10635898 -0.2419853 -0.30344003
000010 29 c6 51 3d 77 97 93 3e fa 58 a6 bd 80 26 f6 bb
       0.05121437 0.28826496 -0.0812244 -0.007511914
000020 67 51 c6 bd 82 73 12 be 45 40 35 3e 3e 0d 9e 3e
       -0.09683495 -0.14301875 0.17700298 0.30869478
000030 98 6d 84 bd c4 11 fc 3d cd de d9 bd 81 3a 7e 3e
       -0.06466216 0.12308076 -0.10638199 0.24827005
000040 78 69 d1 bd 90 e8 27 be 42 91 45 be 0d be 99 3d
       -0.10225195 -0.1639731 -0.19293693 0.075069524
000050 3e 35 94 bd 6a c4 9b 3a bb 07 ca ba eb a3 dc be
       -0.07236718 0.0011884097 -0.0015413681 -0.4309381
000060 96 c5 49 3d 23 b9 01 be 2d 0d 73 be 8a 1f b6 be
       0.0492607 -0.1266828 -0.23735495 -0.35570937
000070 04 c1 dc bd bc 2f 8a be e1 1a ab bd 23 11 30 be
       -0.10779002 -0.26989543 -0.08354736 -0.17194037
000080 a0 8b 6c be 8a 1d 2d bd 19 a1 21 3c d5 7b ba bd
       -0.23100138 -0.0422645 0.009865069 -0.0910565
000090 0f 61 97 3d 91 44 2e 3c 37 69 65 be 0d 51 48 3d
       0.07391559 0.010636465 -0.22403418 0.04890542
0000a0 1d da a6 3d 1e 7f a1 3c 95 49 d2 bd 3f 29 a0 be
       0.081470706 0.019713935 -0.10267941 -0.31281468
0000b0 ad f1 32 be af 41 70 3e 4d 64 70 3e 8e 2c 70 3d
       -0.17475004 0.23462556 0.23475762 0.05863624
0000c0 53 2c 9d 3d ef 49 87 bd 94 4b 99 bc 4e 53 ab 3e
       0.0767447 -0.066058986 -0.018712796 0.33461994
0000d0 a2 e7 b9 3d 5c ba 60 3e f9 18 93 be c1 e3 65 3e
       0.090773836 0.2194609 -0.2872999 0.22450162
0000e0 0d 41 da 3d 3a 98 28 bd 13 f2 ed 3b 07 04 57 be
       0.10656939 -0.0411608 0.0072615235 -0.2099763
0000f0 63 6c 53 bd ff 87 2b 3b 49 31 05 3d 1f 62 84 3e
       -0.051617038 0.002617359 0.032517705 0.2585611

net.1.running_var f4 [64]
000000 14 6d 79 3e 57 4a 25 3e 35 98 14 3f a4 12 b1 3e
       0.24358016 0.1614164 0.5804475 0.34584534
000010 45 e4 62 3e ec 34 67 3e 24 30 92 3e 7d 4f a2 3e
       0.2215739 0.22578782 0.28552353 0.3170127
000020 c0 99 91 3e 12 8e 8b 3e 4f 94 eb 3d 79 e4 7d 3e
       0.28437614 0.2725683 0.11502897 0.24794187
000030 f8 00 41 3e db 81 d7 3e ea 2e 78 3e 4d d5 f3 3e
       0.18848026 0.4209126 0.24236646 0.47623673
000040 52 e2 2e 3e db 3e 7b 3e b4 d5 5a 3e 76 90 a8 3e
       0.17078522 0.24535696 0.21370584 0.32922715
000050 c3 3b 6c 3e 6b 3a 4d 3e 34 d9 87 3e 3d d7 dc 3e
       0.23069672 0.20041816 0.265329 0.43132964
000060 a7 82 80 3e 19 78 8f 3e 61 a8 81 3e 00 36 10 3f
       0.2509968 0.28021315 0.25323775 0.563324
000070 66 9d 7b 3e 9a 9d e1 3e 16 bb 80 3e 2e c0 4a 3e
       0.24571761 0.44065553 0.25142735 0.19799873
000080 fe d6 a9 3e 57 68 4c 3e 87 44 a8 3e 27 4f db 3e
       0.3317184 0.19961677 0.32864782 0.42833826
000090 8e 14 b2 3e 84 4b 9e 3e 2e e4 28 3f 0e 4d 72 3e
       0.34781307 0.3091699 0.65973175 0.23662207
0000a0 0f 62 4a 3e 2a 98 93 3e 8e 2e b7 3e 6d 13 3d 3e
       0.19763969 0.2882703 0.35777706 0.18464442
0000b0 dc 7c ee 3e 85 20 7f 3e a1 d1 46 3e 5e ac 8f 3e
       0.46579635 0.24914749 0.19415905 0.28061193
0000c0 78 81 04 3f ea 22 29 3e c7 32 90 3e 8b 01 84 3e
       0.51760054 0.16517225 0.2816374 0.25782427
0000d0 40 be d3 3e 48 2b 81 3e 3d b5 8f 3e 9f 1e 82 3e
       0.41356087 0.25228333 0.2806796 0.25413987
0000e0 1b 35 b9 3e 5b 2e be 3e 4d 8c 40 3e 82 c3 f2 3e
       0.3617333 0.3714474 0.1880352 0.47414786
0000f0 24 e7 50 3e 67 46 6b 3e 30 ff 14 3f 7d dd 55 3e
       0.20400673 0.22976075 0.58201885 0.20885272

net.3.weight f4 [64, 64]
000000 86 3a aa bc fb b6 81 3c 12 02 da 3d 1d 5b 28 3d
       -0.02077986 0.015834322 0.10644926 0.041102517
000010 fe 99 b0 3a 33 e3 d4 3c 82 3a c9 3d df 3f 5e 3d
       0.0013473628 0.025987243 0.098256126 0.05426013
000020 f4 35 4d bb 48 cc d6 3d ca dc fe 3d 01 e7 6d 3d
       -0.0031312676 0.10488182 0.12444456 0.05808163
000030 32 9b 3c 3d e2 94 89 3d 53 ed 25 bd 80 a5 48 bd
       0.046046443 0.0671785 -0.040509533 -0.048985958
000040 d4 7c 97 bd b4 93 a6 3c e5 ca 05 3d e4 08 6d 3d
       -0.07396856 0.020334102 0.0326642 0.057869807
000050 0a 7c af 3d 6b d3 4d bd 3c f9 15 3e 34 f3 15 be
       0.085685804 -0.050250452 0.14645857 -0.14643556
000060 48 a2 92 bd b2 4d 2a bd 09 78 36 bd 5b e7 e5 bd
       -0.07159859 -0.041578002 -0.04454807 -0.11225768
000070 8b 09 a1 3c 91 3c a8 bd 16 6b e6 bd e2 dd 93 bd
       0.01965787 -0.08214677 -0.11250894 -0.07220055
000080 b7 81 bf bd 4c b1 cd bd 93 4e 79 3d f6 21 e2 3c
       -0.09350913 -0.10043582 0.06086595 0.027604084
000090 a3 7a 91 bd b2 d5 d3 3d 60 1c 29 3d 78 0e 8e 3d
       -0.07103469 0.103434935 0.041286826 0.069363534
0000a0 4f 2f 76 bd 49 07 f3 3c 71 07 34 bd 24 c8 5a 3d
       -0.06010371 0.02966656 -0.04395241 0.053413525
0000b0 4d fd 2f bd 2c a3 e2 3c db 19 8e 3d 47 ba 4c 3d
       -0.042966176 0.027665697 0.06938525 0.049982335
0000c0 0b ec d4 bc b8 37 94 3d ac 50 d9 bd 7a 3a 73 3c
       -0.02599146 0.0723719 -0.1061109 0.014845485
0000d0 dd 02 e2 3d 4a 26 0c 3e 9e 66 97 bc 73 3e 8e bc
       0.110357024 0.13686481 -0.018481549 -0.017363762
0000e0 e4 4e 72 bd 68 67 28 bd 2b 0e 94 3d 40 2c 25 3d
       -0.059157267 -0.04111424 0.07229265 0.040325403
0000f0 ba 32 de bd f4 11 f9 3d fa e9 87 3c 0f 5b 34 3b
       -0.10849519 0.121616274 0.01659106 0.0027520095
000100 aa f8 fc bc 7f 35 f9 bc b7 8d 0f 3e 41 5c 17 3d
       -0.030880291 -0.030421017 0.14018904 0.036953215
000110 67 b6 9a bd c5 f7 7a bd f5 ce fb 3c 23 92 9b bd
       -0.07554322 -0.061271448 0.030738333 -0.07596233
000120 e0 70 24 be 51 77 d7 3c bf 97 33 3d f1 7b 95 bd
       -0.16058683 0.026302012 0.04384589 -0.072990306
000130 55 c3 86 3d d0 aa 0e bd ff 7c 89 3c e1 e1 24 bd
       0.065802254 -0.03483087 0.016783236 -0.040254477
000140 f6 85 f0 3c 78 23 5c bc ee 60 68 bc 9d 99 1d 3d
       0.029360753 -0.013436191 -0.014183266 0.038476575
000150 b3 b2 dd bc 65 60 96 3d dd df 0d 3c 22 5f 50 3d
       -0.02706275 0.073426045 0.00865933 0.050871976
000160 0f 87 d7 bc d5 f6 59 bd fd d8 64 3c 7e 74 af bd
       -0.026309518 -0.053213913 0.01396775 -0.08567141
000170 5d 5b 54 bd af 24 74 bd 1e c3 d3 bd 7e 8c b8 3d
       -0.051844943 -0.059605297 -0.1033995 0.09011172
000180 66 61 df 3b 58 2a 98 3b 74 e8 fd bc 39 e7 b4 bd
       0.0068170307 0.0046437196 -0.030994631 -0.08833165
000190 d8 4c 24 3d fb 46 87 3d 43 3b e1 bd e4 42 83 bc
       0.040112346 0.06605335 -0.109976314 -0.016023107
0001a0 65 3a 94 3c 5a 24 f9 bd ec c0 48 3d 06 2e b5 3d
       0.018094251 -0.12165137 0.04901211 0.08846669
0001b0 f3 f4 49 be 97 13 5b 3d e6 0d c7 3c 53 67 b1 bd
       -0.19722347 0.05348548 0.02429862 -0.08662286
0001c0 0a 1c 94 3c cf f8 65 bd 2e fa 21 bc 79 79 bd bc
       0.018079776 -0.056145485 -0.009886308 -0.023129212
0001d0 7e 93 70 bd bb 01 f2 3c 96 58 5b 3d b4 2f a3 bc
       -0.05873441 0.02954184 0.05355128 -0.019920208
0001e0 0b 4a b9 3d fe f0 b8 bb 7a 2e 91 3d 1a 8d 18 bd
       0.09047326 -0.005643963 0.07088943 -0.03724394
0001f0 df 6e c5 bc cd 8d d6 bd 2d 0d a4 3d 40 82 6f 3d
       -0.024100719 -0.10476265 0.080103256 0.058473825
000200 45 13 56 3c 04 d1 d9 3c 89 a1 bf bd 65 50 70 be
       0.013066118 0.026588924 -0.09356982 -0.23468168
000210 bd 4d 6b bc 16 3a a7 bd 57 28 68 bd 36 86 24 3c
       -0.014361796 -0.08165376 -0.056679096 0.010041764
000220 3c 97 30 bd d7 80 6c 3d e0 55 26 bd 40 35 ff 3c
       -0.04311298 0.05774006 -0.04060924 0.031153321
000230 be 2d 32 be 66 39 95 3c 2a da 13 3e 98 60 31 3e
       -0.17400262 0.018215846 0.14438692 0.17322004
000240 35 df 7c 3c e6 a4 36 3d 39 40 db bd 91 fd 55 bd
       0.015434076 0.044590853 -0.10705609 -0.052243773
000250 4f ce 9c bc be d9 b1 bd c9 96 77 3d 62 2d c0 bd
       -0.019141344 -0.08684109 0.060446534 -0.09383656
000260 40 0d 15 3c 40 7c 94 bd 6c ab d0 bd d9 4c 0e 3e
       0.009097397 -0.07250261 -0.10188946 0.13896503
000270 49 db 38 bd 0d 75 99 3d 3b 04 3b be ff c1 05 be
       -0.045131 0.07493029 -0.18263333 -0.13062285
000280 a7 50 8d be 5b 6e 18 be 82 03 5f 3d ba 93 dc bc
       -0.27600595 -0.14885847 0.054446705 -0.02692591
000290 17 1e a6 3c 4b bb 76 3c 2f 17 93 bd 0a 3b be bc
       0.02027802 0.015059303 -0.07182156 -0.023221511
0002a0 0b 23 d3 3c ed 5e 25 bd 1f 9a 74 be 0e 63 a8 3c
       0.025773546 -0.04037373 -0.23886918 0.020555045
0002b0 a2 e5 4d 3d 44 32 7f 3c f4 a9 b1 bc 43 85 69 3d
       0.050267823 0.015575949 -0.021687485 0.057011854
0002c0 e7 28 d1 bc 46 2d 5f bd fc b3 3a be bc bc c1 3c
       -0.0255322 -0.054486535 -0.18232721 0.023649566
0002d0 16 13 a9 bc 0d bb 23 be 36 5a e9 bd 4f ed 14 3e
       -0.020638984 -0.15989323 -0.113941595 0.14543651
0002e0 71 92 20 bd 5b 8d e3 bd 67 f1 a5 3d 01 32 34 3b
       -0.039202157 -0.11110946 0.081026845 0.0027495625
0002f0 26 81 89 3d 1e 29 df 3d 79 9c ed bd ab 45 d8 3d
       0.06714086 0.10896514 -0.116021104 0.10560163
000300 3c 11 80 bc 28 5c 6b bb fa 25 c7 3c 95 09 70 bd
       -0.015633218 -0.0035913084 0.0243101 -0.058602888
000310 99 13 47 bc 7f ef b4 3c c5 c7 30 3d 2c ba 7b 3d
       -0.012150669 0.022086857 0.043159265 0.061456844
000320 33 a1 93 3d 6b 12 11 bd 73 ec 1b 3c 4a 0b 9d 3d
       0.07208481 -0.035417955 0.009516823 0.07668169
000330 09 5b 81 bd 8a 97 9e 3c b5 f4 19 3c ab 0b 0e bd
       -0.06316192 0.019359369 0.009396722 -0.034679096
000340 28 4c 46 bb 67 48 ce 3c e3 3a 0a be 06 3e db 3d
       -0.0030257795 0.025181009 -0.13499026 0.107051894
000350 f4 c6 95 3c 0c df 8e bd 4b 2f 7b 3d 43 19 05 be
       0.018283345 -0.069761366 0.0613244 -0.12997918
000360 91 e1 69 3d 53 e9 19 3d 6e 97 b2 bd 7b fa 7f bd
       0.057099883 0.03757603 -0.08720289 -0.062494736
000370 b6 e1 a6 bc b8 9d 1d bd 85 ee 8c bd 50 60 b9 3c
       -0.0203713 -0.03848049 -0.068814315 0.022628933
000380 55 0f 9a bd 66 d3 4c bd f8 71 b1 3c 4f 22 86 bd
       -0.075224556 -0.050006293 0.02166079 -0.065495126
000390 60 b7 df bc 54 1e e7 3c 12 c2 0d 3d 97 76 20 3d
       -0.02730912 0.028212704 0.034608908 0.039175596
0003a0 ff 1a 55 bd f7 b3 99 bd ae a1 de bd 75 b7 1a be
       -0.0520277 -0.07505029 -0.10870682 -0.15109046
0003b0 7f c4 82 3d 36 54 89 bc 2c 12 28 bc 96 74 c0 bd
       0.06385135 -0.016763788 -0.010258239 -0.09397237
0003c0 df ab 27 bd ec 2b 97 3a 7c a2 e4 bc 16 27 c4 bc
       -0.040935393 0.0011533475 -0.02790951 -0.023944419
0003d0 f4 c9 12 bc ad 36 c3 bd 62 15 38 bd 68 9b d5 3d
       -0.008959282 -0.09531913 -0.044942267 0.10430032
0003e0 dc 56 7f bd 33 02 b2 bc eb 94 a8 3c 84 2e 05 bd
       -0.062338695 -0.021729564 0.020578822 -0.032515064
0003f0 61 d2 00 be 16 d3 85 3d cf 0a d5 3c 09 6f 27 bd
       -0.12580253 0.06534402 0.02600613 -0.040877376
