FarconVAE/result_adult/adult_downstream_s_2023_05_01_21_05_48_193680_ours.pth.pt (torch, 26372 bytes, 21 tensors)

fc1.weight f4 [64, 15]
00000000: 1e30 3abd 1ed1 28be 469a fd3d bcd7 583e
00000010: f277 6abc 4dad 3d3d 536c 44be f438 13be
00000020: 345d b83d 2f2b e3bd f1e2 6a3d 4b70 173b
00000030: 5fd1 3c3e 5c1f a73d 8716 b73d 9085 0e3e
00000040: d913 433e 6eb9 6bbe 5dc5 973d 6618 aa3d
00000050: 6282 e3bd e2d8 46be 3509 4abd bed0 48be
00000060: 1956 febd df61 823a af60 833e 4b3c f8bd
00000070: 3dff 6abe 5bd3 713e a19e 2c3e ee12 6d3e
00000080: e75c 34be 26d5 6e3e bf23 633e 9f87 113c
00000090: caa3 41be ec5b 073e 0cae 3abd 090c 46be
000000a0: 9bb0 b63d a606 d6bd e6e4 0a3e 4db8 0fbe
000000b0: 7af6 85be c9c7 0cbe 0bad febd 1f16 3abd
000000c0: 06ed 29be 7884 6b3d a3e9 9ebd 46a1 c9bd
000000d0: b1ab 82bd 0170 453e ff6a ddbd 019a ea3d
000000e0: 889c d7bd f0a2 af3b 974f 9d3d 8004 d2bd
000000f0: f398 e53d d0f1 2b3e 1d3e 5f3e 6272 61be
00000100: c64e bebd 4db2 b3bd f6fe adbb b1ae 123e
00000110: 8c9a 253d f817 2bbe e9aa cb3d f29f 1dbe
00000120: fc8a c33d 9f25 bdbc f689 023e c567 093e
00000130: e2c2 3b3e 6b9b 383e 45c3 71be 4754 8a3d
00000140: f645 1abd 2a24 fcbd d8da 553e da40 87bd
00000150: ae77 333e d9fd a53c e89c 773e e3e5 f63d
00000160: 53b2 413e 200d 343e b2d9 383d fa15 a7bd
00000170: 4660 f5bc 5d06 1d3e 2fdb 003e 37b0 2b3e
00000180: c9ee 373c 868c 343e 4f50 b93d 6a9e 43be
00000190: 0b6c 64be f756 09bd 2f7d 133e 44a0 383e
000001a0: ecfc 72be 3d71 1e3c 47ac ccbd bc23 7e3e
000001b0: 59d1 123d 7fc3 543d 9a31 b0bd c121 3fbe
000001c0: 0799 78be 4831 143e ea3d 7fbe b437 673e
000001d0: b37d ab3b cc66 15bd 9479 0cbe a23d efbb
000001e0: 50a2 0dbe 90c6 3e3d 36a4 8cbe 7b37 63be
000001f0: 1c0b 60bd 235f 8b3d 85b1 693e a5f6 523e
00000200: b5a2 f63d 64c8 b53d fc9e 6dbe efc3 86be
00000210: 28c5 d53d 6a03 693e ccad 06be a5e3 5bbe
00000220: 6526 b0bc 2efb 033e 46c7 1cbe 691e 0ebd
00000230: 64f7 1f3e e87b c83d 1bad 763e 94f9 b9bd
00000240: 8616 c5bd 5664 62bd 64bc 80be 24b5 ca3c
00000250: f9bf e0bd 8310 753e af61 2fbe 4fc8 03be
00000260: e79a f4bc 78b1 54be 947a 873e 8e58 84bd
00000270: 4959 8dbd 99e8 41be 121e 65be 4057 703d
00000280: 9287 23be c480 853c 2b0c 313d cdc9 edbc
00000290: 44ce b23c 7282 6a3c ee11 5a3e fc5a 7c3b
000002a0: 45bd 8c3d 3720 5e3e 8863 983d 6615 0b3e
000002b0: fad5 673e cb07 223e 236a a73d 684f 9ebd
000002c0: 6a6d 423e c291 a2bd 477a 253e e750 4fbe
000002d0: 0f1a 2bbe b1f0 69be daae 15be b446 1f3e
000002e0: 23fc 17be 2b98 913d 94e5 f0bc 25e2 7f3c
000002f0: 9377 ffbd bffc 073d ed05 493e 49bd 40be
00000300: e847 4ebe 46f5 45be cf6f acbd f585 863e
00000310: 3ca2 2f3e 8fce 30be df46 413e ac67 c63d
00000320: 47eb f23d 860b 81be cfac 9fbd 280c 8bbc
00000330: 2c0f 7f3e 2cf1 69be 929b 393e 29ea 093d
00000340: ff11 653e 8697 12be 4612 74bd fe73 863e
00000350: 0393 183e 24ff a3bd bf52 693e 9659 7abe
00000360: 4346 2a3c dc27 1d3e ee4b 403e 6349 6d3e
00000370: d8f2 a4bd 93d6 593e 1150 41be 5059 113e
00000380: 9f8f 34bd a614 1cbd 7872 183e c6f5 7f3d
00000390: 2fe3 fd3d adc8 54be 4265 6bbe 07ff 3d3e
000003a0: 4044 7b3d 17e0 813e fcd4 30be 411d d33c
000003b0: 2a04 62be 52db 163d 1c96 1a3d 5e22 1c3e
000003c0: b040 20be c864 48be e8a4 91bd 529b 35be
000003d0: 7d85 d03a 2546 4f3e 7b1d 7e3e 4b5a 713c
000003e0: fb28 84be 92bf 6d3e 7928 5ebe 0836 3d3e
000003f0: a762 4fbe dce0 23be 42f0 8b3e ff5b 92bd
-0.045456044 -0.16486022 0.12382941 0.21176046 -0.014310824 0.04630785 -0.19181947 -0.14377195
0.09002152 -0.11092221 0.057345334 0.0023107703 0.18439244 0.08160278 0.089398436 0.13918138
0.1905054 -0.23019955 0.07410691 0.08305435 -0.11108853 -0.19418672 -0.049325187 -0.19610879
-0.124187656 0.0009947381 0.256597 -0.12120875 -0.22948928 0.23615782 0.16857387 0.23151752
-0.17613564 0.23323497 0.22181605 0.008882432 -0.18910137 0.13218659 -0.04557614 -0.19340529
0.089204036 -0.10450487 0.1356388 -0.14035149 -0.2616461 -0.13748087 -0.12435349 -0.045431253
-0.16594324 0.05749938 -0.077594064 -0.098452136 -0.06380404 0.19281007 -0.108114235 0.11455155
-0.10527903 0.00536 0.07681196 -0.102547646 0.112108134 0.16791463 0.21801038 -0.2201629
-0.092923686 -0.087742426 -0.0053099347 0.14324452 0.04043059 -0.16708362 0.09944708 -0.15393046
0.095479935 -0.023089228 0.1274794 0.13418491 0.1833606 0.18028037 -0.23609646 0.06754356
-0.037664376 -0.12311585 0.20884264 -0.06604166 0.17526123 0.020262646 0.24180949 0.12055566
0.18915682 0.17583132 0.045129485 -0.081584886 -0.029953133 0.15334459 0.12583612 0.1676644
0.011226364 0.1763173 0.09048521 -0.19103399 -0.2230684 -0.0335302 0.14403223 0.18029886
-0.23729295 0.009670553 -0.09993797 0.24818319 0.03584418 0.051944252 -0.08603211 -0.1866522
-0.24277125 0.14471924 -0.24925962 0.22579843 0.0052334904 -0.036474988 -0.13718253 -0.0073010484
-0.13831449 0.046576083 -0.27469033 -0.22189133 -0.054698095 0.06805255 0.22821625 0.206019
0.12042753 0.08876112 -0.23205179 -0.2632136 0.10437995 0.22755209 -0.13152236 -0.21473558
-0.021502683 0.12888786 -0.15310392 -0.03469697 0.15621716 0.09789258 0.24089472 -0.090808064
-0.09623437 -0.05527147 -0.2514373 0.024744578 -0.10974116 0.2393208 -0.17127107 -0.1286938
-0.02985902 -0.20770824 0.26460707 -0.06462203 -0.069017954 -0.18936385 -0.22374752 0.058676958
-0.15969685 0.016296752 0.043224495 -0.02902689 0.02182687 0.014313327 0.21295902 0.003850638
0.06872038 0.21691976 0.07440859 0.13582382 0.2264022 0.15823285 0.08174541 -0.07729989
0.1898705 -0.07937957 0.16159926 -0.20245706 -0.1670916 -0.22845723 -0.14617482 0.15554315
-0.14842276 0.07109102 -0.029406346 0.015617882 -0.12473979 0.03320002 0.19631167 -0.18822207
-0.20144618 -0.19331846 -0.08419763 0.26274076 0.17151731 -0.17266296 0.18874691 0.096877426
0.11861282 -0.25204104 -0.077966325 -0.01697357 0.24908131 -0.22845906 0.18125752 0.03367058
0.22370146 -0.14315614 -0.05958774 0.2626037 0.1489983 -0.080076486 0.22785471 -0.24448237
0.010392728 0.15347236 0.18778965 0.23172526 -0.08054131 0.2127326 -0.18878199 0.14194226
-0.04408228 -0.03810563 0.14887416 0.062490247 0.123968475 -0.20779677 -0.22987846 0.18554316
0.061344385 0.2536628 -0.17268747 0.025770785 -0.22071901 0.036830254 0.03774081 0.15247485
-0.15649676 -0.19569695 -0.071115315 -0.17735031 0.0015908923 0.20241602 0.24815933 0.014731
-0.25812516 0.2321761 -0.21695127 0.18477643 -0.20252477 -0.16003746 0.2733174 -0.07146453

fc1.bias f4 [64]
00000000: bc7b 7c3c 3334 0a3e 1b4e 41be 0b93 a6bd
00000010: 9928 4a3e 9daa 00bd 7a27 2c3e a987 1f3e
00000020: e50f f5bc c715 2ebe 76a1 abbc d62b e83b
00000030: 6653 063b e66b 293e a7d6 b1ba 29ff cbbb
00000040: 1217 e2b9 31cc 32be 6165 4dbe 647e 62bd
00000050: c9db 5f3d 9ea3 6ebd e110 d93d 69e7 633e
00000060: 83d1 a13d bd26 b53d dea3 dbbd fdca 24be
00000070: e07e 87bd 1eab 853c c075 513e 7ad1 af3d
00000080: 43fa 9b3b 6ef1 e03d 1a86 19be cce4 213e
00000090: 8e78 6dbd e1d9 053d d84e 473e fa07 91bd
000000a0: 47d2 1d3d 2198 0ebe 9350 42be 5732 323e
000000b0: 59b2 5abb 5d73 8d38 77ba 293d 6fb5 7dbd
000000c0: 09f4 d1bb 1e4c d6bb 611f 053e a955 18be
000000d0: 02e5 35bd 53c7 05bd 29fd 8fbd 6726 a13c
000000e0: 1141 28bd fe92 9ebd 5319 503e ba4a 07be
000000f0: 5274 b1bc 8dfa 913d 1b60 203e 7ede c1bd
0.01541036 0.13496475 -0.18877451 -0.08133515 0.1974205 -0.03141271 0.16811934 0.15579094
-0.029914806 -0.17000495 -0.020951014 0.007085304 0.0020496487 0.16545066 -0.0013568 -0.006225486
-0.00043123268 -0.17460705 -0.20058204 -0.055296317 0.054652963 -0.058261506 0.105989225 0.22256245
0.07901289 0.08845279 -0.107246146 -0.16093059 -0.06615996 0.016316947 0.20455074 0.08584876
0.004760058 0.10983549 -0.14992562 0.15809935 -0.057976298 0.03267849 0.1946367 -0.070815995
0.038530614 -0.1392522 -0.18976049 0.17402016 -0.0033370464 6.744892e-05 0.041437592 -0.061940607
-0.006407265 -0.0065398356 0.13000251 -0.14876427 -0.044407852 -0.032660794 -0.07030708 0.019671632
-0.041077677 -0.0774288 0.2032216 -0.132121 -0.021661911 0.07127867 0.15661661 -0.09466265

fc2.weight f4 [64, 64]
00000000: 10e0 0e3e 7341 873d 8046 bdbc a172 da3d
00000010: df2c 09be c644 02be ac82 e1bc 7b95 42bd
00000020: acc8 873d 566f ebbb ec0d 653d ae69 e2bc
00000030: d13f 013d fe0f 41bd 30b3 b33d fb8d 943d
00000040: 7ec2 723d afd4 91bd 8d11 a03d eaa1 0e3d
00000050: ba05 52bd 166c 37bd fd73 56bc 2e4f 0e3c
00000060: 1da7 a63d 939b 49bd 4b66 023e 919e 43bc
00000070: fd2f 533d e14f e33d be9f 8b3d 48d2 ab3d
00000080: be13 f43d 48ee afbd 0de9 3fbc 7d1f a9bd
00000090: af77 ec3d e4a0 0fbd 4619 88bd 967f 933d
000000a0: 6428 d0bd 3b0c acbd 0aad 4fbd 69ad c63d
000000b0: ce4b 363d 615a e7bc 633c 30bd 2620 033d
000000c0: 089b 85bd 3d79 84bd 01e3 48bd a50d 523d
000000d0: 10c0 7bbd d499 033e ff72 03bd ad9c 753d
000000e0: eacd 93bd a8fa d5bc 5e53 fd3c 6584 bcbd
000000f0: 543f dcbd f2d8 9bbd f0d9 be3d 0604 65bd
00000100: db28 0bbe 7a37 c5bd 01c8 26bd dee9 d9bc
00000110: 033a eb3d 53da bfbd e356 853d c7df dabd
00000120: 884d 3f3d fa94 d73d 4ef1 c2bd ce55 383d
00000130: c4d1 85bd fdc4 7c3d b61b cabc 7db5 c1bc
00000140: 9bb6 92bd f58a 083d 0862 03be c0fd f4bb
00000150: 0ab4 2e3d 1135 06be 4fec 7ebd 1443 ba3a
00000160: ecc4 e13d aa76 453a 5f4b babd 2d91 803d
00000170: 9040 88bd 7eed df3c a7b7 cdbd 2e65 d3bd
00000180: c628 b6bd 0940 163d f9b8 eabd c291 6739
00000190: 4367 003d 908c 8a3d 1d3e f2bc 6dd3 9ebd
000001a0: 9697 e5bd ad66 6dbd d473 293d 4ebf fabd
000001b0: c95e afbd acba 793c 654b d13d 3bf8 c5bd
000001c0: c837 3a3d 324f ccbc f9ad b93d e0d8 8f3d
000001d0: 734c 84bd 75b7 b33d 9c22 123d f811 d53d
000001e0: 810a e5bd 3024 72bc 62ec f9bc 2f6f 7fbc
000001f0: 7191 1e3c 41c0 8c3d 9586 e3bd df91 56bd
00000200: ec7f c8bd 2b10 cbbd 77cc 67bd 7878 693d
00000210: f7e8 af3d b0c6 e8bc ac0d 71bd e1b6 6a3d
00000220: 0ac2 14be 57b2 7fbd c840 c53c 97c1 b83b
00000230: 7207 90bd 754b 05bd 71c3 0bbd 6aef b4bd
00000240: aac1 79bd fc47 f5bd b20a cd3d f551 d8bd
00000250: 84f3 1f3d ff13 2dbd 3e34 8f3d 6c5d b2bc
00000260: 562e ad3d 3cb9 bdbb 05e9 bd3d 321b 2cbd
00000270: 174a 013e ba18 ca3d 5cd9 ed3d 7429 a1bd
00000280: 8af6 10bd e7d6 bf3d bc6b 3dbc 6c6a 39bd
00000290: 05d8 aabd 17bc 2d3d b5ff c8bc 8445 823d
000002a0: dc47 a83d 08c7 573b f2eb 09bc 169c cc3d
000002b0: 3eb8 623d 750f 42bd 8fff d6bd b242 d33b
000002c0: dd90 843d adc3 f83a bd54 bcbd 63f4 293c
000002d0: 4b06 03be 0809 49bd a00a aa3d c683 86bd
000002e0: 73a8 4abd e37e fabd 5f7a 04be 3e82 d2bc
000002f0: 6da1 31bd 8149 8f3d e46a 253d 206f 253d
00000300: 7068 c7bd 808b ba3c 5fdf c0bd 9c4d dfbd
00000310: b336 a73c 6c46 a6bd 4846 f0bc 4346 9b3d
00000320: e7ae 35bc 3380 de3b 54e2 c8bc 6201 703d
00000330: 3189 193d c062 1bbc ad9f 3c3d c490 d93b
00000340: 4f16 0e3e 5917 eabd 0925 6dbd ab34 07be
00000350: a6f2 30bc 0258 c23d 5810 19bb f874 063d
00000360: 304b 60bd 7834 70bd f6ec 843d 7690 153d
00000370: c259 e5bd 9f76 f23c 5eee 4a3d 2831 103d
00000380: db36 e73d a5f1 313d 50ce 923d 9782 45bd
00000390: 3450 ac3d 05ca a6bc 15c2 033e 6b65 9bbd
000003a0: 7bb6 873d 0043 b3bd 8d2e 633d 6eea e53d
000003b0: e416 0abd ef95 ca3d fcbf a6ba 3e71 223d
000003c0: 4677 d7bd 8f37 febc 574b 07be dbab bd3d
000003d0: 7d21 a1bb b8c8 84bd f08c a4bd 9ce6 313d
000003e0: d32e f33d 9bcd 88bc e5db 9cbd ddab 10bd
000003f0: 4188 ba3c 2b1e 01bd 3d5c 92bd fdc9 17be
0.1395266 0.0660428 -0.023104906 0.10666395 -0.13396023 -0.12721547 -0.02752813 -0.047505837
0.06630072 -0.007184903 0.05592148 -0.027638283 0.031555 -0.047134392 0.08774412 0.07253643
0.059267513 -0.07120644 0.078158475 0.034822382 -0.051274993 -0.044780813 -0.013089177 0.00868587
0.08137343 -0.049220633 0.12734334 -0.011939661 0.051559437 0.1109922 0.06817578 0.08389717
0.11917828 -0.085903704 -0.0117132785 -0.08257959 0.11546265 -0.035065547 -0.066454455 0.072020695
-0.10163954 -0.0840077 -0.050702132 0.09701044 0.044505887 -0.028241338 -0.04302634 0.03201308
-0.065237105 -0.06468437 -0.049044613 0.051282544 -0.061462462 0.1285165 -0.03209209 0.05996387
-0.07217009 -0.026120499 0.030923542 -0.0920494 -0.107542664 -0.076097384 0.09318912 -0.05591204
-0.13589804 -0.09629722 -0.040718082 -0.026600774 0.11485674 -0.09367814 0.06510713 -0.106872134
0.0467048 0.10526462 -0.095186815 0.045003705 -0.0653415 0.0617113 -0.024671417 -0.02364611
-0.071637355 0.033335645 -0.12830365 -0.0074765384 0.042652167 -0.1310618 -0.06223708 0.0014210665
0.11023888 0.0007532636 -0.09096407 0.0627769 -0.06652939 0.027334925 -0.100447945 -0.10322033
-0.08894496 0.036682162 -0.11461062 0.00022084176 0.031348478 0.067650914 -0.029570634 -0.0775517
-0.11210553 -0.057959247 0.041370228 -0.1224352 -0.08563001 0.01524226 0.102194585 -0.09666487
0.045463353 -0.024940107 0.09066386 0.070237875 -0.06459894 0.08775226 0.035677537 0.10403818
-0.11183644 -0.014779136 -0.030508224 -0.015590473 0.009678231 0.06872607 -0.11109654 -0.052385207
-0.09790024 -0.09915193 -0.056591477 0.056999654 0.085893564 -0.028415054 -0.05885093 0.057303313
-0.14527145 -0.062425938 0.024078742 0.005638312 -0.0703267 -0.032542665 -0.034121934 -0.08834727
-0.060975708 -0.119766206 0.100118056 -0.10562507 0.039050594 -0.042255398 0.06992386 -0.021773063
0.084561035 -0.005789904 0.092729606 -0.042018123 0.1262592 0.098679975 0.11613724 -0.07869235
-0.035391368 0.09367161 -0.01156133 -0.045267507 -0.08341984 0.042415705 -0.024535993 0.06360915
0.08216831 0.0032925028 -0.00841807 0.099907085 0.05535149 -0.047378022 -0.10497963 0.0064471597
0.06472943 0.0018979214 -0.0919585 0.010373208 -0.1279537 -0.04908088 0.08302808 -0.065681025
-0.049477052 -0.12231233 -0.12937306 -0.02569687 -0.04336684 0.06996442 0.040385142 0.04038918
-0.09736717 0.022771597 -0.09417605 -0.10903475 0.020411825 -0.08118901 -0.029330388 0.07581761
-0.011089063 0.006790185 -0.024521984 0.05859507 0.03748435 -0.009483993 0.046050716 0.006639572
0.13875698 -0.114302345 -0.057896648 -0.13203685 -0.010800039 0.094894424 -0.002335569 0.032826394
-0.054759204 -0.058643788 0.06490509 0.03651472 -0.111987606 0.029597579 0.04954373 0.03520313
0.1128976 0.04344334 0.07168257 -0.048220243 0.08413735 -0.020360002 0.12867005 -0.07587703
0.06626602 -0.087530136 0.055464316 0.112263545 -0.033713236 0.09891879 -0.0012722011 0.039658777
-0.105207965 -0.031032352 -0.13212334 0.092612945 -0.004917322 -0.064835966 -0.08034694 0.043432817
0.118741654 -0.016699603 -0.07659129 -0.03532015 0.022770049 -0.03152291 -0.07146499 -0.14823146

fc2.bias f4 [64]
00000000: 0cf6 853b ce54 91bd 1173 29bb 077f 493d
00000010: b0f3 e23b a7f3 a73c 1b0a 7fbd 0963 cd39
00000020: 0c46 52bc d710 143c f765 473c 8bd5 8fbd
00000030: 13d3 1c3d 47a6 80bb 4a5d 10bd b6c1 0abd
00000040: dcf2 b0bd c94b 8f3d ddee e7bc 9327 57bd
00000050: 1cdb b6ba 00f4 d6bc 7e23 02bc fd65 c538
00000060: 61d6 01bb 004e 17bb 27fb b6bd 3cc4 c9bc
00000070: 16ef a43a 505c 363d 9fd3 b03d 1a77 1c3d
00000080: 42a1 b5bc 7a77 93ba 5765 c2bb d0da a33c
00000090: acfe ce3b 733b 5ebc 2b1a dc3c a864 00bd
000000a0: d0c5 843d e98c 12bc 9e4b c63a fe9b 85bd
000000b0: eb8a adbd 3c1e 8c3d ac55 9abd 39b9 2f3d
000000c0: fd13 a9bd 022b f639 8f66 63bd a5e8 93bc
000000d0: b4e9 943d 9d7d ee3c 52da 163d fd66 a7bd
000000e0: 20d5 1b3c 4b29 493c 4d4b cd3b ae2d 7a3d
000000f0: b914 5dbd 9a88 1fbd 0c9d 0ebd 53b0 663d
0.004088169 -0.07096253 -0.0025855938 0.04919341 0.0069260225 0.020501925 -0.062265497 0.00039174434
-0.012834083 0.009037218 0.012170306 -0.07023152 0.038287234 -0.003926072 -0.035245217 -0.033876143
-0.08640072 0.06996877 -0.028312141 -0.052527975 -0.0013950798 -0.026239395 -0.007943032 9.412689e-05
-0.0019811618 -0.0023087263 -0.08934622 -0.024629705 0.001258346 0.04452163 0.086341135 0.03819952
-0.02217162 -0.0011250817 -0.005932491 0.020001799 0.0063169803 -0.0135639785 0.026867947 -0.031345993
0.06483042 -0.008944728 0.0015128737 -0.06523894 -0.08473762 0.06841704 -0.07535872 0.04290125
-0.082557656 0.0004695282 -0.05551773 -0.01805527 0.07271138 0.029112631 0.0368293 -0.0817394
0.009511262 0.012277911 0.00626508 0.06107872 -0.05397484 -0.038948633 -0.03481774 0.0563205

out.weight f4 [1, 64]
00000000: 75c7 59bc 609e 803d 9631 7f3d 68ed 4fbd
00000010: 51fd 26bd 8b4f abbc c060 72bd 1f28 a53d
00000020: b049 a6bd 9c71 193d e427 073e aee9 a43d
00000030: bc9d 293c 9471 a33c 32ed a9bd d0b9 33bd
00000040: 9613 733d 7080 b0bc 1751 f13d c19a 893a
00000050: 0cd8 cc3d 4150 4ebb 5dfb bd3d c254 1b3e
00000060: 517d 79bc dfc5 6b3d 2d0c 2cbd 74a6 f33d
00000070: 8407 b73d 9e64 1d3e a405 323d 8369 95bd
00000080: 8bbd 0a3e 6ccc 04bd ffe0 b03d f812 0cbd
00000090: 1ad4 a5bc 5ea7 e6bc e87d fabc f310 a03d
000000a0: 1cc8 003b 341f 153e 781d 143e d7fb a43d
000000b0: 1ee6 013e 162e 2dbc 67b7 0abd 8d3d babd
000000c0: 08d1 ae3d bf62 7e3c 0db5 6f3b 0bcb 1d3e
000000d0: d27e adba 44bf 803d bbf3 e53d 113b 95bd
000000e0: d5a9 5f3d 4493 363b 1e84 9e3d 92b5 9a3d
000000f0: a328 4abd e302 e03d 2778 003e d5a4 9f3d
-0.013292183 0.06280208 0.06230315 -0.050763518 -0.040768925 -0.020911952 -0.0591743 0.08064293
-0.081195235 0.037461862 0.13198811 0.08052383 0.010352548 0.01995162 -0.082971945 -0.043878376
0.05934485 -0.021545619 0.11783045 0.0010498391 0.10002145 -0.003148094 0.09276459 0.15169051
-0.015227632 0.05756175 -0.0420038 0.11896983 0.0893698 0.15370414 0.04346241 -0.072955154
0.13548867 -0.032421514 0.086366646 -0.034197778 -0.02024274 -0.028155979 -0.030577615 0.07815733
0.0019650524 0.14562684 0.14464366 0.08055847 0.12685439 -0.01057007 -0.033866312 -0.09093771
0.08535963 0.015526473 0.003657642 0.15409486 -0.0013236648 0.06286481 0.112281285 -0.07286657
0.054605324 0.0027858773 0.07740043 0.07554163 -0.04935516 0.109380506 0.12545834 0.07795111

bn.weight f4 [64]
00000000: 48ba 793f a212 843f ac9a 833f 7d75 783f
00000010: 35ee 773f 746b 773f 7d36 793f cf3f 833f
00000020: e55f 783f a19c 793f 7228 843f 7026 843f
00000030: e638 813f 8192 793f d4bf 773f a80c 783f
00000040: 92cb 7f3f 9db1 793f 7c33 843f d6d0 773f
00000050: 4458 833f 52ee 783f 67e1 833f dca1 833f
00000060: 4e64 7a3f 9ce4 823f 0dc4 783f b9b4 833f
00000070: 269b 833f bbf0 833f 7459 833f b1c2 773f
00000080: c377 833f 891e 7a3f f429 843f 1063 793f
00000090: d250 783f e208 7a3f 174d 793f 4531 833f
000000a0: 211d 7a3f a03d 843f 117e 833f 6572 7c3f
000000b0: 5042 833f bf06 783f 8f1f 793f 994e 783f
000000c0: 165c 833f 95ab 7a3f 5884 7c3f a91f 843f
000000d0: 380c 793f c1c1 833f 791f 843f e13d 783f
000000e0: 4f17 843f c31e 7a3f 0167 833f 2485 823f
000000f0: 84f5 773f 6eed 833f b90f 843f dee4 833f
0.9754987 1.0318186 1.0281577 0.9705427 0.9684785 0.96648335 0.9734877 1.0253848
0.97021323 0.9750462 1.0324843 1.032423 1.0095489 0.9748917 0.9677708 0.9689431
0.9992 0.9753664 1.0328212 0.96803033 1.0261312 0.9723865 1.0303162 1.028377
0.978093 1.0226016 0.9717415 1.0289527 1.0281723 1.030784 1.0261674 0.9678145
1.0270923 0.9770284 1.0325303 0.9741678 0.9699832 0.97669804 0.97383255 1.0249411
0.977007 1.0331306 1.0272847 0.9861205 1.0254612 0.96885294 0.9731378 0.9699493
1.0262477 0.97918063 0.9863944 1.0322162 0.9728427 1.0293504 1.0322105 0.9696942
1.0319613 0.9770319 1.0265809 1.0196881 0.96859 1.0306833 1.0317298 1.030422

bn.bias f4 [64]
00000000: 5a14 e0bc e426 053d 3a88 fd3c 9023 f5bc
00000010: ec91 f8bc 37ed 02bd 41e9 e7bc db09 f83c
00000020: 4a0b fabc d3d1 fbb9 776f 043d 4f0a 063d
00000030: 51a2 08bd 65bd c3bc b6ca 00bd 74fb fabc
00000040: 7a3a c23c 956f f9bc d992 073d a1b4 febc
00000050: 4e2f f73c 9ace f1bc 5d98 043d 1619 f93c
00000060: 1ea1 ccbc 7ede 013d a3dd efbc d171 003d
00000070: bed9 fe3c 359d 013d b851 fe3c ea90 06bd
00000080: 6d6d f83c 6351 dcbc 6042 053d 9034 e5bc
00000090: 6d1b f8bc 8683 fdbc 6c1f ebbc 1a50 f13c
000000a0: 4beb d7bc 2c28 033d 4b27 f83c ecf8 033d
000000b0: dc78 f93c 3bb6 f5bc e87d f4bc 5d64 f9bc
000000c0: ce6e ed3c 2a7c cdbc 1fad f1bc 760c 033d
000000d0: 1e37 e9bc 3302 023d bd9a 043d d272 fdbc
000000e0: 58c7 063d da65 fdbc 713f fc3c ab6d 063d
000000f0: c9f7 fdbc 834a 053d 8fec 023d d911 053d
-0.027353454 0.032507792 0.030948747 -0.029924184 -0.030343018 -0.031964507 -0.028309466 0.030278137
-0.030522961 -0.00048030782 0.032332864 0.032724675 -0.033357922 -0.023894021 -0.03144332 -0.03063748
0.023709524 -0.030448714 0.03309903 -0.03109199 0.030173924 -0.02951746 0.032371867 0.03040747
-0.02497917 0.031706326 -0.02928049 0.031358544 0.031109687 0.031644065 0.031044826 -0.032853045
0.030325616 -0.026894277 0.032534003 -0.027979165 -0.030286515 -0.030946504 -0.028701507 0.02945714
-0.026357314 0.032020733 0.030292174 0.032219812 0.030453138 -0.02999412 -0.029845193 -0.030443365
0.0289835 -0.02508362 -0.029501496 0.031994306 -0.028468665 0.03174038 0.032374132 -0.03093854
0.032904953 -0.030932356 0.03079197 0.03281943 -0.031001942 0.032541763 0.03196388 0.032487724

bn.running_mean f4 [64]
00000000: c2d1 493c 6052 9f3c 77e8 c5bd 9844 e2bd
00000010: 9981 86bc e643 3abe de01 15bb 9c67 d2bd
00000020: 2471 1f3e 3250 0abe 5cf7 2ebd 05dd 65be
00000030: 7380 573e bb33 ad3e b6aa adbd c0e0 12bd
00000040: 7625 fc3d d7df d0bd 248a 0e3d 0ff1 4abe
00000050: 9311 13bd 43fd 303e b67a 013e aff6 c23c
00000060: 4baa 48bd 561b 3ebd 35de 64be 50c2 a6be
00000070: 3611 51bc 17ea c13d f1f2 053d d758 373e
00000080: fad3 433e 37f9 7a3e 945a 35be b9fc a13e
00000090: 37ca 143e 320a debc 949d 1c3e 96d4 3bbe
000000a0: c3b7 183e f107 2d3e 20ca c13d 1bb3 ec3d
000000b0: 21a3 23be dc55 dfbd 91f3 143e eb61 6d3d
000000c0: f637 393e 34d9 0a3e c3b9 ae3d ac7b 3dbe
000000d0: a83a 83be edd5 053e 616b f3bc f853 80bd
000000e0: 2a35 ff3d 7f07 79be 5243 1a3e 72b1 cd3c
000000f0: 36db 7cbe 62c9 b7bd ce74 0e3e 0ea8 833e
0.012318077 0.01944846 -0.0966348 -0.110482395 -0.016419219 -0.18189964 -0.0022736709 -0.10273668
0.15570503 -0.13507155 -0.04271637 -0.22447594 0.21045093 0.3382853 -0.08479826 -0.03585887
0.123118326 -0.10198944 0.03479971 -0.19818519 -0.035905432 0.17284112 0.12644467 0.023799269
-0.04899053 -0.04641279 -0.2235039 -0.32570124 -0.012760451 0.09468477 0.03270239 0.17904983
0.19123831 0.2450913 -0.17710334 0.31638125 0.14530264 -0.02710447 0.15294486 -0.18342814
0.1491385 0.1689756 0.094623804 0.11557599 -0.15980197 -0.10905048 0.14546038 0.05795471
0.18087754 0.13559419 0.08531525 -0.18504208 -0.2563069 0.13069887 -0.029714288 -0.06266016
0.12461312 -0.24319266 0.15064743 0.025109027 -0.24692997 -0.089739576 0.13911745 0.25714153

bn.running_var f4 [64]
00000000: 8d8c 5c3e 20d3 e53e 2856 923e 26b5 583e
00000010: ae2e 903e 44ac b03e 28c9 8b3e d543 da3e
00000020: 2ee2 ae3e fbae 873e cebb 8b3e bdf1 923e
00000030: 493b a53e 6903 e03e 8e83 d63e 7c4d 973e
00000040: ffc7 fb3e 65f7 d83e 62a3 a33e 3514 d53e
00000050: 95bf a83e 8da9 e83e 79e5 973e 69d1 753e
00000060: 7d85 aa3e a582 a13e d269 533e 1816 c53e
00000070: aec6 683e 6113 9e3e 5324 8a3e ae58 4a3e
00000080: 98be a23e b41f 9f3e 472e aa3e 83b1 ad3e
00000090: cf45 4c3e 6fd4 c23e 337c 9f3e 6b4d b23e
000000a0: a8f6 a63e 39fc ca3e d7b8 923e ec31 9c3e
000000b0: a8b2 5e3e 6926 bd3e 328b 1b3f 4f42 5a3e
000000c0: 1cde 823e 83d8 853e 873d c63e 7c07 a23e
000000d0: b896 033f 003a 8b3e 91ad 573e 4724 003f
000000e0: 565f 9a3e 1aa5 db3e 9dc3 7e3e e63a af3e
000000f0: 3584 a83e a777 ba3e bbe7 803e d45c 9a3e
0.21537991 0.44887638 0.28581357 0.21162853 0.28160614 0.34506428 0.27301908 0.42629877
0.34156936 0.26500687 0.2729172 0.28700057 0.32271793 0.43752602 0.41897243 0.29551303
0.49176022 0.42376247 0.3196059 0.4161698 0.32958665 0.45441857 0.2966726 0.24005665
0.33304968 0.31544986 0.20645836 0.3849342 0.2273204 0.3087416 0.26980838 0.19760391
0.31786036 0.31078875 0.33238432 0.33924493 0.19948505 0.380527 0.31149444 0.3482469
0.3261006 0.39645556 0.28656647 0.30506837 0.2174784 0.36943367 0.6075927 0.21314357
0.2556008 0.26141748 0.38718817 0.31646335 0.51401854 0.27192688 0.21062304 0.50055355
0.3015086 0.428994 0.24879308 0.34224623 0.32913366 0.36419412 0.25176796 0.30148947

net.0.weight f4 [64, 15]
00000000: 1e30 3abd 1ed1 28be 469a fd3d bcd7 583e
00000010: f277 6abc 4dad 3d3d 536c 44be f438 13be
00000020: 345d b83d 2f2b e3bd f1e2 6a3d 4b70 173b
00000030: 5fd1 3c3e 5c1f a73d 8716 b73d 9085 0e3e
00000040: d913 433e 6eb9 6bbe 5dc5 973d 6618 aa3d
00000050: 6282 e3bd e2d8 46be 3509 4abd bed0 48be
00000060: 1956 febd df61 823a af60 833e 4b3c f8bd
00000070: 3dff 6abe 5bd3 713e a19e 2c3e ee12 6d3e
00000080: e75c 34be 26d5 6e3e bf23 633e 9f87 113c
00000090: caa3 41be ec5b 073e 0cae 3abd 090c 46be
000000a0: 9bb0 b63d a606 d6bd e6e4 0a3e 4db8 0fbe
000000b0: 7af6 85be c9c7 0cbe 0bad febd 1f16 3abd
000000c0: 06ed 29be 7884 6b3d a3e9 9ebd 46a1 c9bd
000000d0: b1ab 82bd 0170 453e ff6a ddbd 019a ea3d
000000e0: 889c d7bd f0a2 af3b 974f 9d3d 8004 d2bd
000000f0: f398 e53d d0f1 2b3e 1d3e 5f3e 6272 61be
00000100: c64e bebd 4db2 b3bd f6fe adbb b1ae 123e
00000110: 8c9a 253d f817 2bbe e9aa cb3d f29f 1dbe
00000120: fc8a c33d 9f25 bdbc f689 023e c567 093e
00000130: e2c2 3b3e 6b9b 383e 45c3 71be 4754 8a3d
00000140: f645 1abd 2a24 fcbd d8da 553e da40 87bd
00000150: ae77 333e d9fd a53c e89c 773e e3e5 f63d
00000160: 53b2 413e 200d 343e b2d9 383d fa15 a7bd
00000170: 4660 f5bc 5d06 1d3e 2fdb 003e 37b0 2b3e
00000180: c9ee 373c 868c 343e 4f50 b93d 6a9e 43be
00000190: 0b6c 64be f756 09bd 2f7d 133e 44a0 383e
000001a0: ecfc 72be 3d71 1e3c 47ac ccbd bc23 7e3e
000001b0: 59d1 123d 7fc3 543d 9a31 b0bd c121 3fbe
000001c0: 0799 78be 4831 143e ea3d 7fbe b437 673e
000001d0: b37d ab3b cc66 15bd 9479 0cbe a23d efbb
000001e0: 50a2 0dbe 90c6 3e3d 36a4 8cbe 7b37 63be
000001f0: 1c0b 60bd 235f 8b3d 85b1 693e a5f6 523e
00000200: b5a2 f63d 64c8 b53d fc9e 6dbe efc3 86be
00000210: 28c5 d53d 6a03 693e ccad 06be a5e3 5bbe
00000220: 6526 b0bc 2efb 033e 46c7 1cbe 691e 0ebd
00000230: 64f7 1f3e e87b c83d 1bad 763e 94f9 b9bd
00000240: 8616 c5bd 5664 62bd 64bc 80be 24b5 ca3c
00000250: f9bf e0bd 8310 753e af61 2fbe 4fc8 03be
00000260: e79a f4bc 78b1 54be 947a 873e 8e58 84bd
00000270: 4959 8dbd 99e8 41be 121e 65be 4057 703d
00000280: 9287 23be c480 853c 2b0c 313d cdc9 edbc
00000290: 44ce b23c 7282 6a3c ee11 5a3e fc5a 7c3b
000002a0: 45bd 8c3d 3720 5e3e 8863 983d 6615 0b3e
000002b0: fad5 673e cb07 223e 236a a73d 684f 9ebd
000002c0: 6a6d 423e c291 a2bd 477a 253e e750 4fbe
000002d0: 0f1a 2bbe b1f0 69be daae 15be b446 1f3e
000002e0: 23fc 17be 2b98 913d 94e5 f0bc 25e2 7f3c
000002f0: 9377 ffbd bffc 073d ed05 493e 49bd 40be
00000300: e847 4ebe 46f5 45be cf6f acbd f585 863e
00000310: 3ca2 2f3e 8fce 30be df46 413e ac67 c63d
00000320: 47eb f23d 860b 81be cfac 9fbd 280c 8bbc
00000330: 2c0f 7f3e 2cf1 69be 929b 393e 29ea 093d
00000340: ff11 653e 8697 12be 4612 74bd fe73 863e
00000350: 0393 183e 24ff a3bd bf52 693e 9659 7abe
00000360: 4346 2a3c dc27 1d3e ee4b 403e 6349 6d3e
00000370: d8f2 a4bd 93d6 593e 1150 41be 5059 113e
00000380: 9f8f 34bd a614 1cbd 7872 183e c6f5 7f3d
00000390: 2fe3 fd3d adc8 54be 4265 6bbe 07ff 3d3e
000003a0: 4044 7b3d 17e0 813e fcd4 30be 411d d33c
000003b0: 2a04 62be 52db 163d 1c96 1a3d 5e22 1c3e
000003c0: b040 20be c864 48be e8a4 91bd 529b 35be
000003d0: 7d85 d03a 2546 4f3e 7b1d 7e3e 4b5a 713c
000003e0: fb28 84be 92bf 6d3e 7928 5ebe 0836 3d3e
000003f0: a762 4fbe dce0 23be 42f0 8b3e ff5b 92bd
-0.045456044 -0.16486022 0.12382941 0.21176046 -0.014310824 0.04630785 -0.19181947 -0.14377195
0.09002152 -0.11092221 0.057345334 0.0023107703 0.18439244 0.08160278 0.089398436 0.13918138
0.1905054 -0.23019955 0.07410691 0.08305435 -0.11108853 -0.19418672 -0.049325187 -0.19610879
-0.124187656 0.0009947381 0.256597 -0.12120875 -0.22948928 0.23615782 0.16857387 0.23151752
-0.17613564 0.23323497 0.22181605 0.008882432 -0.18910137 0.13218659 -0.04557614 -0.19340529
0.089204036 -0.10450487 0.1356388 -0.14035149 -0.2616461 -0.13748087 -0.12435349 -0.045431253
-0.16594324 0.05749938 -0.077594064 -0.098452136 -0.06380404 0.19281007 -0.108114235 0.11455155
-0.10527903 0.00536 0.07681196 -0.102547646 0.112108134 0.16791463 0.21801038 -0.2201629
-0.092923686 -0.087742426 -0.0053099347 0.14324452 0.04043059 -0.16708362 0.09944708 -0.15393046
0.095479935 -0.023089228 0.1274794 0.13418491 0.1833606 0.18028037 -0.23609646 0.06754356
-0.037664376 -0.12311585 0.20884264 -0.06604166 0.17526123 0.020262646 0.24180949 0.12055566
0.18915682 0.17583132 0.045129485 -0.081584886 -0.029953133 0.15334459 0.12583612 0.1676644
0.011226364 0.1763173 0.09048521 -0.19103399 -0.2230684 -0.0335302 0.14403223 0.18029886
-0.23729295 0.009670553 -0.09993797 0.24818319 0.03584418 0.051944252 -0.08603211 -0.1866522
-0.24277125 0.14471924 -0.24925962 0.22579843 0.0052334904 -0.036474988 -0.13718253 -0.0073010484
-0.13831449 0.046576083 -0.27469033 -0.22189133 -0.054698095 0.06805255 0.22821625 0.206019
0.12042753 0.08876112 -0.23205179 -0.2632136 0.10437995 0.22755209 -0.13152236 -0.21473558
-0.021502683 0.12888786 -0.15310392 -0.03469697 0.15621716 0.09789258 0.24089472 -0.090808064
-0.09623437 -0.05527147 -0.2514373 0.024744578 -0.10974116 0.2393208 -0.17127107 -0.1286938
-0.02985902 -0.20770824 0.26460707 -0.06462203 -0.069017954 -0.18936385 -0.22374752 0.058676958
-0.15969685 0.016296752 0.043224495 -0.02902689 0.02182687 0.014313327 0.21295902 0.003850638
0.06872038 0.21691976 0.07440859 0.13582382 0.2264022 0.15823285 0.08174541 -0.07729989
0.1898705 -0.07937957 0.16159926 -0.20245706 -0.1670916 -0.22845723 -0.14617482 0.15554315
-0.14842276 0.07109102 -0.029406346 0.015617882 -0.12473979 0.03320002 0.19631167 -0.18822207
-0.20144618 -0.19331846 -0.08419763 0.26274076 0.17151731 -0.17266296 0.18874691 0.096877426
0.11861282 -0.25204104 -0.077966325 -0.01697357 0.24908131 -0.22845906 0.18125752 0.03367058
0.22370146 -0.14315614 -0.05958774 0.2626037 0.1489983 -0.080076486 0.22785471 -0.24448237
0.010392728 0.15347236 0.18778965 0.23172526 -0.08054131 0.2127326 -0.18878199 0.14194226
-0.04408228 -0.03810563 0.14887416 0.062490247 0.123968475 -0.20779677 -0.22987846 0.18554316
0.061344385 0.2536628 -0.17268747 0.025770785 -0.22071901 0.036830254 0.03774081 0.15247485
-0.15649676 -0.19569695 -0.071115315 -0.17735031 0.0015908923 0.20241602 0.24815933 0.014731
-0.25812516 0.2321761 -0.21695127 0.18477643 -0.20252477 -0.16003746 0.2733174 -0.07146453

net.0.bias f4 [64]
00000000: bc7b 7c3c 3334 0a3e 1b4e 41be 0b93 a6bd
00000010: 9928 4a3e 9daa 00bd 7a27 2c3e a987 1f3e
00000020: e50f f5bc c715 2ebe 76a1 abbc d62b e83b
00000030: 6653 063b e66b 293e a7d6 b1ba 29ff cbbb
00000040: 1217 e2b9 31cc 32be 6165 4dbe 647e 62bd
00000050: c9db 5f3d 9ea3 6ebd e110 d93d 69e7 633e
00000060: 83d1 a13d bd26 b53d dea3 dbbd fdca 24be
00000070: e07e 87bd 1eab 853c c075 513e 7ad1 af3d
00000080: 43fa 9b3b 6ef1 e03d 1a86 19be cce4 213e
00000090: 8e78 6dbd e1d9 053d d84e 473e fa07 91bd
000000a0: 47d2 1d3d 2198 0ebe 9350 42be 5732 323e
000000b0: 59b2 5abb 5d73 8d38 77ba 293d 6fb5 7dbd
000000c0: 09f4 d1bb 1e4c d6bb 611f 053e a955 18be
000000d0: 02e5 35bd 53c7 05bd 29fd 8fbd 6726 a13c
000000e0: 1141 28bd fe92 9ebd 5319 503e ba4a 07be
000000f0: 5274 b1bc 8dfa 913d 1b60 203e 7ede c1bd
0.01541036 0.13496475 -0.18877451 -0.08133515 0.1974205 -0.03141271 0.16811934 0.15579094
-0.029914806 -0.17000495 -0.020951014 0.007085304 0.0020496487 0.16545066 -0.0013568 -0.006225486
-0.00043123268 -0.17460705 -0.20058204 -0.055296317 0.054652963 -0.058261506 0.105989225 0.22256245
0.07901289 0.08845279 -0.107246146 -0.16093059 -0.06615996 0.016316947 0.20455074 0.08584876
0.004760058 0.10983549 -0.14992562 0.15809935 -0.057976298 0.03267849 0.1946367 -0.070815995
0.038530614 -0.1392522 -0.18976049 0.17402016 -0.0033370464 6.744892e-05 0.041437592 -0.061940607
-0.006407265 -0.0065398356 0.13000251 -0.14876427 -0.044407852 -0.032660794 -0.07030708 0.019671632
-0.041077677 -0.0774288 0.2032216 -0.132121 -0.021661911 0.07127867 0.15661661 -0.09466265

net.1.weight f4 [64]
00000000: 48ba 793f a212 843f ac9a 833f 7d75 783f
00000010: 35ee 773f 746b 773f 7d36 793f cf3f 833f
00000020: e55f 783f a19c 793f 7228 843f 7026 843f
00000030: e638 813f 8192 793f d4bf 773f a80c 783f
00000040: 92cb 7f3f 9db1 793f 7c33 843f d6d0 773f
00000050: 4458 833f 52ee 783f 67e1 833f dca1 833f
00000060: 4e64 7a3f 9ce4 823f 0dc4 783f b9b4 833f
00000070: 269b 833f bbf0 833f 7459 833f b1c2 773f
00000080: c377 833f 891e 7a3f f429 843f 1063 793f
00000090: d250 783f e208 7a3f 174d 793f 4531 833f
000000a0: 211d 7a3f a03d 843f 117e 833f 6572 7c3f
000000b0: 5042 833f bf06 783f 8f1f 793f 994e 783f
000000c0: 165c 833f 95ab 7a3f 5884 7c3f a91f 843f
000000d0: 380c 793f c1c1 833f 791f 843f e13d 783f
000000e0: 4f17 843f c31e 7a3f 0167 833f 2485 823f
000000f0: 84f5 773f 6eed 833f b90f 843f dee4 833f
0.9754987 1.0318186 1.0281577 0.9705427 0.9684785 0.96648335 0.9734877 1.0253848
0.97021323 0.9750462 1.0324843 1.032423 1.0095489 0.9748917 0.9677708 0.9689431
0.9992 0.9753664 1.0328212 0.96803033 1.0261312 0.9723865 1.0303162 1.028377
0.978093 1.0226016 0.9717415 1.0289527 1.0281723 1.030784 1.0261674 0.9678145
1.0270923 0.9770284 1.0325303 0.9741678 0.9699832 0.97669804 0.97383255 1.0249411
0.977007 1.0331306 1.0272847 0.9861205 1.0254612 0.96885294 0.9731378 0.9699493
1.0262477 0.97918063 0.9863944 1.0322162 0.9728427 1.0293504 1.0322105 0.9696942
1.0319613 0.9770319 1.0265809 1.0196881 0.96859 1.0306833 1.0317298 1.030422

net.1.bias f4 [64]
00000000: 5a14 e0bc e426 053d 3a88 fd3c 9023 f5bc
00000010: ec91 f8bc 37ed 02bd 41e9 e7bc db09 f83c
00000020: 4a0b fabc d3d1 fbb9 776f 043d 4f0a 063d
00000030: 51a2 08bd 65bd c3bc b6ca 00bd 74fb fabc
00000040: 7a3a c23c 956f f9bc d992 073d a1b4 febc
00000050: 4e2f f73c 9ace f1bc 5d98 043d 1619 f93c
00000060: 1ea1 ccbc 7ede 013d a3dd efbc d171 003d
00000070: bed9 fe3c 359d 013d b851 fe3c ea90 06bd
00000080: 6d6d f83c 6351 dcbc 6042 053d 9034 e5bc
00000090: 6d1b f8bc 8683 fdbc 6c1f ebbc 1a50 f13c
000000a0: 4beb d7bc 2c28 033d 4b27 f83c ecf8 033d
000000b0: dc78 f93c 3bb6 f5bc e87d f4bc 5d64 f9bc
000000c0: ce6e ed3c 2a7c cdbc 1fad f1bc 760c 033d
000000d0: 1e37 e9bc 3302 023d bd9a 043d d272 fdbc
000000e0: 58c7 063d da65 fdbc 713f fc3c ab6d 063d
000000f0: c9f7 fdbc 834a 053d 8fec 023d d911 053d
-0.027353454 0.032507792 0.030948747 -0.029924184 -0.030343018 -0.031964507 -0.028309466 0.030278137
-0.030522961 -0.00048030782 0.032332864 0.032724675 -0.033357922 -0.023894021 -0.03144332 -0.03063748
0.023709524 -0.030448714 0.03309903 -0.03109199 0.030173924 -0.02951746 0.032371867 0.03040747
-0.02497917 0.031706326 -0.02928049 0.031358544 0.031109687 0.031644065 0.031044826 -0.032853045
0.030325616 -0.026894277 0.032534003 -0.027979165 -0.030286515 -0.030946504 -0.028701507 0.02945714
-0.026357314 0.032020733 0.030292174 0.032219812 0.030453138 -0.02999412 -0.029845193 -0.030443365
0.0289835 -0.02508362 -0.029501496 0.031994306 -0.028468665 0.03174038 0.032374132 -0.03093854
0.032904953 -0.030932356 0.03079197 0.03281943 -0.031001942 0.032541763 0.03196388 0.032487724

net.1.running_mean f4 [64]
00000000: c2d1 493c 6052 9f3c 77e8 c5bd 9844 e2bd
00000010: 9981 86bc e643 3abe de01 15bb 9c67 d2bd
00000020: 2471 1f3e 3250 0abe 5cf7 2ebd 05dd 65be
00000030: 7380 573e bb33 ad3e b6aa adbd c0e0 12bd
00000040: 7625 fc3d d7df d0bd 248a 0e3d 0ff1 4abe
00000050: 9311 13bd 43fd 303e b67a 013e aff6 c23c
00000060: 4baa 48bd 561b 3ebd 35de 64be 50c2 a6be
00000070: 3611 51bc 17ea c13d f1f2 053d d758 373e
00000080: fad3 433e 37f9 7a3e 945a 35be b9fc a13e
00000090: 37ca 143e 320a debc 949d 1c3e 96d4 3bbe
000000a0: c3b7 183e f107 2d3e 20ca c13d 1bb3 ec3d
000000b0: 21a3 23be dc55 dfbd 91f3 143e eb61 6d3d
000000c0: f637 393e 34d9 0a3e c3b9 ae3d ac7b 3dbe
000000d0: a83a 83be edd5 053e 616b f3bc f853 80bd
000000e0: 2a35 ff3d 7f07 79be 5243 1a3e 72b1 cd3c
000000f0: 36db 7cbe 62c9 b7bd ce74 0e3e 0ea8 833e
0.012318077 0.01944846 -0.0966348 -0.110482395 -0.016419219 -0.18189964 -0.0022736709 -0.10273668
0.15570503 -0.13507155 -0.04271637 -0.22447594 0.21045093 0.3382853 -0.08479826 -0.03585887
0.123118326 -0.10198944 0.03479971 -0.19818519 -0.035905432 0.17284112 0.12644467 0.023799269
-0.04899053 -0.04641279 -0.2235039 -0.32570124 -0.012760451 0.09468477 0.03270239 0.17904983
0.19123831 0.2450913 -0.17710334 0.31638125 0.14530264 -0.02710447 0.15294486 -0.18342814
0.1491385 0.1689756 0.094623804 0.11557599 -0.15980197 -0.10905048 0.14546038 0.05795471
0.18087754 0.13559419 0.08531525 -0.18504208 -0.2563069 0.13069887 -0.029714288 -0.06266016
0.12461312 -0.24319266 0.15064743 0.025109027 -0.24692997 -0.089739576 0.13911745 0.25714153

net.1.running_var f4 [64]
00000000: 8d8c 5c3e 20d3 e53e 2856 923e 26b5 583e
00000010: ae2e 903e 44ac b03e 28c9 8b3e d543 da3e
00000020: 2ee2 ae3e fbae 873e cebb 8b3e bdf1 923e
00000030: 493b a53e 6903 e03e 8e83 d63e 7c4d 973e
00000040: ffc7 fb3e 65f7 d83e 62a3 a33e 3514 d53e
00000050: 95bf a83e 8da9 e83e 79e5 973e 69d1 753e
00000060: 7d85 aa3e a582 a13e d269 533e 1816 c53e
00000070: aec6 683e 6113 9e3e 5324 8a3e ae58 4a3e
00000080: 98be a23e b41f 9f3e 472e aa3e 83b1 ad3e
00000090: cf45 4c3e 6fd4 c23e 337c 9f3e 6b4d b23e
000000a0: a8f6 a63e 39fc ca3e d7b8 923e ec31 9c3e
000000b0: a8b2 5e3e 6926 bd3e 328b 1b3f 4f42 5a3e
000000c0: 1cde 823e 83d8 853e 873d c63e 7c07 a23e
000000d0: b896 033f 003a 8b3e 91ad 573e 4724 003f
000000e0: 565f 9a3e 1aa5 db3e 9dc3 7e3e e63a af3e
000000f0: 3584 a83e a777 ba3e bbe7 803e d45c 9a3e
0.21537991 0.44887638 0.28581357 0.21162853 0.28160614 0.34506428 0.27301908 0.42629877
0.34156936 0.26500687 0.2729172 0.28700057 0.32271793 0.43752602 0.41897243 0.29551303
0.49176022 0.42376247 0.3196059 0.4161698 0.32958665 0.45441857 0.2966726 0.24005665
0.33304968 0.31544986 0.20645836 0.3849342 0.2273204 0.3087416 0.26980838 0.19760391
0.31786036 0.31078875 0.33238432 0.33924493 0.19948505 0.380527 0.31149444 0.3482469
0.3261006 0.39645556 0.28656647 0.30506837 0.2174784 0.36943367 0.6075927 0.21314357
0.2556008 0.26141748 0.38718817 0.31646335 0.51401854 0.27192688 0.21062304 0.50055355
0.3015086 0.428994 0.24879308 0.34224623 0.32913366 0.36419412 0.25176796 0.30148947

net.3.weight f4 [64, 64]
00000000: 10e0 0e3e 7341 873d 8046 bdbc a172 da3d
00000010: df2c 09be c644 02be ac82 e1bc 7b95 42bd
00000020: acc8 873d 566f ebbb ec0d 653d ae69 e2bc
00000030: d13f 013d fe0f 41bd 30b3 b33d fb8d 943d
00000040: 7ec2 723d afd4 91bd 8d11 a03d eaa1 0e3d
00000050: ba05 52bd 166c 37bd fd73 56bc 2e4f 0e3c
00000060: 1da7 a63d 939b 49bd 4b66 023e 919e 43bc
00000070: fd2f 533d e14f e33d be9f 8b3d 48d2 ab3d
00000080: be13 f43d 48ee afbd 0de9 3fbc 7d1f a9bd
00000090: af77 ec3d e4a0 0fbd 4619 88bd 967f 933d
000000a0: 6428 d0bd 3b0c acbd 0aad 4fbd 69ad c63d
000000b0: ce4b 363d 615a e7bc 633c 30bd 2620 033d
000000c0: 089b 85bd 3d79 84bd 01e3 48bd a50d 523d
000000d0: 10c0 7bbd d499 033e ff72 03bd ad9c 753d
000000e0: eacd 93bd a8fa d5bc 5e53 fd3c 6584 bcbd
000000f0: 543f dcbd f2d8 9bbd f0d9 be3d 0604 65bd
00000100: db28 0bbe 7a37 c5bd 01c8 26bd dee9 d9bc
00000110: 033a eb3d 53da bfbd e356 853d c7df dabd
00000120: 884d 3f3d fa94 d73d 4ef1 c2bd ce55 383d
00000130: c4d1 85bd fdc4 7c3d b61b cabc 7db5 c1bc
00000140: 9bb6 92bd f58a 083d 0862 03be c0fd f4bb
00000150: 0ab4 2e3d 1135 06be 4fec 7ebd 1443 ba3a
00000160: ecc4 e13d aa76 453a 5f4b babd 2d91 803d
00000170: 9040 88bd 7eed df3c a7b7 cdbd 2e65 d3bd
00000180: c628 b6bd 0940 163d f9b8 eabd c291 6739
00000190: 4367 003d 908c 8a3d 1d3e f2bc 6dd3 9ebd
000001a0: 9697 e5bd ad66 6dbd d473 293d 4ebf fabd
000001b0: c95e afbd acba 793c 654b d13d 3bf8 c5bd
000001c0: c837 3a3d 324f ccbc f9ad b93d e0d8 8f3d
000001d0: 734c 84bd 75b7 b33d 9c22 123d f811 d53d
000001e0: 810a e5bd 3024 72bc 62ec f9bc 2f6f 7fbc
000001f0: 7191 1e3c 41c0 8c3d 9586 e3bd df91 56bd
00000200: ec7f c8bd 2b10 cbbd 77cc 67bd 7878 693d
00000210: f7e8 af3d b0c6 e8bc ac0d 71bd e1b6 6a3d
00000220: 0ac2 14be 57b2 7fbd c840 c53c 97c1 b83b
00000230: 7207 90bd 754b 05bd 71c3 0bbd 6aef b4bd
00000240: aac1 79bd fc47 f5bd b20a cd3d f551 d8bd
00000250: 84f3 1f3d ff13 2dbd 3e34 8f3d 6c5d b2bc
00000260: 562e ad3d 3cb9 bdbb 05e9 bd3d 321b 2cbd
00000270: 174a 013e ba18 ca3d 5cd9 ed3d 7429 a1bd
00000280: 8af6 10bd e7d6 bf3d bc6b 3dbc 6c6a 39bd
00000290: 05d8 aabd 17bc 2d3d b5ff c8bc 8445 823d
000002a0: dc47 a83d 08c7 573b f2eb 09bc 169c cc3d
000002b0: 3eb8 623d 750f 42bd 8fff d6bd b242 d33b
000002c0: dd90 843d adc3 f83a bd54 bcbd 63f4 293c
000002d0: 4b06 03be 0809 49bd a00a aa3d c683 86bd
000002e0: 73a8 4abd e37e fabd 5f7a 04be 3e82 d2bc
000002f0: 6da1 31bd 8149 8f3d e46a 253d 206f 253d
00000300: 7068 c7bd 808b ba3c 5fdf c0bd 9c4d dfbd
00000310: b336 a73c 6c46 a6bd 4846 f0bc 4346 9b3d
00000320: e7ae 35bc 3380 de3b 54e2 c8bc 6201 703d
00000330: 3189 193d c062 1bbc ad9f 3c3d c490 d93b
00000340: 4f16 0e3e 5917 eabd 0925 6dbd ab34 07be
00000350: a6f2 30bc 0258 c23d 5810 19bb f874 063d
00000360: 304b 60bd 7834 70bd f6ec 843d 7690 153d
00000370: c259 e5bd 9f76 f23c 5eee 4a3d 2831 103d
00000380: db36 e73d a5f1 313d 50ce 923d 9782 45bd
00000390: 3450 ac3d 05ca a6bc 15c2 033e 6b65 9bbd
000003a0: 7bb6 873d 0043 b3bd 8d2e 633d 6eea e53d
000003b0: e416 0abd ef95 ca3d fcbf a6ba 3e71 223d
000003c0: 4677 d7bd 8f37 febc 574b 07be dbab bd3d
000003d0: 7d21 a1bb b8c8 84bd f08c a4bd 9ce6 313d
000003e0: d32e f33d 9bcd 88bc e5db 9cbd ddab 10bd
000003f0: 4188 ba3c 2b1e 01bd 3d5c 92bd fdc9 17be
0.1395266 0.0660428 -0.023104906 0.10666395 -0.13396023 -0.12721547 -0.02752813 -0.047505837
0.06630072 -0.007184903 0.05592148 -0.027638283 0.031555 -0.047134392 0.08774412 0.07253643
0.059267513 -0.07120644 0.078158475 0.034822382 -0.051274993 -0.044780813 -0.013089177 0.00868587
0.08137343 -0.049220633 0.12734334 -0.011939661 0.051559437 0.1109922 0.06817578 0.08389717
0.11917828 -0.085903704 -0.0117132785 -0.08257959 0.11546265 -0.035065547 -0.066454455 0.072020695
-0.10163954 -0.0840077 -0.050702132 0.09701044 0.044505887 -0.028241338 -0.04302634 0.03201308
-0.065237105 -0.06468437 -0.049044613 0.051282544 -0.061462462 0.1285165 -0.03209209 0.05996387
-0.07217009 -0.026120499 0.030923542 -0.0920494 -0.107542664 -0.076097384 0.09318912 -0.05591204
-0.13589804 -0.09629722 -0.040718082 -0.026600774 0.11485674 -0.09367814 0.06510713 -0.106872134
0.0467048 0.10526462 -0.095186815 0.045003705 -0.0653415 0.0617113 -0.024671417 -0.02364611
-0.071637355 0.033335645 -0.12830365 -0.0074765384 0.042652167 -0.1310618 -0.06223708 0.0014210665
0.11023888 0.0007532636 -0.09096407 0.0627769 -0.06652939 0.027334925 -0.100447945 -0.10322033
-0.08894496 0.036682162 -0.11461062 0.00022084176 0.031348478 0.067650914 -0.029570634 -0.0775517
-0.11210553 -0.057959247 0.041370228 -0.1224352 -0.08563001 0.01524226 0.102194585 -0.09666487
0.045463353 -0.024940107 0.09066386 0.070237875 -0.06459894 0.08775226 0.035677537 0.10403818
-0.11183644 -0.014779136 -0.030508224 -0.015590473 0.009678231 0.06872607 -0.11109654 -0.052385207
-0.09790024 -0.09915193 -0.056591477 0.056999654 0.085893564 -0.028415054 -0.05885093 0.057303313
-0.14527145 -0.062425938 0.024078742 0.005638312 -0.0703267 -0.032542665 -0.034121934 -0.08834727
-0.060975708 -0.119766206 0.100118056 -0.10562507 0.039050594 -0.042255398 0.06992386 -0.021773063
0.084561035 -0.005789904 0.092729606 -0.042018123 0.1262592 0.098679975 0.11613724 -0.07869235
-0.035391368 0.09367161 -0.01156133 -0.045267507 -0.08341984 0.042415705 -0.024535993 0.06360915
0.08216831 0.0032925028 -0.00841807 0.099907085 0.05535149 -0.047378022 -0.10497963 0.0064471597
0.06472943 0.0018979214 -0.0919585 0.010373208 -0.1279537 -0.04908088 0.08302808 -0.065681025
-0.049477052 -0.12231233 -0.12937306 -0.02569687 -0.04336684 0.06996442 0.040385142 0.04038918
-0.09736717 0.022771597 -0.09417605 -0.10903475 0.020411825 -0.08118901 -0.029330388 0.07581761
-0.011089063 0.006790185 -0.024521984 0.05859507 0.03748435 -0.009483993 0.046050716 0.006639572
0.13875698 -0.114302345 -0.057896648 -0.13203685 -0.010800039 0.094894424 -0.002335569 0.032826394
-0.054759204 -0.058643788 0.06490509 0.03651472 -0.111987606 0.029597579 0.04954373 0.03520313
0.1128976 0.04344334 0.07168257 -0.048220243 0.08413735 -0.020360002 0.12867005 -0.07587703
0.06626602 -0.087530136 0.055464316 0.112263545 -0.033713236 0.09891879 -0.0012722011 0.039658777
-0.105207965 -0.031032352 -0.13212334 0.092612945 -0.004917322 -0.064835966 -0.08034694 0.043432817
0.118741654 -0.016699603 -0.07659129 -0.03532015 0.022770049 -0.03152291 -0.07146499 -0.14823146

net.3.bias f4 [64]
00000000: 0cf6 853b ce54 91bd 1173 29bb 077f 493d
00000010: b0f3 e23b a7f3 a73c 1b0a 7fbd 0963 cd39
00000020: 0c46 52bc d710 143c f765 473c 8bd5 8fbd
00000030: 13d3 1c3d 47a6 80bb 4a5d 10bd b6c1 0abd
00000040: dcf2 b0bd c94b 8f3d ddee e7bc 9327 57bd
00000050: 1cdb b6ba 00f4 d6bc 7e23 02bc fd65 c538
00000060: 61d6 01bb 004e 17bb 27fb b6bd 3cc4 c9bc
00000070: 16ef a43a 505c 363d 9fd3 b03d 1a77 1c3d
00000080: 42a1 b5bc 7a77 93ba 5765 c2bb d0da a33c
00000090: acfe ce3b 733b 5ebc 2b1a dc3c a864 00bd
000000a0: d0c5 843d e98c 12bc 9e4b c63a fe9b 85bd
000000b0: eb8a adbd 3c1e 8c3d ac55 9abd 39b9 2f3d
000000c0: fd13 a9bd 022b f639 8f66 63bd a5e8 93bc
000000d0: b4e9 943d 9d7d ee3c 52da 163d fd66 a7bd
000000e0: 20d5 1b3c 4b29 493c 4d4b cd3b ae2d 7a3d
000000f0: b914 5dbd 9a88 1fbd 0c9d 0ebd 53b0 663d
0.004088169 -0.07096253 -0.0025855938 0.04919341 0.0069260225 0.020501925 -0.062265497 0.00039174434
-0.012834083 0.009037218 0.012170306 -0.07023152 0.038287234 -0.003926072 -0.035245217 -0.033876143
-0.08640072 0.06996877 -0.028312141 -0.052527975 -0.0013950798 -0.026239395 -0.007943032 9.412689e-05
-0.0019811618 -0.0023087263 -0.08934622 -0.024629705 0.001258346 0.04452163 0.086341135 0.03819952
-0.02217162 -0.0011250817 -0.005932491 0.020001799 0.0063169803 -0.0135639785 0.026867947 -0.031345993
0.06483042 -0.008944728 0.0015128737 -0.06523894 -0.08473762 0.06841704 -0.07535872 0.04290125
-0.082557656 0.0004695282 -0.05551773 -0.01805527 0.07271138 0.029112631 0.0368293 -0.0817394
0.009511262 0.012277911 0.00626508 0.06107872 -0.05397484 -0.038948633 -0.03481774 0.0563205

net.4.weight f4 [64]
00000000: 48ba 793f a212 843f ac9a 833f 7d75 783f
00000010: 35ee 773f 746b 773f 7d36 793f cf3f 833f
00000020: e55f 783f a19c 793f 7228 843f 7026 843f
00000030: e638 813f 8192 793f d4bf 773f a80c 783f
00000040: 92cb 7f3f 9db1 793f 7c33 843f d6d0 773f
00000050: 4458 833f 52ee 783f 67e1 833f dca1 833f
00000060: 4e64 7a3f 9ce4 823f 0dc4 783f b9b4 833f
00000070: 269b 833f bbf0 833f 7459 833f b1c2 773f
00000080: c377 833f 891e 7a3f f429 843f 1063 793f
00000090: d250 783f e208 7a3f 174d 793f 4531 833f
000000a0: 211d 7a3f a03d 843f 117e 833f 6572 7c3f
000000b0: 5042 833f bf06 783f 8f1f 793f 994e 783f
000000c0: 165c 833f 95ab 7a3f 5884 7c3f a91f 843f
000000d0: 380c 793f c1c1 833f 791f 843f e13d 783f
000000e0: 4f17 843f c31e 7a3f 0167 833f 2485 823f
000000f0: 84f5 773f 6eed 833f b90f 843f dee4 833f
0.9754987 1.0318186 1.0281577 0.9705427 0.9684785 0.96648335 0.9734877 1.0253848
0.97021323 0.9750462 1.0324843 1.032423 1.0095489 0.9748917 0.9677708 0.9689431
0.9992 0.9753664 1.0328212 0.96803033 1.0261312 0.9723865 1.0303162 1.028377
0.978093 1.0226016 0.9717415 1.0289527 1.0281723 1.030784 1.0261674 0.9678145
1.0270923 0.9770284 1.0325303 0.9741678 0.9699832 0.97669804 0.97383255 1.0249411
0.977007 1.0331306 1.0272847 0.9861205 1.0254612 0.96885294 0.9731378 0.9699493
1.0262477 0.97918063 0.9863944 1.0322162 0.9728427 1.0293504 1.0322105 0.9696942
1.0319613 0.9770319 1.0265809 1.0196881 0.96859 1.0306833 1.0317298 1.030422

net.4.bias f4 [64]
00000000: 5a14 e0bc e426 053d 3a88 fd3c 9023 f5bc
00000010: ec91 f8bc 37ed 02bd 41e9 e7bc db09 f83c
00000020: 4a0b fabc d3d1 fbb9 776f 043d 4f0a 063d
00000030: 51a2 08bd 65bd c3bc b6ca 00bd 74fb fabc
00000040: 7a3a c23c 956f f9bc d992 073d a1b4 febc
00000050: 4e2f f73c 9ace f1bc 5d98 043d 1619 f93c
00000060: 1ea1 ccbc 7ede 013d a3dd efbc d171 003d
00000070: bed9 fe3c 359d 013d b851 fe3c ea90 06bd
00000080: 6d6d f83c 6351 dcbc 6042 053d 9034 e5bc
00000090: 6d1b f8bc 8683 fdbc 6c1f ebbc 1a50 f13c
000000a0: 4beb d7bc 2c28 033d 4b27 f83c ecf8 033d
000000b0: dc78 f93c 3bb6 f5bc e87d f4bc 5d64 f9bc
000000c0: ce6e ed3c 2a7c cdbc 1fad f1bc 760c 033d
000000d0: 1e37 e9bc 3302 023d bd9a 043d d272 fdbc
000000e0: 58c7 063d da65 fdbc 713f fc3c ab6d 063d
000000f0: c9f7 fdbc 834a 053d 8fec 023d d911 053d
-0.027353454 0.032507792 0.030948747 -0.029924184 -0.030343018 -0.031964507 -0.028309466 0.030278137
-0.030522961 -0.00048030782 0.032332864 0.032724675 -0.033357922 -0.023894021 -0.03144332 -0.03063748
0.023709524 -0.030448714 0.03309903 -0.03109199 0.030173924 -0.02951746 0.032371867 0.03040747
-0.02497917 0.031706326 -0.02928049 0.031358544 0.031109687 0.031644065 0.031044826 -0.032853045
0.030325616 -0.026894277 0.032534003 -0.027979165 -0.030286515 -0.030946504 -0.028701507 0.02945714
-0.026357314 0.032020733 0.030292174 0.032219812 0.030453138 -0.02999412 -0.029845193 -0.030443365
0.0289835 -0.02508362 -0.029501496 0.031994306 -0.028468665 0.03174038 0.032374132 -0.03093854
0.032904953 -0.030932356 0.03079197 0.03281943 -0.031001942 0.032541763 0.03196388 0.032487724

net.4.running_mean f4 [64]
00000000: c2d1 493c 6052 9f3c 77e8 c5bd 9844 e2bd
00000010: 9981 86bc e643 3abe de01 15bb 9c67 d2bd
00000020: 2471 1f3e 3250 0abe 5cf7 2ebd 05dd 65be
00000030: 7380 573e bb33 ad3e b6aa adbd c0e0 12bd
00000040: 7625 fc3d d7df d0bd 248a 0e3d 0ff1 4abe
00000050: 9311 13bd 43fd 303e b67a 013e aff6 c23c
00000060: 4baa 48bd 561b 3ebd 35de 64be 50c2 a6be
00000070: 3611 51bc 17ea c13d f1f2 053d d758 373e
00000080: fad3 433e 37f9 7a3e 945a 35be b9fc a13e
00000090: 37ca 143e 320a debc 949d 1c3e 96d4 3bbe
000000a0: c3b7 183e f107 2d3e 20ca c13d 1bb3 ec3d
000000b0: 21a3 23be dc55 dfbd 91f3 143e eb61 6d3d
000000c0: f637 393e 34d9 0a3e c3b9 ae3d ac7b 3dbe
000000d0: a83a 83be edd5 053e 616b f3bc f853 80bd
000000e0: 2a35 ff3d 7f07 79be 5243 1a3e 72b1 cd3c
000000f0: 36db 7cbe 62c9 b7bd ce74 0e3e 0ea8 833e
0.012318077 0.01944846 -0.0966348 -0.110482395 -0.016419219 -0.18189964 -0.0022736709 -0.10273668
0.15570503 -0.13507155 -0.04271637 -0.22447594 0.21045093 0.3382853 -0.08479826 -0.03585887
0.123118326 -0.10198944 0.03479971 -0.19818519 -0.035905432 0.17284112 0.12644467 0.023799269
-0.04899053 -0.04641279 -0.2235039 -0.32570124 -0.012760451 0.09468477 0.03270239 0.17904983
0.19123831 0.2450913 -0.17710334 0.31638125 0.14530264 -0.02710447 0.15294486 -0.18342814
0.1491385 0.1689756 0.094623804 0.11557599 -0.15980197 -0.10905048 0.14546038 0.05795471
0.18087754 0.13559419 0.08531525 -0.18504208 -0.2563069 0.13069887 -0.029714288 -0.06266016
0.12461312 -0.24319266 0.15064743 0.025109027 -0.24692997 -0.089739576 0.13911745 0.25714153
