FarconVAE/result_yaleb/yaleb_downstream_s_2023_05_01_18_10_05_155391_ours.pth.pt (torch, 88964 bytes, 22 tensors)

fc1.weight f4 [100, 100]
0	0x3d0a7b7b	0.033809166
1	0x3dffd76a	0.12492259
2	0x3ae82ef9	0.0017714194
3	0x3db94b5c	0.09047577
4	0x3e0869e0	0.13321638
5	0xbd302f74	-0.043014005
6	0x3e29d409	0.16584791
7	0xbda9904c	-0.082794756
8	0x3db21620	0.08695626
9	0xbdb135ab	-0.086528145
10	0x3e34eff6	0.17669663
11	0xbdc8d0e8	-0.09805471
12	0x3da3b816	0.07994096
13	0xbdc8f30c	-0.098119825
14	0xbd83c010	-0.064331174
15	0x3df081a2	0.117434755
16	0x3d8b5f58	0.06805295
17	0xbd4c2558	-0.0498403
18	0xbd7b5bfc	-0.06136702
19	0xbe007093	-0.12542944
20	0x3dd085ac	0.10181746
21	0xbcde7688	-0.02715613
22	0x3e26e6b8	0.1629895
23	0x3d85b12b	0.06527933
24	0xbdb69e31	-0.08916891
25	0x3e261d06	0.16222009
26	0xbdb47cf5	-0.08812896
27	0x3e02434e	0.12720987
28	0x3e329075	0.17437918
29	0xbdbbfb3b	-0.09178778
30	0x3d90e816	0.07075517
31	0x3a68dab4	0.0008882687
32	0xbdb80615	-0.08985535
33	0xbdd329d7	-0.10310715
34	0x3d054b60	0.032542586
35	0x3dca94c4	0.09891656
36	0x3ca84b23	0.02054364
37	0x3d3bca67	0.045847323
38	0xbdfb0843	-0.12257435
39	0x3d95e47c	0.073189706
40	0xbc9704fc	-0.018434994
41	0x3dfaf54f	0.1225382
42	0xbd955e8a	-0.072934225
43	0x3d899a3d	0.06718872
44	0x3e26a34d	0.16273232
45	0x3e15c87f	0.14627264
46	0xbe11d84f	-0.14242671
47	0x3dfa7910	0.12230122
48	0xbd07ed56	-0.033185326
49	0xbd416e4f	-0.04722434
50	0x3e36fd02	0.17869952
51	0x3dbe8194	0.09302059
52	0x3e1fa355	0.1558965
53	0x3e11d100	0.14239883
54	0x3d41cf66	0.04731693
55	0xbe277f3b	-0.16357128
56	0xbc89b180	-0.016808271
57	0x3cdb0ce6	0.026739549
58	0x3e326629	0.17421784
59	0x3dd48442	0.10376789
60	0xbd8587ee	-0.06520067
61	0xbe33e804	-0.17568976
62	0xbe224589	-0.15846838
63	0x3e1c774b	0.15279882
64	0x3e0b5d84	0.13609892
65	0x3e070a6a	0.13187566
66	0xbcf69504	-0.030100353
67	0xbe2febd4	-0.17179805
68	0x3d8a48a4	0.06752136
69	0x3db5a6cf	0.08869707
70	0x3ce27358	0.02764289
71	0x3e34118f	0.17584823
72	0x3d7b0f5e	0.061293952
73	0x3e177641	0.14791204
74	0x3d960c58	0.07326573
75	0x3d80a455	0.06281344
76	0xbd08ede6	-0.033430003
77	0xbe0758d7	-0.13217483
78	0x3d264f6c	0.040603086
79	0x3dfdf248	0.12399727
80	0xbe19524a	-0.14972797
81	0x3d7860ae	0.060639076
82	0x3e1d96c3	0.15389542
83	0x3df5b66d	0.119976856
84	0xbdadcd59	-0.084864326
85	0xbdfe5e7c	-0.12420365
86	0x3e2709cc	0.16312331
87	0xbd367a63	-0.04455031
88	0xbdafa7da	-0.08576937
89	0xbd73722b	-0.05943505
90	0xbdbd1b74	-0.09233752
91	0xbe359735	-0.17733462
92	0x3e206354	0.1566289
93	0xbe23eccf	-0.16008304
94	0xbe2ecf43	-0.17071252
95	0xbdde1109	-0.10843093
96	0xbe1d707c	-0.1537494
97	0xbe04cdec	-0.12969178
98	0xbe478b22	-0.19486669
99	0x3e2d9e46	0.16954908
100	0xbe243ef3	-0.16039638
101	0xbddc5a73	-0.10759439
102	0x3e23014d	0.15918465
103	0xbe226554	-0.15858966
104	0x3d2a6229	0.04159752
105	0x3e1dfd0d	0.15428562
106	0x3e2028cb	0.15640561
107	0xbcda20a8	-0.0266269
108	0x3d3e38fb	0.04644106
109	0x3e342799	0.1759323
110	0x3d803691	0.06260408
111	0x3e264777	0.16238199
112	0xbdef513c	-0.11685416
113	0x3cd484f8	0.02594231
114	0x3e24c608	0.16091168
115	0xbe08811e	-0.13330504
116	0xbe176965	-0.14786299
117	0x3d97af7e	0.07406519
118	0xbcda3a2e	-0.02663907
119	0x3df390e2	0.118928686
120	0xbd8b8d02	-0.068140045
121	0x3e532e57	0.20623146
122	0xbdd3f847	-0.103500895
123	0xbe06f813	-0.1318057
124	0x3e0c960d	0.13729115
125	0x3de1879b	0.11012193
126	0x3dc96736	0.09834139
127	0x3de171b1	0.11008013
128	0xbdb5d179	-0.08877844
129	0x3e18ddc3	0.14928345
130	0xbe1c305b	-0.15252821
131	0x3e0a455f	0.13503025
132	0x3e0377f6	0.1283873
133	0x3dee2e54	0.1162993
134	0xbdbdc492	-0.092660084
135	0x3d97d6fd	0.07414053
136	0x3e380d13	0.17973737
137	0x3e3778d2	0.17917183
138	0x3d551ace	0.052027516
139	0x3dfc39d3	0.123157166
140	0x3e1e5338	0.15461433
141	0xbe1a2bac	-0.15055722
142	0x3e038170	0.12842345
143	0x3e0436d8	0.12911546
144	0xbe1ed9ee	-0.15512821
145	0xbdf5ae4f	-0.11996137
146	0x3d9a9a60	0.07548976
147	0xbe2ae344	-0.16688257
148	0x3e285be0	0.16441298
149	0xbdb5fddf	-0.08886313
150	0xbe1a38a6	-0.15060672
151	0xbe306c86	-0.17228898
152	0xbde1dead	-0.110288
153	0xbe134895	-0.14383157
154	0x3cb930df	0.022606311
155	0xbd137e53	-0.036009144
156	0xbe24e96e	-0.16104671
157	0xbe00e91d	-0.12588926
158	0xbc8ea2fd	-0.017411703
159	0xbd88078f	-0.06642067
160	0xbe14cf2c	-0.14532155
161	0xbdaf8eb9	-0.08572144
162	0x3e28b103	0.16473775
163	0xbe107831	-0.1410835
164	0xbd66d380	-0.056354046
165	0xbdbb9a8f	-0.09160339
166	0x3e139cb2	0.14415243
167	0x3e1980c9	0.14990534
168	0x3e25d4ec	0.16194504
169	0xbe216a36	-0.15763173
170	0xbe248c1c	-0.16069072
171	0xbe16dbb1	-0.14732243
172	0xbd6d6174	-0.057954267
173	0xbe024102	-0.12720111
174	0xbe2098b1	-0.15683247
175	0xbe20f779	-0.15719403
176	0x3e35c7fc	0.17752069
177	0x3e33007b	0.17480652
178	0xbd8cca3f	-0.06874513
179	0xbaac4d42	-0.0013145583
180	0x3dddba28	0.10826522
181	0xbe111791	-0.14169146
182	0xbdf35168	-0.118807614
183	0xbe185263	-0.14875178
184	0x3e2c9d7c	0.1685695
185	0x3e3d198c	0.18466777
186	0xbded0f6b	-0.11575206
187	0x3e3963f4	0.18104535
188	0xbe17ae3c	-0.14812559
189	0xbe315d8e	-0.17320845
190	0x3e3144cc	0.173114
191	0x3df49a65	0.11943511
192	0xbe1b9aac	-0.15195721
193	0xbe12ad4c	-0.1432392
194	0x3e1f23b2	0.1554096
195	0xbe2fbb30	-0.1716125
196	0x3e21758c	0.15767497
197	0x3e294da3	0.16533522
198	0x3e05439a	0.13014069
199	0xbe0e734d	-0.13911171
200	0x3e2d0c22	0.1689916
201	0xbe01c6f4	-0.12673551
202	0xbe137de1	-0.14403488
203	0x3e0a7f72	0.13525179
204	0xbd825902	-0.06364633
205	0xbe236f8f	-0.15960525
206	0x3e08c236	0.13355336
207	0x3d54ced2	0.05195505
208	0xbe24b715	-0.16085465
209	0xbdf996af	-0.12186944
210	0xbe296b6a	-0.16544881
211	0x3e378a82	0.1792393
212	0x3e1e7243	0.15473275
213	0x3e2106ac	0.15725201
214	0xbe1d44e0	-0.15358305
215	0x3bd120c3	0.0063820793
216	0x3e0ef7a9	0.13961662
217	0xbe1e743e	-0.1547403
218	0xbe1fef0d	-0.15618534
219	0xbdf87541	-0.121317394
220	0xbde7e7f0	-0.113235354
221	0xbe00af48	-0.12566864
222	0x3e238f50	0.15972638
223	0x3ca45694	0.020060815
224	0xbe0a7f32	-0.13525084
225	0xbdf9016e	-0.12158476
226	0xbdb8be3b	-0.090206586
227	0xbddf67c5	-0.10908464
228	0xbe075973	-0.13217716
229	0xbe0077e9	-0.12545742
230	0x3e0a9485	0.13533218
231	0xbe15c37c	-0.14625353
232	0xbe24e865	-0.16104276
233	0xbde7f6ab	-0.11326345
234	0x3dfda26c	0.12384495
235	0xbde896b7	-0.113568716
236	0xbe18156c	-0.14851922
237	0xbccb513e	-0.024819013
238	0x3d681c56	0.05666765
239	0x3df359ac	0.11882338
240	0xbe0379ec	-0.12839478
241	0x3e204a0f	0.15653251
242	0xbe090b61	-0.13383247
243	0xbd62ae3c	-0.055341944
244	0x3e17058a	0.14748207
245	0x3e361401	0.17781068
246	0x3d851e51	0.06499923
247	0x3e070476	0.13185295
248	0xbda094fa	-0.07840915
249	0x3e24193b	0.1602525
250	0x3dee2537	0.11628192
251	0x3deb2dca	0.11483343
252	0x3dd7452f	0.105112426
253	0x3e0e4d25	0.13896616
254	0x3e2ef52d	0.17085715
255	0xbe17dba5	-0.14829881

fc1.bias f4 [100]
0	0xb8a27418	-7.746386e-05
1	0x3847d0ab	4.7639634e-05
2	0x37b30219	2.133944e-05
3	0x38156137	3.5614907e-05
4	0xb78b8c14	-1.663532e-05
5	0xb88beb1f	-6.671831e-05
6	0x387fcef0	6.0989463e-05
7	0x38f599ea	0.00011711179
8	0x371ae386	9.23209e-06
9	0x382f2e79	4.1766532e-05
10	0x362df0b0	2.5919107e-06
11	0x371162cf	8.665679e-06
12	0x39118fb3	0.0001388181
13	0xb67152ca	-3.5959988e-06
14	0x38b4aeac	8.615604e-05
15	0xb638672c	-2.747819e-06
16	0x388734b7	6.4471205e-05
17	0x375eb039	1.3273261e-05
18	0xb98e0833	-0.0002709046
19	0x34c12fdb	3.598387e-07
20	0xb78914d6	-1.6341375e-05
21	0xb6e81ba6	-6.9173575e-06
22	0xb72ef355	-1.0427863e-05
23	0xb8a7e830	-8.006429e-05
24	0xb85ed2a6	-5.3125106e-05
25	0xb811c66d	-3.4755492e-05
26	0xb88e37a7	-6.781454e-05
27	0x3631e170	2.6506277e-06
28	0x351f74ec	5.940226e-07
29	0xb7f2bb3a	-2.8935832e-05
30	0x36e10b4a	6.7068368e-06
31	0x37f1b0b8	2.881173e-05
32	0x38a712bc	7.96667e-05
33	0x386a5cd4	5.58764e-05
34	0x3738ecbc	1.1022374e-05
35	0x3658a54f	3.228273e-06
36	0xb829e1de	-4.0503095e-05
37	0x382718e8	3.98391e-05
38	0x371cfd22	9.357262e-06
39	0xb74c3ebb	-1.2173953e-05
40	0xb6c525e9	-5.875471e-06
41	0xb73998f8	-1.1062475e-05
42	0xb7b8bd1b	-2.2022568e-05
43	0x38791a3f	5.939067e-05
44	0x376c9c5f	1.4103104e-05
45	0x38d92de8	0.00010355917
46	0x393e8ad6	0.00018171532
47	0x383b878d	4.4710516e-05
48	0x38102087	3.436257e-05
49	0x3717304f	9.011549e-06
50	0xb69ac45f	-4.6124183e-06
51	0xb8cccf1b	-9.7660544e-05
52	0xb593e702	-1.1019586e-06
53	0xb60b97f7	-2.080107e-06
54	0x380a1ebb	3.2930384e-05
55	0x38dac99c	0.00010432603
56	0xb83817ab	-4.389106e-05
57	0xb73b0f1e	-1.1149588e-05
58	0xb859b28d	-5.190312e-05
59	0x363fa119	2.855499e-06
60	0xb752ba2e	-1.2560324e-05
61	0x3501599b	4.818664e-07
62	0x39123229	0.00013942331
63	0xb7f49ecd	-2.9161014e-05
64	0x394691f6	0.00018937126
65	0xb8972d3c	-7.208667e-05
66	0x372b7bb6	1.0221198e-05
67	0x380d1e66	3.364533e-05
68	0x364657e5	2.955546e-06
69	0x36197012	2.286401e-06
70	0xb727eba0	-1.0008836e-05
71	0xb80059d8	-3.060125e-05
72	0xb712515d	-8.721222e-06
73	0x376d848e	1.4157164e-05
74	0xb9394c53	-0.00017671408
75	0xb88dde0f	-6.7647656e-05
76	0xb662c014	-3.3788428e-06
77	0xb6da4c68	-6.505801e-06
78	0xb791fe59	-1.7403787e-05
79	0x366c2fdf	3.5194605e-06
80	0xb6b68ed6	-5.440651e-06
81	0x37035b25	7.82943e-06
82	0xb78796ad	-1.6163418e-05
83	0xb94ce5e6	-0.000195406
84	0xb760e210	-1.3404075e-05
85	0x378f98be	1.7118055e-05
86	0x388a7eae	6.603949e-05
87	0x37b6f9e9	2.1812464e-05
88	0x38f783d8	0.000118024356
89	0xb7ef8ba0	-2.8556038e-05
90	0xb5ff8d20	-1.9040053e-06
91	0x354c7392	7.61641e-07
92	0x379c2cc3	1.8617493e-05
93	0x37296ebe	1.0098969e-05
94	0xb5f6f17f	-1.8398713e-06
95	0x37943585	1.7667897e-05
96	0x375825be	1.2883391e-05
97	0xb8355041	-4.3228505e-05
98	0x386a3a1c	5.5844066e-05
99	0x37a44dc8	1.9586543e-05

fc2.weight f4 [100, 100]
0	0x3e0a34ae	0.13496658
1	0xbe1a7671	-0.15084244
2	0x3d8c1868	0.068405926
3	0x3e14f4fe	0.14546582
4	0xbd71739e	-0.05894815
5	0x3dc6e88d	0.09712324
6	0xbe1500b4	-0.1455105
7	0xbe1f7f0d	-0.1557581
8	0x3e18ff9d	0.14941259
9	0xbe00568d	-0.12533017
10	0x3cab4f38	0.020911798
11	0xbe01ed2d	-0.12688132
12	0xbd9e7f56	-0.07739131
13	0xbdfa7a47	-0.12230354
14	0xbe1e062f	-0.15432046
15	0x3e0f3c74	0.13987905
16	0x3e0c3f63	0.13696055
17	0x3dac6b47	0.08418899
18	0xbe1bd2dd	-0.15217157
19	0xbe0d42e7	-0.13795052
20	0xbdfe0ed2	-0.124051705
21	0xbe2da802	-0.16958621
22	0xbe17eb5b	-0.14835875
23	0x3d823d1b	0.06359311
24	0x3e08724e	0.13324854
25	0x3de163ac	0.11005339
26	0xbdc4651c	-0.095895976
27	0x3e12ec69	0.14347996
28	0x3dd4f6c3	0.103986286
29	0xbe0dc3e8	-0.13844264
30	0xbc1c5473	-0.009541619
31	0xbe1222a0	-0.14271021
32	0x3ce285cf	0.027651696
33	0xbdcc7c8d	-0.09984694
34	0xbcb55274	-0.022134043
35	0xbe0c1a87	-0.13681994
36	0x3e13d821	0.14437915
37	0xbe13aa86	-0.14420518
38	0xbe140fdc	-0.14459175
39	0xbe1566d6	-0.1459001
40	0x3dfcb7dd	0.12339757
41	0xbe024fce	-0.12725756
42	0x3e0c97a8	0.13729727
43	0x3e1fc547	0.15602599
44	0xbe1c0fff	-0.15240477
45	0xbe187cef	-0.14891408
46	0xbe1617a7	-0.1465746
47	0xbe250eb2	-0.16118887
48	0xbe0d6348	-0.13807404
49	0x3df0c454	0.117561966
50	0xbe12115a	-0.14264432
51	0x3e149136	0.14508519
52	0xbe0cc2b2	-0.13746145
53	0xbe0c0072	-0.13672045
54	0xbd8690f5	-0.06570617
55	0x3e0f8faf	0.14019655
56	0xbe1eaa26	-0.15494594
57	0xbe15927c	-0.1460666
58	0x3dd3f761	0.10349918
59	0xbd02258f	-0.0317741
60	0xbe157b7c	-0.14597887
61	0x3e0e6024	0.13903862
62	0xbe07386b	-0.13205115
63	0x3dfd3886	0.123642966
64	0x3ded00ca	0.11572416
65	0xbe23d18e	-0.15997908
66	0x3e1411b0	0.14459872
67	0x3e137b15	0.14402421
68	0x3e0568f8	0.13028324
69	0x3e09c807	0.1345521
70	0xbdec4425	-0.11536435
71	0xbe1300b0	-0.14355731
72	0x3d7a9aff	0.061182972
73	0xbc5d17c9	-0.01349444
74	0x3e08b03a	0.13348475
75	0x3e0f9b58	0.14024103
76	0x3e0690a7	0.13141118
77	0xbe020ea3	-0.12700896
78	0x3e0b1aee	0.13584492
79	0xbe15ea52	-0.14640167
80	0xbe0d077a	-0.13772383
81	0x3d26aaee	0.040690355
82	0xbdb6b85e	-0.08921884
83	0x3e148036	0.14502034
84	0xbdfeb9aa	-0.12437756
85	0x3d8db27c	0.06918809
86	0x3d95e568	0.073191464
87	0x3e0850ec	0.13312119
88	0x3e0dd21b	0.1384968
89	0xbe1b5e2b	-0.15172641
90	0xbe12712e	-0.14300987
91	0xbe1654e6	-0.14680824
92	0x3e120e5a	0.14263287
93	0xbe085a75	-0.13315757
94	0xbcb9f800	-0.022701263
95	0x3e0bebd8	0.13664186
96	0xbe0f8119	-0.1401409
97	0xbe03caa4	-0.1287027
98	0xbe1e19ff	-0.15439604
99	0xbe0fdf8e	-0.14050123
100	0x3dce2d65	0.10067252
101	0xbd752d08	-0.0598574
102	0x3d495346	0.04915168
103	0x3d5969f6	0.053079568
104	0xbd6f97ac	-0.058494255
105	0x3d19dc44	0.037563577
106	0xbe0007a2	-0.12502912
107	0xbd79e109	-0.061005626
108	0x3e05bbb2	0.13059881
109	0xbd515600	-0.051107407
110	0xbe046bac	-0.12931699
111	0xba06e229	-0.0005145395
112	0x3e12fb81	0.14353754
113	0x3d91ba69	0.07115633
114	0xbdea6763	-0.11445501
115	0x3da05cac	0.07830176
116	0x3da90785	0.08253387
117	0xbcc9b077	-0.024620278
118	0xbe06f711	-0.13180186
119	0xbe00b3b7	-0.12568556
120	0xbc890238	-0.01672469
121	0x3d920020	0.0712893
122	0xbe23b9ab	-0.15988795
123	0x3dbd2ca8	0.09237033
124	0x3dcb58b5	0.09929029
125	0xbd8b600b	-0.06805428
126	0xbcba46d1	-0.022738846
127	0x3e106fbf	0.14105128
128	0xbc690c96	-0.014224192
129	0xbd3a1b89	-0.045436416
130	0xbde38b99	-0.111106105
131	0xbde6cfad	-0.1127008
132	0xbd854850	-0.06507933
133	0x3d8ebb96	0.06969373
134	0x3db14c80	0.08657169
135	0xbe039c29	-0.12852539
136	0x3e17d995	0.14829095
137	0xbe057b62	-0.13035348
138	0x3dcf7862	0.10130383
139	0xbda99964	-0.0828121
140	0xbdd3182c	-0.10307345
141	0xbda5966c	-0.08085331
142	0x3e024adc	0.12723869
143	0x3e16115c	0.1465506
144	0xbe061e6a	-0.1309754
145	0xbdc6f72b	-0.09715112
146	0xbdf1602a	-0.1178592
147	0xbe02b98e	-0.12766096
148	0xbe14b05c	-0.14520401
149	0x3dab1c4b	0.08355006
150	0xbc3e7732	-0.011625098
151	0x3e02b32d	0.12763663
152	0xbe0f3d85	-0.13988312
153	0xbdce9fbc	-0.10089061
154	0xbd4da65a	-0.050207473
155	0x3e1670db	0.14691488
156	0xbc76acae	-0.0150558185
157	0xbe05e529	-0.13075699
158	0x3de45da4	0.11150673
159	0x3dc1ca02	0.09462358
160	0xbde3082d	-0.11085544
161	0xbd8b98ef	-0.06816279
162	0xbe0ec776	-0.13943276
163	0xbcbabe5d	-0.02279585
164	0x3e16f0aa	0.14740244
165	0xbe20ee48	-0.15715897
166	0x3e12bb98	0.14329374
167	0x3e09159a	0.13387147
168	0x3df4848e	0.11939345
169	0x3dc815cd	0.09769783
170	0x3bb08419	0.005386841
171	0xbde09709	-0.10966308
172	0xbe19acf4	-0.15007383
173	0xbdb3f014	-0.08786026
174	0x3e03f2b3	0.12885551
175	0x3df9ffc1	0.12206984
176	0x3daa1864	0.083054334
177	0xbe21e35a	-0.15809384
178	0x3df3f54d	0.11912022
179	0xbe0ae2b6	-0.13563046
180	0xbe1b68fa	-0.15176764
181	0xbd66e08d	-0.056366492
182	0x3df1d830	0.118088126
183	0x3df26005	0.118347205
184	0xbd6a09d9	-0.057138298
185	0x3d9f625a	0.07782431
186	0x3dff4656	0.124645874
187	0x3d94c698	0.07264441
188	0x3e129fbe	0.1431875
189	0x3e13e197	0.14441524
190	0xbe015eaf	-0.12633775
191	0xbe00150f	-0.12508033
192	0x3e04d8f7	0.1297339
193	0xbe254524	-0.16139656
194	0x3def5f0f	0.11688053
195	0x3db0483e	0.08607529
196	0xbe1abbfe	-0.15110776
197	0x3cd01283	0.025399452
198	0xbd6b63be	-0.05746817
199	0xbe183e65	-0.14867552
200	0x3da7f3a6	0.08200769
201	0x3e09cda5	0.13457353
202	0x3e10532a	0.14094225
203	0xbcef05ca	-0.029177565
204	0xbe171027	-0.14752255
205	0x3e06e89b	0.1317467
206	0xbe1f00f3	-0.15527706
207	0xbdf2b251	-0.118504174
208	0x3dba843f	0.09107255
209	0xbdcd9179	-0.10037512
210	0xbe18974a	-0.14901462
211	0x3db49df7	0.08819192
212	0xbe0b1d6f	-0.13585447
213	0xbdcd916b	-0.10037502
214	0xbe145e17	-0.14489017
215	0x3daa314a	0.083101824
216	0xbe20e3b5	-0.15711863
217	0x3e043b80	0.12913322
218	0xbe225f97	-0.15856777
219	0xbe038752	-0.1284459
220	0xbe0a31da	-0.1349558
221	0x3dd86837	0.105667524
222	0x3e24d508	0.1609689
223	0xbe05a545	-0.13051327
224	0x3e2b88c5	0.16751392
225	0x3e02d0a7	0.12774907
226	0x3e0bc967	0.13651048
227	0x3ddbcafe	0.10732077
228	0x3e0bbb07	0.13645564
229	0xbe2079f0	-0.15671515
230	0x3d0ef7e0	0.03490436
231	0xbd251c37	-0.04031011
232	0x3e17aca0	0.14811945
233	0xbe1a435f	-0.15064763
234	0x3e145550	0.14485669
235	0xbdf73206	-0.12070088
236	0x3dd689f2	0.1047553
237	0xbdf3738d	-0.11887274
238	0x3e1d2fc7	0.15350257
239	0x3e0311ec	0.12799805
240	0xbdddeb7f	-0.10835933
241	0x3e09299d	0.1339478
242	0xbe2a6c1f	-0.16642807
243	0x3e12c135	0.14331515
244	0x3e1bb615	0.15206178
245	0xbe198cd3	-0.14995126
246	0xbe1ec8f7	-0.1550635
247	0xbdd57191	-0.10422052
248	0x3daf9e31	0.085750945
249	0x3e1963c5	0.14979465
250	0xbde2f09f	-0.11081051
251	0xbdbc87e0	-0.092056036
252	0xbe156377	-0.14588724
253	0xbe1b3694	-0.15157539
254	0x3e094b83	0.13407712
255	0xbd49cf98	-0.049270242

fc2.bias f4 [100]
0	0xb89a1796	-7.3476855e-05
1	0xb7ef0c12	-2.849664e-05
2	0x3834d557	4.3114032e-05
3	0xb7b84002	-2.1964315e-05
4	0xb934e5e6	-0.00017251782
5	0x37ddfe55	2.6463686e-05
6	0xb8be7cf0	-9.0831774e-05
7	0xb787fd5d	-1.6211236e-05
8	0xb898d932	-7.2883806e-05
9	0xb8533d99	-5.0363687e-05
10	0xb583dfaf	-9.825361e-07
11	0xb7cc68df	-2.436753e-05
12	0xb65544ec	-3.1779591e-06
13	0xb7dca43f	-2.6302527e-05
14	0x385629e1	5.106058e-05
15	0xb84aab28	-4.8319955e-05
16	0x3860058f	5.341094e-05
17	0x379e134c	1.8844054e-05
18	0x39c350b8	0.00037253438
19	0xb7c7b3f7	-2.3806451e-05
20	0x3799e8de	1.8347459e-05
21	0xb7e7b487	-2.762141e-05
22	0x38c09bb7	9.1842776e-05
23	0x37ae0ae0	2.074748e-05
24	0xb7e07b61	-2.6760334e-05
25	0x377fc550	1.5245125e-05
26	0x3807178c	3.2208438e-05
27	0xb6b37b13	-5.3489434e-06
28	0xb8d8dcd1	-0.00010340813
29	0x37ae2b1a	2.0762487e-05
30	0xb8608d0b	-5.353712e-05
31	0x366e5326	3.5513162e-06
32	0x3735c534	1.0834356e-05
33	0xb7c506b3	-2.348735e-05
34	0xb84b14f6	-4.8418493e-05
35	0xb80debd3	-3.3836648e-05
36	0x391a6e19	0.00014727599
37	0x38c86e8d	9.557335e-05
38	0x37a54294	1.9700536e-05
39	0x36b95ae3	5.5240102e-06
40	0x390ae410	0.00013245665
41	0xb87d5c32	-6.0405764e-05
42	0x387318af	5.7958703e-05
43	0xb830c855	-4.2148244e-05
44	0x39125f40	0.00013959128
45	0xb7ac8277	-2.056475e-05
46	0x37d8bc38	2.5836853e-05
47	0x3525b60f	6.173222e-07
48	0xb6cee591	-6.1660035e-06
49	0x37b66217	2.1741767e-05
50	0xb69c8f28	-4.665828e-06
51	0x388295bc	6.226773e-05
52	0x383b58e0	4.4667046e-05
53	0x3903c022	0.00012564709
54	0xb799a71b	-1.8316836e-05
55	0xb64c3b3f	-3.0432855e-06
56	0xb9783f7e	-0.00023674776
57	0xb8523406	-5.0116352e-05
58	0x38a0743c	7.651045e-05
59	0x383a8405	4.446881e-05
60	0x38186f56	3.6343314e-05
61	0x37af2263	2.0877638e-05
62	0xb96dbfbc	-0.00022673508
63	0xb895ce04	-7.143247e-05
64	0x381c7a06	3.730694e-05
65	0xb8c91a0a	-9.589277e-05
66	0xb89a85f5	-7.368244e-05
67	0x38c3e732	9.341388e-05
68	0xb78c5713	-1.6729848e-05
69	0xb713bbbd	-8.805594e-06
70	0x363151a3	2.6422574e-06
71	0xb81f84fc	-3.8032405e-05
72	0x3819d3b7	3.6675217e-05
73	0xb81f56f6	-3.7989543e-05
74	0xb7a87b57	-2.0084595e-05
75	0x37f660f9	2.9370642e-05
76	0x38f9cc66	0.000119113174
77	0x3829f407	4.0520008e-05
78	0xb794ac75	-1.7723281e-05
79	0x37be9197	2.271756e-05
80	0x387bc640	6.0027698e-05
81	0x387cfa26	6.031445e-05
82	0xb7a4a6d7	-1.9628014e-05
83	0xb796b320	-1.7964805e-05
84	0x372cbbdc	1.0295738e-05
85	0x3a7e89f8	0.000970989
86	0xb92f33c3	-0.00016708583
87	0x3934f0fe	0.00017255914
88	0x37a2592e	1.9353432e-05
89	0xb81b62f7	-3.7047048e-05
90	0xb849b7a1	-4.8093152e-05
91	0x37a026af	1.90915e-05
92	0xb73c71fc	-1.1232212e-05
93	0x385c2694	5.2488016e-05
94	0x388ea2b8	6.8013964e-05
95	0x3894acc3	7.089369e-05
96	0xb902a582	-0.00012459423
97	0x388f13cb	6.822458e-05
98	0x389650c3	7.1676004e-05
99	0x37a02122	1.9088915e-05

out.weight f4 [5, 100]
0	0xbe2ca45d	-0.16859575
1	0x3e65ab5a	0.22428647
2	0xbd98fe2e	-0.07470356
3	0xbd8e749d	-0.06955836
4	0x3ea26ba1	0.3172274
5	0x3e4b4444	0.1985026
6	0x3d2ffc0f	0.04296499
7	0xbd205ddf	-0.039152022
8	0xbe347478	-0.17622554
9	0x3e5e289c	0.21695179
10	0xbdcf51e3	-0.101230405
11	0x3e5585a3	0.2085176
12	0x3e903c99	0.28171232
13	0xbe249cbd	-0.16075416
14	0x3d6f04c9	0.058354173
15	0xbd9d8c13	-0.07692733
16	0xbd527606	-0.051382087
17	0xbe3c7e91	-0.18407656
18	0xbe05f582	-0.13081935
19	0xbdb83ee5	-0.08996371
20	0xbe659a1c	-0.2242207
21	0xbd88b27d	-0.06674669
22	0xbdf1f9bd	-0.11815212
23	0xbe1bad7b	-0.15202896
24	0x3ea4c743	0.32183275
25	0xbde05184	-0.10953048
26	0xbe40bdd8	-0.1882242
27	0x3e1d10d9	0.15338458
28	0xbd861ec4	-0.06548837
29	0x3e61a026	0.22033748
30	0x3e5a2f2b	0.21307056
31	0xbe276c09	-0.16349806
32	0xbdf24491	-0.11829484
33	0xbd957f98	-0.07299727
34	0xbe126a53	-0.14298372
35	0x3dc67975	0.09691135
36	0xbde3bf0b	-0.11120423
37	0x3e0c834c	0.13721961
38	0xbd93b2ef	-0.07211863
39	0xbe33afc3	-0.17547517
40	0xbe0d81b0	-0.13819003
41	0xbddeb064	-0.108734876
42	0x3e3e2992	0.18570545
43	0xbe2b66bb	-0.16738407
44	0x3cb9b6b7	0.022670133
45	0x3e935912	0.28778893
46	0xbe17a549	-0.14809145
47	0xbe57d4a3	-0.21077208
48	0x3eab33d3	0.33437976
49	0x3e943f1e	0.28954405
50	0xbe0fac44	-0.14030558
51	0x3e8926ef	0.26787516
52	0xbe009d29	-0.12559952
53	0x3e8eaf62	0.2786818
54	0xbcf53b00	-0.02993536
55	0xbe4abc13	-0.19798307
56	0xbdfae5ad	-0.122508384
57	0x3e4ac419	0.19801368
58	0x3e5539b1	0.20822789
59	0x3ea327e2	0.31866366
60	0xbe2d3a38	-0.1691674
61	0x3e82d80d	0.2555546
62	0xbdc2b27e	-0.09506701
63	0xbe1cc25a	-0.15308514
64	0xbe05e56a	-0.13075796
65	0xbe11f1ec	-0.14252442
66	0xbe0b5724	-0.1360746
67	0x3e8d98b2	0.2765556
68	0xbde92891	-0.113846906
69	0x3e851c31	0.2599807
70	0xbe3f8b5f	-0.1870551
71	0xbe1d547e	-0.15364262
72	0xbdcd0f25	-0.10012654
73	0xbdcb276b	-0.09919628
74	0xbbed85a2	-0.0072485963
75	0x3dcc52ec	0.099767536
76	0xbe1e207e	-0.15442082
77	0xbe2eb7e9	-0.17062344
78	0x3e53d45b	0.20686476
79	0x3e19c133	0.15015106
80	0x3c869d3a	0.016432393
81	0xbd91bb11	-0.07115758
82	0x3e8e7f7e	0.27831644
83	0xbde5d0e2	-0.11221482
84	0xbe49468d	-0.19655819
85	0x3e56f53e	0.2099199
86	0xbdb11491	-0.08646501
87	0xbdd0976e	-0.10185133
88	0xbe26d060	-0.16290426
89	0xbe299ba7	-0.16563283
90	0xbd9f293c	-0.07771537
91	0xbe20599d	-0.15659185
92	0xbe064e2a	-0.13115755
93	0x3e6c3a0b	0.23069017
94	0x3e2f4310	0.17115426
95	0xbe2dbf8e	-0.16967604
96	0x3e7d4b0c	0.2473566
97	0xbd514a78	-0.05109641
98	0xbd9f0317	-0.07764261
99	0xbdb04ccd	-0.086083986
100	0x3d65db73	0.056117486
101	0xbdfdc3be	-0.123908505
102	0xbc9a2c95	-0.018820086
103	0x3e8cdbbc	0.27511394
104	0xbd712f50	-0.05888301
105	0xbcbd131e	-0.023080405
106	0xbe59255b	-0.21205656
107	0xbd37691b	-0.04477797
108	0xbe35d62f	-0.17757486
109	0x3dc41fec	0.09576401
110	0x3e5e39b4	0.217017
111	0xbe2fc489	-0.17164816
112	0xbe7da602	-0.24770358
113	0x3d198ee5	0.03748979
114	0x3e37fc06	0.17967233
115	0xbdc2c96a	-0.09511073
116	0x3e6ea77d	0.23306079
117	0xbe8117cb	-0.25213465
118	0x3e16e277	0.14734827
119	0x3e7e57bd	0.24838157
120	0xbe34ff3e	-0.17675492
121	0xbe3c9d38	-0.18419349
122	0x3e037dc3	0.12840943
123	0xbe0bf8f8	-0.13669193
124	0x3e1ce1fc	0.15320581
125	0x3e8b583e	0.2721576
126	0xbe9208af	-0.2852225
127	0xbe67c9b4	-0.22635537
128	0xbd17192c	-0.03688924
129	0xbe085c3f	-0.13316439
130	0xbdd81e0f	-0.10552608
131	0xbe6d61ad	-0.23181792
132	0xbdb50d53	-0.08840432
133	0xbe499181	-0.19684412
134	0xbe611ba5	-0.21983202
135	0xbe3d2724	-0.18471962
136	0xbe49d8c2	-0.19711593
137	0x3e5cd91f	0.215672
138	0xbe19b851	-0.15011717
139	0xbe733b2c	-0.23753041
140	0xbe456e76	-0.19280419
141	0x3e9a2e7f	0.301136
142	0xbe2f9b27	-0.1714903
143	0x3e5f3239	0.21796502
144	0x3e83512a	0.2564786
145	0xbe04ba29	-0.1296164
146	0xbe4bbbf5	-0.19895919
147	0xbe29b800	-0.16574097
148	0x3cbd860d	0.02313521
149	0xbe4296fc	-0.19002908
150	0xbd5f6097	-0.054535475
151	0x3e604721	0.21902134
152	0x3e0f0cf7	0.1396979
153	0x3e4ded86	0.20110139
154	0xbe53f277	-0.20697962
155	0xbe9e4dc2	-0.309187
156	0x3e9d3beb	0.30709776
157	0xbded16a6	-0.115765855
158	0xbdea897b	-0.114520036
159	0xbdfd9ca3	-0.12383392
160	0x3e920391	0.28518346
161	0xbe3cfc3c	-0.18455595
162	0x3e6609ef	0.22464727
163	0x3e632a00	0.2218399
164	0x3e628587	0.22121249
165	0x3d80061f	0.062511675
166	0x3def4375	0.11682788
167	0xbe5b4c27	-0.21415769
168	0xbe26c629	-0.1628653
169	0xbde89578	-0.11356634
170	0x3dbfd993	0.09367671
171	0xbd9a2806	-0.07527165
172	0x3e5f3149	0.21796145
173	0x3e598c52	0.21244934
174	0xbe5be6fa	-0.2147483
175	0xbe24cb41	-0.1609316
176	0x3e8cb619	0.2748268
177	0x3e6be2d4	0.23035747
178	0xbe2e7678	-0.1703738
179	0xbe3d4af3	-0.18485622
180	0xbe4ce6ac	-0.2000987
181	0xbe196693	-0.14980535
182	0xbe423719	-0.1896633
183	0x3e5493e3	0.2075954
184	0xbe04bc69	-0.12962498
185	0x3e61f756	0.22067007
186	0xbe431dee	-0.19054386
187	0xbc61f55a	-0.0137914065
188	0xbd93ce48	-0.072170794
189	0x3e9bd208	0.3043368
190	0xbe152d75	-0.14568122
191	0x3c7379aa	0.01486055
192	0x3e47322e	0.19452736
193	0xbe3d62d2	-0.18494728
194	0xbe23dc4b	-0.16002004
195	0x3e7ddefc	0.24792093
196	0xbe6fce22	-0.23418477
197	0x3dc1e550	0.09467566
198	0xbe21c27f	-0.1579685
199	0xbdde7d7c	-0.10863778
200	0xbd5255df	-0.051351424
201	0xbd7fe643	-0.062475454
202	0x3e556fce	0.20843431
203	0xbd91c4cc	-0.07117614
204	0xbe5222d2	-0.20521095
205	0xbdb31049	-0.087433405
206	0xbe020e47	-0.12700759
207	0xbe5a07ce	-0.2129204
208	0x3ddf50f3	0.10904112
209	0xbe024a68	-0.12723696
210	0xbe078a6d	-0.13236399
211	0xbd7964b5	-0.060887057
212	0xbd6df816	-0.05809792
213	0xbde43b92	-0.11144175
214	0x3d21a12d	0.03946035
215	0xbdf9b341	-0.12192393
216	0xbde4e359	-0.111761756
217	0xbc887461	-0.016657056
218	0xbddc4a1d	-0.107563235
219	0xbda31d62	-0.07964589
220	0x3df6ef6b	0.12057384
221	0xbe67fc92	-0.22654942
222	0xbe1a7aac	-0.15085858
223	0x3de306b1	0.11085261
224	0xbe29317b	-0.16522782
225	0xbd400187	-0.046876457
226	0x3e50e3fe	0.20399472
227	0xbd4c404f	-0.049866017
228	0x3e3d9549	0.18513979
229	0xbd582b22	-0.05277551
230	0xbd8328f3	-0.06404295
231	0x3e458321	0.19288303
232	0x3c968aae	0.018376675
233	0xbdeaaddb	-0.114589415
234	0xbdcfdf00	-0.10149956
235	0xbe473a88	-0.19455922
236	0x3dbd3324	0.0923827
237	0x3cb113d6	0.021615904
238	0x3e63b3d3	0.22236566
239	0xbd138f9f	-0.03602564
240	0x3e02457f	0.12721823
241	0xbe1ee7e9	-0.15518154
242	0x3e2edbb2	0.17075995
243	0xbdd8ed59	-0.105921455
244	0x3b832d1e	0.004003181
245	0xbe42d447	-0.1902629
246	0xbd893f70	-0.06701553
247	0x3e0af602	0.13570407
248	0xbe4a9085	-0.19781692
249	0x3d927ef5	0.071531214
250	0xbd88b73b	-0.066755734
251	0xbdf5468f	-0.119763486
252	0xbd2764f1	-0.04086775
253	0xbe296f19	-0.16546287
254	0x3cad0a52	0.021123085
255	0x3c101408	0.008793838

out.bias f4 [5]
0	0x3e2c4bf0	0.16825843
1	0xbd16d916	-0.036828123
2	0xbe59566a	-0.2122437
3	0x3cdfda04	0.027325638
4	0x3dc1f9b4	0.09471455

bn.weight f4 [100]
0	0x3e9c7669	0.3055909
1	0x3edc4233	0.43019256
2	0x3e4856bb	0.19564335
3	0x3f09bc85	0.5380328
4	0x3f3a06bf	0.72666544
5	0x3dd57a45	0.10423712
6	0x3eb5449b	0.35403904
7	0x3f401502	0.75032055
8	0x3f1f0436	0.621158
9	0x3e9350ee	0.28772682
10	0x3f03bc91	0.51459605
11	0x3eb94948	0.36188722
12	0x3f1dd31d	0.6165026
13	0x3e90d38f	0.28286406
14	0x3e9b2e08	0.30308557
15	0x3f379bc3	0.7172205
16	0x3f0b7f24	0.54490876
17	0x3f1ec80e	0.6202401
18	0x3f333b61	0.7001248
19	0x3e31d401	0.1736603
20	0x3f268b07	0.6505589
21	0x3f35462d	0.70810205
22	0x3f079647	0.5296368
23	0x3f04c52e	0.5186337
24	0x3f3a6fc2	0.7282678
25	0x3f002af2	0.5006553
26	0x3f19aea3	0.600321
27	0x3ef5ea71	0.48030427
28	0x3e9b8943	0.3037816
29	0x3edd3a6b	0.43208632
30	0x3ecdcf04	0.40197003
31	0x3f139429	0.5764795
32	0x3efaa774	0.48955882
33	0x3ec5425d	0.38527194
34	0x3ee1230b	0.43972048
35	0x3f45785a	0.77136767
36	0x3ea0be26	0.31395072
37	0x3ee26ac6	0.44222087
38	0x3eed1841	0.46307567
39	0x3f2a1140	0.6643257
40	0x3ee0a621	0.43876746
41	0x3ee98a74	0.45613444
42	0x3ed89a23	0.42305097
43	0x3ebd3a81	0.36958697
44	0x3f0ebc65	0.5575622
45	0x3f4092a1	0.7522374
46	0x3f2fbd1f	0.6864795
47	0x3f218330	0.630908
48	0x3f3262d2	0.6968204
49	0x3f1445e6	0.57919157
50	0x3e91b985	0.28461853
51	0x3f29db12	0.663499
52	0x3e13a550	0.1441853
53	0x3ef828b7	0.48468563
54	0x3e9b3d16	0.30320042
55	0x3f01bc49	0.50677925
56	0x3ed313a3	0.4122592
57	0x3ec1ffef	0.37890574
58	0x3f13fbc0	0.57806015
59	0x3f3fe8d1	0.74964625
60	0x3f212b5f	0.62956804
61	0x3ee185c7	0.44047377
62	0x3e96ca1c	0.29451072
63	0x3f1c449e	0.610422
64	0x3ed2ba1e	0.4115762
65	0x3ef3c8ac	0.47614038
66	0x3e61b04f	0.22039913
67	0x3f193108	0.5984044
68	0x3ecc9100	0.39954376
69	0x3ee2150a	0.44156677
70	0x3ef3b042	0.47595412
71	0x3ed4b5e3	0.4154502
72	0x3e4769af	0.19473909
73	0x3f26976d	0.6507481
74	0x3efb862b	0.491258
75	0x3ed65fdf	0.4187002
76	0x3f08c122	0.534197
77	0x3ef06f04	0.46959698
78	0x3e304b66	0.17216262
79	0x3e418281	0.1889744
80	0x3e93bdf3	0.28855857
81	0x3e980983	0.29694757
82	0x3f12adbe	0.5729636
83	0x3f0644fc	0.5244901
84	0x3f12876e	0.572379
85	0x3f0783b3	0.5293533
86	0x3ee2bdda	0.4428547
87	0x3eb24c71	0.34823945
88	0x3f0b3adb	0.5438668
89	0x3f0d813c	0.5527532
90	0x3e957b12	0.29195458
91	0x3eae0072	0.33984715
92	0x3ee349cd	0.44392243
93	0x3f3a81d9	0.7285438
94	0x3f2d6e80	0.67746735
95	0x3ece8e79	0.40343073
96	0x3f0a51a1	0.54030806
97	0x3f05b95b	0.52235955
98	0x3f145b8f	0.5795221
99	0x3ea44099	0.32080534

bn.bias f4 [100]
0	0x3e1338f3	0.14377193
1	0x3cc07da7	0.023497416
2	0xbc761161	-0.015018792
3	0x3df1d008	0.11807257
4	0x3e709ae8	0.23496592
5	0x3d4ebeaa	0.0504748
6	0x3c5bb613	0.013410109
7	0x3e270670	0.1631105
8	0x3d005951	0.03133518
9	0x3e1ccf3e	0.15313432
10	0x3e019325	0.12653787
11	0x3e8a6f99	0.27038267
12	0x3dba2889	0.09089763
13	0x3e2095f8	0.15682209
14	0x3cf4b6e2	0.029872362
15	0x3e27fb28	0.16404402
16	0x3dd4c938	0.10389942
17	0x3e448f00	0.19195175
18	0x3e60c889	0.21951498
19	0x3bf076d8	0.007338386
20	0x3d47a246	0.04873874
21	0x3e031ccb	0.12803952
22	0x3dd975f7	0.10618203
23	0x3d1bc200	0.03802681
24	0x3e7b5c98	0.2454704
25	0x3e8a23d6	0.26980466
26	0x3d8bedca	0.06832464
27	0x3db8224e	0.08990918
28	0x3c032d95	0.008006473
29	0xbda2576f	-0.07926833
30	0x3e20de59	0.15709819
31	0x3e3ad7a9	0.1824633
32	0x3e6d4bde	0.23173472
33	0x3cde921a	0.027169276
34	0x3e2c3b21	0.16819431
35	0x3e51d690	0.20492005
36	0x3d503037	0.05082723
37	0x3ce88252	0.028382454
38	0xbc717967	-0.014738417
39	0x3c312e1f	0.010814219
40	0x3d18557a	0.03719089
41	0x3de37c50	0.11107695
42	0x3d8407d4	0.064468056
43	0x3e1a7577	0.15083872
44	0x3cf7dd75	0.030256966
45	0x3de60518	0.1123144
46	0x3e032f14	0.12810928
47	0x3d46831c	0.04846488
48	0x3dc1f927	0.0947135
49	0x3e58468c	0.21120661
50	0x3e4002c3	0.18751054
51	0x3e6a5eeb	0.22887771
52	0x3ba97fd8	0.005172711
53	0x3e547552	0.20747879
54	0x3dabc8ab	0.08387884
55	0x3dc306d6	0.09522788
56	0x3da55d11	0.08074392
57	0xbc9531b2	-0.018212173
58	0x3da5c957	0.08095043
59	0x3e63fc33	0.22264175
60	0x3e45131a	0.19245568
61	0x3d962e21	0.07333017
62	0xbd20a6ec	-0.03922169
63	0x3cf2deef	0.029647319
64	0x3d7834e2	0.060597308
65	0x3e224ae4	0.15848881
66	0x3b83f33a	0.0040267976
67	0x3e041308	0.12897885
68	0x3c14f7fd	0.009092328
69	0x3d250117	0.040284242
70	0x3dfcaba5	0.12337426
71	0x3d6c022e	0.057619266
72	0x3d391065	0.04518165
73	0x3e50ed58	0.2040304
74	0x3daa3b28	0.083120644
75	0x3d9c7ba5	0.07640771
76	0x3cd25c1d	0.025678689
77	0x3e4d51f5	0.20050795
78	0x3e3ad2b1	0.18244435
79	0x3e25f2f1	0.16205956
80	0x3debe5e8	0.115184605
81	0x3d2a6aa0	0.04160559
82	0x3d8c9114	0.06863609
83	0x3e625115	0.22101243
84	0x3cad34d9	0.021143364
85	0x3e7a59d8	0.24448335
86	0x3ca7fff3	0.020507788
87	0xbae67f0f	-0.0017585474
88	0x3cf2d1f3	0.029641127
89	0x3e7ea392	0.24867085
90	0x3d895fbc	0.06707713
91	0xbcb3c6cf	-0.021945385
92	0x3d3e88d0	0.046517193
93	0x3ebd42cd	0.36965027
94	0x3d516cdb	0.051129203
95	0x3cf64c9a	0.030065823
96	0x3e277a68	0.16355288
97	0x3d1dadd8	0.03849587
98	0x3da2629b	0.07928964
99	0xbb0be9bf	-0.002134904

bn.running_mean f4 [100]
0	0x3c70af76	0.014690271
1	0xbcce6aff	-0.025197504
2	0x3cc13553	0.023584997
3	0x3d8c52c9	0.068517275
4	0x3daa8a88	0.08327204
5	0x3c2b9ddf	0.010474651
6	0xbcd67f17	-0.026183648
7	0x3cc056f2	0.023478959
8	0x3e06005c	0.13086075
9	0xbd9cafc0	-0.07650709
10	0xbbb10787	-0.0054025087
11	0xbd5c3a1f	-0.053766366
12	0xbd4260a1	-0.047455434
13	0xbd86bc28	-0.06578857
14	0x3df090b3	0.11746349
15	0x3d542188	0.05178979
16	0x3d176183	0.03695823
17	0x3d0ab44a	0.033863343
18	0x3defcd9f	0.11709141
19	0xbdbab3a8	-0.09116298
20	0x3dfcc279	0.1234178
21	0xbe0f6d9f	-0.14006661
22	0xbda4aec6	-0.08041148
23	0x3dde8ae0	0.10866332
24	0xbe2478e7	-0.16061746
25	0xbc50c081	-0.012741209
26	0x3c7920ad	0.015205544
27	0x3e13dc60	0.14439535
28	0xbde4942c	-0.11161074
29	0x3caaaa20	0.020833075
30	0x3d5a6ef8	0.053328484
31	0xbc397884	-0.011320237
32	0xbd2744d2	-0.040837117
33	0x3e051840	0.12997532
34	0xbdac87af	-0.08424317
35	0xbd2d4d3a	-0.042309977
36	0x3db955e4	0.090495855
37	0xbe17befb	-0.14818947
38	0xbd67e4be	-0.05661463
39	0x3c886815	0.016651193
40	0x3c0276a8	0.00796286
41	0xbd051948	-0.032494813
42	0x3c17f67c	0.009275075
43	0x3c2e02cc	0.010620784
44	0xbd3d82a2	-0.04626716
45	0x3db9cb2f	0.09071957
46	0x3dbc8bfa	0.09206386
47	0x3d2f8137	0.04284784
48	0xbdfa7c78	-0.12230772
49	0xbbc90505	-0.0061346316
50	0xbd21bf50	-0.03948909
51	0xbdd88f96	-0.10574262
52	0x3d6dbce4	0.05804147
53	0x3db6b4c1	0.08921195
54	0xbe51d765	-0.20492323
55	0x3c19cd9a	0.009387398
56	0xbae59986	-0.0017517067
57	0xbb2409b4	-0.0025030198
58	0xbcfa23cb	-0.030534646
59	0xbd91630a	-0.07098968
60	0x3dcf012c	0.101076454
61	0xbd70e83a	-0.05881522
62	0xbdd50185	-0.104006805
63	0xbcca9672	-0.024729941
64	0x3d3fc3c9	0.046817575
65	0xbd5f6c80	-0.054546833
66	0xbbea7304	-0.007154824
67	0xbd87b8c6	-0.066270396
68	0x3d70c2c2	0.058779486
69	0x3dd14ed8	0.102201164
70	0x3d3224df	0.043492194
71	0xbd412463	-0.04715384
72	0xbdd846c6	-0.10560374
73	0xbda65c3a	-0.081230596
74	0x3ddf9bd7	0.10918396
75	0x3c4c9eff	0.0124890795
76	0xbdba8bd8	-0.09108704
77	0x3d6c86d8	0.057745785
78	0x3da18b02	0.07887842
79	0x3d4bab10	0.049723685
80	0x3c46b875	0.012128939
81	0xbd3f5545	-0.04671218
82	0x3db5cfef	0.08877551
83	0x3d2bd71a	0.041953184
84	0xbd2513f8	-0.040302247
85	0x3b8dad10	0.004323609
86	0x3dd2d991	0.10295404
87	0x3cd7c1c2	0.026337508
88	0x3d91e40c	0.071235746
89	0x3d149259	0.03627238
90	0xbd973c00	-0.07384491
91	0x3d2ae726	0.041724347
92	0x3d75357a	0.059865452
93	0xbd6fe999	-0.058572385
94	0x3cfadce8	0.030622914
95	0xbd55ce2b	-0.05219857
96	0xbd77a82e	-0.060463123
97	0xbd8ac6dc	-0.06776211
98	0xbdb22513	-0.086984776
99	0xbd095b17	-0.033534136

bn.running_var f4 [100]
0	0x3ddaea2a	0.106891945
1	0x3e121773	0.14266758
2	0x3e188a26	0.1489645
3	0x3debb062	0.11508252
4	0x3e2c65cf	0.16835712
5	0x3ddc1831	0.10746802
6	0x3e2594f4	0.16170102
7	0x3e23fbfc	0.16014093
8	0x3de5a9d3	0.11214032
9	0x3d8185db	0.06324359
10	0x3ddfb7cc	0.10923728
11	0x3df69cf4	0.12041655
12	0x3d953287	0.07285028
13	0x3dc5ec16	0.096641704
14	0x3dda87c2	0.10670425
15	0x3dd5d7ed	0.10441575
16	0x3e4fe47c	0.20302004
17	0x3e010da6	0.12602863
18	0x3e2f87dd	0.17141671
19	0x3e0355be	0.12825677
20	0x3df236aa	0.118268326
21	0x3e29648d	0.16542263
22	0x3ddc3521	0.10752321
23	0x3e2374db	0.15962546
24	0x3e07fc7b	0.13279907
25	0x3e1eeacf	0.1551926
26	0x3df76f7e	0.12081812
27	0x3e02de00	0.12779999
28	0x3e0dc4e0	0.13844633
29	0x3e186e0a	0.14885727
30	0x3e0de10c	0.1385538
31	0x3e11f4c2	0.14253524
32	0x3e03706e	0.12835857
33	0x3e1b2631	0.15151288
34	0x3e1b08bc	0.1514005
35	0x3e06410d	0.13110752
36	0x3de92178	0.11383337
37	0x3dc3e20c	0.095645994
38	0x3e053620	0.13008928
39	0x3ddc3788	0.10752779
40	0x3e0d1786	0.13778505
41	0x3dbd2654	0.09235826
42	0x3e1d1558	0.15340173
43	0x3e1860fd	0.14880748
44	0x3dc97d7b	0.098383866
45	0x3e30c22f	0.17261575
46	0x3e2a729c	0.16645283
47	0x3e090692	0.13381413
48	0x3e139297	0.14411388
49	0x3e0707b5	0.13186534
50	0x3dfcb6d8	0.12339562
51	0x3decc077	0.11560147
52	0x3db40dfd	0.087917306
53	0x3dfe3226	0.12411909
54	0x3dba7503	0.091043495
55	0x3e1b74f5	0.15181334
56	0x3df76095	0.120789684
57	0x3dfe8ceb	0.12429222
58	0x3dc6482e	0.09681736
59	0x3e291821	0.1651311
60	0x3df6e3d3	0.12055173
61	0x3db5c66e	0.08875738
62	0x3e0ea8e4	0.13931614
63	0x3e0bcbb3	0.13651924
64	0x3e4930cc	0.19647521
65	0x3df514bd	0.11966846
66	0x3de6b10c	0.11264238
67	0x3dce10e7	0.100618176
68	0x3e176577	0.147848
69	0x3debae44	0.11507848
70	0x3dd6079e	0.104506716
71	0x3d632f1f	0.05546486
72	0x3dea4dbd	0.11440609
73	0x3e0d3e5a	0.13793316
74	0x3e0573d4	0.13032466
75	0x3e0ceb01	0.13761522
76	0x3e0bdb50	0.1365788
77	0x3db33151	0.08749641
78	0x3dbbdaef	0.09172618
79	0x3d8acb11	0.06777013
80	0x3d8f94de	0.07010816
81	0x3d8e891c	0.06959745
82	0x3dcd64a4	0.10028961
83	0x3e348f21	0.17632724
84	0x3e19501f	0.1497197
85	0x3e22a16b	0.15881889
86	0x3e299bc2	0.16563323
87	0x3dcbedc1	0.09957457
88	0x3e237360	0.15961981
89	0x3d9f262e	0.07770954
90	0x3e044ad9	0.12919177
91	0x3de4454b	0.11146029
92	0x3e2c3244	0.1681605
93	0x3e02252b	0.12709491
94	0x3e22c189	0.1589414
95	0x3db21746	0.08695845
96	0x3e0b92f5	0.13630278
97	0x3e1461a7	0.14490376
98	0x3e0d8eb8	0.13823974
99	0x3df05e7d	0.11736772

net.0.weight f4 [100, 100]
0	0x3d0a7b7b	0.033809166
1	0x3dffd76a	0.12492259
2	0x3ae82ef9	0.0017714194
3	0x3db94b5c	0.09047577
4	0x3e0869e0	0.13321638
5	0xbd302f74	-0.043014005
6	0x3e29d409	0.16584791
7	0xbda9904c	-0.082794756
8	0x3db21620	0.08695626
9	0xbdb135ab	-0.086528145
10	0x3e34eff6	0.17669663
11	0xbdc8d0e8	-0.09805471
12	0x3da3b816	0.07994096
13	0xbdc8f30c	-0.098119825
14	0xbd83c010	-0.064331174
15	0x3df081a2	0.117434755
16	0x3d8b5f58	0.06805295
17	0xbd4c2558	-0.0498403
18	0xbd7b5bfc	-0.06136702
19	0xbe007093	-0.12542944
20	0x3dd085ac	0.10181746
21	0xbcde7688	-0.02715613
22	0x3e26e6b8	0.1629895
23	0x3d85b12b	0.06527933
24	0xbdb69e31	-0.08916891
25	0x3e261d06	0.16222009
26	0xbdb47cf5	-0.08812896
27	0x3e02434e	0.12720987
28	0x3e329075	0.17437918
29	0xbdbbfb3b	-0.09178778
30	0x3d90e816	0.07075517
31	0x3a68dab4	0.0008882687
32	0xbdb80615	-0.08985535
33	0xbdd329d7	-0.10310715
34	0x3d054b60	0.032542586
35	0x3dca94c4	0.09891656
36	0x3ca84b23	0.02054364
37	0x3d3bca67	0.045847323
38	0xbdfb0843	-0.12257435
39	0x3d95e47c	0.073189706
40	0xbc9704fc	-0.018434994
41	0x3dfaf54f	0.1225382
42	0xbd955e8a	-0.072934225
43	0x3d899a3d	0.06718872
44	0x3e26a34d	0.16273232
45	0x3e15c87f	0.14627264
46	0xbe11d84f	-0.14242671
47	0x3dfa7910	0.12230122
48	0xbd07ed56	-0.033185326
49	0xbd416e4f	-0.04722434
50	0x3e36fd02	0.17869952
51	0x3dbe8194	0.09302059
52	0x3e1fa355	0.1558965
53	0x3e11d100	0.14239883
54	0x3d41cf66	0.04731693
55	0xbe277f3b	-0.16357128
56	0xbc89b180	-0.016808271
57	0x3cdb0ce6	0.026739549
58	0x3e326629	0.17421784
59	0x3dd48442	0.10376789
60	0xbd8587ee	-0.06520067
61	0xbe33e804	-0.17568976
62	0xbe224589	-0.15846838
63	0x3e1c774b	0.15279882
64	0x3e0b5d84	0.13609892
65	0x3e070a6a	0.13187566
66	0xbcf69504	-0.030100353
67	0xbe2febd4	-0.17179805
68	0x3d8a48a4	0.06752136
69	0x3db5a6cf	0.08869707
70	0x3ce27358	0.02764289
71	0x3e34118f	0.17584823
72	0x3d7b0f5e	0.061293952
73	0x3e177641	0.14791204
74	0x3d960c58	0.07326573
75	0x3d80a455	0.06281344
76	0xbd08ede6	-0.033430003
77	0xbe0758d7	-0.13217483
78	0x3d264f6c	0.040603086
79	0x3dfdf248	0.12399727
80	0xbe19524a	-0.14972797
81	0x3d7860ae	0.060639076
82	0x3e1d96c3	0.15389542
83	0x3df5b66d	0.119976856
84	0xbdadcd59	-0.084864326
85	0xbdfe5e7c	-0.12420365
86	0x3e2709cc	0.16312331
87	0xbd367a63	-0.04455031
88	0xbdafa7da	-0.08576937
89	0xbd73722b	-0.05943505
90	0xbdbd1b74	-0.09233752
91	0xbe359735	-0.17733462
92	0x3e206354	0.1566289
93	0xbe23eccf	-0.16008304
94	0xbe2ecf43	-0.17071252
95	0xbdde1109	-0.10843093
96	0xbe1d707c	-0.1537494
97	0xbe04cdec	-0.12969178
98	0xbe478b22	-0.19486669
99	0x3e2d9e46	0.16954908
100	0xbe243ef3	-0.16039638
101	0xbddc5a73	-0.10759439
102	0x3e23014d	0.15918465
103	0xbe226554	-0.15858966
104	0x3d2a6229	0.04159752
105	0x3e1dfd0d	0.15428562
106	0x3e2028cb	0.15640561
107	0xbcda20a8	-0.0266269
108	0x3d3e38fb	0.04644106
109	0x3e342799	0.1759323
110	0x3d803691	0.06260408
111	0x3e264777	0.16238199
112	0xbdef513c	-0.11685416
113	0x3cd484f8	0.02594231
114	0x3e24c608	0.16091168
115	0xbe08811e	-0.13330504
116	0xbe176965	-0.14786299
117	0x3d97af7e	0.07406519
118	0xbcda3a2e	-0.02663907
119	0x3df390e2	0.118928686
120	0xbd8b8d02	-0.068140045
121	0x3e532e57	0.20623146
122	0xbdd3f847	-0.103500895
123	0xbe06f813	-0.1318057
124	0x3e0c960d	0.13729115
125	0x3de1879b	0.11012193
126	0x3dc96736	0.09834139
127	0x3de171b1	0.11008013
128	0xbdb5d179	-0.08877844
129	0x3e18ddc3	0.14928345
130	0xbe1c305b	-0.15252821
131	0x3e0a455f	0.13503025
132	0x3e0377f6	0.1283873
133	0x3dee2e54	0.1162993
134	0xbdbdc492	-0.092660084
135	0x3d97d6fd	0.07414053
136	0x3e380d13	0.17973737
137	0x3e3778d2	0.17917183
138	0x3d551ace	0.052027516
139	0x3dfc39d3	0.123157166
140	0x3e1e5338	0.15461433
141	0xbe1a2bac	-0.15055722
142	0x3e038170	0.12842345
143	0x3e0436d8	0.12911546
144	0xbe1ed9ee	-0.15512821
145	0xbdf5ae4f	-0.11996137
146	0x3d9a9a60	0.07548976
147	0xbe2ae344	-0.16688257
148	0x3e285be0	0.16441298
149	0xbdb5fddf	-0.08886313
150	0xbe1a38a6	-0.15060672
151	0xbe306c86	-0.17228898
152	0xbde1dead	-0.110288
153	0xbe134895	-0.14383157
154	0x3cb930df	0.022606311
155	0xbd137e53	-0.036009144
156	0xbe24e96e	-0.16104671
157	0xbe00e91d	-0.12588926
158	0xbc8ea2fd	-0.017411703
159	0xbd88078f	-0.06642067
160	0xbe14cf2c	-0.14532155
161	0xbdaf8eb9	-0.08572144
162	0x3e28b103	0.16473775
163	0xbe107831	-0.1410835
164	0xbd66d380	-0.056354046
165	0xbdbb9a8f	-0.09160339
166	0x3e139cb2	0.14415243
167	0x3e1980c9	0.14990534
168	0x3e25d4ec	0.16194504
169	0xbe216a36	-0.15763173
170	0xbe248c1c	-0.16069072
171	0xbe16dbb1	-0.14732243
172	0xbd6d6174	-0.057954267
173	0xbe024102	-0.12720111
174	0xbe2098b1	-0.15683247
175	0xbe20f779	-0.15719403
176	0x3e35c7fc	0.17752069
177	0x3e33007b	0.17480652
178	0xbd8cca3f	-0.06874513
179	0xbaac4d42	-0.0013145583
180	0x3dddba28	0.10826522
181	0xbe111791	-0.14169146
182	0xbdf35168	-0.118807614
183	0xbe185263	-0.14875178
184	0x3e2c9d7c	0.1685695
185	0x3e3d198c	0.18466777
186	0xbded0f6b	-0.11575206
187	0x3e3963f4	0.18104535
188	0xbe17ae3c	-0.14812559
189	0xbe315d8e	-0.17320845
190	0x3e3144cc	0.173114
191	0x3df49a65	0.11943511
192	0xbe1b9aac	-0.15195721
193	0xbe12ad4c	-0.1432392
194	0x3e1f23b2	0.1554096
195	0xbe2fbb30	-0.1716125
196	0x3e21758c	0.15767497
197	0x3e294da3	0.16533522
198	0x3e05439a	0.13014069
199	0xbe0e734d	-0.13911171
200	0x3e2d0c22	0.1689916
201	0xbe01c6f4	-0.12673551
202	0xbe137de1	-0.14403488
203	0x3e0a7f72	0.13525179
204	0xbd825902	-0.06364633
205	0xbe236f8f	-0.15960525
206	0x3e08c236	0.13355336
207	0x3d54ced2	0.05195505
208	0xbe24b715	-0.16085465
209	0xbdf996af	-0.12186944
210	0xbe296b6a	-0.16544881
211	0x3e378a82	0.1792393
212	0x3e1e7243	0.15473275
213	0x3e2106ac	0.15725201
214	0xbe1d44e0	-0.15358305
215	0x3bd120c3	0.0063820793
216	0x3e0ef7a9	0.13961662
217	0xbe1e743e	-0.1547403
218	0xbe1fef0d	-0.15618534
219	0xbdf87541	-0.121317394
220	0xbde7e7f0	-0.113235354
221	0xbe00af48	-0.12566864
222	0x3e238f50	0.15972638
223	0x3ca45694	0.020060815
224	0xbe0a7f32	-0.13525084
225	0xbdf9016e	-0.12158476
226	0xbdb8be3b	-0.090206586
227	0xbddf67c5	-0.10908464
228	0xbe075973	-0.13217716
229	0xbe0077e9	-0.12545742
230	0x3e0a9485	0.13533218
231	0xbe15c37c	-0.14625353
232	0xbe24e865	-0.16104276
233	0xbde7f6ab	-0.11326345
234	0x3dfda26c	0.12384495
235	0xbde896b7	-0.113568716
236	0xbe18156c	-0.14851922
237	0xbccb513e	-0.024819013
238	0x3d681c56	0.05666765
239	0x3df359ac	0.11882338
240	0xbe0379ec	-0.12839478
241	0x3e204a0f	0.15653251
242	0xbe090b61	-0.13383247
243	0xbd62ae3c	-0.055341944
244	0x3e17058a	0.14748207
245	0x3e361401	0.17781068
246	0x3d851e51	0.06499923
247	0x3e070476	0.13185295
248	0xbda094fa	-0.07840915
249	0x3e24193b	0.1602525
250	0x3dee2537	0.11628192
251	0x3deb2dca	0.11483343
252	0x3dd7452f	0.105112426
253	0x3e0e4d25	0.13896616
254	0x3e2ef52d	0.17085715
255	0xbe17dba5	-0.14829881

net.0.bias f4 [100]
0	0xb8a27418	-7.746386e-05
1	0x3847d0ab	4.7639634e-05
2	0x37b30219	2.133944e-05
3	0x38156137	3.5614907e-05
4	0xb78b8c14	-1.663532e-05
5	0xb88beb1f	-6.671831e-05
6	0x387fcef0	6.0989463e-05
7	0x38f599ea	0.00011711179
8	0x371ae386	9.23209e-06
9	0x382f2e79	4.1766532e-05
10	0x362df0b0	2.5919107e-06
11	0x371162cf	8.665679e-06
12	0x39118fb3	0.0001388181
13	0xb67152ca	-3.5959988e-06
14	0x38b4aeac	8.615604e-05
15	0xb638672c	-2.747819e-06
16	0x388734b7	6.4471205e-05
17	0x375eb039	1.3273261e-05
18	0xb98e0833	-0.0002709046
19	0x34c12fdb	3.598387e-07
20	0xb78914d6	-1.6341375e-05
21	0xb6e81ba6	-6.9173575e-06
22	0xb72ef355	-1.0427863e-05
23	0xb8a7e830	-8.006429e-05
24	0xb85ed2a6	-5.3125106e-05
25	0xb811c66d	-3.4755492e-05
26	0xb88e37a7	-6.781454e-05
27	0x3631e170	2.6506277e-06
28	0x351f74ec	5.940226e-07
29	0xb7f2bb3a	-2.8935832e-05
30	0x36e10b4a	6.7068368e-06
31	0x37f1b0b8	2.881173e-05
32	0x38a712bc	7.96667e-05
33	0x386a5cd4	5.58764e-05
34	0x3738ecbc	1.1022374e-05
35	0x3658a54f	3.228273e-06
36	0xb829e1de	-4.0503095e-05
37	0x382718e8	3.98391e-05
38	0x371cfd22	9.357262e-06
39	0xb74c3ebb	-1.2173953e-05
40	0xb6c525e9	-5.875471e-06
41	0xb73998f8	-1.1062475e-05
42	0xb7b8bd1b	-2.2022568e-05
43	0x38791a3f	5.939067e-05
44	0x376c9c5f	1.4103104e-05
45	0x38d92de8	0.00010355917
46	0x393e8ad6	0.00018171532
47	0x383b878d	4.4710516e-05
48	0x38102087	3.436257e-05
49	0x3717304f	9.011549e-06
50	0xb69ac45f	-4.6124183e-06
51	0xb8cccf1b	-9.7660544e-05
52	0xb593e702	-1.1019586e-06
53	0xb60b97f7	-2.080107e-06
54	0x380a1ebb	3.2930384e-05
55	0x38dac99c	0.00010432603
56	0xb83817ab	-4.389106e-05
57	0xb73b0f1e	-1.1149588e-05
58	0xb859b28d	-5.190312e-05
59	0x363fa119	2.855499e-06
60	0xb752ba2e	-1.2560324e-05
61	0x3501599b	4.818664e-07
62	0x39123229	0.00013942331
63	0xb7f49ecd	-2.9161014e-05
64	0x394691f6	0.00018937126
65	0xb8972d3c	-7.208667e-05
66	0x372b7bb6	1.0221198e-05
67	0x380d1e66	3.364533e-05
68	0x364657e5	2.955546e-06
69	0x36197012	2.286401e-06
70	0xb727eba0	-1.0008836e-05
71	0xb80059d8	-3.060125e-05
72	0xb712515d	-8.721222e-06
73	0x376d848e	1.4157164e-05
74	0xb9394c53	-0.00017671408
75	0xb88dde0f	-6.7647656e-05
76	0xb662c014	-3.3788428e-06
77	0xb6da4c68	-6.505801e-06
78	0xb791fe59	-1.7403787e-05
79	0x366c2fdf	3.5194605e-06
80	0xb6b68ed6	-5.440651e-06
81	0x37035b25	7.82943e-06
82	0xb78796ad	-1.6163418e-05
83	0xb94ce5e6	-0.000195406
84	0xb760e210	-1.3404075e-05
85	0x378f98be	1.7118055e-05
86	0x388a7eae	6.603949e-05
87	0x37b6f9e9	2.1812464e-05
88	0x38f783d8	0.000118024356
89	0xb7ef8ba0	-2.8556038e-05
90	0xb5ff8d20	-1.9040053e-06
91	0x354c7392	7.61641e-07
92	0x379c2cc3	1.8617493e-05
93	0x37296ebe	1.0098969e-05
94	0xb5f6f17f	-1.8398713e-06
95	0x37943585	1.7667897e-05
96	0x375825be	1.2883391e-05
97	0xb8355041	-4.3228505e-05
98	0x386a3a1c	5.5844066e-05
99	0x37a44dc8	1.9586543e-05

net.1.weight f4 [100]
0	0x3e9c7669	0.3055909
1	0x3edc4233	0.43019256
2	0x3e4856bb	0.19564335
3	0x3f09bc85	0.5380328
4	0x3f3a06bf	0.72666544
5	0x3dd57a45	0.10423712
6	0x3eb5449b	0.35403904
7	0x3f401502	0.75032055
8	0x3f1f0436	0.621158
9	0x3e9350ee	0.28772682
10	0x3f03bc91	0.51459605
11	0x3eb94948	0.36188722
12	0x3f1dd31d	0.6165026
13	0x3e90d38f	0.28286406
14	0x3e9b2e08	0.30308557
15	0x3f379bc3	0.7172205
16	0x3f0b7f24	0.54490876
17	0x3f1ec80e	0.6202401
18	0x3f333b61	0.7001248
19	0x3e31d401	0.1736603
20	0x3f268b07	0.6505589
21	0x3f35462d	0.70810205
22	0x3f079647	0.5296368
23	0x3f04c52e	0.5186337
24	0x3f3a6fc2	0.7282678
25	0x3f002af2	0.5006553
26	0x3f19aea3	0.600321
27	0x3ef5ea71	0.48030427
28	0x3e9b8943	0.3037816
29	0x3edd3a6b	0.43208632
30	0x3ecdcf04	0.40197003
31	0x3f139429	0.5764795
32	0x3efaa774	0.48955882
33	0x3ec5425d	0.38527194
34	0x3ee1230b	0.43972048
35	0x3f45785a	0.77136767
36	0x3ea0be26	0.31395072
37	0x3ee26ac6	0.44222087
38	0x3eed1841	0.46307567
39	0x3f2a1140	0.6643257
40	0x3ee0a621	0.43876746
41	0x3ee98a74	0.45613444
42	0x3ed89a23	0.42305097
43	0x3ebd3a81	0.36958697
44	0x3f0ebc65	0.5575622
45	0x3f4092a1	0.7522374
46	0x3f2fbd1f	0.6864795
47	0x3f218330	0.630908
48	0x3f3262d2	0.6968204
49	0x3f1445e6	0.57919157
50	0x3e91b985	0.28461853
51	0x3f29db12	0.663499
52	0x3e13a550	0.1441853
53	0x3ef828b7	0.48468563
54	0x3e9b3d16	0.30320042
55	0x3f01bc49	0.50677925
56	0x3ed313a3	0.4122592
57	0x3ec1ffef	0.37890574
58	0x3f13fbc0	0.57806015
59	0x3f3fe8d1	0.74964625
60	0x3f212b5f	0.62956804
61	0x3ee185c7	0.44047377
62	0x3e96ca1c	0.29451072
63	0x3f1c449e	0.610422
64	0x3ed2ba1e	0.4115762
65	0x3ef3c8ac	0.47614038
66	0x3e61b04f	0.22039913
67	0x3f193108	0.5984044
68	0x3ecc9100	0.39954376
69	0x3ee2150a	0.44156677
70	0x3ef3b042	0.47595412
71	0x3ed4b5e3	0.4154502
72	0x3e4769af	0.19473909
73	0x3f26976d	0.6507481
74	0x3efb862b	0.491258
75	0x3ed65fdf	0.4187002
76	0x3f08c122	0.534197
77	0x3ef06f04	0.46959698
78	0x3e304b66	0.17216262
79	0x3e418281	0.1889744
80	0x3e93bdf3	0.28855857
81	0x3e980983	0.29694757
82	0x3f12adbe	0.5729636
83	0x3f0644fc	0.5244901
84	0x3f12876e	0.572379
85	0x3f0783b3	0.5293533
86	0x3ee2bdda	0.4428547
87	0x3eb24c71	0.34823945
88	0x3f0b3adb	0.5438668
89	0x3f0d813c	0.5527532
90	0x3e957b12	0.29195458
91	0x3eae0072	0.33984715
92	0x3ee349cd	0.44392243
93	0x3f3a81d9	0.7285438
94	0x3f2d6e80	0.67746735
95	0x3ece8e79	0.40343073
96	0x3f0a51a1	0.54030806
97	0x3f05b95b	0.52235955
98	0x3f145b8f	0.5795221
99	0x3ea44099	0.32080534
