FarconVAE/result_yaleb/yaleb_downstream_y_2023_05_01_16_51_06_472304_ours.pth.pt (torch, 16423 bytes, 2 tensors)

layer.weight f4 [38, 100]
-0.2752925 0.023280324 -0.15527643 0.20034732 -0.1526558 0.017761009 -0.08091195 0.18516093
-0.06894074 -0.113723874 0.1177172 -0.2268013 0.12744418 0.14303267 -0.02961165 -0.27979124
-0.057019647 -0.10664139 -0.030329928 0.25728166 0.1774472 0.20013067 -0.030437808 -0.2200192
-0.25006297 -0.048716307 0.013045249 -0.0022816902 -0.20260632 0.07851584 -0.06465315 0.23621854
-0.11512991 -0.15164804 0.21484122 -0.17131324 -0.1364024 -0.21910238 0.12640816 0.03527905
0.009734626 0.2483843 -0.2053457 0.21148042 -0.033952877 0.17371039 -0.19586694 -0.1247027
0.0049739853 0.1398061 0.07319855 -0.20175597 0.20032166 -0.28466716 0.01417926 -0.21525986
0.013605635 -0.106759116 0.20452362 0.1196343 0.19760165 -0.13174123 -0.02036119 -0.062234186
0.068714045 0.050150156 -0.19163124 0.014188512 -0.09320524 -0.15423116 -0.18918857 0.16973884
0.04648178 -0.08128149 -0.15161392 0.097810596 -0.04605611 -0.16806298 0.0131337615 0.15539397
0.02967009 0.063851014 0.22570308 0.1852515 0.26411387 0.12415353 0.13327181 0.15163259
-0.24908811 0.1887574 0.15283641 -0.14208198 -0.26116875 -0.07276514 -0.18530862 -0.18106389
0.0140901925 0.24888851 0.10518176 -0.024827331 0.16860372 0.2321022 0.07151374 0.12859043
-0.07012808 -0.24233782 0.18860127 -0.227836 0.18133046 -0.18735187 -0.13213716 -0.16663995
-0.121130936 -0.07154342 0.22203915 0.02859965 0.08459762 -0.0076815723 0.21763049 0.17922509
0.016528836 -0.06515325 -0.15526836 -0.046518274 0.22795244 0.18868662 -0.032874327 -0.035000086
0.11262831 -0.23793976 0.15171582 0.21838926 -0.123938665 -0.20916474 -0.22432801 0.20608647
-0.05481101 -0.20202734 -0.13004637 0.10868898 -0.1405556 -0.0033243187 -0.12898915 -0.22191751
-0.18676661 -0.23205172 -0.21436988 -0.044023294 -0.17873718 -0.09900346 -0.099410444 -0.01452883
-0.12929183 -0.10533857 0.088053934 -0.10113744 -0.14375007 0.13141446 0.05250735 -0.08547168
0.1636772 0.25639018 0.056543864 -0.2002149 0.010427412 0.03552498 -0.09911284 0.20269567
-0.14329696 -0.11930765 -0.124031566 0.08565785 0.17625445 0.15522863 -0.016762689 0.19045907
0.17114551 -0.20205382 0.112429954 -0.044706527 -0.14923185 0.12583682 0.17534646 0.012105711
0.07900911 -0.21551684 -0.060698077 -0.09795162 -0.119680986 0.121442266 0.0038368606 -0.081893325
0.16282843 -0.112022534 -0.11595496 -0.028760584 0.20851062 -0.11621735 0.1037454 0.03289781
0.15430182 0.17248257 -0.022611812 0.16850773 -0.19838817 0.12548713 0.06310964 -0.01895326
-0.054810748 0.15954025 -0.2791144 -0.038704827 -0.11664638 -0.18553658 0.1170917 -0.14781491
-0.13384336 -0.09515305 -0.13062997 -0.028411085 -0.010804473 0.04064121 0.112954006 -0.20600358
-0.090586245 0.13926703 -0.15323645 0.17273816 -0.18432888 0.19602744 -0.095164776 0.17451757
-0.10407399 0.26196733 0.14559962 -0.019369902 -0.17344011 0.103984974 0.07725328 0.20784071
-0.18132018 -0.17072558 -0.039649155 -0.024817515 0.1694823 0.19529307 -0.26746455 0.19987142
0.00060496334 -0.096494526 -0.24347144 0.089506164 -0.1475264 -0.044493407 0.19492455 -0.109975904
00000000: 23f3 8cbe 61b6 be3c c900 1fbe d927 4d3e
00000010: cd51 1cbe 897f 913c 2ab5 a5bd d49a 3d3e
00000020: cd30 8dbd 10e8 e8bd b715 f13d 9a3e 68be
00000030: ba80 023e 2877 123e 2294 f2bc cc40 8fbe
00000040: 6f8d 69bd cd66 dabd 7876 f8bc 6cba 833e
00000050: b8b4 353e 0eef 4c3e b658 f9bc b74c 61be
00000060: 4108 80be c08a 47bd bdbb 553c 6988 15bb
00000070: 0878 4fbe eacc a03d df68 84bd 46e3 713e
00000080: 3bc9 ebbd a049 1bbe 56ff 5b3e bd6c 2fbe
00000090: 12ad 0bbe 605c 60be 2471 013e c480 103d
000000a0: fb7d 1f3c 7458 7e3e 2546 52be 538e 583e
000000b0: 2c12 0bbd 23e1 313e 5891 48be 2164 ffbd
000000c0: d0fc a23b 5529 0f3e 1fe9 953d 1e99 4ebe
000000d0: 1f21 4d3e e5bf 91be 2050 683c 156d 5cbe
000000e0: 2bea 5e3c 86a4 dabd a46e 513e d402 f53d
000000f0: 1658 4a3e 2ce7 06be 83cc a6bc 46e9 7ebd
00000100: f3b9 8c3d 406a 4d3d fb3a 44be ef76 683c
00000110: 64e2 bebd c6ee 1dbe a6ba 41be 05d0 2d3e
00000120: ae63 3e3d e976 a6bd ae40 1bbe ec50 c83d
00000130: 55a5 3cbd b418 2cbe fd2e 573c 991f 1f3e
00000140: b00e f33c 52c4 823d b51e 673e 92b2 3d3e
00000150: ef39 873e 3544 fe3d 6878 083e 9345 1b3e
00000160: f410 7fbe 9f49 413e 2681 1c3e f07d 11be
00000170: e9b7 85be e405 95bd 8bc1 3dbe d068 39be
00000180: 8dda 663c a1dc 7e3e 8969 d73d b062 cbbc
00000190: 74a6 2c3e 33ac 6d3e cc75 923d 36ad 033e
000001a0: 509f 8fbd 6827 78be b120 413e d74d 69be
000001b0: b1ae 393e 2bd9 3fbe f74e 07be aaa3 2abe
000001c0: 7f13 f8bd 5b85 92bd 3b5e 633e d049 ea3c
000001d0: 8441 ad3d b3b5 fbbb 87da 5e3e c886 373e
000001e0: 7b67 873c 116f 85bd abfe 1ebe f289 3ebd
000001f0: 5d6c 693e 1137 413e 3ba7 06bd 405c 0fbd
00000200: aca9 e63d 7ba6 73be 645b 1b3e 6fa1 5f3e
00000210: 8ed3 fdbd 482f 56be 3eb6 65be 5508 533e
00000220: 8281 60bd 41e0 4ebe e02a 05be 5498 de3d
00000230: cfed 0fbe d0dc 59bb bb15 04be 583e 63be
00000240: bf3f 3fbe f79e 6dbe c783 5bbe c551 34bd
00000250: e106 37be 53c2 cabd b497 cbbd 540a 6ebc
00000260: 1465 04be c0bb d7bd 9f55 b43d 2521 cfbd
00000270: 3833 13be 8391 063e f211 573d c70b afbd
00000280: ff9a 273e 9345 833e 8a9a 673d 2205 4dbe
00000290: bcd7 2a3c a482 113d acfb cabd 748f 4f3e
000002a0: 70bc 12be 9257 f4bd 4304 febd 626d af3d
000002b0: 0c7c 343e 41f4 1e3e e851 89bc b407 433e
000002c0: c540 2f3e 32e7 4ebe ad41 e63d 311e 37bd
000002d0: 3cd0 18be 5edb 003e 068e 333e 0857 463c
000002e0: 87cf a13d 72b0 5cbe 8c9e 78bd dc9a c8bd
000002f0: 4e1b f5bd b9b6 f83d d773 7b3b b0b7 a7bd
00000300: 7fbc 263e 126c e5bd cb79 edbd 519b ebbc
00000310: cf83 553e 5d03 eebd 7878 d43d dbbf 063d
00000320: 4c01 1e3e 459f 303e 683c b9bc 4a8d 2c3e
00000330: 4526 4bbe b37f 003e a03f 813d de43 9bbc
00000340: 3c81 60bd 855e 233e 15e8 8ebe f488 1ebd
00000350: 4ce4 eebd 4dfd 3dbe c6cd ef3d cb5c 17be
00000360: 3c0e 09be 9adf c2bd ddc3 05be 5dbe e8bc
00000370: 3f05 31bc 6677 263d 6e54 e73d 9af2 52be
00000380: 4885 b9bd 049c 0e3e 04ea 1cbe 46e2 303e
00000390: b6c0 3cbe 6bbb 483e c0e5 c2bd bcb4 323e
000003a0: be24 d5bd 9520 863e 1118 153e a1ad 9ebc
000003b0: 499a 31be 13f6 d43d f836 9e3d 32d4 543e
000003c0: ffab 39be b0d2 2ebe 2767 22bd 1a4e cbbc
000003d0: c58c 2d3e e8fa 473e 1df1 88be 18ab 4c3e
000003e0: 6796 1e3a ec9e c5bd 9450 79be 024f b73d
000003f0: 2911 17be b83e 36bd 4d9a 473e 0c3b e1bd

layer.bias f4 [38]
0.026249012 -0.044080425 -0.060593653 0.041259933 -0.0051185866 -0.00792491 0.012849548 -0.04604834
0.026887529 0.003115443 0.014059745 0.0234365 -0.005941581 0.038820595 -0.01791911 0.03608039
0.0025880032 0.004797026 -0.054123893 0.02354331 -0.074684344 0.008139324 0.023420624 -0.011981742
0.058233082 -0.036327716 0.013348446 -0.010508176 -0.0130728055 0.023975894 0.011280338 0.040651154
-0.038589906 0.010702795 -0.0141020715 0.07043118 -0.0289352 -0.05724618
00000000: 2b08 d73c ad8d 34bd 0d31 78bd 2d00 293d
00000010: d1b9 a7bb 7bd7 01bc e986 523c 2f9d 3cbd
00000020: 3c43 dc3c 762c 4c3b d85a 663c e7fd bf3c
00000030: 98b1 c2bb 5802 1f3d 19cb 92bc 08c9 133d
00000040: 7d9b 293b 5f30 9d3b 04b1 5dbd e6dd c03c
00000050: 1bf4 98bd cd5a 053c 9cdc bf3c 124f 44bc
00000060: d085 6e3d 5fcc 14bd 71b3 5a3c 7c2a 2cbc
00000070: 522f 56bc 1869 c43c 2bd1 383c d381 263d
00000080: 7310 1ebd c75a 2f3c 600c 67bc 393e 903d
00000090: 8309 edbc f87a 6abd
