FarconVAE/result_yaleb/yaleb_downstream_y_2023_05_01_18_04_31_607381_ours.pth.pt (torch, 16423 bytes, 2 tensors)

layer.weight f4 [38, 100]
00000000: 1c5a 00ba 5f7a 803d aa92 193e 4446 21bc
00000010: 4ed8 3cbe 0634 013e 9ccc 33be aa31 febc
00000020: 37b6 b7bd 85c9 71be b04b 4d3e 417e 2b3d
00000030: 76be 2bbe 644b 083e 9fa4 203e 8cb2 2bbe
00000040: 77e0 893c 5306 bf3c 09e3 2fbe 7c8e 583c
00000050: cd6c 25bd 38ab a0be 2807 5dbe 2c49 c2bd
00000060: d36c e13d f3a1 ec3c 55cb 8c3e 260e 943e
00000070: 0c23 243e 8cea ae3d 7328 1f3d 2a05 923d
00000080: 1e5e 88be 0533 953e 3350 1d3e 160c 92be
00000090: f182 513e a5a1 3cbd b794 fbbd 8286 363d
000000a0: 40c6 31be 6a2a 14be 0889 95bd fbd1 523e
000000b0: 6bd0 d73d 6ddb 053d 50f4 0e3e 2e6a 0cbd
000000c0: ad75 85bd a8c9 083e cc6e 95bd 5dfa 6f3e
000000d0: 9368 1f3d e538 3dbe ea95 98bd 1839 013e
000000e0: d7d6 563e 77fc 183e 39b2 d7bb 643f e2bb
000000f0: 89ee 093e 6d7b babd 465a 723e 3b31 433d
00000100: ccfb eabd 97a8 a6be cfb4 273d f5ce 8cbd
00000110: 27c7 523e 42c3 84be 68fd 69be 28e6 6bbe
00000120: 7f36 5e3e a857 11be 1c74 e43d db48 eebd
00000130: 0f92 c63d 48b2 97bd b9fb 51be 0d8a a8be
00000140: 06fb 2b3e 38ed 19bd f618 03be 4fc7 193d
00000150: 8da2 203e 5a2d 103e 0c62 66be 922a 523e
00000160: 6c38 5a3e 43ea 743e 487b 32bc 7fdc 963d
00000170: 75e6 a1bd 1c91 493e 6e23 533e 4ac7 413e
00000180: 92af a4bd 1085 adbd db0d 483e 0d9d 353e
00000190: 5f76 993c 1e05 303e d137 573d 1e7d 423e
000001a0: 6bcc 7abe bf90 653e faff 1fbe 15fd 153e
000001b0: 4cd3 1b3e ec1f 843d 650b 3cbe b69f e13d
000001c0: 352f 19be 766c 7dbd 181d 10be 5768 dfbd
000001d0: 5aa9 42be e2dd 65be 11e0 00be 7f51 2fbe
000001e0: 2a86 1fbe b57a 1cbe b898 603e 08e0 233d
000001f0: ee5a 233c 6ea6 4dbe f76e 88be a1b4 13be
00000200: c295 f0bd a78a 4abd 8406 95bd 210a 243d
00000210: e79a 50bd 4526 2bbe 5d02 fd3d beff 9b39
00000220: 6f68 5ebe 5c5c 18bd 96e1 19be 0203 df3d
00000230: e572 50be 6fd8 b13d ced6 603e 1f0b af3d
00000240: 4f84 213e 43f5 63bd d41c 893e a055 0b3e
00000250: 1340 a6bd fc26 c9bd dd52 1fbe 0020 5bbd
00000260: b0a2 50be 625b 86be e38c 533e b108 09be
00000270: b280 563d 2e6f 26be 7c2e d2bd 2b13 6d3e
00000280: c02d 6c3e 6ab8 7e3d 7847 4dbe d996 65be
00000290: 8897 3abe 1a6d 0cbe 48c4 863e 84aa 883e
000002a0: aaca 523e b547 813e c498 1a3c 9425 7e3e
000002b0: db5f 7f3e d198 a8bd 5acf d5bd 2fa6 18be
000002c0: 6c21 84bd 71e5 19be 6401 eabd c0cf 3fbe
000002d0: 8fcf a03e be6e 113d 3d75 c2bd eb1f adbd
000002e0: abeb a93c 893a 61bd b99c 663e 07aa 243d
000002f0: 40e0 5dbe d7dd a43d 4c3b 35be 1a0c 893e
00000300: d51e 9f3e e404 a03e febc 3f3d 22d1 60be
00000310: f613 4f3d 74ca 353e e074 5d3e f075 a0bc
00000320: dd70 fd3c 317f 0fbe 2cd4 28bd a4ae 76bd
00000330: 99f5 a1bd 0f21 7b3e dc8e ebbd f18e 11bd
00000340: 1c33 5bbe b4ac b73d c02f 333e bb73 683d
00000350: 7c04 3ebe a765 753e 06d6 0abe a39a aabd
00000360: c892 0ebe e9f6 adbd ff4d 08be d0f0 273e
00000370: c6f6 48be a74b 433e fed2 20be e092 ff3d
00000380: 1be9 0e3e e9e0 2fbe cf17 75be a6ac 98be
00000390: 40be 5e3d b458 c9bd a9e1 a83c ad11 03be
000003a0: 4754 c03d 9967 533e 3a4f d0bc 417a e73d
000003b0: 1287 3cbe 268e bc3d c2a2 233e 8e41 fbbd
000003c0: ffcc b6bd fe85 7cbc 6693 4dbe b01f 83bd
000003d0: 671b 84bd 2855 02bd f574 1bbd 4f72 0bbe
000003e0: bb3a 213e e0b3 d0bd d0f3 8dbd d969 6e3e
000003f0: ada1 95bd 67d3 0d3e c825 2ebe f34b 293e
-0.000489624 0.062733404 0.14997354 -0.009843413 -0.18441889 0.12617502 -0.17558521 -0.031029541
-0.089703016 -0.2361203 0.20048404 0.041868452 -0.16771874 0.13310009 0.15687798 -0.16767329
0.016830666 0.023318445 -0.17176451 0.013217565 -0.040386964 -0.3138063 -0.21584761 -0.09486613
0.11007085 0.028885817 0.2749888 0.28917044 0.16028994 0.0854083 0.038856935 0.07129891
-0.26634306 0.29140487 0.15362625 -0.28524846 0.20460106 -0.046052594 -0.122842245 0.04456187
-0.17360783 -0.14469305 -0.07301527 0.20587914 0.105377994 0.032679964 0.13960385 -0.03428095
-0.065165855 0.13358176 -0.072965235 0.2343535 0.03891809 -0.18478735 -0.07450469 0.12619436
0.20980392 0.14940058 -0.006582525 -0.0069045294 0.134699 -0.09105573 0.23667249 0.04765437
-0.11473808 -0.325505 0.040943917 -0.068754114 0.20583783 -0.2593022 -0.22850573 -0.23037016
0.21700476 -0.14193594 0.111549586 -0.1163499 0.09695827 -0.07407051 -0.20506181 -0.32917824
0.16794977 -0.037579745 -0.1280249 0.03754359 0.15687008 0.140798 -0.2249834 0.20524052
0.21310586 0.23917489 -0.01089365 0.07366275 -0.07905284 0.19684261 0.20618984 0.18923679
-0.080413 -0.08472645 0.19536535 0.17735691 0.018733202 0.17189452 0.052543465 0.18993041
-0.24492042 0.22418498 -0.15624991 0.14647324 0.15217322 0.06451401 -0.18363722 0.110167906
-0.14959414 -0.061871015 -0.14073598 -0.10908573 -0.19009915 -0.22447923 -0.12585475 -0.17120932
-0.15578523 -0.15281184 0.21933258 0.040008575 0.00997041 -0.20083019 -0.2664716 -0.14424373
-0.11747314 -0.049448635 -0.072766334 0.040048722 -0.050928976 -0.16713817 0.123539664 0.00029754447
-0.21719526 -0.037197456 -0.1502746 0.108892456 -0.20356329 0.086838596 0.21956941 0.08547043
0.15773128 -0.05565382 0.26779807 0.13606882 -0.0811769 -0.09821889 -0.15558954 -0.053497314
-0.2037456 -0.26241595 0.20659213 -0.13382222 0.052368827 -0.16253349 -0.102627724 0.23151843
0.23064327 0.06218759 -0.20046794 -0.22420825 -0.18221867 -0.13713494 0.26321626 0.26692593
0.20585123 0.2525002 0.009435836 0.24819022 0.2493891 -0.082322724 -0.1043994 -0.14907144
-0.06451687 -0.15028931 -0.114260465 -0.18731594 0.31408355 0.035506003 -0.09495018 -0.084533535
0.020742258 -0.054987464 0.22520722 0.040201213 -0.21667576 0.08050125 -0.17698401 0.26767045
0.3107821 0.3125373 0.046811096 -0.21954778 0.050556146 0.17753011 0.21626616 -0.019587487
0.030937606 -0.14013363 -0.041217968 -0.060225144 -0.07908172 0.2452433 -0.11501858 -0.03553671
-0.21406215 0.089684874 0.17498684 0.056750994 -0.18556398 0.23964559 -0.13558206 -0.08330276
-0.1392318 -0.0849436 -0.13311003 0.16400456 -0.19625387 0.19071828 -0.15705487 0.12479186
0.1395611 -0.1717564 -0.23934864 -0.2981922 0.054380655 -0.09831372 0.020615416 -0.12799712
0.09391075 0.20644988 -0.025428403 0.11302615 -0.184109 0.092068 0.15980056 -0.12268363
-0.08925819 -0.015412806 -0.2007576 -0.06402528 -0.06450539 -0.031819493 -0.037953336 -0.13617824
0.1574506 -0.101905584 -0.06931269 0.23282565 -0.07306228 0.13850175 -0.170066 0.16532879

layer.bias f4 [38]
00000000: 0e04 adbc f980 cbbc ff0d 853c 2292 fabc
00000010: d9e4 803c a145 1fbc 9623 21bc c637 53bb
00000020: 03ad 843c e2e2 e03c 252f e1bc 3bb4 0cbc
00000030: 9614 e13c b55c 31bd 58a5 e23c 99e2 723d
00000040: 2a18 9d3c 3d0b fdbb d477 c03c f252 eb3d
00000050: 650b 8c3c 81be 4f3c b99a b13b 63db 693c
00000060: 7a50 11bd 00b4 31bb 05b8 133d ca44 a9bd
00000070: ca98 8fbc 97d7 0fbd 0b62 023d caa0 143c
00000080: 1fb0 8dbc b984 67bb 967f cbbc be72 a13d
00000090: e88b 9dbc ccb5 d6ba
-0.021120097 -0.024841772 0.016242025 -0.03058726 0.015734123 -0.009721191 -0.0098351445 -0.0032229288
0.01619578 0.027451936 -0.0274883 -0.008587892 0.027475636 -0.043301303 0.027666733 0.05929813
0.019176561 -0.007722287 0.023494639 0.1149043 0.017095277 0.012679697 0.0054200557 0.014273497
-0.03547714 -0.0027115345 0.036064167 -0.082650736 -0.01752891 -0.035117712 0.031831782 0.009071538
-0.017295895 -0.0035326912 -0.024841111 0.078832135 -0.019231752 -0.0016381084
