FarconVAE/result_yaleb/yaleb_downstream_y_2023_05_01_17_19_33_587807_ours.pth.pt (torch, 16423 bytes, 2 tensors)

layer.weight f4 [38, 100]
00000000: 0171 283e 65a8 123d 0219 0abe 8705 29be
00000010: 2e3d da3d 93b2 0bbe aab6 36be af96 69be
00000020: b371 6dbe bb05 b5bd c531 363e bae6 05be
00000030: 16d4 2a3e 1658 433e 9e3b 5abe 0b9f 88be
00000040: afcf 573e 0e4c 6a3e 6723 ee3d d6de 1ebd
00000050: f5d7 dcbd 655e 21be 08e1 52be 7a80 20be
00000060: 66cd 4d3a 2177 0b3e e214 f8bd 3fb7 193e
00000070: ad14 4cbe 80e0 a8bd a5c6 b93d 20c3 80be
00000080: 709c 0c3e b6e2 adbd 8357 84be a79d 69be
00000090: 8b31 12be 8a5c 2ebe 29e0 083d d9f2 febd
000000a0: c802 e73d aaaf c2bc bab3 86bd 9ecb 6f3e
000000b0: 49d2 e13d 19b9 9f3c 075f 203d 5f0e 343e
000000c0: ee8a 2c3e 393d 7a3e 8288 1fbe bfa5 14be
000000d0: fdbf 80be 6c66 eb3d 3aa7 4b3d 1821 413e
000000e0: c361 433e ef50 3d3d b6ac 3e3e 509b e8bc
000000f0: 2bce 5cbe 4368 a3bd 144c 383e d136 49be
00000100: d0a0 033e d93e d3bd 710b 903d 7326 953d
00000110: b5af 90bd 01b5 243e f7d7 4abd 044a 313e
00000120: 58ef a33d 46b9 453e b5ac bd3d 17f3 633e
00000130: a9e6 5cbe e503 203e 9349 13be d459 1d3c
00000140: f6bd 46be dc76 f5bc 8123 2bbe 4bdb 09be
00000150: 32ba 393e 8b61 44be 4503 923e 4e89 7ebe
00000160: 179a 3d3e 854d 6ebe f658 d3bd 6df2 1f3e
00000170: d504 483e acb5 71be 1174 12be 8031 4bbe
00000180: ae93 b1bd bb1b 9ebd 6d16 e43d 1a98 1f3e
00000190: 605b 80be dd4c 0abe 59ef febd 9926 cabd
000001a0: 0fc2 263e 3f72 2bbe bd12 4cbe 5f80 2dbe
000001b0: 2ab3 adbd 9ae8 a7bc 9943 083e 5ba8 2e3e
000001c0: f86c 803e b91a 31be f352 3abe 5d2b 293d
000001d0: 6d61 8dbd fff4 553e 5239 4d3e b80e 1dbe
000001e0: 03f8 673e 3391 c6bd 21a6 8abe e6ba 3abe
000001f0: 4777 f8bd bc03 60be d146 fbbd a5ce e6bd
00000200: 550f 49be c1af 163e 596f 213e 1c97 733e
00000210: 9f43 f5bd 1f40 883b bc52 0f3e 3acc 613e
00000220: e636 bf3d e4d5 dabd 32a1 16be e729 7bbe
00000230: 0e90 11be 70a5 3f3e 7ed0 6cbd 483e 093e
00000240: be4e 713e 8582 08be a5ec 59be e3ce 37be
00000250: 77e0 85bd 9f0a 6bbe fc7e a3bc 4ed9 fcbd
00000260: e470 db3d 291e 46be 6937 b8bd e30c 39be
00000270: eeca 0bbe 05fc 233e 119a 913d 2f8e 72be
00000280: 100f 3c3e e819 93be fae2 993d 2a60 9dbc
00000290: cc2b afbc ce7a 0bbe 5e0d 06be 4bb4 113e
000002a0: 86c4 153e 0fca 663e 1047 edbc 992b 7a3d
000002b0: 16dc 513d e8d0 74bb 884c 56be 314e b5bd
000002c0: 233e 88be 8851 ecbd f77d d9bd 8d55 a3bd
000002d0: 8a07 b73d b0fb 833e 1928 e63d d70b 52be
000002e0: c600 4e3e fbb3 1bbc 037f 09be 3090 393e
000002f0: ad86 2bbe 7e89 35be a3ae d33d c23e 3c3e
00000300: 3922 29be d459 25be 4cbd b63d 6a49 13be
00000310: f383 483e 2d43 2abe ad5f c7bd f683 053e
00000320: 8965 82be e648 41bd dca9 5dbe 99ba 3dbe
00000330: b934 1bbe 2c88 91bc 5451 1a3e f22f 33be
00000340: b2ae 20be 5729 133e 04df 2fbe 31da 15be
00000350: d631 1fbe c4d0 f13d b7f6 1e3e b1cf 753e
00000360: 705e 31be 73b9 303e cdba d83d 7037 afbd
00000370: 77cb f93d d704 33be 71ac 94bd 66a4 333e
00000380: 03f7 6abe 885b 66bb 2cb1 763d 2879 623e
00000390: bbc8 443d 1479 273e 24c5 993d 3a84 803d
000003a0: f1d1 dbbd ddfe 36be ac92 cdbd 052b 22be
000003b0: 8cea 283e c385 c43d 3445 05be afa4 2bbd
000003c0: e9e8 a43d e6c1 3ebe e6cb 243e d4b7 e1bb
000003d0: a929 27be be90 5a3e 09f8 a1bd 379f e2bd
000003e0: 3554 453e 8a9a 683c 6e2e b0bd 3e15 633e
000003f0: 0d72 0abe 9475 f6bd dca7 4f3c b817 913d
0.16449358 0.035805125 -0.13486102 -0.16506015 0.106562 -0.1364234 -0.17843118 -0.22811387
-0.23187904 -0.088389836 0.17792423 -0.13076296 0.16682467 0.19076571 -0.21311805 -0.2668384
0.21075319 0.22880575 0.11627846 -0.03878673 -0.10783378 -0.15758665 -0.20593655 -0.1567401
0.0007850736 0.13619663 -0.12113358 0.15011309 -0.19929762 -0.08245945 0.090710916 -0.2514887
0.13731551 -0.08490507 -0.25848016 -0.22814046 -0.14276712 -0.17027488 0.0334169 -0.12448663
0.11279827 -0.023765404 -0.06577249 0.23417518 0.11026437 0.019497441 0.039153125 0.17583607
0.16849872 0.24437417 -0.15579417 -0.14516352 -0.25146475 0.11494145 0.049720027 0.1886028
0.19080262 0.046219762 0.18620571 -0.028394371 -0.21563022 -0.07978871 0.17997772 -0.19649817
0.12854314 -0.103147216 0.07033432 0.07282724 -0.070647635 0.16084673 -0.049522366 0.17313391
0.080046356 0.19308957 0.09261457 0.222607 -0.21572365 0.15626486 -0.14383535 0.009603936
-0.19408402 -0.029963903 -0.16712762 -0.1346256 0.18137434 -0.19177835 0.2851812 -0.24857065
0.18515812 -0.23271759 -0.10319702 0.15619822 0.19533093 -0.23604459 -0.14302088 -0.19843102
-0.08670746 -0.07720133 0.1113709 0.15585366 -0.25069714 -0.13505884 -0.12447996 -0.09870643
0.16284965 -0.167428 -0.19929023 -0.16943501 -0.084814385 -0.020496655 0.13307036 0.1705641
0.25083137 -0.1729535 -0.18195705 0.04130112 -0.06903348 0.2089424 0.20041397 -0.15337646
0.22653203 -0.09695663 -0.2707987 -0.18235359 -0.12132125 -0.21876425 -0.122693665 -0.11269883
-0.19634755 0.14715482 0.15765132 0.23788112 -0.11975788 0.0041580345 0.13996404 0.22050563
0.09336643 -0.10685328 -0.14709929 -0.24527703 -0.14215109 0.18715453 -0.05781602 0.13402665
0.23565194 -0.13331039 -0.21281679 -0.17950015 -0.06536954 -0.2295327 -0.019958012 -0.12346135
0.107148916 -0.19347443 -0.08994944 -0.18071322 -0.1365163 0.16014107 0.07109464 -0.23687051
0.18365121 -0.28730702 0.075139955 -0.019210894 -0.021383189 -0.13621065 -0.13091037 0.14228933
0.14625749 0.22538017 -0.02896455 0.061076734 0.05123528 -0.0037355963 -0.20927632 -0.088528045
-0.26609907 -0.11538988 -0.10619729 -0.07975302 0.08936985 0.2577796 0.11238117 -0.20512329
0.20117483 -0.00950336 -0.13427357 0.1812141 -0.16750593 -0.1772823 0.10336044 0.18383315
-0.16516961 -0.16147548 0.08922824 -0.14383474 0.19581585 -0.16627188 -0.097350456 0.1303862
-0.2546809 -0.047188662 -0.21646827 -0.18528213 -0.15156831 -0.017765127 0.15070087 -0.17498758
-0.15691641 0.14371239 -0.17174917 -0.14634015 -0.15546355 0.11807397 0.15523802 0.24005009
-0.17321181 0.17258243 0.105825044 -0.08555496 0.12197011 -0.17482315 -0.07259453 0.17543182
-0.2294579 -0.0035149772 0.060227558 0.2211653 0.048042994 0.16354781 0.07508305 0.0627522
-0.107334025 -0.1787066 -0.10037741 -0.15836723 0.16495723 0.095958255 -0.1301468 -0.0419051
0.080522366 -0.18628654 0.16093406 -0.006888369 -0.16324486 0.21344277 -0.07908637 -0.11065524
0.19270404 0.014197001 -0.08602606 0.22176072 -0.1352007 -0.12034145 0.012674298 0.07084602

layer.bias f4 [38]
00000000: 21a9 b43d b274 d33d 54fe 95bd deaa 6fbc
00000010: b620 433d 9040 5f3c 79c9 ad3c edb2 8fbc
00000020: 7bc8 aabc 6978 d7bb 17e7 363d fd8a db3c
00000030: 8d15 6b3d 57ef b0bd f971 17bd 58dd c13d
00000040: eb81 9f3b a48f 49bc 3a77 37bd b2a1 91bc
00000050: 840f e93d 838a 9339 13d0 8c3a 9f71 28bd
00000060: 8fb3 92bd 2680 a9bc 0422 7a3d c51c b0bd
00000070: b794 05bd 5b34 25bd 41d3 383d be78 a7bd
00000080: dedf 49bc f78d 31bd 206e f73c 470b a33a
00000090: 9c3f c13c 746e 073d
0.08821321 0.10324992 -0.073239 -0.01462814 0.047638617 0.013626233 0.021214234 -0.017541373
-0.02084755 -0.0065756333 0.04465398 0.026799673 0.0573936 -0.086394005 -0.036973927 0.09466046
0.0048677824 -0.012302313 -0.044791438 -0.017777298 0.113799125 0.00028141224 0.0010743163 -0.041123983
-0.07163154 -0.020690989 0.061067596 -0.08599237 -0.03261253 -0.040333133 0.045123342 -0.081773266
-0.0123214405 -0.04334828 0.030203879 0.0012439274 0.023589902 0.03306432
