FarconVAE/result_yaleb/yaleb_downstream_s_2023_05_01_17_42_14_122697_ours.pth.pt (torch, 88964 bytes, 22 tensors)

fc1.weight f4 [100, 100]
0	0x3d86e66a	0.06586917
1	0xbcf4b3f7	-0.02987097
2	0x3dbdada2	0.092616335
3	0x3d429917	0.04750928
4	0xbd1d8810	-0.038459837
5	0xbda4e44a	-0.08051355
6	0xbdc209b4	-0.09474507
7	0x3d317f1c	0.04333411
8	0xbd1e10c8	-0.038590223
9	0x3c2adcbd	0.010428605
10	0x3d862ecb	0.06551894
11	0x3b6b1933	0.0035873174
12	0xbd2af600	-0.04173851
13	0xbd37df3f	-0.04489064
14	0xbcd932d0	-0.026513487
15	0xbdc8e5a2	-0.09809424
16	0xbd3e13ba	-0.04640553
17	0xbd97f305	-0.07419399
18	0xbc7c11a3	-0.015385064
19	0xbdad8439	-0.08472485
20	0x3da3d601	0.079998024
21	0x3d952f3b	0.07284399
22	0x3bfd2fd8	0.0077266507
23	0xbdabd8df	-0.08390974
24	0xbb62b37e	-0.003459185
25	0x3d3c64e6	0.04599466
26	0x3cbf58ef	0.023357837
27	0xbdaa9691	-0.083294995
28	0x3cd193f4	0.025583245
29	0x3da2ddf5	0.07952491
30	0x3dcd1fb5	0.10015813
31	0x3d9ecd8a	0.07754047
32	0x3d6a24cb	0.057163995
33	0xbda093bf	-0.0784068
34	0xbdb9da76	-0.09074871
35	0xbd1bd76b	-0.038047235
36	0xbdc4a764	-0.0960224
37	0x3d027199	0.031846616
38	0x3daae1bb	0.08343836
39	0x3d797664	0.06090392
40	0xbd58bea6	-0.05291619
41	0xbd3a4451	-0.045475308
42	0xb9023a6c	-0.0001241953
43	0x3cf502dc	0.02990859
44	0x3db2c5a4	0.08729103
45	0xbd6bb367	-0.05754414
46	0x3daccd4e	0.08437596
47	0x3b1a8e8f	0.0023583507
48	0xbba7fa3f	-0.005126267
49	0x3c77fb65	0.015135621
50	0xbbc50456	-0.00601248
51	0xbdcb3378	-0.09921926
52	0x3d9a8069	0.075440235
53	0x3da36193	0.07977595
54	0x3d9871dd	0.07443593
55	0x3d1f203f	0.03884911
56	0x3dcd2924	0.100176126
57	0x3d3910ec	0.045182154
58	0x3c90d8c7	0.017681492
59	0xbd82ebb1	-0.06392611
60	0x3dc17739	0.09446568
61	0x3dc3fff3	0.09570303
62	0xbdb817f8	-0.08988947
63	0x3db69c6d	0.089165546
64	0xbd570639	-0.05249617
65	0xbc180c55	-0.009280284
66	0xbc9269b5	-0.01787267
67	0x3d21e2d7	0.039522972
68	0x3d72586c	0.059166357
69	0xbcdef16f	-0.027214734
70	0xbd2d3b20	-0.042292714
71	0x3cc19b3e	0.023633596
72	0x3d7739ad	0.06035774
73	0x3ca22198	0.01979141
74	0xbbc102c8	-0.005890224
75	0xbd3b0952	-0.045663185
76	0xbcf23771	-0.029567452
77	0xbd65fbdd	-0.0561484
78	0xbd81a774	-0.06330767
79	0xbd8e1647	-0.06937843
80	0xbd1c5fab	-0.038177174
81	0x3c0bbb4e	0.008528544
82	0xbd98f6dc	-0.0746896
83	0xbbad702f	-0.0052929143
84	0x3d859162	0.0652187
85	0xbd47c0ba	-0.048767783
86	0xbcd80e4c	-0.026374005
87	0x3d8c4ab9	0.0685019
88	0x3d64039e	0.055667512
89	0xbd7a79dd	-0.061151374
90	0xbd3fe3ba	-0.046848036
91	0xbdb4b06d	-0.08822713
92	0xbd96344a	-0.07334192
93	0xbccf029b	-0.025269797
94	0xbdb295e2	-0.08719994
95	0xbc380874	-0.011232484
96	0xbcee1a8f	-0.029065398
97	0xbd850d04	-0.06496623
98	0xbd87f64c	-0.06638774
99	0x3dc40056	0.095703766
100	0xbd82e1c9	-0.06390721
101	0xbdbd1469	-0.092324086
102	0x3b5db51b	0.003382987
103	0xbdbaeb7b	-0.091269456
104	0xbd62edf1	-0.0554027
105	0xbdc8277b	-0.09773155
106	0xbd309195	-0.043107588
107	0xbd78f74e	-0.060782723
108	0xbc918ae0	-0.017766416
109	0x3dce99b5	0.10087911
110	0xbd3bea79	-0.045877907
111	0xbd93e794	-0.072219044
112	0xbdb1cd57	-0.086817436
113	0xbb0d6a7a	-0.0021578358
114	0xbd8dccf3	-0.069238566
115	0x3d0c956e	0.034322195
116	0x3db29482	0.08719732
117	0x3dc58d8f	0.09646141
118	0x3cc67d37	0.024229629
119	0xbd82e886	-0.063920066
120	0x3cfe44a1	0.031038584
121	0x3d885746	0.06657271
122	0xbdbedcc6	-0.09319453
123	0x3c16547d	0.009175417
124	0x3c8d6987	0.017262233
125	0xbcc55a51	-0.024090918
126	0x3d8f0bdc	0.06984684
127	0x3c0d4f87	0.008624918
128	0x3d45771a	0.048209287
129	0x3c3ae259	0.011406505
130	0x3cf5e6be	0.030017253
131	0xbd9efb97	-0.07762831
132	0x3dbf394e	0.09337102
133	0x3d9bce6f	0.076077335
134	0xbc576293	-0.0131460605
135	0xbdb9df02	-0.090757385
136	0x3d8860f3	0.066591166
137	0xbda32186	-0.079653785
138	0x3cc10417	0.02356152
139	0xbd2a9229	-0.041643295
140	0x399061d5	0.0002753871
141	0xbc234d04	-0.009967092
142	0x3bac9378	0.005266603
143	0x3d2dbd12	0.04241664
144	0xbda26ae8	-0.07930547
145	0xbd16ffdb	-0.036865097
146	0xbc8efa11	-0.017453225
147	0xbcedc806	-0.029026043
148	0x3d5ffedf	0.054686423
149	0x3d142362	0.036166556
150	0x3dbdd2a7	0.09268694
151	0x3dbf73cc	0.093482584
152	0x3c8706ab	0.016482672
153	0x3cf8d825	0.030376503
154	0xbd2b76da	-0.041861393
155	0xbdbde867	-0.09272843
156	0x3d963935	0.0733513
157	0xbcb24627	-0.021761967
158	0xbc2c5e27	-0.010520495
159	0x3d9e9f25	0.07745198
160	0xbd997414	-0.07492843
161	0x3cd58ae9	0.026067214
162	0x3d8210d1	0.06350864
163	0xbd41432d	-0.047183204
164	0xbd8626b9	-0.065503545
165	0xbd369007	-0.04457095
166	0xbbbdd113	-0.005792746
167	0x3d78919d	0.060685743
168	0x3d8cbde5	0.06872157
169	0x3d5396e4	0.051657572
170	0x3d5e7d8b	0.054318946
171	0xbd3a1f58	-0.045440048
172	0xbdb71cd1	-0.08941043
173	0x3cb7c298	0.022431657
174	0xbdb944e0	-0.0904634
175	0xbd5041e4	-0.05084409
176	0xbc8fd7c9	-0.017558949
177	0x3d60fcdf	0.054928657
178	0xbda876cb	-0.08225783
179	0xbdb4ee27	-0.088344865
180	0xbd0bbe40	-0.034116983
181	0xbd73b0e2	-0.05949486
182	0xbd157a70	-0.03649372
183	0x3c862465	0.016374776
184	0x3c8157c4	0.01578892
185	0xbd8dc7f1	-0.069229014
186	0xbd7d9d64	-0.061917678
187	0x3d661d53	0.05618031
188	0xbd6111f2	-0.054948755
189	0xbba85d4f	-0.0051380764
190	0xb98f368b	-0.00027315723
191	0x3d90cfcb	0.07070883
192	0x3d452a1e	0.04813587
193	0xbd07733c	-0.03306888
194	0xbc16d4b7	-0.009205989
195	0x3c84f2a8	0.016228989
196	0xbd89b78a	-0.067244604
197	0x3dba9468	0.091103375
198	0xbcea896d	-0.028629983
199	0xbd45e0b0	-0.04830998
200	0xbc3684e8	-0.011140086
201	0x3d89bfb6	0.06726019
202	0xbd074175	-0.03302141
203	0x3bc7be9f	0.006095722
204	0xbda0993d	-0.07841728
205	0xbd984aae	-0.07436119
206	0x3d316ce2	0.04331673
207	0xbd8fb814	-0.07017532
208	0xbc93b387	-0.018029941
209	0xbd0c3ea6	-0.034239434
210	0x3aebbdf8	0.0017985692
211	0x3d912b70	0.07088363
212	0xbd23eaa0	-0.040018678
213	0x3c9bec12	0.019033466
214	0xbab40f15	-0.0013737405
215	0xbd79b2af	-0.06096142
216	0x3d3c52fd	0.04597758
217	0x3d716f60	0.058944106
218	0x3d8ab404	0.067726165
219	0xbda2cd77	-0.079493456
220	0xbcc23c5d	-0.023710424
221	0x3d84e3bb	0.06488749
222	0x3dc48a9f	0.095967524
223	0x3db0ea2d	0.086384155
224	0xbd8090a1	-0.06277586
225	0xbd1b57c0	-0.03792548
226	0x3cb54984	0.022129782
227	0xbdc02b6a	-0.093832806
228	0x3d75ae74	0.059980825
229	0xbce289b5	-0.027653554
230	0x3cf6ca9e	0.030125912
231	0xbd8c6b65	-0.068564214
232	0x3cdbd90c	0.026836894
233	0xbd821b33	-0.06352844
234	0xbd326a61	-0.043558482
235	0xbd7db9ca	-0.06194476
236	0xbdcc9f0a	-0.09991272
237	0xbb68bfa3	-0.0035514615
238	0xbcf09d3f	-0.029371856
239	0xbcd72fd4	-0.026267923
240	0xbdae447d	-0.08509157
241	0xbd981497	-0.07425802
242	0x3d5087ec	0.050910875
243	0x3d8395d9	0.064250655
244	0xbdabf363	-0.08396032
245	0xbdc63e1e	-0.09679817
246	0x3d92330b	0.07138642
247	0x3d288990	0.041146815
248	0x3cdb6552	0.026781712
249	0xbcc4c589	-0.024019973
250	0xbdb6bc83	-0.089226745
251	0xbd8ec88a	-0.069718435
252	0xbd90de51	-0.070736535
253	0x3d60c982	0.054879673
254	0xbd0ffce8	-0.0351533
255	0xbcfa62b4	-0.030564643

fc1.bias f4 [100]
0	0x3d61c6f0	0.055121362
1	0x3b340518	0.0027468856
2	0x3c479da5	0.0121835815
3	0xbdaed76f	-0.085371844
4	0x3d66ec38	0.05637762
5	0x3d2aac0f	0.041667994
6	0xbd2ba473	-0.041904878
7	0x3c973235	0.018456558
8	0xbd855b31	-0.06511534
9	0xbd2da38e	-0.042392306
10	0xbd462c3c	-0.04838203
11	0xbac92b43	-0.0015347976
12	0xbd0be083	-0.034149658
13	0xb9892540	-0.0002615843
14	0xbdc55fa6	-0.09637384
15	0x3dab2af3	0.08357801
16	0x3d2f91a3	0.0428635
17	0xbcdaf87a	-0.026729811
18	0x3d0a8da7	0.033826496
19	0xbd9c8c17	-0.076439075
20	0x3d1f18d1	0.038842026
21	0x3d6b3b37	0.05742952
22	0x3cd85f38	0.026412591
23	0x3c391e21	0.011298687
24	0x3cde25c7	0.027117623
25	0x3c3efbf9	0.011656755
26	0x3d864885	0.06556801
27	0x3d7be907	0.06150153
28	0xbdc4758e	-0.09592734
29	0xbd1bb608	-0.038015395
30	0x3dbb7d01	0.09154702
31	0x3bdd8b12	0.0067609632
32	0x3d2d1a7e	0.042261593
33	0x3db6e3d7	0.08930176
34	0x3dbb9fde	0.091613516
35	0x3d0d3b41	0.034480337
36	0x3d303c32	0.043026157
37	0xbd975cfc	-0.07390782
38	0x3da3b53e	0.079935536
39	0xbd3b9042	-0.04579187
40	0xbc95b0ab	-0.018272718
41	0x3cc52e75	0.024070004
42	0xbcca2bf6	-0.024679165
43	0xbd949698	-0.07255286
44	0x3d1bd5ea	0.0380458
45	0xbda71f9e	-0.081603274
46	0xbd322f40	-0.043502092
47	0x3d6234c1	0.05522609
48	0xbda493da	-0.08036013
49	0xbd53dc9a	-0.051724054
50	0x3caa39e7	0.020779563
51	0xbd06fa35	-0.03295346
52	0xbb91263b	-0.0044296063
53	0x3daaaf8c	0.08334264
54	0xbc8d1a16	-0.017224353
55	0x3d8f4e15	0.06997315
56	0x3d0f3220	0.034959912
57	0xbc8fe3db	-0.017564705
58	0x3bd73a97	0.0065682638
59	0xbd812477	-0.06305783
60	0x3ca29336	0.019845586
61	0x3ada9a39	0.0016678042
62	0xbc06c6dc	-0.008226123
63	0x3d51216a	0.051057257
64	0xbdb6b827	-0.08921843
65	0xbd49b67b	-0.049246293
66	0xbd50e355	-0.05099805
67	0x3d4eaa54	0.050455406
68	0x3d4e1aa5	0.05031838
69	0x3d3b4788	0.045722514
70	0xbd81ce5b	-0.06338187
71	0x3d35d361	0.04439104
72	0x3d85a264	0.06525114
73	0xbbcd791b	-0.0062705404
74	0xbd968a80	-0.073506355
75	0xbce16300	-0.027513027
76	0x3cf4fa9a	0.029904652
77	0xbd90e9ea	-0.070758656
78	0x3cfa44c0	0.03055036
79	0x3c949b51	0.018140467
80	0x3dbaecd4	0.09127203
81	0xbc785cc1	-0.015158833
82	0x3cdb1877	0.026745064
83	0xbbfa4f51	-0.00763885
84	0x3a049d9d	0.00050588866
85	0x38d4cb9a	0.000101468715
86	0x3c1dcb03	0.009630921
87	0xbd279656	-0.040914856
88	0xbc47fbcc	-0.012206029
89	0xbd99a89d	-0.075028636
90	0xbda2b736	-0.07945101
91	0xbda4f455	-0.08054415
92	0x3d8ac5f2	0.06776036
93	0xbd8d13b8	-0.06888527
94	0xbd5246b5	-0.051336963
95	0x3d477ba2	0.04870189
96	0x3d989b91	0.07451547
97	0x3d5cca58	0.053903908
98	0xbd5759b1	-0.05257577
99	0x3d43d9a0	0.047814965

fc2.weight f4 [100, 100]
0	0x3dc1aae5	0.09456424
1	0x3d5706a4	0.052496567
2	0xbda81dec	-0.08208832
3	0x3dc623ac	0.096747726
4	0xbd5e7477	-0.05431029
5	0x3dc061ae	0.09393631
6	0xbdb9f105	-0.09079174
7	0x3d80206e	0.062561855
8	0x3d25f60f	0.040517863
9	0x3d928b57	0.07155483
10	0x3d99ce3e	0.07510041
11	0xbd85ff36	-0.06542818
12	0x3ce7462a	0.028231699
13	0x3d878f7f	0.066191666
14	0x3d106b4c	0.035258576
15	0xbd95e65a	-0.07319327
16	0x3db3dec5	0.08782724
17	0xbcc38f23	-0.023871964
18	0x3ccaef7c	0.024772398
19	0x3d157615	0.036489565
20	0xbdb32c50	-0.08748686
21	0x3dd0e9e4	0.10200861
22	0xbdbe2416	-0.092842266
23	0x3d603cb5	0.054745395
24	0xbd3ce44d	-0.046116162
25	0x3d73a1ba	0.059480406
26	0xbd5dbfb2	-0.054137893
27	0x3a7f88fb	0.00097478897
28	0xbd99748d	-0.074929334
29	0x3db0ff08	0.08642393
30	0xbc89ee5f	-0.016837297
31	0x3b8ffd61	0.004394219
32	0x3da34f41	0.07974101
33	0xbdcc1c89	-0.0996638
34	0xbd4b855d	-0.049687732
35	0x3dc5d72b	0.09660181
36	0x3d28caa6	0.041208886
37	0x3d3a6156	0.045502983
38	0xbda70b11	-0.081564076
39	0x3d9ee043	0.07757618
40	0xbafc9e44	-0.0019273241
41	0xbdc2306d	-0.09481893
42	0xbdc4915b	-0.09598037
43	0x3d5994c1	0.05312038
44	0xbd0aa244	-0.033846155
45	0x3caa563a	0.02079307
46	0x3bc99e52	0.0061529065
47	0xbdb3590e	-0.0875722
48	0xbd1580fc	-0.036499962
49	0xbd57daca	-0.052698888
50	0x3d94bfc3	0.07263138
51	0xbd57f2d0	-0.0527218
52	0xbd2d92c1	-0.042376284
53	0xbc18b1c7	-0.009319729
54	0x3b7aee7a	0.0038289116
55	0xbcbeb69b	-0.023280432
56	0xbd0ed112	-0.034867354
57	0x3cac4880	0.021030664
58	0x3c96473d	0.018344516
59	0xbda39150	-0.079867005
60	0xbd61a4d4	-0.055088833
61	0xbdb46e13	-0.088100575
62	0x3da541c2	0.08069183
63	0x3ce989dd	0.028508121
64	0xbd8c6bfd	-0.06856535
65	0xbdbbf665	-0.091778554
66	0xbd9c95e1	-0.07645775
67	0xbd6ecad9	-0.05829892
68	0xbda84f1a	-0.082182124
69	0x3c4625c0	0.012093961
70	0xbcf3f67b	-0.029780617
71	0x3d9f8cc4	0.07790521
72	0xbd355c5b	-0.04427753
73	0xbda6c60d	-0.08143244
74	0xbdb4fbbc	-0.08837077
75	0x3db94ded	0.09048066
76	0x3cf5e680	0.030017138
77	0x3d08ce5a	0.033399917
78	0x39c28c7a	0.00037107227
79	0xbd89dc9d	-0.06731532
80	0x3d5a97a0	0.053367257
81	0xbd0c6b28	-0.03428188
82	0xbd4d7420	-0.050159574
83	0x3d673d8f	0.05645519
84	0x3d370ce4	0.044690028
85	0x3daa7dce	0.083247766
86	0x3d438dfc	0.04774283
87	0x3d885d5e	0.066584334
88	0x3d64d294	0.055864885
89	0x3cd4f6d5	0.025996605
90	0xbdbf5e61	-0.09344173
91	0xbd4145d3	-0.04718573
92	0x3ca14488	0.019685999
93	0xbc24d775	-0.010061135
94	0xbd23faac	-0.04003398
95	0x3d2e170f	0.04250246
96	0xbdd11521	-0.10209108
97	0x3d3e7031	0.046493713
98	0x3d9bdd8d	0.07610617
99	0x3b5e195a	0.0033889622
100	0xbc811073	-0.015754914
101	0xbc8b2431	-0.01698503
102	0xbdb0e36f	-0.086371295
103	0x3da3dc36	0.08000986
104	0x3d562188	0.05227807
105	0xbbb8b49f	-0.005636766
106	0x3d9c5c12	0.076347485
107	0x3d3c97e4	0.04604329
108	0x3be06c46	0.0068488447
109	0x3d7ebe96	0.062193476
110	0xbdc51ab2	-0.09624232
111	0xbdb2c101	-0.08728219
112	0x3d8895e5	0.06669215
113	0xbd6ef131	-0.058335487
114	0x3d3b31b0	0.045701683
115	0x3db39596	0.08768766
116	0x3c908ecf	0.017646221
117	0xbd3c5aaf	-0.04598492
118	0xbd9a7051	-0.07540954
119	0x3dbc7807	0.09202581
120	0xba7ac5c4	-0.00095662125
121	0xbda3c972	-0.07997407
122	0x3c44f67d	0.012021658
123	0xbd9fa1ab	-0.077945076
124	0x3d177068	0.036972433
125	0xbd5fd38f	-0.054645117
126	0xbdac6571	-0.08417786
127	0xbdbe8788	-0.09303194
128	0xbcf78c01	-0.030218126
129	0xbd819ba4	-0.06328514
130	0x3c6e5569	0.014546731
131	0xbdc35847	-0.09538322
132	0xbd881576	-0.06644718
133	0x3cb7f1ca	0.022454161
134	0xbb0d57d5	-0.0021567245
135	0x3d2cb05c	0.042160377
136	0xbd1ad4ab	-0.037800472
137	0xbd89ae44	-0.06722692
138	0xbd9c86af	-0.07642876
139	0xbca438b0	-0.020046562
140	0xbdbd29a0	-0.09236455
141	0xbd9fa749	-0.07795579
142	0x3c9ecf9a	0.019386102
143	0x3d915186	0.070956275
144	0xbdc0c4e3	-0.09412553
145	0x3ad18287	0.0015984335
146	0x3da27b0b	0.07933625
147	0xbd55b552	-0.052174874
148	0xbc5457ba	-0.012960369
149	0x3b06ed96	0.002058839
150	0x3cacb5e7	0.021082832
151	0x3d9e29f1	0.077228434
152	0xbd9c2918	-0.076250255
153	0xbdb49f93	-0.08819499
154	0xbd23a51e	-0.03995239
155	0xbd2399ab	-0.03994147
156	0x3d1881ef	0.03723329
157	0x3d6dbac3	0.058039438
158	0xbbee74e3	-0.0072771176
159	0xbdb18d21	-0.08669496
160	0x3bf39e88	0.00743467
161	0xbcb247c9	-0.021762745
162	0x3d89d0b8	0.06729263
163	0xbd44bbdf	-0.04803073
164	0xbdc22430	-0.094795585
165	0xbd913cf3	-0.07091703
166	0x3c2ccda6	0.010547077
167	0xbd797632	-0.060903735
168	0xbd80c1ed	-0.062869884
169	0xbc86fc0a	-0.016477603
170	0x3d9fdf8b	0.07806309
171	0x3d03abf6	0.032146417
172	0x3c18f166	0.009334898
173	0xbd61f85f	-0.055168506
174	0xbd883398	-0.06650466
175	0xbc93f4f5	-0.01806114
176	0xbda4eb81	-0.08052731
177	0xbcac6eb0	-0.021048874
178	0x3d9e1a37	0.07719844
179	0x3d9359aa	0.071948364
180	0xbc1fc349	-0.009751149
181	0x3d3d0a40	0.046152353
182	0x3d5a011a	0.053223707
183	0x38b4abba	8.6150554e-05
184	0xbd29f61b	-0.04149447
185	0xbd2b96e7	-0.04189196
186	0xbda001ef	-0.07812869
187	0x3cfbb96b	0.030728063
188	0x3d23fab6	0.04003402
189	0xbc650de3	-0.013980362
190	0x3cde47ee	0.027133908
191	0xbd6607d9	-0.056159828
192	0x3d3f1455	0.04665025
193	0x3d793b1f	0.060847398
194	0xbdb0cdf1	-0.0863303
195	0x3d395faa	0.045257248
196	0xbd15095d	-0.036385883
197	0x3d2430f5	0.04008575
198	0xbd33ba6b	-0.043878954
199	0xbd7ed640	-0.062216043
200	0x3cece8f7	0.02891968
201	0x3c3ed9c8	0.011648603
202	0xbc9c10f1	-0.019051047
203	0xbc9bda4d	-0.019024992
204	0xbd1bc51d	-0.03802978
205	0x3ccc1b6c	0.02491542
206	0xbd91b730	-0.07115018
207	0xbb8127e9	-0.0039415252
208	0xbd733799	-0.059379194
209	0x3d737009	0.059433017
210	0x3d2e4c3a	0.042553164
211	0xbdc1de07	-0.094661765
212	0x3d92f213	0.07175078
213	0xbc5a97f5	-0.013341893
214	0xbdace3f9	-0.0844192
215	0x3d493c73	0.049129914
216	0xbd750ce7	-0.059826758
217	0x3d369f33	0.044585418
218	0x3d55b53d	0.052174795
219	0xbc89a0d4	-0.016800322
220	0x3d0b57ed	0.0340194
221	0xbdc44576	-0.09583561
222	0x3d764c3a	0.06013129
223	0x3d839502	0.06424905
224	0x3c288b22	0.010287078
225	0xbceda3a5	-0.029008696
226	0xbc3f4b95	-0.011675735
227	0xbd41b0e3	-0.047287833
228	0xbdaf6901	-0.0856495
229	0x3c939fbb	0.018020501
230	0xbd256964	-0.04038371
231	0x3dcfc0fe	0.10144232
232	0xbdb57239	-0.08859677
233	0xbc99cf90	-0.018775731
234	0x3d9945f4	0.074840456
235	0x3db0f5a2	0.08640601
236	0x3d98ba19	0.0745737
237	0x3caf05fa	0.021365155
238	0x3d5fe9de	0.054666393
239	0xbd93727c	-0.071995705
240	0x3db0b617	0.08628481
241	0xbd266649	-0.04062489
242	0xbc86333a	-0.016381849
243	0xbda5e318	-0.08099955
244	0xbc3ca902	-0.011514904
245	0xbc802bfd	-0.015645975
246	0xbdbf2c8a	-0.09334667
247	0xbb9ffbc2	-0.004882307
248	0xbd803d3c	-0.062616795
249	0x3cadb578	0.021204695
250	0x3d6f00b9	0.0583503
251	0xbd8197f8	-0.06327814
252	0xbc2915df	-0.010320156
253	0x3cf9186e	0.030407157
254	0xbb251287	-0.0025188045
255	0xbdbb38a9	-0.091416664

fc2.bias f4 [100]
0	0x3cf279f2	0.029599164
1	0xba1fc6bc	-0.00060949824
2	0x3ce8f179	0.028435456
3	0x3d895f5f	0.06707644
4	0x3daf1d41	0.085505016
5	0x3d19a0e2	0.037506945
6	0xbcc9c77a	-0.02463125
7	0x3c2fa153	0.010719615
8	0xb9a17557	-0.00030795738
9	0x3d73a124	0.059479848
10	0x3d0be7f4	0.034156755
11	0xbd700684	-0.058599964
12	0xbcbad1e0	-0.022805154
13	0x3d51d912	0.051232405
14	0xbd528add	-0.05140196
15	0xbcb96273	-0.022629952
16	0xbd89c2c5	-0.067266025
17	0x3a323005	0.00067973166
18	0xbd916c58	-0.07100743
19	0x3ce5106e	0.027961936
20	0xbd90932e	-0.07059322
21	0x3d0462a8	0.03232065
22	0xbdb9bd4c	-0.09069309
23	0xba20433e	-0.00061135355
24	0x3d854e56	0.06509082
25	0xbdb4c04f	-0.088257425
26	0x3dc26fff	0.09494018
27	0xbd10b69b	-0.035330396
28	0xba101701	-0.0005496592
29	0xbd90af74	-0.07064715
30	0x3ce6b9ad	0.028164709
31	0x3db9596e	0.090502605
32	0x3b4d6dcb	0.003134596
33	0xbcdd3f79	-0.027007805
34	0x3d474b46	0.04865577
35	0x3d56f8a4	0.052483216
36	0x3d981354	0.074255615
37	0xbc0d215c	-0.0086139105
38	0xbd4c38e7	-0.049858954
39	0xbd087167	-0.033311274
40	0xbb819657	-0.0039546895
41	0x3cc253e3	0.02372164
42	0xbd2cf3d4	-0.04222472
43	0xbd7d78bd	-0.061882723
44	0xbc3d639b	-0.011559392
45	0x3d7e9b20	0.062159657
46	0x3d65d15d	0.056107868
47	0xba8bac49	-0.0010656203
48	0xbb8fc849	-0.0043878895
49	0xbd4abfdc	-0.049499378
50	0x3dc01804	0.093795806
51	0x3da114d4	0.07865301
52	0x3d8b6fa7	0.06808405
53	0x3d950952	0.07277168
54	0x3d5b0b76	0.053477727
55	0x3d54ac47	0.05192211
56	0x3c1949fc	0.009356018
57	0x3d663d55	0.056210835
58	0x3ccd3ece	0.025054362
59	0x3d991ef2	0.074766055
60	0x3d84913e	0.06473015
61	0x3d8065c2	0.06269409
62	0x3d80d93e	0.06291436
63	0xbd9eb90f	-0.07750141
64	0x3c960168	0.018311217
65	0xbdb47672	-0.08811654
66	0x3d70de1a	0.058805563
67	0xbd9710d1	-0.07376254
68	0xbd929b5a	-0.07158537
69	0xbbf8355c	-0.0075747203
70	0x3d8802a3	0.06641128
71	0x3d558da4	0.052137032
72	0x3db26b19	0.087118335
73	0x3db891df	0.09012198
74	0x3c0ce776	0.008600106
75	0x3d25c78f	0.040473517
76	0x3d8c359c	0.06846163
77	0x3a14ea46	0.00056806614
78	0xbdb2e8a1	-0.08735777
79	0x3ceed4aa	0.02915414
80	0xbd5a1cb1	-0.05325002
81	0x3dc11656	0.09428088
82	0x3dad2e5a	0.084561065
83	0xbd8e01cd	-0.06933937
84	0xbd09c86d	-0.033638407
85	0xbd0f7723	-0.035025727
86	0x3b2d286e	0.0026421803
87	0x3ccf0429	0.025270538
88	0xba071d35	-0.00051541935
89	0x3d959cbf	0.073052876
90	0xbcfde302	-0.030992035
91	0x3bebba6c	0.007193854
92	0xbb9fdd4f	-0.004878677
93	0x3d13862c	0.03601663
94	0xbd91a788	-0.07112032
95	0xbd0b9fb6	-0.03408786
96	0xbcaf6e37	-0.02141486
97	0x3d4af590	0.049550593
98	0xbd08e2ef	-0.033419546
99	0x3d1b237e	0.037875645

out.weight f4 [5, 100]
0	0xbd67bcab	-0.056576412
1	0xbdbc22ea	-0.09186347
2	0xbdbab38b	-0.09116276
3	0xbd4b7151	-0.049668614
4	0x3d6b8ee9	0.057509337
5	0xbd5faa67	-0.054605868
6	0xbdaae600	-0.0834465
7	0xbd586ed2	-0.05284006
8	0x3d553b30	0.0520584
9	0x3da3da6b	0.08000644
10	0xbdbc0e32	-0.09182395
11	0xbdb02110	-0.08600056
12	0x3dc212b4	0.094762236
13	0xbcef1140	-0.02918303
14	0x3d8f9a06	0.070117995
15	0xbda70194	-0.08154598
16	0x3c95044e	0.01819053
17	0xbdc30d85	-0.09524063
18	0xbd6a2616	-0.057165228
19	0x3cfb2198	0.030655667
20	0x3d823f08	0.063596785
21	0x3d8d7e57	0.06908863
22	0xbd94469e	-0.07240032
23	0x3d8a202e	0.06744419
24	0x3cd27da6	0.02569468
25	0xbd9dbf0b	-0.07702454
26	0x3c89bce8	0.01681371
27	0x3c6ca948	0.014444657
28	0x3d5a95fe	0.0533657
29	0xbd086aa9	-0.033304844
30	0xbdc3439f	-0.09534382
31	0x3d4cdf23	0.050017487
32	0xbd9341f6	-0.071903154
33	0x3d5c6fc8	0.05381754
34	0x3ce560dd	0.02800029
35	0xbdc6ee82	-0.097134605
36	0xbab95f8c	-0.0014142855
37	0x3daaf9c3	0.083484195
38	0x3d77645a	0.060398437
39	0xbdab3187	-0.08359056
40	0xbdaab855	-0.0833594
41	0xbdb35e5c	-0.08758232
42	0x3d8f12c0	0.06985998
43	0xbdc3fd5a	-0.09569807
44	0x3d6fd969	0.058556948
45	0xbcf1f564	-0.029535957
46	0x3d34f8b5	0.044182498
47	0x3bdf27f4	0.0068101827
48	0xbca81e05	-0.020522127
49	0xbccda93c	-0.025105111
50	0xba639d1a	-0.0008682773
51	0x3cdbd40f	0.026834516
52	0x3c1b2375	0.009468903
53	0x3d9aa8bd	0.075517155
54	0xbd1a4537	-0.037663665
55	0x3d1f41f0	0.038881242
56	0x3d1fabfd	0.03898238
57	0x3d19f16d	0.037583757
58	0x3d6f309d	0.05839597
59	0xbd945ecb	-0.07244643
60	0x3d37eec6	0.044905446
61	0xbdae27bf	-0.08503675
62	0xbd3b779e	-0.045768373
63	0xbd900df0	-0.07033908
64	0x3c8f06f4	0.01745937
65	0x3dbf8bf0	0.09352863
66	0xbd40b202	-0.04704476
67	0xbdb3f037	-0.08786052
68	0xbd02ed54	-0.031964615
69	0xbbd4cd21	-0.00649418
70	0x3d60db68	0.054896742
71	0x3c39eda0	0.011348158
72	0x3cf53f0b	0.029937288
73	0x394a0cca	0.00019268985
74	0xbd79fc42	-0.061031587
75	0x3d8c7e04	0.06859973
76	0x3d5322ae	0.051546745
77	0xbd2bdf15	-0.041960794
78	0xbd857b09	-0.06517608
79	0x3d15c6f0	0.036566675
80	0xbda3f06c	-0.08004841
81	0xbbf4b549	-0.0074679
82	0xbda17e2b	-0.07885393
83	0xbdaf1d82	-0.0855055
84	0xbcf6abf2	-0.030111287
85	0x3dcbe034	0.09954873
86	0xbc913e0b	-0.01772978
87	0x3bfe698d	0.0077640475
88	0xbda19dd0	-0.078914285
89	0x3d40c204	0.047060028
90	0x3da52f1f	0.08065628
91	0x3dd10400	0.10205841
92	0x3dbfb643	0.093609355
93	0x3c86ed3c	0.016470544
94	0xbdc2b687	-0.095074706
95	0xbdb6b801	-0.08921815
96	0x3d959ff1	0.07305897
97	0xbdbeeb99	-0.093222804
98	0xbd947333	-0.07248535
99	0xbda5d859	-0.08097906
100	0x3be05299	0.006845784
101	0xbc2e55ce	-0.010640575
102	0xbdbd8005	-0.092529334
103	0xbd1f1f3f	-0.038848158
104	0xbd27eeab	-0.040999096
105	0xbcbda788	-0.023151174
106	0x3c4b7ad6	0.012419423
107	0xbc94d5d8	-0.018168375
108	0x3d9dee52	0.077114716
109	0x3d979e96	0.07403295
110	0xbd9c9024	-0.0764468
111	0xbd80e9c0	-0.06294584
112	0x3d0ce650	0.03439933
113	0xbdc614e1	-0.09671951
114	0xbd500b7f	-0.050792214
115	0xbdbe8841	-0.09303332
116	0xbd850c95	-0.064965405
117	0xbb576c1f	-0.0032870842
118	0x3c88fab0	0.0167211
119	0xbc8b5e5a	-0.017012764
120	0x3d28c8df	0.04120719
121	0xbdacdec1	-0.084409244
122	0xbdb4681b	-0.08808919
123	0x3d20b2d3	0.03923304
124	0xbc85588f	-0.01627758
125	0xbd7a0012	-0.061035223
126	0xbda07d5b	-0.0783641
127	0xbd6336cb	-0.055472177
128	0x3c48de4e	0.012260033
129	0x3c7bc009	0.015365609
130	0xbd5528c7	-0.05204084
131	0xbd70f370	-0.05882591
132	0x3dbe8c07	0.09304052
133	0x3d5f9d10	0.054593146
134	0x3d96218a	0.07330616
135	0xbc6191e8	-0.013767697
136	0xbd15cd30	-0.036572635
137	0x3d4bf539	0.04979441
138	0xbc9bc6ff	-0.019015787
139	0xbd8bfa00	-0.06834793
140	0x3c8b8dc8	0.01703538
141	0x3d46a6ee	0.04849904
142	0x3d8a9283	0.06766226
143	0x3b88d681	0.0041759615
144	0x3cbf9b65	0.023389528
145	0x3d4692ba	0.048479773
146	0x3d9e86de	0.077405676
147	0x3c703568	0.014661171
148	0x3b94ca89	0.0045407456
149	0xbcc1bb18	-0.023648784
150	0x3ad8e005	0.0016546255
151	0xbd71f727	-0.059073593
152	0x3c378b29	0.011202612
153	0xbdb65a28	-0.08903915
154	0xbdbd3af2	-0.092397586
155	0xbd7281b6	-0.059205733
156	0x3d9c3024	0.076263696
157	0x398b134f	0.00026526532
158	0x3d9dc91f	0.077043764
159	0x3d547b7f	0.051875588
160	0xbc12f13f	-0.00896865
161	0x3d1a0ee7	0.03761187
162	0x3d18e52e	0.037327938
163	0x3d382941	0.044961218
164	0xbd747249	-0.059679303
165	0xbda22090	-0.07916367
166	0x3da7099f	0.08156132
167	0xbd168071	-0.036743585
168	0x3d19ce2f	0.037550148
169	0x3dcebce0	0.10094619
170	0x3d115d9f	0.035489675
171	0xbd9f4dbf	-0.07778501
172	0x3d310441	0.043216947
173	0xbd805a39	-0.062672086
174	0xbc81c91e	-0.01584297
175	0xbd89371f	-0.06699967
176	0x3c4302b9	0.011902505
177	0x3d21c403	0.039493572
178	0x3dd16cee	0.10225855
179	0xbd88e18f	-0.06683647
180	0xbd9b8081	-0.075928695
181	0x3ccf8eef	0.02533671
182	0x3ab7e6a5	0.001403053
183	0xbc053b80	-0.008131862
184	0xbd8cc8f2	-0.06874265
185	0xbda2b052	-0.07943787
186	0xbdab4ca3	-0.08364227
187	0x3cde34cd	0.027124787
188	0xbd92e121	-0.07171846
189	0x3cd549ed	0.026036227
190	0xbd1847fa	-0.037178017
191	0x3d85a4f2	0.065256014
192	0x3b94b827	0.004538554
193	0x3d9fd8ff	0.078050606
194	0x3d557a83	0.05211879
195	0x3daa70cb	0.08322295
196	0xbdc0e235	-0.094181456
197	0x3d89f6a0	0.06736493
198	0x3d8a7a17	0.06761568
199	0x3d58e5ba	0.05295346
200	0x3dc33427	0.09531432
201	0xbd693720	-0.056937337
202	0xbd7b9840	-0.061424494
203	0x3dbc9c26	0.092094705
204	0xbd1a7d7a	-0.03771732
205	0x3d2ff185	0.04295494
206	0xbd5b0d69	-0.053479586
207	0x3da74945	0.08168272
208	0xbc7a2f78	-0.0152701065
209	0xbbad7083	-0.0052929535
210	0xbaec786c	-0.001804126
211	0xbdaf261d	-0.085521914
212	0xbd8558d4	-0.06511083
213	0x3cfc7a69	0.030820088
214	0xbce3408c	-0.02774074
215	0xbd61e98c	-0.05515437
216	0x3d915851	0.07096923
217	0xbda88777	-0.08228963
218	0xbd85c159	-0.06531019
219	0x3d31658c	0.043309733
220	0x3c9d11bd	0.019173497
221	0x3d859190	0.065219045
222	0xbc386064	-0.01125345
223	0xbd959e11	-0.073055394
224	0xbdc2a867	-0.095047764
225	0xbd887952	-0.06663765
226	0x3d379c38	0.044826716
227	0xbcf5b3fc	-0.02999305
228	0x3dc998ca	0.09843595
229	0xbd454a3e	-0.048166506
230	0xbbe22970	-0.0069019124
231	0x3cb8bd33	0.022551155
232	0xbd44b7b5	-0.04802676
233	0xbd15e58f	-0.036595877
234	0x3c381d0b	0.011237393
235	0x3d0ab3da	0.033862926
236	0x3c25188c	0.010076653
237	0x3d9fde18	0.07806033
238	0xbd33c02a	-0.043884434
239	0xbb9159d2	-0.0044357562
240	0x3d7fe975	0.0624785
241	0xbd32cbf4	-0.043651536
242	0xbdb92fdc	-0.090423316
243	0x3d25b431	0.040455047
244	0xbdc896d8	-0.09794396
245	0xbd99df89	-0.07513339
246	0x3c16b612	0.009198682
247	0x3dc0c367	0.0941227
248	0xbd874e26	-0.066067025
249	0xbd907af3	-0.07054701
250	0xbd20733e	-0.039172404
251	0x3d8410e3	0.064485334
252	0x3ca667f7	0.020313246
253	0x3d9647f3	0.07337942
254	0x3dc7c414	0.09754196
255	0xbd942dcd	-0.07235298

out.bias f4 [5]
0	0x3c629293	0.013828891
1	0xbdc664b8	-0.09687179
2	0xbd3c7dd3	-0.046018433
3	0x3dbc39dd	0.09190724
4	0x3b45a5d9	0.0030158667

bn.weight f4 [100]
0	0x3f7f7967	0.9979462
1	0x3f7f6a27	0.9977135
2	0x3f805017	1.0024441
3	0x3f7f6073	0.99756545
4	0x3f804e0e	1.002382
5	0x3f7f710b	0.99781865
6	0x3f7f6015	0.99755985
7	0x3f7f6403	0.9976198
8	0x3f80502a	1.0024464
9	0x3f7f61fd	0.99758893
10	0x3f7f8efa	0.9982754
11	0x3f7f6de4	0.99777055
12	0x3f804c74	1.0023332
13	0x3f7f650d	0.99763566
14	0x3f7f7019	0.9978042
15	0x3f7f61b9	0.9975849
16	0x3f805028	1.0024462
17	0x3f7fc508	0.9991002
18	0x3f7f6005	0.9975589
19	0x3f7f5fd0	0.99755573
20	0x3f7f616e	0.9975804
21	0x3f7fe961	0.9996548
22	0x3f7f609c	0.9975679
23	0x3f7f6072	0.9975654
24	0x3f7f91d3	0.99831885
25	0x3f7f65e7	0.99764866
26	0x3f805024	1.0024457
27	0x3f7fb9b2	0.99892724
28	0x3f7f818e	0.9980706
29	0x3f80502a	1.0024464
30	0x3f7f6496	0.99762857
31	0x3f8048c9	1.0022212
32	0x3f7f6bc2	0.997738
33	0x3f7f6994	0.99770474
34	0x3f804ff4	1.00244
35	0x3f7f602c	0.9975612
36	0x3f804fe9	1.0024387
37	0x3f80501b	1.0024446
38	0x3f7f6920	0.99769783
39	0x3f7f6013	0.9975597
40	0x3f7f6157	0.99757904
41	0x3f804bda	1.0023148
42	0x3f8046f2	1.0021651
43	0x3f7f60bf	0.99757
44	0x3f805029	1.0024463
45	0x3f7f6195	0.99758273
46	0x3f7f60da	0.9975716
47	0x3f7f5fe7	0.9975571
48	0x3f7f6127	0.9975762
49	0x3f805015	1.0024439
50	0x3f7f6013	0.9975597
51	0x3f7f60f0	0.9975729
52	0x3f7f60e8	0.9975724
53	0x3f805012	1.0024436
54	0x3f7f9efd	0.9985197
55	0x3f7f65cc	0.99764705
56	0x3f7f601c	0.99756026
57	0x3f804fd9	1.0024368
58	0x3f804fe3	1.002438
59	0x3f805027	1.002446
60	0x3f7f6b21	0.9977284
61	0x3f804fdf	1.0024375
62	0x3f7f605f	0.99756426
63	0x3f7f6e75	0.9977792
64	0x3f804ff9	1.0024406
65	0x3f7f601b	0.9975602
66	0x3f7f60d7	0.9975714
67	0x3f7f6755	0.9976705
68	0x3f7feafe	0.99967945
69	0x3f7f625c	0.9975946
70	0x3f805005	1.002442
71	0x3f7f6170	0.9975805
72	0x3f804bdb	1.0023149
73	0x3f804ef5	1.0024096
74	0x3f7f6d4e	0.9977616
75	0x3f80502a	1.0024464
76	0x3f7f6cbd	0.99775296
77	0x3f7f5fe7	0.9975571
78	0x3f7f6208	0.9975896
79	0x3f7f635c	0.99760985
80	0x3f7f5feb	0.99755734
81	0x3f805009	1.0024425
82	0x3f80501b	1.0024446
83	0x3f7f6025	0.9975608
84	0x3f7f6037	0.9975619
85	0x3f7f9582	0.99837506
86	0x3f805026	1.0024459
87	0x3f804e52	1.0023901
88	0x3f7f63b8	0.99761534
89	0x3f7f64df	0.9976329
90	0x3f7fe12a	0.9995295
91	0x3f805025	1.0024458
92	0x3f805029	1.0024463
93	0x3f7f6432	0.9976226
94	0x3f804da8	1.0023699
95	0x3f804e02	1.0023806
96	0x3f805026	1.0024459
97	0x3f7f602b	0.99756116
98	0x3f7f60ec	0.99757266
99	0x3f7f6062	0.99756444

bn.bias f4 [100]
0	0xbb078cdb	-0.0020683322
1	0xbb0d2e70	-0.0021542571
2	0x3b194338	0.0023386013
3	0xbb1fc9de	-0.0024381797
4	0xbb20491e	-0.0024457644
5	0x3b195cd4	0.0023401277
6	0xbb204f03	-0.0024461157
7	0xbb1ed3af	-0.002423506
8	0x3b200daa	0.0024422207
9	0xbb1ce09f	-0.0023937596
10	0xbb1bc28a	-0.0023767077
11	0xbb1d033a	-0.0023958222
12	0x3b1faaa0	0.0024363175
13	0xbb200363	-0.002441608
14	0xbb1638a4	-0.0022921944
15	0xbb20013f	-0.0024414805
16	0x3b12d5c9	0.0022405258
17	0xbb20311b	-0.0024443332
18	0xbb200420	-0.0024416521
19	0xbb203533	-0.0024445772
20	0x3b202dfc	0.0024441471
21	0xbb2043c6	-0.0024454459
22	0xbb1ff985	-0.00244102
23	0xbb1562ee	-0.0022794562
24	0x3b1b5e30	0.0023707263
25	0xbb1e1391	-0.002412055
26	0x3b200094	0.0024414407
27	0xbb1c8f4f	-0.002388913
28	0x3b1f9e67	0.002435589
29	0x3b2036dd	0.0024446764
30	0xbb1daf1d	-0.0024060674
31	0xbb1ec87a	-0.002422838
32	0xbb1b30d7	-0.0023680234
33	0xbb03f3bc	-0.002013429
34	0x3b1f9e37	0.0024355778
35	0xbb1f99f0	-0.0024353229
36	0x3b200847	0.0024418996
37	0x3b205201	0.002446294
38	0x3b1b6c9b	0.0023715857
39	0x3b1c834e	0.0023881975
40	0xbb1ac341	-0.0023614916
41	0xbb1f662e	-0.0024322378
42	0xba90d3c2	-0.0011049437
43	0x3b201cc4	0.0024431208
44	0x3b205528	0.002446482
45	0xbb204ce9	-0.0024459905
46	0xbb1c2eac	-0.002383153
47	0xbb1f652c	-0.0024321778
48	0xba5f1a2f	-0.00085106766
49	0x3b2002f2	0.0024415818
50	0xbb1fc7fc	-0.0024380675
51	0xbb1f6320	-0.0024320558
52	0xbb1bfd9d	-0.0023802288
53	0x3b1fb70e	0.0024370584
54	0xbb1a9120	-0.0023585036
55	0xbb2020fd	-0.0024433725
56	0x3b1fd375	0.0024387513
57	0x3b20363b	0.0024446386
58	0x3b1fe5bd	0.002439841
59	0x3b203c0b	0.002444985
60	0x3b2024ef	0.0024436077
61	0x3b1f8b9f	0.0024344695
62	0xbb1ffb82	-0.0024411385
63	0xbb204b2f	-0.0024458875
64	0x3b203eed	0.002445157
65	0xbb1feb51	-0.0024401734
66	0xbb1f6347	-0.0024320649
67	0xbb20434e	-0.002445418
68	0x3b200275	0.0024415527
69	0x3b1d24e0	0.0023978278
70	0xbb204617	-0.002445584
71	0xbb1f069f	-0.002426542
72	0xbb1d2216	-0.0023976616
73	0xbb1c26c6	-0.0023826822
74	0xb9d84753	-0.0004125187
75	0x3b2001c4	0.0024415115
76	0xbb1d1637	-0.002396954
77	0x3b1d379b	0.0023989442
78	0xbb204fe8	-0.002446169
79	0xbb1d5534	-0.0024007084
80	0xbb1f5e9d	-0.0024317869
81	0x3b200ec7	0.002442287
82	0xbb1fe2f6	-0.0024396754
83	0xbb1dfa3f	-0.0024105457
84	0xbb1f97de	-0.0024351995
85	0xbb1fdc43	-0.002439276
86	0x3b1f0b83	0.0024268336
87	0x3b1d55df	0.0024007482
88	0xbb1feab4	-0.0024401369
89	0xbb1d9879	-0.002404718
90	0x3b1f49d5	0.0024305482
91	0x3b201a81	0.002442986
92	0x3b2038e0	0.0024447963
93	0xbb1fd465	-0.0024388072
94	0x3b121438	0.0022289883
95	0xbb1c4bc5	-0.0023848873
96	0x3b2024ce	0.0024436
97	0xbb1ffa1f	-0.0024410558
98	0xbb1fa99b	-0.0024362567
99	0xbb1dcc8a	-0.0024078214

bn.running_mean f4 [100]
0	0xbd76b708	-0.060233146
1	0xbddec9da	-0.10878344
2	0xbd121725	-0.035666604
3	0x3d18fbbd	0.03734945
4	0x3d7111c8	0.05885485
5	0x3dac603e	0.08416794
6	0x3dcfadf7	0.10140603
7	0x3d7a4282	0.061098583
8	0x3d6c0480	0.05762148
9	0x3d902a45	0.07039312
10	0x3e82d3a4	0.25552094
11	0xbc137c35	-0.009001781
12	0x3c6c7a6f	0.014433487
13	0x3d17cd64	0.03706111
14	0xbd12e949	-0.03586701
15	0x3d6dc93b	0.058053236
16	0xbd80cf42	-0.06289531
17	0x3c8a5e79	0.016890751
18	0x3d48e8ed	0.04905026
19	0x3e3c20ed	0.18371935
20	0x3da9afd0	0.08285487
21	0xbd200c70	-0.03907436
22	0x3c1cd301	0.009571792
23	0xbe25b911	-0.16183878
24	0xbd4144da	-0.047184803
25	0xbd237a7a	-0.039911725
26	0xbcb71553	-0.022349035
27	0x3dc06274	0.093937784
28	0xbbb6ec4b	-0.0055823675
29	0xbcf031a3	-0.029320544
30	0x3d4c7bf1	0.049922887
31	0x3e10460f	0.14089225
32	0x3e587d29	0.21141495
33	0x3dd737e7	0.105087094
34	0x3dc93710	0.098249555
35	0xbd853c86	-0.065056846
36	0x3d243191	0.040086333
37	0xbcef9234	-0.02924452
38	0x3e3f86a7	0.1870371
39	0xbbb5d106	-0.005548599
40	0xbc1a0a98	-0.00940194
41	0xbd13a00a	-0.036041297
42	0xbc967fe8	-0.018371537
43	0xbb5a4c51	-0.0033309648
44	0x3e0056aa	0.1253306
45	0xbe083332	-0.1330078
46	0x3e441604	0.19149023
47	0x3de847cb	0.113418184
48	0x3d8e0470	0.0693444
49	0xbd200bd7	-0.03907379
50	0xbd304d60	-0.04304254
51	0x3d0dfba1	0.0346638
52	0x3dc4bb1e	0.09606002
53	0x3c7e1e24	0.015510116
54	0xbbd2eb8d	-0.0064367712
55	0xbdee6f74	-0.11642352
56	0xbd02e544	-0.031956926
57	0x3d4c1539	0.049824927
58	0x3c866fde	0.016410764
59	0xbd7b4e57	-0.061354008
60	0x3dcc89f2	0.099872485
61	0xbdbb9eb9	-0.09161133
62	0x3df80fd1	0.12112392
63	0xbdabb6d1	-0.08384479
64	0xbd5126b5	-0.051062305
65	0xbc0e56e3	-0.008687708
66	0xbd897626	-0.06711988
67	0xbdf44a3a	-0.1192822
68	0x3dc1595e	0.094408736
69	0xbd8fe03a	-0.0702519
70	0xbd94ba70	-0.07262123
71	0xbcc82a71	-0.0244343
72	0x3c4b8023	0.012420687
73	0xbc8b388c	-0.016994737
74	0xbc55f4ee	-0.013058884
75	0xbde73780	-0.11289883
76	0x3dd2073a	0.102552846
77	0xbc0e3e82	-0.008681895
78	0x3d70328d	0.05864196
79	0x3d98e4dc	0.074655265
80	0xbc937b49	-0.018003123
81	0xbd826741	-0.0636735
82	0xbc730464	-0.01483259
83	0x3c96b974	0.018398978
84	0x3dcfcbf4	0.10146323
85	0xbd80bb5e	-0.062857375
86	0x3db668f1	0.08906735
87	0xbdf8de68	-0.121517956
88	0xbca6fd12	-0.020384345
89	0x3d056575	0.03256746
90	0xbd527585	-0.051381607
91	0x3d4df977	0.050286736
92	0x3c6a94a1	0.014317662
93	0xbcf6711f	-0.030083237
94	0xbe305f3f	-0.17223834
95	0x3e0c2fbe	0.13690087
96	0x3e097e1a	0.1342701
97	0x3d2a9d7c	0.041654095
98	0x3d0ab0eb	0.03386013
99	0xbdd88430	-0.10572088

bn.running_var f4 [100]
0	0x3f48112f	0.7815122
1	0x3f3ecee2	0.7453443
2	0x3f3deca4	0.7418921
3	0x3f4226c1	0.75840384
4	0x3f402c83	0.7506792
5	0x3f3e40b0	0.74317455
6	0x3f3df139	0.741962
7	0x3f41216a	0.7544161
8	0x3f3bb38e	0.73320854
9	0x3f3ce969	0.73793656
10	0x3f3fbd7a	0.74898493
11	0x3f40d330	0.75322247
12	0x3f3e68c6	0.7437862
13	0x3f408d61	0.7521573
14	0x3f3db342	0.7410165
15	0x3f43461e	0.76278865
16	0x3f40ed06	0.7536167
17	0x3f4185e4	0.75594926
18	0x3f44a38e	0.76812065
19	0x3f425d40	0.7592354
20	0x3f4151ba	0.7551533
21	0x3f40499f	0.75112337
22	0x3f3ea561	0.744711
23	0x3f3a8e85	0.7287372
24	0x3f412529	0.75447327
25	0x3f3c1d69	0.73482376
26	0x3f41d896	0.7572111
27	0x3f3e62a1	0.74369246
28	0x3f406b2e	0.75163543
29	0x3f3d71ba	0.7400166
30	0x3f439da4	0.76412416
31	0x3f3d80ed	0.7402485
32	0x3f3b7a24	0.73233247
33	0x3f45624e	0.77103126
34	0x3f3e71f0	0.74392605
35	0x3f3e9fba	0.74462473
36	0x3f41688f	0.7555017
37	0x3f3e2292	0.742715
38	0x3f41937e	0.7561568
39	0x3f3ad6ea	0.7298418
40	0x3f4265eb	0.75936764
41	0x3f4474ab	0.7674052
42	0x3f3e028e	0.7422265
43	0x3f3c2054	0.7348683
44	0x3f3d23f4	0.73882985
45	0x3f3d2d11	0.7389689
46	0x3f455867	0.77088016
47	0x3f3e40e5	0.7431777
48	0x3f3ebe88	0.7450948
49	0x3f405c37	0.7514071
50	0x3f436ca5	0.76337653
51	0x3f4723cd	0.77789
52	0x3f40f315	0.75370914
53	0x3f3c1eec	0.73484683
54	0x3f3e8cf0	0.74433804
55	0x3f3b4030	0.7314482
56	0x3f3d0581	0.73836523
57	0x3f400b02	0.75016797
58	0x3f46109a	0.7736908
59	0x3f422024	0.7583029
60	0x3f400bea	0.7501818
61	0x3f4042f3	0.75102156
62	0x3f422aa1	0.75846297
63	0x3f3b6f07	0.7321629
64	0x3f411125	0.75416785
65	0x3f3d9576	0.74056184
66	0x3f3f343e	0.7468909
67	0x3f3e693f	0.7437934
68	0x3f3ddf68	0.74169016
69	0x3f3ce17d	0.7378157
70	0x3f3ec53d	0.7451971
71	0x3f3b2088	0.73096514
72	0x3f40f07c	0.7536695
73	0x3f41182c	0.7542751
74	0x3f426b2c	0.7594478
75	0x3f3c4225	0.7353843
76	0x3f41e932	0.7574645
77	0x3f43ef02	0.7653657
78	0x3f44232b	0.7661616
79	0x3f3f7f63	0.7480375
80	0x3f41d4bf	0.7571525
81	0x3f3efc1e	0.7460345
82	0x3f408903	0.75209063
83	0x3f438e6a	0.7638918
84	0x3f40aa38	0.75259733
85	0x3f418836	0.75598466
86	0x3f3e3177	0.7429423
87	0x3f430333	0.76176757
88	0x3f40e76e	0.75353134
89	0x3f3cf437	0.7381014
90	0x3f425072	0.75904
91	0x3f3fd1da	0.74929583
92	0x3f3e30a8	0.74292994
93	0x3f421cb3	0.7582504
94	0x3f41c4ac	0.7569072
95	0x3f3c9bc0	0.73675156
96	0x3f41b8c6	0.75672567
97	0x3f42bb69	0.76067215
98	0x3f3b0af0	0.73063564
99	0x3f44ee62	0.76926243

net.0.weight f4 [100, 100]
0	0x3d86e66a	0.06586917
1	0xbcf4b3f7	-0.02987097
2	0x3dbdada2	0.092616335
3	0x3d429917	0.04750928
4	0xbd1d8810	-0.038459837
5	0xbda4e44a	-0.08051355
6	0xbdc209b4	-0.09474507
7	0x3d317f1c	0.04333411
8	0xbd1e10c8	-0.038590223
9	0x3c2adcbd	0.010428605
10	0x3d862ecb	0.06551894
11	0x3b6b1933	0.0035873174
12	0xbd2af600	-0.04173851
13	0xbd37df3f	-0.04489064
14	0xbcd932d0	-0.026513487
15	0xbdc8e5a2	-0.09809424
16	0xbd3e13ba	-0.04640553
17	0xbd97f305	-0.07419399
18	0xbc7c11a3	-0.015385064
19	0xbdad8439	-0.08472485
20	0x3da3d601	0.079998024
21	0x3d952f3b	0.07284399
22	0x3bfd2fd8	0.0077266507
23	0xbdabd8df	-0.08390974
24	0xbb62b37e	-0.003459185
25	0x3d3c64e6	0.04599466
26	0x3cbf58ef	0.023357837
27	0xbdaa9691	-0.083294995
28	0x3cd193f4	0.025583245
29	0x3da2ddf5	0.07952491
30	0x3dcd1fb5	0.10015813
31	0x3d9ecd8a	0.07754047
32	0x3d6a24cb	0.057163995
33	0xbda093bf	-0.0784068
34	0xbdb9da76	-0.09074871
35	0xbd1bd76b	-0.038047235
36	0xbdc4a764	-0.0960224
37	0x3d027199	0.031846616
38	0x3daae1bb	0.08343836
39	0x3d797664	0.06090392
40	0xbd58bea6	-0.05291619
41	0xbd3a4451	-0.045475308
42	0xb9023a6c	-0.0001241953
43	0x3cf502dc	0.02990859
44	0x3db2c5a4	0.08729103
45	0xbd6bb367	-0.05754414
46	0x3daccd4e	0.08437596
47	0x3b1a8e8f	0.0023583507
48	0xbba7fa3f	-0.005126267
49	0x3c77fb65	0.015135621
50	0xbbc50456	-0.00601248
51	0xbdcb3378	-0.09921926
52	0x3d9a8069	0.075440235
53	0x3da36193	0.07977595
54	0x3d9871dd	0.07443593
55	0x3d1f203f	0.03884911
56	0x3dcd2924	0.100176126
57	0x3d3910ec	0.045182154
58	0x3c90d8c7	0.017681492
59	0xbd82ebb1	-0.06392611
60	0x3dc17739	0.09446568
61	0x3dc3fff3	0.09570303
62	0xbdb817f8	-0.08988947
63	0x3db69c6d	0.089165546
64	0xbd570639	-0.05249617
65	0xbc180c55	-0.009280284
66	0xbc9269b5	-0.01787267
67	0x3d21e2d7	0.039522972
68	0x3d72586c	0.059166357
69	0xbcdef16f	-0.027214734
70	0xbd2d3b20	-0.042292714
71	0x3cc19b3e	0.023633596
72	0x3d7739ad	0.06035774
73	0x3ca22198	0.01979141
74	0xbbc102c8	-0.005890224
75	0xbd3b0952	-0.045663185
76	0xbcf23771	-0.029567452
77	0xbd65fbdd	-0.0561484
78	0xbd81a774	-0.06330767
79	0xbd8e1647	-0.06937843
80	0xbd1c5fab	-0.038177174
81	0x3c0bbb4e	0.008528544
82	0xbd98f6dc	-0.0746896
83	0xbbad702f	-0.0052929143
84	0x3d859162	0.0652187
85	0xbd47c0ba	-0.048767783
86	0xbcd80e4c	-0.026374005
87	0x3d8c4ab9	0.0685019
88	0x3d64039e	0.055667512
89	0xbd7a79dd	-0.061151374
90	0xbd3fe3ba	-0.046848036
91	0xbdb4b06d	-0.08822713
92	0xbd96344a	-0.07334192
93	0xbccf029b	-0.025269797
94	0xbdb295e2	-0.08719994
95	0xbc380874	-0.011232484
96	0xbcee1a8f	-0.029065398
97	0xbd850d04	-0.06496623
98	0xbd87f64c	-0.06638774
99	0x3dc40056	0.095703766
100	0xbd82e1c9	-0.06390721
101	0xbdbd1469	-0.092324086
102	0x3b5db51b	0.003382987
103	0xbdbaeb7b	-0.091269456
104	0xbd62edf1	-0.0554027
105	0xbdc8277b	-0.09773155
106	0xbd309195	-0.043107588
107	0xbd78f74e	-0.060782723
108	0xbc918ae0	-0.017766416
109	0x3dce99b5	0.10087911
110	0xbd3bea79	-0.045877907
111	0xbd93e794	-0.072219044
112	0xbdb1cd57	-0.086817436
113	0xbb0d6a7a	-0.0021578358
114	0xbd8dccf3	-0.069238566
115	0x3d0c956e	0.034322195
116	0x3db29482	0.08719732
117	0x3dc58d8f	0.09646141
118	0x3cc67d37	0.024229629
119	0xbd82e886	-0.063920066
120	0x3cfe44a1	0.031038584
121	0x3d885746	0.06657271
122	0xbdbedcc6	-0.09319453
123	0x3c16547d	0.009175417
124	0x3c8d6987	0.017262233
125	0xbcc55a51	-0.024090918
126	0x3d8f0bdc	0.06984684
127	0x3c0d4f87	0.008624918
128	0x3d45771a	0.048209287
129	0x3c3ae259	0.011406505
130	0x3cf5e6be	0.030017253
131	0xbd9efb97	-0.07762831
132	0x3dbf394e	0.09337102
133	0x3d9bce6f	0.076077335
134	0xbc576293	-0.0131460605
135	0xbdb9df02	-0.090757385
136	0x3d8860f3	0.066591166
137	0xbda32186	-0.079653785
138	0x3cc10417	0.02356152
139	0xbd2a9229	-0.041643295
140	0x399061d5	0.0002753871
141	0xbc234d04	-0.009967092
142	0x3bac9378	0.005266603
143	0x3d2dbd12	0.04241664
144	0xbda26ae8	-0.07930547
145	0xbd16ffdb	-0.036865097
146	0xbc8efa11	-0.017453225
147	0xbcedc806	-0.029026043
148	0x3d5ffedf	0.054686423
149	0x3d142362	0.036166556
150	0x3dbdd2a7	0.09268694
151	0x3dbf73cc	0.093482584
152	0x3c8706ab	0.016482672
153	0x3cf8d825	0.030376503
154	0xbd2b76da	-0.041861393
155	0xbdbde867	-0.09272843
156	0x3d963935	0.0733513
157	0xbcb24627	-0.021761967
158	0xbc2c5e27	-0.010520495
159	0x3d9e9f25	0.07745198
160	0xbd997414	-0.07492843
161	0x3cd58ae9	0.026067214
162	0x3d8210d1	0.06350864
163	0xbd41432d	-0.047183204
164	0xbd8626b9	-0.065503545
165	0xbd369007	-0.04457095
166	0xbbbdd113	-0.005792746
167	0x3d78919d	0.060685743
168	0x3d8cbde5	0.06872157
169	0x3d5396e4	0.051657572
170	0x3d5e7d8b	0.054318946
171	0xbd3a1f58	-0.045440048
172	0xbdb71cd1	-0.08941043
173	0x3cb7c298	0.022431657
174	0xbdb944e0	-0.0904634
175	0xbd5041e4	-0.05084409
176	0xbc8fd7c9	-0.017558949
177	0x3d60fcdf	0.054928657
178	0xbda876cb	-0.08225783
179	0xbdb4ee27	-0.088344865
180	0xbd0bbe40	-0.034116983
181	0xbd73b0e2	-0.05949486
182	0xbd157a70	-0.03649372
183	0x3c862465	0.016374776
184	0x3c8157c4	0.01578892
185	0xbd8dc7f1	-0.069229014
186	0xbd7d9d64	-0.061917678
187	0x3d661d53	0.05618031
188	0xbd6111f2	-0.054948755
189	0xbba85d4f	-0.0051380764
190	0xb98f368b	-0.00027315723
191	0x3d90cfcb	0.07070883
192	0x3d452a1e	0.04813587
193	0xbd07733c	-0.03306888
194	0xbc16d4b7	-0.009205989
195	0x3c84f2a8	0.016228989
196	0xbd89b78a	-0.067244604
197	0x3dba9468	0.091103375
198	0xbcea896d	-0.028629983
199	0xbd45e0b0	-0.04830998
200	0xbc3684e8	-0.011140086
201	0x3d89bfb6	0.06726019
202	0xbd074175	-0.03302141
203	0x3bc7be9f	0.006095722
204	0xbda0993d	-0.07841728
205	0xbd984aae	-0.07436119
206	0x3d316ce2	0.04331673
207	0xbd8fb814	-0.07017532
208	0xbc93b387	-0.018029941
209	0xbd0c3ea6	-0.034239434
210	0x3aebbdf8	0.0017985692
211	0x3d912b70	0.07088363
212	0xbd23eaa0	-0.040018678
213	0x3c9bec12	0.019033466
214	0xbab40f15	-0.0013737405
215	0xbd79b2af	-0.06096142
216	0x3d3c52fd	0.04597758
217	0x3d716f60	0.058944106
218	0x3d8ab404	0.067726165
219	0xbda2cd77	-0.079493456
220	0xbcc23c5d	-0.023710424
221	0x3d84e3bb	0.06488749
222	0x3dc48a9f	0.095967524
223	0x3db0ea2d	0.086384155
224	0xbd8090a1	-0.06277586
225	0xbd1b57c0	-0.03792548
226	0x3cb54984	0.022129782
227	0xbdc02b6a	-0.093832806
228	0x3d75ae74	0.059980825
229	0xbce289b5	-0.027653554
230	0x3cf6ca9e	0.030125912
231	0xbd8c6b65	-0.068564214
232	0x3cdbd90c	0.026836894
233	0xbd821b33	-0.06352844
234	0xbd326a61	-0.043558482
235	0xbd7db9ca	-0.06194476
236	0xbdcc9f0a	-0.09991272
237	0xbb68bfa3	-0.0035514615
238	0xbcf09d3f	-0.029371856
239	0xbcd72fd4	-0.026267923
240	0xbdae447d	-0.08509157
241	0xbd981497	-0.07425802
242	0x3d5087ec	0.050910875
243	0x3d8395d9	0.064250655
244	0xbdabf363	-0.08396032
245	0xbdc63e1e	-0.09679817
246	0x3d92330b	0.07138642
247	0x3d288990	0.041146815
248	0x3cdb6552	0.026781712
249	0xbcc4c589	-0.024019973
250	0xbdb6bc83	-0.089226745
251	0xbd8ec88a	-0.069718435
252	0xbd90de51	-0.070736535
253	0x3d60c982	0.054879673
254	0xbd0ffce8	-0.0351533
255	0xbcfa62b4	-0.030564643

net.0.bias f4 [100]
0	0x3d61c6f0	0.055121362
1	0x3b340518	0.0027468856
2	0x3c479da5	0.0121835815
3	0xbdaed76f	-0.085371844
4	0x3d66ec38	0.05637762
5	0x3d2aac0f	0.041667994
6	0xbd2ba473	-0.041904878
7	0x3c973235	0.018456558
8	0xbd855b31	-0.06511534
9	0xbd2da38e	-0.042392306
10	0xbd462c3c	-0.04838203
11	0xbac92b43	-0.0015347976
12	0xbd0be083	-0.034149658
13	0xb9892540	-0.0002615843
14	0xbdc55fa6	-0.09637384
15	0x3dab2af3	0.08357801
16	0x3d2f91a3	0.0428635
17	0xbcdaf87a	-0.026729811
18	0x3d0a8da7	0.033826496
19	0xbd9c8c17	-0.076439075
20	0x3d1f18d1	0.038842026
21	0x3d6b3b37	0.05742952
22	0x3cd85f38	0.026412591
23	0x3c391e21	0.011298687
24	0x3cde25c7	0.027117623
25	0x3c3efbf9	0.011656755
26	0x3d864885	0.06556801
27	0x3d7be907	0.06150153
28	0xbdc4758e	-0.09592734
29	0xbd1bb608	-0.038015395
30	0x3dbb7d01	0.09154702
31	0x3bdd8b12	0.0067609632
32	0x3d2d1a7e	0.042261593
33	0x3db6e3d7	0.08930176
34	0x3dbb9fde	0.091613516
35	0x3d0d3b41	0.034480337
36	0x3d303c32	0.043026157
37	0xbd975cfc	-0.07390782
38	0x3da3b53e	0.079935536
39	0xbd3b9042	-0.04579187
40	0xbc95b0ab	-0.018272718
41	0x3cc52e75	0.024070004
42	0xbcca2bf6	-0.024679165
43	0xbd949698	-0.07255286
44	0x3d1bd5ea	0.0380458
45	0xbda71f9e	-0.081603274
46	0xbd322f40	-0.043502092
47	0x3d6234c1	0.05522609
48	0xbda493da	-0.08036013
49	0xbd53dc9a	-0.051724054
50	0x3caa39e7	0.020779563
51	0xbd06fa35	-0.03295346
52	0xbb91263b	-0.0044296063
53	0x3daaaf8c	0.08334264
54	0xbc8d1a16	-0.017224353
55	0x3d8f4e15	0.06997315
56	0x3d0f3220	0.034959912
57	0xbc8fe3db	-0.017564705
58	0x3bd73a97	0.0065682638
59	0xbd812477	-0.06305783
60	0x3ca29336	0.019845586
61	0x3ada9a39	0.0016678042
62	0xbc06c6dc	-0.008226123
63	0x3d51216a	0.051057257
64	0xbdb6b827	-0.08921843
65	0xbd49b67b	-0.049246293
66	0xbd50e355	-0.05099805
67	0x3d4eaa54	0.050455406
68	0x3d4e1aa5	0.05031838
69	0x3d3b4788	0.045722514
70	0xbd81ce5b	-0.06338187
71	0x3d35d361	0.04439104
72	0x3d85a264	0.06525114
73	0xbbcd791b	-0.0062705404
74	0xbd968a80	-0.073506355
75	0xbce16300	-0.027513027
76	0x3cf4fa9a	0.029904652
77	0xbd90e9ea	-0.070758656
78	0x3cfa44c0	0.03055036
79	0x3c949b51	0.018140467
80	0x3dbaecd4	0.09127203
81	0xbc785cc1	-0.015158833
82	0x3cdb1877	0.026745064
83	0xbbfa4f51	-0.00763885
84	0x3a049d9d	0.00050588866
85	0x38d4cb9a	0.000101468715
86	0x3c1dcb03	0.009630921
87	0xbd279656	-0.040914856
88	0xbc47fbcc	-0.012206029
89	0xbd99a89d	-0.075028636
90	0xbda2b736	-0.07945101
91	0xbda4f455	-0.08054415
92	0x3d8ac5f2	0.06776036
93	0xbd8d13b8	-0.06888527
94	0xbd5246b5	-0.051336963
95	0x3d477ba2	0.04870189
96	0x3d989b91	0.07451547
97	0x3d5cca58	0.053903908
98	0xbd5759b1	-0.05257577
99	0x3d43d9a0	0.047814965

net.1.weight f4 [100]
0	0x3f7f7967	0.9979462
1	0x3f7f6a27	0.9977135
2	0x3f805017	1.0024441
3	0x3f7f6073	0.99756545
4	0x3f804e0e	1.002382
5	0x3f7f710b	0.99781865
6	0x3f7f6015	0.99755985
7	0x3f7f6403	0.9976198
8	0x3f80502a	1.0024464
9	0x3f7f61fd	0.99758893
10	0x3f7f8efa	0.9982754
11	0x3f7f6de4	0.99777055
12	0x3f804c74	1.0023332
13	0x3f7f650d	0.99763566
14	0x3f7f7019	0.9978042
15	0x3f7f61b9	0.9975849
16	0x3f805028	1.0024462
17	0x3f7fc508	0.9991002
18	0x3f7f6005	0.9975589
19	0x3f7f5fd0	0.99755573
20	0x3f7f616e	0.9975804
21	0x3f7fe961	0.9996548
22	0x3f7f609c	0.9975679
23	0x3f7f6072	0.9975654
24	0x3f7f91d3	0.99831885
25	0x3f7f65e7	0.99764866
26	0x3f805024	1.0024457
27	0x3f7fb9b2	0.99892724
28	0x3f7f818e	0.9980706
29	0x3f80502a	1.0024464
30	0x3f7f6496	0.99762857
31	0x3f8048c9	1.0022212
32	0x3f7f6bc2	0.997738
33	0x3f7f6994	0.99770474
34	0x3f804ff4	1.00244
35	0x3f7f602c	0.9975612
36	0x3f804fe9	1.0024387
37	0x3f80501b	1.0024446
38	0x3f7f6920	0.99769783
39	0x3f7f6013	0.9975597
40	0x3f7f6157	0.99757904
41	0x3f804bda	1.0023148
42	0x3f8046f2	1.0021651
43	0x3f7f60bf	0.99757
44	0x3f805029	1.0024463
45	0x3f7f6195	0.99758273
46	0x3f7f60da	0.9975716
47	0x3f7f5fe7	0.9975571
48	0x3f7f6127	0.9975762
49	0x3f805015	1.0024439
50	0x3f7f6013	0.9975597
51	0x3f7f60f0	0.9975729
52	0x3f7f60e8	0.9975724
53	0x3f805012	1.0024436
54	0x3f7f9efd	0.9985197
55	0x3f7f65cc	0.99764705
56	0x3f7f601c	0.99756026
57	0x3f804fd9	1.0024368
58	0x3f804fe3	1.002438
59	0x3f805027	1.002446
60	0x3f7f6b21	0.9977284
61	0x3f804fdf	1.0024375
62	0x3f7f605f	0.99756426
63	0x3f7f6e75	0.9977792
64	0x3f804ff9	1.0024406
65	0x3f7f601b	0.9975602
66	0x3f7f60d7	0.9975714
67	0x3f7f6755	0.9976705
68	0x3f7feafe	0.99967945
69	0x3f7f625c	0.9975946
70	0x3f805005	1.002442
71	0x3f7f6170	0.9975805
72	0x3f804bdb	1.0023149
73	0x3f804ef5	1.0024096
74	0x3f7f6d4e	0.9977616
75	0x3f80502a	1.0024464
76	0x3f7f6cbd	0.99775296
77	0x3f7f5fe7	0.9975571
78	0x3f7f6208	0.9975896
79	0x3f7f635c	0.99760985
80	0x3f7f5feb	0.99755734
81	0x3f805009	1.0024425
82	0x3f80501b	1.0024446
83	0x3f7f6025	0.9975608
84	0x3f7f6037	0.9975619
85	0x3f7f9582	0.99837506
86	0x3f805026	1.0024459
87	0x3f804e52	1.0023901
88	0x3f7f63b8	0.99761534
89	0x3f7f64df	0.9976329
90	0x3f7fe12a	0.9995295
91	0x3f805025	1.0024458
92	0x3f805029	1.0024463
93	0x3f7f6432	0.9976226
94	0x3f804da8	1.0023699
95	0x3f804e02	1.0023806
96	0x3f805026	1.0024459
97	0x3f7f602b	0.99756116
98	0x3f7f60ec	0.99757266
99	0x3f7f6062	0.99756444
