FarconVAE/result_yaleb/yaleb_downstream_y_2023_05_01_16_28_21_258486_ours.pth.pt (torch, 16423 bytes, 2 tensors)

layer.weight f4 [38, 100]
000000 3f e5 81 3e f5 d8 bc bb c6 5f af bd 59 ac 63 bd
       0.25370213 -0.005763168 -0.08563189 -0.055584285
000010 31 24 27 3e 93 74 20 be ce 51 b0 bd 54 36 8e 3d
       0.163224 -0.1566947 -0.08609353 0.06943956
000020 5d 4f c3 3c 9d 4a 03 3e f4 cf 50 be 17 da 4d 3e
       0.023841554 0.12821431 -0.20391828 0.20102726
000030 82 57 9c bd 33 b7 2a be 30 a2 06 be 54 09 3a be
       -0.07633878 -0.16671447 -0.13147807 -0.18167621
000040 b3 4f 05 be 6a 35 81 3e c5 66 e6 bd a8 c5 79 bd
       -0.13018684 0.25236064 -0.112500705 -0.060979515
000050 ab a3 5b 3e c1 5c 47 3e 20 86 19 be ff 08 09 be
       0.21449153 0.19468977 -0.14992571 -0.13382338
000060 53 ab ae bd 1b dc 2a be db 75 b8 bd 21 0f 80 3e
       -0.08528771 -0.16685526 -0.09006854 0.25011542
000070 75 58 33 3e a8 b8 17 be 80 84 38 be 99 6e 1d be
       0.17514212 -0.14816535 -0.18019295 -0.15374221
000080 42 38 7e be 45 07 0f be 21 22 3d be 05 62 03 3e
       -0.24826148 -0.13967617 -0.1847005 0.1283036
000090 90 98 98 bd f7 4a 8b 3d ec c1 59 3e 02 20 b9 bd
       -0.07450974 0.06801408 0.21265382 -0.09039308
0000a0 ad c4 62 3e fc 10 34 be 36 30 90 bd 08 64 3c be
       0.22145338 -0.17584604 -0.070404455 -0.18397534
0000b0 04 72 41 be 45 cc 60 3e 19 3c 2e be ec 63 1f 3e
       -0.1889115 0.21952923 -0.17015113 0.15565461
0000c0 52 95 94 be 27 27 03 be 5c 05 b0 3c 7f 72 0e 3e
       -0.29020172 -0.12807904 0.02148693 0.13910864
0000d0 ed 23 ab 3c fb 18 69 bc d3 76 16 3e ac 1e 70 3b
       0.020891154 -0.014227147 0.14693765 0.0036639376
0000e0 bf ab 6a 3e 8e 6a 82 bd d3 3d 89 be ea d7 27 3c
       0.22917078 -0.0636798 -0.2680498 0.010244349
0000f0 4f 49 6f be b9 54 fa 3d c8 5b 3b be 10 ad 67 3d
       -0.23367809 0.12223191 -0.1829673 0.05656153
000100 b3 aa 54 bb c5 0b 67 be c7 4f be 3d 32 14 14 be
       -0.0032450377 -0.22563083 0.0929256 -0.14460829
000110 db a7 be bd 63 b9 6c be 5a 0b 19 be da ea 75 bd
       -0.0930936 -0.23117594 -0.14945737 -0.060038425
000120 ac 66 ba bc 43 1f 4f 3d be 62 d7 3d f6 58 82 3e
       -0.022754036 0.050566923 0.105168805 0.25458497
000130 ce de 1c 3d 5f e4 2b 3e 9a 38 32 3e 37 6a b9 3c
       0.03829842 0.16786335 0.17404404 0.022633655
000140 0c 72 38 be ca 5b c6 bd 10 a5 89 3e 48 32 1b 3d
       -0.18012255 -0.09685476 0.26883745 0.03788975
000150 93 c5 c4 bb d0 ec 33 3e 3e 11 13 3e 8c 82 a6 3d
       -0.006004998 0.17570806 0.14362046 0.081303686
000160 d5 83 80 3e 3d f2 51 be e8 1d 5e be f5 a9 7a bd
       0.2510058 -0.20502563 -0.21691096 -0.06119724
000170 e5 43 2b 3e 41 0a 00 be 15 1f 79 be be 4e cd bd
       0.16725118 -0.12503912 -0.24328263 -0.100247845
000180 ba 40 26 be d4 cc 66 3e f0 f3 88 be 56 11 40 3e
       -0.16235629 0.22539073 -0.2674861 0.18756613
000190 2e 51 6f 3d da 5e 29 3e 7e f7 b3 3d d6 89 de bd
       0.05842703 0.16540089 0.0878744 -0.10866134
0001a0 fa 73 08 3e 6c a7 a9 bd 58 1b 44 3e f1 90 29 be
       0.13325492 -0.08283886 0.19151056 -0.16559197
0001b0 4f 94 5b bd a4 8b 3f 3e 6b 2c 39 3e 5c c6 60 3e
       -0.053608235 0.18705612 0.1808335 0.21950668
0001c0 19 07 37 3e 93 44 95 3d a3 4b 97 3d cc 83 5d 3e
       0.17873801 0.0728847 0.073874734 0.21632308
0001d0 bb 87 84 be 16 a3 51 be e7 05 5c 3e e2 4c 1e be
       -0.25884804 -0.20472369 0.21486627 -0.15459016
0001e0 68 db 71 3e 91 9c 12 3e e8 48 1d be 3b 1a 23 be
       0.23618853 0.14317538 -0.15359843 -0.15927975
0001f0 3f 8e 2e bd 64 a8 10 be 35 5d d6 3d 34 04 7f 3e
       -0.042616125 -0.14126736 0.104669966 0.24903947
000200 be 61 2f be 63 b0 f0 3a a1 46 1d 3e 5f fd 7f bd
       -0.1712713 0.0018363114 0.15358974 -0.062497493
000210 af 7c 10 be 41 3f 67 3e 66 7a ea bd 1b 61 2c be
       -0.14110063 0.22582723 -0.11449127 -0.16833918
000220 1a 4b a5 3d 4b e1 68 bd 67 16 12 be b8 4a 12 3e
       0.08070965 -0.05685548 -0.14266358 0.14286315
000230 b8 e3 27 bd 2c 15 56 3a c6 64 7b be a5 04 7f 3e
       -0.040988654 0.0008166607 -0.24550161 0.24904115
000240 69 e8 52 be 42 d3 52 be d3 2a 44 3e 2c ad 97 bd
       -0.2059647 -0.20588401 0.19156961 -0.07406077
000250 fc fb 23 be 00 2b 3c be 67 90 86 3d 70 81 0f 3e
       -0.16014093 -0.18375778 0.06570511 0.1401422
000260 af 23 ec bd 9d 00 1d be ba dc 82 3b fd aa 05 3e
       -0.115302436 -0.15332265 0.003993598 0.13053508
000270 89 4b bf 3c 11 f1 99 3d 16 63 0f 3e fe 28 7f be
       0.023351448 0.07516683 0.14002642 -0.24917981
000280 0c 78 34 3e f9 75 60 bd 40 f3 cd bc a6 7e fa 3d
       0.17623919 -0.054800007 -0.025140405 0.122311875
000290 d6 71 2c 3e 4d 15 98 3d 8b 95 53 3e ff 96 59 be
       0.168403 0.07425938 0.20662515 -0.21249007
0002a0 ee 70 f8 bd 50 18 de bd e1 81 1e 3d 6a 24 86 bd
       -0.12130915 -0.10844481 0.03869808 -0.06549914
0002b0 44 ae 7d 3e 31 ba a0 bd 5e 0b 70 be 59 c9 79 bc
       0.24773508 -0.07848013 -0.23441836 -0.015245759
0002c0 12 bf 3c 3d 06 4e 40 3e 95 cc d3 3c 3a b4 2d 3d
       0.046080656 0.18779764 0.025854388 0.042408206
0002d0 dc 68 0d 3e ac 93 57 be 9f 14 29 3e 98 d3 38 bd
       0.13809532 -0.21052426 0.16511773 -0.045123667
0002e0 3e ce 28 be ff b8 47 bc d4 a0 9b bc 7e c5 55 3c
       -0.16484925 -0.012190103 -0.018997587 0.013047574
0002f0 51 4a 2d 3d 62 77 88 be 5b 42 cd bd 83 90 57 3e
       0.0423072 -0.26653582 -0.10022422 0.2105122
000300 91 3f 6d bd 89 57 46 3e 7b 9b 4e be fc f3 25 3e
       -0.05792195 0.1936933 -0.20176499 0.16206354
000310 94 07 1e bd 6a 58 81 bd cb 13 02 be 1f 27 a3 bd
       -0.038581446 -0.06315692 -0.12702863 -0.07966446
000320 a0 c1 7f bd bc f6 3f 3e 27 3e 25 3e e1 db 08 be
       -0.062440515 0.18746465 0.1613699 -0.13365127
000330 5c 62 1d 3d 1e 40 61 be f9 6e 54 3e 58 96 3d be
       0.03842388 -0.21997115 0.20745458 -0.18514383
000340 cb b8 c9 bd 47 f6 1b be f1 2c 08 be 4b d0 61 3e
       -0.098496996 -0.15230666 -0.13298394 0.22052114
000350 76 8c a5 bd a5 02 43 3e d3 00 c4 bd b5 5f 18 be
       -0.080834314 0.19043978 -0.0957047 -0.1488026
000360 6f f1 1f 3e d9 d9 9d bd 56 ec d3 bd 28 ba 5b 3d
       0.15619443 -0.07707567 -0.10347812 0.05364433
000370 be 98 b6 bc 1d cb c9 3d 08 e5 f3 3c 5e 91 f7 bd
       -0.02228963 0.09853194 0.029772297 -0.120882735
000380 e6 fd 38 be c7 c2 27 be cb 1d 0c be 26 9e ee bd
       -0.18065605 -0.16382895 -0.1368324 -0.11651258
000390 9e 05 ef 3d d7 03 c6 3d 0d 41 e2 3b b8 76 30 bd
       0.11670993 0.09668701 0.0069047273 -0.04308197
0003a0 25 54 cf 3c 43 36 ae 3c ea 55 09 be 34 23 1d be
       0.025308678 0.021266108 -0.1341168 -0.1534546
0003b0 66 17 56 bd 0e f2 80 bd d7 f4 f6 bd 2c f4 30 3d
       -0.05226841 -0.06296168 -0.12058418 0.04320161
0003c0 e1 79 d8 3d 47 14 e1 bd 21 ab 45 3e f0 88 0e 3e
       0.105701216 -0.10990196 0.19303562 0.13919425
0003d0 a4 74 67 3e 66 a1 54 bd fe e7 a8 3d 5b e7 67 3d
       0.22603089 -0.051911734 0.08247374 0.056617122
0003e0 0a 3d e5 3c 70 23 77 bc bb e9 4e 3e 3e c0 43 3e
       0.027983207 -0.015084133 0.20206349 0.19116303
0003f0 cc 2f 0e be 17 37 9b bd e3 77 a9 bc 4d 6a b5 3a
       -0.1388542 -0.07578867 -0.02068705 0.0013840884

layer.bias f4 [38]
000000 a5 02 1f 3d 2f 28 2c bd d1 e2 97 3c 3f 25 ee bc
       0.03882088 -0.04203051 0.018540772 -0.029070495
000010 a6 6a a7 bc 8f 70 43 bd 86 1b 13 bc 9b df fb 3b
       -0.020436596 -0.047714766 -0.00897873 0.007686568
000020 2e bb cb bc e2 ef 3f 3d 2a db 6c bb 72 6c 03 bd
       -0.024869528 0.04685963 -0.0036141374 -0.032085843
000030 85 f7 e1 3c b7 f4 4c bc d3 de 40 bc 00 d8 0f 3c
       0.027583847 -0.012509516 -0.011771875 0.008779526
000040 78 ae 30 3c ed 2f 9a bc 43 6b 4d bd de 90 ae 3b
       0.010783784 -0.01882168 -0.05015112 0.005327328
000050 dc b8 15 bc fc ec 42 bc 44 39 53 3d 42 69 84 3c
       -0.009138312 -0.011897322 0.051568285 0.016163472
000060 80 89 52 bc fc 0f c3 bc 7f c9 bc 3c 31 97 b0 bb
       -0.012850165 -0.023811333 0.0230453 -0.005389117
000070 c1 a5 5f 3c 72 4d c7 bc e9 4e 9c 3c da cb 84 3b
       0.013650359 -0.024328921 0.019080596 0.0040526213
000080 23 17 35 3d b0 f3 90 3b a9 22 42 bb 78 23 2c 3d
       0.044211518 0.004423581 -0.002962271 0.042026013
000090 b2 ea 3f 3d 1b e8 03 bc
       0.046854682 -0.008050944
