FarconVAE/result_yaleb/yaleb_downstream_y_2023_05_01_16_34_02_781342_ours.pth.pt (torch, 16423 bytes, 2 tensors)

layer.weight f4 [38, 100]
0.15217035 -0.09149426 0.14384858 -0.095058866 0.1758345 -0.16331032 0.0075065256 0.1662778
-0.060665388 -0.22858505 0.02093214 -0.037040748 0.11756331 0.15920916 0.15786314 -0.059521135
-0.15437044 -0.11164567 -0.24411127 0.22179572 -0.23473413 0.2238922 -0.23446372 -0.17216147
-0.007891984 0.03925228 -0.106536865 0.23101678 -0.07881224 -0.052794732 0.1953469 0.10401467
0.13100557 0.0021085518 -0.11606629 -0.17644787 -0.2086891 -0.19674408 -0.055527452 -0.060195945
-0.0652454 -0.16950351 0.2501557 0.05369581 0.16658708 0.12912016 -0.18699378 0.17407267
0.2906993 -0.19701059 0.18534334 -0.18373342 0.23970631 0.22144602 0.21371853 0.121402495
0.09086615 0.13062727 0.091325454 -0.18300974 0.23852226 -0.21699671 -0.15007252 -0.19585806
-0.111361355 0.19842863 -0.27692536 0.13075344 -0.13421686 0.016772592 0.122479595 0.22494498
0.10075636 0.24125597 0.0147144105 0.25841892 -0.0558575 -0.18132631 0.19567986 0.1219941
-0.091352195 -0.111385174 -0.13412045 -0.11215581 0.1122479 0.0031497297 -0.11892989 0.10916661
0.25046688 -0.23902875 -0.08098436 -0.11230017 -0.081638224 -0.17479603 0.18917614 -0.16952844
0.16320369 -0.19971444 0.062110987 -0.12140658 0.2161853 0.2038473 -0.14593911 0.1381838
0.23388185 -0.1096406 -0.21462926 0.015901968 -0.23264234 -0.23854022 0.23700643 -0.14497624
0.18281886 -0.10888934 -0.21524146 -0.06809101 0.25574455 -0.23421173 0.1847199 -0.15564382
-0.09549871 -0.09466582 0.26480114 0.015118794 0.1347383 -0.054470588 0.16005878 -0.10336312
-0.12480699 -0.015943296 -0.040003948 0.01663623 0.20040117 -0.032790642 -0.23039287 -0.21887657
0.029379632 0.218213 0.19362272 -0.21623889 -0.1411953 -0.23106721 -0.04091498 0.11302169
0.1265338 -0.23516314 -0.17504796 -0.17856735 0.2538006 0.12231777 0.12539364 0.07741596
0.18733832 -0.07916193 -0.16703737 0.15134038 0.01738583 0.10185888 -0.12977107 0.229355
0.2136224 -0.033191957 0.20302257 -0.20400089 0.042957347 0.042332325 -0.21617876 -0.034029774
0.0672017 -0.22302659 0.01868487 -0.05098295 -0.16587281 -0.04291094 0.06539931 -0.08438596
-0.2367544 0.12594393 0.19596364 -0.16127753 -0.008477998 0.15866533 -0.15662469 -0.020707577
-0.15098226 -0.14443529 -0.18841298 -0.19081546 -0.21667236 -0.12499592 -0.2009043 -0.19860433
-0.14571375 -0.21062838 0.13587268 0.05010439 -0.050901268 -0.19783625 0.15192807 -0.23888937
-0.12052301 -0.16082644 -0.029817028 -0.17769264 -0.2204303 -0.16766241 -0.21088639 0.04976029
-0.14390735 -0.1382247 -0.19329198 -0.02562008 0.13184132 0.06920869 0.12587556 -0.129813
-0.1351659 0.17027034 0.14900687 -0.19434148 -0.15157871 0.021439793 -0.2701989 0.20007356
-0.1788401 -0.048985664 0.1954419 -0.14416546 0.16747408 0.034859437 -0.10678691 0.16010673
0.09222956 0.28678802 0.19807078 0.12053324 0.12954389 0.07816985 0.057787497 -0.12796491
-0.12475686 -0.140025 -0.13883363 -0.16300917 -0.15659015 -0.123749025 -0.1904369 0.14236367
-0.19027069 0.22728556 0.010472419 0.1081324 -0.2643818 0.12488823 0.21969566 0.21007353
00000000: 8bd2 1b3e 5861 bbbd 0b4d 133e 39ae c2bd
00000010: f60d 343e d23a 27be 4df9 f53b ba44 2a3e
00000020: 457c 78bd 3312 6abe e179 ab3c 0ab8 17bd
00000030: 08c5 f03d ba07 233e e0a6 213e 6fcc 73bd
00000040: 4913 1ebe 7ca6 e4bd 4ef8 79be 6b1e 633e
00000050: 255e 70be ff43 653e 4217 70be 194b 30be
00000060: 614d 01bc 00c7 203d 0030 dabd aa8f 6c3e
00000070: 5068 a1bd 4a3f 58bd 0509 483e a505 d53d
00000080: 5326 063e a12f 0a3b 2ab4 edbd c0ae 34be
00000090: 98b2 55be 4877 49be c170 63bd 0690 76bd
000000a0: 619f 85bd 5492 2dbe 6814 803e 23f0 5b3d
000000b0: ce95 2a3e 1338 043e 4c7b 3fbe 1b40 323e
000000c0: 8ad6 943e 25bd 49be a5ca 3d3e 9d24 3cbe
000000d0: 9275 753e bfc2 623e 08d9 5a3e dfa1 f83d
000000e0: 0818 ba3d 28c3 053e d708 bb3d e866 3bbe
000000f0: 2e3f 743e 6334 5ebe 9cac 19be 048f 48be
00000100: 6c11 e4bd e030 4b3e 29c9 8dbe 3be4 053e
00000110: 2570 09be ad66 893c 95d6 fa3d fa57 663e
00000120: 5a59 ce3d ce0b 773e b614 713c 7c4f 843e
00000130: d5ca 64bd 9bad 39be 4d60 483e 0bd8 f93d
00000140: dc16 bbbd e91d e4bd df56 09be f2b1 e5bd
00000150: 3ae2 e53d b26b 4e3b 8491 f3bd be92 df3d
00000160: 323d 803e f4c3 74be 21db a5bd a2fd e5bd
00000170: f131 a7bd bbfd 32be 64b7 413e dd98 2dbe
00000180: de1e 273e f181 4cbe 1768 7e3d 03a4 f8bd
00000190: ae5f 5d3e 59bd 503e 1071 15be 0e80 0d3e
000001a0: b97e 6f3e 408b e0bd c6c7 5bbe d844 823c
000001b0: cb39 6ebe e343 74be d0b1 723e a774 14be
000001c0: de34 3b3e 6001 dfbd 4268 5cbe 4d73 8bbd
000001d0: f3f0 823e 33d5 6fbe 3727 3d3e 1861 1fbe
000001e0: d494 c3bd 27e0 c1bd 0494 873e d1b4 773c
000001f0: d6f8 093e 8d1c 5fbd 73e6 233e 0bb0 d3bd
00000200: cf9a ffbd 849b 82bc 2edb 23bd b448 883c
00000210: f735 4d3e 7b4f 06bd 1cec 6bbe 2e21 60be
00000220: 8ead f03c 3b73 5f3e 0945 463e ba6d 5dbe
00000230: 8095 10be e29c 6cbe 7796 27bd ea77 e73d
00000240: 1492 013e 9bce 70be c63f 33be 5cda 36be
00000250: 27f2 813e bd81 fa3d 3167 003e 428c 9e3d
00000260: 9ed5 3f3e a61f a2bd d80b 2bbe f9f8 1a3e
00000270: ba6c 8e3c 639b d03d b5e2 04be 0adc 6a3e
00000280: d5bf 5a3e 4af4 07bd 26e5 4f3e 9ce5 50be
00000290: 0bf4 2f3d a964 2d3d f75d 5dbe ce62 0bbd
000002a0: 0ba1 893d 1561 64be 0311 993c 7fd3 50bd
000002b0: 90da 29be 62c3 2fbd 13f0 853d 8cd2 acbd
000002c0: bf6f 72be 72f7 003e b1aa 483e f025 25be
000002d0: 4de7 0abc 2a79 223e 3962 20be f0a2 a9bc
000002e0: 189b 1abe d8e6 13be 55ef 40be 2165 43be
000002f0: 5cdf 5dbe dcfd ffbd dbb9 4dbe ef5e 4bbe
00000300: fc35 15be f7ae 57be 3522 0b3e 433a 4d3d
00000310: d97d 50bd 9695 4abe 0893 1b3e 6a9f 74be
00000320: c5d4 f6bd b0af 24be d742 f4bc 0ff5 35be
00000330: 7bb8 61be b2af 2bbe 9af2 57be 72d1 4b3d
00000340: 735c 13be c78a 0dbe 55ee 45be 34e1 d1bc
00000350: 6901 073e 49bd 8d3d 86e5 003e b3ed 04be
00000360: ee68 0abe 595b 2e3e 4295 183e 7401 47be
00000370: 7337 1bbe 81a2 af3c 8357 8abe 15e0 4c3e
00000380: dc21 37be 31a5 48bd ec21 483e 1ca0 13be
00000390: 537e 2b3e c5c8 0e3d 18b3 dabd 05f3 233e
000003a0: dae2 bc3d e1d5 923e 11d3 4a3e 22da f63d
000003b0: 27a7 043e 8417 a03d 95b2 6c3d 3c09 03be
000003c0: 8680 ffbd b762 0fbe 672a 0ebe e0eb 26be
000003d0: 2b59 20be 2170 fdbd e401 43be c8c7 113e
000003e0: 52d6 42be 8cbd 683e 8294 2b3c 8574 dd3d
000003f0: 0d5d 87be 66c5 ff3d e6f7 603e 841d 573e

layer.bias f4 [38]
-0.01941928 0.050146632 0.051813036 -0.004961128 0.015352826 -0.027827602 -0.03188479 -0.0056336084
9.0092115e-05 -0.0051605096 0.014394742 0.023401143 0.01839878 0.029384244 -0.02205999 -0.024617737
-0.038880773 -0.07796601 0.011443732 0.011386138 -0.062904805 0.023871884 -0.032454673 0.015746333
-0.03571262 -0.06720974 0.06898947 -0.013228846 0.03308953 0.0011858917 0.015400108 -0.0023498333
0.021960849 -0.04252307 -0.036493737 -0.0077289753 0.093067765 0.041128784
00000000: 2f15 9fbc 8e66 4d3d e839 543d f590 a2bb
00000010: 6b8a 7b3c b6f6 e3bc a099 02bd 229a b8bb
00000020: d6ef bc38 7e19 a9bb edd7 6b3c c1b3 bf3c
00000030: 0ab9 963c 3ab7 f03c 27b7 b4bc 23ab c9bc
00000040: 7241 1fbd a5ac 9fbd 7e7e 3b3c ed8c 3a3c
00000050: 3cd4 80bd f88e c33c 31ef 04bd 74fe 803c
00000060: 6547 12bd 43a5 89bd 5a4a 8d3d cdbd 58bc
00000070: e388 073d ec6f 9b3a bc50 7c3c a9ff 19bb
00000080: 3de7 b33c ac2c 2ebd 757a 15bd 5843 fdbb
00000090: 509a be3d a876 283d
