FarconVAE/result_yaleb/yaleb_downstream_s_2023_05_01_17_02_27_235206_ours.pth.pt (torch, 88964 bytes, 22 tensors)

fc1.weight f4 [100, 100]
0.20328796 -0.28657007 -0.2025347 -0.20609696 0.26282746 0.18757291 -0.1720541 0.20655967
-0.07198406 -0.22637008 -0.17345646 0.15467456 0.26542032 -0.21846318 -0.206526 -0.0743585
0.24017367 0.17429209 0.026364412 -0.28597325 0.2239453 0.21762417 0.2812815 0.19329922
-0.2720577 -0.0026322077 -0.18543921 -0.23589045 0.17876159 -0.15232205 0.1259981 -0.17810349
-0.20434281 0.04568671 -0.2727331 -0.28822565 0.2907968 -0.24124877 0.17532833 -0.024433518
-0.14285523 -0.19178024 0.18477407 -0.0053866967 0.17915173 -0.14445965 0.18060859 -0.19562104
-0.22660533 -0.15846026 0.21982571 -0.16502523 -0.16197741 -0.09534683 0.25581703 0.22266291
0.19736178 0.18984157 0.24695225 -0.09699737 -0.22719184 -0.033595104 -0.25497347 0.20170443
0.3079919 -0.24440394 0.22597846 -0.17502667 -0.14776163 -0.21964967 0.23308553 -0.09479944
0.15190926 0.03499352 0.20250222 0.2192905 0.23059694 -0.15798482 0.30139762 0.20742549
0.09713816 0.25280672 -0.14747709 -0.23604625 -0.23810366 -0.12557347 0.24420252 0.17806228
0.21285962 0.0040156 -0.08808696 0.028424319 -0.26401553 0.17825364 0.26228273 -0.29476467
-0.1545365 0.23688118 -0.15871945 0.16404013 0.2643525 -0.2646366 -0.20201682 -0.16742936
0.20975348 -0.13857321 -0.2673672 0.16818795 0.14205678 -0.28034765 -0.18175526 0.2825155
-0.06334491 -0.27175808 0.09718923 -0.18561774 -0.048832938 0.19781397 -0.1958626 0.13413565
0.26182655 -0.054009218 0.25608036 -0.09239469 0.12646772 -0.10005884 -0.2080413 0.052553385
0.15525113 0.00963824 -0.008179892 0.083219744 -0.21010385 0.1084235 0.09684969 0.19661848
-0.081622064 -0.1637803 0.2618387 -0.13085984 -0.14978756 -0.24823457 -0.034203205 -0.22646187
0.029637657 0.15347683 0.20408045 -0.29047245 -0.3063693 -0.014897126 0.28882965 0.08909323
-0.22144756 -0.29161537 0.022522617 -0.0143345585 -0.12979713 0.325931 0.11808455 -0.27393693
-0.191341 -0.22875245 0.1479453 0.25711092 -0.079571255 0.21344846 -0.017342579 -0.18393162
-0.27201515 0.0381267 0.31559575 -0.2344741 0.21086726 -0.14782809 -0.12640996 -0.047208324
0.11138137 -0.12773274 -0.120847374 0.25905275 -0.16884395 0.29587737 -0.26195854 -0.18985486
0.043572605 0.17240682 -0.028662998 -0.10887744 0.29677778 -0.15396775 -0.10371585 -0.21527742
0.051935226 -0.14887753 -0.012346059 0.037163008 0.13387533 0.29708362 -0.28876328 -0.117303684
0.18752971 -0.18584464 -0.159391 -0.22459614 0.19686452 0.13600583 0.06728509 0.19394284
-0.20994973 0.08506838 -0.14948617 -0.16413876 -0.14555709 -0.19392933 -0.12274062 0.19655322
0.04654961 -0.037159156 -0.257658 -0.16534618 -0.035011016 -0.14659885 0.16202056 -0.08718713
0.19119883 0.045452945 -0.17645188 -0.21634334 0.2078756 -0.20720604 0.14912975 0.14426002
0.1139199 0.2087973 -0.055497013 -0.14426784 0.23643087 0.122264795 -0.14953882 0.198589
-0.015043013 0.15224954 0.0076187914 0.090917185 -0.1547101 -0.0825211 0.18647553 -0.012382529
0.12521335 -0.08353299 0.13999042 0.22497547 0.17287284 -0.21684165 0.21930642 -0.18232636
00000000: b82a 503e 50b9 92be 4265 4fbe 150b 53be
00000010: 5291 863e 1d13 403e f32e 30be 6184 533e
00000020: 616c 93bd 8fcd 67be 929e 31be 0263 1e3e
00000030: 2ce5 873e d0b4 5fbe 8d7b 53be 4549 98bd
00000040: 16f0 753e a079 323e 2efa d73c 166b 92be
00000050: eb51 653e dfd8 5e3e 2104 903e 3bf0 453e
00000060: 264b 8bbe 1e81 2cbb c7e3 3dbe 448d 71be
00000070: 470d 373e 50fa 1bbe a505 013e c360 36be
00000080: 3e3f 51be fd21 3b3d aca3 8bbe 5092 93be
00000090: 51e3 943e eb09 77be 4589 333e cd28 c8bc
000000a0: a448 12be 0a62 44be 6a35 3d3e e382 b0bb
000000b0: 8d73 373e 3bed 13be 75f1 383e e250 48be
000000c0: 3a0b 68be 6843 22be fe19 613e 60fc 28be
000000d0: 68dd 25be 3345 c3bd 73fa 823e bf01 643e
000000e0: 3519 4a3e d465 423e 0de1 7c3e 8fa6 c6bd
000000f0: faa4 68be 059b 09bd e28b 82be 9b8b 4e3e
00000100: 1db1 9d3e 0745 7abe e666 673e 313a 33be
00000110: d34e 17be d8eb 60be f9ad 6e3e 3526 c2bd
00000120: 1a8e 1b3e 5d55 0f3d be5c 4f3e b08d 603e
00000130: 9b21 6c3e c6c6 21be ca50 9a3e 5967 543e
00000140: 5ff0 c63d e26f 813e 3c04 17be 1cb6 71be
00000150: 72d1 73be 5596 00be 3a10 7a3e f555 363e
00000160: dff7 593e 4b95 833b f066 b4bd 1eda e83c
00000170: 0b2d 87be 1f88 363e ec49 863e 65eb 96be
00000180: d13e 1ebe fb90 723e 5a87 22be 23fa 273e
00000190: 3659 873e 737e 87be 7fdd 4ebe 9a72 2bbe
000001a0: 9ec9 563e 23e6 0dbe 5be4 88be 7639 2c3e
000001b0: 5577 113e ba89 8fbe 0d1e 3abe dfa5 903e
000001c0: faba 81bd e023 8bbe 260b c73d 9412 3ebe
000001d0: 0c05 48bd bf8f 4a3e 3590 48be db5a 093e
000001e0: 210e 863e c538 5dbd f71c 833e 6d39 bdbd
000001f0: c180 013e a6eb ccbd c708 55be 3842 573d
00000200: 27fa 1e3e b5e9 1d3c f404 06bc 1d6f aa3d
00000210: 7725 57be 240d de3d 2159 c63d 5b56 493e
00000220: 7829 a7bd 06b6 27be b90f 863e 1f00 06be
00000230: e961 19be 3431 7ebe a918 0cbd 9fe5 67be
00000240: acca f23c 0829 1d3e 77fa 503e ceb8 94be
00000250: 70dc 9cbe 1313 74bc 7be1 933e 8376 b63d
00000260: 26c3 62be 9c4e 95be 5a81 b83c 7fdb 6abc
00000270: 8ae9 04be 6ee0 a63e 50d6 f13d 7641 8cbe
00000280: e5ee 43be 153e 6abe f97e 173e 0ba4 833e
00000290: 41f6 a2bd 3c92 5a3e 0612 8ebc 9258 3cbe
000002a0: 9245 8bbe be2a 1c3d c495 a13e fa19 70be
000002b0: 96ed 573e 3f60 17be 9d71 01be 845d 41bd
000002c0: ea1b e43d 5fcc 02be d47e f7bd 90a2 843e
000002d0: 6ee5 2cbe 3d7d 973e 6e1f 86be 5069 42be
000002e0: 3079 323d 6a8b 303e aace eabc 23fb debd
000002f0: 42f3 973e b9a9 1dbe fa68 d4bd af71 5cbe
00000300: 08ba 543d 5a73 18be 2047 4abc 3d38 183d
00000310: 9d16 093e 581b 983e c8d8 93be ea3c f0bd
00000320: ca07 403e 0f4e 3ebe 6537 23be 88fc 65be
00000330: da96 493e 1d45 0b3e c4cc 893d f498 463e
00000340: 10fd 56be 5538 ae3d e712 19be fe13 28be
00000350: eb0c 15be 6995 46be 6f5f fbbd 3f45 493e
00000360: ceaa 3e3d 3334 18bd c0eb 83be 8250 29be
00000370: b667 0fbd 021e 16be b8e8 253e 2a8f b2bd
00000380: a0c9 433e de2c 3a3d cdaf 34be 1c89 5dbe
00000390: 57dd 543e d22d 54be 78b5 183e e6b8 133e
000003a0: d64e e93d f6ce 553e d650 63bd f3ba 13be
000003b0: ef1a 723e f765 fa3d b420 19be ea5a 4b3e
000003c0: f876 76bc 4ee7 1b3e 0ea7 f93b ca32 ba3d
000003d0: 536c 1ebe d300 a9bd 71f3 3e3e 17e0 4abc
000003e0: ee37 003e 5813 abbd a659 0f3e f85f 663e
000003f0: 9405 313e bd0b 5ebe dd91 603e c3b3 3abe

fc1.bias f4 [100]
-2.63052e-06 -5.418906e-06 1.2369478e-05 -6.857197e-07 1.319006e-06 4.8532283e-06 2.5518128e-07 1.7082511e-05
2.2773505e-05 5.462905e-06 1.7361566e-05 5.6149616e-05 -9.183669e-07 5.024412e-05 -8.089075e-05 3.2020085e-05
1.3270994e-05 4.1180585e-05 3.6352463e-05 -3.102099e-05 -4.799509e-05 -2.5845678e-05 -9.660963e-07 -5.102396e-05
1.3177382e-05 3.8086306e-05 -5.8879514e-06 -4.138737e-06 6.1140004e-06 -1.8884362e-05 -4.5847946e-07 -1.2623687e-05
1.6263776e-06 3.9129925e-05 5.9001144e-07 2.0598358e-05 -5.660724e-05 1.43975e-05 -5.3460484e-05 3.1137963e-05
-3.6284925e-07 8.62338e-06 2.5459607e-05 -2.78733e-05 1.2425481e-05 -1.9125602e-05 1.563605e-05 9.383633e-05
9.123547e-05 4.600927e-06 -1.6424386e-06 1.3971042e-05 -4.773245e-06 -5.0117364e-05 -1.6750142e-06 1.4686979e-05
-6.526051e-07 6.0837497e-06 7.6924494e-05 5.576218e-06 3.6188703e-06 4.0449268e-05 -3.3992285e-06 -9.3940264e-07
2.6734547e-06 1.79047e-05 7.2899165e-06 -5.1421466e-06 -9.037851e-06 6.717953e-05 -2.5489942e-05 4.944224e-05
-7.518042e-06 -6.573859e-05 -1.3216521e-05 1.5853953e-05 7.0957576e-06 -5.0590975e-06 -3.847484e-05 1.6572025e-05
-1.0588007e-05 -1.6627915e-05 -1.4969092e-05 -4.140845e-06 -7.96646e-06 2.1815715e-05 0.00010938151 2.9782386e-05
-0.00017037957 9.272711e-06 -5.5536216e-06 -0.00012419137 -7.4956144e-05 1.5698162e-05 -7.998983e-06 -5.636081e-05
1.5652076e-05 1.8647825e-05 -3.2365372e-06 3.9341257e-06
00000000: fd87 30b6 0cd4 b5b6 8186 4f37 4d12 38b5
00000010: b308 b135 ead8 a236 d9ff 8834 6a4c 8f37
00000020: bb09 bf37 ff4d b736 aea3 9137 3182 6b38
00000030: b185 76b5 37bd 5238 e4a3 a9b8 4e4d 0638
00000040: 7ca6 5e37 51b9 2c38 2979 1838 891c 02b8
00000050: 564e 49b8 2ccf d8b7 d1aa 81b5 8f02 56b8
00000060: 6d14 5d37 dcbe 1f38 1e91 c5b6 7bdf 8ab6
00000070: dd26 cd36 dc69 9eb7 f024 f6b4 53ca 53b7
00000080: e949 da35 701f 2438 4761 1e35 a3ca ac37
00000090: 906d 6db8 cb8c 7137 c23a 60b8 229a 0238
000000a0: 9fcd c2b4 23ad 1037 1792 d537 75d1 e9b7
000000b0: 0977 5037 eb6f a0b7 292a 8337 ffc9 c438
000000c0: ac55 bf38 a961 9a36 c371 dcb5 2b65 6a37
000000d0: dd29 a0b6 1c35 52b8 0dd1 e0b5 1868 7637
000000e0: ae2e 2fb5 0323 cc36 8652 a138 591b bb36
000000f0: b8db 7236 12a8 2938 4d1e 64b6 422b 7cb5
00000100: 9a69 3336 0d32 9637 e89b f436 b48a acb6
00000110: 46a1 17b7 bce2 8c38 3cd3 d5b7 3360 4f38
00000120: 7d43 fcb6 23dd 89b8 87bc 5db7 1bfe 8437
00000130: 1818 ee36 51c1 a9b6 0b60 21b8 2704 8b37
00000140: 25a3 31b7 2d7c 8bb7 c323 7bb7 96f1 8ab6
00000150: afa7 05b7 e400 b737 c063 e538 30d5 f937
00000160: eba7 32b9 fe91 1b37 3f59 bab6 5e39 02b9
00000170: c631 9db8 8caf 8337 5f33 06b7 f564 6cb8
00000180: 944c 8337 e66d 9c37 4933 59b6 e201 8436

fc2.weight f4 [100, 100]
-0.21523073 -0.06227371 0.08945279 -0.23139854 -0.08414998 0.124266684 -0.11676052 -0.12846464
-0.031895176 -0.017305074 -0.05839412 0.10196529 -0.20951198 0.0742935 0.14082229 0.23309761
0.05239029 0.13767323 0.064318724 -0.112741075 -0.027819501 0.25565347 -0.12810126 -0.035745364
0.17857732 0.067066014 0.0065285913 -0.061033998 0.09000666 -0.061847094 0.15188688 -0.14844626
0.19735195 -0.23958473 0.15952827 -0.20465896 0.045001537 0.28179613 -0.22208813 0.088953674
0.16129224 -0.07899367 0.19644576 0.08791882 0.25300887 0.28404316 0.19222099 0.2688851
-0.151598 -0.25954136 -0.10036831 0.22494064 -0.13764086 0.25773185 -0.09273379 0.13438004
-0.02784893 0.23582113 0.15084411 0.15059215 -0.21313348 -0.092270695 0.035506435 0.060026765
-0.004183037 0.14972045 0.0035224897 -0.14746495 0.10607111 0.0093648145 0.11965682 -0.24211077
-0.024150543 -0.12601799 -0.1557562 -0.19160831 -0.20251316 -0.042292383 -0.19520824 -0.117132984
0.0074556866 -0.14649396 -0.26237342 -0.16798018 -0.15131097 -0.03674824 -0.15751988 -0.007941946
0.010292714 0.1492652 -0.06576654 0.1463192 -0.18422592 -0.2090816 0.23399659 0.19422829
-0.18448168 0.1457791 -0.21913928 0.08729924 -0.08915372 -0.034766704 -0.18308038 -0.17193137
-0.18660955 0.14750308 -0.16783321 -0.21017987 -0.19801138 -0.17236242 -0.17384024 0.19331634
-0.18631347 -0.19293709 -0.04071967 0.14539947 -0.1961831 0.20142052 -0.16669393 -0.18567485
-0.17858605 0.1798521 -0.20952268 0.001496944 0.1565215 0.1966555 -0.1926781 -0.17919493
0.15740737 -0.20084499 0.1406746 -0.1711365 -0.19788818 -0.1954214 0.180555 0.18307728
-0.13505648 0.17030348 0.23195568 0.18257812 0.17968981 -0.15005282 -0.04499178 0.18638325
0.17701249 0.17499247 0.16517489 0.15199661 -0.16926384 -0.1639229 -0.19670711 0.17741442
-0.19638385 -0.16262975 -0.18998247 -0.16843563 -0.16594604 -0.06454439 -0.18901691 0.18156582
-0.17555428 0.082602456 0.1964348 -0.1681457 -0.16558456 0.19400142 -0.19611433 -0.18070258
0.18740997 -0.19163635 0.16229527 -0.1497315 0.18378478 -0.19309993 0.18279867 -0.17224833
0.16730711 -0.21015896 0.18196592 -0.18386997 -0.18898712 -0.21006352 -0.16515052 -0.18619062
-0.1792125 0.19300288 -0.19036594 -0.18707378 -0.18882279 0.17551616 -0.1916638 0.13300279
-0.18062758 0.17844217 0.20763302 0.17900978 -0.1940342 0.18409081 -0.18939851 0.16674288
-0.028488554 0.19537714 -0.033919476 -0.17100652 -0.015955053 0.05720838 -0.23064066 -0.08250129
0.081684574 -0.16091597 -0.15175049 0.23581056 0.032774154 0.17472772 0.14197168 0.11578988
0.21608873 -0.008819734 -0.1522373 -0.24934107 0.071964525 0.2043922 0.013538601 -0.22158214
-0.0009453485 0.027163068 0.23133408 0.0822752 -0.18130784 -0.031315565 0.023945073 -0.13696188
0.06545543 -0.10243875 -0.09127034 -0.25283742 0.12660313 0.22982323 0.0070693297 0.12338548
-0.019035518 -0.11182173 0.17659496 -0.13174711 0.019197114 0.15971741 -0.1151225 0.09491012
-0.19054578 -0.07059866 0.10935069 0.09391371 0.1427467 0.30607083 -0.19022772 -0.14289361
00000000: 7265 5cbe b812 7fbd 0633 b73d bdf3 6cbe
00000010: d356 acbd 887f fe3d 2420 efbd 3c8c 03be
00000020: 84a4 02bd 5fc3 8dbc ac2e 6fbd 2ed3 d03d
00000030: 4f8a 56be 3127 983d b833 103e 24b1 6e3e
00000040: 3397 563d 36fa 0c3e 89b9 833d cbe4 e6bd
00000050: b9e5 e3bc 03e5 823e fa2c 03be bb69 12bd
00000060: f9dc 363e e859 893d cbed d53b c9fe 79bd
00000070: 6955 b83d 6153 7dbd 3c88 1b3e 4c02 18be
00000080: a116 4a3e b355 75be 615b 233e 1e92 51be
00000090: 8853 383d 9547 903e 126b 63be 582d b63d
000000a0: cb29 253e 6fc7 a1bd 1429 493e c80e b43d
000000b0: 618a 813e 1b6e 913e 94d5 443e 4fab 893e
000000c0: 823c 1bbe 9be2 84be e78d cdbd d756 663e
000000d0: baf1 0cbe 6ef5 833e 37eb bdbd ec9a 093e
000000e0: 7023 e4bc 187b 713e e176 1a3e d434 1a3e
000000f0: aa3f 5abe 6bf8 bcbd 326f 113d a0de 753d
00000100: dc11 89bb 5150 193e 92d9 663b 0d01 17be
00000110: cf3b d93d e16e 193c a30e f53d e3eb 77be
00000120: 5cd7 c5bc dc0a 01be 8e7e 1fbe f834 44be
00000130: 9c5f 4fbe c73a 2dbd abe4 47be 6be3 efbd
00000140: d54e f43b 8302 16be cf55 86be ff02 2cbe
00000150: 43f1 1abe 5385 16bd e44c 21be f01e 02bc
00000160: c6a2 283c fad8 183e 9cb0 86bd b3d4 153e
00000170: b8a5 3cbe 7d19 56be cd9c 6f3e c8e3 463e
00000180: c4e8 3cbe 1e47 153e 0c66 60be f2c9 b23d
00000190: 3a96 b6bd 8867 0ebd 6c79 3bbe c70e 30be
000001a0: 9316 3fbe 0c0b 173e 78dc 2bbe 6439 57be
000001b0: 7fc3 4abe c67f 30be 2d03 32be b8f4 453e
000001c0: f5c8 3ebe 4d91 45be abc9 26bd 99e3 143e
000001d0: 39e4 48be 2e41 4e3e d0b1 2abe 8c21 3ebe
000001e0: 43df 36be 262b 383e 1d8d 56be 1b35 c43a
000001f0: 2c47 203e 0f60 493e 684d 45be e07e 37be
00000200: 662f 213e 4faa 4dbe 010d 103e 683e 2fbe
00000210: 33a3 4abe 8c1c 48be 69e3 383e 9c78 3b3e
00000220: 3f4c 0abe 0964 2e3e ca85 6d3e c2f5 3a3e
00000230: 9b00 383e 72a7 19be 4d49 38bd 40db 3e3e
00000240: c342 353e 3a31 333e 9b23 293e 00a5 1b3e
00000250: 8053 2dbe 68db 27be 976d 49be 20ac 353e
00000260: d918 49be 6a88 26be c48a 42be 647a 2cbe
00000270: c2ed 29be d92f 84bd a68d 41be 64ec 393e
00000280: 80c4 33be 7a2b a93d 3426 493e 632e 2cbe
00000290: 008f 29be 4fa8 463e 32d2 48be 190a 39be
000002a0: 66e8 3f3e 523c 44be bb30 263e 3753 19be
000002b0: 1432 3c3e fdbb 45be 932f 3b3e de61 30be
000002c0: 8e52 2b3e e933 57be 4655 3a3e 6948 3cbe
000002d0: d785 41be e41a 57be 381d 29be c1a8 3ebe
000002e0: 7b83 37be 8ca2 453e 4aef 42be 4590 3fbe
000002f0: c35a 41be 82ba 333e 8443 44be e231 083e
00000300: 70f6 38be 8bb9 363e c09d 543e 574e 373e
00000310: e7b0 46be 4d82 3c3e aff1 41be a5be 2a3e
00000320: d460 e9bc f210 483e 26ef 0abd 551c 2fbe
00000330: 2cb4 82bc 5653 6a3d 112d 6cbe 70f6 a8bd
00000340: 3e4a a73d 28c7 24be 7b64 1bbe 5378 713e
00000350: 313e 063d d3eb 323e 0661 113e 3f23 ed3d
00000360: 5d46 5d3e a580 10bc 18e4 1bbe 4453 7fbe
00000370: 2362 933d 304c 513e 02d1 5d3c 6ee6 62be
00000380: 44d1 77ba 1585 de3c d7e2 6c3e e67f a83d
00000390: c3a8 39be c044 00bd 7528 c43c bc3f 0cbe
000003a0: 7f0d 863d 68cb d1bd f2eb babd e873 81be
000003b0: 40a4 013e c856 6b3e d6a5 e73b 87b1 fc3d
000003c0: 60f0 9bbc cb02 e5bd 4fd5 343e b7e8 06be
000003d0: 4443 9d3c f68c 233e 58c5 ebbd 3d60 c23d
000003e0: 6f1e 43be 0896 90bd 41f3 df3d d555 c03d
000003f0: 312c 123e 51b5 9c3e 0ecb 42be b452 12be

fc2.bias f4 [100]
0.000109867324 -5.833527e-05 -3.457594e-06 -0.00021191374 -5.111558e-06 -7.9528254e-05 6.10625e-05 0.00041803703
4.6672e-05 -0.00021892872 3.993153e-05 -0.00021439223 -0.00015919306 -0.000113017464 0.00012981358 0.0014675312
0.00022197423 -0.0002980288 2.2386994e-05 0.00023573168 5.4952845e-05 5.279185e-05 -1.616208e-05 -2.6359634e-05
-0.00021007 0.0011721028 -0.00014701877 -6.631216e-05 4.4111683e-05 5.688838e-05 -0.0001330627 5.829095e-06
5.3538342e-06 6.5791287e-06 2.7846692e-05 -5.4659406e-05 2.289484e-05 0.0001264662 -2.814619e-06 3.3689812e-05
-0.00013492195 2.04468e-06 -2.425607e-05 -1.0571607e-05 -9.6419375e-05 -0.000101119615 0.0005350291 -0.000102084814
2.63509e-05 -1.9942872e-05 -6.963276e-05 -0.00017961567 0.00015620032 7.440459e-05 -1.6435517e-05 -8.70928e-05
-0.00020765443 7.7309956e-08 -0.00017911984 -4.1180523e-05 0.000109807 1.0644757e-05 1.2564881e-06 4.037746e-05
-0.00016681108 -5.4881173e-05 1.1124889e-05 -1.5965232e-05 9.355557e-05 -3.512207e-05 4.3381e-05 0.000112448244
2.2613149e-05 1.7862465e-05 1.8094184e-05 4.263689e-05 -0.00013980309 0.00013044765 -0.00017990512 -0.0002294425
-0.000121981466 3.14653e-05 4.7683816e-06 -1.2775854e-05 -0.000150332 -0.00019270486 4.671103e-05 1.1398153e-05
0.00018442598 1.1084892e-05 -0.0002318576 -1.7006434e-05 -0.0001307051 -0.00016786912 3.0049756e-05 1.2230592e-05
7.495023e-05 5.534945e-05 -3.086959e-05 2.6714593e-05
00000000: 9268 e638 05ad 74b8 0309 68b6 2935 5eb9
00000010: f383 abb6 68c8 a6b8 ae0e 8038 fb2b db39
00000020: aec1 4338 3b90 65b9 277c 2738 7ace 60b9
00000030: 10ed 26b9 ca03 edb8 911e 0839 2d5a c03a
00000040: c1c1 6839 c040 9cb9 b4cb bb37 be2e 7739
00000050: 2b7d 6638 d16c 5d38 cd93 87b7 e21e ddb7
00000060: 3c46 5cb9 3ea1 993a 0d29 1ab9 1211 8bb8
00000070: 8f04 3938 6f9b 6e38 bf86 0bb9 8b97 c336
00000080: 16a5 b336 49c2 dc36 5198 e937 1742 65b8
00000090: 4b0e c037 039c 0439 c9e2 3cb6 294e 0d38
000000a0: d679 0db9 5637 0936 8479 cbb7 b55c 31b7
000000b0: c234 cab8 2e10 d4b8 3241 0c3a 5e16 d6b8
000000c0: 200c dd37 fe4a a7b7 ce07 92b8 3757 3cb9
000000d0: b4c9 2339 a909 9c38 01df 89b7 97a5 b6b8
000000e0: d0bd 59b9 9905 a633 1ed2 3bb9 40b9 2cb8
000000f0: 2f48 e638 e296 3237 9aa4 a835 f85a 2938
00000100: 02ea 2eb9 3630 66b8 09a5 3a37 13ed 85b7
00000110: 4433 c438 0950 13b8 fef3 3538 31d2 eb38
00000120: 5eb1 bd37 5ad7 9537 f7c8 9737 03d5 3238
00000130: 1b98 12b9 c6c8 0839 eaa4 3cb9 8196 70b9
00000140: 4dd0 ffb8 9cf9 0338 1600 a036 e057 56b7
00000150: 70a2 1db9 d110 4ab9 96eb 4338 b23a 3f37
00000160: 7962 4139 40f9 3937 cd1e 73b9 0aa9 8eb7
00000170: e20d 09b9 0606 30b9 5c13 fc37 fe31 4d37
00000180: 992e 9d38 0527 6838 f879 01b8 2719 e037

out.weight f4 [5, 100]
-0.03461378 -0.14975171 -0.009128954 -0.14544016 0.084810115 0.13763551 0.0433786 -0.15979002
0.12580886 -0.18256523 0.09433472 0.26953134 -0.1846941 -0.08226172 -0.037511922 -0.18191436
-0.04036011 -0.2600137 0.09990731 -0.094235845 0.0066383807 0.08099737 -0.038430374 0.117266335
0.14682782 -0.20294216 -0.15385608 -0.17949168 0.10410959 0.10798207 -0.25621727 -0.043416053
-0.063297585 0.11115557 0.12519504 -0.012479986 0.13424832 0.021262445 0.07920558 0.040673718
-0.25615144 0.083066665 -0.084666036 -0.16682744 0.04919457 0.12833643 -0.27535027 -0.1698678
0.042445045 -0.27003688 0.08662923 -0.06465037 -0.16039373 0.016315814 -0.030617235 0.1062912
-0.043684535 -0.09234339 -0.052551866 -0.22398159 -0.017699288 0.0889368 -0.105253905 -0.006226046
-0.20469469 -0.04357454 -0.17035913 0.07563182 -0.070061 0.23265615 -0.18868503 -0.11471922
0.0053737764 0.13575663 -0.14163665 -0.17094287 0.053815857 -0.0199084 -0.18941516 -0.2451197
0.13006522 0.08448332 -0.11146901 0.06683638 -0.11434941 0.0070690084 0.07727271 0.048094932
-0.02785442 0.08056135 0.3153683 -0.04137975 0.20812245 0.13676095 -0.17584966 0.103446655
0.100289084 0.09745709 -0.094605595 0.09846784 -0.012083236 -0.13327685 -0.025381498 -0.11915829
-0.00016896115 0.054717086 0.16299057 -0.111675605 0.14734274 -0.010026383 -0.03885914 0.09979333
-0.1062241 -0.26201174 0.0010931223 -0.067718014 0.114770785 -0.049844664 -0.02084062 -0.13853662
0.11611317 0.0031597535 -0.083172 0.28252628 0.2652947 -0.10462615 -0.23933737 -0.08461906
-0.25597036 0.0020464072 -0.057718724 0.050518177 -0.023256067 -0.0030681877 -0.04326239 0.17708713
0.019568143 -0.21438685 -0.25494617 0.07501334 -0.099054374 -0.10941867 -0.1366989 -0.09876851
0.02672249 0.15421961 -0.06587339 -0.16551457 -0.07719366 0.054810405 0.066404395 0.18036132
-0.10197512 0.16071425 -0.10021362 0.112588316 -0.028901983 0.09938217 -0.18530221 -0.066727445
0.03047996 0.090846695 0.053542253 -0.040713333 0.04637254 0.12141392 0.058265656 0.06434201
0.098907515 0.10334278 -0.1700452 -0.09395791 -0.12192778 -0.02166588 -0.02674459 -0.06880587
0.09302643 0.10374542 -0.065488316 -0.07194976 -0.039842565 0.07803114 -0.08564714 0.19669077
-0.009316989 0.018293593 0.010983367 0.15632595 -0.07464246 -0.034546 0.10037128 0.019505398
0.15945235 -0.02021142 -0.014921849 -0.07016248 0.16004035 0.107105486 -0.12665598 0.07586126
-0.15716627 0.11313039 0.28032044 -0.060770884 -0.100632936 0.05505592 -0.10427861 0.062214527
-0.011812307 -0.15167615 0.19941646 -0.10783985 0.14970377 -0.19036674 0.2574759 0.0003875596
0.019672483 -0.1100126 0.27844635 0.25341493 -0.14787096 -0.077930436 0.003722166 0.0155608915
-0.079477146 0.027976453 -0.21271046 0.1617035 -0.16989738 -0.054646477 0.09591901 -0.084622376
-0.10239228 -0.15365706 0.24592285 -0.12280871 -0.1458274 -0.11163288 -0.126782 -0.10354114
0.18831006 -0.09029406 0.19282694 -0.012286518 -0.1037217 -0.13204756 -0.15127501 -0.0649659
-0.023788113 -0.03248086 0.10319974 -0.11827126 0.20238635 -0.020418294 -0.029381184 -0.12478325
00000000: 2ec7 0dbd 8358 19be 9c91 15bc 44ee 14be
00000010: edb0 ad3d 53f0 0c3e c2ad 313d ff9f 23be
00000020: 0ad4 003e 61f2 3abe 9032 c13d 0300 8a3e
00000030: 7320 3dbe d578 a8bd 1aa6 19bd c247 3abe
00000040: a550 25bd 8420 85be 349c cc3d b9fe c0bd
00000050: c686 d93b f3e1 a53d 2b69 1dbd 5529 f03d
00000060: 085a 163e 12d0 4fbe 738c 1dbe abcc 37be
00000070: 6937 d53d b425 dd3d e92e 83be 08d5 31bd
00000080: 2aa2 81bd 88a5 e33d 2133 003e db78 4cbc
00000090: 6478 093e 942e ae3c 8936 a23d 7c99 263d
000000a0: 4826 83be db1e aa3d 6365 adbd d0d4 2abe
000000b0: 3f80 493d a06a 033e b6fa 8cbe d3f1 2dbe
000000c0: dbda 2d3d 4642 8abe aa6a b13d 6a67 84bd
000000d0: 413e 24be bea8 853c ffd0 fabc 33af d93d
000000e0: 8eee 32bd 881e bdbd a040 57bd 6e5b 65be
000000f0: 19fe 90bc 7f24 b63d 5c8f d7bd dc03 ccbb
00000100: 7c9b 51be 387b 32bd a072 2ebe dbe4 9a3d
00000110: 247c 8fbd 6a3d 6e3e a636 41be e9f1 eabd
00000120: 8116 b03b c903 0b3e 3309 11be a60b 2fbe
00000130: 046e 5c3d f116 a3bc 0cf6 41be a900 7bbe
00000140: d12f 053e 9705 ad3d dd49 e4bd 83e1 883d
00000150: 0630 eabd 24a3 e73b 2841 9e3d 31ff 443d
00000160: f42e e4bc 59fd a43d f477 a13e d07d 29bd
00000170: 0d1e 553e 100b 0c3e ef11 34be d7db d33d
00000180: 5d64 cd3d 9597 c73d 94c0 c1bd 82a9 c93d
00000190: c4f8 45bc ba79 08be dcec cfbc 4309 f4bd
000001a0: 2a2b 31b9 061f 603d 00e7 263e 2eb6 e4bd
000001b0: 04e1 163e b345 24bc c32a 1fbd 7260 cc3d
000001c0: 058c d9bd 6726 86be 1947 8f3a beaf 8abd
000001d0: f20c eb3d eb29 4cbd f3b9 aabc 8bdc 0dbe
000001e0: becc ed3d de13 4f3b 1556 aabd 49a7 903e
000001f0: b5d4 873e 3c46 d6bd db14 75be c24c adbd
00000200: 8c0e 83be 041d 063b 786a 6cbd 26ec 4e3d
00000210: 8283 bebc a613 49bb e733 31bd 5456 353e
00000220: 5f4d a03c 3a88 5bbe 4e88 82be 98a0 993d
00000230: 05dd cabd e516 e0bd ccfa 0bbe 2547 cabd
00000240: 20e9 da3c bfeb 1d3e a1e8 86bd a77c 29be
00000250: b617 9ebd e080 603d 07ff 873d a3b0 383e
00000260: 55d8 d0bd 4792 243e cc3c cdbd b494 e63d
00000270: dac3 ecbc e188 cb3d ddbf 3dbe 66a8 88bd
00000280: 1cb1 f93c d50d ba3d 1f4f 5b3d 06c3 26bd
00000290: 22f1 3d3d dca7 f83d f8a7 6e3d bec5 833d
000002a0: 0690 ca3d 61a5 d33d 5420 2ebe 016d c0bd
000002b0: 46b5 f9bd a57c b1bc 7817 dbbc 18ea 8cbd
000002c0: a484 be3d 7b78 d43d bd1e 86bd 655a 93bd
000002d0: f531 23bd cace 9f3d c567 afbd 4e69 493e
000002e0: 49a6 18bc 72dc 953c 95f3 333c e913 203e
000002f0: 25de 98bd 1b80 0dbd 758f cd3d c9c9 9f3c
00000300: 7a47 233e 6b92 a5bc c57a 74bc 59b1 8fbd
00000310: 9ee1 233e 1f5a db3d 1bb2 01be 265d 9b3d
00000320: 32f0 20be e8b0 e73d 2986 8f3e e4ea 78bd
00000330: a418 cebd 5182 613d 0690 d5bd a9d4 7e3d
00000340: 6888 41bc fe50 1bbe d433 4c3e 24db dcbd
00000350: f24b 193e 80ef 42be e2d3 833e 5e31 cb39
00000360: 3028 a13c 494e e1bd 8590 8e3e 9abf 813e
00000370: 7c6b 17be fe99 9fbd 95ef 733b 1cf3 7e3c
00000380: eac4 a2bd e02e e53c c5d0 59be 9a95 253e
00000390: 94f9 2dbe fcd4 5fbd 3071 c43d 7f4e adbd
000003a0: 0bb3 d1bd 4758 1dbe 33d3 7b3e 2283 fbbd
000003b0: c753 15be c89f e4bd 24d3 01be 610d d4bd
000003c0: 5ad4 403e 18ec b8bd 6d74 453e 644d 49bc
000003d0: 0b6c d4bd 7a37 07be d6e7 1abe d70c 85bd
000003e0: 4adf c2bc a60a 05bd 635a d33d 3438 f2bd
000003f0: 5e3e 4f3e 4444 a7bc cfb0 f0bc 5c8e ffbd

out.bias f4 [5]
-0.13153818 0.0047820685 0.053308938 0.12857334 0.012118012
00000000: f2b1 06be e6b2 9c3b 795a 5a3d bba8 033e
00000010: a08a 463c

bn.weight f4 [100]
0.1906301 0.45348406 0.39125025 0.5697304 0.09336714 0.20604892 0.4940838 0.4342718
0.3125615 0.49269304 0.3480753 0.27098462 0.29975805 0.6314021 0.6660081 0.64742595
0.42687026 0.66545933 0.414493 0.47139212 0.31322372 0.41745082 0.32627785 0.44350338
0.48414972 0.5505326 0.52948093 0.31839782 0.10505369 0.4660199 0.31169558 0.097244844
0.33110777 0.35050094 0.41386238 0.47290912 0.27767566 0.4720374 0.36057928 0.17981848
0.19948073 0.16462214 0.4199011 0.25054568 0.040876165 0.4103125 0.38682342 0.7017874
0.2016292 0.32559517 0.19831412 0.32688344 0.16807052 0.45317966 0.06240756 0.34417677
0.041456908 0.19722016 0.5741652 0.31796604 0.19035706 0.40054744 0.50421464 0.25166377
0.3051546 0.537378 0.3787282 0.12733254 0.34593433 0.4318179 0.50441265 0.6517844
0.5713675 0.22871605 0.46789452 0.3669701 0.2168256 0.4053504 0.3740246 0.52780914
0.25081143 0.35489106 0.17332233 0.16673793 0.39366764 0.70138586 0.61408085 0.37737533
0.4131241 0.44439155 0.640461 0.40576664 0.44308504 0.34095803 0.71811646 0.52208894
0.21814914 0.267825 0.112920225 0.28579605
00000000: 8934 433e 102f e83e f451 c83e dad9 113f
00000010: 4537 bf3d 7dfe 523e 8df8 fc3e e058 de3e
00000020: 1008 a03e 4342 fc3e ed36 b23e 7fbe 8a3e
00000030: e379 993e 91a3 213f 827f 2a3f b5bd 253f
00000040: bd8e da3e 8b5b 2a3f 6d38 d43e 4f5a f13e
00000050: dc5e a03e 1dbc d53e e40d a73e e012 e33e
00000060: 79e2 f73e b4ef 0c3f 108c 073f 0a05 a33e
00000070: 6426 d73d 299a ee3e 9096 9f3e 4e28 c73d
00000080: f586 a93e dc74 b33e c5e5 d33e 2521 f23e
00000090: 812b 8e3e e3ae f13e d99d b83e 5622 383e
000000a0: ad44 4c3e b592 283e 47fd d63e 8647 803e
000000b0: c46d 273d 7b14 d23e b80d c63e 57a8 333f
000000c0: e377 4e3e 69b4 a63e db12 4b3e 445d a73e
000000d0: ae1a 2c3e 2a07 e83e 129f 7f3d f037 b03e
000000e0: b8ce 293d 15f4 493e 7efc 123f 72cc a23e
000000f0: f6ec 423e 8e14 cd3e 3614 013f 13da 803e
00000100: 393d 9c3e 9b91 093f aae8 c13e 7663 023e
00000110: 4e1e b13e 3c17 dd3e 3021 013f 58db 263f
00000120: 2445 123f 8a34 6a3e df8f ef3e 81e3 bb3e
00000130: 8807 5e3e 168a cf3e 2780 bf3e 801e 073f
00000140: 5b6a 803e 48b4 b53e 697b 313e 59bd 2a3e
00000150: ce8e c93e 068e 333f 6734 1d3f 5737 c13e
00000160: 0185 d33e 4a87 e33e 41f5 233f a5c0 cf3e
00000170: 0bdc e23e 0d92 ae3e 7bd6 373f 9fa7 053f
00000180: 7d62 5f3e 5c20 893e b842 e73d dc53 923e

bn.bias f4 [100]
0.29168937 0.026227273 0.059492573 0.18149807 0.05557039 -0.048385404 -0.070827246 0.21160348
-0.028572494 0.118624896 0.017308028 0.07448379 0.19421105 -0.04400024 -0.0108823795 0.2244347
0.025655616 0.2408297 0.07911147 0.21680856 0.09844618 0.112479985 -0.03312352 0.048811868
0.06892951 0.27170947 0.18941079 -0.056944806 -0.055285722 0.0071389284 0.23972243 -0.068021536
0.004247362 0.049002826 0.09964773 -0.0021703762 0.029105218 0.2926508 0.017051682 0.030576266
0.090974234 -0.0303955 -0.013896763 -0.03634833 0.12998907 0.07008502 -0.06026232 0.042251103
0.00097297283 0.11991612 -0.03600079 0.21550998 -0.03273772 -0.0066560004 -0.01752843 0.030038122
0.070496894 0.16776511 0.08766062 -0.073220246 -0.058537774 0.069544636 0.08198225 -0.006523217
0.2740101 0.071171835 0.23532292 0.014711185 0.20425461 -0.008112255 -0.04913029 0.20786566
0.15616505 -0.00731435 0.03587961 0.3311411 0.0012328314 0.035052255 0.23078932 -0.051427495
-0.039848633 0.089001454 -0.117618285 0.117009014 0.2771989 0.102649696 0.011069141 0.03362085
-0.041097287 0.07203768 0.03851703 -0.01635719 0.0826418 -0.04136008 0.18241021 0.1244921
-0.06274279 0.097952046 -0.025629489 -0.021748368
00000000: 4f58 953e 94da d63c 7cae 733d a1da 393e
00000010: c79d 633d c62f 46bd e00d 91bd 95ae 583e
00000020: dd10 eabc 9cf1 f23d 91c9 8d3c f58a 983d
00000030: 43df 463e 9839 34bd 024c 32bc 36d2 653e
00000040: ba2b d23c 109c 763e 3205 a23d 1003 5e3e
00000050: 279e c93d e85b e63d 87ac 07bd f4ee 473d
00000060: ea2a 8d3d 811d 8b3e e7f4 413e f53e 69bd
00000070: 4873 62bd aced e93b cc79 753e e04e 8bbd
00000080: 742d 8b3b 30b7 483d 1c14 cc3d df3c 0ebb
00000090: 116e ee3c 53d6 953e f8af 8b3c 147b fa3c
000000a0: b350 ba3d fcff f8bc 40af 63bc fde1 14bd
000000b0: db1b 053e bc88 8f3d 9fd5 76bd 7e0f 2d3d
000000c0: 1a0f 7f3a 9596 f53d 9075 13bd a6ae 5c3e
000000d0: fd17 06bd 941a dabb c897 8fbc 8212 f63c
000000e0: ad60 903d 9eca 2b3e 6987 b33d 7ff4 95bd
000000f0: 4ec5 6fbd 6b6d 8e3d 4fe6 a73d b6c0 d5bb
00000100: 0d4b 8c3e 8ac2 913d 7ef8 703e 2f07 713c
00000110: 1f28 513e 43e9 04bc d83c 49bd bcda 543e
00000120: bbe9 1f3e 37ad efbb 7ff6 123d 548b a93e
00000130: f596 a13a f492 0f3d 0954 6c3e a3a5 52bd
00000140: 5238 23bd 6546 b63d dbe1 f0bd 6ca2 ef3d
00000150: 04ed 8d3e 013a d23d 585b 353c 04b6 093d
00000160: a155 28bd 7e88 933d 09c4 1d3d 84ff 85bc
00000170: 1b40 a93d 3069 29bd bec9 3a3e b7f5 fe3d
00000180: 4b7f 80bd 159b c83d eff4 d1bc a229 b2bc

bn.running_mean f4 [100]
0.047003828 -0.059075017 -0.06321819 0.19259533 0.07644906 -0.16410895 0.11651914 -0.027289134
-0.14056268 0.07821354 -0.16970156 0.13043725 0.023540888 -0.038842935 -0.07068033 0.20516145
-0.122808166 0.03998089 -0.14593086 -0.1443507 -0.04855401 -0.21469888 -0.015517629 -0.117119916
-0.079995245 0.08129077 -0.038704276 0.06440082 0.06626269 -0.09996726 0.1179356 -0.037336335
0.057065435 -0.10295356 -0.17803724 0.18532684 -0.17564698 -0.04772995 0.059852526 0.12742038
0.054121375 -0.11531638 -0.19392233 0.030174768 0.02878154 -0.031782348 0.10838135 -0.04842904
-0.091372445 0.062395386 -0.009033857 0.09605663 -0.11362283 0.12496973 -0.06422301 0.19195506
-0.052001003 0.107692525 0.17183886 -0.0031292234 -0.15985468 0.040426955 0.076054215 -0.16076516
0.016497403 0.09175925 -0.030331958 -0.03779919 -0.011081074 0.08509861 -0.14003779 -0.130915
0.0009646931 -0.13208789 -0.10238494 -0.052412093 -0.053043358 -0.08364029 0.10285123 0.07328619
-0.15149371 0.048075672 -0.12605463 -0.14593449 0.017374279 -0.1263424 0.08106893 0.085815355
-0.1367054 -0.15678386 0.15914798 0.026826534 0.05901298 -0.05150914 0.09376757 -0.18356715
-0.08400896 -0.017342497 -0.037935115 -0.18574433
00000000: 1687 403d a5f8 71bd 8a78 81bd b637 453e
00000010: 5391 9c3d 2d0c 28be 96a1 ee3d 768d dfbc
00000020: aaef 0fbe 6c2e a03d 3fc6 2dbe 5891 053e
00000030: d2d8 c03c c519 1fbd d9c0 90bd d815 523e
00000040: d982 fbbd 00c3 233d e66e 15be abd0 13be
00000050: 92e0 46bd 06da 5bbe a73d 7ebc 91dc efbd
00000060: 8cd4 a3bd c67b a63d 6088 1ebd 94e4 833d
00000070: bcb4 873d a3bb ccbd 3888 f13d fced 18bd
00000080: 72bd 693d 51d9 d2bd 654f 36be 52c6 3d3e
00000090: cddc 33be 7b80 43bd ec27 753d 7d7a 023e
000000a0: 60ae 5d3d ff2a ecbd 9393 46be 1331 f73c
000000b0: 44c7 eb3c 352e 02bd 0bf7 dd3d 875d 46bd
000000c0: 7a21 bbbd 4e92 7f3d be02 14bc 57b9 c43d
000000d0: 16b3 e8bd 21f0 ff3d 5a87 83bd de8f 443e
000000e0: 01ff 54bd e68d dc3d 87f6 2f3e a813 4dbb
000000f0: f2b0 23be bc96 253d 50c2 9b3d 9f9f 24be
00000100: 9025 873c 46ec bb3d ba7a f8bc 53d3 1abd
00000110: 658d 35bc 2e48 ae3d 1166 0fbe 950e 06be
00000120: 75e3 7c3a 0c42 07be 32af d1bd 10ae 56bd
00000130: fe43 59bd 9a4b abbd aaa3 d23d 1217 963d
00000140: 2b21 1bbe ffea 443d 7714 01be da6f 15be
00000150: 8154 8e3c e75f 01be 7807 a63d f6bf af3d
00000160: 80fc 0bbe f38b 20be b0f7 223e 52c3 db3c
00000170: 98b7 713d 3ffb 52bd 3609 c03d 07f9 3bbe
00000180: e40c acbd da11 8ebc da61 1bbd c333 3ebe

bn.running_var f4 [100]
0.9653839 0.7693763 0.4035503 0.3907194 0.537082 0.5359043 0.78580344 0.9327811
0.71315217 0.60554713 0.4791026 0.34339482 0.63366634 0.6695126 0.6820735 0.41107064
0.694254 0.8695622 0.43385026 0.7431715 0.47070998 0.61958355 0.79832 0.48791692
0.85639 0.6005697 1.0109334 0.46023294 0.40014476 0.68744946 0.7095396 0.5995325
0.44287032 0.6399238 0.6135811 0.38167018 0.46363685 0.52004445 0.44127223 0.35993174
0.89571196 0.4069863 0.54948705 0.34460086 0.35056672 0.5917137 0.4863693 0.72564316
0.55268466 0.7903854 0.41332668 0.47948748 0.8044396 0.5334285 0.52949834 0.3146955
0.5543578 0.4618307 0.38908637 0.8745174 0.3173156 0.9730061 0.46648508 0.30756044
0.37076592 0.73960775 0.45969734 0.84708357 0.51312596 0.37308964 0.47132313 0.37530875
0.5406701 0.77065444 0.4604945 0.70353866 0.6532034 1.0081254 0.55381596 0.7516445
0.5209879 0.8893852 0.44336045 0.7305595 0.37878895 0.44060352 0.3781692 0.5404899
0.6088313 1.0049 0.6457379 0.7768262 0.6356509 0.4295073 0.5813419 0.48585188
0.42772776 1.0061475 0.59027886 0.8870862
00000000: 6623 773f d8f5 443f 259e ce3e 600c c83e
00000010: 357e 093f 0631 093f 6a2a 493f beca 6e3f
00000020: 2491 363f 2305 1b3f f04c f53e 72d1 af3e
00000030: f537 223f 2e65 2b3f 5e9c 2e3f da77 d23e
00000040: a1ba 313f a19b 5e3f 9f21 de3e 7d40 3e3f
00000050: e600 f13e 079d 1e3f b35e 4c3f 3fd0 f93e
00000060: 603c 5b3f f0be 193f 4466 813f a7a3 eb3e
00000070: c6df cc3e b0fc 2f3f 63a4 353f f67a 193f
00000080: e6bf e23e 0cd2 233f a713 1d3f 466a c33e
00000090: cf61 ed3e a221 053f 6fee e13e f948 b83e
000000a0: 614d 653f 8260 d03e 2fab 0c3f 866f b03e
000000b0: 7b7d b33e 8d7a 173f 6605 f93e c0c3 393f
000000c0: be7c 0d3f b356 4a3f 8e9f d33e 627f f53e
000000d0: c1ef 4d3f c58e 083f 348d 073f c51f a13e
000000e0: 65ea 0d3f 1375 ec3e 5436 c73e 5fe0 5f3f
000000f0: 3177 a23e ee16 793f 22d7 ee3e 9078 9d3e
00000100: 08d5 bd3e ef56 3d3f 735d eb3e 78da 583f
00000110: 395c 033f 9b05 bf3e 4451 f13e 7828 c03e
00000120: 5b69 0a3f 9c49 453f efc5 eb3e 1c1b 343f
00000130: 5738 273f 410a 813f e2c6 0d3f c66b 403f
00000140: 775f 053f c0ae 633f 2400 e33e f305 3b3f
00000150: a0f0 c13e c996 e13e 659f c13e 8c5d 0a3f
00000160: 5edc 1b3f 90a0 803f 144f 253f 15de 463f
00000170: 04ba 223f 61e8 db3e d3d2 143f 94c1 f83e
00000180: 22ff da3e 71c9 803f 841c 173f 1518 633f

net.0.weight f4 [100, 100]
0.20328796 -0.28657007 -0.2025347 -0.20609696 0.26282746 0.18757291 -0.1720541 0.20655967
-0.07198406 -0.22637008 -0.17345646 0.15467456 0.26542032 -0.21846318 -0.206526 -0.0743585
0.24017367 0.17429209 0.026364412 -0.28597325 0.2239453 0.21762417 0.2812815 0.19329922
-0.2720577 -0.0026322077 -0.18543921 -0.23589045 0.17876159 -0.15232205 0.1259981 -0.17810349
-0.20434281 0.04568671 -0.2727331 -0.28822565 0.2907968 -0.24124877 0.17532833 -0.024433518
-0.14285523 -0.19178024 0.18477407 -0.0053866967 0.17915173 -0.14445965 0.18060859 -0.19562104
-0.22660533 -0.15846026 0.21982571 -0.16502523 -0.16197741 -0.09534683 0.25581703 0.22266291
0.19736178 0.18984157 0.24695225 -0.09699737 -0.22719184 -0.033595104 -0.25497347 0.20170443
0.3079919 -0.24440394 0.22597846 -0.17502667 -0.14776163 -0.21964967 0.23308553 -0.09479944
0.15190926 0.03499352 0.20250222 0.2192905 0.23059694 -0.15798482 0.30139762 0.20742549
0.09713816 0.25280672 -0.14747709 -0.23604625 -0.23810366 -0.12557347 0.24420252 0.17806228
0.21285962 0.0040156 -0.08808696 0.028424319 -0.26401553 0.17825364 0.26228273 -0.29476467
-0.1545365 0.23688118 -0.15871945 0.16404013 0.2643525 -0.2646366 -0.20201682 -0.16742936
0.20975348 -0.13857321 -0.2673672 0.16818795 0.14205678 -0.28034765 -0.18175526 0.2825155
-0.06334491 -0.27175808 0.09718923 -0.18561774 -0.048832938 0.19781397 -0.1958626 0.13413565
0.26182655 -0.054009218 0.25608036 -0.09239469 0.12646772 -0.10005884 -0.2080413 0.052553385
0.15525113 0.00963824 -0.008179892 0.083219744 -0.21010385 0.1084235 0.09684969 0.19661848
-0.081622064 -0.1637803 0.2618387 -0.13085984 -0.14978756 -0.24823457 -0.034203205 -0.22646187
0.029637657 0.15347683 0.20408045 -0.29047245 -0.3063693 -0.014897126 0.28882965 0.08909323
-0.22144756 -0.29161537 0.022522617 -0.0143345585 -0.12979713 0.325931 0.11808455 -0.27393693
-0.191341 -0.22875245 0.1479453 0.25711092 -0.079571255 0.21344846 -0.017342579 -0.18393162
-0.27201515 0.0381267 0.31559575 -0.2344741 0.21086726 -0.14782809 -0.12640996 -0.047208324
0.11138137 -0.12773274 -0.120847374 0.25905275 -0.16884395 0.29587737 -0.26195854 -0.18985486
0.043572605 0.17240682 -0.028662998 -0.10887744 0.29677778 -0.15396775 -0.10371585 -0.21527742
0.051935226 -0.14887753 -0.012346059 0.037163008 0.13387533 0.29708362 -0.28876328 -0.117303684
0.18752971 -0.18584464 -0.159391 -0.22459614 0.19686452 0.13600583 0.06728509 0.19394284
-0.20994973 0.08506838 -0.14948617 -0.16413876 -0.14555709 -0.19392933 -0.12274062 0.19655322
0.04654961 -0.037159156 -0.257658 -0.16534618 -0.035011016 -0.14659885 0.16202056 -0.08718713
0.19119883 0.045452945 -0.17645188 -0.21634334 0.2078756 -0.20720604 0.14912975 0.14426002
0.1139199 0.2087973 -0.055497013 -0.14426784 0.23643087 0.122264795 -0.14953882 0.198589
-0.015043013 0.15224954 0.0076187914 0.090917185 -0.1547101 -0.0825211 0.18647553 -0.012382529
0.12521335 -0.08353299 0.13999042 0.22497547 0.17287284 -0.21684165 0.21930642 -0.18232636
00000000: b82a 503e 50b9 92be 4265 4fbe 150b 53be
00000010: 5291 863e 1d13 403e f32e 30be 6184 533e
00000020: 616c 93bd 8fcd 67be 929e 31be 0263 1e3e
00000030: 2ce5 873e d0b4 5fbe 8d7b 53be 4549 98bd
00000040: 16f0 753e a079 323e 2efa d73c 166b 92be
00000050: eb51 653e dfd8 5e3e 2104 903e 3bf0 453e
00000060: 264b 8bbe 1e81 2cbb c7e3 3dbe 448d 71be
00000070: 470d 373e 50fa 1bbe a505 013e c360 36be
00000080: 3e3f 51be fd21 3b3d aca3 8bbe 5092 93be
00000090: 51e3 943e eb09 77be 4589 333e cd28 c8bc
000000a0: a448 12be 0a62 44be 6a35 3d3e e382 b0bb
000000b0: 8d73 373e 3bed 13be 75f1 383e e250 48be
000000c0: 3a0b 68be 6843 22be fe19 613e 60fc 28be
000000d0: 68dd 25be 3345 c3bd 73fa 823e bf01 643e
000000e0: 3519 4a3e d465 423e 0de1 7c3e 8fa6 c6bd
000000f0: faa4 68be 059b 09bd e28b 82be 9b8b 4e3e
00000100: 1db1 9d3e 0745 7abe e666 673e 313a 33be
00000110: d34e 17be d8eb 60be f9ad 6e3e 3526 c2bd
00000120: 1a8e 1b3e 5d55 0f3d be5c 4f3e b08d 603e
00000130: 9b21 6c3e c6c6 21be ca50 9a3e 5967 543e
00000140: 5ff0 c63d e26f 813e 3c04 17be 1cb6 71be
00000150: 72d1 73be 5596 00be 3a10 7a3e f555 363e
00000160: dff7 593e 4b95 833b f066 b4bd 1eda e83c
00000170: 0b2d 87be 1f88 363e ec49 863e 65eb 96be
00000180: d13e 1ebe fb90 723e 5a87 22be 23fa 273e
00000190: 3659 873e 737e 87be 7fdd 4ebe 9a72 2bbe
000001a0: 9ec9 563e 23e6 0dbe 5be4 88be 7639 2c3e
000001b0: 5577 113e ba89 8fbe 0d1e 3abe dfa5 903e
000001c0: faba 81bd e023 8bbe 260b c73d 9412 3ebe
000001d0: 0c05 48bd bf8f 4a3e 3590 48be db5a 093e
000001e0: 210e 863e c538 5dbd f71c 833e 6d39 bdbd
000001f0: c180 013e a6eb ccbd c708 55be 3842 573d
00000200: 27fa 1e3e b5e9 1d3c f404 06bc 1d6f aa3d
00000210: 7725 57be 240d de3d 2159 c63d 5b56 493e
00000220: 7829 a7bd 06b6 27be b90f 863e 1f00 06be
00000230: e961 19be 3431 7ebe a918 0cbd 9fe5 67be
00000240: acca f23c 0829 1d3e 77fa 503e ceb8 94be
00000250: 70dc 9cbe 1313 74bc 7be1 933e 8376 b63d
00000260: 26c3 62be 9c4e 95be 5a81 b83c 7fdb 6abc
00000270: 8ae9 04be 6ee0 a63e 50d6 f13d 7641 8cbe
00000280: e5ee 43be 153e 6abe f97e 173e 0ba4 833e
00000290: 41f6 a2bd 3c92 5a3e 0612 8ebc 9258 3cbe
000002a0: 9245 8bbe be2a 1c3d c495 a13e fa19 70be
000002b0: 96ed 573e 3f60 17be 9d71 01be 845d 41bd
000002c0: ea1b e43d 5fcc 02be d47e f7bd 90a2 843e
000002d0: 6ee5 2cbe 3d7d 973e 6e1f 86be 5069 42be
000002e0: 3079 323d 6a8b 303e aace eabc 23fb debd
000002f0: 42f3 973e b9a9 1dbe fa68 d4bd af71 5cbe
00000300: 08ba 543d 5a73 18be 2047 4abc 3d38 183d
00000310: 9d16 093e 581b 983e c8d8 93be ea3c f0bd
00000320: ca07 403e 0f4e 3ebe 6537 23be 88fc 65be
00000330: da96 493e 1d45 0b3e c4cc 893d f498 463e
00000340: 10fd 56be 5538 ae3d e712 19be fe13 28be
00000350: eb0c 15be 6995 46be 6f5f fbbd 3f45 493e
00000360: ceaa 3e3d 3334 18bd c0eb 83be 8250 29be
00000370: b667 0fbd 021e 16be b8e8 253e 2a8f b2bd
00000380: a0c9 433e de2c 3a3d cdaf 34be 1c89 5dbe
00000390: 57dd 543e d22d 54be 78b5 183e e6b8 133e
000003a0: d64e e93d f6ce 553e d650 63bd f3ba 13be
000003b0: ef1a 723e f765 fa3d b420 19be ea5a 4b3e
000003c0: f876 76bc 4ee7 1b3e 0ea7 f93b ca32 ba3d
000003d0: 536c 1ebe d300 a9bd 71f3 3e3e 17e0 4abc
000003e0: ee37 003e 5813 abbd a659 0f3e f85f 663e
000003f0: 9405 313e bd0b 5ebe dd91 603e c3b3 3abe

net.0.bias f4 [100]
-2.63052e-06 -5.418906e-06 1.2369478e-05 -6.857197e-07 1.319006e-06 4.8532283e-06 2.5518128e-07 1.7082511e-05
2.2773505e-05 5.462905e-06 1.7361566e-05 5.6149616e-05 -9.183669e-07 5.024412e-05 -8.089075e-05 3.2020085e-05
1.3270994e-05 4.1180585e-05 3.6352463e-05 -3.102099e-05 -4.799509e-05 -2.5845678e-05 -9.660963e-07 -5.102396e-05
1.3177382e-05 3.8086306e-05 -5.8879514e-06 -4.138737e-06 6.1140004e-06 -1.8884362e-05 -4.5847946e-07 -1.2623687e-05
1.6263776e-06 3.9129925e-05 5.9001144e-07 2.0598358e-05 -5.660724e-05 1.43975e-05 -5.3460484e-05 3.1137963e-05
-3.6284925e-07 8.62338e-06 2.5459607e-05 -2.78733e-05 1.2425481e-05 -1.9125602e-05 1.563605e-05 9.383633e-05
9.123547e-05 4.600927e-06 -1.6424386e-06 1.3971042e-05 -4.773245e-06 -5.0117364e-05 -1.6750142e-06 1.4686979e-05
-6.526051e-07 6.0837497e-06 7.6924494e-05 5.576218e-06 3.6188703e-06 4.0449268e-05 -3.3992285e-06 -9.3940264e-07
2.6734547e-06 1.79047e-05 7.2899165e-06 -5.1421466e-06 -9.037851e-06 6.717953e-05 -2.5489942e-05 4.944224e-05
-7.518042e-06 -6.573859e-05 -1.3216521e-05 1.5853953e-05 7.0957576e-06 -5.0590975e-06 -3.847484e-05 1.6572025e-05
-1.0588007e-05 -1.6627915e-05 -1.4969092e-05 -4.140845e-06 -7.96646e-06 2.1815715e-05 0.00010938151 2.9782386e-05
-0.00017037957 9.272711e-06 -5.5536216e-06 -0.00012419137 -7.4956144e-05 1.5698162e-05 -7.998983e-06 -5.636081e-05
1.5652076e-05 1.8647825e-05 -3.2365372e-06 3.9341257e-06
00000000: fd87 30b6 0cd4 b5b6 8186 4f37 4d12 38b5
00000010: b308 b135 ead8 a236 d9ff 8834 6a4c 8f37
00000020: bb09 bf37 ff4d b736 aea3 9137 3182 6b38
00000030: b185 76b5 37bd 5238 e4a3 a9b8 4e4d 0638
00000040: 7ca6 5e37 51b9 2c38 2979 1838 891c 02b8
00000050: 564e 49b8 2ccf d8b7 d1aa 81b5 8f02 56b8
00000060: 6d14 5d37 dcbe 1f38 1e91 c5b6 7bdf 8ab6
00000070: dd26 cd36 dc69 9eb7 f024 f6b4 53ca 53b7
00000080: e949 da35 701f 2438 4761 1e35 a3ca ac37
00000090: 906d 6db8 cb8c 7137 c23a 60b8 229a 0238
000000a0: 9fcd c2b4 23ad 1037 1792 d537 75d1 e9b7
000000b0: 0977 5037 eb6f a0b7 292a 8337 ffc9 c438
000000c0: ac55 bf38 a961 9a36 c371 dcb5 2b65 6a37
000000d0: dd29 a0b6 1c35 52b8 0dd1 e0b5 1868 7637
000000e0: ae2e 2fb5 0323 cc36 8652 a138 591b bb36
000000f0: b8db 7236 12a8 2938 4d1e 64b6 422b 7cb5
00000100: 9a69 3336 0d32 9637 e89b f436 b48a acb6
00000110: 46a1 17b7 bce2 8c38 3cd3 d5b7 3360 4f38
00000120: 7d43 fcb6 23dd 89b8 87bc 5db7 1bfe 8437
00000130: 1818 ee36 51c1 a9b6 0b60 21b8 2704 8b37
00000140: 25a3 31b7 2d7c 8bb7 c323 7bb7 96f1 8ab6
00000150: afa7 05b7 e400 b737 c063 e538 30d5 f937
00000160: eba7 32b9 fe91 1b37 3f59 bab6 5e39 02b9
00000170: c631 9db8 8caf 8337 5f33 06b7 f564 6cb8
00000180: 944c 8337 e66d 9c37 4933 59b6 e201 8436

net.1.weight f4 [100]
0.1906301 0.45348406 0.39125025 0.5697304 0.09336714 0.20604892 0.4940838 0.4342718
0.3125615 0.49269304 0.3480753 0.27098462 0.29975805 0.6314021 0.6660081 0.64742595
0.42687026 0.66545933 0.414493 0.47139212 0.31322372 0.41745082 0.32627785 0.44350338
0.48414972 0.5505326 0.52948093 0.31839782 0.10505369 0.4660199 0.31169558 0.097244844
0.33110777 0.35050094 0.41386238 0.47290912 0.27767566 0.4720374 0.36057928 0.17981848
0.19948073 0.16462214 0.4199011 0.25054568 0.040876165 0.4103125 0.38682342 0.7017874
0.2016292 0.32559517 0.19831412 0.32688344 0.16807052 0.45317966 0.06240756 0.34417677
0.041456908 0.19722016 0.5741652 0.31796604 0.19035706 0.40054744 0.50421464 0.25166377
0.3051546 0.537378 0.3787282 0.12733254 0.34593433 0.4318179 0.50441265 0.6517844
0.5713675 0.22871605 0.46789452 0.3669701 0.2168256 0.4053504 0.3740246 0.52780914
0.25081143 0.35489106 0.17332233 0.16673793 0.39366764 0.70138586 0.61408085 0.37737533
0.4131241 0.44439155 0.640461 0.40576664 0.44308504 0.34095803 0.71811646 0.52208894
0.21814914 0.267825 0.112920225 0.28579605
00000000: 8934 433e 102f e83e f451 c83e dad9 113f
00000010: 4537 bf3d 7dfe 523e 8df8 fc3e e058 de3e
00000020: 1008 a03e 4342 fc3e ed36 b23e 7fbe 8a3e
00000030: e379 993e 91a3 213f 827f 2a3f b5bd 253f
00000040: bd8e da3e 8b5b 2a3f 6d38 d43e 4f5a f13e
00000050: dc5e a03e 1dbc d53e e40d a73e e012 e33e
00000060: 79e2 f73e b4ef 0c3f 108c 073f 0a05 a33e
00000070: 6426 d73d 299a ee3e 9096 9f3e 4e28 c73d
00000080: f586 a93e dc74 b33e c5e5 d33e 2521 f23e
00000090: 812b 8e3e e3ae f13e d99d b83e 5622 383e
000000a0: ad44 4c3e b592 283e 47fd d63e 8647 803e
000000b0: c46d 273d 7b14 d23e b80d c63e 57a8 333f
000000c0: e377 4e3e 69b4 a63e db12 4b3e 445d a73e
000000d0: ae1a 2c3e 2a07 e83e 129f 7f3d f037 b03e
000000e0: b8ce 293d 15f4 493e 7efc 123f 72cc a23e
000000f0: f6ec 423e 8e14 cd3e 3614 013f 13da 803e
00000100: 393d 9c3e 9b91 093f aae8 c13e 7663 023e
00000110: 4e1e b13e 3c17 dd3e 3021 013f 58db 263f
00000120: 2445 123f 8a34 6a3e df8f ef3e 81e3 bb3e
00000130: 8807 5e3e 168a cf3e 2780 bf3e 801e 073f
00000140: 5b6a 803e 48b4 b53e 697b 313e 59bd 2a3e
00000150: ce8e c93e 068e 333f 6734 1d3f 5737 c13e
00000160: 0185 d33e 4a87 e33e 41f5 233f a5c0 cf3e
00000170: 0bdc e23e 0d92 ae3e 7bd6 373f 9fa7 053f
00000180: 7d62 5f3e 5c20 893e b842 e73d dc53 923e

net.1.bias f4 [100]
0.29168937 0.026227273 0.059492573 0.18149807 0.05557039 -0.048385404 -0.070827246 0.21160348
-0.028572494 0.118624896 0.017308028 0.07448379 0.19421105 -0.04400024 -0.0108823795 0.2244347
0.025655616 0.2408297 0.07911147 0.21680856 0.09844618 0.112479985 -0.03312352 0.048811868
0.06892951 0.27170947 0.18941079 -0.056944806 -0.055285722 0.0071389284 0.23972243 -0.068021536
0.004247362 0.049002826 0.09964773 -0.0021703762 0.029105218 0.2926508 0.017051682 0.030576266
0.090974234 -0.0303955 -0.013896763 -0.03634833 0.12998907 0.07008502 -0.06026232 0.042251103
0.00097297283 0.11991612 -0.03600079 0.21550998 -0.03273772 -0.0066560004 -0.01752843 0.030038122
0.070496894 0.16776511 0.08766062 -0.073220246 -0.058537774 0.069544636 0.08198225 -0.006523217
0.2740101 0.071171835 0.23532292 0.014711185 0.20425461 -0.008112255 -0.04913029 0.20786566
0.15616505 -0.00731435 0.03587961 0.3311411 0.0012328314 0.035052255 0.23078932 -0.051427495
-0.039848633 0.089001454 -0.117618285 0.117009014 0.2771989 0.102649696 0.011069141 0.03362085
-0.041097287 0.07203768 0.03851703 -0.01635719 0.0826418 -0.04136008 0.18241021 0.1244921
-0.06274279 0.097952046 -0.025629489 -0.021748368
00000000: 4f58 953e 94da d63c 7cae 733d a1da 393e
00000010: c79d 633d c62f 46bd e00d 91bd 95ae 583e
00000020: dd10 eabc 9cf1 f23d 91c9 8d3c f58a 983d
00000030: 43df 463e 9839 34bd 024c 32bc 36d2 653e
00000040: ba2b d23c 109c 763e 3205 a23d 1003 5e3e
00000050: 279e c93d e85b e63d 87ac 07bd f4ee 473d
00000060: ea2a 8d3d 811d 8b3e e7f4 413e f53e 69bd
00000070: 4873 62bd aced e93b cc79 753e e04e 8bbd
00000080: 742d 8b3b 30b7 483d 1c14 cc3d df3c 0ebb
00000090: 116e ee3c 53d6 953e f8af 8b3c 147b fa3c
000000a0: b350 ba3d fcff f8bc 40af 63bc fde1 14bd
000000b0: db1b 053e bc88 8f3d 9fd5 76bd 7e0f 2d3d
000000c0: 1a0f 7f3a 9596 f53d 9075 13bd a6ae 5c3e
000000d0: fd17 06bd 941a dabb c897 8fbc 8212 f63c
000000e0: ad60 903d 9eca 2b3e 6987 b33d 7ff4 95bd
000000f0: 4ec5 6fbd 6b6d 8e3d 4fe6 a73d b6c0 d5bb
00000100: 0d4b 8c3e 8ac2 913d 7ef8 703e 2f07 713c
00000110: 1f28 513e 43e9 04bc d83c 49bd bcda 543e
00000120: bbe9 1f3e 37ad efbb 7ff6 123d 548b a93e
00000130: f596 a13a f492 0f3d 0954 6c3e a3a5 52bd
00000140: 5238 23bd 6546 b63d dbe1 f0bd 6ca2 ef3d
00000150: 04ed 8d3e 013a d23d 585b 353c 04b6 093d
00000160: a155 28bd 7e88 933d 09c4 1d3d 84ff 85bc
00000170: 1b40 a93d 3069 29bd bec9 3a3e b7f5 fe3d
00000180: 4b7f 80bd 159b c83d eff4 d1bc a229 b2bc

net.1.running_mean f4 [100]
0.047003828 -0.059075017 -0.06321819 0.19259533 0.07644906 -0.16410895 0.11651914 -0.027289134
-0.14056268 0.07821354 -0.16970156 0.13043725 0.023540888 -0.038842935 -0.07068033 0.20516145
-0.122808166 0.03998089 -0.14593086 -0.1443507 -0.04855401 -0.21469888 -0.015517629 -0.117119916
-0.079995245 0.08129077 -0.038704276 0.06440082 0.06626269 -0.09996726 0.1179356 -0.037336335
0.057065435 -0.10295356 -0.17803724 0.18532684 -0.17564698 -0.04772995 0.059852526 0.12742038
0.054121375 -0.11531638 -0.19392233 0.030174768 0.02878154 -0.031782348 0.10838135 -0.04842904
-0.091372445 0.062395386 -0.009033857 0.09605663 -0.11362283 0.12496973 -0.06422301 0.19195506
-0.052001003 0.107692525 0.17183886 -0.0031292234 -0.15985468 0.040426955 0.076054215 -0.16076516
0.016497403 0.09175925 -0.030331958 -0.03779919 -0.011081074 0.08509861 -0.14003779 -0.130915
0.0009646931 -0.13208789 -0.10238494 -0.052412093 -0.053043358 -0.08364029 0.10285123 0.07328619
-0.15149371 0.048075672 -0.12605463 -0.14593449 0.017374279 -0.1263424 0.08106893 0.085815355
-0.1367054 -0.15678386 0.15914798 0.026826534 0.05901298 -0.05150914 0.09376757 -0.18356715
-0.08400896 -0.017342497 -0.037935115 -0.18574433
00000000: 1687 403d a5f8 71bd 8a78 81bd b637 453e
00000010: 5391 9c3d 2d0c 28be 96a1 ee3d 768d dfbc
00000020: aaef 0fbe 6c2e a03d 3fc6 2dbe 5891 053e
00000030: d2d8 c03c c519 1fbd d9c0 90bd d815 523e
00000040: d982 fbbd 00c3 233d e66e 15be abd0 13be
00000050: 92e0 46bd 06da 5bbe a73d 7ebc 91dc efbd
00000060: 8cd4 a3bd c67b a63d 6088 1ebd 94e4 833d
00000070: bcb4 873d a3bb ccbd 3888 f13d fced 18bd
00000080: 72bd 693d 51d9 d2bd 654f 36be 52c6 3d3e
00000090: cddc 33be 7b80 43bd ec27 753d 7d7a 023e
000000a0: 60ae 5d3d ff2a ecbd 9393 46be 1331 f73c
000000b0: 44c7 eb3c 352e 02bd 0bf7 dd3d 875d 46bd
000000c0: 7a21 bbbd 4e92 7f3d be02 14bc 57b9 c43d
000000d0: 16b3 e8bd 21f0 ff3d 5a87 83bd de8f 443e
000000e0: 01ff 54bd e68d dc3d 87f6 2f3e a813 4dbb
000000f0: f2b0 23be bc96 253d 50c2 9b3d 9f9f 24be
00000100: 9025 873c 46ec bb3d ba7a f8bc 53d3 1abd
00000110: 658d 35bc 2e48 ae3d 1166 0fbe 950e 06be
00000120: 75e3 7c3a 0c42 07be 32af d1bd 10ae 56bd
00000130: fe43 59bd 9a4b abbd aaa3 d23d 1217 963d
00000140: 2b21 1bbe ffea 443d 7714 01be da6f 15be
00000150: 8154 8e3c e75f 01be 7807 a63d f6bf af3d
00000160: 80fc 0bbe f38b 20be b0f7 223e 52c3 db3c
00000170: 98b7 713d 3ffb 52bd 3609 c03d 07f9 3bbe
00000180: e40c acbd da11 8ebc da61 1bbd c333 3ebe
