FarconVAE/result_yaleb/yaleb_downstream_y_2023_05_01_18_15_38_876998_ours.pth.pt (torch, 16423 bytes, 2 tensors)

layer.weight f4 [38, 100]
0	0x3e0289e4	0.12747914
1	0xbe0a6090	-0.13513398
2	0xbd55d69c	-0.05220662
3	0xbe2ec8e9	-0.17068829
4	0x3d80ba5d	0.06285546
5	0xbe073b9b	-0.13206331
6	0xbd686d4e	-0.056744866
7	0xbdfc96ff	-0.12333488
8	0xbe4b1d30	-0.19835353
9	0x3d1afffc	0.037841782
10	0xbd73fc61	-0.05956686
11	0x3d878654	0.06617418
12	0x3e6a1ff9	0.22863759
13	0x3e0b9eda	0.13634816
14	0xbd7464fe	-0.059666626
15	0xbe8cb495	-0.27481523
16	0x3d84c460	0.06482768
17	0x3e529547	0.20564757
18	0x3d3f08ed	0.04663937
19	0xbab94f82	-0.0014138075
20	0xbe034af3	-0.1282156
21	0xbd58172e	-0.05275648
22	0xbcf0a8c2	-0.029377345
23	0xbdfdb52b	-0.12388071
24	0xbc9260e9	-0.017868476
25	0xbd6a4b57	-0.057200756
26	0xbdc4abba	-0.09603067
27	0x3e33610e	0.17517492
28	0xbe48b73a	-0.19601145
29	0x3ddbbe27	0.10729628
30	0x3e2aad2b	0.16667621
31	0xbe8e5005	-0.27795425
32	0x3e123379	0.14277448
33	0xbdb26287	-0.08710199
34	0xbe246216	-0.16053042
35	0xbe0c242c	-0.13685673
36	0xbe3584ea	-0.17726484
37	0xbe0db89d	-0.13839956
38	0xbe0b69a5	-0.13614519
39	0x3e2e5390	0.17024064
40	0x3d0c1a09	0.034204517
41	0x3e023517	0.12715565
42	0x3d823a80	0.06358814
43	0x3e814cf9	0.25254038
44	0x3df3f41d	0.11911795
45	0xbdc5d0f5	-0.09658996
46	0x3d75e005	0.060028095
47	0xbcff75da	-0.031184126
48	0xbc8efbb7	-0.017454011
49	0x3e77bcb8	0.24193084
50	0xbd8e855d	-0.06959031
51	0xbe6cf0c3	-0.23138718
52	0xbe723239	-0.23651971
53	0xbdf94b13	-0.121725224
54	0x3b92aef5	0.004476423
55	0x3e4cbbd2	0.19993523
56	0x3e3f7646	0.18697461
57	0x3e44d2b3	0.19221
58	0x3dccfa2d	0.10008655
59	0xbdf4fc38	-0.119621694
60	0xbe3b0e8a	-0.18267265
61	0xbe084503	-0.13307576
62	0x3e64918a	0.22321144
63	0xbe4b8241	-0.19873907
64	0x3e3e60a0	0.18591547
65	0xbdd1f9a9	-0.10252697
66	0x3e5e65c7	0.21718512
67	0x3dc83c17	0.09777086
68	0xbd5e5641	-0.054281477
69	0x3cfa88f8	0.03058289
70	0x3e1d47e7	0.1535946
71	0x3e7cc879	0.24685849
72	0x3d11c4c3	0.035588037
73	0x3e63836a	0.22218099
74	0x3e158dbf	0.14604853
75	0x3e18dd9f	0.14928292
76	0xbe0821a4	-0.13294083
77	0x3e7766cf	0.24160312
78	0xbe078727	-0.1323515
79	0x3d002a00	0.031290054
80	0xbe2ebb57	-0.17063652
81	0x3c27dafe	0.010245083
82	0xbe8f6e3b	-0.28013787
83	0xbda0421a	-0.07825108
84	0x3e4b3fb3	0.19848518
85	0xbe061c1f	-0.13096665
86	0x3ea6bff2	0.32568318
87	0xbe563308	-0.20917904
88	0x3d49756d	0.04918425
89	0xbe73d227	-0.23810636
90	0xbe85038b	-0.25979266
91	0x3e3f426c	0.18677682
92	0x3d8f2d59	0.06991071
93	0xbe1f688e	-0.15567228
94	0x3cf49d49	0.029860156
95	0xbdc288a8	-0.09498721
96	0xbcf4b7fb	-0.029872885
97	0xbdc4a566	-0.0960186
98	0x3e2ea30a	0.17054382
99	0x3e3b9fd1	0.18322684
100	0xbde53cfc	-0.111932725
101	0xbe1e667e	-0.15468785
102	0xbdd0f998	-0.10203856
103	0xbdf9cc26	-0.12197141
104	0x3e41cb8b	0.18925302
105	0xbdff55e3	-0.124675535
106	0xbe5b324b	-0.21405904
107	0xbe70eae0	-0.23527098
108	0xbda43a77	-0.08018964
109	0x3e58c15f	0.21167515
110	0x3dbc3759	0.09190244
111	0x3dae5afc	0.08513448
112	0x3e512ab4	0.20426446
113	0xbdb8986f	-0.090134494
114	0xbdee405e	-0.11633371
115	0x39537dd4	0.00020169403
116	0xbe80c690	-0.2515149
117	0x3da742e9	0.08167059
118	0x3e32b28c	0.17450923
119	0xbd10c4cf	-0.03534394
120	0x3e63e3d0	0.22254872
121	0x3d47b184	0.048753276
122	0x3d15ea65	0.03660049
123	0xbdbd71b7	-0.09250205
124	0xbcf876fe	-0.030330177
125	0x3d0fadb2	0.035077758
126	0xbdecd52b	-0.11564096
127	0xbd6ec027	-0.05828872
128	0xbe594db3	-0.21221046
129	0xbe073f91	-0.13207842
130	0x3e53e9d0	0.20694661
131	0x3e897eff	0.26854703
132	0xbe1c3c81	-0.15257455
133	0xbe047128	-0.1293379
134	0x3e5936c1	0.21212293
135	0x3dc6b2cd	0.09702072
136	0x3e211158	0.15729272
137	0xbda4904f	-0.08035337
138	0x3da5adfa	0.08089824
139	0xbe0f9271	-0.14020707
140	0xbe28758c	-0.1645109
141	0x3e38f3c3	0.18061738
142	0xbdf327e9	-0.11872847
143	0x3e277c16	0.16355929
144	0x3e59373a	0.21212474
145	0xbda6d19f	-0.08145451
146	0xbbf70ce1	-0.007539377
147	0xbe7e1062	-0.24810937
148	0x3e4669a1	0.19376232
149	0xbe8b18fc	-0.271675
150	0x3dea21b9	0.11432213
151	0xbc89fc1a	-0.016843844
152	0x3e02ccb7	0.12773405
153	0xbddf86d0	-0.10914385
154	0xbdc2919a	-0.095004275
155	0xbe5e4cda	-0.21709004
156	0xbe16a132	-0.14709929
157	0x3e10f877	0.14157282
158	0x3d2769b9	0.04087231
159	0xbe6aaf54	-0.22918445
160	0x3e63dae6	0.22251472
161	0xbda187fd	-0.07887266
162	0xbd91f242	-0.07126285
163	0xbd004758	-0.03131804
164	0x3e30fffa	0.17285147
165	0xbdb1655a	-0.086619094
166	0xbe6c608e	-0.23083708
167	0x3e542730	0.20718074
168	0x3e5ff63f	0.21871279
169	0x3e69e69f	0.22841881
170	0x3ce67375	0.028131226
171	0x3dc0c9ee	0.09413515
172	0xbd1fa0be	-0.038971655
173	0x3d5bff56	0.053710304
174	0xbe3145e7	-0.17311822
175	0xbe343fb3	-0.17602424
176	0xbe50b7af	-0.2038257
177	0xbe317210	-0.17328668
178	0xbe34cacb	-0.17655484
179	0x3e0c0f9d	0.13677831
180	0x3e27b2ab	0.1637675
181	0x3e997595	0.2997252
182	0x3e2a1da9	0.16612877
183	0xbe8fc911	-0.2808309
184	0x3e45eb3a	0.19328013
185	0xbe0425e2	-0.12905076
186	0xbe11a15b	-0.14221708
187	0x3cdd08e7	0.026981784
188	0xbcc4e3ae	-0.024034347
189	0xbe67f021	-0.22650196
190	0x3e0d73a0	0.13813639
191	0x3e51dbfa	0.2049407
192	0xbe0354ff	-0.12825392
193	0xbe4cba48	-0.19992936
194	0xbcc6fb2b	-0.024289688
195	0xbdbb5e94	-0.09148899
196	0x3e55c84c	0.20877188
197	0xbe548c05	-0.20756538
198	0x3d09d1cf	0.033647355
199	0x3c3f81e2	0.011688681
200	0xbe77f928	-0.2421614
201	0x3e342ad9	0.1759447
202	0xbe50231a	-0.2032589
203	0xbe638d9a	-0.22221985
204	0xbe3d4981	-0.18485071
205	0x3d03ce15	0.032178957
206	0xbcd64352	-0.026155148
207	0xbe41e3f0	-0.18934608
208	0xbe26dc4f	-0.16294979
209	0x3e032f67	0.12811051
210	0x3c8c8b19	0.01715617
211	0xbe71a5cc	-0.23598403
212	0xbe280303	-0.16407399
213	0xbc091f07	-0.008369214
214	0x3d11c4f6	0.035588227
215	0x3e8c6c85	0.27426544
216	0x3d970cd0	0.07375491
217	0x3e0eb8c9	0.13937677
218	0x3d96dc68	0.07366258
219	0x3c9dc368	0.019258216
220	0x3d850f76	0.064970896
221	0x3b4409fd	0.002991318
222	0x3e2e4cfb	0.17021553
223	0x3e5da1ea	0.21643797
224	0xbe568409	-0.20948805
225	0xbd85fbe8	-0.06542188
226	0x3dce4b73	0.100729845
227	0x3d47b5f2	0.0487575
228	0xbde686f6	-0.112562105
229	0x3c54c944	0.012987439
230	0xbce5695d	-0.028004343
231	0x3de1855d	0.11011765
232	0xbe09ce27	-0.13457547
233	0x3d25420c	0.04034619
234	0xbe330a4a	-0.17484394
235	0xbe171ee6	-0.1475788
236	0x3e563ebb	0.20922367
237	0x3d42d0c0	0.04756236
238	0x3e07db56	0.13267264
239	0x3e323c80	0.17405891
240	0x3d409402	0.04701615
241	0xbe00e4e9	-0.12587322
242	0x3d22e423	0.03976835
243	0x3df1788d	0.11790571
244	0x3bde2243	0.0067789867
245	0x3e45308c	0.192568
246	0x3c0e1cef	0.0086738905
247	0xbd7daa22	-0.06192983
248	0xbd574297	-0.05255374
249	0x3e4a7015	0.19769318
250	0xbcf11a75	-0.029431561
251	0x3e8aafca	0.2708724
252	0xbe47c883	-0.19510083
253	0xbe09aa7c	-0.13443941
254	0xbdec1ba3	-0.11528709
255	0x3e0ee6d9	0.13955249

layer.bias f4 [38]
0	0xba8ad71f	-0.0010592676
1	0x3bb644b3	0.005562389
2	0xbb9e7246	-0.0048354
3	0xbd3a0a88	-0.0454202
4	0x3c11e5d9	0.008904898
5	0x3d1df6fe	0.03856563
6	0x3d3f098a	0.046639957
7	0xbcf86af7	-0.030324442
8	0x3b3bcc5f	0.002865575
9	0xbb070bd9	-0.0020606427
10	0x3dbca4f9	0.092111535
11	0xbc8502dc	-0.016236715
12	0x3c55e099	0.013054037
13	0x3b45947a	0.0030148313
14	0xbcc1a644	-0.023638852
15	0xbd08aebd	-0.03336977
16	0xbd5e34c1	-0.05424953
17	0x3c519af1	0.012793289
18	0x3b8baf2a	0.0042628245
19	0x3d81ebd4	0.06343809
20	0x3d09d545	0.033650655
21	0xbc061fa7	-0.008186257
22	0x3c25914c	0.010105442
23	0x3c237350	0.009976223
24	0xbd4f71aa	-0.050645508
25	0x38e736b2	0.00011025126
26	0xbc7db7d8	-0.015485726
27	0xbd37c4e5	-0.044865508
28	0xbc9da64c	-0.019244336
29	0x3d7fce0b	0.062452357
30	0xbccb9488	-0.024851099
31	0xbbf9653b	-0.0076109446
32	0x3d0d372e	0.03447645
33	0x3ced003a	0.028930772
34	0xbd0d2073	-0.034454774
35	0xbc24f217	-0.010067484
36	0xbcec6178	-0.02885507
37	0xbccfc8e2	-0.025364343
