FarconVAE/result_yaleb/yaleb_downstream_y_2023_05_01_16_45_24_848831_ours.pth.pt (torch, 16423 bytes, 2 tensors)

layer.weight f4 [38, 100]
0	0xbe557851	-0.20846678
1	0xbdb5d1be	-0.08877896
2	0x3dc4a7b7	0.096023016
3	0x3e42866c	0.1899659
4	0xbd648f2e	-0.05580061
5	0xbdefb742	-0.117048755
6	0x3e65faec	0.22459
7	0x3dd62232	0.10455741
8	0x3d9e8ef7	0.07742112
9	0xbddf79c6	-0.10911898
10	0x3e574eef	0.21026205
11	0xbe0653e8	-0.13117945
12	0x3e187186	0.14887056
13	0xbe391683	-0.18074994
14	0xbd8b8edf	-0.0681436
15	0x3d6a73e6	0.057239436
16	0xbe8ddc86	-0.2770731
17	0xbe33b26e	-0.17548534
18	0x3e58b6c4	0.2116347
19	0x3e873e85	0.26414886
20	0x3e299f13	0.16564588
21	0x3871da57	5.7662222e-05
22	0xbdea2dc9	-0.11434514
23	0x3e0df969	0.13864674
24	0x3e323354	0.17402393
25	0xbe17136e	-0.14753506
26	0x3e2da51a	0.16957512
27	0xbde614c0	-0.112344265
28	0xbe4e5e24	-0.201531
29	0xbde20245	-0.11035589
30	0x3e151e39	0.1456231
31	0xbe04b69d	-0.12960286
32	0x3e164de4	0.1467815
33	0xbe85c1c8	-0.26124406
34	0x3e16abda	0.14713994
35	0xbe3ad053	-0.18243532
36	0xbe215666	-0.15755615
37	0xbe72618e	-0.23670027
38	0x3d88081e	0.06642173
39	0x3cc5468b	0.02408149
40	0x3beb7466	0.0071855066
41	0xbd8b0a7a	-0.067891076
42	0xbe62456e	-0.22096798
43	0xbe401f46	-0.1876193
44	0x3e923372	0.28554875
45	0xbd9d66ba	-0.07685609
46	0xbe0600da	-0.13086262
47	0x3e71dc73	0.23619251
48	0xbe2bcdcf	-0.16777728
49	0xbdfb74f4	-0.122781664
50	0xbdfa62b2	-0.12225856
51	0xbe0859b1	-0.13315465
52	0x3c18288f	0.009287014
53	0x3dd4aa58	0.10384053
54	0xbe3511da	-0.17682591
55	0xbe1a8e2b	-0.15093295
56	0xbdf35afe	-0.1188259
57	0xbd1cd150	-0.038285553
58	0xbe0f47eb	-0.13992278
59	0xb7ee4f3c	-2.8408707e-05
60	0xbe7fd605	-0.24983986
61	0x3e0b613b	0.13611309
62	0xbe27ad83	-0.16374783
63	0xbd566e8e	-0.052351527
64	0xbc2f95bb	-0.010716851
65	0xbdb0a803	-0.08625796
66	0x3c91f89c	0.017818742
67	0xbe17c1b6	-0.14819989
68	0x3e0e15a8	0.13875449
69	0x3dd6ed54	0.104944855
70	0xbdb0e3ed	-0.086372234
71	0xbdc58aad	-0.09645591
72	0xbdf6519e	-0.12027286
73	0xbe031cc6	-0.12803945
74	0xbce7499e	-0.028233346
75	0xbe0e497b	-0.13895218
76	0x3e476840	0.19473362
77	0x3e2ad522	0.16682866
78	0x3e670d3d	0.22563644
79	0xbe301377	-0.17194925
80	0x3e1cb88c	0.15304774
81	0xbe6d95e2	-0.23201707
82	0xbd3609dd	-0.044443
83	0xbda499d1	-0.08037151
84	0x3e1f6d03	0.15568928
85	0x3da6433e	0.08118294
86	0xbe13e291	-0.14441897
87	0xbdc2b972	-0.09508027
88	0x3e1d6e89	0.15374197
89	0x3dfa9ed6	0.12237327
90	0x3e39bad6	0.18137679
91	0x3e2c412a	0.16821733
92	0xbe32891e	-0.17435119
93	0xbe4ebcf9	-0.20189275
94	0xbdeba5ab	-0.11506208
95	0x3d9f5a83	0.077809356
96	0x3e81a866	0.2532379
97	0xbe028aac	-0.12748212
98	0xbe019339	-0.12653817
99	0xbe0124a5	-0.12611635
100	0x3e0f2b79	0.13981427
101	0xbe23a48c	-0.15980738
102	0x3ced0fe1	0.028938236
103	0x3e462132	0.193486
104	0xbde8f766	-0.113753125
105	0x3df592e4	0.11990908
106	0xbd83f430	-0.064430594
107	0xbd5f6a98	-0.054545015
108	0x3e87ce47	0.26524565
109	0xbe5d9da3	-0.21642165
110	0x3e78a75a	0.2428259
111	0xbd0235b0	-0.03178948
112	0x3e085916	0.13315234
113	0xbe19ad7e	-0.15007588
114	0x3e2eee63	0.17083125
115	0x3da82274	0.082096964
116	0xbe4996a8	-0.19686377
117	0xbe1520ee	-0.14563343
118	0x3d6efb96	0.0583454
119	0xbe4b7b42	-0.19871238
120	0xbe52e835	-0.20596392
121	0xbd9ed600	-0.07755661
122	0xbe5033b8	-0.20332229
123	0xbd3b894f	-0.045785245
124	0x3e1b5457	0.15168892
125	0x3db9ce79	0.09072585
126	0xbe0b6b73	-0.13615207
127	0xbdaf4b1a	-0.08559246
128	0xbe058f52	-0.13042954
129	0x3d0ec189	0.03485254
130	0x3e51df70	0.20495391
131	0xbd2bf2dd	-0.04197966
132	0x3e8d84f2	0.27640492
133	0x3e52a67e	0.20571324
134	0x3de63672	0.11240853
135	0x3cfe3014	0.031028785
136	0xbba367b3	-0.004986727
137	0x3e6c4804	0.23074347
138	0xbe0c2d4b	-0.13689153
139	0xbe218dbc	-0.15776724
140	0xbd39f8c1	-0.045403246
141	0xbd323e57	-0.043516483
142	0xbe6356af	-0.22201036
143	0xbe01e16d	-0.1268365
144	0x3e11de46	0.14244947
145	0xbcc6904b	-0.024238726
146	0x3e29141c	0.16511577
147	0x3d8da568	0.06916314
148	0x3c03b182	0.008037927
149	0x3ddeb1de	0.10873769
150	0x3a6bdb1f	0.000899719
151	0xbd0c12c8	-0.0341976
152	0xbbf2adde	-0.0074059805
153	0xbe0b639c	-0.13612217
154	0xbddb2cfe	-0.10701941
155	0xbc909367	-0.017648412
156	0x3ddfeca7	0.1093381
157	0xbb6c4a07	-0.0036054866
158	0x3e96c19b	0.29444584
159	0xbe6a7c90	-0.2289908
160	0x3e7ba963	0.24576335
161	0xbe190d2d	-0.14946432
162	0x3e0c05c2	0.13674071
163	0x3e6ff860	0.23434591
164	0xbcf88a7f	-0.030339478
165	0xbe15e6b3	-0.14638786
166	0x3e0c7d55	0.13719685
167	0x3c1b5535	0.009480764
168	0x3dbd9926	0.09257726
169	0xbe103a91	-0.14084841
170	0x3e04575f	0.12923954
171	0x3e9997aa	0.29998523
172	0xbcc0880f	-0.023502378
173	0x3bbad852	0.005702057
174	0xbd9cb586	-0.0765181
175	0x3e737024	0.23773247
176	0xbd94030c	-0.07227144
177	0x3e04d668	0.12972414
178	0xbe318965	-0.17337568
179	0xbdbc4fbd	-0.09194896
180	0xbe344bde	-0.17607066
181	0x3e83f7fc	0.25775135
182	0xbe441e4a	-0.1915218
183	0xbd4fa3b1	-0.050693218
184	0xbe78ec57	-0.24308906
185	0xbd0504c5	-0.03247525
186	0xbe85174e	-0.25994343
187	0x3e35e56b	0.17763297
188	0xbe37f959	-0.17966212
189	0x3d27596c	0.040856764
190	0xbe5d9fcc	-0.21642989
191	0x3d68714f	0.056748684
192	0xbe8bb656	-0.2728755
193	0xbd94481a	-0.07240315
194	0xbe18cde6	-0.14922294
195	0xbd86b600	-0.065776825
196	0x3e3e8792	0.18606403
197	0x3e4fd9f3	0.20297985
198	0xbde835cc	-0.11338386
199	0xbdf91a31	-0.12163199
200	0x3e101713	0.14071302
201	0xbdcf58e4	-0.101243764
202	0xbe1855b7	-0.14876448
203	0xbd0ee09e	-0.03488218
204	0x3dfeb8a3	0.124375604
205	0xbddfbecf	-0.10925066
206	0xbe82866b	-0.25493178
207	0xbc8ab21b	-0.01693063
208	0xbe803954	-0.25043738
209	0xbe0b8449	-0.13624682
210	0x3e3c034a	0.1836063
211	0x3e1d22f0	0.15345359
212	0x3d8d3e59	0.068966575
213	0x3d239b02	0.03994275
214	0xba628aee	-0.0008641918
215	0x3d5daed8	0.054121822
216	0xbe2c1b5b	-0.1680731
217	0x3dcfafb6	0.10140936
218	0xbe3e3b28	-0.18577254
219	0xbe04e447	-0.12977706
220	0xbd92f5a3	-0.07175758
221	0x3e339675	0.17537864
222	0x3db0cbc2	0.08632614
223	0xbdabac69	-0.08382494
224	0x3c517a93	0.012785572
225	0xbd4fc8a5	-0.05072846
226	0x3e3da56a	0.18520132
227	0xbe29962a	-0.1656119
228	0x3e1c084c	0.1523754
229	0x3e1a58f9	0.15073003
230	0xbda2bfea	-0.07946761
231	0xbe70833a	-0.23487559
232	0x3e8500a9	0.25977066
233	0xbc3a28df	-0.0113622835
234	0x3df636a2	0.12022139
235	0xbdc74223	-0.097294115
236	0xbd8245a7	-0.063609414
237	0xbe462132	-0.193486
238	0x3df2da57	0.11858051
239	0xbe24332d	-0.16035147
240	0x3dae1bf7	0.085014276
241	0xbe053b3d	-0.13010879
242	0xbd22614d	-0.039643575
243	0xbe05085b	-0.12991469
244	0xbe7181d4	-0.23584682
245	0x3e13a447	0.14418136
246	0x3e0b9955	0.1363271
247	0xbe510fde	-0.20416209
248	0xbbed83aa	-0.0072483616
249	0xbe037e40	-0.1284113
250	0x3e33d092	0.17560032
251	0x3d5e667a	0.054296948
252	0xbda74465	-0.08167342
253	0x3e16a079	0.14709653
254	0x3e782f45	0.24236782
255	0x3d907252	0.07053055

layer.bias f4 [38]
0	0xbd6bd3c1	-0.05757499
1	0xbcf5dcd7	-0.030012531
2	0x3b84f079	0.004056987
3	0xbda04596	-0.078257725
4	0x3c5461cb	0.012962769
5	0x3bd73e16	0.0065686805
6	0xbd04c392	-0.032413073
7	0x3b43b4ff	0.002986252
8	0x3cb84cee	0.02249762
9	0x3d916e5d	0.07101128
10	0xbd3d8412	-0.04626853
11	0xbcdea360	-0.027177513
12	0x3c9e5ee4	0.019332357
13	0x3b959396	0.0045647128
14	0x3b9c51da	0.0047704997
15	0x3d2b4e4c	0.041822717
16	0x3d225bb6	0.039638244
17	0x3c95f1a5	0.018303702
18	0xb95d7780	-0.0002112072
19	0x3a46c679	0.00075826753
20	0x3c866662	0.016406242
21	0xbc77a63d	-0.015115318
22	0xbda33a99	-0.07970161
23	0x3cc9045e	0.024538215
24	0xba80db1b	-0.0009830924
25	0xbc859e98	-0.016310975
26	0x3c569e21	0.013099224
27	0xbd01e655	-0.031713802
28	0x3c02cd54	0.007983524
29	0x3d4df98a	0.050286807
30	0x3d39aca8	0.045330673
31	0xbcf3cad9	-0.029759811
32	0x3d3217fa	0.043479897
33	0xbba219e5	-0.0049469345
34	0xbcac79be	-0.021054145
35	0x3d08af0a	0.033370055
36	0xbcf1c88c	-0.029514574
37	0xbc983768	-0.018581107
