FarconVAE/result_yaleb/yaleb_downstream_s_2023_05_01_17_13_49_929295_ours.pth.pt (torch, 88964 bytes, 22 tensors)

fc1.weight f4 [100, 100]
0	0x3de55725	0.11198262
1	0xbe9ea8c5	-0.30988136
2	0x3f15a100	0.5844879
3	0xbf08e339	-0.53471714
4	0xbdd17fdf	-0.102294676
5	0x3ea372c0	0.31923485
6	0xbede5358	-0.4342296
7	0x3dea3950	0.11436713
8	0x3e95505e	0.29162878
9	0xbd54cc94	-0.051952913
10	0xbe9b245f	-0.30301186
11	0x3ed9c3a2	0.42532068
12	0x3e215641	0.1575556
13	0x3e833e0d	0.25633278
14	0x3ef6454e	0.4809975
15	0xbe9c05be	-0.3047313
16	0x3e99a530	0.3000884
17	0x3ed5bbf8	0.4174497
18	0x3ec64341	0.38723186
19	0x3edb050c	0.42777288
20	0x3eb2cf30	0.34923697
21	0xbed03dbf	-0.4067211
22	0xbed8df8f	-0.42358062
23	0x3f0d0d02	0.55097973
24	0x3cd2d43e	0.02573597
25	0xbec9d5ef	-0.3942103
26	0xbe85903b	-0.26086602
27	0xbee7be33	-0.45262298
28	0x3da8b19c	0.08237001
29	0xbde40175	-0.111330904
30	0xbed8761b	-0.42277607
31	0x3edd2fce	0.43200535
32	0xbc4d08e1	-0.012514324
33	0xbedfe979	-0.43732813
34	0xbef0f2b8	-0.4706018
35	0x3eee18b0	0.4650321
36	0xbe89b8d9	-0.2689884
37	0x3f12e016	0.5737318
38	0x3f046bee	0.5172719
39	0x3ed4b12c	0.4154142
40	0xbe80a6d6	-0.25127286
41	0xbe758924	-0.23978096
42	0xbeddf296	-0.4334914
43	0x3ededccc	0.4352783
44	0xbeb25118	-0.34827495
45	0xbec3aeee	-0.38219398
46	0xbdecc1d0	-0.11560404
47	0x3edca9ba	0.4309824
48	0x3e17879e	0.14797828
49	0xbeadb09d	-0.33923808
50	0x3ea86eb0	0.32896948
51	0x3e938234	0.28810275
52	0x3f119175	0.56862575
53	0xbef4bce1	-0.47800353
54	0xbef0d6f8	-0.47039008
55	0x3eedd182	0.46448904
56	0x3ef40021	0.47656348
57	0x3e4b912b	0.19879596
58	0xbf060ba8	-0.52361536
59	0xbedcf416	-0.43154973
60	0x3e3ebc66	0.18626556
61	0xbdf07d08	-0.11742598
62	0xbea12f58	-0.31481433
63	0x3e929ff0	0.28637648
64	0xbe48a889	-0.19595541
65	0x3f19697e	0.59926593
66	0xbec2f8e1	-0.38080505
67	0xbecfa5c3	-0.40556154
68	0xbec70580	-0.38871384
69	0xbebcf9ff	-0.36909482
70	0x3ed054af	0.40689608
71	0xbe7b8f04	-0.24566275
72	0x3df0a188	0.1174956
73	0x3ed08953	0.4072977
74	0x3ec0aa28	0.3762982
75	0x3e213052	0.15741089
76	0xbe68b84c	-0.22726554
77	0x3e7a8936	0.24466404
78	0xbedadbdb	-0.4274586
79	0xbec1f7bc	-0.3788432
80	0xbeb179ba	-0.34663182
81	0x3e1a0711	0.15041758
82	0x3eec326c	0.4613222
83	0xbf00adf7	-0.5026545
84	0xbea15a0f	-0.31514022
85	0x3ee52653	0.44755802
86	0xbd9d49da	-0.07680102
87	0x3eb31ab8	0.34981322
88	0x3f24bcbc	0.64350486
89	0xbef928dc	-0.48663986
90	0xbed7d92a	-0.4215787
91	0xbe7393bb	-0.23786823
92	0x3ed066bf	0.4070339
93	0xbefea8fd	-0.49738303
94	0xbeacb0f1	-0.33728746
95	0xbe0ccf6e	-0.13751003
96	0xbefdd5d8	-0.49577212
97	0x3f262b68	0.6490998
98	0xbe0eddc4	-0.13951784
99	0x3dcc5b99	0.09978408
100	0xbec025e1	-0.375289
101	0xbf17e9bf	-0.59341043
102	0x3ed7eeac	0.4217428
103	0xbebe0034	-0.3710953
104	0xbe67ef8d	-0.22649975
105	0x3ef28a3a	0.47371083
106	0x3ed8a948	0.4231665
107	0xbf00aba1	-0.50261885
108	0x3ed5fa07	0.41792318
109	0x3ef222a2	0.47292048
110	0xbe0bda39	-0.13657464
111	0xbec06ba9	-0.37582138
112	0x3ec4be9e	0.3842668
113	0x3dabefb8	0.08395332
114	0x3dbb2552	0.09137978
115	0xbeb82c32	-0.35971218
116	0xbef1e9c1	-0.47248653
117	0xbe21fb6c	-0.15818566
118	0x3e3fa769	0.18716206
119	0xbe6f6033	-0.23376541
120	0xbeb6f863	-0.3573638
121	0x3ea2dd54	0.31809485
122	0xbea899b7	-0.32929775
123	0xbf03a990	-0.51430607
124	0x3f095bd5	0.5365575
125	0xbf016a12	-0.50552475
126	0xbf229c87	-0.6352009
127	0x3eba0e14	0.36338866
128	0x3ea11429	0.31460693
129	0x3e804ae3	0.25057134
130	0xbefcc6b6	-0.49370354
131	0x3ebcb4b6	0.36856622
132	0x3e9ab6ad	0.30217496
133	0x3ec6d65f	0.38835427
134	0xbed9f10a	-0.4256671
135	0x3eb8fe00	0.36131287
136	0x3e8969ba	0.26838475
137	0x3eb7f5d5	0.35929742
138	0xbd66947c	-0.05629395
139	0xbf005dce	-0.50143135
140	0x3eb54dfc	0.3541106
141	0x3eb026c8	0.34404588
142	0x3ed966ab	0.42461142
143	0x3edf3c9f	0.43600938
144	0xbbdbd975	-0.0067092725
145	0xbeae9108	-0.34095025
146	0x3c7c485e	0.015398113
147	0xbecf2bfd	-0.40463248
148	0x3edd9e1a	0.43284684
149	0xbe31c554	-0.17360431
150	0xbe791a58	-0.24326456
151	0xbebd5235	-0.3697678
152	0x3e7f28ce	0.2491791
153	0xbec1aa04	-0.37825024
154	0x3f2096e2	0.6273023
155	0x3e46264e	0.1935055
156	0x3eb85449	0.36001804
157	0x3ed30ed7	0.4122226
158	0xbea2e019	-0.31811598
159	0x3f0371b0	0.5134535
160	0xbe90895d	-0.282298
161	0xbea9b566	-0.3314621
162	0x3ec7443e	0.38919252
163	0xbea14446	-0.314974
164	0x3d594357	0.053042736
165	0xbe4f07fd	-0.20217891
166	0xbe823009	-0.25427273
167	0x3e907920	0.2821741
168	0xbebcf49e	-0.36905378
169	0xbed65118	-0.41858745
170	0xbee30983	-0.44343194
171	0xbeb4490b	-0.35211977
172	0xbee8db19	-0.45479658
173	0xbef7b497	-0.48379967
174	0xbea4d738	-0.3219545
175	0xbe9501d2	-0.2910295
176	0x3eda896a	0.42682964
177	0x3f004674	0.501075
178	0xbec39cca	-0.38205558
179	0x3f1c57a2	0.6107122
180	0x3ea0c160	0.31397533
181	0x3e0ac0b1	0.13550068
182	0xbf05dedf	-0.522932
183	0x3e22701e	0.15863082
184	0x3d66968d	0.05629592
185	0x3e90e85b	0.28302273
186	0xbef7157a	-0.48258573
187	0x3ed38b97	0.41317436
188	0xbf09fdd8	-0.5390296
189	0x3ef4d62c	0.4781965
190	0x3e137ddf	0.14403485
191	0xbee1131b	-0.4395989
192	0xbea2e11b	-0.31812367
193	0x3f1284c1	0.57233816
194	0x3eeba87d	0.46026984
195	0xbe590b47	-0.21195708
196	0xbe4d7dfb	-0.20067589
197	0xbf029264	-0.51004624
198	0x3f01f9d7	0.5077185
199	0xbc37e7d7	-0.0112247085
200	0x3ed83c99	0.42233732
201	0x3eb98c96	0.3624007
202	0x3f0eeb4e	0.55827796
203	0x3ed171a3	0.4090701
204	0x3e89b221	0.26893714
205	0xbec820f8	-0.39087653
206	0x3e92ee32	0.28697354
207	0x3e324410	0.17408776
208	0xbeb26ef7	-0.34850284
209	0xbebd2358	-0.36941028
210	0x3eb8cd8b	0.36094317
211	0xbedab722	-0.42717844
212	0x3ed7124d	0.4200615
213	0x3eea6a15	0.4578406
214	0xbed9ce19	-0.42540053
215	0x3ea9a572	0.33134037
216	0x3ecd13b8	0.40054107
217	0x3ec4889e	0.3838548
218	0xbeb2af3c	-0.34899318
219	0xbeb82cdf	-0.35971734
220	0x3ed89cd5	0.42307153
221	0x3ee88105	0.45410934
222	0x3ed21f20	0.41039371
223	0xbea9258a	-0.33036453
224	0xbee6194b	-0.44941172
225	0xbefcf2f3	-0.49404106
226	0x3e9631d7	0.293349
227	0x3e9f13ff	0.31069943
228	0x3ec0a92d	0.3762907
229	0xbed33a93	-0.41255626
230	0x3ec8dc7d	0.3923072
231	0xbeacfa1d	-0.3378457
232	0xbef42502	-0.47684485
233	0xbec19f72	-0.3781696
234	0x3ee3dbfb	0.4450377
235	0xbec6d28d	-0.38832512
236	0x3ec5637e	0.3855247
237	0x3d8d1cf2	0.068902865
238	0xbec6e152	-0.3884378
239	0xbea77e14	-0.32713377
240	0xbebfd6b8	-0.37468505
241	0xbeda79ad	-0.42670956
242	0xbbc3c4d4	-0.0059743915
243	0xbec8fbdf	-0.39254662
244	0x3d2fb069	0.042892847
245	0x3ec99355	0.39370218
246	0x3c889e98	0.016677186
247	0x3ee2d4a9	0.44302872
248	0xbeec3fe2	-0.4614249
249	0x3eabf361	0.3358412
250	0x3ec544f7	0.38529179
251	0x3ec0e585	0.3767511
252	0xbeb42cfb	-0.35190567
253	0x3ea859ee	0.3288111
254	0x3edda9fe	0.43293756
255	0xbec68368	-0.3877213

fc1.bias f4 [100]
0	0x3657812d	3.2112687e-06
1	0x371f4290	9.492636e-06
2	0xb81fa837	-3.8065216e-05
3	0x35f1499f	1.7977326e-06
4	0x3813e342	3.525918e-05
5	0xb8768baa	-5.8781043e-05
6	0x36e4eeca	6.822728e-06
7	0x36b6ac0f	5.444053e-06
8	0xb70bb118	-8.3262785e-06
9	0xb6cb370b	-6.0562793e-06
10	0x37adc47d	2.0714704e-05
11	0xb658d028	-3.230767e-06
12	0x35a81099	1.2521806e-06
13	0xb72eaceb	-1.0411469e-05
14	0x378ab1e4	1.6533719e-05
15	0xb7dfe272	-2.6689118e-05
16	0xb73acffe	-1.1134891e-05
17	0x38a766a0	7.982296e-05
18	0x38502be8	4.9631955e-05
19	0xb68043e4	-3.822601e-06
20	0x37c7acba	2.380308e-05
21	0xb800c571	-3.070146e-05
22	0x39010d45	0.00012307342
23	0xb84e1ba7	-4.913998e-05
24	0x38c684de	9.466124e-05
25	0xb73bdbb3	-1.1197221e-05
26	0x37837f86	1.56758e-05
27	0x37b9eb9e	2.2163436e-05
28	0xb70da6a3	-8.443053e-06
29	0xb702222e	-7.756562e-06
30	0xb777baea	-1.4765867e-05
31	0xb6b4f457	-5.392863e-06
32	0xb886fa9e	-6.436299e-05
33	0xb6a36dc9	-4.870559e-06
34	0xb7b65084	-2.1733584e-05
35	0xb7080725	-8.107895e-06
36	0xb80feca7	-3.4314256e-05
37	0x36d3853d	6.303801e-06
38	0xb82e9004	-4.1618958e-05
39	0xb6418444	-2.883623e-06
40	0x38aab2cb	8.1395345e-05
41	0x39b77de4	0.00034998276
42	0xb770c664	-1.4351306e-05
43	0xb8340015	-4.291542e-05
44	0x374abd2e	1.2084185e-05
45	0xb814e87b	-3.5502464e-05
46	0x37c66c0b	2.365375e-05
47	0x37ab5ad2	2.042708e-05
48	0xb7042fd0	-7.878945e-06
49	0xb81bd766	-3.7155485e-05
50	0x34fe1de1	4.7332927e-07
51	0xb62a1bca	-2.534815e-06
52	0xb7407921	-1.1472294e-05
53	0x382a4a34	4.0600265e-05
54	0x377accb2	1.49488205e-05
55	0x36e214ba	6.7377377e-06
56	0xb7ea1dc9	-2.7908844e-05
57	0xb6f2e304	-7.23859e-06
58	0xb7b84c0f	-2.1969927e-05
59	0xb7a05c6d	-1.9116525e-05
60	0x3961d068	0.0002153531
61	0xb53e1fae	-7.0826616e-07
62	0x36eca515	7.052566e-06
63	0x37db1642	2.6117199e-05
64	0xb5a75b38	-1.2469018e-06
65	0xb6bc4e28	-5.611935e-06
66	0x36f4e40e	7.2983157e-06
67	0xb86d21b8	-5.6536606e-05
68	0xb69a920b	-4.6065593e-06
69	0xb825b505	-3.9507653e-05
70	0x3836bbb9	4.356701e-05
71	0x36822cf4	3.879535e-06
72	0x37735dac	1.4505738e-05
73	0x3797d503	1.8099794e-05
74	0xb8a00220	-7.62979e-05
75	0xb5d92aa0	-1.6180165e-06
76	0x36b69360	5.4411794e-06
77	0xb79aefd7	-1.8469915e-05
78	0xb807811a	-3.2306743e-05
79	0x37b7e59e	2.1922224e-05
80	0xb4359aeb	-1.6913297e-07
81	0xb7979118	-1.8068167e-05
82	0x3803c756	3.141848e-05
83	0x384dda57	4.9079154e-05
84	0xb7c2b021	-2.3208619e-05
85	0x371626fb	8.949773e-06
86	0xb7bf2557	-2.2786362e-05
87	0x3882ea35	6.2425075e-05
88	0xb80fb00c	-3.4257813e-05
89	0xb8a9fb9e	-8.105415e-05
90	0xb716cb60	-8.988049e-06
91	0x37c9743a	2.401519e-05
92	0xb800db78	-3.0721974e-05
93	0xb6226e16	-2.420396e-06
94	0x37b0b576	2.1065334e-05
95	0xb78c3761	-1.6715088e-05
96	0xb7144e9d	-8.839791e-06
97	0xb6f42082	-7.275551e-06
98	0x37ccf614	2.4433284e-05
99	0xb791e171	-1.7390326e-05

fc2.weight f4 [100, 100]
0	0x3ed69847	0.41913053
1	0xbed1c874	-0.40973246
2	0xbdaf3446	-0.08554892
3	0xbebb29ef	-0.3655543
4	0xbee3af93	-0.4446989
5	0x3ed6f28b	0.4198192
6	0x3e93920a	0.28822356
7	0xbed9b797	-0.4252288
8	0xbe08521d	-0.13312574
9	0x3ea9f5bf	0.33195302
10	0xbec80fa9	-0.39074448
11	0xbef2dd41	-0.47434428
12	0x3ec535d9	0.38517645
13	0x3ed6e950	0.41974878
14	0x3ecd57f7	0.40106174
15	0x3e61e6cf	0.22060703
16	0xbed536a5	-0.41643253
17	0xbec72799	-0.38897398
18	0xbed13ef9	-0.40868357
19	0x3d1d2abe	0.03837084
20	0xbeda01a2	-0.4257937
21	0x3ed9f485	0.42569366
22	0x3ec831fc	0.39100635
23	0xbe7f109e	-0.24908683
24	0x3ec10586	0.37699527
25	0xbebc7ec9	-0.3681548
26	0x3f0078d8	0.5018439
27	0xbee4077a	-0.44536954
28	0xbe965d78	-0.29368186
29	0x3ec8a960	0.39191723
30	0x3ea2b016	0.31774968
31	0xbec0bb94	-0.3764311
32	0x3efbbefb	0.49169144
33	0xbeca78e9	-0.39545372
34	0xbe40757b	-0.18794815
35	0xbeb57ab8	-0.3544519
36	0xbed9d67e	-0.42546457
37	0xbeb3d118	-0.35120463
38	0xbec192c8	-0.37807298
39	0x3eab3d8c	0.33445394
40	0x3ee515ec	0.44743288
41	0x3edb66c3	0.42851838
42	0x3e9eafc7	0.30993482
43	0xbec4ee66	-0.38463134
44	0x3d8323d8	0.06403321
45	0x3e14cfd3	0.14532404
46	0xbea24706	-0.31694812
47	0xbeac73a7	-0.33681986
48	0xbe588ec4	-0.21148211
49	0xbebeaba6	-0.37240332
50	0xbe99d1bb	-0.30042824
51	0xbec8708e	-0.39148372
52	0x3ed18d0e	0.4092793
53	0xbed34e3e	-0.41270632
54	0x3ec6f57c	0.38859165
55	0x3ec619eb	0.3869165
56	0x3f0606be	0.5235404
57	0xbe9e279f	-0.30889603
58	0xbe530c83	-0.20610242
59	0xbeda8973	-0.4268299
60	0xbed179d7	-0.4091327
61	0xbe34b723	-0.17647986
62	0xbec36deb	-0.38169798
63	0xbee6df64	-0.4509231
64	0x3ec94bb2	0.39315563
65	0x3e22b87c	0.15890688
66	0xbec082df	-0.37599847
67	0x3ecf4de9	0.40489128
68	0xbe97ef67	-0.29674837
69	0x3ea54d92	0.32285744
70	0xbe897aeb	-0.2685159
71	0x3ec614e0	0.386878
72	0x3eae03ef	0.33987376
73	0x3f3b7284	0.7322161
74	0x3eb6649a	0.35623628
75	0x3ebf2295	0.37331071
76	0x3ebd5725	0.36980549
77	0x3eda1882	0.42596823
78	0x3e90f315	0.28310457
79	0x3ec6575c	0.38738525
80	0xbd64cdbe	-0.055860274
81	0xbeca9719	-0.39568403
82	0xbecbf599	-0.39835814
83	0x3e977b4b	0.29586253
84	0xbed0108f	-0.40637633
85	0x3e826763	0.25469503
86	0xbeafa7b4	-0.34307635
87	0x3eb07cce	0.34470218
88	0xbeaea246	-0.3410818
89	0x3ed199d4	0.40937674
90	0xbe488831	-0.19583203
91	0xbedb0ff5	-0.42785612
92	0xbe96de51	-0.2946649
93	0x3e5e900c	0.21734637
94	0xbe924399	-0.28567198
95	0xbee072af	-0.43837497
96	0x3e957aec	0.29195344
97	0x3eb55a75	0.35420576
98	0xbec25eb9	-0.37962893
99	0x3eb1e0e5	0.34741893
100	0xbed540fb	-0.4165114
101	0x3ef02770	0.46905088
102	0xbeded644	-0.43522847
103	0xbeaab662	-0.33342272
104	0xbe8c9b67	-0.27462313
105	0xbe9a3979	-0.30121973
106	0x3f00680e	0.50158775
107	0x3ebe2e57	0.3714473
108	0x3eae18ca	0.34003288
109	0xbea18f75	-0.31554762
110	0xbe1ad356	-0.15119681
111	0x3e99e95c	0.30060852
112	0xbedac944	-0.42731678
113	0xbd5f757d	-0.054555405
114	0xbd9e0546	-0.077158496
115	0xbe99c44e	-0.3003258
116	0xbe5bac0f	-0.21452354
117	0x3eafb3b7	0.343168
118	0x3eed15bb	0.46305642
119	0x3ed1f30d	0.41005746
120	0x3eb8f5e8	0.36125112
121	0x3edf107e	0.4356727
122	0xbecac164	-0.3960067
123	0x3ee2074a	0.44146186
124	0xbef83cbf	-0.48483846
125	0x3e034f01	0.12823106
126	0x3ee44886	0.4458658
127	0x3ec0dc2b	0.37667975
128	0x3eba5240	0.36390877
129	0x3da82603	0.08210375
130	0x3edb0af9	0.4278181
131	0xbeacde6b	-0.3376344
132	0xbef79041	-0.48352244
133	0x3e839f34	0.257074
134	0xbe94bf58	-0.29052234
135	0x3ec181f1	0.3779445
136	0x3ead2a9f	0.3382158
137	0x3ec92e88	0.39293313
138	0x3ebbcf39	0.36681536
139	0xbef5237b	-0.47878632
140	0xbd0e75e1	-0.034780387
141	0xbda06440	-0.07831621
142	0xbea5671b	-0.32305226
143	0x3ed64b75	0.41854444
144	0xbf085fb8	-0.53271055
145	0x3eef6767	0.46758577
146	0xbeb4a162	-0.35279375
147	0x3ee3f92f	0.4452605
148	0xbef9b911	-0.48774007
149	0x3e519f1b	0.2047085
150	0xbcd91874	-0.026500918
151	0x3eac9ecc	0.33714902
152	0xbee52dad	-0.4476141
153	0x3ed8448a	0.4223979
154	0xbec6f76b	-0.3886064
155	0xbed3f993	-0.41401348
156	0xbeb1765e	-0.3466062
157	0xbec4c2ac	-0.38429773
158	0xbe7ed302	-0.2488518
159	0xbead4931	-0.33844903
160	0x3f0845a9	0.5323129
161	0xbec1eac4	-0.37874424
162	0x3ed846cc	0.42241514
163	0x3ee9c103	0.4565507
164	0x3ea50b89	0.32235363
165	0xbecd3ce0	-0.40085506
166	0x3f009089	0.50220543
167	0xbed2e40b	-0.41189608
168	0x3eee63bc	0.46560466
169	0x3ed4bd7b	0.41550812
170	0xbede17d6	-0.4337756
171	0xbedd0005	-0.43164077
172	0xbede2961	-0.43390945
173	0xbee79a9f	-0.45235154
174	0xbed92e88	-0.42418313
175	0xbeb11931	-0.34589532
176	0x3e4d41e1	0.20044662
177	0x3f065074	0.5246651
178	0x3eafe18b	0.34351763
179	0xbe92c978	-0.28669333
180	0xbeb4a2b6	-0.3528039
181	0x3ebb8eff	0.36632535
182	0xbe99416e	-0.2993273
183	0x3e91313d	0.28357878
184	0x3e5b4f90	0.2141707
185	0x3cb911e1	0.022591533
186	0x3ebb07a8	0.3652928
187	0xbee9f3ac	-0.4569372
188	0xbed048c4	-0.40680516
189	0xbe3e1545	-0.18562801
190	0xbeb81fb4	-0.35961688
191	0xbeebbbec	-0.4604181
192	0x3f1b67cf	0.60705274
193	0xbea1b3ae	-0.31582397
194	0xbe8b3af5	-0.27193418
195	0x3e68903b	0.2271127
196	0x3ee2a622	0.44267374
197	0xbed08b4d	-0.40731278
198	0x3ec2abbc	0.38021648
199	0xbe3ce0cd	-0.1844513
200	0xbe81ad22	-0.25327402
201	0xbec52ee8	-0.3851235
202	0x3eb10828	0.34576535
203	0x3ebb7643	0.36613664
204	0xbe99208c	-0.29907644
205	0x3ec1e6cb	0.37871394
206	0x3e58cf54	0.2117284
207	0xbebe7c46	-0.37204188
208	0xbecd3e78	-0.40086722
209	0x3eb7cbae	0.35897583
210	0xbebd2a6b	-0.36946425
211	0xbeb38982	-0.35065848
212	0x3e5b4a63	0.21415095
213	0x3ed3b97b	0.41352448
214	0xbea52969	-0.32258156
215	0x3e899b61	0.26876357
216	0xbecf2616	-0.40458745
217	0xbeb44972	-0.35212284
218	0xbedba262	-0.42897326
219	0xbeb50fe8	-0.35363698
220	0xbed66223	-0.41871747
221	0xbee52d4b	-0.44761118
222	0x3efa851c	0.4892968
223	0xb7576ab9	-1.2839847e-05
224	0x3efb2f73	0.49059638
225	0xbed1a101	-0.4094315
226	0xbee972da	-0.45595437
227	0xbed81bff	-0.4220886
228	0xbedd3bf5	-0.43209806
229	0xbed4557c	-0.4147147
230	0xbed00532	-0.40628964
231	0xbeda68e6	-0.42658156
232	0x3e8adc3b	0.27121148
233	0xbecb3b9e	-0.39693922
234	0xbee7ac2b	-0.4524854
235	0xbecf0f3b	-0.40441307
236	0xbeb7868d	-0.35844842
237	0xbed08243	-0.40724382
238	0xbed1a84f	-0.40948722
239	0xbe9a09db	-0.30085644
240	0x3eb865bb	0.36015114
241	0xbec36ada	-0.3816746
242	0xbee9d811	-0.45672658
243	0xbece13aa	-0.40249377
244	0x3ef7ebbd	0.48422042
245	0xbed15547	-0.40885374
246	0xbe1c1c10	-0.1524508
247	0x3e96b7a0	0.2943697
248	0xbeba69f4	-0.3640896
249	0xbed0dd1c	-0.40793693
250	0xbec90d87	-0.39268133
251	0xbec342b2	-0.38136822
252	0x3f03dba4	0.5150702
253	0xbece7279	-0.4032171
254	0xbecd83dc	-0.40139663
255	0x3ecf827d	0.40529242

fc2.bias f4 [100]
0	0xb6ea57a8	-6.983948e-06
1	0xb7e91682	-2.7786245e-05
2	0xb865ae6d	-5.47603e-05
3	0x378888a1	1.6276086e-05
4	0xba8afef5	-0.0010604548
5	0xb7801198	-1.5266982e-05
6	0xb8628a6e	-5.401152e-05
7	0xb885eff0	-6.386626e-05
8	0xb9230d55	-0.00015549858
9	0xb81ca625	-3.7348032e-05
10	0x37b3a93c	2.1417269e-05
11	0x37c994c6	2.4030345e-05
12	0xb848b004	-4.7847643e-05
13	0xb71a5a8e	-9.200199e-06
14	0xb777516c	-1.4741305e-05
15	0xb84db3f0	-4.904339e-05
16	0x37d24a5d	2.5068579e-05
17	0xb826a2a5	-3.972896e-05
18	0x39588d64	0.00020652037
19	0xb6386454	-2.7476535e-06
20	0x36133d7d	2.1940498e-06
21	0x37e3ffc9	2.7179618e-05
22	0x38816053	6.169141e-05
23	0xb56bf2a8	-8.7897433e-07
24	0x385e8cd3	5.3060077e-05
25	0xb8ecbba4	-0.00011288308
26	0xb88c3103	-6.684849e-05
27	0x358a3be5	1.0299233e-06
28	0xb96976f3	-0.00022264924
29	0x382100e3	3.8386217e-05
30	0xb8909a9f	-6.8952555e-05
31	0xb7032520	-7.816852e-06
32	0xb84011cc	-4.579294e-05
33	0xb81386e2	-3.517315e-05
34	0x37b07b83	2.103835e-05
35	0x3731e6b3	1.0603736e-05
36	0x392cfd02	0.00016497451
37	0xb79c58d9	-1.8638022e-05
38	0xb42fe3bb	-1.6380993e-07
39	0x3718605b	9.0823405e-06
40	0x38807f55	6.127233e-05
41	0xb7ce5cef	-2.460039e-05
42	0xb62706ef	-2.4888975e-06
43	0xb84b9890	-4.8541056e-05
44	0xb8506cda	-4.969244e-05
45	0xb7b104b0	-2.1102227e-05
46	0xb8aa0ecb	-8.108987e-05
47	0xb97b4aeb	-0.00023965134
48	0x38a8f645	8.0567355e-05
49	0xb89a0a53	-7.345215e-05
50	0x380a382d	3.295408e-05
51	0x345b347a	2.0415055e-07
52	0x37a9aac9	2.0225898e-05
53	0xb79503e4	-1.7763996e-05
54	0x3a120a5a	0.00055710005
55	0xb8a83280	-8.0202706e-05
56	0x38cec68e	9.859829e-05
57	0xb8e968c5	-0.000111298206
58	0xb81cbfe1	-3.7372e-05
59	0x362bc5e0	2.5596164e-06
60	0x389978ba	7.3180956e-05
61	0xb70aa4ee	-8.263842e-06
62	0xb725ebd3	-9.8896735e-06
63	0xb90e5ef3	-0.00013577547
64	0x36cea72f	6.158741e-06
65	0x37c5c43e	2.3575612e-05
66	0x37f40497	2.9089204e-05
67	0xb89b2ec6	-7.399688e-05
68	0x3543c80c	7.293427e-07
69	0x34bc1a2d	3.5036774e-07
70	0x37804e8b	1.5295363e-05
71	0x3878dda0	5.9334212e-05
72	0x380930aa	3.2708667e-05
73	0xb7cec26b	-2.4647647e-05
74	0xb798c6f1	-1.8212451e-05
75	0xb7168b42	-8.97312e-06
76	0xb84ae33f	-4.8372192e-05
77	0xb8d9f8b7	-0.00010393693
78	0xb88a5641	-6.596419e-05
79	0xb8395a97	-4.4191806e-05
80	0xb81b1c8e	-3.6981473e-05
81	0xb6676b3e	-3.4484106e-06
82	0x36d19b33	6.246753e-06
83	0x363d0058	2.8163395e-06
84	0x37870a7a	1.6098133e-05
85	0xb81bba45	-3.7128357e-05
86	0xb7836208	-1.5662066e-05
87	0xb5059471	-4.976237e-07
88	0x36ff739d	7.6130514e-06
89	0xb9050864	-0.00012686994
90	0xb4f835a9	-4.6232643e-07
91	0x38095037	3.273805e-05
92	0x364ef2e5	3.0837775e-06
93	0xb9d46435	-0.0004051045
94	0xb884f170	-6.339222e-05
95	0x3723818b	9.745719e-06
96	0x391c16fa	0.00014885879
97	0x37170cf4	9.003317e-06
98	0xb84cbb19	-4.881164e-05
99	0xb70e313e	-8.475325e-06

out.weight f4 [5, 100]
0	0xbd98d8ea	-0.07463248
1	0x3e3fa945	0.18716915
2	0x3ea22ab4	0.31673205
3	0x3ea74b01	0.3267441
4	0x3e53d4ac	0.20686597
5	0x3d0ded58	0.034650177
6	0xbe189646	-0.14901075
7	0xbe0fdb98	-0.14048612
8	0xbda348fc	-0.07972905
9	0x3e7eea78	0.2489413
10	0xbd99c6a7	-0.07508593
11	0xbd306629	-0.043066178
12	0x3e5b5b65	0.21421583
13	0x3d92a724	0.07160786
14	0x3e274ef6	0.16338715
15	0x3e9fe370	0.3122821
16	0x3ddd476b	0.108046375
17	0x3d9fc8fe	0.07802008
18	0x3e172474	0.1476
19	0x3d5af121	0.053452615
20	0xbe143d59	-0.14476527
21	0x3dfa07bc	0.122085065
22	0xbefd4314	-0.4946524
23	0x3e63b3fb	0.22236626
24	0x3e61f1dc	0.22064918
25	0x3dac19ff	0.08403396
26	0xbc39c9b2	-0.011339592
27	0xbdaf6aba	-0.08565278
28	0x3d8846f5	0.06654159
29	0x3d262048	0.04055813
30	0x3de3be2d	0.111202575
31	0x3d75632a	0.059909023
32	0x3e0d76ca	0.13814846
33	0xbeaa11b3	-0.33216628
34	0xbef36f1d	-0.4754571
35	0xbe3a596f	-0.18198179
36	0x3eb395f9	0.35075358
37	0x3e23d226	0.15998134
38	0x3e8583b9	0.2607706
39	0x3d1370f8	0.035996407
40	0x3e1234dd	0.14277978
41	0x3dbdd34a	0.09268816
42	0x3d11792d	0.035515953
43	0xbddc0e15	-0.107448734
44	0x3e3ed8a7	0.18637334
45	0x3e3d7847	0.18502913
46	0x3d553512	0.052052565
47	0xbdfb5f76	-0.12274067
48	0x3bc2df3f	0.005947023
49	0x3e07e113	0.13269453
50	0xbd4d505a	-0.050125457
51	0x3e3a0084	0.18164259
52	0x3d899255	0.06717364
53	0xbd25cbf3	-0.040477704
54	0xbe87e9d8	-0.26545596
55	0x3cc31375	0.023812989
56	0x3c893fe0	0.01675409
57	0x3db6fa43	0.089344524
58	0x3d26306c	0.040573522
59	0x3e71baa8	0.2360636
60	0x3e520162	0.2050834
61	0xbd4488be	-0.04798197
62	0x3da326eb	0.079664074
63	0xbdc22ab5	-0.09480802
64	0x3d66d58a	0.05635599
65	0x3df3bdc6	0.11901431
66	0xbb7daaa8	-0.0038706455
67	0xbcd90ed5	-0.02649633
68	0xbe1d87a8	-0.1538378
69	0x3e460704	0.19338614
70	0x3cb9e5b1	0.022692533
71	0xbe3d804d	-0.18505974
72	0x3ece1d03	0.4025651
73	0xbe5f26f8	-0.21792209
74	0xbdc437ce	-0.095809564
75	0x3e47c147	0.19507323
76	0x3e6dd038	0.2322396
77	0xbd818ae3	-0.06325319
78	0x3cebb7e4	0.02877421
79	0xbd47be55	-0.0487655
80	0x3c327d43	0.0108941225
81	0x3db91852	0.09037842
82	0x3e2b53ba	0.16731158
83	0x3cfa45d0	0.030550867
84	0xbe4f0320	-0.20216036
85	0x3e319e6f	0.17345594
86	0xbe27bece	-0.1638138
87	0xbe9fdae0	-0.31221676
88	0xbe1c67c5	-0.1527396
89	0xbe043c16	-0.12913546
90	0xbe096ec6	-0.13421163
91	0x3d15cdf5	0.03657337
92	0x3d5eaf44	0.054366365
93	0x3da562aa	0.08075459
94	0x3e5b6276	0.21424279
95	0x3e3372a2	0.17524198
96	0x3e2a33b0	0.1662128
97	0x3d9a0fef	0.0752257
98	0x3e908b0e	0.2823109
99	0x3e83e6dd	0.25762072
100	0xbb53df5b	-0.0032329175
101	0x3e006405	0.12538154
102	0xbdb342f6	-0.08753006
103	0x3df1cc5a	0.11806555
104	0x3a4d17b6	0.00078236626
105	0x3db13739	0.08653111
106	0x3e877826	0.26458853
107	0x3e6b3c8d	0.22972317
108	0xbe734596	-0.23757014
109	0x3e8ccf01	0.2750168
110	0x3cd89f36	0.026443105
111	0xbce0aeca	-0.027427096
112	0xbd0b600f	-0.034027155
113	0xbc52e4c9	-0.012871929
114	0x3de344a8	0.110970795
115	0x3e4efbea	0.20213285
116	0x3e060318	0.13087118
117	0xbd32f24f	-0.043688115
118	0xbc9df053	-0.019279635
119	0xbdbe2401	-0.09284211
120	0xbe8fd72a	-0.28093845
121	0xbdbfa52d	-0.09357677
122	0x3db21d88	0.08697039
123	0xbe522760	-0.20522833
124	0x3e43fa19	0.19138373
125	0x3d79b676	0.060965024
126	0xbe08aa3e	-0.13346192
127	0x3d80a23c	0.06280944
128	0x3cefed7e	0.02928805
129	0xbe4559f7	-0.192726
130	0xbc90d49b	-0.017679503
131	0xbec8e7ef	-0.3923945
132	0x3d73db15	0.059535105
133	0x3d5ee84a	0.054420747
134	0x3d438606	0.047735237
135	0x3bd41973	0.0064727603
136	0xbdf273d0	-0.11838496
137	0x3dd64733	0.10462799
138	0xbde97cc5	-0.11400751
139	0xbdba0563	-0.09083059
140	0xbe27d83d	-0.16391082
141	0x3cb1ebc5	0.021718869
142	0xbe40ccdf	-0.18828152
143	0x3da83e78	0.0821504
144	0x3d7188a3	0.058968198
145	0xbcdf48a4	-0.027256317
146	0x3e2f7418	0.1713413
147	0xbea83084	-0.32849514
148	0x3dfa4680	0.12220478
149	0x3d07f0c8	0.03318861
150	0xbc17f0e1	-0.009273739
151	0x3ddc40d5	0.10754553
152	0xbd9bd585	-0.07609085
153	0x3e194922	0.14969304
154	0x3e57a2a5	0.21058138
155	0xbdc60244	-0.09668401
156	0xbd89ae21	-0.067226656
157	0x3de6562b	0.11246904
158	0xbe122266	-0.14270934
159	0x3dd6df19	0.10491771
160	0xbdb9b269	-0.09067232
161	0x3cbb98ea	0.022900064
162	0x3d383f96	0.044982515
163	0xbe9071c0	-0.28211784
164	0x3e1ba439	0.15199365
165	0x3cdcb23c	0.026940458
166	0x3ccef720	0.025264323
167	0xbb9ecd57	-0.0048462558
168	0x3d1c474c	0.03815393
169	0xbb9fee21	-0.004880682
170	0xbc1e1f90	-0.00965108
171	0xbe5e4934	-0.21707612
172	0xbdc55125	-0.09634618
173	0x3deb025b	0.11475059
174	0xbd17e8bd	-0.03708719
175	0xbe3004f0	-0.17189384
176	0x3e4ec4cd	0.20192261
177	0x3d4a7080	0.049423695
178	0xbbaa2a3f	-0.0051930244
179	0x3cfb905f	0.03070849
180	0xbd60d7e8	-0.054893404
181	0xbd01f53d	-0.031728018
182	0x3dcc43f4	0.099738985
183	0xbc3dd42a	-0.011586228
184	0xbdf6a646	-0.12043433
185	0x3d3b6e5e	0.04575955
186	0xbc52c84c	-0.012865137
187	0x3dfb1183	0.122591995
188	0x3eb226f0	0.34795332
189	0x3d959c64	0.0730522
190	0x3e5652d7	0.20930038
191	0xbe27061f	-0.16310929
192	0xbb20de53	-0.0024546578
193	0x3cd50fbb	0.026008477
194	0xbde245c6	-0.110484645
195	0xbdd8caf0	-0.10585582
196	0xbdaa97b1	-0.08329714
197	0xbd348c3a	-0.044079043
198	0xbe14a44d	-0.14515801
199	0xbdb774d9	-0.08957834
200	0xbd19dd0a	-0.037564315
201	0xbe28af02	-0.1647301
202	0x3d6c1531	0.057637397
203	0xbe925f64	-0.28588402
204	0xbe21ae4d	-0.15789147
205	0xbd951445	-0.07279257
206	0xbca2e7cd	-0.019885922
207	0xbd1915eb	-0.03737442
208	0x3e291440	0.16511631
209	0xbe263d33	-0.16234283
210	0xbe44d7a9	-0.19222893
211	0x3e811c3a	0.25216848
212	0xbe16d6ba	-0.14730349
213	0xbe2bd383	-0.16779904
214	0x3d519df9	0.051176045
215	0xbda6d498	-0.08146018
216	0xbe01cd90	-0.12676072
217	0x3d29042f	0.041263755
218	0xbe035f82	-0.12829402
219	0xbe58aa26	-0.21158656
220	0x3e056db5	0.13030131
221	0xbe0da313	-0.13831739
222	0xbe435875	-0.19076712
223	0x3dc86994	0.097857624
224	0xbdf190e7	-0.11795216
225	0xbdb58eb0	-0.08865106
226	0xbc356875	-0.011072268
227	0x3e36c522	0.17848638
228	0x3ec91632	0.39274746
229	0x3d74f083	0.059799682
230	0x3d32e186	0.043672107
231	0x3ded69ac	0.11592421
232	0xbd9259e2	-0.0714605
233	0x3c0fbb36	0.008772662
234	0xbae1e0ac	-0.0017233095
235	0xbc8c6570	-0.017138213
236	0x3c040c83	0.008059624
237	0x3cb645b6	0.022250038
238	0x3dcc7714	0.0998365
239	0x3c51de5f	0.012809365
240	0x3d9bed33	0.076136015
241	0xbdfef48d	-0.12448988
242	0x3ea22983	0.31672296
243	0xbe853681	-0.26018146
244	0xbe128b59	-0.1431097
245	0xbe314bc6	-0.17314062
246	0x3d3971f6	0.045274697
247	0x3d5bcb14	0.053660467
248	0xbdeaf89e	-0.11473201
249	0xbbfe0c71	-0.007752948
250	0xba11a857	-0.00055563956
251	0xbde35b54	-0.11101404
252	0xbe601c13	-0.2188571
253	0xbdcbfcb0	-0.09960306
254	0x3ea84511	0.32865193
255	0xbe2a0418	-0.16603124

out.bias f4 [5]
0	0xbce44985	-0.027867088
1	0x3dfcf695	0.12351719
2	0xbde8a1fe	-0.113590226
3	0x3cac1624	0.021006651
4	0x3ec1ffa7	0.3789036

bn.weight f4 [100]
0	0x3f2e3c81	0.6806107
1	0x3f2e7c0e	0.6815804
2	0xbd6c904f	-0.05775481
3	0x3f359077	0.7092356
4	0x3f119112	0.56861985
5	0xbdc03b0e	-0.09386264
6	0xbdd7babf	-0.10533666
7	0x3d275c58	0.04085955
8	0x3f0a4cdf	0.54023546
9	0x3f5822ce	0.8442811
10	0x3f11dfa8	0.569819
11	0xbdc26372	-0.09491624
12	0x3ebaae80	0.36461258
13	0xbe387f6f	-0.18017362
14	0x3e922328	0.28542447
15	0x3ede4e48	0.434191
16	0x3edfebc0	0.4373455
17	0xbdf5723a	-0.119846776
18	0x3e2943a5	0.1652971
19	0xbe9b4c92	-0.30331856
20	0x3f13e69b	0.5777375
21	0x3e36df6f	0.1785867
22	0x3f539015	0.82641727
23	0x3b7762b7	0.0037748048
24	0x3f0511bf	0.51980203
25	0xbe470e0f	-0.19438957
26	0x3e677c53	0.2260602
27	0x3e8caad5	0.27474084
28	0x3f63a6f9	0.88926655
29	0x3f133d58	0.5751548
30	0x3e4b9eec	0.19884843
31	0xbdafa2d2	-0.085759774
32	0xbd623e2d	-0.055235077
33	0x3e8325b4	0.25614703
34	0xbd153766	-0.036429785
35	0x3dcc1a6d	0.09965978
36	0xbe0dd094	-0.13849097
37	0x3eee6c0e	0.46566814
38	0x3c8d28f9	0.017231451
39	0x3f4fe253	0.8120472
40	0x3e7abf7c	0.24487108
41	0x3e9f4615	0.31108156
42	0x3f1c8f11	0.611558
43	0xbc6f8562	-0.014619203
44	0x3f32e590	0.69881535
45	0x3f06ea90	0.52701664
46	0x3d898199	0.06714172
47	0x3f480fac	0.78148913
48	0xbcb61e31	-0.022231193
49	0x3d84ad66	0.064783856
50	0x3ec8e7f3	0.39239463
51	0x3ec8de4e	0.39232105
52	0x3eb11596	0.3458678
53	0xbe21d140	-0.15802479
54	0xbe039a60	-0.12851858
55	0x3e60e837	0.21963583
56	0x3f2066c6	0.6265682
57	0x3e8230a8	0.25427747
58	0x3f8a602f	1.0810603
59	0x3edb47c6	0.42828196
60	0x3dc2591b	0.09489652
61	0x3c7f498d	0.015581501
62	0xbe1964fb	-0.14979927
63	0x3f47e2e2	0.7808057
64	0x3ed5d3de	0.41763204
65	0x3d66c3e1	0.05633915
66	0x3c895b42	0.016767148
67	0xbd35aff8	-0.04435727
68	0xbddc6fd2	-0.107635155
69	0x3ed20235	0.4101731
70	0x3f0fafc4	0.5612757
71	0x3f42f786	0.7615894
72	0xbe32c4f3	-0.17457943
73	0x3f45fb20	0.7733631
74	0x3ec44153	0.38331088
75	0x3e3399da	0.17539158
76	0x3f427be0	0.7597027
77	0x3f3cb7ce	0.73717964
78	0x3e2fa806	0.1715394
79	0xbe5a97c5	-0.21346958
80	0xbde1e019	-0.11029071
81	0x3ea306a6	0.3184101
82	0x3e5454c5	0.20735462
83	0x3df184e6	0.117929265
84	0xbb6077b0	-0.0034251027
85	0x3e8fe30d	0.28102913
86	0x3e0737d3	0.13204889
87	0x3d8ac801	0.06776429
88	0x3e6f0aaf	0.23343919
89	0x3f20317a	0.62575495
90	0xbe54b905	-0.20773704
91	0x3e4f14ed	0.20222826
92	0x3e8c9ccf	0.27463385
93	0x3e3aeddd	0.182548
94	0x3f2749b3	0.6534683
95	0x3dd98210	0.106205106
96	0x3f04f4ca	0.5193602
97	0x3f04b281	0.51834875
98	0x3cbe18c9	0.023205178
99	0x3ee81431	0.45327905

bn.bias f4 [100]
0	0x3e34fd92	0.17674854
1	0xbe2dc7b9	-0.1697072
2	0xbeec192a	-0.4611295
3	0xbdf67f04	-0.12035945
4	0xbe953c72	-0.2914768
5	0xbe41b252	-0.1891568
6	0xbea23d7a	-0.31687528
7	0xbeb575bf	-0.35441396
8	0x3cc93d97	0.024565501
9	0xbd92ab9d	-0.07161639
10	0xbd594f7c	-0.053054318
11	0xbec29de1	-0.38011077
12	0xbe8e3879	-0.2777746
13	0xbec75791	-0.38933995
14	0xbc8241ca	-0.015900511
15	0xbedbd938	-0.42939162
16	0xbce0e961	-0.027455034
17	0xbdc2c7f2	-0.09510793
18	0xbdbe56e6	-0.09293918
19	0xbeabe26d	-0.33571187
20	0x3e012f27	0.12615643
21	0xbf096b4f	-0.53679365
22	0x3ec80538	0.39066482
23	0xbeb33906	-0.35004443
24	0xbe37738c	-0.17915171
25	0xbee782ad	-0.45216885
26	0xbe5d350e	-0.2160227
27	0xbe43e4a1	-0.19130184
28	0xbe6a2c52	-0.2286847
29	0xbd6423f1	-0.05569834
30	0xbd96e094	-0.07367054
31	0xbea89299	-0.32924345
32	0xbe309d58	-0.17247522
33	0x3c786f84	0.015163306
34	0xbea24935	-0.31696478
35	0xbecbe787	-0.3982508
36	0xbe8ae1e4	-0.27125466
37	0xbe25efe1	-0.16204788
38	0xbecb2a4f	-0.39680716
39	0xbe850c99	-0.25986174
40	0xbe52eb48	-0.20597565
41	0xbe8451de	-0.2584371
42	0x3ba0a490	0.00490243
43	0xbebe00c9	-0.37109974
44	0x3d07ffdc	0.03320299
45	0xbec87fa7	-0.3915989
46	0xbe0b4e33	-0.1360405
47	0xbd5abc22	-0.053402074
48	0xbee78e93	-0.45225963
49	0xbe3f95da	-0.18709508
50	0xbeb934f2	-0.36173207
51	0xbec8e44d	-0.3923668
52	0xbeb8e71d	-0.36113825
53	0xbe9619f8	-0.29316688
54	0xbe2546d2	-0.16140297
55	0xbe92194d	-0.28534928
56	0x3e8899d9	0.26679876
57	0xbdaf6058	-0.08563298
58	0xbeaa99dd	-0.33320513
59	0xbecc5923	-0.39911756
60	0xbeaff2da	-0.3436497
61	0xbeb1945d	-0.34683505
62	0xbe4c3c92	-0.1994498
63	0xbdc26497	-0.09491842
64	0xbe37fcb1	-0.17967488
65	0xbe4cc98f	-0.19998764
66	0xbe6b4797	-0.22976528
67	0xbe7f89eb	-0.24954955
68	0xbe9ca77c	-0.3059653
69	0xbe4adb0d	-0.19810124
70	0xbd532b64	-0.051555052
71	0x3e6dbdcf	0.23216937
72	0xbe5fb5a8	-0.2184664
73	0x3e1908d2	0.14944771
74	0xbe23c51a	-0.15993157
75	0xbe390781	-0.18069269
76	0x3d7aeee4	0.06126298
77	0xbdfd5ca1	-0.12371183
78	0xbdf05393	-0.117346905
79	0xbe925926	-0.2858364
80	0xbebd509d	-0.36975566
81	0xbe0a033c	-0.13477796
82	0xbe8c5d37	-0.27414867
83	0xbc57263e	-0.013131676
84	0xbee7bf96	-0.45263356
85	0xbe9dc3b8	-0.30813384
86	0xbed93b83	-0.42428216
87	0xbec89648	-0.39177155
88	0xbdfc71e6	-0.12326412
89	0xbdfcddf1	-0.123470195
90	0xbee4cfb4	-0.44689715
91	0xbd961878	-0.07328886
92	0x3c99a200	0.018754005
93	0xbd61e7b2	-0.055152602
94	0x3cdd94ac	0.027048431
95	0xbe4d6443	-0.20057778
96	0xbe419762	-0.18905404
97	0xbd9d462c	-0.076794
98	0xbebfc3f0	-0.37454176
99	0xbe504673	-0.20339374

bn.running_mean f4 [100]
0	0x3dcb5ead	0.09930167
1	0xbdeaec70	-0.11470878
2	0xbe50abb5	-0.20378001
3	0xbde03dc3	-0.1094928
4	0xbebad996	-0.3649413
5	0xbe946502	-0.28983313
6	0xbe83da38	-0.25752425
7	0x3d0750bc	0.03303598
8	0xbe07db39	-0.1326722
9	0xbdf005d9	-0.11719865
10	0xbd2c7773	-0.042106103
11	0xbed7a62c	-0.42118967
12	0xbea82570	-0.32841063
13	0x3e329452	0.17439392
14	0xbe9bcb23	-0.3042842
15	0x3b0d8cb9	0.002159877
16	0xbe6b5921	-0.22983219
17	0x3d6d3f3d	0.057921637
18	0x3e766a3e	0.24063966
19	0x3e4ca3e2	0.19984391
20	0xbdc2cf9c	-0.095122546
21	0x3dd804ef	0.10547816
22	0x3e40b16b	0.1881768
23	0x3c803628	0.015650824
24	0xbdd2d846	-0.10295157
25	0x3c8500b7	0.016235692
26	0x3e4de664	0.20107418
27	0xbe30474f	-0.17214702
28	0xbd1be387	-0.038058784
29	0xbe345205	-0.17609413
30	0xbe7e8f66	-0.2485939
31	0x3caa56dd	0.020793373
32	0x3dfff277	0.124974184
33	0x3dae5259	0.085118
34	0x3e18ce8d	0.14922543
35	0x3e6c3567	0.23067246
36	0x3d273ec8	0.040831357
37	0xbd9a2957	-0.07527416
38	0x3d42a3ed	0.047519613
39	0x3dbae95f	0.09126543
40	0x3e56f155	0.20990498
41	0x3c3b6660	0.011437982
42	0x3cdc8082	0.026916746
43	0x3d995ec6	0.0748878
44	0xbe17698f	-0.14786361
45	0xbe96815c	-0.29395568
46	0xbde56e18	-0.11202639
47	0xbe58f887	-0.21188556
48	0xbeb5f72f	-0.3554015
49	0xbe5d611c	-0.21619076
50	0x3e3c96f2	0.18416956
51	0xbdf4945b	-0.11942359
52	0x3c92878a	0.017886896
53	0xbe0223a1	-0.12708904
54	0x3c923379	0.01784681
55	0x3df8a503	0.121408485
56	0xbdfa6798	-0.1222679
57	0xbe94dd4d	-0.2907509
58	0xbe42b1e4	-0.19013172
59	0x3de8ba36	0.11363642
60	0x3e1b0910	0.15140176
61	0xbec9e9da	-0.39436227
62	0xbdbec20d	-0.09314356
63	0xbdcd8b48	-0.100363314
64	0xbb662b57	-0.0035121047
65	0xbcb46267	-0.022019578
66	0xbd2d6cfa	-0.042340256
67	0xbd89c6c5	-0.067273654
68	0x3d8b5ed7	0.06805199
69	0xbe6c3cb5	-0.23070033
70	0x3e23f036	0.16009602
71	0xbe405ee5	-0.187862
72	0xbdc2b701	-0.095075615
73	0xbe059191	-0.1304381
74	0x3ed4fad5	0.4159762
75	0xbe928505	-0.2861711
76	0x3ddb6a06	0.10713582
77	0x3dafe7ff	0.085891716
78	0x3e099d87	0.13438998
79	0xbec09fc6	-0.37621897
80	0x3e3db016	0.18524203
81	0x3dc1f54f	0.09470617
82	0xbe573b18	-0.21018636
83	0x3e1d8764	0.15383679
84	0x3e7f35c9	0.24922861
85	0xbe918f14	-0.28429472
86	0x3e839119	0.25696638
87	0x3e98d294	0.29848158
88	0x3d45a595	0.048253614
89	0xbcf071bd	-0.02935111
90	0xbf01c060	-0.50684166
91	0xbe1f1572	-0.15535524
92	0x3e8b652d	0.27225628
93	0xbdcae611	-0.09907163
94	0xbebf8254	-0.3740412
95	0x3dc18b54	0.09450403
96	0xbe225c20	-0.15855455
97	0xbed6e108	-0.4196856
98	0xbdbb12b8	-0.0913443
99	0xbe42f6f0	-0.19039512

bn.running_var f4 [100]
0	0x4098d8af	4.7764506
1	0x40cfa973	6.4894347
2	0x40dcd106	6.9005156
3	0x40d71dfe	6.722411
4	0x40cfa908	6.4893837
5	0x40c44065	6.1328607
6	0x40c783cc	6.2348385
7	0x40d42319	6.6292844
8	0x40dfecc9	6.9976544
9	0x406192cc	3.5245848
10	0x40c4ab95	6.145945
11	0x40da7c50	6.827675
12	0x40d7bce5	6.7418084
13	0x40e4b74c	7.147375
14	0x40b4a817	5.645519
15	0x40e3067a	7.0945406
16	0x408dca0e	4.430915
17	0x40dfa2e9	6.9886365
18	0x40af5d78	5.4801598
19	0x40c87b6b	6.2650657
20	0x40af9662	5.4871073
21	0x40d65ff8	6.699215
22	0x40c64bfd	6.196776
23	0x40d7d487	6.7446933
24	0x40f35fe6	7.6054564
25	0x40c249d2	6.0715113
26	0x40d6623c	6.6994915
27	0x40bd0c8d	5.907782
28	0x40c316df	6.096542
29	0x4077bd42	3.8709264
30	0x40dc47d5	6.8837686
31	0x40d6b5f1	6.7097096
32	0x40dff335	6.9984384
33	0x40c895e6	6.268298
34	0x40dc9bc6	6.8940153
35	0x40d5ee92	6.6853724
36	0x40cb66fa	6.3563204
37	0x40c0ab38	6.0209007
38	0x40c83d74	6.2575016
39	0x40d62dc2	6.6930857
40	0x40dcb58b	6.897161
41	0x40cd251d	6.4107804
42	0x40c4ba01	6.1477056
43	0x40c6330a	6.1937304
44	0x41076537	8.462211
45	0x40c96173	6.2931457
46	0x40c73c42	6.2261057
47	0x40cb0612	6.344491
48	0x40cf8183	6.4845595
49	0x40cddacd	6.432959
50	0x40c55172	6.166192
51	0x40af7fca	5.4843493
52	0x40e73a0a	7.225835
53	0x40c25fb3	6.074182
54	0x40c5d4e0	6.1822357
55	0x40d5f899	6.6865964
56	0x40bc9f34	5.894434
57	0x40bdb7ec	5.9287014
58	0x40c5b813	6.17872
59	0x40da4a0f	6.8215404
60	0x40ddc89a	6.9307375
61	0x40f84045	7.7578454
62	0x40d9b24b	6.8030143
63	0x40e075b0	7.014366
64	0x40d55d79	6.66766
65	0x40a9fc13	5.312021
66	0x40d885bc	6.766325
67	0x40c3fcbd	6.124602
68	0x40bc23fd	5.879393
69	0x40c9a96d	6.301932
70	0x40c7412b	6.226705
71	0x40a49956	5.143718
72	0x40ce2b12	6.4427576
73	0x40c13fa1	6.039017
74	0x40bbd5f9	5.8698697
75	0x40bd7387	5.9203525
76	0x40bb8178	5.8595543
77	0x40db6298	6.8557854
78	0x40d99b6a	6.8002214
79	0x40c5abcf	6.1772227
80	0x40acfdf4	5.406
81	0x40ae1f2c	5.441305
82	0x40d98720	6.7977448
83	0x40b2d4a3	5.5884566
84	0x40ea06b6	7.313319
85	0x40af405e	5.4766073
86	0x40cb454f	6.3522105
87	0x40b670a7	5.7012515
88	0x40c533cb	6.1625724
89	0x40f44ae3	7.6341414
90	0x409b3fcb	4.851537
91	0x40f369a0	7.6066437
92	0x40c35aad	6.104819
93	0x40de3402	6.9438486
94	0x40c58c9a	6.1734133
95	0x40d8a096	6.769603
96	0x40d0ee0f	6.52906
97	0x40c1a5e0	6.0514984
98	0x40e6be7c	7.2107525
99	0x40c3263d	6.0984178

net.0.weight f4 [100, 100]
0	0x3de55725	0.11198262
1	0xbe9ea8c5	-0.30988136
2	0x3f15a100	0.5844879
3	0xbf08e339	-0.53471714
4	0xbdd17fdf	-0.102294676
5	0x3ea372c0	0.31923485
6	0xbede5358	-0.4342296
7	0x3dea3950	0.11436713
8	0x3e95505e	0.29162878
9	0xbd54cc94	-0.051952913
10	0xbe9b245f	-0.30301186
11	0x3ed9c3a2	0.42532068
12	0x3e215641	0.1575556
13	0x3e833e0d	0.25633278
14	0x3ef6454e	0.4809975
15	0xbe9c05be	-0.3047313
16	0x3e99a530	0.3000884
17	0x3ed5bbf8	0.4174497
18	0x3ec64341	0.38723186
19	0x3edb050c	0.42777288
20	0x3eb2cf30	0.34923697
21	0xbed03dbf	-0.4067211
22	0xbed8df8f	-0.42358062
23	0x3f0d0d02	0.55097973
24	0x3cd2d43e	0.02573597
25	0xbec9d5ef	-0.3942103
26	0xbe85903b	-0.26086602
27	0xbee7be33	-0.45262298
28	0x3da8b19c	0.08237001
29	0xbde40175	-0.111330904
30	0xbed8761b	-0.42277607
31	0x3edd2fce	0.43200535
32	0xbc4d08e1	-0.012514324
33	0xbedfe979	-0.43732813
34	0xbef0f2b8	-0.4706018
35	0x3eee18b0	0.4650321
36	0xbe89b8d9	-0.2689884
37	0x3f12e016	0.5737318
38	0x3f046bee	0.5172719
39	0x3ed4b12c	0.4154142
40	0xbe80a6d6	-0.25127286
41	0xbe758924	-0.23978096
42	0xbeddf296	-0.4334914
43	0x3ededccc	0.4352783
44	0xbeb25118	-0.34827495
45	0xbec3aeee	-0.38219398
46	0xbdecc1d0	-0.11560404
47	0x3edca9ba	0.4309824
48	0x3e17879e	0.14797828
49	0xbeadb09d	-0.33923808
50	0x3ea86eb0	0.32896948
51	0x3e938234	0.28810275
52	0x3f119175	0.56862575
53	0xbef4bce1	-0.47800353
54	0xbef0d6f8	-0.47039008
55	0x3eedd182	0.46448904
56	0x3ef40021	0.47656348
57	0x3e4b912b	0.19879596
58	0xbf060ba8	-0.52361536
59	0xbedcf416	-0.43154973
60	0x3e3ebc66	0.18626556
61	0xbdf07d08	-0.11742598
62	0xbea12f58	-0.31481433
63	0x3e929ff0	0.28637648
64	0xbe48a889	-0.19595541
65	0x3f19697e	0.59926593
66	0xbec2f8e1	-0.38080505
67	0xbecfa5c3	-0.40556154
68	0xbec70580	-0.38871384
69	0xbebcf9ff	-0.36909482
70	0x3ed054af	0.40689608
71	0xbe7b8f04	-0.24566275
72	0x3df0a188	0.1174956
73	0x3ed08953	0.4072977
74	0x3ec0aa28	0.3762982
75	0x3e213052	0.15741089
76	0xbe68b84c	-0.22726554
77	0x3e7a8936	0.24466404
78	0xbedadbdb	-0.4274586
79	0xbec1f7bc	-0.3788432
80	0xbeb179ba	-0.34663182
81	0x3e1a0711	0.15041758
82	0x3eec326c	0.4613222
83	0xbf00adf7	-0.5026545
84	0xbea15a0f	-0.31514022
85	0x3ee52653	0.44755802
86	0xbd9d49da	-0.07680102
87	0x3eb31ab8	0.34981322
88	0x3f24bcbc	0.64350486
89	0xbef928dc	-0.48663986
90	0xbed7d92a	-0.4215787
91	0xbe7393bb	-0.23786823
92	0x3ed066bf	0.4070339
93	0xbefea8fd	-0.49738303
94	0xbeacb0f1	-0.33728746
95	0xbe0ccf6e	-0.13751003
96	0xbefdd5d8	-0.49577212
97	0x3f262b68	0.6490998
98	0xbe0eddc4	-0.13951784
99	0x3dcc5b99	0.09978408
100	0xbec025e1	-0.375289
101	0xbf17e9bf	-0.59341043
102	0x3ed7eeac	0.4217428
103	0xbebe0034	-0.3710953
104	0xbe67ef8d	-0.22649975
105	0x3ef28a3a	0.47371083
106	0x3ed8a948	0.4231665
107	0xbf00aba1	-0.50261885
108	0x3ed5fa07	0.41792318
109	0x3ef222a2	0.47292048
110	0xbe0bda39	-0.13657464
111	0xbec06ba9	-0.37582138
112	0x3ec4be9e	0.3842668
113	0x3dabefb8	0.08395332
114	0x3dbb2552	0.09137978
115	0xbeb82c32	-0.35971218
116	0xbef1e9c1	-0.47248653
117	0xbe21fb6c	-0.15818566
118	0x3e3fa769	0.18716206
119	0xbe6f6033	-0.23376541
120	0xbeb6f863	-0.3573638
121	0x3ea2dd54	0.31809485
122	0xbea899b7	-0.32929775
123	0xbf03a990	-0.51430607
124	0x3f095bd5	0.5365575
125	0xbf016a12	-0.50552475
126	0xbf229c87	-0.6352009
127	0x3eba0e14	0.36338866
128	0x3ea11429	0.31460693
129	0x3e804ae3	0.25057134
130	0xbefcc6b6	-0.49370354
131	0x3ebcb4b6	0.36856622
132	0x3e9ab6ad	0.30217496
133	0x3ec6d65f	0.38835427
134	0xbed9f10a	-0.4256671
135	0x3eb8fe00	0.36131287
136	0x3e8969ba	0.26838475
137	0x3eb7f5d5	0.35929742
138	0xbd66947c	-0.05629395
139	0xbf005dce	-0.50143135
140	0x3eb54dfc	0.3541106
141	0x3eb026c8	0.34404588
142	0x3ed966ab	0.42461142
143	0x3edf3c9f	0.43600938
144	0xbbdbd975	-0.0067092725
145	0xbeae9108	-0.34095025
146	0x3c7c485e	0.015398113
147	0xbecf2bfd	-0.40463248
148	0x3edd9e1a	0.43284684
149	0xbe31c554	-0.17360431
150	0xbe791a58	-0.24326456
151	0xbebd5235	-0.3697678
152	0x3e7f28ce	0.2491791
153	0xbec1aa04	-0.37825024
154	0x3f2096e2	0.6273023
155	0x3e46264e	0.1935055
156	0x3eb85449	0.36001804
157	0x3ed30ed7	0.4122226
158	0xbea2e019	-0.31811598
159	0x3f0371b0	0.5134535
160	0xbe90895d	-0.282298
161	0xbea9b566	-0.3314621
162	0x3ec7443e	0.38919252
163	0xbea14446	-0.314974
164	0x3d594357	0.053042736
165	0xbe4f07fd	-0.20217891
166	0xbe823009	-0.25427273
167	0x3e907920	0.2821741
168	0xbebcf49e	-0.36905378
169	0xbed65118	-0.41858745
170	0xbee30983	-0.44343194
171	0xbeb4490b	-0.35211977
172	0xbee8db19	-0.45479658
173	0xbef7b497	-0.48379967
174	0xbea4d738	-0.3219545
175	0xbe9501d2	-0.2910295
176	0x3eda896a	0.42682964
177	0x3f004674	0.501075
178	0xbec39cca	-0.38205558
179	0x3f1c57a2	0.6107122
180	0x3ea0c160	0.31397533
181	0x3e0ac0b1	0.13550068
182	0xbf05dedf	-0.522932
183	0x3e22701e	0.15863082
184	0x3d66968d	0.05629592
185	0x3e90e85b	0.28302273
186	0xbef7157a	-0.48258573
187	0x3ed38b97	0.41317436
188	0xbf09fdd8	-0.5390296
189	0x3ef4d62c	0.4781965
190	0x3e137ddf	0.14403485
191	0xbee1131b	-0.4395989
192	0xbea2e11b	-0.31812367
193	0x3f1284c1	0.57233816
194	0x3eeba87d	0.46026984
195	0xbe590b47	-0.21195708
196	0xbe4d7dfb	-0.20067589
197	0xbf029264	-0.51004624
198	0x3f01f9d7	0.5077185
199	0xbc37e7d7	-0.0112247085
200	0x3ed83c99	0.42233732
201	0x3eb98c96	0.3624007
202	0x3f0eeb4e	0.55827796
203	0x3ed171a3	0.4090701
204	0x3e89b221	0.26893714
205	0xbec820f8	-0.39087653
206	0x3e92ee32	0.28697354
207	0x3e324410	0.17408776
208	0xbeb26ef7	-0.34850284
209	0xbebd2358	-0.36941028
210	0x3eb8cd8b	0.36094317
211	0xbedab722	-0.42717844
212	0x3ed7124d	0.4200615
213	0x3eea6a15	0.4578406
214	0xbed9ce19	-0.42540053
215	0x3ea9a572	0.33134037
216	0x3ecd13b8	0.40054107
217	0x3ec4889e	0.3838548
218	0xbeb2af3c	-0.34899318
219	0xbeb82cdf	-0.35971734
220	0x3ed89cd5	0.42307153
221	0x3ee88105	0.45410934
222	0x3ed21f20	0.41039371
223	0xbea9258a	-0.33036453
224	0xbee6194b	-0.44941172
225	0xbefcf2f3	-0.49404106
226	0x3e9631d7	0.293349
227	0x3e9f13ff	0.31069943
228	0x3ec0a92d	0.3762907
229	0xbed33a93	-0.41255626
230	0x3ec8dc7d	0.3923072
231	0xbeacfa1d	-0.3378457
232	0xbef42502	-0.47684485
233	0xbec19f72	-0.3781696
234	0x3ee3dbfb	0.4450377
235	0xbec6d28d	-0.38832512
236	0x3ec5637e	0.3855247
237	0x3d8d1cf2	0.068902865
238	0xbec6e152	-0.3884378
239	0xbea77e14	-0.32713377
240	0xbebfd6b8	-0.37468505
241	0xbeda79ad	-0.42670956
242	0xbbc3c4d4	-0.0059743915
243	0xbec8fbdf	-0.39254662
244	0x3d2fb069	0.042892847
245	0x3ec99355	0.39370218
246	0x3c889e98	0.016677186
247	0x3ee2d4a9	0.44302872
248	0xbeec3fe2	-0.4614249
249	0x3eabf361	0.3358412
250	0x3ec544f7	0.38529179
251	0x3ec0e585	0.3767511
252	0xbeb42cfb	-0.35190567
253	0x3ea859ee	0.3288111
254	0x3edda9fe	0.43293756
255	0xbec68368	-0.3877213

net.0.bias f4 [100]
0	0x3657812d	3.2112687e-06
1	0x371f4290	9.492636e-06
2	0xb81fa837	-3.8065216e-05
3	0x35f1499f	1.7977326e-06
4	0x3813e342	3.525918e-05
5	0xb8768baa	-5.8781043e-05
6	0x36e4eeca	6.822728e-06
7	0x36b6ac0f	5.444053e-06
8	0xb70bb118	-8.3262785e-06
9	0xb6cb370b	-6.0562793e-06
10	0x37adc47d	2.0714704e-05
11	0xb658d028	-3.230767e-06
12	0x35a81099	1.2521806e-06
13	0xb72eaceb	-1.0411469e-05
14	0x378ab1e4	1.6533719e-05
15	0xb7dfe272	-2.6689118e-05
16	0xb73acffe	-1.1134891e-05
17	0x38a766a0	7.982296e-05
18	0x38502be8	4.9631955e-05
19	0xb68043e4	-3.822601e-06
20	0x37c7acba	2.380308e-05
21	0xb800c571	-3.070146e-05
22	0x39010d45	0.00012307342
23	0xb84e1ba7	-4.913998e-05
24	0x38c684de	9.466124e-05
25	0xb73bdbb3	-1.1197221e-05
26	0x37837f86	1.56758e-05
27	0x37b9eb9e	2.2163436e-05
28	0xb70da6a3	-8.443053e-06
29	0xb702222e	-7.756562e-06
30	0xb777baea	-1.4765867e-05
31	0xb6b4f457	-5.392863e-06
32	0xb886fa9e	-6.436299e-05
33	0xb6a36dc9	-4.870559e-06
34	0xb7b65084	-2.1733584e-05
35	0xb7080725	-8.107895e-06
36	0xb80feca7	-3.4314256e-05
37	0x36d3853d	6.303801e-06
38	0xb82e9004	-4.1618958e-05
39	0xb6418444	-2.883623e-06
40	0x38aab2cb	8.1395345e-05
41	0x39b77de4	0.00034998276
42	0xb770c664	-1.4351306e-05
43	0xb8340015	-4.291542e-05
44	0x374abd2e	1.2084185e-05
45	0xb814e87b	-3.5502464e-05
46	0x37c66c0b	2.365375e-05
47	0x37ab5ad2	2.042708e-05
48	0xb7042fd0	-7.878945e-06
49	0xb81bd766	-3.7155485e-05
50	0x34fe1de1	4.7332927e-07
51	0xb62a1bca	-2.534815e-06
52	0xb7407921	-1.1472294e-05
53	0x382a4a34	4.0600265e-05
54	0x377accb2	1.49488205e-05
55	0x36e214ba	6.7377377e-06
56	0xb7ea1dc9	-2.7908844e-05
57	0xb6f2e304	-7.23859e-06
58	0xb7b84c0f	-2.1969927e-05
59	0xb7a05c6d	-1.9116525e-05
60	0x3961d068	0.0002153531
61	0xb53e1fae	-7.0826616e-07
62	0x36eca515	7.052566e-06
63	0x37db1642	2.6117199e-05
64	0xb5a75b38	-1.2469018e-06
65	0xb6bc4e28	-5.611935e-06
66	0x36f4e40e	7.2983157e-06
67	0xb86d21b8	-5.6536606e-05
68	0xb69a920b	-4.6065593e-06
69	0xb825b505	-3.9507653e-05
70	0x3836bbb9	4.356701e-05
71	0x36822cf4	3.879535e-06
72	0x37735dac	1.4505738e-05
73	0x3797d503	1.8099794e-05
74	0xb8a00220	-7.62979e-05
75	0xb5d92aa0	-1.6180165e-06
76	0x36b69360	5.4411794e-06
77	0xb79aefd7	-1.8469915e-05
78	0xb807811a	-3.2306743e-05
79	0x37b7e59e	2.1922224e-05
80	0xb4359aeb	-1.6913297e-07
81	0xb7979118	-1.8068167e-05
82	0x3803c756	3.141848e-05
83	0x384dda57	4.9079154e-05
84	0xb7c2b021	-2.3208619e-05
85	0x371626fb	8.949773e-06
86	0xb7bf2557	-2.2786362e-05
87	0x3882ea35	6.2425075e-05
88	0xb80fb00c	-3.4257813e-05
89	0xb8a9fb9e	-8.105415e-05
90	0xb716cb60	-8.988049e-06
91	0x37c9743a	2.401519e-05
92	0xb800db78	-3.0721974e-05
93	0xb6226e16	-2.420396e-06
94	0x37b0b576	2.1065334e-05
95	0xb78c3761	-1.6715088e-05
96	0xb7144e9d	-8.839791e-06
97	0xb6f42082	-7.275551e-06
98	0x37ccf614	2.4433284e-05
99	0xb791e171	-1.7390326e-05

net.1.weight f4 [100]
0	0x3f2e3c81	0.6806107
1	0x3f2e7c0e	0.6815804
2	0xbd6c904f	-0.05775481
3	0x3f359077	0.7092356
4	0x3f119112	0.56861985
5	0xbdc03b0e	-0.09386264
6	0xbdd7babf	-0.10533666
7	0x3d275c58	0.04085955
8	0x3f0a4cdf	0.54023546
9	0x3f5822ce	0.8442811
10	0x3f11dfa8	0.569819
11	0xbdc26372	-0.09491624
12	0x3ebaae80	0.36461258
13	0xbe387f6f	-0.18017362
14	0x3e922328	0.28542447
15	0x3ede4e48	0.434191
16	0x3edfebc0	0.4373455
17	0xbdf5723a	-0.119846776
18	0x3e2943a5	0.1652971
19	0xbe9b4c92	-0.30331856
20	0x3f13e69b	0.5777375
21	0x3e36df6f	0.1785867
22	0x3f539015	0.82641727
23	0x3b7762b7	0.0037748048
24	0x3f0511bf	0.51980203
25	0xbe470e0f	-0.19438957
26	0x3e677c53	0.2260602
27	0x3e8caad5	0.27474084
28	0x3f63a6f9	0.88926655
29	0x3f133d58	0.5751548
30	0x3e4b9eec	0.19884843
31	0xbdafa2d2	-0.085759774
32	0xbd623e2d	-0.055235077
33	0x3e8325b4	0.25614703
34	0xbd153766	-0.036429785
35	0x3dcc1a6d	0.09965978
36	0xbe0dd094	-0.13849097
37	0x3eee6c0e	0.46566814
38	0x3c8d28f9	0.017231451
39	0x3f4fe253	0.8120472
40	0x3e7abf7c	0.24487108
41	0x3e9f4615	0.31108156
42	0x3f1c8f11	0.611558
43	0xbc6f8562	-0.014619203
44	0x3f32e590	0.69881535
45	0x3f06ea90	0.52701664
46	0x3d898199	0.06714172
47	0x3f480fac	0.78148913
48	0xbcb61e31	-0.022231193
49	0x3d84ad66	0.064783856
50	0x3ec8e7f3	0.39239463
51	0x3ec8de4e	0.39232105
52	0x3eb11596	0.3458678
53	0xbe21d140	-0.15802479
54	0xbe039a60	-0.12851858
55	0x3e60e837	0.21963583
56	0x3f2066c6	0.6265682
57	0x3e8230a8	0.25427747
58	0x3f8a602f	1.0810603
59	0x3edb47c6	0.42828196
60	0x3dc2591b	0.09489652
61	0x3c7f498d	0.015581501
62	0xbe1964fb	-0.14979927
63	0x3f47e2e2	0.7808057
64	0x3ed5d3de	0.41763204
65	0x3d66c3e1	0.05633915
66	0x3c895b42	0.016767148
67	0xbd35aff8	-0.04435727
68	0xbddc6fd2	-0.107635155
69	0x3ed20235	0.4101731
70	0x3f0fafc4	0.5612757
71	0x3f42f786	0.7615894
72	0xbe32c4f3	-0.17457943
73	0x3f45fb20	0.7733631
74	0x3ec44153	0.38331088
75	0x3e3399da	0.17539158
76	0x3f427be0	0.7597027
77	0x3f3cb7ce	0.73717964
78	0x3e2fa806	0.1715394
79	0xbe5a97c5	-0.21346958
80	0xbde1e019	-0.11029071
81	0x3ea306a6	0.3184101
82	0x3e5454c5	0.20735462
83	0x3df184e6	0.117929265
84	0xbb6077b0	-0.0034251027
85	0x3e8fe30d	0.28102913
86	0x3e0737d3	0.13204889
87	0x3d8ac801	0.06776429
88	0x3e6f0aaf	0.23343919
89	0x3f20317a	0.62575495
90	0xbe54b905	-0.20773704
91	0x3e4f14ed	0.20222826
92	0x3e8c9ccf	0.27463385
93	0x3e3aeddd	0.182548
94	0x3f2749b3	0.6534683
95	0x3dd98210	0.106205106
96	0x3f04f4ca	0.5193602
97	0x3f04b281	0.51834875
98	0x3cbe18c9	0.023205178
99	0x3ee81431	0.45327905
