FarconVAE/result_yaleb/yaleb_downstream_y_2023_05_01_16_56_48_611840_ours.pth.pt (torch, 16423 bytes, 2 tensors)

layer.weight f4 [38, 100]
-0.07793064 0.1560386 0.24361132 -0.008558602 -0.055722557 0.039344747 -0.049713176 0.15727895
0.24764277 0.14667806 -0.009759841 0.15784548 -0.16859034 -0.14144447 -0.17538938 0.14447524
-0.1776464 0.12917353 -0.16449048 -0.11809073 0.04885634 -0.1972834 -0.003164635 0.15707071
0.22971456 -0.1272721 0.18363748 -0.26094726 0.2039028 -0.12577769 -0.18455069 0.052790534
-0.1697323 0.15943666 -0.12896463 0.18407002 0.04461458 0.16860394 -0.06483735 0.2366313
-0.08835667 0.19194569 -0.13950148 0.20969427 0.17086872 0.04671478 0.02026709 -0.11926942
-0.04974227 -0.09358554 -0.08391941 -0.1504144 0.15031303 -0.13141887 0.18594876 -0.18920839
-0.1814438 -0.06894115 0.17598674 0.20148653 -0.1454303 -0.03047179 -0.10066264 -0.04984708
-0.16463536 0.10023309 -0.21115154 -0.121357515 0.16606957 -0.13417527 0.15524334 -0.20783293
-0.14715141 0.055180084 -0.056998704 -0.08695058 0.0370683 -0.04415727 -0.2245569 0.07175981
0.22943689 0.07296663 0.029169755 0.04778141 0.10746778 -0.013129741 -0.057121422 0.18656313
-0.20891531 -0.036134835 0.10269187 0.24126051 -0.17303279 0.073280185 0.06232308 -0.10436117
0.11992278 0.15011649 -0.23754115 -0.13339071 0.21188563 0.23031226 -0.24318378 -0.20277546
0.11380963 -0.14722843 -0.13212457 -0.13130938 -0.04960241 -0.20677853 0.21951702 0.23294319
-0.13309608 0.0087047415 0.11083586 -0.10099247 0.13025431 -0.07486855 -0.11981828 -0.10483767
-0.14883408 0.021088885 0.12521006 0.20476328 -0.1445602 0.011798843 -0.041578777 -0.019107537
-0.07428001 -0.1801125 -0.19855024 0.26806042 -0.089836776 0.1907096 0.25761968 0.11907221
-0.18203664 -0.20015213 0.27901128 -0.095497996 0.10246871 0.2368534 0.13566548 -0.082950376
-0.21620163 -0.20471072 -0.18455356 -0.0031281875 0.09045499 0.20277886 -0.21840048 0.056428693
0.22209792 0.08515287 -0.14962456 0.028956614 -0.08376904 -0.1388273 0.09588927 -0.17387018
-0.1522209 0.24386959 0.06501045 0.039122142 -0.055597715 0.20166314 -0.07604871 -0.1687798
-0.18218791 -0.06560757 -0.1852013 -0.14641821 -0.026961727 0.24989186 0.15694313 -0.15969571
0.18518375 -0.1222966 -0.034751758 0.006497762 0.16922578 0.03362504 0.1270354 0.10338628
-0.16355282 0.047614995 -0.17789266 0.16566896 0.12587383 -0.16136736 -0.11452628 0.20099783
0.0067848023 -0.02841378 -0.26676607 -0.038617484 -0.06631566 0.15558493 0.24801302 -0.13155647
-0.2548788 -0.2728516 -0.105644174 -0.04064292 -0.1223835 -0.1668204 -0.18661807 -0.2567252
-0.20628157 0.06935656 0.28511232 -0.1021512 -0.17563426 -0.3004368 0.14530024 -0.17984337
0.009554685 0.16598117 -0.06051311 -0.07076657 0.0012233234 -0.2223734 -0.06666502 0.040858317
0.11417698 -0.06653129 0.17890036 -0.11188168 -0.1895755 -0.23600522 -0.09494052 0.1858403
-0.003493896 0.14923112 -0.12764326 -0.063702814 -0.15185575 0.24545795 0.23669153 -0.1942495
0.0071349395 -0.113256276 0.25310183 -0.11899094 0.002244355 0.19975889 0.011339014 0.18373202
0.04572315 0.21460722 0.09831361 0.16460903 0.1510259 -0.03716306 0.11461466 -0.15641676
00000000: 199a 9fbd 95c8 1f3e 3f75 793e 6139 0cbc
00000010: 563d 64bd f527 213d 0ba0 4bbd bc0d 213e
00000020: 1196 7d3e c632 163e bde7 1fbc 3fa2 213e
00000030: f2a2 2cbe d2d6 10be 4699 33be 51f1 133e
00000040: f0e8 35be 1146 043e 3170 28be 8dd9 f1bd
00000050: 961d 483d a904 4abe c465 4fbb 25d7 203e
00000060: 4b3a 6b3e 9e53 02be 770b 3c3e e19a 85be
00000070: e5cb 503e decb 00be dbfa 3cbe e33a 583d
00000080: 4ece 2dbe 5d43 233e 4e0f 04be da7c 3c3e
00000090: c7bd 363d 83a6 2c3e 72c9 84bd 7a4f 723e
000000a0: 58f4 b4bd 698d 443e 7ad9 0ebe 18ba 563e
000000b0: 36f8 2e3e ff57 3f3d 2b07 a63c 8743 f4bd
000000c0: 8dbe 4bbd c7a9 bfbd f1dd abbd 3c06 1abe
000000d0: a9eb 193e ab92 06be 5a69 3e3e d8bf 41be
000000e0: 67cc 39be 0531 8dbd de35 343e 7c52 4e3e
000000f0: aeeb 14be fa9f f9bc 3728 cebd 742c 4cbd
00000100: 2c96 28be 0247 cd3d 1c38 58be 4a8a f8bd
00000110: 240e 2a3e 3e65 09be 1cf8 1e3e 28d2 54be
00000120: dcae 16be 8304 623d 7977 69bd 2513 b2bd
00000130: eed4 173d 41de 34bd 3ef2 65be cff6 923d
00000140: 81f1 6a3e 876f 953d 69f5 ee3c 71b6 433d
00000150: 1118 dc3d 201e 57bc 27f8 69bd 680a 3f3e
00000160: e5ed 55be 1f02 14bd 1d50 d23d ff0c 773e
00000170: 822f 31be ec13 963d 7c46 7f3d 4fbb d5bd
00000180: 139a f53d 23b8 193e fd3d 73be 9397 08be
00000190: 8cf8 583e fad6 6b3e 2b05 79be 5fa4 4fbe
000001a0: 0615 e93d 0dc3 16be aa4b 07be f775 06be
000001b0: e62b 4bbd c0bd 53be 12c9 603e a988 6e3e
000001c0: 574a 08be 559e 0e3c e9fd e23d 24d5 cebd
000001d0: 6361 053e af54 99bd 4963 f5bd 22b5 d6bd
000001e0: f667 18be 99c2 ac3c 1137 003e 77ad 513e
000001f0: 9707 14be ef4f 413c 824e 2abd 6987 9cbc
00000200: 1e20 98bd 696f 38be c150 4bbe 373f 893e
00000210: 58fc b7bd 6149 433e bae6 833e 21dc f33d
00000220: d067 3abe aef4 4cbe 91da 8e3e 7494 c3bd
00000230: 1ddb d13d b389 723e e4eb 0a3e e3e1 a9bd
00000240: f663 5dbe b09f 51be 9cfb 3cbe 4702 4dbb
00000250: 7740 b93d 43a5 4f3e 60a4 5fbe c621 673d
00000260: a36d 633e a164 ae3d 2e37 19be 6c36 ed3c
00000270: 1a8f abbd be28 0ebe 9861 c43d 060b 32be
00000280: ccdf 1bbe f3b8 793e 3324 853d 8a3e 203d
00000290: 6eba 63bd c880 4e3e 6dbf 9bbd 9dd4 2cbe
000002a0: 788f 3abe 435d 86bd 69a5 3dbe a8ee 15be
000002b0: d7de dcbc a7e3 7f3e b3b5 203e 4687 23be
000002c0: cfa0 3d3e a476 fabd dc57 0ebd 2eeb d43b
000002d0: 8649 2d3e 69ba 093d 9115 023e 30bc d33d
000002e0: 647a 27be f107 433d 7e29 36be 20a5 293e
000002f0: 12e5 003e 7c3d 25be c18c eabd 60d2 4d3e
00000300: 0c53 de3b 04c4 e8bc 9095 88be 5e2d 1ebd
00000310: 81d0 87bd a851 1f3e 20f7 7d3e bdb6 06be
00000320: 797f 82be 34b3 8bbe f95b d8bd 3179 26bd
00000330: 33a4 fabd f8d2 2abe cf18 3fbe 7c71 83be
00000340: 7a3b 53be d00a 8e3d 3efa 913e a634 d1bd
00000350: 78d9 33be dad2 99be 96c9 143e dc28 38be
00000360: 418b 1c3c f8f6 293e 98dc 77bd 10ee 90bd
00000370: ec57 a03a dab5 63be ac87 88bd 0d5b 273d
00000380: 9fd5 e93d 8f41 88bd a831 373e 3922 e5bd
00000390: 1420 42be 5aab 71be 2d70 c2bd eb4c 3e3e
000003a0: d9f9 64bb 0bd0 183e eab4 02be 9f76 82bd
000003b0: 1380 1bbe 5459 7b3e 445f 723e 57e9 46be
000003c0: 36cc e93b e8f2 e7bd 9096 813e 86b1 f3bd
000003d0: 0716 133b 988d 4c3e 46c7 393c 3f24 3c3e
000003e0: 3348 3b3d ffc1 5b3e a558 c93d 458f 283e
000003f0: 89a6 1a3e 4b38 18bd 17bb ea3d b72b 20be

layer.bias f4 [38]
-0.014007199 0.055335447 0.0819556 -0.022993162 0.010484636 -0.033235427 0.0109093655 -0.03508778
0.02584284 0.03590903 -0.037584737 0.015565847 -0.0055657183 -0.002983963 0.0016632357 0.03406727
0.006642442 -0.009312968 -0.012660183 0.0018019534 0.0042428877 0.020354692 -0.013735565 -0.03350458
-0.037127398 0.05070466 -0.015080973 -0.02585466 -0.0026866323 -0.020829003 -0.03242251 0.0066095255
0.06757292 -0.017717669 0.00075744494 -0.006431718 -0.010853745 -0.010860261
00000000: 737e 65bc 6ca7 623d 56d8 a73d 285c bcbc
00000010: c0c7 2b3c df21 08bd 32bd 323c 34b8 0fbd
00000020: 5db4 d33c 5915 133d 74f2 19bd e507 7f3c
00000030: a160 b6bb 978e 43bb ee00 da3a 1f8a 0b3d
00000040: d8a8 d93b 6b95 18bc a86c 4fbc 862f ec3a
00000050: ec07 8b3b e2be a63c 230b 61bc 193c 09bd
00000060: e612 18bd b1af 4f3d 2f16 77bc 27cd d3bc
00000070: 3612 30bb 96a1 aabc 77cd 04bd b894 d83b
00000080: ac63 8a3d a524 91bc 458f 463a 29c1 d2bb
00000090: e8d3 31bc 3cef 31bc
