FarconVAE/result_yaleb/yaleb_downstream_y_2023_05_01_18_10_05_155391_ours.pth.pt (torch, 16423 bytes, 2 tensors)

layer.weight f4 [38, 100]
00000000: c6f0 0abd 0337 9bbd c9f5 04be 9a7f a0be
00000010: 95c9 a33d 8c70 f8bd 5eb4 5fbe a3cc a4bd
00000020: 16c0 67be ae44 4abe e7fb d2bd fa49 e7bd
00000030: af6c bfbd b313 01bd 0f78 07be 975e 683d
00000040: 2e48 663e 9ba9 c3bd 3971 abbc eaf5 31be
00000050: 9194 65be 39b1 80be c790 b6bd 6206 873e
00000060: 9206 72be bd4c b4bd 10a4 353e e332 4cbe
00000070: a7c6 51be 9118 9b3d 56e2 513e de88 73be
00000080: c7f2 143e c17c 0abe 540b 8b3e 335c 983d
00000090: c9b0 8fbd faf6 4bbe af9d bdbc a2bd 553e
000000a0: cda0 7c3e 89ff 4fbe 5be6 fa3d 1a99 3f3e
000000b0: 3ac1 adbc 3249 713e 1c72 3d3e bd9e 1a3e
000000c0: 6eb7 dcba 00e5 43be 998f 84be 3d03 2c3e
000000d0: 1ecd 903e 3d53 af3e f6bf 01be 9bd5 683e
000000e0: 2c7d 38be 33fd 7c3b df5c d3bc 9312 46be
000000f0: 56a3 613e c828 4a3e 9004 44bd af3d 54bd
00000100: 1f00 003e f2cc 2bbe d410 c5bd ccd1 053e
00000110: ffa8 653e 58eb b93d af0a ae3c 89e0 93bd
00000120: c423 4e3e f880 66be 642f 55be 6f48 f2bd
00000130: bc43 623e c9d6 c0bd 13ad 4f3e 544c 46be
00000140: bf12 2c3d 553d 42bd a282 1bbe 6467 67bd
00000150: 8426 703e 5203 3a3e c0ae 873e 2331 bf3d
00000160: a090 90bd 6b3c 12be bd8b e4bd dc4c 723e
00000170: 6685 163e 64eb 93be 0bb2 76be 4a7f 073e
00000180: 8604 37be 86f3 0cbe c643 82bd 1090 debd
00000190: 9d0b 333e 5a56 51bc 8064 5d3e c699 343e
000001a0: d80c 4e3b 2570 70be 789c 6b3e a7cf e73d
000001b0: 8744 7bbe 0bdb 753b 5a7b 54be ed8d ccbd
000001c0: 1f8d 453e 224f 033e 5551 543e 383a e2bd
000001d0: 3c5b d33d 332f 853e 4728 023e 409c 053e
000001e0: 9a3f 623e 30d8 213e 8f75 9b3e f529 49bc
000001f0: bb16 2a3c 9f90 a1be bf37 d83d d0ed eb3c
00000200: 7a5c bbbd e2a5 3fbe 3c47 55be 8ebf 4dbe
00000210: 5b51 b93d 2633 ca3c bb40 33bd 7a71 ccbd
00000220: bce3 29be c99f 213d b13a 67be 01db 473c
00000230: a270 593d 2888 ef3d bce8 78be e105 4dbd
00000240: cec0 f53d e912 27be ffa9 41bd 65d4 5e3e
00000250: 0d1a 43be a8a6 ce3d a738 323e fc3e 263e
00000260: 765a 4cbd 4db3 983e da24 283e 5001 a13d
00000270: 2d20 f9bd 42f5 403e 22cc 003c a082 f63c
00000280: ddb7 9a3e 7369 173d 797a 14be 42f6 d4bd
00000290: a8c2 f5bd 146d b63d 889d 1d3e 6cd5 17bd
000002a0: fd56 37be 93ef ecbb e13a 95be e78f 47be
000002b0: e3ab 6d3e c3fe f53c 55d9 eebd e421 8abd
000002c0: 471a 08be 25d9 203e d811 9e3c 9494 64be
000002d0: 278c 663e 9c43 19be fa06 0ebe 6b52 f3bd
000002e0: c677 e93c dd3d ca3d dcc6 bdbd 857d 17be
000002f0: 161b 8abe 9190 b33e 35d3 48be 3edf 5cbe
00000300: a73c 08bd 5e6b 803e 8cfa a0bc fa6d 763c
00000310: e574 88be 7187 ecbd 0bb7 67be 1842 b63d
00000320: 4f3d b13d 8ed9 e3bd 02a5 613b 5089 0cbd
00000330: 7bb4 1c3d 7644 96bd 74cf 88be 7426 463e
00000340: c2f6 093e 6086 d2bd faac f03b 046d 39be
00000350: 3891 4e3e 7bc4 e3bc 2d3f a13d 3111 53bd
00000360: 6d5d 5cbc 8bee 313e 7307 c8bc 9832 5d3e
00000370: 5c2f 643b 1602 143e 8f04 4e3e b807 7dbd
00000380: 4da1 043d 4299 80be 0db4 4bbe cc15 203e
00000390: 322f 13be 8aa0 17bd 67ad 79be f068 09be
000003a0: cead 46be d6f4 993d 7baf 8c3e e117 573e
000003b0: eda3 243d d8ed 393d 934e 883e 717d 29bd
000003c0: 2ed1 3cbe bfaf e2bd 6363 c9bd d984 3bbd
000003d0: 0a80 0abe b1cd fa3d eae6 17be bb8f 3cbe
000003e0: 1db1 383e e12d 593e 96ea 89be 6efc b0bc
000003f0: fa90 2d3e 41f0 053e c0a2 8bbe 3921 643e
-0.033921026 -0.07578852 -0.12984385 -0.31347352 0.07997433 -0.121308416 -0.21846148 -0.08046844
-0.22631869 -0.19752762 -0.10301953 -0.11293407 -0.093469016 -0.031512927 -0.13229392 0.056730833
0.22488472 -0.09553834 -0.020928012 -0.17378965 -0.22419955 -0.2513521 -0.08914333 0.26372057
-0.23635319 -0.08803699 0.17738366 -0.19941287 -0.20485936 0.07573045 0.20496497 -0.2378268
0.14545737 -0.13524152 0.2715708 0.074394606 -0.07016141 -0.19918433 -0.023146478 0.2087312
0.24670716 -0.20312323 0.12250968 0.18710747 -0.021210302 0.23563078 0.1850056 0.15099616
-0.0016839334 -0.19130325 -0.25890806 0.1679811 0.28281492 0.34243193 -0.12670884 0.22737734
-0.180165 0.0038603067 -0.02580112 -0.19343023 0.22034964 0.1974212 -0.047855914 -0.05181664
0.12500046 -0.16777399 -0.0962235 0.13068312 0.22427748 0.090780914 0.021245329 -0.07220561
0.20130831 -0.22510135 -0.2081886 -0.11830222 0.22096151 -0.09415967 0.20280866 -0.19365054
0.042010065 -0.047421772 -0.15186551 -0.056495085 0.23452193 0.18165329 0.2650051 0.09335544
-0.07058835 -0.1428086 -0.111594655 0.23662132 0.14699325 -0.28890526 -0.24091356 0.1323215
-0.1787282 -0.13764772 -0.06360583 -0.108673215 0.17484899 -0.0127769355 0.21620369 0.17636785
0.003144076 -0.2348028 0.23008907 0.113189034 -0.2453786 0.0037514593 -0.2075018 -0.09988008
0.19292115 0.12823156 0.2073415 -0.110462606 0.10320136 0.26012573 0.12710677 0.13047886
0.22094575 0.15805125 0.30363128 -0.01227807 0.010381396 -0.3155565 0.10557508 0.028799921
-0.09148498 -0.18715623 -0.20827955 -0.20092604 0.090487204 0.024682593 -0.043762904 -0.099825814
-0.1659078 0.039459024 -0.22580983 0.012198211 0.05308593 0.116958916 -0.24307531 -0.050054435
0.11999665 -0.16315807 -0.04728126 0.2176071 -0.19052906 0.10090381 0.17404424 0.16234964
-0.049890958 0.29824296 0.16420308 0.078615785 -0.1216434 0.18843558 0.007861169 0.030091584
0.30218402 0.0369658 -0.14499845 -0.103985325 -0.12000018 0.08907524 0.15392125 -0.03706877
-0.17904277 -0.007230708 -0.29146484 -0.19488488 0.23210101 0.030028706 -0.116625465 -0.067447454
-0.13291274 0.15707834 0.019295618 -0.22322303 0.22514401 -0.14967197 -0.13869849 -0.11880954
0.028499495 0.09875081 -0.09266445 -0.14793976 -0.2697379 0.35071233 -0.19611819 -0.21569535
-0.033260968 0.25081915 -0.01965072 0.015040869 -0.26651683 -0.11549271 -0.22628419 0.08899325
0.08654272 -0.1112548 0.0034430628 -0.03431064 0.038258057 -0.07337277 -0.26720774 0.19350606
0.13473037 -0.10279536 0.007344839 -0.18107992 0.20172584 -0.02780365 0.07873378 -0.051530067
-0.013450009 0.17376153 -0.024417615 0.21601331 0.0034818267 0.1445392 0.20118926 -0.06177494
0.03238039 -0.25116926 -0.19892903 0.15633315 -0.14373472 -0.037018336 -0.24382554 -0.13418937
-0.19402239 0.07517402 0.2747763 0.21005203 0.040195394 0.04539284 0.26622447 -0.041379396
-0.1843917 -0.11068677 -0.0983341 -0.04578099 -0.13525406 0.12246264 -0.1483418 -0.18414204
0.18036313 0.21208908 -0.26936787 -0.021604743 0.16949835 0.13079931 -0.27272606 0.22278298

layer.bias f4 [38]
00000000: 886f 533d 5eb0 91bd 7e8c a5bc c930 f8bc
00000010: 7725 fa3c 2aa7 5cbd b258 0abd 7fb3 8f3c
00000020: 20c0 5f3b 362c 853d a3d2 38bd 8205 b23c
00000030: 2e2c a03b 87f5 4abc 4e3b b1bd 54b3 3a3d
00000040: 0ba1 a8bb 9c6e f6bc 72fb 773d c975 843d
00000050: b353 ffbc 0643 a83c 837a c3bd 62b2 8cbc
00000060: 79c9 fc3a 60d6 8cbb 57ae 233d 1ee0 873c
00000070: 67a1 a23d 0b4b 34bb 56e1 3e3d 40d8 f63b
00000080: bb32 b13a 9d29 3f3d c70c 2abc e4fc 32bc
00000090: f2cc 293b d044 213d
0.051620036 -0.071137175 -0.020208593 -0.0302967 0.030535443 -0.053870358 -0.033775993 0.017541645
0.0034141615 0.06502573 -0.045122754 0.021731142 0.004888079 -0.01238764 -0.086538896 0.045581177
-0.005146151 -0.03008204 0.06054253 0.06467778 -0.03116784 0.020539772 -0.09544852 -0.017174903
0.0019286118 -0.0042980164 0.039961185 0.01658636 0.07940941 -0.002751055 0.046601616 0.007533103
0.0013519147 0.046670545 -0.010379023 -0.010924552 0.002590951 0.039372265
